model/019.62746810913086.pt (torch_old, 168315 bytes, 19 tensors)

weight f4 [256, 2]
-0.40559232 -0.5766226 -0.10982434 0.4753279 -0.60277086 0.5001219 -0.16998777 -0.49699193
0.40880895 -0.08271229 0.187464 -0.31711528 -0.3618587 0.6552091 -0.41377598 -0.084468834
-0.21270886 0.42298502 -0.06291347 0.02957069 0.47107995 0.49683052 -0.5004957 -0.48290524
-0.542078 -0.30086184 0.5064337 0.2548756 0.6531385 -0.029460788 -0.10808368 0.46615282
-0.57897764 0.5282131 0.23744987 -0.4775943 0.0006756921 0.6408191 0.40783 0.44710353
-0.05235765 -0.105672345 0.7088912 0.061255217 -0.53530824 0.21113239 0.023597715 0.66789836
0.37565503 0.25299492 0.092074506 -0.4417831 0.32719168 -0.5869183 0.49151036 -0.02090136
0.6543102 -0.11686189 0.69823694 0.13622999 0.45791024 0.27538297 0.107057795 -0.60179454
-0.21191241 -0.29574326 -0.12193705 -0.21700975 -0.5776637 -0.31449416 0.24999666 -0.4736938
-0.4509649 0.1575829 0.32227877 -0.23383841 0.46789002 0.7257561 0.43469402 -0.36050937
-0.33178526 -0.28437573 -0.17286687 0.6826806 -0.17821275 0.12852831 -0.25943682 0.4749226
-0.4604867 0.20453215 0.30597907 0.4359846 -0.21346253 0.4112872 -0.03101631 -0.0420764
0.5219926 0.29999858 0.71361846 0.009078349 -0.21644172 -0.5701923 0.08012414 -0.19004843
0.34368303 0.14004636 0.13002412 -0.07413933 -0.52011615 -0.37522107 0.67580146 -0.70004237
0.64471394 -0.44656843 0.17989637 -0.42664245 -0.37942228 0.14946833 -0.6189592 0.45079562
0.33613196 -0.37506193 -0.44433784 0.7322639 -0.6085791 -0.6092901 -0.3064664 -0.5582247
-0.034301773 0.13515909 -0.6374562 0.11949453 -0.022388142 -0.6432843 -0.32704788 -0.36165297
0.2343396 0.12267107 -0.0449263 -0.5255728 0.24893475 0.37554544 0.36985552 -0.13166517
0.019310324 0.6727718 0.15211284 0.41944322 0.49850917 0.3950653 0.24487954 -0.31740567
0.50972134 -0.32637322 -0.13573518 0.5508332 0.1552966 -0.012111613 -0.521664 0.61626726
-0.5835523 0.6066281 -0.41053563 0.45006502 -0.12452311 -0.6085528 0.25167456 0.093861535
0.0014058511 -0.13677152 -0.44142792 -0.0046005934 0.08756681 0.685069 -0.0903828 -0.048466578
-0.6999179 -0.13763799 0.3592351 -0.45597714 -0.3661534 -0.23054841 -0.13832411 0.21663553
0.69717884 0.401658 0.500231 0.6699104 0.39645687 0.35437685 0.25858182 -0.18551552
0.14864053 0.33285928 -0.57969326 -0.46949828 0.34173048 0.32469216 -0.28966442 0.3942584
0.2995559 0.7458008 0.03598614 -0.44797704 -0.32605633 0.53898495 0.382897 -0.33089316
-0.5057999 -0.6176836 0.019911751 -0.53649944 -0.28335845 0.21708773 -0.6617609 -0.60001606
0.097331725 -0.28196326 -0.5770955 -0.36557323 0.34019625 -0.6453522 0.40919408 -0.66234285
0.46803212 -0.5173695 0.37526768 -0.007148604 -0.05719836 0.34528366 0.26470724 0.447587
0.54319197 0.19653729 0.17985405 -0.5250265 0.04257402 -0.6364991 0.65882933 0.61488056
0.12252053 0.3725261 0.5438323 0.36114082 0.6314204 -0.4245378 -0.10831795 -0.012752173
-0.30197322 -0.3327277 -0.14319147 0.65053564 -0.13209747 -0.3887567 0.35815585 0.5583845
00000000: cca9 cfbe 8a9d 13bf 95eb e0bd 2e5e f33e
00000010: 314f 1abf fd07 003f 4611 2ebe ba75 febe
00000020: 684f d13e 1065 a9bd 90f6 3f3e ef5c a2be
00000030: 8b45 b9be c9bb 273f 72da d3be fffd acbd
00000040: 5ad0 59be 7e91 d83e c7d8 80bd 3b3e f23c
00000050: 6431 f13e 9260 fe3e 7c20 00bf 5b3f f7be
00000060: a0c5 0abf 900a 9abe a4a5 013f 0e7f 823e
00000070: 1634 273f c057 f1bc fa5a ddbd 95ab ee3e
00000080: e137 14bf f938 073f 0f26 733e 3d87 f4be
00000090: ee20 313a b80c 243f 18cf d03e c1ea e43e
000000a0: fa74 56bd be6a d8bd e579 353f c0e6 7a3d
000000b0: f609 09bf 1733 583e ff4f c13c 63fb 2a3f
000000c0: db55 c03e 8d88 813e 8f91 bc3d 6531 e2be
000000d0: ab85 a73e 4740 16bf 3fa7 fb3e 5439 abbc
000000e0: e080 273f 4955 efbd a8bf 323f e07f 0b3e
000000f0: 3673 ea3e fffe 8c3e 1e41 db3d 350f 1abf
00000100: 91ff 58be a96b 97be 22ba f9bd ce37 5ebe
00000110: c5e1 13bf 6105 a1be 20ff 7f3e fe87 f2be
00000120: dfe4 e6be 695d 213e b901 a53e 5673 6fbe
00000130: 488f ef3e 27cb 393f 3790 de3e af94 b8be
00000140: c2df a9be b299 91be 0304 31be 28c4 2e3f
00000150: 677d 36be ed9c 033e e7d4 84be 0e29 f33e
00000160: eac4 ebbe e070 513e 4aa9 9c3e 6039 df3e
00000170: ec95 5abe 3c94 d23e eb15 febc 4e58 2cbd
00000180: 4fa1 053f 6a99 993e b3af 363f 5bbd 143c
00000190: e6a2 5dbe 1ff8 11bf 2018 a43d 0e9c 42be
000001a0: 39f7 af3e 5068 0f3e 0b25 053e 5cd6 97bd
000001b0: 5526 05bf fa1c c0be 5301 2d3f fa35 33bf
000001c0: f90b 253f 9ea4 e4be c136 383e e170 dabe
000001d0: a343 c2be 3a0e 193e 1c74 1ebf afce e63e
000001e0: 7d19 ac3e 1e08 c0be 4080 e3be a675 3b3f
000001f0: d7cb 1bbf 70fa 1bbf 2ae9 9cbe d0e7 0ebf
00000200: 0480 0cbd 2567 0a3e 5430 23bf 8cb9 f43d
00000210: 5667 b7bc 48ae 24bf d272 a7be 942a b9be
00000220: b8f6 6f3e f83a fb3d a404 38bd f08b 06bf
00000230: c0e8 7e3e 7e47 c03e b45d bd3e 3cd3 06be
00000240: af30 9e3c c63a 2c3f 78c3 1b3e 43c1 d63e
00000250: 983c ff3e 0046 ca3e b4c1 7a3e ff82 a2be
00000260: 197d 023f 641a a7be 2afe 0abe 6803 0d3f
00000270: 1206 1f3e c96f 46bc c68b 05bf b1c3 1d3f
00000280: af63 15bf fb4b 1b3f ba31 d2be ec6e e63e
00000290: f905 ffbd 1eca 1bbf 7ddb 803e 7a3a c03d
000002a0: 8944 b83a d50d 0cbe d702 e2be 93c0 96bb
000002b0: 3a56 b33d af60 2f3f 9e1a b9bd e484 46bd
000002c0: d22d 33bf f9f0 0cbe aaed b73e d675 e9be
000002d0: 7578 bbbe e214 6cbe d6a4 0dbe b4d5 5d3e
000002e0: 507a 323f 1ea6 cd3e 240f 003f 3f7f 2b3f
000002f0: 65fc ca3e e270 b53e d664 843e c8f7 3dbe
00000300: 3935 183e 886c aa3e c766 14bf 1462 f0be
00000310: 4cf7 ae3e 0d3e a63e e54e 94be 3ddc c93e
00000320: 645f 993e cdec 3e3f 3466 133d 3f5d e5be
00000330: dbf0 a6be ebfa 093f 130b c43e d46a a9be
00000340: 1a7c 01bf 8320 1ebf f81d a33c 0758 09bf
00000350: 5c14 91be 3f4c 5e3e 2a69 29bf a79a 19bf
00000360: db55 c73d 7d5d 90be 88bc 13bf 6a2c bbbe
00000370: 342e ae3e cd35 25bf e381 d13e 4d8f 29bf
00000380: e8a1 ef3e 5472 04bf 1623 c03e d63e eabb
00000390: d448 6abd 05c9 b03e b587 873e 202a e53e
000003a0: a10e 0b3f 1241 493e a92b 383e 2368 06bf
000003b0: 1862 2e3d 9bf1 22bf 0aa9 283f d068 1d3f
000003c0: 0bec fa3d bebb be3e 9838 0b3f 73e7 b83e
000003d0: c4a4 213f 055d d9be cdd5 ddbd 7dee 50bc
000003e0: 3c9c 9abe 495b aabe c9a0 12be 8189 263f
000003f0: 8f44 07be 1e0b c7be 3460 b73e 49f2 0e3f

bias f4 [256]
0.5259691 0.1312027 -0.35215694 -0.08858624 0.21380158 -0.25319836 -0.4337806 -0.5118787
-0.6099171 0.08218826 -0.32196715 0.7074934 -0.41825655 0.50860864 -0.19669385 0.4750756
-0.07645815 0.33366477 -0.36021388 0.03783326 0.44019547 0.6072854 -0.45562887 -0.60085374
0.2766999 -0.17044412 0.42145833 0.68363214 -0.1276364 -0.69010454 0.10387474 0.24906664
0.63096404 -0.012143942 -0.3423884 -0.20759466 0.28532642 -0.118490055 -0.348353 0.51762205
-0.50990134 0.3988354 0.0029208902 0.39383703 0.19901408 -0.11415114 0.62310696 -0.15782587
-0.18535951 0.41700363 0.16128364 0.11155435 0.17756896 -0.31029475 -0.5272957 0.47478604
0.0392033 -0.42303902 -0.42922798 0.017063307 0.13914903 0.5510543 0.36322528 -0.5781549
-0.42842552 0.5280227 -0.53552353 0.51600987 0.367154 0.23927107 -0.6092876 0.36726952
-0.13248381 -0.59044194 0.27009678 0.13741924 -0.6211202 -0.1376981 -0.55741245 0.5509784
0.44315892 0.5785579 0.33477318 -0.039638333 -0.5057054 0.49225768 -0.2916355 -0.06552924
0.35859427 -0.4838925 0.04270487 0.4663584 0.47715676 0.5840814 0.075626306 0.04078
-0.56170917 0.49910656 -0.6206341 0.18887246 -0.6060146 -0.33884713 -0.3052736 0.32428244
-0.5483 0.62554985 0.36378488 -0.37895063 0.7232903 -0.18096745 -0.5116015 -0.46409884
-0.09574805 -0.35655105 -0.14359766 -0.40449753 0.4106329 -0.43606687 0.6088738 0.38759637
0.67651767 0.34097785 -0.3033774 -0.35221642 -0.08098148 0.10264131 0.10213632 0.45405358
-0.41751167 0.5299061 -0.19413458 -0.30657485 -0.62329 0.041205186 0.56246763 0.1521193
-0.61660224 -0.5558905 -0.56591445 -0.14868216 -0.47693798 -0.2592164 -0.27894646 0.21980637
-0.35231197 -0.64759225 0.01445944 -0.010150697 -0.07015116 0.25849018 0.15302193 0.3637152
-0.50838244 0.31514925 -0.5088064 0.1708802 0.30191514 0.056142148 -0.589284 0.51388675
-0.350821 -0.60189265 0.44158557 -0.60660917 -0.3490767 0.45111215 0.40681046 -0.36621398
0.6795378 0.71058935 0.1421808 0.5211165 -0.31402686 0.67453974 -0.59814435 -0.07172019
-0.66698045 0.24964072 0.33461526 -0.20451726 0.13801411 0.4724056 -0.6268541 -0.22659846
0.66272014 -0.1904943 0.42674232 0.28647673 0.12225029 -0.5105471 -0.43759152 -0.3562145
-0.67333066 -0.71085393 0.62242883 0.57921255 0.08437693 0.57448095 -0.5151736 -0.50482476
-0.1516241 -0.41865003 0.20513631 0.23718978 -0.4097005 0.1221108 0.2589992 0.45745605
0.512394 -0.35554695 0.12825085 0.6963532 -0.52524847 -0.4533777 -0.46206164 0.5237836
0.535562 0.39080566 0.6672778 -0.41144514 0.43916276 0.44425654 -0.48496795 0.45689696
-0.3811671 0.5657814 -0.67029136 0.30424613 0.33896464 0.47488695 -0.41068238 -0.0104528405
-0.015889075 0.2794612 0.060737886 0.34629434 -0.61721367 0.048036736 -0.25244996 0.4008266
0.09404774 0.14697392 0.05207846 0.12876046 0.32810315 0.526092 0.46974674 0.22630586
-0.6563639 0.007337026 0.1289542 0.06909636 -0.59395105 -0.62062675 -0.44228885 0.6938609
00000000: e9a5 063f 005a 063e ea4d b4be b46c b5bd
00000010: cdee 5a3e 37a3 81be 7e18 debe 7c0a 03bf
00000020: 8723 1cbf 5252 a83d e1d8 a4be 4a1e 353f
00000030: b925 d6be 2d34 023f 1d6a 49be 1c3d f33e
00000040: 1796 9cbd 1cd6 aa3e f46d b8be 0cf7 1a3d
00000050: 4d61 e13e 0e77 1b3f 3048 e9be 8dd1 19bf
00000060: 9cab 8d3e e788 2ebe 63c9 d73e 8402 2f3f
00000070: 1eb3 02be b1aa 30bf 48bc d43d 530b 7f3e
00000080: dc86 213f 62f7 46bc 884d afbe b293 54be
00000090: 4e16 923e eaaa f2bd 535b b2be e182 043f
000000a0: e588 02bf 2734 cc3e 686c 3f3b 02a5 c93e
000000b0: 59ca 4b3e 13c8 e9bd f083 1f3f 1b9d 21be
000000c0: e2ce 3dbe 8081 d53e 8a27 253e 9b76 e43d
000000d0: a3d4 353e f4de 9ebe dafc 06bf 2817 f33e
000000e0: a493 203d 9298 d8be c5c3 dbbe 59c8 8b3c
000000f0: 157d 0e3e e511 0d3f aaf8 b93e f601 14bf
00000100: 975a dbbe 7f2c 073f 1218 09bf 3919 043f
00000110: 9cfb bb3e 7a03 753e 46fa 1bbf c00a bc3e
00000120: d6a9 07be 3427 17bf 204a 8a3e a1b7 0c3e
00000130: bc01 1fbf bb00 0dbe 95b2 0ebf ec0c 0d3f
00000140: bae5 e23e 5f1c 143f 6467 ab3e ce5b 22bd
00000150: e975 01bf 3309 fc3e 4051 95be 3234 86bd
00000160: ab99 b73e c2c0 f7be 4deb 2e3d 87c6 ee3e
00000170: e44d f43e 5c86 153f f7e1 9a3d ee08 273d
00000180: 2ccc 0fbf e58a ff3e e0e1 1ebf c867 413e
00000190: c623 1bbf 5f7d adbe d24c 9cbe 5908 a63e
000001a0: 645d 0cbf 0924 203f 0342 ba3e d105 c2be
000001b0: 8e29 393f 884f 39be 51f8 02bf 5d9e edbe
000001c0: 8e17 c4bd dc8d b6be 440b 13be 4d1a cfbe
000001d0: 7a3e d23e 2844 dfbe 27df 1b3f 0873 c63e
000001e0: 4330 2d3f a694 ae3e 4854 9bbe b655 b4be
000001f0: 9ed9 a5bd 9b35 d23d d92c d13d b679 e83e
00000200: 17c4 d5be eda7 073f 37cb 46be 61f7 9cbe
00000210: ef8f 1fbf c5c6 283d e1fd 0f3f 29c5 1b3e
00000220: a5d9 1dbf d74e 0ebf c5df 10bf 2340 18be
00000230: 3731 f4be 03b8 84be 12d2 8ebe ec14 613e
00000240: 3c62 b4be 9bc8 25bf 49e7 6c3c 1c4f 26bc
00000250: 69ab 8fbd d358 843e c8b1 1c3e e138 ba3e
00000260: 5a25 02bf 3e5b a13e 2341 02bf 38fb 2e3e
00000270: 9f94 9a3e 4ff5 653d 51db 16bf 158e 033f
00000280: cf9e b3be a315 1abf 8117 e23e bd4a 1bbf
00000290: 2eba b2be 2cf8 e63e 7649 d03e 6680 bbbe
000002a0: 30f6 2d3f 2fe9 353f d897 113e e467 053f
000002b0: 21c8 a0be a3ae 2c3f fd1f 19bf 09e2 92bd
000002c0: 3bbf 2abf d1a1 7f3e b152 ab3e f96c 51be
000002d0: 9253 0d3e 26df f13e 8379 20bf 6d09 68be
000002e0: 07a8 293f f010 43be f87d da3e 14ad 923e
000002f0: 5c5e fa3d 37b3 02bf ff0b e0be bf61 b6be
00000300: 665f 2cbf 86fa 35bf 7f57 1f3f 4647 143f
00000310: d0cd ac3d 2f11 133f 6be2 03bf 323c 01bf
00000320: 5943 1bbe 4c59 d6be 410f 523e e1e1 723e
00000330: 44c4 d1be 3a15 fa3d 8b9b 843e ae37 ea3e
00000340: 412c 033f 400a b6be 3154 033e 3444 323f
00000350: af76 06bf 1f21 e8be 5893 ecbe af16 063f
00000360: 971a 093f ae17 c83e b8d2 2a3f f0a8 d2be
00000370: f1d9 e03e 9875 e33e b84d f8be 66ee e93e
00000380: 5628 c3be 0dd7 103f 3798 2bbf 26c6 9b3e
00000390: c68c ad3e 6224 f33e f644 d2be 6442 2bbc
000003a0: ce29 82bc 8a15 8f3e 4ac8 783d 7e4d b13e
000003b0: b701 1ebf 2bc2 443d 1f41 81be 2539 cd3e
000003c0: 1a9c c03d 5580 163e 3950 553d c8d9 033e
000003d0: 23fd a73e f7ad 063f a582 f03e b9bc 673e
000003e0: 7707 28bf 6f6b f03b 920c 043e 6482 8d3d
000003f0: 2d0d 18bf 65e1 1ebf af73 e2be dea0 313f

weight f4 [64, 256]
0.08636622 -0.043189116 -0.06720839 0.022365132 0.06593044 -0.007843176 0.03730464 0.07312585
0.039388373 0.051732667 -0.036442906 0.09620717 0.03194631 -0.0130824605 -0.020992097 0.015866477
0.020037254 0.068485 0.008082578 -0.023168225 0.113658585 -0.016570544 0.057463072 -0.039739452
0.07312091 0.015175744 0.100631885 0.04157913 0.039210275 0.0025657632 0.0633639 0.063875675
0.070934996 0.026217114 -0.014478164 0.0068187965 -0.019611342 0.0023434937 -0.047058858 -0.014171701
0.04716778 -0.042919964 -0.044920452 0.02478879 0.057801187 -0.06316968 -0.02652506 -0.007944626
-0.03395288 0.07310724 0.04483464 0.024154073 0.07813398 0.0056896484 0.05729629 0.09213005
0.06243766 0.037954714 -0.009932892 0.02335379 0.028541205 -0.0037316394 0.068174124 0.055332843
0.04072993 -0.052311294 0.027439276 0.114943735 0.011446826 0.11313167 0.0010929024 0.028409587
-0.057127092 -0.035594314 -0.0091336 0.10543074 -0.0139989415 0.03881122 0.004059708 -0.023726333
-0.022561932 -0.017599953 0.08017687 0.03444484 0.018150266 0.071813755 -0.025734115 0.04415603
0.033276763 0.008457769 0.04974072 -0.06428761 -0.019703986 -0.017083965 0.06515703 0.044549976
0.021125825 0.013049292 0.004178169 -0.006154494 -0.052478723 0.08570813 0.023550877 0.08185771
0.059089147 0.08899745 0.058613002 0.0010440556 0.06950257 -0.012254937 0.10583466 -0.0071215695
0.04988247 -0.0072728773 -0.035391737 -0.043548018 0.082126245 -0.00091740116 0.036309578 0.013787257
-0.041048665 0.045553766 0.057840575 0.026612254 0.0035390477 0.0200343 0.103079766 -0.041074622
0.0747246 0.07790643 -0.0014860347 0.038935322 0.0027643102 -0.034021847 -0.004802054 -0.024575315
0.014841875 0.07547421 0.0001741295 0.02392829 0.0421285 0.10275122 -0.01909161 0.020272978
0.032961566 -0.0054468773 0.04526177 0.0055981535 0.08336931 -0.026892282 0.013270734 0.067247584
-0.022826161 -0.034465306 -0.079422966 0.045482192 0.003719736 0.025471747 0.03106145 -0.056335505
-0.07327422 0.005506801 0.064401574 -0.026185289 0.004944775 -0.0575316 -0.012532621 0.03596809
0.09676158 0.060463417 0.012074637 0.08149326 0.07089748 0.017300077 0.03696169 -0.003396727
0.0578716 0.03408733 -0.0043780003 0.11722527 0.045673575 0.020695463 -0.04452454 0.1013632
0.040304154 0.009467081 0.030183999 -0.031923436 0.056863748 0.025534963 0.08078719 0.0688846
0.04999935 0.0140003385 0.025003273 0.046449557 0.079749994 0.031318642 0.07172037 0.06648577
-0.043481365 0.09648473 -0.038108267 0.100157626 0.016820837 0.10785432 -0.01848212 0.09778522
0.02324095 0.048668556 -0.016708583 0.10250962 0.019541575 0.0233325 0.055941496 0.100366436
0.06078182 0.055425767 -0.015471284 0.041518036 0.03791297 0.024182927 0.020688817 -0.02010062
0.034962002 0.044113193 0.10520569 0.049959272 -0.057900693 0.0779442 -0.019765865 -0.051242623
0.00088227 0.022696476 0.0035988805 0.06741264 -0.035548475 -0.022105888 0.047613304 0.058409862
-0.0031171304 -0.03728919 -0.014025759 0.096253864 0.03638275 0.0919655 0.012848444 0.0038787185
-0.01679626 -0.06561545 0.034680605 0.03349613 0.012780163 0.039807804 0.08112062 0.036050014
00000000: c6e0 b03d 12e7 30bd 8da4 89bd 1537 b73c
00000010: 8a06 873d aa80 00bc c0cc 183d 01c3 953d
00000020: b455 213d a2e5 533d 2845 15bd 4408 c53d
00000030: 22da 023d d157 56bc 9ef7 abbc 6afa 813c
00000040: 2b25 a43c dd41 8c3d ca6c 043c 4acb bdbc
00000050: d5c5 e83d f3be 87bc 665e 6b3d d6c5 22bd
00000060: 6ac0 953d afa3 783c 1718 ce3d e14e 2a3d
00000070: f49a 203d 5d26 283b efc4 813d 40d1 823d
00000080: 5e46 913d 46c5 d63c d235 6dbc 3670 df3b
00000090: f7a7 a0bc 4d95 193b cac0 40bd 6c30 68bc
000000a0: 0133 413d d8cc 2fbd 82fe 37bd dc11 cb3c
000000b0: f0c0 6c3d 1b5f 81bd 154b d9bc 2d2a 02bc
000000c0: 2d12 0bbd 40b9 953d 87a4 373d c3de c53c
000000d0: b504 a03d 3b70 ba3b 84af 6a3d aeae bc3d
000000e0: a2be 7f3d 6776 1b3d 92bd 22bc 7350 bf3c
000000f0: 3fcf e93c 858e 74bb e09e 8b3d b1a4 623d
00000100: 6dd4 263d 5e44 56bd 55c8 e03c 9f67 eb3d
00000110: 788b 3b3c 94b1 e73d b83f 8f3a 39bb e83c
00000120: 19fe 69bd 58cb 11bd 18a5 15bc 12ec d73d
00000130: d15b 65bc 84f8 1e3d 4d07 853b ba5d c2bc
00000140: cdd3 b8bc c72d 90bc c533 a43d 0816 0d3d
00000150: deaf 943c 1713 933d 5ad0 d2bc f4dc 343d
00000160: 374d 083d 7492 0a3c edbc 4b3d 39a9 83bd
00000170: 416a a1bc acf3 8bbc 0d71 853d 097a 363d
00000180: 1110 ad3c b3cc 553c 06e9 883b a3ab c9bb
00000190: eef3 56bd be87 af3d c5ed c03c 04a5 a73d
000001a0: 7607 723d 4c44 b63d 3014 703d b1d8 883a
000001b0: 5d57 8e3d eec8 48bc d8bf d83d 0e5c e9bb
000001c0: 9051 4c3d 5151 eebb edf6 10bd 685f 32bd
000001d0: ce31 a83d c07d 70ba 5ab9 143d f2e3 613c
000001e0: a522 28bd 9696 3a3d 3dea 6c3d f101 da3c
000001f0: 5eef 673b f91e a43c 7c1b d33d dd3d 28bd
00000200: 3609 993d 688d 9f3d 0dc7 c2ba a57a 1f3d
00000210: 6e29 353b 7e5a 0bbd 8c5a 9dbb 2c52 c9bc
00000220: 562b 733c 3992 9a3d 8896 3639 4305 c43c
00000230: ef8e 2c3d 3b6f d23d 0266 9cbc 8413 a63c
00000240: b502 073d b87b b2bb 6864 393d b770 b73b
00000250: 87bd aa3d 344d dcbc 7e6d 593c 1ab9 893d
00000260: eefd babc 7e2b 0dbd 82a8 a2bd 894b 3a3d
00000270: d0c6 733b 20aa d03c 9574 fe3c 0fc0 66bd
00000280: cb10 96bd 6572 b43b f9e4 833d 8882 d6bc
00000290: c707 a23b 41a6 6bbd 9f55 4dbc 4753 133d
000002a0: ef2a c63d 7da8 773d b3d4 453c f0e5 a63d
000002b0: b332 913d e4b8 8d3c 2465 173d 9f9b 5ebb
000002c0: c50a 6d3d 289f 0b3d 5475 8fbb cd13 f03d
000002d0: 3714 3b3d 8889 a93c 5d5f 36bd 8297 cf3d
000002e0: f815 253d d11b 1b3c 6f44 f73c 26c2 02bd
000002f0: f6e9 683d b32e d13c c173 a53d 5f13 8d3d
00000300: 1ecc 4c3d ad61 653c aad3 cc3c e441 3e3d
00000310: f753 a33d fa47 003d 21e2 923d b129 883d
00000320: 8419 32bd c999 c53d 6a17 1cbd 711f cd3d
00000330: dacb 893c bae2 dc3d d167 97bc 9e43 c83d
00000340: ce63 be3c ae58 473d 70e0 88bc 90f0 d13d
00000350: a715 a03c cd23 bf3c e922 653d eb8c cd3d
00000360: 5cf6 783d 2106 633d 457b 7dbc d10e 2a3d
00000370: a14a 1b3d 461b c63c 987b a93c 0eaa a4bc
00000380: 5134 0f3d 09b0 343d 1576 d73d 18a2 4c3d
00000390: 4729 6dbd 35a1 9f3d 06ec a1bc c9e3 51bd
000003a0: 2348 673a f6ed b93c 32db 6b3b a30f 8a3d
000003b0: 479b 11bd 6817 b5bc 2b06 433d 2e3f 6f3d
000003c0: c548 4cbb 8dbc 18bd 4ccc 65bc bf20 c53d
000003d0: 1406 153d 6858 bc3d 4882 523c 1932 7e3b
000003e0: 4f98 89bc 6561 86bd 400d 0e3d 3d33 093d
000003f0: e463 513c 820d 233d 9122 a63d 2ea9 133d

bias f4 [64]
0.078493945 0.025407868 0.018438673 -0.035463165 -0.015168157 0.014463987 0.0073399562 0.0929009
0.07722564 -0.00830852 -0.053067166 -0.0168448 -0.044640426 -0.008800666 -0.012030454 0.03729494
0.024734532 -0.026214935 -0.00973113 0.0061178096 0.056678437 -0.05078364 0.035668984 -0.008394797
0.052855175 0.013898415 0.049875334 -0.036685627 0.010467675 0.0656875 0.0062166527 -0.018272148
0.038023304 0.033078313 0.009534172 0.0036444685 -0.016898884 -0.0124152005 0.049656007 0.015858311
0.053643133 0.019962411 -0.069783874 -0.012107514 0.034239557 0.0061297417 0.01575124 -0.052842718
-0.0054208767 0.095532894 0.006782563 -0.03601541 0.031528637 0.0918015 -0.0178252 0.0021578742
-0.025180107 0.026760908 0.047782492 0.039956577 0.039830912 0.027512826 0.052220542 0.041877046
00000000: 6fc1 a03d 2924 d03c b30c 973c d341 11bd
00000010: dd83 78bc 5cfa 6c3c 0484 f03b d442 be3d
00000020: 7a28 9e3d 7520 08bc f55c 59bd 1bfe 89bc
00000030: e1d8 36bd ab30 10bc 621b 45bc 94c2 183d
00000040: 13a0 ca3c b4c0 d6bc 516f 1fbc e877 c83b
00000050: a627 683d 8202 50bd a419 123d 558a 09bc
00000060: ab7e 583d 2db6 633c 144a 4c3d ab43 16bd
00000070: 9c80 2b3c 2b87 863d 10b5 cb3b 79af 95bc
00000080: 53be 1b3d 207d 073d 3735 1c3c 09d8 6e3b
00000090: 876f 8abc 2069 4bbc 1964 4b3d 4ae9 813c
000000a0: e7b8 5b3d 3688 a33c d9ea 8ebd 985e 46bc
000000b0: c73e 0c3d 00dc c83b bf08 813c 9b71 58bd
000000c0: 9ca1 b1bb c0a6 c33d 4340 de3b e584 13bd
000000d0: 2c24 013d 6d02 bc3d 2706 92bc 1f6b 0d3b
000000e0: 8346 cebc b139 db3c 93b7 433d 82a9 233d
000000f0: bd25 233d 9462 e13c 35e5 553d 4487 2b3d

weight f4 [32, 64]
0.021711277 -0.006843442 0.004247628 -0.06426921 0.0863664 -0.015373812 -0.080698214 -0.009302066
0.036656052 -0.029419476 0.12630661 0.059456833 -0.08190482 -0.027522134 -0.11726972 0.056833033
0.0007879896 0.019915678 0.14345047 0.0061294246 0.016164131 0.07987898 0.014649163 -0.012723886
-0.08168678 -0.086121045 0.1500889 0.0012428132 0.036352526 -0.103033535 -0.017561788 -0.10703096
0.076451056 -0.009004697 0.08169567 0.055733614 -0.037302446 -0.04656155 0.013845585 -0.025306955
0.07377608 0.07770612 -0.020088673 4.2060332e-05 0.091392264 0.097676 0.043723255 0.004398597
-0.00023632537 0.095969796 0.05336704 -0.07031726 0.14517836 0.00018416886 -0.062944114 0.06386037
0.13095482 0.016876303 0.06909224 -0.066145465 0.10361543 -0.041660808 0.0105318995 -0.06448352
-0.12450951 0.09785017 -0.01921478 0.011766392 0.04618572 -0.123052076 -0.088669896 0.06451662
-0.02255019 -0.089624785 0.007886726 -0.0069948565 0.11548715 -0.10052356 0.050836798 0.050745733
-0.06442165 -0.028306143 -0.030334545 -0.004848202 -0.020109896 -0.010564543 0.023673346 0.014107878
-0.05288447 -0.016024329 0.03950152 0.0036419716 0.062248662 0.10788384 -0.10712521 0.059004016
0.0035113 -0.111137696 -0.0822379 0.00034365826 -0.015046828 -0.015301919 0.09804495 -0.03530603
0.028710075 -0.035118822 -0.038325213 -0.013861018 -0.099376366 0.02788231 0.10225827 -0.059440974
-0.0016566789 0.048826423 0.031905457 0.038066994 0.096284226 -0.010626263 -0.009179442 -7.579234e-06
0.02660215 -0.05692569 0.12618314 -0.06340999 -0.074946165 0.1052746 0.10872713 0.035410274
-0.011242506 -0.08947478 0.053899437 0.06016011 0.09451136 0.065217815 0.088354915 0.04992598
-0.0809966 -0.02427008 -0.08447261 0.015736915 0.15324117 0.10789458 0.034950793 0.09424568
-0.021889074 0.11426863 0.14952253 -0.03708488 0.049437426 0.070105605 0.086735465 -0.014489068
0.08813811 0.05501667 -0.037374906 0.07148795 0.06132348 0.02864792 0.11124754 -0.03059453
0.16251121 0.07757978 0.07155439 -0.014542941 -0.0047611995 0.05575889 0.0102952365 -0.10577973
0.14785787 -0.058219664 -0.07370462 0.0012700743 -0.038539145 0.033288173 0.091049105 -0.009915167
0.015072498 -0.015945852 -0.076060645 0.0091285 -0.06751583 -0.12769327 0.09643334 0.014077386
-0.020620504 -0.11721307 -0.07515782 -0.08111668 0.08303716 -0.09758074 0.05033148 -0.033455014
-0.004283018 0.0044790544 -0.00105912 -0.032577958 -0.05158156 0.004154732 -0.003338867 -0.01996814
-0.0039213775 0.014198737 -0.013855697 0.0012404155 -0.0042296452 0.00021038688 -0.046144363 -0.0014949752
-0.012137741 -0.00014196377 0.0040601986 -0.0021226886 0.00015527301 0.0035066837 -0.017850751 -0.004432563
0.003882338 -0.0045834966 0.0021633669 0.00011795288 -0.024213657 -0.00091576425 -0.0036421374 -0.0013477975
0.00069519633 -1.6829377e-05 0.00044660192 -0.018844094 -0.0001161947 -0.0042758756 -0.027400285 0.034460463
-0.0034028555 -0.0009783168 -0.026278434 -0.04897962 0.028474206 -0.0186262 -0.00088855904 -0.048586972
-0.0047274763 0.0041041486 -0.028158998 -0.0028718053 -0.00087738706 -0.016261315 -0.0047064144 0.004360173
-0.017117187 -0.0007364084 0.002866132 0.004715148 0.014337661 0.00356426 -0.033219405 -0.004462129
00000000: d9db b13c f43e e0bb b02f 8b3b 939f 83bd
00000010: dee0 b03d 71e2 7bbc 1b45 a5bd b167 18bc
00000020: a824 163d 1d01 f1bc 8556 013e 0289 733d
00000030: b7bd a7bd 1976 e1bc 1b2b f0bd c1c9 683d
00000040: 1691 4e3a 3426 a33c aee4 123e 57d9 c83b
00000050: a46a 843c 9797 a33d 0b03 703c d977 50bc
00000060: 664b a7bd 3b60 b0bd e8b0 193e e4e5 a23a
00000070: 63e6 143d 3f03 d3bd bddd 8fbc 0c33 dbbd
00000080: 5f92 9c3d 7088 13bc 0f50 a73d ee48 643d
00000090: 73ca 18bd 53b7 3ebd 98d8 623c 8850 cfbc
000000a0: ea17 973d 6324 9f3d 0091 a4bc f069 3038
000000b0: de2b bb3d 5b0a c83d 2817 333d 1b22 903b
000000c0: 1cce 77b9 d08b c43d 6697 5a3d 7f02 90bd
000000d0: a3a9 143e 741d 4139 d8e8 80bd 3ac9 823d
000000e0: 0519 063e 2c40 8a3c 3b80 8d3d 4677 87bd
000000f0: 5434 d43d 86a4 2abd fd8d 2c3c f00f 84bd
00000100: d8fe febd ac65 c83d 5068 9dbc d3c7 403c
00000110: 3d2d 3d3d ba02 fcbd 9098 b5bd 4a21 843d
00000120: 2dbb b8bc 338d b7bd 5437 013c 1c35 e5bb
00000130: 8784 ec3d 4cdf cdbd 3f3a 503d c2da 4f3d
00000140: 7fef 83bd 49e2 e7bc 2780 f8bc abdd 9ebb
00000150: 82bd a4bc e816 2dbc 9bee c13c bb24 673c
00000160: 639d 58bd 7445 83bc 59cc 213d 25ae 6e3b
00000170: 74f8 7e3d 34f2 dc3d 7664 dbbd 32ae 713d
00000180: d71d 663b 299c e3bd 586c a8bd 082d b439
00000190: f986 76bc e6b4 7abc cacb c83d 0e9d 10bd
000001a0: 6431 eb3c c1d8 0fbd e6fa 1cbd 5319 63bc
000001b0: d685 cbbd 7169 e43c c96c d13d 6178 73bd
000001c0: eb24 d9ba 37fe 473d 4caf 023d 23ec 1b3d
000001d0: aa30 c53d c719 2ebc 5f65 16bc 2051 feb6
000001e0: c1ec d93c ea2a 69bd 2736 013e 19dd 81bd
000001f0: 607d 99bd 369a d73d 54ac de3d 5d0a 113d
00000200: 7d32 38bc 8e3e b7bd a8c5 5c3d 736a 763d
00000210: 2c8f c13d eb90 853d 6cf3 b43d 2f7f 4c3d
00000220: 8ce1 a5bd 0cd2 c6bc faff acbd b4ea 803c
00000230: 41eb 1c3e d5f7 dc3d 9028 0f3d e103 c13d
00000240: b750 b3bc ac05 ea3d 6f1c 193e 51e6 17bd
00000250: e67e 4a3d 8793 8f3d 5da2 b13d 8e63 6dbc
00000260: c181 b43d 2959 613d 6e16 19bd 4668 923d
00000270: 542e 7b3d 0baf ea3c c0d5 e33d 61a1 fabc
00000280: 5769 263e 26e2 9e3d 1c8b 923d 8445 6ebc
00000290: d603 9cbb 6f63 643d 5aad 283c 0ba3 d8bd
000002a0: 0e68 173e be77 6ebd 73f2 96bd 9f78 a63a
000002b0: 39db 1dbd 2e59 083d f477 ba3d 3973 22bc
000002c0: a3f2 763c e0a0 82bc afc5 9bbd b48f 153c
000002d0: bd45 8abd 06c2 02be d87e c53d d6a4 663c
000002e0: 55ec a8bc 680d f0bd 58ec 99bd 8020 a6bd
000002f0: 630f aa3d 69d8 c7bd 6228 4e3d 2008 09bd
00000300: 8f58 8cbb 08c5 923b 2cd2 8aba 7770 05bd
00000310: 3047 53bd 6b24 883b e5d0 5abb 3a94 a3bc
00000320: e67e 80bb d2a1 683c 0103 63bc 7095 a23a
00000330: d698 8abb 4c9b 5c39 df01 3dbd 0bf3 c3ba
00000340: 60dd 46bc 1cdc 14b9 6a0b 853b ce1c 0bbb
00000350: c8d0 2239 64d0 653b bd3b 92bc 093f 91bb
00000360: d36e 7e3b 2831 96bb 46c7 0d3b 785d f738
00000370: b85b c6bc e60f 70ba edb0 6ebb 94a8 b0ba
00000380: d63d 363a d02c 8db7 e525 ea39 ee5e 9abc
00000390: 8ead f3b8 a51c 8cbb 9076 e0bc 6a26 0d3d
000003a0: 7102 5fbb dd3a 80ba df45 d7bc db9e 48bd
000003b0: bd42 e93c f995 98bc 30ee 68ba 2203 47bd
000003c0: f2e8 9abb 187c 863b b3ad e6bc e634 3cbb
000003d0: 7300 66ba 7336 85bc 4438 9abb c8df 8e3b
000003e0: 5839 8cbc 880b 41ba b7d5 3b3b 8781 9a3b
000003f0: 82e8 6a3c 5c96 693b 1211 08bd 0d37 92bb

bias f4 [32]
-0.036083803 0.08297769 0.1099886 0.014416878 0.00538596 -0.08800079 -0.03106418 -0.03166417
0.08442051 0.0692097 0.08908286 -0.04455686 -0.0013647341 -0.06917826 0.068704896 0.015415714
0.0147328125 0.12505966 0.010172244 -0.08149812 0.0887742 0.0726045 0.07969351 0.09091809
0.10601875 -0.044804007 0.15424116 -0.025139533 -0.060865812 0.029376443 0.012316507 -0.019946272
00000000: 9ccc 13bd 35f0 a93d b441 e13d c534 6c3c
00000010: b57c b03b c239 b4bd 4f7a febc 4ab2 01bd
00000020: a9e4 ac3d d1bd 8d3d 1371 b63d 4181 36bd
00000030: e1e0 b2ba 55ad 8dbd 27b5 8c3d 3192 7c3c
00000040: e561 713c a40f 003e 7ca9 263c 7de8 a6bd
00000050: 3fcf b53d abb1 943d 5a36 a33d 4333 ba3d
00000060: 5c20 d93d 6884 37bd 65f1 1d3e 6cf1 cdbc
00000070: 6e4e 79bd dea6 f03c 2dcb 493c 5d66 a3bc

weight f4 [8, 32]
0.14846303 -0.08247418 0.04720933 0.026042392 -0.056172784 0.072902024 0.19000149 -0.064510055
-0.1262421 0.21346048 -0.011090696 -0.043993965 0.056249477 -0.1456894 -0.060713153 0.052127372
-0.07610987 0.15626836 -0.0076541533 0.07065738 -0.1250676 0.038960446 0.06571368 -0.030542038
0.065912455 -0.106503375 -0.035975605 0.16622575 0.07760894 0.1510186 -0.098883376 0.058443982
0.10888513 -0.023606254 0.0256568 -0.0016099998 0.095309585 -0.097356774 0.12351602 0.10863907
-0.060594838 0.12009724 -0.107226685 0.050224416 -0.030363414 0.10422089 -0.08852565 0.03868171
-0.10476916 0.15282466 0.00052940834 0.08982731 -0.14301594 0.0045652348 -0.11498571 0.012120004
0.13940975 0.015144472 0.09620167 -0.031756416 -0.09906908 -0.14343299 -0.14315447 0.103438415
-0.012971313 -0.05909424 0.03825492 0.00028724075 0.14528826 0.1909944 -0.11054954 0.10622009
-0.119258486 0.003714328 -0.07228441 0.16015898 -0.14415506 0.027666876 0.058983974 -0.14784564
0.11439282 -0.09533381 -0.0068744714 0.00064979924 0.05031605 -0.053274088 0.15391284 0.093559414
0.1959729 -0.1410053 -0.20045073 0.03513111 0.1926997 0.13182338 0.063829795 -0.0116296355
-0.14020556 0.0479351 0.13198408 0.09568775 -0.044497248 -0.1308017 0.06294589 0.069363035
0.15248966 -0.1662005 -0.07031564 -0.06494731 0.12937205 0.14850435 -0.04632385 -0.084044635
0.07595334 0.04407565 0.044533294 -0.0016567508 -0.048400864 -0.0025374196 0.023974454 -0.13935529
0.096715905 0.024623359 0.12551735 0.15809149 0.14221156 -0.027795073 0.006599564 0.09923993
-0.014956143 0.035632342 -0.14103326 0.026464937 0.12125068 0.13586508 -0.13723303 -0.080514014
-0.05690258 -0.04370969 -0.19103931 -0.09973721 0.07611543 -0.07852197 -0.13880053 0.06467627
0.15192103 0.10664175 0.0007058147 0.108478956 -0.14935823 -0.004426658 0.08779308 -0.07965368
0.15905835 -0.15173641 -0.05445962 0.03903152 -0.12100523 -0.06662563 0.07098776 0.1736339
0.026055342 -0.01580089 -0.13049704 -0.0010766344 -0.094318375 -0.12087794 -0.0769769 -0.03991546
-0.011291264 -0.13990931 0.01631425 -0.04238044 -0.059943017 0.09770032 0.07603375 -0.097828925
-0.009357434 -0.03505105 -0.04777381 0.11461811 -0.04312845 -0.04527998 -0.08870828 0.15433025
0.17888969 0.012370796 0.18990955 -0.12194772 -0.008201988 0.09218577 0.18535003 -0.035330165
0.12009478 -0.13429408 0.09478539 0.008786527 0.1092826 -0.15051848 0.09696582 -0.17704631
-0.03384803 0.10225386 -0.16734956 0.03321449 -0.13316739 0.01709507 0.020010613 -0.08370933
0.12511215 -0.056094036 -0.019079883 0.096922986 -0.031613577 -0.002410613 -0.011384539 -0.08098301
-0.15193067 -0.044364627 -0.051902596 -0.124470815 -0.08768082 0.05040696 -0.04338132 -0.000121389574
-0.066447325 -0.0730871 0.08302312 -0.0017786816 0.157652 -0.026825273 0.17863512 0.20544162
0.18702832 0.008133898 -0.0522978 -0.008198947 -0.11760324 0.013231512 -0.09937553 0.14967638
-0.12203321 0.19845441 0.09823242 0.13585295 0.0024212599 -0.0014854091 -0.013462734 0.18482766
-0.010378481 0.088344574 0.013502438 -0.09487182 -0.037519783 0.10730596 0.17178667 -0.008561009
00000000: b106 183e 39e8 a8bd 925e 413d db56 d53c
00000010: 6f15 66bd a84d 953d c08f 423e d91d 84bd
00000020: 9c45 01be 6295 5a3e c0b5 35bc 0433 34bd
00000030: da65 663d 9a2f 15be 5bae 78bd 8383 553d
00000040: 7edf 9bbd d004 203e b1cf fabb d1b4 903d
00000050: b911 00be fd94 1f3d e594 863d 4c33 fabc
00000060: 1cfd 863d 711e dabd 285b 13bd 1537 2a3e
00000070: 70f1 9e3d 9fa4 1a3e 5e83 cabd f562 6f3d
00000080: 2bff de3d e761 c1bc 362e d23c a106 d3ba
00000090: ac31 c33d fd62 c7bd f8f5 fc3d 297e de3d
000000a0: 4b32 78bd 8bf5 f53d aa99 dbbd 1eb8 4d3d
000000b0: b2bc f8bc c371 d53d f04c b5bd b670 1e3d
000000c0: 3791 d6bd 117e 1c3e fec7 0a3a 61f7 b73d
000000d0: c572 12be f797 953b a17d ebbd fb92 463c
000000e0: 6ec1 0e3e 8520 783c 6205 c53d 0413 02bd
000000f0: bbe4 cabd 19e0 12be 1697 12be 85d7 d33d
00000100: a185 54bc cd0c 72bd 31b1 1c3d cd98 9639
00000110: 72c6 143e 0994 433e cc67 e2bd eb89 d93d
00000120: cb3d f4bd 156c 733b d909 94bd b700 243e
00000130: 629d 13be a5a5 e23c 2e99 713d d964 17be
00000140: c846 ea3d 5f3e c3bd 3f43 e1bb 4a57 2a3a
00000150: 3418 4e3d ee35 5abd 549b 1d3e 149c bf3d
00000160: 1fad 483e b263 10be f542 4dbe a4e5 0f3d
00000170: 1253 453e b5fc 063e 32b9 823d 3a8a 3ebc
00000180: 0c92 0fbe 9857 443d d626 073e f0f7 c33d
00000190: bf42 36bd e1f0 05be c6e9 803d 350e 8e3d
000001a0: 4026 1c3e 7730 2abe a501 90bd 1803 85bd
000001b0: 1b7a 043e 8611 183e 14be 3dbd 981f acbd
000001c0: 6d8d 9b3d ab88 343d 8b68 363d 5527 d9ba
000001d0: fc3f 46bd d64a 26bb 1366 c43c 27b3 0ebe
000001e0: fd12 c63d edb6 c93c 9f87 003e bce2 213e
000001f0: e89f 113e 7eb2 e3bc 2841 d83b 4e3e cb3d
00000200: 9c0a 75bc 38f3 113d 066b 10be ffcc d83c
00000210: 4752 f83d 3720 0b3e d186 0cbe 88e4 a4bd
00000220: ae12 69bd ef08 33bd cf9f 43be 0643 ccbd
00000230: 68e2 9b3d 20d0 a0bd ba21 0ebe fe74 843d
00000240: 3091 1b3e fd66 da3d 6c06 393a 372a de3d
00000250: 5df1 18be 800d 91bb dccc b33d 7821 a3bd
00000260: 31e0 223e ca60 1bbe 0d11 5fbd 84df 1f3d
00000270: 97d1 f7bd 0573 88bd 0862 913d 16cd 313e
00000280: 0372 d53c de70 81bc 04a1 05be db1d 8dba
00000290: fe29 c1bd da8e f7bd 11a6 9dbd 657e 23bd
000002a0: fefe 38bc 6344 0fbe 76a5 853c 1d97 2dbd
000002b0: cf86 75bd 1b17 c83d 95b7 9b3d 885a c8bd
000002c0: ec4f 19bc b191 0fbd 78ae 43bd e6bc ea3d
000002d0: 75a7 30bd 8077 39bd b0ac b5bd c008 1e3e
000002e0: dc2e 373e e1ae 4a3c a677 423e babf f9bd
000002f0: a261 06bc e5cb bc3d 66cc 3d3e 5db6 10bd
00000300: 41f4 f53d 6384 09be d81e c23d 5ef5 0f3c
00000310: 8ecf df3d 8421 1abe 0496 c63d a14b 35be
00000320: 3ba4 0abd 796a d13d af5d 2bbe eb0b 083d
00000330: 085d 08be f60a 8c3c 4ced a33c cc6f abbd
00000340: 661d 003e dcc2 65bd 6a4d 9cbc 8f7f c63d
00000350: 3d7d 01bd 60fb 1dbb 3886 3abc 6cda a5bd
00000360: b793 1bbe afb7 35bd d197 54bd 8eea febd
00000370: 0092 b3bd 8777 4e3d 9cb0 31bd 8892 feb8
00000380: 8915 88bd b1ae 95bd 0708 aa3d a722 e9ba
00000390: 876f 213e adc0 dbbc 20ec 363e 4a5f 523e
000003a0: 5a84 3f3e 0a44 053c 3836 56bd e054 06bc
000003b0: f8d9 f0bd fcc8 583c 6685 cbbd c444 193e
000003c0: 8cec f9bd a237 4b3e 142e c93d 091d 0b3e
000003d0: 00ae 1e3b 0fb2 c2ba cd92 5cbc 7643 3d3e
000003e0: 810a 2abc 00ee b43d 5439 5d3c 284c c2bd
000003f0: 58ae 19bd 3ac3 db3d d8e8 2f3e 7943 0cbc

bias f4 [8]
0.15973282 0.050789203 -0.064865574 0.12605786 0.13569881 0.14020254 0.012081679 0.03400255
00000000: 0091 233e 5708 503d 3ed8 84bd 5015 013e
00000010: a1f4 0a3e 4191 0f3e 3cf2 453c 4246 0b3d

weight f4 [1, 8]
-0.29870412 0.08687464 -0.18148625 0.1421592 0.2638993 0.046866525 0.0025605005 0.19136637
00000000: bfef 98be 55eb b13d 88d7 39be 2e92 113e
00000010: cf1d 873e 1df7 3f3d 12ce 273b 8cf5 433e

weight f4 [8, 1]
0.72374046 -0.924269 0.8267778 -0.20471376 -0.83429796 0.756778 0.905023 -0.59534204
00000000: 0e47 393f e59c 6cbf b6a7 533f 7ca0 51be
00000010: 8d94 55bf 34bc 413f 96af 673f 5668 18bf

bias f4 [8]
0.6419568 0.29530585 0.97610617 0.99654144 -0.78429496 0.48410755 0.4257857 -0.2561928
00000000: 4857 243f 5432 973e 18e2 793f 571d 7f3f
00000010: 8ec7 48bf f2dc f73e 9500 da3e b42b 83be

weight f4 [32, 8]
-0.3829112 0.38819832 0.181833 0.056004547 -0.1977605 0.24431849 0.08990983 -0.09382266
-0.34231845 0.2407589 -0.3463888 0.031415775 -0.22329497 -0.09824355 0.0062391353 0.11634605
0.16272491 0.38250387 -0.28877923 -0.057053108 0.23239826 0.19815232 0.04383022 0.34507656
-0.013317522 -0.18752475 -0.10490349 -0.27566466 -0.021640334 -0.0019057367 0.001800179 0.23378783
0.04117597 -0.1878437 0.021183038 0.295595 0.36363548 -0.21559118 -0.35728008 0.08674502
0.15630427 0.109353945 0.0014395274 0.037799884 -0.109606154 0.1638966 -0.0941559 0.28338316
0.24371918 -0.2645862 0.27972803 0.060943566 0.13314962 -0.20028718 -0.009986016 0.33239618
0.38280654 0.29911453 0.3697172 -0.12320815 0.1322301 -0.24153492 0.33565667 0.05397698
0.017203106 0.18387012 -0.081093125 0.08407219 -0.043802068 0.0002669374 -0.08730575 -0.1706105
0.008202296 -0.20129608 0.0042522075 -0.015011061 0.1376789 -0.1188181 0.12835832 0.03397845
-0.12016991 -0.015049972 -0.16246633 -0.30637464 0.31383646 0.14938763 0.2508643 0.31429225
0.25085762 -0.24082363 0.25031203 0.3782978 0.13113958 -0.32082176 0.27671432 0.0009282541
0.15831117 0.3198898 0.08822052 0.27130553 -0.015501428 0.108726524 0.26691544 0.12746213
0.28386676 0.12070118 0.30705273 0.11565651 0.28087726 -0.29429328 0.19882067 -0.3465752
0.04134012 0.14941812 0.13989466 -0.13820548 0.13377535 0.35365248 0.070071846 0.23110475
-0.043624483 -0.1870382 -0.120710544 0.0008157939 -0.14074653 0.12546362 -0.028151952 -0.00037278942
-0.12582345 -0.09982218 0.12134911 0.07346966 0.29826626 -0.351156 -0.040269416 0.057516936
0.0035031622 0.14320377 -0.17255634 -0.12935038 0.19959159 0.010472423 -0.21281596 -0.17673145
0.12448047 0.30491924 -0.114985324 -0.07628854 0.0028100386 -0.049642134 0.036822047 0.30540547
0.26322222 -0.15708515 0.14944187 0.10444745 -0.32246572 -0.13859157 0.29736173 0.31791893
0.18760116 0.25697306 0.27805945 0.31663033 -0.15150209 -0.0045488174 0.123802796 0.21625152
-0.27292803 0.004068015 0.058102656 -0.26482356 -0.18584812 -0.15381229 -0.2142782 -0.0070610237
0.022538552 -0.13221692 -0.017531546 -0.08926919 -0.079873316 -0.090446495 -0.03269475 0.042802434
0.00035502348 -0.00021863054 -0.2713477 0.13966073 -0.17617846 0.11708996 -0.23036093 0.18927622
-0.21067871 -0.2661255 -0.25305676 0.12418255 -0.17551625 -0.18662317 -0.2115902 0.013038867
-0.14791185 -0.021038963 -0.26496795 0.3543452 0.19348985 0.24520884 -0.21665266 0.0075155464
-0.0021249375 -0.20475353 -0.14842215 0.01529922 0.21562083 0.14606664 -0.054864425 -0.2569416
-0.018082654 2.861493e-05 0.11727519 0.0077637387 -0.09234242 0.12830268 -0.20701167 0.092756465
-0.060628567 0.28998378 -0.20123225 0.39179763 -0.04459051 -0.3590356 0.32395184 0.025406105
-0.3035625 0.26618493 -0.20775813 0.27754426 -0.25975507 -0.261267 0.31309998 0.18930134
-0.0363973 0.29444027 -0.014247091 -0.039949674 0.055756394 -0.31154293 0.012389477 0.36522812
-0.047971725 0.30026466 0.20689297 -0.2413706 0.16736591 0.2866808 -0.37590435 0.32755056
00000000: f00c c4be eec1 c63e 6e32 3a3e 0665 653d
00000010: ba81 4abe a02e 7a3e a522 b83d 1826 c0bd
00000020: 5d44 afbe 8089 763e df59 b1be d4ad 003d
00000030: 70a7 64be ea33 c9bd a971 cc3b d646 ee3d
00000040: 5ca1 263e 8cd7 c33e dfda 93be 85b0 69bd
00000050: cff9 6d3e 71e8 4a3e 5187 333d e0ad b03e
00000060: bc31 5abc 7d06 40be a4d7 d6bd eb23 8dbe
00000070: 1247 b1bc eac9 f9ba fcf3 eb3a 1466 6f3e
00000080: 22a8 283d 195a 40be 0d88 ad3c 3a58 973e
00000090: 6e2e ba3e efc3 5cbe 6aed b6be 5fa7 b13d
000000a0: 3a0e 203e f6f4 df3d 86ae bc3a 0dd4 1a3d
000000b0: 3179 e0bd 83d4 273e cfd4 c0bd 9917 913e
000000c0: 8591 793e d877 87be 8338 8f3e f69f 793d
000000d0: 6058 083e 1518 4dbe 639c 23bc d52f aa3e
000000e0: 38ff c33e 8a25 993e 934b bd3e 8e54 fcbd
000000f0: 5467 073e ee54 77be 31db ab3e f716 5d3d
00000100: 87ed 8c3c 7348 3c3e 2714 a6bd 0a2e ac3d
00000110: cc69 33bd bbf3 8b39 5bcd b2bd 85b4 2ebe
00000120: ec62 063c 8f20 4ebe 1a56 8b3b f4f0 75bc
00000130: b3fb 0c3e e756 f3bd 5d70 033e fd2c 0b3d
00000140: a41b f6bd 2894 76bc 935d 26be 23dd 9cbe
00000150: 2caf a03e 12f9 183e 4971 803e eaea a03e
00000160: 6970 803e 789a 76be e628 803e 40b0 c13e
00000170: 7449 063e c042 a4be 80ad 8d3e 1456 733a
00000180: 531c 223e 99c8 a33e f6ac b43d 8fe8 8a3e
00000190: b4f9 7dbc 03ac de3d 24a9 883e 6f85 023e
000001a0: fc56 913e 2e32 f73d 0436 9d3e 52dd ec3d
000001b0: 25cf 8f3e 9cad 96be a597 4b3e 4e72 b1be
000001c0: 4254 293d 1001 193e 8c40 0f3e bd85 0dbe
000001d0: 68fc 083e f011 b53e d481 8f3d b9a6 6c3e
000001e0: 96af 32bd f186 3fbe 1737 f7bd 00db 553a
000001f0: dc1f 10be 8979 003e ec9e e6bc f372 c3b9
00000200: ddd7 00be 926f ccbd e285 f83d 4377 963d
00000210: 5bb6 983e b8ca b3be 8bf1 24bd e196 6b3d
00000220: 4f95 653b 02a4 123e 9cb2 30be 6d74 04be
00000230: bd61 4c3e 8794 2b3c 6dec 59be 17f9 34be
00000240: 9eef fe3d 601e 9c3e 6d7d ebbd 2b3d 9cbd
00000250: a028 383b 8d55 4bbd b7d2 163d 1b5e 9c3e
00000260: 10c5 863e eeda 20be 4a07 193e 8be8 d53d
00000270: 3a1a a5be f3ea 0dbe cc3f 983e 45c6 a23e
00000280: 851a 403e f991 833e cf5d 8e3e 5f1d a23e
00000290: 5d23 1bbe 3f0e 95bb 528c fd3d 0a71 5d3e
000002a0: 39bd 8bbe fc4c 853b 0dfd 6d3d f496 87be
000002b0: f84e 3ebe f880 1dbe bf6b 5bbe 2960 e7bb
000002c0: c5a2 b83c df63 07be 519e 8fbc c4d2 b6bd
000002d0: 9f94 a3bd 033c b9bd eeea 05bd 9b51 2f3d
000002e0: 7222 ba39 3040 65b9 16ee 8abe 3903 0f3e
000002f0: 2068 34be dccc ef3d bce3 6bbe a0d1 413e
00000300: 29bc 57be 9a41 88be a890 81be 6c53 fe3d
00000310: 88ba 33be 251a 3fbe 1aab 58be f9a0 553c
00000320: 3476 17be e759 acbc e1a9 87be bc6c b53e
00000330: 3422 463e 0718 7b3e 32da 5dbe f944 f63b
00000340: 8942 0bbb e9aa 51be fafb 17be 94a9 7a3c
00000350: b5cb 5c3e 7e92 153e 85b9 60bd d98d 83be
00000360: 1322 94bc 180a f037 fa2d f03d f666 fe3b
00000370: 061e bdbd c761 033e defa 53be 1af7 bd3d
00000380: a955 78bd c178 943e d40f 4ebe b399 c83e
00000390: 8aa4 36bd 84d3 b7be 04dd a53e 7720 d03c
000003a0: 8b6c 9bbe 6449 883e 8cbe 54be 481a 8e3e
000003b0: 9efe 84be cac4 85be a44e a03e 36d8 413e
000003c0: 5615 15bd e0c0 963e a16c 69bc 45a2 23bd
000003d0: d160 643d 8e82 9fbe 3cfd 4a3c 2eff ba3e
000003e0: 007e 44bd 4abc 993e c0db 533e db29 77be
000003f0: f861 2b3e d3c7 923e 8976 c0be b5b4 a73e

bias f4 [32]
-0.3393004 0.15466367 0.08442172 -0.036377057 0.13204056 0.14036907 0.09931861 -0.36781257
0.259884 -0.0062155067 -0.32597572 0.28987777 -0.3232701 -0.27259585 -0.10559128 -0.16046035
0.3997808 -0.04315816 0.28735676 0.3718828 -0.004364517 -0.0372694 -0.27060473 -0.26327592
-0.08709626 0.013419842 -0.001400314 -0.1791209 0.09560156 0.0742606 -0.05785803 -0.19716263
00000000: c8b8 adbe 2760 1e3e 4be5 ac3d 1c00 15bd
00000010: a435 073e e9bc 0f3e 8e67 cb3d ee51 bcbe
00000020: 840f 853e 73ab cbbb 4ae6 a6be dc6a 943e
00000030: a983 a5be af91 8bbe 3e40 d8bd b84f 24be
00000040: 12b0 cc3e 9cc6 30bd 6d20 933e 6c67 be3e
00000050: 3904 8fbb cca7 18bd b48c 8abe 1acc 86be
00000060: 865f b2bd e6de 5b3c be8a b7ba 786b 37be
00000070: c0ca c33d f115 983d 8bfc 6cbd 00e5 49be

weight f4 [64, 32]
0.024483873 0.10663959 0.07583053 -0.034984004 -0.149381 -0.13208859 0.10139824 0.08166364
0.09339736 0.09686471 -0.04147857 -0.013580237 -0.098852925 -0.22390476 0.13276334 -0.0029199899
-0.053136505 -0.0149075985 0.024801014 0.059960626 0.12612817 0.0128172375 0.09172265 -1.7691826e-05
0.008696632 -0.036396492 -0.004660401 0.029087633 0.06917461 0.18603343 0.11403046 -0.14433165
-0.07945784 0.06733308 0.00019799406 0.076218985 -0.012500859 -0.009783789 0.1217458 0.13270397
-0.0019024997 0.0053021284 -0.027214143 -0.17622781 0.14393143 -0.047508717 -0.08049285 0.030149132
0.08544678 0.0031014257 0.10593054 0.05408047 -0.034038704 -0.018022163 0.040479556 0.045852788
-0.053610303 0.077421136 -0.00071838737 0.04482589 0.14541717 0.015396951 -0.13140853 0.086633764
-0.015518061 0.0025749756 0.110644124 -0.01438839 0.1813476 -0.027674258 -0.18909818 0.13538016
0.12201949 0.1073265 -0.015704187 -0.1560727 -0.011361834 0.049304098 0.030187441 -0.06946251
-0.037997417 0.023582242 -0.11748162 0.029880075 0.11973794 -0.07585068 -0.015348919 -0.006813257
-0.053614486 0.1441345 0.100466065 -0.04422177 0.08552723 -0.09112037 0.11216873 0.068553485
-0.041068025 -0.015861897 -0.013090224 -0.027071014 -0.008647058 -0.061005607 -0.10265113 0.13841997
-0.07024007 0.007442794 0.0048112688 0.12397886 0.0027764603 0.052422483 0.08982391 -0.016882615
0.098620996 0.06288396 -0.02025931 0.010574092 -0.08688838 0.05406048 -0.094849534 -0.0003166818
0.0007822497 -0.023667984 0.0029425242 -4.544694e-05 -0.020868342 -0.106536336 -0.12067371 0.1231156
0.16710171 -0.10791818 0.005130781 -0.00031179725 0.023786262 -0.05910921 0.14464293 -0.11208475
0.061891995 0.04840272 0.04986707 0.22553383 -0.047598124 0.06568071 -0.077968806 0.00016082104
0.08193803 0.16975956 -0.049319442 0.14726675 0.01615248 -0.047980327 0.003484691 0.035454895
-0.0013380782 0.018134117 0.06669358 0.028427618 0.1513374 -0.022237409 -0.050945096 0.044407725
0.08040681 -0.09954819 0.14336702 -0.08384076 -0.020246502 -0.09795809 -0.077486224 -0.16293915
-0.14745493 -0.09022576 0.12969398 -0.03869098 0.014765769 0.09638552 0.11561774 0.097417235
-0.077730045 0.17489962 0.080530666 -0.09981282 -0.03351937 -0.0104667805 -0.037435625 0.0025780872
-0.022096565 0.009994366 -0.06457735 -0.07721459 -0.037263263 0.08839267 -0.07141792 0.16993074
-0.06998992 0.17050615 0.19934654 0.0142441485 0.17816038 0.06880698 -0.04822728 0.075907074
0.02655448 -0.057628397 0.016123522 -0.005438247 0.08309197 -0.05298111 -0.16636135 -0.089280464
-0.09481989 -0.09468922 -0.024218515 0.09027072 0.025715528 0.03252631 0.052430633 0.09212177
-0.003973661 -0.12627515 -0.08210047 0.036731064 0.11698434 -0.13577136 0.1343664 0.116827264
0.06400455 -0.09031223 0.07654353 0.0035071848 0.063969105 0.1652574 0.14041038 -0.10308633
0.11760155 0.063608184 -0.12501855 -0.14330193 -0.11072419 0.09405255 -0.010158916 -0.0007861425
0.042266563 -0.07009324 -0.022408038 -0.1801456 0.15564828 0.011101313 0.014278552 -0.07848465
-0.00021072957 0.2203973 0.0017568164 0.08222936 0.17322846 0.14322832 0.10315099 0.036120888
00000000: 6792 c83c db65 da3d 094d 9b3d 634b 0fbd
00000010: 55f7 18be 3b42 07be e1a9 cf3d 443f a73d
00000020: 1d47 bf3d 0161 c63d 6fe5 29bd a47f 5ebc
00000030: 6773 cabd 4a47 65be 1df3 073e 4d5d 3fbb
00000040: aaa5 59bd 003f 74bc 7f2b cb3c 4699 753d
00000050: be27 013e 64ff 513c 16d9 bb3d e868 94b7
00000060: 527c 0e3c 7d14 15bd 47b6 98bb 3049 ee3c
00000070: 6bab 8d3d 8c7f 3e3e cd88 e93d adcb 13be
00000080: cbba a2bd ede5 893d a09c 4f39 b318 9c3d
00000090: 67d0 4cbc 2f4c 20bc dd55 f93d 8de3 073e
000000a0: 4c5d f9ba 7abd ad3b 32f0 debc 1075 34be
000000b0: c362 133e 8098 42bd 6fd9 a4bd 50fb f63c
000000c0: b9fe ae3d 4a41 4b3b 1cf2 d83d 7c83 5d3d
000000d0: 2b6c 0bbd 37a3 93bc e4cd 253d 22d0 3b3d
000000e0: 7a96 5bbd f98e 9e3d 2952 3cba 5a9b 373d
000000f0: 3de8 143e 7e43 7c3c f58f 06be 0b6d b13d
00000100: 773f 7ebc ecc0 283b 6399 e23d 48bd 6bbc
00000110: 2fb3 393e 20b5 e2bc f4a2 41be 19a1 0a3e
00000120: 5be5 f93d ffcd db3d 11a6 80bc 86d1 1fbe
00000130: fc26 3abc 18f3 493d a74b f73c 5c42 8ebd
00000140: 2ea3 1bbd 8c2f c13c 349a f0bd 0fc7 f43c
00000150: 2a39 f53d 9a57 9bbd 087a 7bbc be41 dfbb
00000160: dd9a 5bbd ff97 133e 27c1 cd3d e321 35bd
00000170: e628 af3d 519d babd b8b8 e53d c565 8c3d
00000180: f236 28bd cff0 81bc 6178 56bc 08c4 ddbc
00000190: 64ac 0dbc 04e1 79bd c13a d2bd f7bd 0d3e
000001a0: 07da 8fbd aee2 f33b d9a7 9d3b a1e8 fd3d
000001b0: 46f5 353b f5b8 563d 99f5 b73d 694d 8abc
000001c0: cef9 c93d 4ec9 803d daf6 a5bc f53e 2d3c
000001d0: 89f2 b1bd 866e 5d3d 7940 c2bd 5008 a6b9
000001e0: e40f 4d3a 5ce3 c1bc 5dd7 403b 489e 3eb8
000001f0: 16f4 aabc b92f dabd c723 f7bd 0824 fc3d
00000200: b61c 2b3e 3504 ddbd 1c20 a83b b878 a3b9
00000210: 68db c23c 801c 72bd 471d 143e b08c e5bd
00000220: 7682 7d3d ee41 463d 6a41 4c3d 57f2 663e
00000230: 40f6 42bd 9c83 863d 1cae 9fbd 12a2 2839
00000240: 20cf a73d 73d5 2d3e 2f03 4abd 18cd 163e
00000250: 3552 843c 0587 44bd 6a5f 643b 2739 113d
00000260: 7462 afba 008e 943c a596 883d 09e1 e83c
00000270: 31f8 1a3e 3a2b b6bc ceab 50bd e0e4 353d
00000280: 53ac a43d ecdf cbbd cece 123e b4b4 abbd
00000290: fedb a5bc 409e c8bd 19b1 9ebd 85d9 26be
000002a0: 6dfe 16be 49c8 b8bd 80ce 043e 6f7a 1ebd
000002b0: 20ec 713c c665 c53d fec8 ec3d b082 c73d
000002c0: ee30 9fbd e318 333e 43ed a43d aa6a ccbd
000002d0: 9b4b 09bd dc7c 2bbc 1956 19bd 20f5 283b
000002e0: db03 b5bc 69bf 233c 2141 84bd af22 9ebd
000002f0: 5da1 18bd 3707 b53d 8f43 92bd 5302 2e3e
00000300: e056 8fbd 2a99 2e3e 8021 4c3e 4a60 693c
00000310: ad6f 363e adea 8c3d f889 45bd 2b75 9b3d
00000320: c888 d93c c10b 6cbd 7a15 843c 5333 b2bb
00000330: 1f2c aa3d b802 59bd a15a 2abe add8 b6bd
00000340: ee30 c2bd 6cec c1bd e865 c6bc dbdf b83d
00000350: 5fa9 d23c 4f3a 053d 81c1 563d 57aa bc3d
00000360: 7c35 82bb 464e 01be 4b24 a8bd 5073 163d
00000370: 7c95 ef3d a607 0bbe 5897 093e 2243 ef3d
00000380: d114 833d 9ef5 b8bd dbc2 9c3d ccd8 653b
00000390: 3c02 833d 3c39 293e bdc7 0f3e ed1e d3bd
000003a0: 15d9 f03d 0245 823d dd04 00be bebd 12be
000003b0: 5dc3 e2bd a09e c03d 9571 26bc 2115 4eba
000003c0: b41f 2d3d 0b8d 8fbd 1091 b7bc 1778 38be
000003d0: 4362 1f3e 48e2 353c 96f0 693c 8fbc a0bd
000003e0: 4af7 5cb9 d4af 613e fa44 e63a de67 a83d
000003f0: cd62 313e 72aa 123e d440 d33d 7ff3 133d

bias f4 [64]
0.07793771 -0.17515594 -0.17363992 0.011275789 0.109430276 0.057842024 0.13429028 0.20712024
-0.065507434 0.0047600633 -0.02203254 0.09474073 0.06169029 0.075690314 0.008696232 0.20626874
0.072206095 0.058669005 -0.0061505 0.030940745 -0.048402082 0.14226721 -0.009313445 -0.059429664
-0.003369706 0.12210878 0.18189356 0.05174376 0.07020294 0.07356188 -0.08330483 -0.043675385
-0.07373705 0.11923451 0.116228096 0.14873728 0.07738402 -0.02860176 -0.12112475 0.042575885
0.017528284 0.11731096 -0.041687217 -0.003976985 -0.063786626 -0.012506138 -0.060623754 0.07244884
0.1419734 -0.016237415 -0.028467983 -0.050324704 -0.033981502 -0.029700015 0.1442104 0.16439721
-0.0032838464 0.22114927 -0.0052205613 0.111558236 -0.096187554 0.22711453 0.019014202 0.042668458
00000000: ce9d 9f3d 145c 33be aace 31be 16be 383c
00000010: fb1c e03d c2eb 6c3d 6483 093e 5417 543e
00000020: c328 86bd 4efa 9b3b 967d b4bc 6e07 c23d
00000030: f5ae 7c3d 8603 9b3d a47a 0e3c 1d38 533e
00000040: cae0 933d e94e 703d 228a c9bb 7277 fd3c
00000050: 4341 46bd 7fae 113e 6b97 18bc 856c 73bd
00000060: 49d6 5cbb 2b14 fa3d 4e42 3a3e 44f1 533d
00000070: 8fc6 8f3d 9ca7 963d b99b aabd f6e4 32bd
00000080: 7303 97bd 3931 f43d ff08 ee3d 964e 183e
00000090: 837b 9e3d 3d4e eabc 4110 f8bd 0d64 2e3d
000000a0: 7a97 8f3c bb40 f03d 37c0 2abd 5e51 82bb
000000b0: 90a2 82bd 8be6 4cbc 9d50 78bd 0f60 943d
000000c0: 7a61 113e 5404 85bc b035 e9bc 4721 4ebd
000000d0: 3030 0bbd 724d f3bc e4ab 133e be57 283e
000000e0: cd35 57bb f474 623e 3e11 abbb a578 e43d
000000f0: fbfd c4bd b690 683e acc3 9b3c 1fc5 2e3d
