model/024.641908645629883.pt (torch_old, 168315 bytes, 19 tensors)

weight f4 [256, 2]
000000 90 6e 2e 3f 42 1a 09 3e 04 f6 53 3e 0b 9e 09 3f
       0.68137455 0.13388923 0.20699316 0.5375678
000010 ef 9f eb be 09 86 09 3f 51 03 1f bf aa 07 b4 3e
       -0.46020457 0.53720146 -0.62114435 0.35162097
000020 32 25 93 3e 5e 25 e5 3e a2 80 e4 3e 97 1f fb be
       0.28739315 0.4475507 0.4462939 -0.4904754
000030 25 a9 55 3e 22 0b 62 3e fd ee a4 be 4b 9c aa be
       0.20865305 0.2207456 -0.32213584 -0.33322367
000040 dc 42 88 be b1 ee f3 3d 24 cc 1e 3f 7b 03 e2 bd
       -0.2661351 0.11910761 0.62030244 -0.1103582
000050 a4 f0 ca be 87 2c 15 bf 10 f4 26 3f 46 f4 99 3e
       -0.3963672 -0.5827107 0.6521616 0.30069178
000060 9f 8f 80 3d c5 a6 f8 be ca c9 92 be 98 93 6d 3e
       0.062773935 -0.48564735 -0.28669578 0.23200834
000070 a8 40 b3 3e c6 36 95 3e be 60 80 bd f0 8b 8d 3e
       0.35010266 0.2914335 -0.06268452 0.27645826
000080 2c 09 55 be 69 52 13 3f 1d 0d 20 bf 3c 48 6e 3e
       -0.2080428 0.5754762 -0.6252001 0.23269743
000090 5c a5 d0 bd 87 df c6 3e ee e9 d4 bd 4f eb 93 be
       -0.1018779 0.38842413 -0.10396181 -0.28890464
0000a0 49 60 ce 3e 5e 2a 0e 3e 9a bd 01 3f 8c 29 8a be
       0.40307835 0.1388335 0.50679934 -0.26984823
0000b0 15 2b 08 bf dd 45 0e 3f ca d3 2a 3e 00 47 9f be
       -0.5319074 0.5557535 0.16682354 -0.31108856
0000c0 3c 4a 74 3c 57 ee 80 be 43 3d ef be 33 41 25 bf
       0.014910277 -0.2518184 -0.46726426 -0.6455261
0000d0 66 14 2a bf ed 6c 31 3f d8 f2 18 bf 9a 75 8b be
       -0.66437376 0.6930683 -0.5974555 -0.2723816
0000e0 18 37 0c 3f 8a 70 98 3e d8 9b 18 bf b5 a6 1d be
       0.54771566 0.2977336 -0.596128 -0.15395625
0000f0 d3 a0 29 bf df 66 2b be 08 ac 0b 3f 1b e2 08 3f
       -0.66261023 -0.16738461 0.54559374 0.5347001
000100 13 6f c2 3e 1a 02 d6 be 46 c7 1e bf e9 1a 07 bf
       0.37975368 -0.41798478 -0.6202282 -0.52775437
000110 a1 f1 24 bf 52 c7 23 3f 94 52 c3 be ef 20 29 bf
       -0.64431196 0.63976014 -0.3814894 -0.6606588
000120 96 d3 7f be 77 49 35 bf 0d c9 21 3e c7 b4 92 be
       -0.24983057 -0.70815223 0.15799351 -0.28653547
000130 50 dc 15 bf 2f aa 87 be 4c 0c 8b 3d 23 ee 27 bf
       -0.58539295 -0.26497027 0.06789455 -0.6559774
000140 ee ea ae 3e 4e 01 07 bf 8d 7e b2 be 74 7f 05 3f
       0.34163612 -0.52736366 -0.34862176 0.52147603
000150 89 f5 8e 3e 2c 74 48 be d3 9a d9 3d a1 3f 3d 3f
       0.27921703 -0.19575566 0.106252335 0.73925215
000160 b3 ff 3d be 2e 6e ba 3e 89 96 6e 3e 8a 56 13 bf
       -0.18554573 0.36412185 0.23299612 -0.57553923
000170 fa 83 63 3e a7 a6 1d 3f 7e fb 2f be 4f 32 2e 3f
       0.22218314 0.61582416 -0.1718578 0.68045515
000180 83 33 33 be 32 95 09 bf 78 e7 0b bf cb ed 86 be
       -0.17500119 -0.5374328 -0.5465007 -0.26353297
000190 d4 cf 25 3f 63 f5 47 be 78 4a a6 be 07 65 47 bd
       0.64770246 -0.19527201 -0.3247869 -0.04868033
0001a0 e7 93 e7 3e 3f 2e 26 3f 27 60 0e bf a8 e3 45 3e
       0.45230028 0.64914316 -0.55615467 0.19325125
0001b0 b4 a8 f8 3e 2a ad 0a 3f 9f c5 3a 3e 5f a3 00 be
       0.4856621 0.5417048 0.18239449 -0.12562321
0001c0 b3 d9 16 bf 8c 9c 08 be 61 30 01 bf c1 f6 9d 3e
       -0.5892593 -0.13340968 -0.50464445 0.3085232
0001d0 cb a5 0a bf 0b 87 35 3f 6f ac 25 3f 87 d7 30 3f
       -0.5415923 0.70909184 0.6471624 0.6907887
0001e0 2a 66 ff bd 5b 25 06 bf a4 b6 1e 3f dc 51 09 3f
       -0.12470658 -0.5240075 0.6199744 0.5364053
0001f0 32 86 06 bf 11 65 e6 bd c7 d4 47 3e 5a 30 00 bf
       -0.52548516 -0.11249746 0.19514762 -0.5007378
000200 97 4e 17 be 76 05 6d bd b4 25 a1 3d 22 9b 2a 3e
       -0.14776073 -0.057866536 0.078685194 0.16660741
000210 ad 3f 09 bf 1c d7 ce bd 47 d7 63 be 5f 83 17 3d
       -0.53612787 -0.100996226 -0.2225009 0.03699052
000220 45 d6 28 be 06 4d 4a be 7b 13 0c bf 11 e7 e1 3e
       -0.16487987 -0.19755945 -0.54717225 0.44121602
000230 bf 9c a5 3e df 27 68 be 52 79 ef 3e 7a a6 29 3f
       0.3234615 -0.2267146 0.46772248 0.6626965
000240 e2 2a 20 bf 7c 6b 37 3e 12 9a cb be 66 d2 0e 3f
       -0.62565434 0.17912096 -0.39765984 0.5578979
000250 07 6f 20 be ac 7a 0a bf d6 5d 05 3f 8c 2f 29 3e
       -0.15667354 -0.5409343 0.5209631 0.16522044
000260 34 dc 62 3d 85 e4 f9 3e ce 27 f7 be a9 34 fa be
       0.055385783 0.4880716 -0.48272556 -0.48868302
000270 a5 42 47 be 68 0c a6 be 77 1c 28 3f c7 8c 50 3e
       -0.19459017 -0.3243134 0.65668434 0.20366202
000280 aa b9 78 3e 0a 5b 13 3f 96 a1 95 bd 32 d1 e3 3e
       0.24289575 0.5756079 -0.07306211 0.4449554
000290 ae d1 e5 3d 81 a4 0c bf b3 b7 c3 be ef 06 3a 3f
       0.11221634 -0.54938513 -0.3822609 0.7266683
0002a0 aa f6 1b bf 47 9c 50 bd 6b 5a 20 3f bc 37 7e 3e
       -0.60923254 -0.050930288 0.62637967 0.24825948
0002b0 9c ba c0 3e 8b b4 a0 3e 34 f8 ed be bf cf bd 3c
       0.37642372 0.31387743 -0.46478426 0.02317035
0002c0 8e 18 f5 be bb b9 a3 be c4 34 f1 3e 35 22 94 be
       -0.47870296 -0.3197764 0.4711057 -0.28932348
0002d0 d3 e2 5b 3e f4 5f 0b 3f e8 94 6a be 35 56 e2 3d
       0.21473245 0.5444329 -0.22908366 0.11051599
0002e0 5c a1 b3 3d 7a 05 2f bf c8 0f b3 3e cc 8b 10 bf
       0.08771011 -0.6836773 0.34972978 -0.56463313
0002f0 84 dc 8d 3e 6f ba cc be 2d 31 a9 bd b2 04 fe 3d
       0.27707303 -0.39985988 -0.08261333 0.12403239
000300 cc f9 1b bf ab 85 94 be 9e 29 1e bf 11 14 d9 be
       -0.60928035 -0.2900823 -0.6178225 -0.42398122
000310 78 c2 20 3f f2 00 1f 3e 62 ce ce be 82 93 1e bf
       0.62796736 0.15527704 -0.40391833 -0.6194383
000320 38 40 ac be 85 96 ea 3e bd 81 14 3f a8 41 da bd
       -0.33642745 0.45817962 0.58010465 -0.10657054
000330 d0 75 b5 3e e5 26 41 be d9 cb 38 3e d0 29 66 be
       0.35441446 -0.18862493 0.18046512 -0.22476888
000340 4d 3e 1a bf 42 24 49 be 1c 06 a4 3e 7b 16 1d bf
       -0.60251313 -0.19642738 0.3203591 -0.6136243
000350 92 1c bb bd 78 fe fe 3d ad ec 03 3d 42 68 83 be
       -0.09136309 0.1245088 0.032208133 -0.2566548
000360 12 02 c7 3e f5 8c cc bc 63 75 f4 3e 32 21 26 bf
       0.38868767 -0.024969557 0.4774581 -0.648944
000370 53 2a 14 bf ed f9 08 3f 49 d2 fd 3e b5 07 a8 bd
       -0.5787708 0.53506356 0.49574497 -0.08204595
000380 92 eb 1b bf 5c ef a7 be 00 96 42 3c ef 02 4b 3e
       -0.60906327 -0.32799804 0.011876583 0.19825338
000390 fe 42 31 3f 4a d6 2b 3e 9e ef e7 bd b6 a4 4d be
       0.69242847 0.16780964 -0.11325 -0.20082363
0003a0 49 63 ac 3e e9 2c 77 3d ba 1f 11 bf 8b f8 2f be
       0.336695 0.060345564 -0.56689036 -0.17184655
0003b0 e1 8d 9c be 10 df 91 be 07 a5 a8 3e d4 f7 7b 3d
       -0.30576995 -0.28490496 0.32938406 0.061515644
0003c0 c3 6a 83 3e 8f 8f 9f 3e 8f 5e 38 3f c1 4a 0f bd
       0.2566739 0.31164214 0.72019285 -0.0349834
0003d0 7d 10 02 3f 32 49 83 be f1 1e e3 be 36 3d 09 bf
       0.5080641 -0.2564178 -0.44359544 -0.53609025
0003e0 07 c2 a8 be bd 6f 47 3e 10 8f 81 3d f8 1e b7 3e
       -0.3296053 0.19476219 0.06326115 0.35765815
0003f0 f7 9f 07 3f 8c d9 02 3f 4d 49 ec 3e 80 03 ef 3e
       0.5297846 0.511132 0.46149674 0.46682358

bias f4 [256]
000000 c6 ec 4e be 8b fb 1e 3f a7 2c 29 3e ed f3 30 3e
       -0.2020751 0.62102574 0.1652094 0.1728055
000010 66 80 11 3d 4d 21 87 3d f5 48 f6 3c 19 be 0d 3f
       0.03552284 0.065981485 0.030064085 0.5536819
000020 d3 35 7d 3e 83 13 14 3f 61 1c d6 be 6e 7e 71 3c
       0.24727564 0.5784227 -0.41818526 0.014739616
000030 15 ca 00 be a9 3b f0 3d 9b 41 e5 be b0 2b 35 3f
       -0.12577088 0.11730129 -0.44776616 0.70769787
000040 7a 0e 11 3e 18 c7 75 bd fa ca b5 3b 9e 0d ae be
       0.14165679 -0.060004324 0.0055478783 -0.33994764
000050 0c bd a8 3e 36 1d 8b 3e b7 b5 e9 bd e8 cc a0 be
       0.3295673 0.27170724 -0.114116125 -0.3140633
000060 2b 19 05 3f 96 2d a6 be 10 0f 0f bf dc a7 88 3d
       0.5199153 -0.32456654 -0.5588236 0.06672642
000070 b6 1f 0a bf 57 8f dd be 6c 84 2e be 75 45 90 be
       -0.5395464 -0.43273422 -0.17042702 -0.28177992
000080 9b 3b 59 3e 3f 7a 1d 3f 65 a7 22 3f 33 c8 03 3f
       0.21214144 0.6151466 0.63536674 0.51477355
000090 54 7f 1c bf 74 ce b3 3e ca dc 54 3e d7 8e 8e 3d
       -0.6113179 0.3511845 0.2078735 0.06960838
0000a0 8e 25 f3 3d 47 6a d5 3d 94 cc 1c bf 42 77 ca bd
       0.11872397 0.104206614 -0.6124966 -0.09886028
0000b0 c4 3b e9 3e b7 7f a5 bd 9b 46 0c 3e d2 74 e4 bd
       0.4555341 -0.08081 0.13698809 -0.11155094
0000c0 ed 83 1b be cc f4 b4 be c7 bc d5 3e 79 d7 19 3f
       -0.15187044 -0.35343015 0.41745588 0.6009441
0000d0 8c f4 2c 3f 35 ee 2d 3f ed 4e 26 bf 79 3e 18 bf
       0.6756065 0.679416 -0.6496418 -0.59470326
0000e0 85 f2 83 3e 03 0f 6c bd 27 ca 1f 3f 90 2b 1c bf
       0.25770965 -0.057631504 0.62417835 -0.6100397
0000f0 8a 77 e4 be d8 bd f0 be 0b b1 05 3f 55 01 1d bf
       -0.4462245 -0.4701984 0.5222327 -0.6133016
000100 5d cd c9 3e 41 58 29 bf e3 c6 87 3e a7 94 72 3e
       0.39414492 -0.6615029 0.26518926 0.23689519
000110 f4 7b 24 3f a2 7a c7 bc 6d d9 50 be e4 bd db 3e
       0.6425164 -0.024350468 -0.20395441 0.42918313
000120 cb e8 f6 3e 72 8e c8 3e ef 8d 81 bc c5 bb c9 be
       0.48224482 0.39171177 -0.01581475 -0.3940107
000130 a5 e3 1e bf d3 55 73 be bc f3 d8 3d 1e 61 c7 3e
       -0.6206611 -0.23763208 0.10593364 0.38941282
000140 02 8c d8 bd cb 88 9b bd 72 90 e5 3d 51 f4 e2 be
       -0.10573579 -0.075944506 0.112091914 -0.44327024
000150 a1 0f a2 3e b4 91 5b be cd 19 07 be da 9a 88 be
       0.3165255 -0.214423 -0.13193436 -0.26680642
000160 69 25 e1 bd 6c 2f ce bd ee 42 f4 bd a9 59 19 3f
       -0.109934635 -0.10067639 -0.11926828 0.59902436
000170 bf a1 2b 3f ce 7f 33 3f 01 ac ab 3e 59 53 e4 3e
       0.6704368 0.7011689 0.33529666 0.4459484
000180 52 66 ef bc 27 ff d2 be fe 4b c5 be 57 d4 5d be
       -0.029223595 -0.4121029 -0.3853454 -0.21663032
000190 74 ed e8 3c 41 58 78 bd 14 c3 20 bc bb d4 fd be
       0.028433539 -0.06063104 -0.009812135 -0.49576363
0001a0 4e 0c 83 be dd 39 10 3f da f4 62 be 7d 05 83 3e
       -0.25595325 0.5633829 -0.22163716 0.25590125
0001b0 d5 2e 14 3f 9d 36 15 bf db 44 11 bf d0 aa a2 3e
       0.5788396 -0.5828646 -0.5674569 0.31770945
0001c0 40 0f c6 3c 35 85 05 bf 26 0b 2d 3f 53 37 49 3d
       0.024177194 -0.5215638 0.67595136 0.049125027
0001d0 2d e5 a9 bd 1e 60 0d bf ab 4d 05 bc 35 d9 e2 3e
       -0.08295665 -0.5522479 -0.008136193 0.4430634
0001e0 8a 36 97 bc e5 0a e6 3e 62 63 28 be 4d b2 d6 3e
       -0.018458623 0.44930187 -0.16444162 0.41932908
0001f0 45 54 12 bd a8 66 26 3f e6 b8 fd be c3 26 20 be
       -0.035724897 0.6500039 -0.4955513 -0.15639786
000200 0e 37 a3 bc 48 8a 63 3e 5b ac 32 3f 4c aa 24 3e
       -0.019923713 0.22220719 0.69794244 0.16080588
000210 f7 2a 11 3f 90 df 2a be d6 af ab be 39 25 49 3e
       0.56706184 -0.16686845 -0.3353259 0.19643106
000220 66 26 1c bf 71 8e 90 be d6 50 07 bf 1b 40 0c bf
       -0.6099609 -0.28233674 -0.5285772 -0.5478532
000230 33 7d 05 3f 1a c1 b1 3d 9b 85 22 bf 04 81 f4 be
       0.52144164 0.08679409 -0.63485116 -0.4775468
000240 a5 da 30 3f a8 1d 05 3f ed 91 84 3e 5d ef cc 3e
       0.69083625 0.51998377 0.25892583 0.4002637
000250 13 70 d4 3e 1e 0e 8a 3e a9 55 07 be 7c f6 fc be
       0.41491756 0.26963896 -0.1321627 -0.49406803
000260 90 92 c5 3e 20 fe 16 be 7b 58 4a be 71 86 2a be
       0.3858838 -0.14745378 -0.19760315 -0.16652848
000270 0b 90 0f 3f 66 04 12 bf ca fd ae 3e 53 9c 54 3b
       0.5607917 -0.5703796 0.34178 0.003244181
000280 68 3d 8d 3d 3a d9 fa be 97 d2 da bd 44 20 25 3e
       0.06896478 -0.48993856 -0.10684698 0.1612559
000290 62 69 aa 3e e6 dd 39 be a4 c8 82 3e 28 76 4c 3e
       0.33283526 -0.18151054 0.25543702 0.19966948
0002a0 bd 42 9a 3e 42 c0 e5 3e 18 f0 f0 bd 00 1b 35 3f
       0.30129042 0.44873244 -0.11764544 0.70744324
0002b0 5c bc 24 3e e2 28 c1 be fc 70 0a be 33 4e 52 be
       0.16087478 -0.37726504 -0.13519663 -0.20537643
0002c0 54 99 34 3e 74 77 9f be d9 f7 3b be 0b 24 9d bd
       0.17636615 -0.31145823 -0.18356265 -0.0767289
0002d0 de 08 bd be 13 ba 84 3c 0b 76 56 bd 81 4d 73 be
       -0.36920828 0.016202008 -0.05235867 -0.23760034
0002e0 0e fa 07 3f 3e c8 c9 3e bf 3e 32 3f 3f 9c c3 3e
       0.5311593 0.39410585 0.6962699 0.38205144
0002f0 ac 23 95 3e 31 97 ba 3d 1d 55 15 3e ae 19 2f be
       0.29128778 0.09110869 0.1458325 -0.1709964
000300 5d a4 12 3e da bf 40 3e a1 93 24 be d1 4a 21 bf
       0.14320512 0.18823186 -0.16071941 -0.63004786
000310 20 e5 b0 3e 8a 6e 98 3d 23 8f f9 3e 44 db d0 3b
       0.34549809 0.07442959 0.48742017 0.0063737947
000320 07 6a 09 3f eb 7d d9 3e 5a 55 30 3f 4e bb 56 be
       0.5367741 0.4247888 0.68880236 -0.20969889
000330 bd 60 33 bc ad 27 08 be 51 fd 01 bf 30 3b 81 3a
       -0.010948357 -0.13296385 -0.50777155 0.0009859558
000340 d4 8b 92 be 60 c3 d2 3d 4f 41 e6 be 56 34 5f 3e
       -0.28622305 0.10291171 -0.44971702 0.21797308
000350 43 b7 23 3f 21 b2 d7 bd 66 5f 33 be 7c 68 88 3e
       0.6395151 -0.10532022 -0.1751686 0.26642215
000360 9f 27 90 be 0f 41 1f 3f b9 6d 32 be 62 9e 57 3e
       -0.28155228 0.62208647 -0.17424668 0.21056512
000370 54 37 c6 3e f8 7d de 3d f5 2e 53 be b7 94 03 3e
       0.38714087 0.108638704 -0.20623381 0.12849699
000380 5d 35 d6 3e c6 9b 0e be db c5 20 bf e6 b6 2a 3e
       0.41837588 -0.1392661 -0.62801903 0.16671333
000390 b2 d9 b6 be 3e aa a3 3e c5 bf 22 3e 21 58 28 3f
       -0.35712963 0.31965822 0.15893467 0.65759474
0003a0 bf d4 01 be a6 1d 1b bf 4d a4 72 be e2 ca d9 3e
       -0.12678812 -0.60592115 -0.23695488 0.425376
0003b0 03 45 18 be 63 08 08 bf 01 ba 0c bf 65 09 16 3d
       -0.14870076 -0.531378 -0.5497132 0.036630053
0003c0 6f f8 19 bf 3a 1f 11 3f b9 37 26 3f 34 1e 19 3e
       -0.60144705 0.5668827 0.64928776 0.14952928
0003d0 75 7e 2d bd 07 cb 18 3e 1f dc d1 3e 02 72 c9 3e
       -0.042356927 0.14921199 0.40988252 0.39344794
0003e0 c5 d7 4e 3e 8d f0 0c bf c4 43 b5 be aa 16 d3 3c
       0.20199497 -0.5505455 -0.35403264 0.025767643
0003f0 1f 80 c0 3e ef 3b 16 be d1 69 cb 3e b1 7c 11 bd
       0.3759775 -0.146713 0.3972917 -0.035519306

weight f4 [64, 256]
000000 29 9a 81 3c 79 f4 e6 3c 25 3e 21 3d 13 93 2d bd
       0.01582058 0.028192746 0.039365906 -0.04237659
000010 b6 fd 5a bd 4c f2 b4 bb 91 30 3a 3b 16 d8 d0 39
       -0.053464614 -0.005522048 0.0028410295 0.00039833848
000020 35 38 cd bc a8 f2 b9 3c 35 9e 93 3b 92 2f 14 3d
       -0.025051216 0.022698715 0.0045049437 0.03617818
000030 1f 55 8d 3b f6 fa 20 bd 92 9b 8f bd 79 b7 2c 3d
       0.0043131257 -0.039301835 -0.070120946 0.04216716
000040 42 3d 45 3d b2 01 f5 3c 8b 73 8c 3b e9 c9 64 3a
       0.048154123 0.029908035 0.0042862347 0.0008727597
000050 00 f6 5d bd d6 5a c1 3b f3 c4 3e bc 4b 84 e9 bc
       -0.054189682 0.005900721 -0.011643636 -0.028505465
000060 e5 3b 6a 3b 01 6b 82 3a c6 c2 5f bd 69 af 3d 3a
       0.0035741266 0.0009950103 -0.05462911 0.0007235916
000070 0d b1 48 bc 24 99 1b 3d 5b 89 cd 3c 6b f0 8f bd
       -0.012249243 0.037987843 0.02508991 -0.07028278
000080 9a fd 71 bd 01 9d 53 bb aa 2e 78 bd 40 36 ae ba
       -0.059079744 -0.0032289627 -0.060591377 -0.0013291314
000090 0e 91 c6 3a 7d 7b e4 3c 93 04 f1 bb 69 9d 79 ba
       0.0015149431 0.027890915 -0.0073552816 -0.0009522052
0000a0 c2 ff 19 3d f0 34 6c 3b c2 75 55 bd 46 2b 81 bc
       0.037597425 0.0036042295 -0.052114256 -0.015767705
0000b0 92 e1 89 bd 02 5d c7 bb 0b 46 0b bd aa 0f 2d bd
       -0.06732477 -0.0060840854 -0.034002345 -0.042251267
0000c0 0c d3 aa ba f5 bc a0 bb d5 da 2b bd 70 68 a9 bc
       -0.0013032868 -0.004905338 -0.04195674 -0.020679682
0000d0 1d 9b 8a bc 89 8e ce bc 59 f4 99 3c 3e 22 8c bc
       -0.016919667 -0.02521445 0.018793272 -0.017106172
0000e0 80 11 4c 3c 29 2d 19 bd 56 05 89 3c 8d cb 4d 3d
       0.012455344 -0.037396584 0.016726177 0.05024295
0000f0 16 2b f6 3a f2 77 67 39 eb c7 18 bd ea 5e 92 39
       0.0018781151 0.0002207456 -0.03730003 0.00027918007
000100 4a 88 55 bd 2f f6 34 bd 1b ab c3 bc 18 59 1b 3c
       -0.05213193 -0.04418009 -0.0238853 0.009481691
000110 f4 01 c1 38 33 3f b6 3c ac a0 0f bd d9 b0 06 3c
       9.203321e-05 0.022246933 -0.035065338 0.008220875
000120 04 31 12 3d b8 02 88 bd 73 e0 98 3b 48 9a 92 bd
       0.035691276 -0.066411436 0.0046654283 -0.07158333
000130 de c5 a0 3b 7f 28 20 3b 3a d4 d1 ba c0 34 0d 3d
       0.0049064 0.00244382 -0.0016008683 0.034474134
000140 01 8f 92 bb ad 5c 46 3a 66 ba 45 bb 0a b5 bf bc
       -0.004472614 0.00075669104 -0.0030170917 -0.023401756
000150 bc d6 ac bc c4 06 26 3d 85 0c 81 3b c4 11 21 3c
       -0.021098487 0.040533796 0.00393826 0.009830896
000160 17 c9 f0 3a fb 55 de bc 96 d6 8d bd db 72 bf 3c
       0.0018370476 -0.027140608 -0.06925695 0.023370197
000170 ad 56 9b bb 9d e0 c3 3c da e5 1b 3d ae e4 98 3c
       -0.004740557 0.023910815 0.038061 0.01866373
000180 c6 33 45 3c c3 92 2a ba 15 b5 83 bd ae 2b 97 3a
       0.0120362695 -0.00065068546 -0.06431023 0.0011533403
000190 cb f5 ac 3c b6 d3 40 bb 11 f4 fd ba 8e 61 11 bd
       0.021113297 -0.0029423065 -0.0019375106 -0.035493426
0001a0 14 84 c6 bc af d6 34 3c 7c be 8b bc d4 30 3e 39
       -0.024232902 0.011037513 -0.017058603 0.00018138002
0001b0 87 c0 09 3d a2 35 69 ba d6 4d 60 bc c8 73 5c bd
       0.033630874 -0.00088962365 -0.0136904325 -0.053821355
0001c0 f9 26 f0 ba 79 82 9f bc d7 81 48 3c 98 c0 f0 ba
       -0.0018322162 -0.019471394 0.0122379875 -0.0018367944
0001d0 6a 3b 06 bd d3 3e fb bc 97 dd 40 3a b5 3d f2 3c
       -0.032771505 -0.030669605 0.0007357238 0.02957044
0001e0 d3 9c 80 bd 45 79 0b 3d 81 42 1a 3d 32 75 99 ba
       -0.06279912 0.0340512 0.03766108 -0.00117079
0001f0 a9 74 ae bb 92 b2 5d bd d5 e2 95 bd 52 83 44 bc
       -0.0053239656 -0.054125376 -0.073186554 -0.0119942
000200 c4 e3 a0 3a 49 f2 17 3d d9 e5 37 3b 2a fb 22 bd
       0.0012274911 0.037096296 0.0028060584 -0.03979031
000210 78 16 88 bc 8d e1 09 bc 05 52 8e bd 35 51 86 ba
       -0.016612276 -0.008415592 -0.06949238 -0.001024759
000220 bd eb 2c bd 3f 06 5b bb 71 21 3d bc cd 33 40 3c
       -0.042217005 -0.003342047 -0.011543618 0.0117311
000230 9b 1d 45 bd 74 6c e4 bc 7a 47 41 bd 61 b8 f3 3c
       -0.048123937 -0.027883746 -0.047187306 0.029751005
000240 11 53 93 3a cf 2e b9 bc 44 99 80 bd 3f 36 8e 3c
       0.0011239966 -0.022605328 -0.06279233 0.01735985
000250 12 b5 8c bd 29 ab 85 3b 01 06 3f bd 66 4f 06 3b
       -0.06870474 0.004079242 -0.046636585 0.0020494103
000260 9f b2 80 bd d0 a1 2e 3d 97 f8 07 3d 20 11 59 bc
       -0.06284069 0.042634785 0.033196058 -0.013248712
000270 f5 3f 11 bd a2 58 7a bd b8 fa 43 bd c3 3b 15 3d
       -0.035461385 -0.061119683 -0.047846526 0.036433946
000280 b5 b1 e5 3c d9 56 71 3c 80 59 8d 3b 18 b5 23 3d
       0.028038839 0.014730179 0.0043136477 0.039967626
000290 84 84 80 bd ec b2 72 3c d4 d5 0f bd 40 24 06 b9
       -0.06275275 0.014813166 -0.03511603 -0.0001279274
0002a0 d7 84 82 ba 29 27 b1 ba e2 f3 d3 3a fb f8 7e bd
       -0.0009957802 -0.0013515699 0.0016170705 -0.062249165
0002b0 60 4c b3 3c ed b7 86 bc 24 4d 27 bd 5f 03 4f 3c
       0.021887004 -0.016445125 -0.04084505 0.012635081
0002c0 fe 42 17 bd 53 78 b8 bc 3c c9 34 ba 16 b0 63 3c
       -0.036929123 -0.022518313 -0.00068964413 0.013896963
0002d0 5c 9f db 3c 29 78 8a 3c e5 7c 49 3d 44 63 c0 bc
       0.026809387 0.016903 0.049191374 -0.023484834
0002e0 f9 83 f8 bc 93 82 0e 3c 46 c7 6d bb e9 89 24 bd
       -0.030336367 0.0086981235 -0.0036282106 -0.040170584
0002f0 68 76 93 3c 08 b7 3e 3c fd d3 c1 3c 65 db bf bb
       0.018000796 0.011640318 0.023660654 -0.0058550113
000300 64 d7 07 bb 9a 05 b7 bc 19 87 03 bd 07 e9 78 bd
       -0.0020727748 -0.022341538 -0.03211126 -0.060769107
000310 bd 2c 8d bd 31 ac 9d bb c0 fb 54 bd 84 10 40 bd
       -0.06893299 -0.0048117866 -0.0519979 -0.04689075
000320 ce 2d c7 39 3f c7 ae 3b 93 c6 23 bd 2a ee 21 3d
       0.00037990365 0.0053338106 -0.039984297 0.03953377
000330 23 eb e8 bc f4 bd 6a 3a bb 5c 83 bd fd 4c 3c bd
       -0.028432434 0.0008954697 -0.06414171 -0.04597186
000340 c0 3c c6 bc 4f 22 22 bc b0 1e 63 bd 26 a7 d4 3a
       -0.02419889 -0.009895875 -0.055449188 0.001622413
000350 2d c3 94 ba 4d 7b 4b 3c 37 d7 3a 3d 03 fb 8d bb
       -0.0011349671 0.012419534 0.0456154 -0.0043329014
000360 6b 99 67 3b 90 8c 58 bd eb 11 54 bd 7e 25 2c bd
       0.0035339247 -0.052868426 -0.0517749 -0.042027943
000370 ff b8 66 ba a3 72 26 bd 7e 2c 8b 3a 03 ef 61 bd
       -0.000880137 -0.04063667 0.0010618118 -0.05515958
000380 e5 11 36 bd 67 4b 8f bc f4 12 b0 bb 6c 31 9a 3c
       -0.04445066 -0.01749201 -0.005373353 0.018822394
000390 09 eb 11 3d 5a c3 73 bd 18 d6 80 3b 06 5b 87 ba
       0.035624538 -0.059512474 0.003931772 -0.001032681
0003a0 f3 c8 95 3b 3c c7 ce bc 69 00 f2 3c cb 01 6e bd
       0.004571074 -0.025241487 0.029541211 -0.05810718
0003b0 e7 cc 0d 3d 54 85 30 3c d5 28 1b 3d a1 0f 7e 3b
       0.03461924 0.010773975 0.037880737 0.003876664
0003c0 e8 b7 3a 3a 77 6a 52 3c ce 29 5e bc 70 90 d8 3c
       0.0007122741 0.012842766 -0.013559772 0.02643606
0003d0 c3 3d 05 3d 0b e3 13 bd 0d 27 06 3d b6 1d 17 bc
       0.032529604 -0.036105197 0.032752085 -0.009223392
0003e0 42 3b af 3c 0b 1d 2e bc 27 3b 6b bd 68 5f c5 bb
       0.021390561 -0.010627042 -0.05742946 -0.006023336
0003f0 44 34 6d 39 39 36 a9 bc 0b 1a 18 3d ad 22 8e 3c
       0.00022621552 -0.020655738 0.03713421 0.01735052

bias f4 [64]
000000 81 12 5b bd a8 12 07 3d 31 6f 60 3d 48 ea 80 bc
       -0.053484444 0.032976776 0.05479354 -0.015736714
000010 9d 2d b8 bb 3b 52 75 3d 66 16 82 3d 08 7b 85 3d
       -0.005620672 0.059892874 0.063519284 0.06517607
000020 5b 53 74 3d 96 c6 fc ba 06 fe 4b 3d fb 48 6d 3b
       0.059649806 -0.0019285257 0.049802803 0.003620683
000030 79 82 03 bd 5f 1a 3a 3d 12 16 ab bc 62 e2 48 bd
       -0.03210685 0.045435306 -0.020884547 -0.04904402
000040 d9 4d 3b bd 6e 3b ea 3c 9b 24 31 3d 2c cd a8 3d
       -0.04572854 0.028592791 0.0432478 0.082422584
000050 85 96 60 bb 82 f5 b1 3d 67 09 82 3b 4f de c9 bc
       -0.0034269404 0.08689405 0.003968406 -0.024642138
000060 65 45 94 3b d7 e2 1d bc 77 f6 13 bd 35 20 c8 bb
       0.004524874 -0.009636602 -0.03612372 -0.006107355
000070 2a da a8 3c 4b 43 54 3c bd a0 18 bc 1a 20 b6 bc
       0.020611841 0.012955497 -0.009315667 -0.022232104
000080 9d 52 a2 bc 01 1d ec 3c 09 18 c8 3c 1a 91 0c bc
       -0.019814784 0.028822424 0.024425523 -0.008579517
000090 bc d6 8f 3a 07 15 1d 3d 0b 5a 29 3d 78 40 5f bd
       0.001097403 0.03835013 0.041345637 -0.05450484
0000a0 68 72 77 3d 33 c4 d0 3d 28 b9 19 3d 77 f2 9a 3d
       0.06041184 0.10193672 0.037530094 0.07565778
0000b0 ff e0 61 3d f3 71 15 3d 21 24 1f 3d 09 cc a7 bb
       0.055146214 0.036485624 0.038852815 -0.0051207584
0000c0 35 96 e4 3c 4f cd 2e 3d 4c 9c 11 3d 39 e8 b4 bd
       0.027903656 0.042676266 0.035549447 -0.088333555
0000d0 eb 6d 54 3d 8e ef c0 bb 95 c9 81 3d d5 75 ea 3c
       0.05186264 -0.005887932 0.06337277 0.02862064
0000e0 fb 4c 8a 3d 00 02 9b bd 72 cc 92 bd 97 a6 2c 3d
       0.06752964 -0.07568741 -0.07167901 0.04215106
0000f0 ee ce c5 3c 12 2a 8b 3c 37 66 fa bc cd d8 d9 bc
       0.024146523 0.016987834 -0.030566318 -0.026592636

weight f4 [32, 64]
000000 bc a4 0e bc 8f 23 8e bd 5d da b6 bc 79 bc d4 bd
       -0.008706268 -0.06940376 -0.02232092 -0.10387511
000010 47 e4 1c bd fc d7 47 3d b7 c3 2a bd 6b 46 4b bd
       -0.03830364 0.048789963 -0.041690554 -0.049627703
000020 d2 66 3b bc bc 29 80 3c dd 33 2d 3d 6f 61 78 3d
       -0.0114380885 0.0156449 0.04228579 0.060639795
000030 f5 93 e0 bd 21 51 90 3d ab 4b 42 bd e8 88 ad 3d
       -0.109657206 0.07046724 -0.047435444 0.084733784
000040 9c 55 a9 3d 0c e5 ac 3d 4f 8a 9b bc ea 6c fe bd
       0.08268282 0.08442125 -0.01898685 -0.124231175
000050 69 fd 61 bd b2 88 34 bd 13 0c 1a 3d e7 4f 98 3d
       -0.05517331 -0.044075675 0.03760917 0.07437115
000060 42 de 39 3c ae 3f ab ba 00 a4 bd bd e9 83 3c 3d
       0.011344494 -0.0013065243 -0.09259796 0.046024237
000070 de bf bd 3d 68 77 b1 3d fa fc 07 3d a8 99 a8 bd
       0.092651114 0.08665353 0.03320024 -0.082324326
000080 5c 22 81 3d 1d 30 ab bd 32 95 2b bd 71 b5 22 3d
       0.06305382 -0.08358786 -0.04189033 0.039723817
000090 58 1e f0 bd 73 92 9b 3d 19 b6 07 be 08 e1 9c 3d
       -0.117245376 0.07596292 -0.13253058 0.07660109
0000a0 5c 9a 15 bd 19 a0 af bb 84 5a 00 3e 6b f3 95 bd
       -0.03652416 -0.0053596613 0.12534529 -0.07321819
0000b0 ff 89 82 ba ba f7 0e 3c ee b1 cb bc 29 76 f7 bd
       -0.0009959339 0.008726055 -0.024865117 -0.12083084
0000c0 e6 af 2b bd c0 d9 06 3d 6b ae 02 bd d0 44 80 3d
       -0.041915797 0.032922506 -0.03190462 0.06263125
0000d0 bc be 05 3d 31 fb 27 bc 74 4c 94 bd 14 b4 06 be
       0.0326526 -0.01025276 -0.07241145 -0.13154632
0000e0 c0 46 76 3d 09 e9 35 bd ec 51 64 bb 78 2e ab 3c
       0.060126066 -0.044411693 -0.0034838868 0.020896181
0000f0 d5 2e e3 bd 9e 33 b3 bc 90 b0 28 3d 64 a1 f3 3d
       -0.11092917 -0.021875199 0.041184008 0.11896017
000100 ce 4c 9c 3b 76 18 37 3e a3 98 ec 3d 17 f4 9c 3d
       0.004769898 0.17880425 0.11552551 0.07663744
000110 02 03 6d 3c 63 4b 00 3e 71 d9 f6 bc 9b 17 34 3c
       0.014466049 0.12528758 -0.030132981 0.010991956
000120 40 17 98 3d 98 69 8a bd 69 e6 ac 3d 44 ec 49 3d
       0.074263096 -0.06758422 0.08442385 0.049297586
000130 b2 d0 c7 bc af 18 fa 3d ed 95 f8 3c 8d cc f6 bc
       -0.024391506 0.12211739 0.030344928 -0.030126834
000140 f8 f2 07 bd 1d b2 7c 3c 52 f8 97 bc 90 90 ca bc
       -0.033190697 0.015423325 -0.018551026 -0.024727136
000150 c8 19 1a 3e f1 35 e9 3d 85 28 69 3c 14 bb 9d 3c
       0.15048897 0.11387242 0.014230852 0.019254245
000160 70 ce 64 bc e3 d9 15 bc e0 26 80 bd a8 7f e3 3b
       -0.013965234 -0.0091461865 -0.06257415 0.006942708
000170 54 f6 1f 3d 47 de 20 bd 99 aa 13 3d 7d 57 0e bd
       0.039053276 -0.03927448 0.036051366 -0.034751404
000180 34 ff c6 3c 4d ad 11 3c dd 4e 10 bd 98 7c 38 3e
       0.024291612 0.008891416 -0.03523146 0.18016279
000190 ef c4 ff 3c c5 5c 58 bc 94 4d 37 bd d4 5c a8 bd
       0.031221835 -0.013205712 -0.04475172 -0.082208306
0001a0 f6 2a 8f bc 1e 94 c9 3d 6e d0 01 bd 02 5d 2c bc
       -0.01747654 0.09842704 -0.031692915 -0.010520222
0001b0 dc 61 eb 3d ff 92 c1 bc 70 eb 3b b8 7f d6 01 3e
       0.114932746 -0.023629664 -4.4803543e-05 0.1267948
0001c0 48 33 94 bd 34 42 1f 3e c8 bb 1f 3d 71 cd fa 3c
       -0.072363436 0.15552598 0.03899744 0.03061554
0001d0 38 8c a2 3d 6a f9 06 bc f1 95 e8 ba 09 ce 73 bd
       0.07936901 -0.008238176 -0.0017744881 -0.059522662
0001e0 12 bb 9e bd be 88 38 bb 40 92 b9 bc 6f 5c 2d 3e
       -0.077505246 -0.0028157677 -0.022652745 0.16929792
0001f0 ec 04 3f 3e de 0a 2c bd 27 10 31 3d 82 eb b4 3c
       0.18654221 -0.04200255 0.043228295 0.022084955
000200 22 08 46 bc 81 7f 7a 3c ce ba 79 3d f0 03 5c 3d
       -0.0120869 0.015289188 0.060969166 0.053714693
000210 af 46 56 3d e1 ca f1 3d 51 88 9d 3d 23 3f 66 3d
       0.052313503 0.11806274 0.07692016 0.056212556
000220 69 9b 7d bc 1d 1e 62 bc 0f 0d b9 bd 7d 08 4c bc
       -0.015478947 -0.013801125 -0.09035694 -0.012453196
000230 04 bc ef bc 7a 64 dc 3d 5c d7 5e 3b b9 25 63 3d
       -0.029264458 0.10761352 0.0034002876 0.055455897
000240 e6 cd 90 3b 7d ea 69 bd a5 19 8d 3d bc 00 dd bd
       0.0044190763 -0.05710839 0.06889657 -0.10791156
000250 39 5b 8c bc 93 20 df bd b9 26 59 3d 42 5d a8 3d
       -0.017133342 -0.10894885 0.053015444 0.082209125
000260 e6 b8 84 bc d4 ba 82 ba 9a 98 fa 3d 7b 0a ce 3c
       -0.016201448 -0.0009973892 0.12236138 0.025151482
000270 3e 24 b0 3d 1b 9f 45 ba 59 10 ad 3d 0d 1a 62 bc
       0.08600663 -0.0007538662 0.08450384 -0.013800156
000280 da 1c ee 3c 0a 36 7f bc 9f 17 00 bc 63 8a 01 3e
       0.029066492 -0.015576849 -0.007818132 0.12650447
000290 f2 a0 02 3d 18 9a 10 bd 7b 0b 25 3e 26 e8 ee 3d
       0.03189177 -0.035303205 0.1611766 0.116653726
0002a0 a8 98 d1 bc e8 f0 41 3d 8b 40 13 bd de b5 9e 3d
       -0.025585487 0.047348887 -0.035950225 0.07749532
0002b0 22 23 52 3d 3d 1c 4d bd 2c df 12 3d ad 05 70 bd
       0.051303037 -0.05007576 0.035857365 -0.058599163
0002c0 77 b3 e0 bb 6c c4 46 3c a1 a8 4f bd 6f 85 f6 3c
       -0.0068573314 0.012131792 -0.050697926 0.030092923
0002d0 4e 02 e8 bd ef 92 34 3c 75 31 25 3d 7c 27 27 3c
       -0.113285646 0.01102136 0.04033037 0.010202285
0002e0 69 6f 8b bd 03 0f 8b 3d 41 f7 64 bd 32 8b c1 bd
       -0.06808359 0.06789973 -0.055899862 -0.094503775
0002f0 c2 a4 09 3e 0f 46 02 be 17 36 e9 ba 78 90 ae 3d
       0.13441756 -0.12722038 -0.0017792609 0.08523649
000300 ab a8 65 bd 79 ff 20 bd f1 65 5d 3d ca ea 4e bd
       -0.056069057 -0.039306138 0.054052297 -0.05051688
000310 e8 39 ff bd f2 01 bd 3d 07 d7 1c 3e 41 11 74 bc
       -0.124622166 0.09228887 0.15316401 -0.014896692
000320 f4 c4 35 3c 98 65 39 3d bd 32 2f bd 93 fe 70 3d
       0.011094321 0.045262903 -0.042772997 0.05883653
000330 b8 41 99 3c 0a f4 05 bc fb a2 94 bc 75 bb 83 bd
       0.018708095 -0.008175859 -0.018144121 -0.06432239
000340 b2 f1 61 bc 5a e2 09 3e 15 f2 1d bd ac d2 82 3d
       -0.013790535 0.13465253 -0.038560946 0.06387839
000350 c0 32 bd 3d b4 56 ac 3d dc 37 af bc c1 bf 26 3c
       0.092381954 0.08414975 -0.02138894 0.010177554
000360 bc 76 12 bc d9 35 75 bb 3b 64 9d 3b 28 ab bb bc
       -0.008939441 -0.003741613 0.004803208 -0.022908762
000370 4f 54 88 3d 6d 33 66 bc b2 9f 71 ba 87 8c 35 3d
       0.066567056 -0.014050347 -0.0009217217 0.04432347
000380 65 d2 c3 3d ff 0c b4 bd ff 05 f8 3c c1 21 79 bd
       0.09561614 -0.08791541 0.030276297 -0.060823206
000390 a6 ae b2 3c 98 8f 86 3c 47 6d 1c 3d f3 e2 ca 3b
       0.021811794 0.016425893 0.038190152 0.0061916052
0003a0 c3 61 a8 bd e9 48 ec 3d 2c 9b bc bd 77 b6 1d 3c
       -0.082217716 0.11537344 -0.09209284 0.009626023
0003b0 e3 8d 63 bd 8d 43 0e bd 28 c9 89 3c 98 ea 93 3d
       -0.055555236 -0.03473239 0.016819552 0.072224796
0003c0 7d 2f 25 bd 32 88 00 3d 31 9f 3c 3d a8 7f b4 bd
       -0.04032849 0.031379886 0.046050254 -0.08813411
0003d0 28 c0 5b bd e9 cd 29 3c eb 87 c5 3a 0e af 35 3d
       -0.05365005 0.010364034 0.0015070414 0.0443564
0003e0 33 12 7a bd e3 9b 25 3d dd 5d a6 3c b1 8e d8 bd
       -0.061052512 0.04043187 0.02030843 -0.10574091
0003f0 53 f2 08 3e f6 a0 db bd 86 73 4f bd a3 a5 ab bd
       0.1337369 -0.1072406 -0.05064728 -0.08381202

bias f4 [32]
000000 18 1e 9e bd 9c 12 77 bd 68 d6 87 bc 0e af e3 3d
       -0.07720584 -0.06032048 -0.016581729 0.111173734
000010 ea b6 31 3d 01 74 47 bc 61 80 a6 bd ee 41 5a bd
       0.04338733 -0.012173654 -0.08129955 -0.05328553
000020 82 5b 12 3e a3 68 84 bc 97 29 d1 3c d3 92 88 bd
       0.1429272 -0.016163176 0.025532527 -0.066686295
000030 57 f5 2f bd da 19 ef bc a8 88 ee 3d bd e9 84 3d
       -0.042958584 -0.029187132 0.11647159 0.064898945
000040 48 82 ee bc 09 28 55 bd 1a 54 12 3e 7d 73 09 bd
       -0.029114857 -0.052040134 0.14289895 -0.033557404
000050 43 cd 99 3d c6 6d ca ba b6 09 18 3e bf 5a c7 3d
       0.07509854 -0.0015444092 0.14847454 0.09734105
000060 8d 6d 9a 3b fd 5f 16 be 76 a3 5d 3d 09 71 ca 3d
       0.0047127665 -0.14685054 0.054110967 0.09884841
000070 6f 9e 61 3d 96 85 2f 3d 35 8b 06 3e 06 e0 49 b9
       0.055082735 0.042852007 0.13139041 -0.00019252309

weight f4 [8, 32]
000000 27 17 0a 3d 90 8e 30 3e ce ef 00 3e 67 db 3d 3c
       0.033713486 0.17241883 0.12591478 0.011587954
000010 bf 3f 03 be d9 e5 f3 3d ca 6b be bd 3a fd 57 bc
       -0.12817286 0.11909074 -0.09297903 -0.0131829325
000020 10 94 ca bd 72 48 ae 3b 0b fd 0d 3e 80 91 5e bd
       -0.09891522 0.0053186947 0.1386606 -0.05433798
000030 03 93 f8 bc 4c 27 b5 bd 2d 38 b3 3d 2f 3a 32 3c
       -0.030343538 -0.08845386 0.08750949 0.01087813
000040 90 db d5 ba db 68 28 be d3 30 0e 3e db 1b 19 3d
       -0.0016316045 -0.16446249 0.13885812 0.03738008
000050 3e 23 47 3e 8b d8 82 bd f2 3f 3a 3e 0f e0 16 3e
       0.19447038 -0.063889585 0.18188456 0.14733909
000060 20 c9 98 3b f0 fd 32 be 8e 49 11 3e 62 11 3f 3e
       0.004662648 -0.17479682 0.14188215 0.18658975
000070 d9 09 ed bd 9a 9b 3a 3e de 81 9b 3d 19 96 19 be
       -0.11574144 0.1822342 0.075931296 -0.14998664
000080 ac db f9 3d 2e 1f 30 3d c4 b9 12 bd 15 81 43 be
       0.12200102 0.042998485 -0.03582169 -0.1909221
000090 88 be 35 3e c3 4f e1 3d 58 bc 92 3d de 10 f8 bd
       0.17748463 0.110015415 0.0716483 -0.12112592
0000a0 96 0e 50 bd ac 1f 28 3e b0 c3 55 3d d6 82 1c 3e
       -0.05079516 0.16418332 0.052188575 0.15284285
0000b0 ec 73 74 bb 21 f9 93 bd 95 dc 00 3e af 4c 24 bd
       -0.003730054 -0.07225252 0.12584145 -0.040112194
0000c0 4e 16 83 b9 a4 30 a6 bb 9f 41 ec 3d f2 1a e8 3b
       -0.00025002885 -0.0050717164 0.11535954 0.0070832903
0000d0 0a b8 14 3e 19 8f 0f 3e 56 48 d1 3d c4 43 83 3d
       0.1452333 0.14019431 0.10218875 0.0640941
0000e0 f0 f0 74 3b 63 ab 7f 3d a9 ce 6c 3c 48 6a 0b bd
       0.0037375055 0.062419306 0.0144535685 -0.034036905
0000f0 cc 3a b0 3c d4 16 c6 bd 5f aa 4c be a5 37 e7 bd
       0.021512412 -0.09672323 -0.19986866 -0.1128991
000100 5a 19 e1 bb 9b f4 0c be 35 0e 8d bb 90 fa 42 bd
       -0.006869477 -0.13765185 -0.004304672 -0.047602236
000110 ec 25 6c bc e1 93 e0 3d e8 05 ea 3d 04 80 8a bd
       -0.014413338 0.10965706 0.11426908 -0.06762698
000120 63 7f 29 be 18 d8 83 3d 82 d8 41 3d 27 5a 06 3e
       -0.165525 0.06437701 0.04732562 0.13120328
000130 95 d8 99 3d d5 39 34 3c 47 d8 22 be 4c ba 9c b6
       0.07512013 0.011000116 -0.15902816 -4.67085e-06
000140 ed 64 bf 3c 27 b6 06 ba 7b b3 b6 bd 00 52 b1 3b
       0.023363555 -0.0005138837 -0.08920952 0.0054113865
000150 a4 5e 11 be 43 41 c2 bd 4d 36 b3 bd 05 ac 9c 3b
       -0.14196259 -0.09485104 -0.087505914 0.0047812485
000160 7d 32 41 3c 07 df 0e be 4f 91 48 bc bd a0 31 be
       0.0117918225 -0.13952266 -0.0122416755 -0.17346473
000170 91 53 b2 bd 44 78 94 3b 7e eb b9 bd 45 a6 c0 bd
       -0.08707345 0.0045309383 -0.0907812 -0.094067134
000180 95 d2 5b 3c 97 f8 eb bc 22 a5 94 3c 22 55 3c bd
       0.013416906 -0.02880506 0.018145148 -0.045979626
000190 09 fe 22 3e 38 36 2c 3d 3c ee af bd 4a ce 3e be
       0.15917219 0.042043895 -0.085903615 -0.1863338
0001a0 aa 51 d6 3d 41 ce b5 bd aa 8f b1 bd 91 8a 85 3b
       0.10464795 -0.088772304 -0.0866998 0.0040753563
0001b0 be e8 d0 bc 9e 90 98 3d a0 67 c9 bd 1b 4f be 3c
       -0.025501605 0.074494585 -0.09834218 0.02323108
0001c0 ba f1 af 3d 29 6c d6 3d a6 0f c6 3d ad 0e 37 3e
       0.085910276 0.10469849 0.096709535 0.17876692
0001d0 48 7f 92 bc ba 59 34 bd e9 77 2f bd 93 06 fd 3d
       -0.017882958 -0.044030882 -0.042838965 0.123547696
0001e0 4f ac 9c bb e5 e4 99 bc 3a b5 13 be d6 3c 28 be
       -0.004781283 -0.018785903 -0.14424601 -0.16429457
0001f0 0f 79 46 bd d1 16 e9 bd 1e e7 67 3c 4f a4 05 3d
       -0.048455294 -0.11381305 0.014154224 0.0326274
000200 fe dc a2 bb 2d 21 c1 bd df fe d8 3d ac 16 12 be
       -0.004970192 -0.09430156 0.10595488 -0.14266461
000210 3f c0 bf 3d a8 f9 13 be 58 70 07 be 17 a7 32 be
       0.0936284 -0.14450705 -0.1322645 -0.17446552
000220 f8 a1 4b 3c 69 35 de 3d 49 36 fa bd 77 ed e1 bd
       0.012428753 0.10850031 -0.12217385 -0.11031621
000230 3c b3 e0 bc 78 89 cb ba d6 2b 01 be 80 98 26 bd
       -0.027429216 -0.001552864 -0.12614378 -0.04067278
000240 08 d7 5f bc 69 da 09 3e fa fd 32 3e af 3b 18 be
       -0.013662107 0.13462223 0.17479697 -0.14866517
000250 5b bd 07 be 42 c4 90 bd 03 d3 09 3e 79 e4 5b bc
       -0.13255827 -0.07068683 0.13459401 -0.013421171
000260 31 2d 42 bb 8a c3 b7 bd 0a b6 c5 bc 75 a7 94 3d
       -0.0029628987 -0.08972843 -0.024134655 0.072585024
000270 a3 bc 15 be 0d 6d a4 3d 60 1e 26 3d 54 ad 6d 3d
       -0.1462274 0.08028612 0.04055631 0.058026627
000280 5b 34 11 be 0a da ca bc 23 34 3d be 1b ce 2d be
       -0.14180128 -0.024762172 -0.1847692 -0.16973154
000290 52 91 1f be 94 d2 18 3e a8 ff 30 3e 02 48 97 3d
       -0.15582779 0.14924079 0.17285025 0.07386781
0002a0 41 af 46 3b 62 8e 3e 3e 89 4e 25 3e c7 7d 25 3e
       0.0030316862 0.18609002 0.1614324 0.16161261
0002b0 f1 cc 22 bc 41 e6 70 bd 34 82 51 bd 24 72 25 be
       -0.009936557 -0.058813337 -0.051149562 -0.16156822
0002c0 12 e4 65 3d 77 34 05 3e ef 95 0e 3e 16 8a 1c 3e
       0.056125708 0.13008295 0.13924383 0.1528705
0002d0 00 a7 83 bd 04 d8 0a be f6 67 f3 3c 2b 82 fc bd
       -0.06428337 -0.13558966 0.029712658 -0.12329515
0002e0 0a 32 0c 3d 3c 9d 2b 3c 6a 77 97 3d 6b 71 bf bc
       0.03422741 0.010474499 0.07395823 -0.023369512
0002f0 fb 97 40 3e 7e ea b6 3d ed a9 cd 3c a8 a2 1c 3d
       0.18807976 0.089314446 0.025105441 0.03824106
000300 e5 07 45 3c 6e 4c 47 3d c8 0d f1 3b 39 43 2e be
       0.012025808 0.048656873 0.007356379 -0.17017831
000310 2d 03 f1 3b 58 a1 00 be 82 86 25 3e e5 06 20 bc
       0.007355115 -0.12561548 0.16164592 -0.009767269
000320 4b ae 41 3e c8 b4 19 3e 27 27 44 3e d9 b9 dc bd
       0.18914144 0.15010369 0.1915556 -0.10777635
000330 65 54 c4 bc 0e 3e 06 3d eb 06 e4 3d ac 77 0b 3e
       -0.023966024 0.032774024 0.11134132 0.1361987
000340 10 1a 8b bb 88 70 ef 3d 86 ae 08 3e 7b db 1e 3e
       -0.0042450503 0.116913855 0.13347825 0.15513413
000350 80 9a 0b be 89 15 be 3d 80 05 0f 3e 8e 4b 03 be
       -0.13633156 0.09281451 0.13966942 -0.1282179
000360 21 0a e6 3b fa f5 80 bd 2e 32 34 be 4d 82 4c bc
       0.0070202504 -0.06296916 -0.17597267 -0.012482238
000370 0c 18 ca 3d 49 d3 43 bc 46 a3 d8 bd 22 e4 92 bd
       0.09867868 -0.01195223 -0.10578017 -0.07172419
000380 9b 37 77 bd 68 7c 24 3e b9 42 03 be 51 5c 89 bd
       -0.060355764 0.16063082 -0.12818421 -0.06707061
000390 40 83 f8 bd a9 54 49 3e 53 c1 d8 bd fe 79 06 bd
       -0.12134409 0.19661202 -0.10583749 -0.032831185
0003a0 86 07 00 3e ca ee 00 3e 78 74 16 bd cd c2 b8 3d
       0.1250287 0.12591091 -0.036732167 0.0902153
0003b0 96 31 87 bb 44 c9 06 be 59 bc 1c 3d e2 44 44 3c
       -0.004125784 -0.13162714 0.03826556 0.011979314
0003c0 42 39 98 bb 13 45 14 bd 49 80 95 bb 7a 01 45 3e
       -0.0046454975 -0.036198687 -0.004562412 0.19238845
0003d0 cb 9a 35 be d9 17 8c bc c7 dd 06 3e 34 44 7a 3b
       -0.1773483 -0.017101215 0.13170539 0.0038187625
0003e0 43 e0 c1 b8 07 86 20 bd e6 02 2a be b6 b9 fd 3d
       -9.244729e-05 -0.03919032 -0.16602668 0.12388937
0003f0 7e 0b b3 bd ae 26 8f bd c9 6e 17 bd fb 91 28 3e
       -0.08742426 -0.069897994 -0.036970887 0.16461937

bias f4 [8]
000000 ac a9 4b 3d 5d 99 36 3e 51 3e 0d be f7 4f 00 3e
       0.04972236 0.17831941 -0.13793303 0.12530504
000010 69 b2 dc bd cc 0d 25 3e c5 d3 bf 3d 07 67 14 3e
       -0.107762165 0.16118544 0.09366564 0.14492427

weight f4 [1, 8]
000000 a4 91 af 3e 22 89 01 be 63 33 7d 3d 05 4c 0f be
       0.34290802 -0.12649968 0.061816584 -0.13993843
000010 51 dd cd bd e9 10 ae be e4 b7 be be 64 3f 15 be
       -0.100519784 -0.33997276 -0.37249672 -0.14574963

weight f4 [8, 1]
000000 4e e4 69 3f 15 e9 d0 3e f7 c3 de 3e 18 a4 7b 3f
       0.9136399 0.40802827 0.43508884 0.9829726
000010 51 3a 0d 3f 7a f4 48 3f b3 2f db 3e 88 eb 3c bf
       0.5516711 0.7849804 0.4280983 -0.7379689

bias f4 [8]
000000 c7 96 66 3f af bf ec bd ef a1 8d 3e 7e 53 11 3f
       0.9007382 -0.11559998 0.27662608 0.56768024
000010 f6 64 b2 be 07 1d 30 be 3d 73 f8 be e8 90 25 bf
       -0.34842652 -0.17198573 -0.4852542 -0.64674234

weight f4 [32, 8]
000000 5e bf 65 be 09 66 13 3e 16 79 8f 3e f8 0c 49 be
       -0.22436282 0.14394392 0.2802207 -0.19633853
000010 f3 e1 7e 3e 19 7a fb bd 37 30 a5 3a e8 f1 3d be
       0.2489088 -0.12279148 0.001260287 -0.18549311
000020 aa 96 f0 bc aa a1 02 be f2 47 34 be 79 3a 9d be
       -0.029368717 -0.12756982 -0.1760557 -0.30708674
000030 28 b4 5b 3d 0a ce 8a be 90 6e 59 3e d1 7c 89 3e
       0.053638607 -0.2711032 0.21233582 0.2685304
000040 10 27 bf 3d 8e c3 29 be ee 3d 8d be 5c a1 4a be
       0.093336225 -0.16578504 -0.2758631 -0.19788116
000050 22 ec 73 bd b9 24 40 3e 17 28 6f 3e 9d 2e b8 bc
       -0.059551366 0.18764009 0.23355137 -0.022483164
000060 81 fc 82 be 25 ea 46 be 59 36 38 3e b9 4b ce 3d
       -0.2558327 -0.19425257 0.17989482 0.10073037
000070 e1 98 b7 3c f1 d3 39 be 85 7f fc 3c 12 96 38 3d
       0.022411766 -0.18147255 0.030822525 0.045064993
000080 e5 cb 72 3c bf 33 e0 bc 8e d6 c1 3d 5a 94 d0 b9
       0.01481912 -0.027368424 0.09464751 -0.00039783382
000090 15 17 3c bd ce f9 fa bd 15 9a ca 38 27 43 83 3e
       -0.04592045 -0.12254678 9.6608106e-05 0.2563717
0000a0 da 2d 8b be a5 13 52 be c1 c6 53 be fa dd f6 bd
       -0.2718342 -0.20515306 -0.20681287 -0.120540574
0000b0 de 44 74 be e7 55 29 3e 90 6f 4d 3e 65 93 97 3e
       -0.23854396 0.16536675 0.20062089 0.2960464
0000c0 0a ed a1 be ec 24 9b bc 12 97 86 3d d6 7a 12 3e
       -0.3162616 -0.018938504 0.06571783 0.1430467
0000d0 8f 05 2f 3e 55 33 1f 3d 8b ac 00 bd 31 93 5e bd
       0.17091964 0.038867313 -0.03141455 -0.05433959
0000e0 07 2e b0 be db c5 44 3e 28 9f 09 3e e9 b7 57 3e
       -0.34410116 0.19216101 0.1343962 0.2106625
0000f0 19 23 70 be d7 2d 0c 3e 44 b7 98 be 8f c9 88 3e
       -0.23450889 0.13689362 -0.2982732 0.26716277
000100 2c 8b 75 be dc b7 ba 3d 62 09 af bd b9 0d e0 bd
       -0.23978871 0.091171 -0.085467115 -0.109401174
000110 19 77 5d 3e cd e6 10 3e 62 13 3b 3d 47 39 dd bd
       0.21627463 0.14150544 0.04567278 -0.108019404
000120 fb 10 a9 3c 2d 3a fb 3d d2 5a 29 3a 36 67 37 3e
       0.02063798 0.122669555 0.00064603717 0.17910466
000130 eb 21 f3 bc bf 3c aa bd b6 ab 7b 3e 5a 7e 9c bd
       -0.02967926 -0.08312368 0.24577221 -0.07641287
000140 8f 96 2d be e1 fa 7c 3b 80 94 a6 35 e4 37 21 bc
       -0.16951965 0.0038601684 1.2411183e-06 -0.0098399855
000150 ba 3f ad 3d 67 a0 60 be 04 34 a9 3d 7e e7 5c be
       0.084594205 -0.21936189 0.08261874 -0.21572682
000160 6c d7 33 be d7 c3 9b 3b 2d 55 29 3e 8d 9f 47 be
       -0.17562646 0.0047535705 0.16536398 -0.19494458
000170 62 15 13 bd f3 8e 12 be 93 00 e2 3d cf 94 a4 3e
       -0.035909064 -0.14312343 0.11035266 0.32144782
000180 d5 35 4c be 25 06 6f 3e d5 55 85 3e e9 f3 f6 bd
       -0.1994241 0.23342188 0.26042047 -0.12058241
000190 3b a2 9b 3b 1c 62 08 be 28 12 2f be 26 db 2e bc
       0.004749564 -0.13318676 -0.1709677 -0.010672366
0001a0 70 8b b3 3d 7e 67 2a 3e 51 e8 c2 3d fd 1a 8d 3e
       0.0876683 0.16641042 0.09516967 0.27559653
0001b0 17 b7 2b 3c d5 21 dc bc 33 58 0b 3d e4 d5 79 be
       0.010480664 -0.026871601 0.03401966 -0.24397999
0001c0 e3 0c d0 bd c7 e6 7e 3d 8b 66 c6 3b fc 27 c2 3c
       -0.10158708 0.062231805 0.0060547045 0.023700707
0001d0 7c d6 f6 ba 4a 15 1c be af 1c d2 bd 41 32 1c 3e
       -0.0018832232 -0.15242496 -0.10259377 0.15253545
0001e0 47 42 ba 3e fe 63 17 3e 77 05 95 3e 0e 54 a2 bc
       0.3637869 0.14784238 0.29105732 -0.019815471
0001f0 17 16 47 be b8 b3 81 be d9 63 f1 3c 03 6f 53 bd
       -0.1944202 -0.25332427 0.029466556 -0.05161954
000200 ef b7 7d be 5f 1e 89 bd c4 01 48 be d8 fa 9f be
       -0.24777196 -0.06695246 -0.19531924 -0.31246066
000210 19 8c 5c 3d de 1e 1a bc 30 29 4b b8 61 c8 94 be
       0.053844545 -0.009406773 -4.843733e-05 -0.29059127
000220 ae a7 a4 be 78 fc e5 38 37 39 98 3e f4 c0 2b be
       -0.3215918 0.00010966597 0.2973115 -0.16772825
000230 dc d9 0f 3e 40 b3 ad 3d ff 53 84 be 29 05 09 be
       0.1404795 0.08481455 -0.25845334 -0.13380875
000240 03 11 fb bd 49 98 60 3a e2 41 95 3e 70 d9 a7 be
       -0.12259104 0.0008567614 0.29151827 -0.3278308
000250 26 10 8b 3b 3c 91 22 be e3 8a 93 3b 7e 8e a5 be
       0.0042438684 -0.15875715 0.0045026406 -0.32335275
000260 4c ad 45 3e de 2c 74 be 98 36 30 bd ac 2b 22 3e
       0.19304389 -0.2384524 -0.043020815 0.15836972
000270 c5 9b 90 3d 89 5a 0b be 24 e0 ad 3c 9e bd eb 3a
       0.07060961 -0.13608755 0.021225043 0.0017985587
000280 c4 d8 eb 3d 97 cf ad bd 98 a6 0a 3d 92 ba 61 3d
       0.11515954 -0.0848686 0.033850282 0.055109568
000290 db 64 26 3e 20 e4 39 bb 49 c4 96 3e 25 b6 b1 bd
       0.16249411 -0.0028364733 0.2944663 -0.086773194
0002a0 4e 26 8f 3e a4 44 54 3e 6d 6e a5 3e 06 83 24 be
       0.27958912 0.2072931 0.3231081 -0.16065606
0002b0 b6 c5 79 3e d7 70 87 bc b9 74 43 be e7 e4 64 bd
       0.24391827 -0.016533298 -0.19087495 -0.05588236
0002c0 0d 2a 14 bd 92 de 81 be b4 63 bb bd 3e 25 6f bd
       -0.036172915 -0.2536512 -0.09149876 -0.058385126
0002d0 ba 6a 4f 3d be 83 6c be 25 cb 87 3e d0 4e 1b 3e
       0.05063889 -0.2309713 0.26522174 0.15166783
0002e0 c2 c0 a3 be e9 52 be 3d 38 64 15 bd 9d 48 94 3c
       -0.31983 0.092931576 -0.03647253 0.018101031
0002f0 bc b1 3d be b8 98 86 be c7 0a 59 bb 62 50 5a 3d
       -0.18524832 -0.2628839 -0.0033117996 0.053299315
000300 9c f8 0e bd 72 d5 32 b9 1f 0d ca 3d 7c 6f 6f be
       -0.03490506 -0.00017054917 0.09865784 -0.23382372
000310 46 a7 65 be 36 c6 57 ba d5 04 68 3e af e0 9d bc
       -0.22427091 -0.0008231135 0.22658093 -0.019272177
000320 7d 7a 5d be f8 c8 ce bd bd 04 cf 3d 3d 09 0a 3e
       -0.21628757 -0.100969255 0.10108326 0.13480087
000330 b3 bc 99 bc eb 79 1f 3d 1a f3 1c bb 4f 31 b8 bb
       -0.018766737 0.03893463 -0.002394861 -0.0056211124
000340 71 a1 5f 3c 88 07 82 bb 1f 72 31 3e ef 55 9f be
       0.0136493305 -0.003968183 0.1732869 -0.3112025
000350 a2 1f f1 bd 53 61 7e ba 32 79 1e b9 7f 3c d2 3d
       -0.117736116 -0.00097038335 -0.00015113203 0.10265445
000360 f4 a0 16 be c8 37 9e 3e df a0 44 be 05 46 a9 3d
       -0.14709836 0.30901933 -0.19201992 0.08265308
000370 e8 e8 8d 3e 76 b0 c3 3c 2a 15 4d 3e 78 63 32 bd
       0.27716756 0.023887854 0.20027605 -0.043551892
000380 f9 43 b5 be 4d ad a4 3c 7d 7c 82 3d 22 49 e5 bd
       -0.35403422 0.020102168 0.063714005 -0.111955896
000390 53 53 91 bc 86 d4 25 3c d3 ba f6 3a 4c de 99 be
       -0.017739927 0.01012147 0.0018823989 -0.30052412
0003a0 9d 34 23 bd f0 d4 05 3e 64 f0 a6 be 0b bb 6f be
       -0.039845098 0.1306951 -0.32605278 -0.23411195
0003b0 2b 6e 6f be 12 ee 56 be 60 49 65 3e a1 cf 4e be
       -0.2338187 -0.20989254 0.22391272 -0.20196392
0003c0 1a 76 cf 3d eb 26 88 be 4c 3c a9 3e b6 23 75 3e
       0.10129948 -0.26592192 0.33053815 0.23939404
0003d0 a1 15 63 3d 8b 38 15 3e 74 d0 aa 3e 85 4c 59 be
       0.05544055 0.1457235 0.33362162 -0.21220596
0003e0 a9 f7 2b 3e 0c 6d 59 be f3 6f 59 3e f4 60 89 be
       0.16793694 -0.21233004 0.21234111 -0.26831782
0003f0 f7 30 46 3e 16 94 32 be 6c e8 6c bc 99 4c 99 3e
       0.19354616 -0.17439303 -0.014459711 0.29941252

bias f4 [32]
000000 0d c8 d8 3d 49 af 10 3e 65 df 21 3e 84 9a 05 3e
       0.10585032 0.14129366 0.15807875 0.13047224
000010 c6 80 60 be 6e 42 0e 3e b4 ea 20 be 09 68 c0 3e
       -0.21924123 0.13892528 -0.15714532 0.37579373
000020 87 c0 39 3e ed 36 a7 3d fa 86 29 be b4 ca 39 3d
       0.1813985 0.08164773 -0.16555396 0.04535933
000030 ac b0 4e 3e 94 4a c6 bd b0 b4 be 3c de 68 e1 bb
       0.20184582 -0.096821934 0.023279518 -0.006878956
000040 79 ab 71 3e 1c b2 aa 3e 71 4e d1 3d 08 a1 40 be
       0.23600568 0.33339012 0.1022004 -0.18811429
000050 62 f8 8f be 93 cf 23 be a7 e2 be bd 1e e9 84 3d
       -0.2811919 -0.15997152 -0.09320574 0.06489776
000060 9b 2d fc 3d 41 d0 88 be 37 74 08 3e 53 a8 40 be
       0.12313386 -0.26721385 0.13325582 -0.1881421
000070 15 d3 da 3d d1 54 7f 3e 00 5f fa 3d 01 0c 27 3e
       0.10684792 0.24934699 0.12225151 0.16313173
