model/028.705902099609375.pt (torch_old, 168315 bytes, 19 tensors)

weight f4 [256, 2]
000000 dd f5 14 bf 13 92 14 bf ff 29 c2 be 3d d3 30 bf
       -0.5818766 -0.5803539 -0.37922665 -0.69072324
000010 ae 9b f6 3e 72 b3 5f 3e be 9d f6 bd e9 c1 89 be
       0.4816565 0.21845797 -0.12041806 -0.26905754
000020 aa af 2d bc d6 6d ee 3e 7b 52 c3 be 49 a1 12 bf
       -0.010600964 0.46568173 -0.38148865 -0.5727735
000030 26 be 29 bf 73 ea 25 3f 49 c0 04 bf 13 a9 28 3e
       -0.6630577 0.64810866 -0.51855904 0.16470747
000040 71 a2 67 be 21 29 88 bd 38 a5 0c 3d 5c 6c 2b bf
       -0.2262056 -0.0664847 0.034337252 -0.6696222
000050 7b 9e d2 3e 81 b2 fa 3e 48 8c 85 3e 54 d1 9c be
       0.41136536 0.48964313 0.2608359 -0.30628455
000060 8f da 2e 3e 7e db b8 bd b0 f9 1c bf 1f 6a 5d be
       0.17075561 -0.0902624 -0.6131849 -0.21622513
000070 c8 69 07 bf f3 17 b6 be 8a 23 9f be b3 f5 eb bd
       -0.52895784 -0.35565147 -0.31081802 -0.11521473
000080 da 4e 9b be 2d 3a 34 3e e7 fc c0 3e 00 a7 08 bf
       -0.30333596 0.17600317 0.3769295 -0.5337982
000090 d7 cc a5 be 8b 27 13 3f 1f 53 a0 be 7f 73 d9 be
       -0.32382843 0.5748221 -0.31313416 -0.4247093
0000a0 c9 4a c6 3d 32 8e d6 be 2e 82 9f 3e df 8e fd 3d
       0.09682233 -0.4190536 0.31154007 0.12380766
0000b0 84 01 f3 bd fe 0d a8 3e 89 55 0c 3f 74 4a 9e 3e
       -0.118655235 0.32823175 0.54818016 0.30916178
0000c0 27 8f 30 3f b8 75 89 be af 3b 30 be c1 00 02 3e
       0.68968433 -0.26847625 -0.17210267 0.126956
0000d0 8a 67 ad 3d 71 1d ab bd 66 ff 20 bf 33 05 c2 3e
       0.08467014 -0.08355225 -0.6288971 0.37894592
0000e0 e5 99 22 bf c8 98 9c 3e f6 cd d2 be b9 8c 9d be
       -0.63516074 0.30585313 -0.4117276 -0.30771425
0000f0 e4 f3 86 3d 48 31 27 3f 21 ca b4 3e fc 51 04 bf
       0.06589487 0.6530957 0.35310462 -0.516876
000100 fa e2 2c 3f 64 60 9c 3e 03 28 fc 3e ee 66 ba be
       0.6753384 0.3054229 0.49249277 -0.36406654
000110 d9 7c 66 3e d9 9a 12 be e0 67 54 3d 9d 4d e6 3e
       0.22508563 -0.14316882 0.051856875 0.4498109
000120 fb 58 13 3f a7 99 0e 3e 05 61 c6 be 91 5f b9 be
       0.5755765 0.13925801 -0.38745895 -0.36205724
000130 f3 44 05 3f 99 8a 4e bd cf 21 2a bf ee df c8 be
       0.52058333 -0.050425146 -0.6645784 -0.39233345
000140 97 8a d9 bd 3d 97 2d 3f 67 63 0d 3f 6d ba 6e 3e
       -0.10622137 0.67808896 0.552298 0.23313303
000150 21 c8 00 be 1f 91 94 3e fc 66 dc be 23 f3 23 3f
       -0.12576343 0.2901697 -0.4304732 0.6404287
000160 a7 d6 f7 bb 7b 5b 2e 3f 25 c0 01 3f 58 f1 13 3e
       -0.0075634304 0.6810834 0.50683814 0.14447534
000170 52 dd a4 3e 0c 9b c6 3e 87 c3 27 3e 06 16 67 3e
       0.32200104 0.38790166 0.16383182 0.22566995
000180 ea ff c2 be 87 f8 1c 3e 94 d7 29 be 09 02 25 bf
       -0.38085872 0.1532918 -0.16586143 -0.6445623
000190 84 41 77 be f3 54 9a 3e 8b 3d 75 3e ba 9c dd be
       -0.24146086 0.30142936 0.23949258 -0.43283635
0001a0 6a 93 03 3f b6 fe 0a 3e 83 54 d1 3e b0 21 0d 3e
       0.5139681 0.13573727 0.4088479 0.13782382
0001b0 e8 d9 06 bf e2 b3 0c 3f a3 ca 00 3f 7d d4 dc be
       -0.5267625 0.5496198 0.503092 -0.43130866
0001c0 58 53 8d be 9a 57 28 bf 05 17 20 bf 84 11 08 bf
       -0.2760265 -0.6575867 -0.62535125 -0.53151727
0001d0 34 23 f2 be ae c1 0d 3d 82 22 13 3f 25 61 24 3e
       -0.47292483 0.034608535 0.5747453 0.16052683
0001e0 44 4c ed 3e 02 c7 af 3d d0 82 04 3f 6c 3b bb be
       0.4634725 0.085828796 0.51762104 -0.36568773
0001f0 2f d1 74 be 65 f6 f7 3e 75 58 27 3e f3 e3 8b be
       -0.23907922 0.48430172 0.16342337 -0.2732235
000200 9a 5b b5 be c8 c5 f4 3e a2 f1 5c 3e 98 04 fd be
       -0.3542145 0.47807145 0.2157655 -0.49417567
000210 bc 9c 1a 3f 84 56 5f be 79 9c 54 3d 20 fb 96 3e
       0.6039541 -0.21810347 0.051907036 0.29488468
000220 d8 d7 bf 3e 43 3f 95 3e 28 8f c0 3e 0f e1 13 3f
       0.37469363 0.29149827 0.3760922 0.5776529
000230 22 3e 10 bf e3 19 27 bd f0 d5 ca bc 82 51 d8 3e
       -0.5634481 -0.040796172 -0.024760216 0.42249686
000240 55 f3 89 be c3 6d 32 3f 45 c4 c2 3d 82 88 ad 3e
       -0.2694346 0.69698733 0.09510092 0.3389321
000250 1b 1a db 3d 98 1c 1c 3f cf a3 5e bc 64 a0 f3 be
       0.106983386 0.6098113 -0.01358886 -0.47583306
000260 e9 9b e4 3d ca 54 d1 be bc 4b 04 3f 5c 92 38 be
       0.1116255 -0.40885 0.5167806 -0.18024582
000270 d3 23 bb be 1c 32 ee 3e 2b 0b 93 be 8d c9 1c 3f
       -0.3655077 0.46522605 -0.28719458 0.6124504
000280 6e f1 08 bf 20 74 17 be 1e 36 17 bf ff 8a 2a 3f
       -0.5349339 -0.14790392 -0.5906695 0.6661834
000290 e5 97 ec be 73 13 be be 4c 43 fd bd 22 21 c5 3e
       -0.46209636 -0.37124214 -0.123663515 0.3850184
0002a0 cb ec 1f bf 9b 7a 02 bf 59 cf 07 3f e1 c3 9a be
       -0.6247069 -0.5096833 0.5305076 -0.3022757
0002b0 c3 0a 02 bf 57 9f 22 bf 53 4b 5c 3e 41 37 1b 3f
       -0.5079767 -0.63524383 0.21513109 0.60631186
0002c0 1f fd 4a 3e e7 da a4 3e 5a 14 0f 3f e0 1b 02 bf
       0.1982312 0.3219826 0.5589043 -0.50823784
0002d0 92 05 84 be 91 5b 3a 3e 74 a8 0b 3f 14 d0 39 bf
       -0.257855 0.18198992 0.54553914 -0.7258313
0002e0 f6 f6 09 3e d1 41 34 bf 74 10 7c 3e cc ad 82 be
       0.13473114 -0.7041293 0.24615651 -0.25523221
0002f0 28 ef a8 3d 82 01 17 bf 5c 12 05 be d2 76 7e be
       0.082487404 -0.58986676 -0.12995285 -0.24850014
000300 94 1b 79 be fa ca 04 3f ec 7d 17 bf 84 30 8b be
       -0.24326926 0.5187222 -0.59176517 -0.27185452
000310 24 73 8a 3e 62 27 38 3f d8 bb 31 bf 38 70 36 bf
       0.2704097 0.71935093 -0.6942725 -0.7126498
000320 65 15 85 3e 58 e2 93 bd 4d e3 19 3f e8 6d 15 bf
       0.25992885 -0.07220906 0.6011246 -0.5837083
000330 54 0e e4 3e 16 e7 d8 3e 4a 4e ed 3e 0b 92 1f bf
       0.44542181 0.42363805 0.46348792 -0.6233222
000340 e4 11 cb be 27 e7 24 bf 4d 8f 16 3f c7 92 1a 3f
       -0.39662087 -0.6441521 0.5881241 0.60380214
000350 29 a6 11 be 99 5b d3 be dc 8b 2b 3f 9b 56 05 3f
       -0.14223541 -0.4128082 0.67010283 0.52085274
000360 12 28 31 3f 06 8a e4 3e 59 be 2d 3f ca a9 ff 3e
       0.6920177 0.44636554 0.6786857 0.49934226
000370 7c 91 13 3f a8 fa e2 3e 55 82 8c be 01 b5 8b 3e
       0.57643867 0.4433186 -0.27443185 0.27286533
000380 ed c9 14 bf 2e d4 96 3e 34 3e 81 3e b7 8b d9 be
       -0.58120614 0.29458755 0.2524277 -0.42489406
000390 76 4b 33 3f 8e eb 2b 3f d7 13 de 3e 3a 91 3f bf
       0.7003702 0.671563 0.43374512 -0.74830973
0003a0 df 36 97 bd 75 09 c6 3d 12 9f 55 3e 59 2c e8 be
       -0.07383513 0.096697725 0.20861462 -0.45346335
0003b0 30 09 5d be 7e 8c f2 bd a5 aa bb 3e 48 d1 db 3e
       -0.21585536 -0.11843203 0.3665363 0.42933106
0003c0 cd 1f fb 3e 17 d4 6b 3e 16 d0 35 be 29 80 8e 3e
       0.490477 0.23030125 -0.1775516 0.27832153
0003d0 15 3b 95 be 56 56 04 bf 35 05 97 3e 36 8c eb 3e
       -0.2914664 -0.5169424 0.2949616 0.4600541
0003e0 b9 ee af 3e b5 5a 5a 3d 87 ed 15 3d 60 c9 03 3f
       0.34361818 0.05330916 0.036603477 0.5147915
0003f0 6b 99 c6 3d 1f fa 1b bf c7 66 16 bf e9 a5 02 be
       0.09697231 -0.6092853 -0.58750576 -0.12758602

bias f4 [256]
000000 c0 b4 63 3e 99 33 c1 3e fa 87 18 bf d0 40 06 bc
       0.2223692 0.37734678 -0.59582484 -0.008194163
000010 3f 6f d7 be 68 8b 62 be 11 88 29 3c 07 d4 5c be
       -0.42077062 -0.22123492 0.010347382 -0.21565257
000020 08 21 97 bd be 95 98 3d 0e 18 9a be 3b 55 54 3e
       -0.07379347 0.07450436 -0.30096477 0.20735638
000030 79 73 92 be aa 22 03 3f 64 29 8d be 98 52 4b 3e
       -0.28603724 0.5122477 -0.2757064 0.19855726
000040 2c 0e 22 bf 86 93 41 be 67 d6 a2 be 3a 5f a8 bd
       -0.63302875 -0.18903932 -0.318042 -0.08221288
000050 0b ea 0f bf e1 9e be bd d7 bb 74 3d 8a 98 8c be
       -0.56216496 -0.093076475 0.05974945 -0.27460128
000060 56 f5 7b 3e 3d cf 29 3f 2d 33 01 3f b1 5e 8a be
       0.24605307 0.66331846 0.50468713 -0.2702537
000070 23 f6 06 3f b6 fc b4 bd c2 74 b9 3e 5d f6 88 3e
       0.52719325 -0.08837263 0.36221892 0.2675046
000080 58 ee a3 be b7 1d 98 be ca d4 22 3f fd de 26 bf
       -0.3201778 -0.2971017 0.6360594 -0.65184003
000090 94 09 e2 3e 33 4e 0e 3f 02 e9 a3 bd e3 98 ae be
       0.44147933 0.5558807 -0.08003427 -0.34101018
0000a0 61 81 09 bc dd 89 f2 3e eb d5 10 3f 9d 9f 06 bf
       -0.008392663 0.47370806 0.5657641 -0.525873
0000b0 83 07 fc 3e ce 5f 2f 3e 4b db 2f 3f be 66 1e bf
       0.4922448 0.1712639 0.6869399 -0.6187552
0000c0 f9 1f bb 3e 41 41 90 be a2 16 35 3f d7 6a d5 bd
       0.3654783 -0.28174785 0.7073766 -0.10420769
0000d0 d6 bb 32 be 27 dd 19 bf ec 9c b2 be 4b ad a5 3e
       -0.17454466 -0.60103077 -0.34885347 0.32358775
0000e0 15 74 84 3e 29 59 aa 3e 49 2d e5 3e 73 4c 88 bd
       0.25869814 0.3327115 0.44761112 -0.066552065
0000f0 f0 e8 91 be 2d 9c 1e 3f 7a 78 19 3e f0 c0 93 3e
       -0.2849803 0.61957055 0.14987364 0.28858137
000100 1a f9 99 3e 33 dd 75 be 19 12 d6 be 89 6e 2d bf
       0.30072862 -0.24010162 -0.41810682 -0.6774679
000110 53 60 2d 3e f8 8b 60 be bd 19 1c be f1 90 5b 3d
       0.16931276 -0.21928394 -0.15244193 0.053605024
000120 04 5f 95 be cb 86 a1 3d 78 a6 22 3f e0 bf 1f 3f
       -0.29174054 0.07887038 0.6353526 0.62402153
000130 28 fa 01 3f 1f 07 f9 3d 1d 80 b6 bd 0f 3b dd be
       0.50772333 0.12159561 -0.089111544 -0.4320912
000140 ed 6c f1 3e a6 6e ca be 61 5b d6 be 51 76 20 3f
       0.47153416 -0.39537543 -0.41866592 0.62680537
000150 ff 6d e9 be 09 c9 34 bd 01 1a 4c be 95 60 2c 3f
       -0.45591733 -0.044137035 -0.19931795 0.6733487
000160 88 9e 0d be 43 63 d3 bd 70 eb e6 bc 96 72 ed 3e
       -0.13830006 -0.10321667 -0.028188437 0.46376485
000170 53 01 fa 3e 2b 9a 12 bf cf 78 c0 be 7e 46 2a 3f
       0.48829135 -0.5726649 -0.3759217 0.6651381
000180 54 54 5e 3d 53 4d 48 3e e4 5c 61 bc d0 b9 9d bd
       0.05427964 0.19560747 -0.013755057 -0.077014565
000190 e5 21 13 3f ad 23 ce 3d e5 41 85 be c1 35 1e 3e
       0.57473594 0.10065398 -0.26026836 0.15450193
0001a0 a8 c9 f8 bb 9d 9d ef 3d 3d 54 7d 3e 7f e2 1e 3f
       -0.0075923987 0.11699984 0.24739166 0.62064356
0001b0 5c 8c b4 3e 59 8b e0 3d 0c 4c d2 3e 28 b4 d3 be
       0.35263336 0.109640785 0.41073644 -0.41348386
0001c0 6d b8 06 3f 9d 6f 04 be ee 2e e7 3e d1 45 0f 3f
       0.5262516 -0.12933202 0.45152992 0.55965906
0001d0 ab 6d 98 bb 05 cd ea be 7c b3 b2 3d 8e fd b7 3e
       -0.0046517453 -0.45859542 0.0872564 0.35935634
0001e0 95 04 04 3f 95 0f bb be d6 b7 03 bf 3b 33 fd 3c
       0.5156949 -0.36535326 -0.51452386 0.030908218
0001f0 88 c1 48 be 28 2b ee be 56 2d a1 3d 49 c9 80 3e
       -0.19605076 -0.465173 0.07869975 0.25153568
000200 49 45 36 3f 2a cd 35 3f 10 29 1a 3f 22 83 69 be
       0.7119947 0.7101618 0.60218906 -0.2280393
000210 66 aa a4 bd 3c 80 d9 3e 0d 34 fc be c3 60 2e bf
       -0.080403134 0.42480648 -0.49258462 -0.68116397
000220 5f 05 f1 bb 47 6b b7 3e 1b 57 a6 be 01 68 0d 3e
       -0.0073553766 0.35824034 -0.3248833 0.13809206
000230 94 c6 49 3d 87 9a a6 3e 76 c8 17 bf 3e 46 b8 3d
       0.049261644 0.3253977 -0.59290254 0.08997773
000240 46 2f 3a 3f 26 3b dd 3e ca dc 1a 3f a5 70 8d 3e
       0.72728384 0.4320919 0.6049315 0.27625003
000250 58 3d f5 3d 85 76 57 3e d2 ce a7 be 87 3a ba be
       0.11974591 0.21041305 -0.3277498 -0.36372778
000260 d5 e2 dd be 66 6f 04 bf 2d 21 9f 3d 3e 1e 9c be
       -0.43337122 -0.5173248 0.0777 -0.30491823
000270 4e 9b 35 be 13 4c 1d 3f 30 4d bf 3e eb cb e7 be
       -0.17735025 0.61444205 0.37363577 -0.45272765
000280 76 25 4c be 2e 6e 4e 3e 15 d2 b1 3e 3f 06 ca 3d
       -0.19936165 0.20159218 0.34730592 0.098644726
000290 f3 9c 96 3e 0b e9 bc 3e df 6c 7a be bd 55 fd 3e
       0.29416618 0.36896548 -0.24455594 0.49479476
0002a0 62 90 17 3f dc 33 3e 3f 91 45 c6 3e 2f 76 1b 3d
       0.59204686 0.7429788 0.3872495 0.037954506
0002b0 ef 34 99 3d ce 06 e8 be 88 79 06 bf ac d0 b0 3d
       0.074807994 -0.45317692 -0.5252919 0.08633551
0002c0 23 10 7e be 33 6d ff bd 42 9d d0 3e eb 99 8d be
       -0.24810843 -0.12472 0.40744978 -0.27656493
0002d0 90 50 2b bf 75 d2 80 3d db 31 e0 bc 63 86 1e 3f
       -0.66919804 0.062901415 -0.027367523 0.6192381
0002e0 cc 56 0c 3f 8e 0e 3e 3e b6 0a 11 be 3b 27 2a be
       0.5481994 0.1856024 -0.14164242 -0.16616528
0002f0 88 d3 b1 bd 63 ae ad be 3e 65 e0 3d 16 40 8d be
       -0.086829245 -0.3392211 0.109568104 -0.27587956
000300 d3 b7 29 3f 7f b5 ca 3e 08 a7 7e 3e ff ba b2 be
       0.6629612 0.39591596 0.24868405 -0.34908292
000310 44 59 4c 3e 87 8c a4 3e 33 6e ab 3e 93 1a e0 bd
       0.19955927 0.32138464 0.33482513 -0.10942569
000320 b7 50 b3 bd 16 8e 02 bf 96 ec 0f 3f 32 c5 ec 3e
       -0.087556295 -0.50998056 0.56220376 0.46244198
000330 ec 5f 01 bf a8 25 41 3d 52 0d 2d 3e dc 60 be 3e
       -0.5053699 0.047155052 0.16899613 0.37183273
000340 e1 ef 2b 3e 5b c8 c0 bd dd fa a1 bd e5 17 b9 bc
       0.16790725 -0.09413215 -0.079091765 -0.022594402
000350 55 5c 06 3f 4e 7e 5a bd a5 be e5 3e 7f e8 ad 3e
       0.5248464 -0.05334311 0.44872013 0.33966443
000360 ed 51 44 3d 44 10 dc 3e 8a 8b 24 bf 14 89 e9 3e
       0.047929693 0.4298116 -0.6427542 0.45612395
000370 7d 01 88 3e 60 f2 00 3e 49 6d 26 bf 67 9c 1c bf
       0.26563635 0.12592459 -0.65010506 -0.6117615
000380 2a ad d9 3b f6 14 9d 3d b8 61 be bd e5 57 ac be
       0.006642957 0.076700136 -0.09295982 -0.33660808
000390 83 16 b1 be d3 d1 cc be cb 97 03 3b fa 59 2d 3f
       -0.34587488 -0.40003833 0.002007949 0.6771542
0003a0 57 26 ce 3e 42 94 d0 3e 05 ae 3a 3e 80 dd 19 3e
       0.40263626 0.40738112 0.18230446 0.15025902
0003b0 23 25 b0 be 1b ec b7 3d 48 25 a1 3e 85 89 20 3f
       -0.34403333 0.089805804 0.31473756 0.6270984
0003c0 5f 30 0d 3f c1 e4 6b be c2 f5 ed 3e 51 d0 bb 3e
       0.55151933 -0.23036481 0.4647656 0.3668237
0003d0 ff f3 0b 3f b0 27 51 3c e1 57 de 3e f7 75 96 be
       0.54669183 0.01276581 0.4342642 -0.29386875
0003e0 a9 fc 24 bf 45 1a 98 3c b1 a6 06 be 14 82 e7 bc
       -0.6444803 0.018567214 -0.13149525 -0.028260268
0003f0 e1 b6 2c 3f f9 51 b2 be ac 9f d6 be b2 69 ff bd
       0.6746655 -0.34828165 -0.41918695 -0.12471332

weight f4 [64, 256]
000000 32 9a 02 3d 8c 80 06 bd 53 1b 8a 3d 5f 5b ba bd
       0.031885333 -0.032837436 0.06743493 -0.09099459
000010 21 28 73 3d 78 33 30 3c b7 79 9f 3c 83 97 4d 3d
       0.05936444 0.010754459 0.019467218 0.05019332
000020 b2 db e3 bc a9 23 08 bd 46 f6 a3 3d a4 c4 f0 3c
       -0.02781472 -0.033237133 0.08005957 0.02939064
000030 14 5b af 3c bf e2 15 3d 2c 0f a0 bd e6 e4 0d 3d
       0.021405734 0.036593195 -0.07815394 0.034642123
000040 e9 77 f1 3c 36 73 84 bc 96 c2 3f bc 23 35 88 bb
       0.029476123 -0.016168218 -0.011704108 -0.004156725
000050 29 45 37 bd aa 29 54 b9 22 10 4c 3d 58 5d 8a 3d
       -0.04474369 -0.00020233417 0.049820073 0.06756085
000060 27 1c eb 3a 59 92 b1 bc 4c f6 03 bd 3d 60 bd 3d
       0.0017937467 -0.02167623 -0.03221731 0.092468716
000070 d1 c2 b3 3d eb 72 0f 3d 9d 25 ac 3d 97 19 8f bd
       0.08777393 0.035021704 0.08405612 -0.06987303
000080 2e 8a 81 3d fe e7 68 bd 77 74 62 bd ee a9 9b 3d
       0.06325184 -0.05686187 -0.05528685 0.07600771
000090 7d 7e f4 3c 4b 2c 78 bd c7 d8 8b 3c b3 99 f8 bb
       0.02984547 -0.060589116 0.01707114 -0.0075866817
0000a0 ec 57 7e 3d de f6 58 3d 98 2e 8f 3d f2 2c 0d 3a
       0.062095568 0.052969806 0.06991309 0.00053854205
0000b0 61 8d f6 b9 3b 48 67 3d 10 44 b1 3d 0d 8e 90 3d
       -0.00047026112 0.05646537 0.0865556 0.07058344
0000c0 b0 a7 56 3d b6 01 a1 ba ea ff 95 3d 16 35 89 bd
       0.052406013 -0.0012283835 0.07324202 -0.066995785
0000d0 9a 5d 71 3d 29 ca af 3b fc 0b be 3c 91 00 90 3c
       0.058927156 0.0053646755 0.023199074 0.017578395
0000e0 87 25 98 bd 26 53 6d bb f6 2c bd b9 85 10 f5 bc
       -0.07429033 -0.003621289 -0.00036082388 -0.029915104
0000f0 11 eb 91 3d 83 e6 30 bc 5a 21 4c bc 2b 05 a5 bc
       0.071249135 -0.010797146 -0.0124591235 -0.020144066
000100 45 38 dd 3c d2 cd be bd e0 c0 a4 bc c6 0b 28 3d
       0.02700437 -0.09316601 -0.020111501 0.041026853
000110 4d de 4a bb 4b 93 43 3d a4 be 24 3d db 90 d8 3d
       -0.0030955255 0.04774789 0.04022087 0.10574504
000120 00 42 a6 3c ee 0d bd 3b 14 fd 50 3b 6f 01 2d 3c
       0.020295143 0.005769483 0.0031889128 0.010559424
000130 84 94 66 bd 75 3e 64 bd 80 a0 07 bc 6b f4 8f 3c
       -0.05629398 -0.055723626 -0.008278012 0.017572602
000140 8d bf fa 3c 55 f0 f9 3b e7 fd 14 bb f6 39 93 3d
       0.030608917 0.0076275268 -0.0022734345 0.071887895
000150 02 4c 6a bd 4b 81 73 bb 52 12 9f bd 6c 4d 75 3c
       -0.057201393 -0.0037155922 -0.07767166 0.014972072
000160 9e 29 b0 3c 30 c8 5c bd 7e dd b4 bc 92 bf 15 bd
       0.02150422 -0.05390185 -0.022078272 -0.03655965
000170 d5 ca fe bc 1e 81 d5 3c ee a3 1a bd d9 79 a8 bd
       -0.031102577 0.026062544 -0.03775399 -0.082263656
000180 d9 59 d5 3d f3 76 34 bc 11 ad 15 3d 00 32 96 ba
       0.10417528 -0.011014688 0.036542002 -0.0011458993
000190 8c b2 f9 bb a0 50 1b bc 0a da 73 3d 21 5e e2 3c
       -0.0076201614 -0.009479672 0.05953411 0.027632775
0001a0 d6 3b 44 bc 53 38 ad 3d 1c b9 83 bd 52 14 03 3d
       -0.011977157 0.084580086 -0.06431791 0.0320018
0001b0 cf 0c a1 3c 2d ba 27 bc f3 7f bc 3d 69 f3 82 3d
       0.019659428 -0.010237259 0.09204092 0.06394083
0001c0 b7 57 a8 3c 04 d2 36 3c e3 8a b3 3c 0b fd 51 bc
       0.020549638 0.01115847 0.021916812 -0.012816678
0001d0 0c fa 87 bc 87 55 2d bd ca 31 ab 3c 34 14 1c bc
       -0.016598724 -0.042317893 0.020897765 -0.009526301
0001e0 e6 5b b8 3b 1a 5e ac 3c 11 82 61 3c 8e b6 38 3d
       0.0056261895 0.021040965 0.01376392 0.045095973
0001f0 b8 09 c0 bb 83 c6 55 3d cf 77 e6 bc a2 a9 e2 bc
       -0.0058605336 0.05219127 -0.028133301 -0.027668778
000200 f2 3c b3 3b 8b a4 03 3c 7a 70 af bd 56 c7 a8 bc
       0.0054699117 0.008034836 -0.08566375 -0.020602863
000210 b2 48 ae 3d 5d d2 c3 bd 8d 53 1b bc 75 75 7f bb
       0.08509959 -0.09561608 -0.009480369 -0.0038979922
000220 93 fe 45 bd 1c 0f 72 bd cf 13 c8 3d 31 1c a4 3c
       -0.048338484 -0.05909644 0.09769403 0.020032974
000230 70 bc c3 3c 31 bf e5 3c 67 11 81 3c bd d7 27 bb
       0.023893565 0.028045269 0.015755368 -0.0025610768
000240 94 61 c0 3d ac cb f3 3b 2f 0c 5c 3c ae 49 ce bc
       0.093936116 0.007440051 0.013430639 -0.025181618
000250 0c 52 09 3c 64 f3 72 3d 75 16 71 bc 30 c9 3b 3d
       0.008381378 0.059314147 -0.014714827 0.045846164
000260 68 e2 bc bc 08 86 b1 bd 1d 45 63 3d ac 0d 5d 3d
       -0.023057178 -0.086681426 0.055485833 0.053968117
000270 61 00 c8 3c 17 1e be 3d 88 ee e5 bc ee 30 4b bd
       0.024414243 0.09283083 -0.028067842 -0.04960721
000280 0c c6 0e 3c 03 8a 4a 3b ab cd 2d 3d 79 27 79 3d
       0.00871421 0.0030905015 0.04243247 0.06082866
000290 d0 f8 23 bd 38 1f 81 3c 5e 63 06 3d 5a 68 dc bc
       -0.040032208 0.015761957 0.032809608 -0.026905227
0002a0 ba 82 20 bd a4 8a 94 bd fb 79 d2 3d cc 3a 12 3d
       -0.03918717 -0.07253006 0.10277172 0.035700604
0002b0 0a ff bd 3c 4c fc 93 3d 42 a8 86 3c a7 82 28 3d
       0.023192901 0.07225856 0.016437653 0.041140225
0002c0 6b af 07 bc 66 50 1d bd 7e 18 cd bc ec e8 9f 3d
       -0.008281569 -0.038406752 -0.025036093 0.07808098
0002d0 61 69 c6 3d c5 aa b9 3d 13 66 e3 3c 83 ca b2 bd
       0.09688068 0.09065775 0.027758634 -0.08730032
0002e0 61 14 ce 3c 6a 83 3f 3d ba 9c 7e bb 0b 0e cd 3d
       0.025156202 0.046756186 -0.003885074 0.10012444
0002f0 f3 c8 33 3d e8 36 ac 3c 69 68 db 3b d0 d0 c0 bd
       0.043892812 0.021022275 0.0066957963 -0.09414828
000300 4b 23 20 3d 40 ac 99 bc ef c5 1f 3d 0f bf ad bd
       0.039096158 -0.018758893 0.039007124 -0.08483707
000310 9e 27 db 3c 4c ba b4 bb f7 eb 13 bd 18 5b 71 3c
       0.02675229 -0.0055153724 -0.036113705 0.014731191
000320 59 8d 2d 3d e1 25 2c 3c 2f ec c0 3d ba 4c 63 3c
       0.042371128 0.010507078 0.094200484 0.0138732735
000330 6a 35 bf 3c b8 6c ce 3c 5a 69 9c 3d 48 be 81 3d
       0.0233409 0.025198326 0.07637282 0.063351214
000340 a7 d2 24 bd ca ee 52 3c 80 cc 10 3c 20 11 47 3d
       -0.040239956 0.012874315 0.008837819 0.048600316
000350 fc 8a 4d bc 61 28 0e 3b 80 95 64 bb 42 20 e8 3c
       -0.0125453435 0.0021691548 -0.0034879148 0.028335694
000360 87 f9 9e 3c 90 11 d3 bc 5a 4c a3 bc 3b ce c4 3c
       0.019406093 -0.02576521 -0.019933868 0.02402412
000370 04 11 31 38 81 11 97 bd ae 10 cb 3c ff 26 00 3d
       4.2215936e-05 -0.073763855 0.024788227 0.03128719
000380 40 9d 86 bc c7 11 25 3d 08 fa 7d bd bb 88 4c bd
       -0.016432405 0.040300157 -0.062006027 -0.049935084
000390 77 37 84 3c 79 7b a4 3d b4 4e 49 bc 58 e8 73 3b
       0.016139729 0.08031363 -0.012286831 0.0037217345
0003a0 dd a5 88 3d 43 c3 c6 3d 3e 19 02 3c 01 36 f6 3c
       0.06672261 0.09705212 0.0079405885 0.030055048
0003b0 ef e7 a9 bd 7e 01 92 bd ad 99 dd bc 97 73 85 bd
       -0.08296191 -0.07129191 -0.027050817 -0.06516188
0003c0 64 c7 6a bc 9b a1 38 bc c2 1b e7 3c b4 e5 0a 3d
       -0.014329765 -0.0112689985 0.028211478 0.03391047
0003d0 34 2a 8a 3d 29 71 44 3d 35 71 ed 39 f3 57 1f 3d
       0.06746331 0.04795948 0.00045288508 0.038902234
0003e0 15 09 95 ba 23 31 74 bd 2f d5 61 3d 25 91 7b bc
       -0.0011370505 -0.059617173 0.05513495 -0.015354429
0003f0 38 c2 46 3d 01 c8 e2 3c 42 77 b4 3d 76 41 95 bd
       0.048525065 0.02768326 0.08811809 -0.07287876

bias f4 [64]
000000 cc 5f c2 bc db ed 40 bd 23 9e 6a bc ca f1 84 3d
       -0.02372732 -0.047101837 -0.014319929 0.0649143
000010 a9 dc 9f 3d 26 a9 51 bd c5 e1 b2 bc f9 d7 87 bc
       0.078057595 -0.051186703 -0.02183617 -0.016582476
000020 6d fb 95 3d e6 1b 3d bd dd 88 83 3c 04 49 53 3d
       0.07323346 -0.046169184 0.016056472 0.051583305
000030 27 7a 4c 3d 03 8a 86 3d 31 8d 08 bc a9 f6 a6 3d
       0.04992118 0.065692924 -0.008334444 0.081525154
000040 20 0d 96 3d d3 de 2b 3d bc e1 22 3d 25 e0 80 3c
       0.07326722 0.04196055 0.03976606 0.01573188
000050 3a 7e 2c bc e3 1b 91 3d 98 a9 a7 bc 17 f0 04 bd
       -0.010528142 0.07085397 -0.02046661 -0.03245553
000060 35 97 ee bc d5 8f 5b 3c a6 84 a7 3d ea d1 45 3d
       -0.029124836 0.013400991 0.081795976 0.048295893
000070 e9 17 4a 3d ba 2f a3 3d e4 67 98 3b 7e 6c 94 3d
       0.04933921 0.079680875 0.0046510566 0.07247256
000080 e9 59 c8 bc 73 a7 3b 3d b4 26 7b 3d f3 ff 58 bc
       -0.024456935 0.04581399 0.061316207 -0.013244617
000090 d6 9f d8 3a ff 58 ea bc cf 88 2c bd 48 40 90 3d
       0.0016527127 -0.02860689 -0.04212266 0.07043511
0000a0 88 0c ce ba b1 aa c5 3c d6 45 39 bd 39 38 b6 bc
       -0.0015720287 0.024129244 -0.045232616 -0.022243606
0000b0 37 e8 77 bc df 4c 8c 3d c5 12 50 3d 01 cf 7f 3d
       -0.015131048 0.068505995 0.05079915 0.062453274
0000c0 88 40 36 3d 89 71 92 3c b5 d4 5b 3d e0 4c af 3d
       0.044495136 0.017876403 0.05366965 0.085595846
0000d0 ee 7f d8 3c a7 44 bb 3d 2d d8 7f 3c 73 cd 4d 3d
       0.02642819 0.09143954 0.015615505 0.05024476
0000e0 04 9a 1a 3d a4 9d 05 3d d7 13 54 3d 85 0d 84 3d
       0.037744537 0.03262104 0.051776733 0.06447891
0000f0 0d e2 bc ba 5c 87 02 bb 75 2f 5e bc 96 fe 81 3d
       -0.001441063 -0.0019917106 -0.013561119 0.063473865

weight f4 [32, 64]
000000 c4 15 01 be 2f 55 4a 3d d2 17 53 bd 24 bb 89 3d
       -0.12605959 0.049397644 -0.05153639 0.06725147
000010 91 1b f2 3d 61 90 43 bd 3b a1 49 bb 09 96 09 3d
       0.11821664 -0.047745112 -0.0030766267 0.03359035
000020 bd f7 fc b8 b3 7c 65 bd 3a 62 01 bd 67 4e c1 bd
       -0.00012062441 -0.056027126 -0.031587817 -0.09438782
000030 13 0b da 3d 57 02 ad 3d d7 f3 90 3d c0 20 73 3d
       0.106466435 0.08447712 0.07077759 0.059357405
000040 61 3f 3a 3c 02 1c 80 bd d8 2f c6 bc 9b ef e0 bd
       0.01136765 -0.06255342 -0.024192736 -0.10983201
000050 d3 e5 ca bc b3 46 cb bb d0 74 52 3c 3b e5 d5 bd
       -0.024767792 -0.0062034964 0.012845233 -0.10444113
000060 3c cf 9a bd f8 8d b4 bd a4 07 07 be 0d 0e cc bc
       -0.07559058 -0.08816141 -0.13186508 -0.024909044
000070 72 57 d1 bd 5a b3 55 bd 49 fd d2 3d 19 96 0b be
       -0.10221757 -0.052172996 0.103022166 -0.13631476
000080 3c 84 e5 bd c6 34 e9 bd 88 d8 af 3d 63 09 9f bc
       -0.11206862 -0.11387019 0.08586222 -0.019413656
000090 b2 ab ca 3d aa 2b 6b bd 33 e9 4b bd c0 63 a9 bd
       0.098960295 -0.05741469 -0.049782943 -0.08270979
0000a0 ae ff 1c ba 29 c1 1b 3d 7e 43 31 bd 20 07 89 3d
       -0.0005989027 0.03802601 -0.043277256 0.06690812
0000b0 7f a9 17 3c fb e7 ac bc c9 f4 02 3d 99 5d 8a 3d
       0.00925672 -0.02110671 0.031971727 0.067561336
0000c0 1d fd a1 bd a6 d8 95 3d e3 ea 31 3d 5c a2 a1 bc
       -0.07909606 0.07316713 0.043436896 -0.01973074
0000d0 00 f6 20 ba 62 b9 b8 bd b4 72 99 3c ed ed 6e bd
       -0.00061401725 -0.09019734 0.018731453 -0.058332372
0000e0 43 e2 b4 3d 8e 93 3b bc e1 69 e7 3d 29 c9 ac 3d
       0.088322185 -0.011448754 0.11299492 0.08436806
0000f0 35 8d bd 3d 94 5f 9a 3b f4 92 09 3d be 52 ca bd
       0.09255449 0.004711101 0.03358741 -0.09879063
000100 1b 64 c5 3d 0f a8 78 bd 92 5a 36 bd 49 4b ae 3d
       0.09638234 -0.06070715 -0.04451997 0.08510453
000110 6c ce eb bc 67 50 c6 bd f2 3d ab bc 4b 1e b0 3d
       -0.028784953 -0.09683304 -0.020903561 0.08599528
000120 20 50 be 3d bc b0 0b 3c c5 7f 6d bd 7a 1b fd bd
       0.092926264 0.0085260235 -0.05798318 -0.12358756
000130 db c2 50 3c de f0 b3 3d a1 ee 94 3d e9 5a b1 3d
       0.01274177 0.08786176 0.07272077 0.08659918
000140 ab 0f 27 3d 1f f4 bf 3d 49 e6 ac 3d 4f ab d4 3d
       0.040786427 0.09372734 0.08442361 0.10384237
000150 1b 8e f1 bd e0 6f c4 bd 61 5d 05 bd 32 15 49 bc
       -0.117946826 -0.09591651 -0.032559756 -0.01227312
000160 c4 48 2f 3d 39 8c ce bd c5 3e a5 bd 62 38 4b bb
       0.042794004 -0.10085339 -0.08068613 -0.0031008949
000170 bd c5 dd 3d 83 e3 ed bd 39 fb c0 bd 63 42 b4 bd
       0.10828731 -0.1161566 -0.09422917 -0.08801725
000180 23 b1 fa bb 9c 97 7b 3c 9e 52 ff 3d dd a7 1d bd
       -0.007650511 0.015355971 0.1246693 -0.038490165
000190 30 80 9f bd aa 2d 6e bc d0 38 be 3b 6c 7e 91 3d
       -0.07788122 -0.014537254 0.0058051124 0.07104191
0001a0 b3 91 8a bc b6 53 bb 3c 3e 38 61 3d a9 36 fb bc
       -0.016915178 0.022867065 0.054985277 -0.030665712
0001b0 99 2f bb 3c 00 7c de 3d 6e 14 d2 bc 60 ef 7b bd
       0.022849845 0.10863495 -0.025644507 -0.061507583
0001c0 b2 87 4c bd 6b b6 fb 3c bb 58 fc bd 1e 34 fa 3c
       -0.049934097 0.030726632 -0.123216115 0.03054243
0001d0 d0 b1 26 b9 79 d8 5c bd a2 4c 04 3e 56 ae 94 bc
       -0.00015897234 -0.053917382 0.12919858 -0.018149536
0001e0 2d ed 25 3d 4e 16 c2 3d 75 9b 49 3d 19 03 7c bc
       0.04050939 0.094769105 0.04922052 -0.015381598
0001f0 56 11 62 3d c6 8b 8d bb ad cb 17 bd 53 b6 92 3d
       0.055192314 -0.004319641 -0.037059475 0.07163682
000200 1a 4f b7 bc 8a e9 4b bd b3 9d 0a 3e e5 a7 b7 3c
       -0.022376586 -0.049783267 0.1353672 0.022418926
000210 eb 69 a3 bd b8 93 b1 3b 4d 59 18 3e 74 87 00 bd
       -0.079791866 0.005419221 0.14877816 -0.03137918
000220 0b 98 5f 3a e9 65 5d bd b2 8b ab bd 03 f4 43 bd
       0.0008529431 -0.054052267 -0.08376254 -0.04784013
000230 d1 37 74 bb e8 70 4d 3d 66 30 b9 bd 49 18 1b 3c
       -0.0037264714 0.050156504 -0.090424344 0.009466239
000240 d9 4d 5f 3d 18 b5 0d 3c 65 43 81 bd d9 c8 a7 3d
       0.0545176 0.008649133 -0.063116826 0.081926055
000250 40 99 62 3d 37 74 2a 3e e7 d5 9d bc 9b 0f 95 3d
       0.05532193 0.16645895 -0.019267036 0.07278367
000260 d0 22 b2 bb af ce b3 bd 1e 1f 5e 3d d2 02 e9 3d
       -0.005436279 -0.08779656 0.054228894 0.11377491
000270 9b 8c 05 3d 49 b9 5d 3d 33 cd bf bb a7 9c 25 3d
       0.032604795 0.05413178 -0.005853319 0.0404326
000280 7d a4 98 3d c3 0e 7e bd 90 e5 9a bd f3 9f f6 3c
       0.07453249 -0.062025797 -0.07563317 0.030105567
000290 51 77 e0 3d b7 fe 2b bd 61 ed 4c bd 5b fa 29 3e
       0.10960258 -0.041990962 -0.05003107 0.1659941
0002a0 56 b8 f4 bb 6e 9f 3c bc bc 25 b4 3d ce e8 96 b9
       -0.0074682636 -0.01151262 0.0879626 -0.00028783683
0002b0 16 a6 a0 bd 63 97 1e bd 4c ed a7 bd 42 81 30 bd
       -0.078441784 -0.038718592 -0.08199558 -0.04309202
0002c0 b5 c0 58 3d 68 10 25 3d 53 78 67 3c c9 54 75 3d
       0.052918155 0.04029885 0.014127809 0.05989531
0002d0 03 02 2d bd ba c1 31 3e 88 2f ee 3c f0 33 9e bc
       -0.042238247 0.17359057 0.029075399 -0.019311875
0002e0 d1 01 eb bc fb 9e 77 3d a8 c5 97 bd ca 9c 40 3e
       -0.02868739 0.06045435 -0.07410747 0.1880981
0002f0 1c 6d 8a 3d 02 6b 3c bd 0f 7d ba 3d 49 98 64 bc
       0.06759092 -0.046000488 0.09105884 -0.013952323
000300 19 45 40 3c 85 cc 92 3d c7 bb a0 bc 4f d5 53 bd
       0.011735224 0.07167915 -0.01962079 -0.0517171
000310 16 03 27 3d bc 74 37 bd b0 3f 0d be e3 a6 58 3d
       0.040774427 -0.04478906 -0.13793826 0.05289353
000320 b5 38 b3 bc d0 a4 32 bd a2 33 89 3a ed 92 84 bd
       -0.021877626 -0.04361421 0.0010467658 -0.06473336
000330 65 b9 5e 3d d7 ee c6 bd e4 aa c2 bd 14 05 c8 3d
       0.054376025 -0.09713524 -0.09505251 0.097665936
000340 7f e9 96 3d ba da 81 bd e7 83 39 3d 96 c3 f6 3d
       0.073687546 -0.06340547 0.045291808 0.12049024
000350 13 17 50 bd 8e 71 1a be 82 ad a2 3d 5a ff 1a 3e
       -0.050803255 -0.1508238 0.0794325 0.15136471
000360 fa 0a 7d 3d cb 5b f1 3b a5 1a 59 3d 43 b2 58 bd
       0.061778046 0.007365679 0.053003926 -0.05290438
000370 1f 35 86 bd 4d a7 18 3e 0c b3 8a 3c 9c 2a 09 3e
       -0.06553101 0.1490757 0.01693108 0.1339516
000380 6b aa 0f 3e 0c cb ab 3d 8e d6 9f 3d 33 73 85 3d
       0.14029853 0.083883375 0.07804595 0.06516113
000390 11 2d ec 3d 05 9c bf bc 84 0e 8a bd 46 63 6b 3d
       0.11532033 -0.023389826 -0.0674105 0.05746772
0003a0 2a e1 89 bd 59 58 93 bd 20 e7 cf 3d 34 47 86 bd
       -0.067324 -0.07194585 0.101515055 -0.0655655
0003b0 31 45 d3 3d bb 2f 19 3e b5 39 9f 3d 27 a9 a9 bd
       0.103159316 0.14959614 0.077746786 -0.082842164
0003c0 6f 77 04 be d9 54 9d 3d c2 26 04 3e 06 48 dd bd
       -0.12936185 0.07682199 0.1290541 -0.10804753
0003d0 e1 ee 5d bd 59 25 04 be 25 d7 b3 bc bd 08 02 3e
       -0.05418289 -0.12904872 -0.021953175 0.12698646
0003e0 b3 d7 69 3d c9 0d 2c bd f4 aa 9f 3d 60 ad ca bd
       0.057090472 -0.042005334 0.077962786 -0.0989635
0003f0 a1 c1 8b 3d bd c3 15 3d 74 cb 7b bc f6 8d 24 3d
       0.06824041 0.036563624 -0.015368331 0.040174447

bias f4 [32]
000000 0d 09 aa 3d 32 5b 9b bd 46 e5 ff 3d 1d 97 45 3d
       0.083025075 -0.075857535 0.12494902 0.048239816
000010 e5 6b f1 3d 96 1f e5 bd f4 68 13 3e 99 04 07 3e
       0.117881574 -0.11187665 0.14395505 0.13185348
000020 29 1c 1d 3d 82 8e 3b 3d 8d ab 8f 3d 69 d5 03 3e
       0.038356934 0.045790203 0.070151426 0.12874378
000030 4e c7 01 be c2 ab be 3c 40 cd 59 3d ab 96 c5 bc
       -0.12673685 0.02327526 0.053174257 -0.024119696
000040 6e 2f 71 bc 4e d2 91 bc d6 22 e2 3c 70 cc 44 3d
       -0.014720781 -0.017800476 0.027604502 0.04804653
000050 42 55 88 bc 23 6d 56 bb 78 3c 17 bc 70 d1 ae bc
       -0.016642217 -0.003271886 -0.0092307255 -0.021340102
000060 ff 18 7f bd df 8d 50 bd 9c 4f 58 bd a0 a7 32 bd
       -0.062279698 -0.05091655 -0.052810296 -0.04361689
000070 d4 89 9c 3c 82 53 c9 bd 51 c5 b5 bd 05 99 10 3d
       0.01910869 -0.09830381 -0.08875526 0.03530218

weight f4 [8, 32]
000000 aa e5 e7 bd ab 98 10 be 68 72 0f be 50 69 31 3e
       -0.11323102 -0.14120738 -0.14008486 0.1732533
000010 02 0e aa 3d 90 76 91 3d 72 a2 0c 3e 6b 76 c8 3d
       0.08303453 0.07102692 0.13733843 0.097882114
000020 84 3a 23 3e 41 76 44 3d f8 b3 be 3d 81 05 1b be
       0.1594029 0.04796434 0.0931167 -0.15138818
000030 23 88 32 bd ba 81 64 bc 47 8a 3e 3e 0b 41 95 bb
       -0.04358686 -0.013946945 0.18607436 -0.004554873
000040 66 9b 8e bd 8d 9f 9e 3d 5f db 99 3d 67 87 a1 3d
       -0.06963234 0.07745276 0.07512545 0.07887154
000050 35 2b 9b bd e1 93 47 3c e2 ec 45 3e 6f 97 b4 3d
       -0.075766005 0.012181253 0.19328645 0.08817946
000060 7b 52 6e 3d 17 23 b7 ba 80 05 84 3d e5 a5 69 bd
       0.05818413 -0.001397225 0.064463615 -0.057042975
000070 60 52 0c be 7f b8 49 3d a7 4f 12 3e 85 f2 ce bb
       -0.13703299 0.049248215 0.14288197 -0.0063155317
000080 9d 87 40 ba 11 b3 8c bd ff 37 9f bd 38 8f f6 ba
       -0.00073444267 -0.06870092 -0.07774352 -0.0018810993
000090 c6 f7 53 3b f8 13 63 bd 06 69 ca bd bd ed 0a bd
       0.003234373 -0.055438966 -0.09883313 -0.03391813
0000a0 40 5d 9c 3b 5a 82 b3 bc d3 65 15 3d 52 34 c9 bd
       0.0047718585 -0.021912742 0.03647406 -0.098244324
0000b0 1a c6 cd 3b c7 04 09 bd 43 e0 0e bd 91 08 25 bd
       0.006279719 -0.03345182 -0.03488184 -0.040291373
0000c0 84 18 c9 3d 2a 22 8b bb 7d 21 6c 3c c2 61 3f 3c
       0.09819129 -0.004246016 0.014412281 0.011681022
0000d0 e4 ea 82 3d a7 3d 85 3d 2e 9c 3d 3c fa c6 68 b8
       0.06392458 0.065059 0.011572881 -5.549842e-05
0000e0 44 7b 87 3c df af b2 3a ec f9 b4 38 ac 38 1d bb
       0.01653827 0.0013632736 8.6296204e-05 -0.0023990078
0000f0 63 80 ae bd 6f 00 b3 3d a3 f3 70 3a 87 4b e6 ba
       -0.085205816 0.08740317 0.0009191578 -0.0017570116
000100 05 13 7f 3d 10 e8 7b 3d 49 4d 13 be 46 4a d3 bd
       0.062273998 0.06150061 -0.1438495 -0.10316901
000110 1f f9 59 bd f7 a9 36 be df da b5 bc f7 b8 13 be
       -0.053216096 -0.17838274 -0.022199092 -0.14426027
000120 90 f2 b6 bd 24 b9 09 3d 8c b4 ac 3d cf e9 be 3d
       -0.08932984 0.03362383 0.08432874 0.09321939
000130 53 d7 e2 3d 80 9f f2 bc 4c 14 b5 3d 9f 61 20 bc
       0.11076226 -0.029617071 0.08841762 -0.0097889
000140 04 d7 92 bd f3 f3 42 be f2 5b 00 bd c7 5f fb bd
       -0.07169917 -0.19038372 -0.031337686 -0.122741275
000150 b8 f2 fc 39 fb 68 8a bd 7f a3 89 3d 8a 27 c9 3d
       0.00048246025 -0.06758305 0.067206375 0.098219946
000160 b6 fb 3c 3d 23 ed ae bc 22 a2 b8 ba d0 55 dc bd
       0.046138488 -0.02135331 -0.0014086405 -0.10758555
000170 04 cd 0b 3e 81 bf 49 3b e1 93 19 be d7 1b 93 bd
       0.13652426 0.0030784311 -0.14997818 -0.071830444
000180 d9 f2 87 3d b3 2a 8f bd d5 0e c8 3d 34 6c e4 bc
       0.066381164 -0.06990566 0.09768454 -0.027883627
000190 b8 13 b0 bb b1 6e f4 bd 32 9f 53 3e 62 d1 06 3d
       -0.0053734444 -0.11935175 0.20666197 0.032914527
0001a0 7b ea 2e be 0c a7 c4 bd 62 f8 41 3e e4 f3 4c bd
       -0.17081635 -0.09602174 0.18942407 -0.05003728
0001b0 8a 48 8b bd 65 5d 25 3e 12 01 40 3d 96 d0 88 bd
       -0.06800945 0.16148908 0.04687602 -0.066804096
0001c0 a2 3e 6b bd e5 10 18 bd 7d e4 a2 3d d6 38 9f 39
       -0.05743278 -0.037125487 0.07953737 0.0003036919
0001d0 e4 1d 80 bc 14 c7 83 3d fe ca a2 bc 55 72 8c 3b
       -0.015639253 0.064344555 -0.019872185 0.0042860904
0001e0 ae dc 7e 3d 9a 26 b1 3d 79 19 c7 3d 6f 15 42 be
       0.062222175 0.08649941 0.097216554 -0.18953489
0001f0 21 27 d9 bd 9a 80 f1 bc 0d 21 9f bd 77 8c ad bc
       -0.10603166 -0.029480267 -0.07769976 -0.021185143
000200 2f 38 85 bd b0 7e 06 bd 0b f7 27 3e ac 09 81 3d
       -0.06504857 -0.032835662 0.16402833 0.06300673
000210 e8 1c 7f ba 6e 5f 40 3d 63 e1 15 3e 04 4d c8 bd
       -0.00097317854 0.04696601 0.1463676 -0.097803146
000220 ce 76 9c 3b 5e 52 b0 bd 72 64 9f bd 35 c2 57 3e
       0.004774905 -0.0860946 -0.0778283 0.21070178
000230 b1 4a ba 3c 50 d3 10 bd 02 98 6c bb 3a 03 88 39
       0.022740694 -0.035357773 -0.0036101346 0.00025942345
000240 2e f2 30 3d 0d 63 10 3e 98 e0 14 be 36 0a bc bc
       0.04319971 0.14100285 -0.145388 -0.022954088
000250 14 97 9a bd 64 ef 3b 3a d9 5b 77 bd 5b 94 9f b9
       -0.07548347 0.0007169156 -0.060390327 -0.00030437377
000260 30 08 37 3c ac b6 43 bc 3b 64 ed 3a 00 85 16 3d
       0.011171386 -0.011945408 0.0018111536 0.036747932
000270 5e 7f 03 bd 15 05 91 3d d9 4b 0f be 05 78 70 3d
       -0.03210389 0.070810474 -0.13993777 0.05870821
000280 55 e7 19 be 76 e7 2e be 31 b3 cd bc 6b 48 36 3e
       -0.15029652 -0.17080483 -0.02510986 0.17801063
000290 21 4c 33 be c5 31 27 3e b7 e7 59 3d 83 8b 49 3e
       -0.1750951 0.1632758 0.053199496 0.19682126
0002a0 04 79 23 3e 87 df 93 3c ed 13 8a 3d 60 d2 e6 3d
       0.15964133 0.018050922 0.06742082 0.112705946
0002b0 59 89 b5 bc 12 de 8b bd 76 e6 80 bc 16 0c 85 3d
       -0.022160219 -0.06829466 -0.015734892 0.06496446
0002c0 1c d7 b5 ba 05 f8 a5 3d 40 3d 36 3e d0 a3 02 be
       -0.0013873312 0.081039466 0.17796803 -0.12757802
0002d0 d3 51 85 3a 0a a7 00 3a 9e d5 3e 3e f7 de f4 bc
       0.001017148 0.0004907703 0.18636176 -0.029891474
0002e0 9e c0 3d bd 61 55 2e 3d 0d f2 12 be 2e 42 81 3c
       -0.046326272 0.042561892 -0.14350148 0.015778627
0002f0 f2 e0 ac bd 65 ac 95 bc f1 e8 98 bd 54 ce 85 bd
       -0.084413424 -0.01827068 -0.07466305 -0.065334946
000300 25 fe f6 bd 8b 8c e1 bc df a2 03 3e 09 15 10 3e
       -0.12060193 -0.027532836 0.12855099 0.14070524
000310 b7 fb 8a 3d 3a 4f 14 be fb 71 d6 3c 0a 44 c1 bd
       0.06786292 -0.14483348 0.026177397 -0.094368055
000320 13 ac 35 39 c5 1d e1 bd c1 a0 13 be 9c 66 27 3e
       0.00017325608 -0.10992006 -0.14416791 0.16347736
000330 6b d1 4e ba a1 97 15 be 7f 70 d0 3d 2c ac 92 3d
       -0.0007889482 -0.14608623 0.10177707 0.071617454
000340 53 5a f2 3c 6c 34 0e 3b 61 74 66 3d f2 32 0e be
       0.029584086 0.0021698726 0.05626333 -0.13886622
000350 00 c4 49 bc 36 73 f3 3c 4e 10 ac 3c 63 92 8d bd
       -0.012314796 0.029718023 0.021003868 -0.06912687
000360 01 42 84 3d 6e 19 2e bd 3b 6d 34 3d 55 23 b0 3d
       0.06457902 -0.04250472 0.044049483 0.08600489
000370 54 dc 31 bd 9a e1 9b bd 74 6a b1 3a 6f c9 3e 3d
       -0.043423012 -0.076113895 0.0013535754 0.04657882
000380 be 21 ac bd 86 85 66 bd 19 66 bd 3d 64 8e 94 bd
       -0.08404873 -0.05627968 0.09247989 -0.07253721
000390 8d 8a 2d 3e 25 27 2a bd e0 f4 aa bd 00 45 fe 3d
       0.16947384 -0.041541237 -0.083474874 0.124155045
0003a0 aa dd fd 3d d5 96 99 bc 39 54 1d 3d 83 80 c0 3d
       0.12395795 -0.01874868 0.0384104 0.09399512
0003b0 79 30 f6 bd 95 67 fc bb df 14 d8 bd 1a 1d f6 3a
       -0.12020964 -0.0077027776 -0.10550856 0.0018776983
0003c0 3e f2 88 3d cc 01 36 3e 61 7c 94 bd 0e 86 1b be
       0.06686829 0.17774123 -0.07250286 -0.15187857
0003d0 68 99 dd ba 46 f8 87 bc 56 4e 91 3d 99 26 eb 3c
       -0.001690668 -0.016597878 0.070950195 0.028704928
0003e0 1a 55 0d 3d 0f d4 c7 bd af bd 28 3d ea eb 09 3d
       0.034504987 -0.09757244 0.04119652 0.03367225
0003f0 cf c3 7b 3c 96 1c 01 be 91 12 c5 bd 66 00 cd bd
       0.015366509 -0.12608561 -0.09622682 -0.100098416

bias f4 [8]
000000 a2 99 1b 3d cf 5c b7 bc d8 90 ff bd b4 12 9c bd
       0.037988313 -0.022383122 -0.12478799 -0.07620755
000010 6c 92 e9 3d 68 8f 90 3d d6 65 4d bd 2f 24 1f 3d
       0.11404881 0.070586026 -0.050145946 0.038852867

weight f4 [1, 8]
000000 77 39 b1 3e 57 6b 1f bc 90 69 2e 3e 0c 2c f1 3d
       0.34614155 -0.009730182 0.17032456 0.117759794
000010 42 f0 ec bd 3d ab a8 3d c6 2e ae be b5 28 96 bd
       -0.11569263 0.08235786 -0.3402006 -0.07331983

weight f4 [8, 1]
000000 2e ec 60 bf 1b 83 00 3f 2f 57 06 be 5c f7 45 bf
       -0.8786038 0.5020005 -0.13119195 -0.77330565
000010 30 fe 06 bf 36 48 ed be 15 62 68 3f 81 4a e6 be
       -0.5273161 -0.46344155 0.9077466 -0.44978717

bias f4 [8]
000000 a3 35 20 3f 22 6a 6c 3f 95 48 16 bf fb f5 0c 3f
       0.62581843 0.92349446 -0.587045 0.55062836
000010 55 12 ff be 6c 57 10 bf 20 98 65 3f 42 94 1d bf
       -0.49818674 -0.56383395 0.8968525 -0.6155435

weight f4 [32, 8]
000000 1b 0f 06 be e9 2d f0 3d 4e 25 17 be 11 cd 98 bd
       -0.130917 0.11727507 -0.14760324 -0.07460988
000010 ba 94 5a 3d 36 86 6e bd 7a 34 f2 3d 08 b0 87 3e
       0.053364493 -0.058233462 0.11826415 0.2650149
000020 27 91 f1 3c c5 8a a1 3e d1 6e 22 3d 33 66 8a 3e
       0.02948816 0.31551185 0.039656464 0.27031097
000030 34 2f 9b 3e 93 a9 64 be f1 fc 4e 3e 05 75 f8 3b
       0.3030945 -0.22330312 0.20213677 0.007582309
000040 2a 54 61 bb 53 bf 9c bc 0f c4 33 be cf 82 10 be
       -0.003438244 -0.0191342 -0.17555259 -0.141124
000050 6a 34 76 3e 4a d5 ee bd d9 e0 36 be 6c 9d 44 3e
       0.24043432 -0.116617754 -0.1785921 0.19200677
000060 a9 6d 05 bd b4 b5 b0 3d e5 a7 7c bd e7 b1 a4 be
       -0.032575283 0.08628407 -0.061683554 -0.3216698
000070 9d 49 37 be 54 1b f0 3c 42 16 86 3c 01 b6 c4 3d
       -0.17899175 0.029309906 0.016368035 0.09605027
000080 02 74 d8 bd 7a c1 8c bd cb 0a 58 bc 06 ae a8 bd
       -0.10569002 -0.0687284 -0.013186167 -0.08236317
000090 bb 32 75 bc b8 97 80 3d a8 88 a0 3c 25 65 cf 3d
       -0.014965708 0.06278938 0.019596413 0.10126714
0000a0 ed dd 9a 3e 3d ab a1 be ba 1f 65 3b ea aa a7 3d
       0.3024744 -0.31575957 0.0034961537 0.08186896
0000b0 c9 41 9f 3e 18 41 8a 3e d7 b9 92 3e 5b a9 7a 3d
       0.31104878 0.27002788 0.2865741 0.061196666
0000c0 75 cf 79 be c0 ea a2 3e b0 68 97 bd 7d d8 3f be
       -0.24395545 0.31819725 -0.073930144 -0.18734927
0000d0 ba 1a 01 39 44 fc 00 3a 60 0a 72 3e 3f 8b 1b 3e
       0.00012312355 0.0004920403 0.2363677 0.15189837
0000e0 50 99 b7 bd 1b 36 fc bb ed e9 30 3c e1 0b bb 3e
       -0.08964789 -0.0076968796 0.01079796 0.365325
0000f0 19 59 79 3e 21 47 99 3c 20 43 7b bd 93 1c b8 3c
       0.24350394 0.018710675 -0.061343312 0.022474563
000100 4e 3f 2d 3e b0 12 64 be 42 f8 66 3e a4 b2 95 3e
       0.1691868 -0.22272754 0.2255564 0.29237854
000110 2e e6 33 be ab aa 1f 3e 11 f6 1f 3e 20 2f 48 bd
       -0.17568275 0.15592448 0.1562121 -0.048873067
000120 78 91 68 3d c6 22 fb 3d 29 17 0c 3c 17 f6 a0 3d
       0.056779355 0.12262492 0.008550444 0.07859438
000130 a6 67 5d 3d 91 36 fb bc 6f a3 86 be 41 27 79 be
       0.054053925 -0.030665668 -0.26296565 -0.2433138
000140 b9 e8 27 be 48 3c 97 bd ec 89 d0 ba 67 3f 39 be
       -0.1639737 -0.073845446 -0.0015910245 -0.18090592
000150 94 48 3b 3a 9b 81 eb 3d c3 d1 b4 bd f1 81 e3 ba
       0.0007144299 0.1149933 -0.088290714 -0.0017357451
000160 42 53 83 be 86 a0 6c bd 32 9b 7c bc 46 82 6c 3b
       -0.25649458 -0.057770275 -0.015417861 0.0036088391
000170 26 ec b0 3d bf d2 93 3b 2b 85 13 3e 5f 1e 66 be
       0.08638792 0.004511207 0.14406268 -0.22472523
000180 0a 38 91 3e 4d ee 7c bd 6e 5d 31 be 6d aa 3d be
       0.28363067 -0.0617507 -0.17320797 -0.18522044
000190 00 79 9a 3e d9 a0 a5 3e ea 36 9b be a4 19 93 3e
       0.3017044 0.3234928 -0.30315334 0.287305
0001a0 11 70 4a 3e 7f e5 78 3e 5b 6f 81 3d 4e a2 15 3e
       0.19769312 0.24306296 0.063200675 0.14612696
0001b0 e8 22 d2 3d 10 cc 75 ba 64 a0 41 3e f8 84 d9 3d
       0.10260564 -0.0009376416 0.1890884 0.10621065
0001c0 e9 c0 0a be 18 34 f9 bb a9 01 b0 bb 52 a8 23 3b
       -0.13550152 -0.007605087 -0.0053712917 0.0024972153
0001d0 20 22 f6 ba e6 ac dd 3d 62 8a 8f bb 96 bc 37 bb
       -0.0018778481 0.108239934 -0.00438051 -0.002803599
0001e0 9a 12 cb 3c 1d e6 76 be 2d 55 36 3e 0c 78 d0 bd
       0.024789143 -0.24111219 0.1780593 -0.10179147
0001f0 77 9d 33 bd e8 96 cf bd 6a a8 af 3d ce 0c d1 3c
       -0.043851342 -0.10136205 0.08577044 0.025518801
000200 27 66 19 3c 2d 7c ad 3e 5b 7e 93 bb fb 27 64 bd
       0.009362734 0.338838 -0.0045011467 -0.05570219
000210 67 dd 89 3e 25 39 8f bc f4 ca ba 3e d6 f7 72 be
       0.2692673 -0.017483303 0.36482966 -0.23727354
000220 e8 e6 a6 3a a0 4e 21 3e 82 f6 bf 3d f8 7e 51 b9
       0.001273361 0.1575265 0.093731895 -0.00019979093
000230 54 11 7b be c8 9a be bd 15 09 85 be 81 a7 72 be
       -0.24518329 -0.09306866 -0.25983492 -0.2369671
000240 41 ab 8f 3c eb 64 3e be 8e ec 21 3e c1 68 8e bd
       0.017537715 -0.18593185 0.15812895 -0.06953574
000250 88 50 87 3e 94 85 61 3e a9 5a f1 bc b0 b3 00 be
       0.26428628 0.22023612 -0.029462175 -0.12568545
000260 15 a3 2b 3e ef 7f a0 3e d8 0b 10 be 88 3b 31 3e
       0.1676143 0.31347606 -0.14067018 0.17307866
000270 48 23 78 be 8c 18 7e bd 5c 2c 90 3e bc 18 3b 3d
       -0.24232209 -0.06203513 0.28158844 0.045677885
000280 7f 6f 71 ba 6a d8 6b be 3b 1f 15 ba 56 ff fe bd
       -0.00092100346 -0.23031774 -0.00056885526 -0.12451045
000290 f8 0b 6e be e8 18 67 38 8d ab 91 3d 77 72 b2 bd
       -0.23246753 5.5097888e-05 0.07112799 -0.08713239
0002a0 ef 06 4e 3e 09 75 28 3e af 3d cc 3b 8d 00 3c 3e
       0.20119832 0.16450895 0.006232939 0.18359585
0002b0 98 32 23 be 69 64 3f bd 21 10 f5 bd c1 d9 42 3e
       -0.15937269 -0.046726618 -0.11965967 0.19028379
0002c0 c6 51 2c be 9b c5 77 be ed 79 29 be 6a b0 9a bb
       -0.16828069 -0.24196474 -0.16550417 -0.004720737
0002d0 e5 7e 5c 3d 50 f3 98 bb 40 95 b6 bd 32 0e fc bd
       0.053831954 -0.004667677 -0.08915186 -0.12307395
0002e0 5d 7b 10 be 1a 90 b1 bd d6 d7 52 3e 12 5f 56 3e
       -0.1410956 -0.08670063 0.20590147 0.20934704
0002f0 59 c2 a6 bd 72 9c 87 3e 0a 1a 6f bb a8 c7 fd 3c
       -0.081425376 0.26486546 -0.0036484026 0.030978993
000300 44 13 b2 be 91 96 b8 3e bf 74 5c be ce 83 8f 3d
       -0.34780324 0.36052373 -0.2152891 0.070075616
000310 39 27 6d be c2 08 37 be 2a 13 b0 3e 9b 00 87 bb
       -0.23159494 -0.17874435 0.3438962 -0.004119945
000320 31 3f 4d be d8 74 a2 3e 53 3c f3 3a ee 4c 2a be
       -0.20043637 0.3172977 0.0018557407 -0.16630909
000330 f1 95 56 be 5f 8b 42 3e 94 a9 78 3e 48 1c 8d bb
       -0.20955636 0.18998478 0.24283439 -0.00430635
000340 06 83 1c 3e 22 65 93 3e 78 bd 05 bd d3 6d 7f 3e
       0.15284356 0.28788096 -0.032651395 0.24944238
000350 40 77 a8 3e 5a a7 3a be 39 5c 4e bd 6f 57 c6 bb
       0.3290348 -0.18227902 -0.05038092 -0.0060529034
000360 7d df a6 3e 22 6f d5 bb 1f 6c 3a 3e 12 3c 40 3b
       0.32592383 -0.006513492 0.18205307 0.002933268
000370 5f 40 f2 bd bb ac a6 3d 05 3b 7d be d6 13 dc bd
       -0.11828684 0.081384145 -0.24729545 -0.10745971
000380 ac 61 98 3e d6 a0 aa be a5 89 37 be be ff 81 bb
       0.29762018 -0.33325833 -0.17923601 -0.0039672544
000390 ee 8f 01 3e ab c3 36 3e 3a 88 5f be fb a2 66 bb
       0.12652561 0.17848079 -0.2182931 -0.0035192359
0003a0 57 3d 82 3e bf 6f e6 3d 38 da a8 3d ff c6 c9 3e
       0.25437424 0.112517826 0.08244747 0.39409634
0003b0 4f cc 4e 3e 1e 92 62 3d 15 0b f6 bd cd 49 62 be
       0.20195125 0.05531513 -0.120138325 -0.22098465
0003c0 ab 9a 47 3d 48 7a d9 bd a6 5e 38 3e a5 a7 45 3e
       0.048731487 -0.106190264 0.18004856 0.19302233
0003d0 10 00 40 3d 00 00 05 3e 84 6b 83 bd 52 45 ca bc
       0.04687506 0.12988281 -0.06416991 -0.024691258
0003e0 d4 2c 9d 3d 83 9d 4e 3e 7a f3 a5 3b 08 86 e5 bd
       0.07674566 0.20177273 0.005064425 -0.11207205
0003f0 75 e8 71 3e b7 40 eb 3d b6 08 9d 3b f0 1a 4c 3d
       0.23623832 0.11486953 0.004792298 0.049830377

bias f4 [32]
000000 79 72 1d 3e a0 e1 a0 3e 68 e8 81 bd 1e 26 be 3d
       0.15375699 0.31422138 -0.06343156 0.09284614
000010 bd 0f e8 bb 55 46 84 3d 80 d4 81 be bd 79 81 3e
       -0.0070819543 0.06458727 -0.25357437 0.2528819
000020 d0 0d 42 bd 5c 47 48 3d 29 e5 75 3e 89 3a a5 be
       -0.047376454 0.04889618 0.24013199 -0.3227122
000030 1b 4d 62 3d 42 5c b7 bd 41 63 24 bc 15 14 83 be
       0.055249315 -0.08953144 -0.01003343 -0.2560126
000040 72 6d a7 be db b5 4e be 9d db 67 3e 72 14 b1 3d
       -0.32700688 -0.2018656 0.2264237 0.08646478
000050 6c e8 9d 3d 67 0c 86 3e fa ee 56 be b3 d4 51 be
       0.077103466 0.26181337 -0.209896 -0.20491295
000060 2a e1 60 bd 45 ad 32 be 2d 3e d8 bc d3 76 82 be
       -0.054902233 -0.1744891 -0.026396835 -0.2548128
000070 9b c3 88 be 46 51 b5 bd 12 5f 1b be b6 44 8d 3e
       -0.26711735 -0.08853392 -0.15172985 0.27591485
