model/037.700965881347656.pt (torch_old, 170367 bytes, 19 tensors)

weight f4 [256, 3]
00000000: c577 7cbe 1bbd 253e 92f5 c33e 1530 6d3e
00000010: c989 26be afcb 90be df18 d73e 68a7 e63e
00000020: 046a de3d 24af acbe 1a29 403e 7b38 183f
00000030: cc82 fd3d 03ff 82be fd4a 3e3c 913b e3bd
00000040: 2ddb bcbd fbd4 5dbd dd0e e63e 6487 9bbe
00000050: 42b9 a5be 2c72 debd f9aa b8be 448b c03c
00000060: ba6e da3d 1008 403d 90dc d53e 6d54 bb3c
00000070: 4ce7 983e 4fa6 d43c 0477 a03e caae 55be
00000080: c2cb 6f3e 8fc5 d0be 5e93 f93e c922 89be
00000090: c804 0a3e 6a1e 4f3e 2b46 93be 1c92 8c3e
000000a0: 42d1 b2be 8dfa 903e ae63 963e 8b1b 28be
000000b0: 7aed 113f edaf 8a3e 11c2 97be 5eb5 553d
000000c0: 1365 d8bb c60b f13e 10ec d43e 5f80 c8be
000000d0: 3e72 d63e a4a1 a63d 94ed 7abe 0e4d 803d
000000e0: d925 a53e e147 84bd d5c9 9f3d 25d0 e53e
000000f0: 049c f6be 999b be3e d5de 13bf 23b8 d2be
00000100: 1f64 f33e 7654 c73e fd9d a63e 5994 cbbe
00000110: 4f0a c8be 6cc2 383e fb01 f23e b7ae 573e
00000120: 54e7 e0bd a4c4 0e3f 1451 ffbe 9d10 efbd
00000130: d953 9c3e c864 353e dd67 fb3e 992f e93e
00000140: 9446 b4bd 2456 60bd 17f7 0d3e 76bd 933e
00000150: ed1b f7be 2c60 88be 51bf 84be 8ea5 e03e
00000160: 0468 88be a3bb 9dbe 9111 c0bd 0db3 0f3f
00000170: b965 763d 6528 fd3e d19c c33d 8dc4 76be
00000180: 3d3e a0bb 7260 9fbe b164 ebbe af95 04bf
00000190: 150f e2be 7a8e 9abe 580c a23e 9f30 7f3e
000001a0: 99bc 47be cf17 bebe 36cb c23d 14b8 5c3e
000001b0: eda2 e9be 047d e63e 19ee 2abd 0bfb eb3c
000001c0: 17c4 733e 70ac aa3d aa46 f73e c1e3 7abd
000001d0: 52c9 23be 15ed a33e 364c 89bd 719b 043d
000001e0: 626f 69be 5348 433e 2858 a9be 848a 4c3e
000001f0: f3e0 f8be 036b b73e f806 babe aa6a 4abe
00000200: fb1c ba3e f2be 853e 6a88 943d c515 253e
00000210: 5faa e8be cb3a a83e 170b f73e d103 df3e
00000220: ca78 cabe 0831 02bf 692f 033f 9b47 f43d
00000230: ff5c b93b 98c6 e03e 3689 07bf 6869 153f
00000240: 3091 fb3e aa20 d83c d045 17be 89de 1d3e
00000250: f152 70be e208 1bbe 44fc c7be 6ee0 093f
00000260: f11e 04bf eef9 9b3e 7536 ff3e 6b34 e23e
00000270: aef3 953d 38f2 ac3e 71b8 2fbd 128e 9a3d
00000280: 11fb 8d3e 0c35 f6bc bd93 053f f631 d43d
00000290: 1156 223e 94d7 e93e 4a56 d43d 94a4 b1bc
000002a0: 8969 47be dd9a 63be d206 24be 4973 7e3e
000002b0: 9039 9ebc a992 f43e ac79 fc3d 6002 083f
000002c0: 5e1b cbbe 6b4b 493d 146a ce3e 06c3 19be
000002d0: 44ef c03e 7cc1 00bf 6418 e7be eb04 c03c
000002e0: 913f f53e cd5c 01bf c5e0 b73b 4c37 8f3e
000002f0: 07ee bbbe 0528 65be c138 fd3e 57d8 043f
00000300: f981 aaba 9ebf e33e 9a64 c53e 33c1 c7be
00000310: 8188 b3bd 54b9 053f 1f7e e6be 6889 ffbe
00000320: 3e00 3cbe 6375 d4bd 7c89 ae3e f5a7 0d3d
00000330: b12b c6be 3b29 b5be aec7 9b3e 809f 83bd
00000340: 6894 083f 9232 09bf 5f60 e03d f2f2 c03c
00000350: 6e78 93be 2022 033f 6cc5 51be 43b5 53be
00000360: 923a f1be 950c c23e 2050 bebe 262b 753e
00000370: 5fd1 68be 894d b2be 05d3 06bf 0c5b 73be
00000380: d1a9 8bbe 30cb e83d 29f8 103f 4fa7 783e
00000390: a363 8f3e 66af 10be 0928 573e a280 88be
000003a0: ac61 ff3c 189e c4be ce74 743d 9972 22be
000003b0: 5bcc 123f 16c5 94bd 7d2a 2abd 198c fa3e
000003c0: d9bd f93e e75e b2be 2cae a03e be60 bf3e
000003d0: eeec b73e 6215 71be f94d 74be fdfd e2bd
000003e0: 549d efbe 1b1a 023f 68e6 f03d f0be 32be
000003f0: e7fa 0b3f 36ca fc3e 503f 883d 7f57 3c3d
-0.24655063 0.1618542 0.38273293 0.23162873 -0.16263498 -0.28280398 0.42011163 0.45049596
0.108600646 -0.33727372 0.18765679 0.5946118 0.12378463 -0.25585184 0.011614558 -0.11095346
-0.09221492 -0.054158192 0.44933215 -0.30376732 -0.32367903 -0.1086162 -0.36067942 0.023503907
0.10665651 0.04688269 0.41769838 0.022867406 0.29863966 0.025958208 0.31340802 -0.20867458
0.23417571 -0.40775725 0.48745245 -0.2678435 0.13478386 0.20226446 -0.2876447 0.27455223
-0.34925276 0.28316155 0.29372925 -0.16416757 0.57002985 0.27087346 -0.29640248 0.05217492
-0.006603846 0.47079295 0.4158635 -0.3916044 0.41884035 0.08136299 -0.24504691 0.06264697
0.32255438 -0.06459022 0.07802168 0.44885364 -0.48165905 0.37228087 -0.5776189 -0.4115611
0.47537324 0.38931626 0.3254241 -0.39761618 -0.39070365 0.18042916 0.47267136 0.21062742
-0.10981622 0.557688 -0.49866545 -0.116730906 0.3053272 0.17714226 0.4910268 0.45544127
-0.08802524 -0.05476965 0.13863789 0.28855485 -0.48263493 -0.26635873 -0.25927213 0.43876308
-0.26641858 -0.30807218 -0.093783505 0.56132585 0.060155604 0.4944488 0.09551395 -0.24098416
-0.004890232 -0.3112827 -0.4597526 -0.517909 -0.44152132 -0.30186826 0.31650043 0.24920891
-0.19505538 -0.3712754 0.09511416 0.21554595 -0.45632115 0.45017254 -0.041730974 0.02880623
0.23805271 0.08333671 0.482961 -0.06125236 -0.15994766 0.32016817 -0.06703989 0.032374803
-0.22796395 0.19070558 -0.3307507 0.19974715 -0.48609123 0.3582383 -0.36333442 -0.19767252
0.36350235 0.26122242 0.072525814 0.16121586 -0.45442483 0.32857355 0.48250648 0.435576
-0.3954528 -0.50856066 0.5124422 0.1192772 0.005656838 0.43901515 -0.5294374 0.5836396
0.49134207 0.026382763 -0.14772725 0.15416922 -0.2346914 -0.15140107 -0.3905965 0.5385808
-0.5160971 0.3046412 0.49846235 0.44180617 0.07321869 0.33778548 -0.042900506 0.07546629
0.2773061 -0.030054592 0.52178556 0.10361092 0.15853144 0.45672286 0.10368021 -0.021684922
-0.19473852 -0.22227044 -0.16018227 0.24848665 -0.019314557 0.47768143 0.123278946 0.53128624
-0.39669317 0.04914419 0.40315306 -0.15015802 0.37682545 -0.50295234 -0.45135796 0.023439845
0.4790006 -0.5053223 0.0056115114 0.27971876 -0.36705038 -0.22378547 0.49457362 0.5189261
-0.0013008706 0.4448213 0.38553315 -0.39014587 -0.087662704 0.52235913 -0.45018098 -0.4990952
-0.18359467 -0.10373952 0.34089267 0.034584004 -0.3870521 -0.3538302 0.3042578 -0.064269066
0.5335145 -0.5359279 0.10955881 0.023553345 -0.28802818 0.51223946 -0.20485467 -0.20674615
-0.47114998 0.37900224 -0.37170506 0.23942241 -0.22736119 -0.3482478 -0.5266574 -0.237652
-0.27277997 0.1136688 0.5662866 0.24282573 0.28005704 -0.14129409 0.21011366 -0.2666064
0.031174503 -0.38401866 0.059681706 -0.15864028 0.5734307 -0.07264154 -0.041544426 0.4893501
0.48777655 -0.3483803 0.31382883 0.37378496 0.3592295 -0.23543313 -0.23857869 -0.11083601
-0.4679972 0.50821084 0.117626965 -0.1745565 0.5467972 0.49373025 0.06652701 0.04598188

bias f4 [256]
00000000: b351 293e 5dd6 0d3f 1601 02bf 10a3 053f
00000010: 0ac3 8cbe 055b 70be 9e7e 80be 2ad7 753e
00000020: fa10 653e ef94 ddbd 84fd 973e 0c12 e9bd
00000030: ebd6 863e 4f70 863e 474c f8be 5b92 b2be
00000040: 2272 f5be 7f45 ffbe b758 75bd f376 0a3f
00000050: 9e57 04bf f646 4cbe ce6a d1be 77b4 6a3d
00000060: 6fb6 a4be ba3c 1cbe 1f37 d43e 94c2 d3be
00000070: 7a4a 69be 0199 e6be 0629 5bbe 1213 d73e
00000080: 30fb c13e 8c41 c6bd d8b5 06bf efe5 f43e
00000090: b7c6 72be 7360 09be 4289 aa3e d7f9 e33e
000000a0: 2f9f de3d d66a 343e 4b72 113f 5799 54be
000000b0: b617 c83e 1d14 bfbe 55a3 713c 423b 80be
000000c0: fad8 3d3e 6cad babe e0ec cc3e 6da6 d8be
000000d0: 6a50 d7be d078 cfbb 2be4 1c3d 45b2 f43e
000000e0: 39ed 8d3d f109 18be 0c4a 79be 47e6 8a3e
000000f0: d8ec cc3e 9db4 003f 3365 b13e 8254 60be
00000100: 9cba 003f a81a e9be 6d97 da3e 3851 0fbf
00000110: 963a 893d f930 9e3d d75c f4be ec63 d53e
00000120: 3f29 69be ed0d b3be 86ee d3be 9116 a93d
00000130: 6d4f 89be 416b 093f ef3b 873e 5116 773e
00000140: 1bf2 cabe e1d1 323e 912d ca3e 3341 29be
00000150: bc57 593e 5536 59be 857b 10be 8351 6f3e
00000160: 5755 d8be 0ff4 0bbe a70b d43e 2030 47be
00000170: eceb 08bf 2037 f03e 5db3 753e 611d c8be
00000180: 2b22 d4be 3c2e 19be a06e 0d3e e7f3 0a3f
00000190: 4cba ef3e 4b5c a03d 6407 0abf b244 babe
000001a0: ee48 a3be b65c 89be 8062 cdbe 99d4 8f3b
000001b0: 2bc9 03bf 8ffa 703e a472 1bbe c504 e03e
000001c0: 3ff0 e83d 3b71 093f 69f7 a4be c338 eabe
000001d0: 0e32 863e 0a91 e43d 8332 86be 7d79 f83e
000001e0: 7e98 ef3e b6bc c5be 1acd dd3c 64c1 383e
000001f0: c756 4f3d b083 ad3e 9312 c0be cbac 3c3e
00000200: b0b1 67be 8627 6ebb ea7e 7a3c 4a91 9c3d
00000210: 3716 ac3e ca69 afbe 9bf3 dc3d a826 abbe
00000220: e829 9fbe aaa4 a13e caa0 683d 5f2f dcbd
00000230: 0b37 64be 131d 9b3e 550b e5be 1150 993e
00000240: 54a8 e63e b836 b2be e801 adbe 6a8d f3be
00000250: 6b28 b13e 2176 32be 5b7c 0bbf e3f1 47be
00000260: 1943 83be 4a65 873e fa36 07bf fc11 b43e
00000270: 7885 dd3d b296 2bbe ad2b 32be 97ca ed3d
00000280: 9532 223e 7d9b 86be f402 ea39 ec65 11bf
00000290: 1ff5 f4be b7e7 9a3e f122 62bd 40c5 33be
000002a0: 34d9 513c aa87 163f 2bdd 46be adfb a8be
000002b0: ae88 233e ab2f 2fbe c5d5 eb3e b509 893e
000002c0: b83b f3bd 9131 d03b 1b28 8ebe 6830 b1be
000002d0: f447 c9ba c31e 793e 4c6d 433e 8ab0 86be
000002e0: 398a ed3e d876 123e bac5 abbe f050 393e
000002f0: eb96 e9be 0bf3 ffbe 6971 ccbe 2067 813e
00000300: bd61 c7be 64b3 a13e 31b3 1dbe 445e 20be
00000310: f392 47bc e585 f6be 7194 8ebe bcf2 a3bd
00000320: a686 ad3d e6cc 0b3f 035e f93e 4884 8bbc
00000330: cbee 80be 6bf9 efbe c26e 95be befa 04bf
00000340: 2b93 f6bd de70 0c3f dbc4 aa3e 33d2 f0bd
00000350: 8fef 0ebe f2b3 4fbe 7a51 a73e be7e 97be
00000360: 77c3 2bbe 689e 03bf a227 dcbe 9c9e b53e
00000370: b466 a63c 0568 533e f881 66bd cc2c 053f
00000380: 6ebf 073e 012d 09bf 6898 3a3e b134 54bc
00000390: 7ee5 1abe a65d 123f 87f8 c83e ae16 8cbe
000003a0: ae9e 833e 3c32 b53d eb62 00bd 1dac 13bf
000003b0: 9b9f 8abe 50a6 303d c447 05bf 7b8a aabc
000003c0: bfb6 aa3e 426a e4bd e56a 123f dfa2 f23e
000003d0: 3781 923e a146 6d3e 5fb6 b23e 6718 153f
000003e0: 201b 793e 2d9b 5ebe 85ba c4be dcc9 e4be
000003f0: 32a5 b63e 9896 f93e 10d0 063f b35d 20be
0.16535072 0.5540522 -0.50782907 0.5220194 -0.27492553 -0.23472221 -0.250966 0.2400786
0.22369757 -0.108194225 0.29685605 -0.11380395 0.26335844 0.2625756 -0.48495695 -0.34877285
-0.4793864 -0.4985771 -0.05989906 0.5408775 -0.51696193 -0.19948944 -0.40901798 0.05730101
-0.32170436 -0.1525754 0.41448304 -0.4135939 -0.22782317 -0.45038608 -0.21402368 0.42006737
0.37886953 -0.09680471 -0.5262122 0.47831675 -0.23708616 -0.13415699 0.33307844 0.4452655
0.108702056 0.1761888 0.5681502 -0.2076162 0.3908059 -0.37320033 0.014748414 -0.2504521
0.18539801 -0.36460435 0.4002447 -0.42314473 -0.4205354 -0.0063315406 0.038303535 0.4779226
0.06930012 -0.14847542 -0.24344653 0.27128813 0.40024447 0.50275594 0.3464752 -0.21907237
0.50284743 -0.4552815 0.42693654 -0.55983305 0.067006275 0.077241845 -0.4772708 0.41677797
-0.2276964 -0.34971562 -0.41392916 0.08256257 -0.2681841 0.5367928 0.26412913 0.24129607
-0.39637837 0.17462875 0.3948789 -0.16528778 0.21224874 -0.21212132 -0.14109619 0.23370938
-0.4225261 -0.1366732 0.4141514 -0.19451952 -0.5348499 0.46917057 0.23994203 -0.39084914
-0.41432318 -0.14959043 0.13811731 0.54278415 0.4682182 0.078301035 -0.5391753 -0.36380535
-0.31891578 -0.26828545 -0.40114212 0.0043893573 -0.5147883 0.2353308 -0.1518045 0.4375364
0.11373948 0.536884 -0.3222001 -0.4574643 0.26210064 0.111604765 -0.26210412 0.48530188
0.4679603 -0.38620538 0.02707534 0.18042523 0.050619867 0.33889532 -0.3751417 0.1842529
-0.22626376 -0.0036339476 0.015289048 0.07644899 0.336107 -0.34260398 0.107886516 -0.3342793
-0.3108666 0.3157094 0.056793965 -0.10751223 -0.22286622 0.3029562 -0.44735208 0.29943898
0.450503 -0.34807372 -0.33790517 -0.47568828 0.3460115 -0.17427875 -0.54486626 -0.19525866
-0.2563713 0.26444465 -0.5281826 0.3516997 0.10816473 -0.16756704 -0.17399473 0.116109066
0.15839608 -0.26290503 0.00044634158 -0.56796145 -0.47843263 0.3025491 -0.055209104 -0.17555714
0.012808133 0.58800757 -0.19420306 -0.33004513 0.15970108 -0.17108028 0.4606153 0.26765218
-0.11876625 0.006353565 -0.27764973 -0.34607244 -0.0015356527 0.24328141 0.19084662 -0.26306564
0.46394518 0.14303148 -0.3354929 0.18097281 -0.45622954 -0.49990115 -0.39930275 0.2527399
-0.38941756 0.31582177 -0.15400387 -0.1566096 -0.0121810315 -0.48149028 -0.27847627 -0.08005282
0.08472948 0.54609525 0.48704538 -0.01703085 -0.25182185 -0.46869978 -0.29186064 -0.519451
-0.12039789 0.5485972 0.33353314 -0.11758842 -0.13958572 -0.20283487 0.3267935 -0.29588884
-0.16773783 -0.51413584 -0.42998987 0.35472572 0.020312645 0.20645149 -0.05627629 0.5202148
0.13256618 -0.53584296 0.18222201 -0.012952016 -0.15126607 0.57174146 0.3925211 -0.27361053
0.25707 0.08847472 -0.031344336 -0.576845 -0.27074894 0.043127358 -0.5206263 -0.020817986
0.3334255 -0.111530796 0.5719436 0.47389886 0.28614208 0.23171474 0.34904763 0.5824036
0.24326754 -0.21738882 -0.38423553 -0.44685256 0.3567291 0.48747706 0.5266123 -0.15660743

weight f4 [64, 256]
00000000: a561 3abd fc7d 783b 0ff0 013d 17b8 81bd
00000010: 2416 343c 33ff b83c f0ac f0ba c13f 283d
00000020: 476c fe3c 9b83 80bd 2860 453c 3eda b23c
00000030: ca31 eabb 4972 d7bc 2bee 4e3d 3bb9 2b3d
00000040: a225 373d d73c 8ebd 8f77 20bd cd1e 38bd
00000050: d567 bb3c c7f3 0d3d 0d8d 3b3a 06f8 80bd
00000060: bce2 3dbc d751 85bd c478 073d 0738 5fbd
00000070: 26b0 e0bb e719 e8bc a61f 9e38 fd4b 2b3c
00000080: 563d 00bb c65b b43c 6916 35bc 0e8a 073d
00000090: 6505 4ebd 505d 9f3b 06cb 073d 324f 77bc
000000a0: 60d7 39bc 48c3 46bd a5fd fe3c 98cc 0b3c
000000b0: ebb9 393d c6db 5e3b 210b ed39 2fab bbbc
000000c0: 328c 303d 30c4 8db9 1a12 84bd 44bf 5dbd
000000d0: 538a c8bc 3af0 cf3c 774e 10bc 41f8 8dbb
000000e0: 9dc5 ee3a 200d 293d 1427 f63c edc5 96bd
000000f0: 466a 0b3b e6b2 6bbd 52b3 04bc 4149 88bc
00000100: b031 4c3d 4560 fd3c 5223 88bc 7440 bf3c
00000110: 3e6f 43bd 7148 d73c bf9b 89bb 404b 38bd
00000120: 9e90 2cbd 7354 aa3a 9276 81bd 5e51 7e3c
00000130: cb26 66bd e09f 043b 555f ccbc 5df8 67bd
00000140: ae08 0f3d 470a b33c 0ead 823b 840d 1dbd
00000150: fe11 92bd 07e0 403d 7063 44bd d77d f6bc
00000160: 4ab9 153b 4519 65bd 4cf2 92ba 9164 00ba
00000170: f193 a13b 2497 093c 1636 253d e4e7 65bd
00000180: 6e30 16bd 6447 4f3c f0bb 06bd 5338 55bd
00000190: 9e7f 3dbd 9548 b7bb a0ca 3b3c 298e 723a
000001a0: 6ccd 9f3b ae84 f2bc 0ba4 68bb 8697 55bd
000001b0: 452a e83b a8b3 26bb f794 ce3c d808 b9bc
000001c0: 4eb4 1ab8 2604 43bd 1e78 cdbc 4762 8c3c
000001d0: 4734 183c 2373 993c 0676 cb3c 5a70 423d
000001e0: 98ec 983b 9e2c 353d 4abe 483a c39f f4bb
000001f0: 9fe7 04bd 837f 65bd d39b ec3c cbe6 a03b
00000200: b1be 2bbb ee24 bd3b a342 c53a 5885 03bc
00000210: c02a deb8 da4c ef3a 3b0a 35bd a322 23bd
00000220: f566 86bc 1dc7 8d3b fd55 0abb 059d 40bc
00000230: 2d39 983b 4d24 af3c 8b11 d53b c3cf 193d
00000240: a1c1 723b 8fe8 d2bc f8cd 90bc 64b3 83bc
00000250: c333 5dbb b15f 7abd 7732 433c f263 e2bc
00000260: 6d37 21bb 37ff 37bd 8db5 58bd 285c 69bd
00000270: 9770 c2bb f033 5fbb 7b59 56bb 49cc 8f39
00000280: 563b b4bb c290 61bd a7a6 8cbd 480f 94bd
00000290: 5893 3e3d 3960 19bc b289 593b a636 84bc
000002a0: 4a0f 8e3c 7027 6fbd 7315 66bd 6cb7 83bd
000002b0: f8fa 413c 178e 32bd bdac 75bd 9413 0c3a
000002c0: efae 4bbd 64b0 41bd b82d 223d b851 163d
000002d0: 9ff7 313a 131e bebc d721 0e3d f772 3dba
000002e0: 4ca0 efbc 2724 92bc a458 73ba de27 1cbc
000002f0: 5bea 76bb f7ae 89bd 9aa6 8dbd 05d2 74bc
00000300: 4d29 2a3d a1f7 953b 7d93 e6bc 6adf 76bd
00000310: 7878 eb3c 677a 33bb 4a8a d03c 659b a13c
00000320: 3b67 8cbb a0c2 433d 1def ecbb b7af ae3b
00000330: a2ab 5fbc 037b 85bd 3985 eabc 9847 efbc
00000340: 0f6e 92bd 9c88 10bd 8eab f73c b965 093b
00000350: 64c7 213d 5378 acbc 72f1 453d 4388 8d3b
00000360: e9e8 3d3d 249f 7ebd 0bd6 3cba 1306 90bc
00000370: 8367 71bd e136 3a3d cdea 02bd 054e 37bc
00000380: 5320 81bd 17df 073c 3f29 30b9 0aec c43c
00000390: 7f5a 82ba e8bd 01bc 5bd5 60bd 7744 91bd
000003a0: 7ba3 86bd 29b9 a5ba b7b3 3abd cdd4 4fbc
000003b0: 27e3 093b 8942 07bd 0833 1b3c 3af6 36bd
000003c0: 2143 21bb 135f bbbc 2ddf 2abd a539 133d
000003d0: 3884 6d3c c116 133c 9209 98bd 01b9 243d
000003e0: 4752 553b 2775 ffbc 5f2a b5bc e6cb 78bd
000003f0: c790 45bd 495e 413d de9e 103b 4da1 0cbc
-0.045503277 0.003791689 0.03172308 -0.063339405 0.010991607 0.022582626 -0.0018362086 0.041076425
0.03105749 -0.06275102 0.012046851 0.021832582 -0.0071470486 -0.026299613 0.050520103 0.041924696
0.044713624 -0.06945198 -0.03917652 -0.04495125 0.02287666 0.034656312 0.0007154502 -0.06297307
-0.011589702 -0.0650975 0.033074155 -0.05449679 -0.006856936 -0.028332664 7.539922e-05 0.010455129
-0.001956781 0.022016417 -0.011052706 0.033090644 -0.050298113 0.0048634186 0.033152603 -0.015094565
-0.011342853 -0.04852608 0.031126807 0.008532666 0.04534332 0.0034005507 0.00045212454 -0.022908775
0.04310245 -0.00027039787 -0.06448765 -0.054137483 -0.02448002 0.025383104 -0.00880777 -0.0043325727
0.0018216852 0.041272283 0.03004793 -0.0736197 0.002127306 -0.057543658 -0.008099394 -0.016636493
0.049852073 0.030929694 -0.016618405 0.023346163 -0.04771351 0.02627966 -0.0041994746 -0.04499364
-0.042130105 0.0012995139 -0.063214436 0.015522329 -0.05618934 0.0020236894 -0.024947802 -0.056633342
0.034920387 0.021855487 0.003987915 -0.038342968 -0.07132338 0.04708865 -0.047946393 -0.030089302
0.0022846037 -0.055932302 -0.0011211126 -0.0004897798 0.004930966 0.008397851 0.040334783 -0.05612935
-0.03666728 0.012651298 -0.032894075 -0.052055668 -0.046264283 -0.0055933692 0.011461884 0.0009252751
0.004876783 -0.029604282 -0.0035498168 -0.052146457 0.007085117 -0.0025436673 0.025217516 -0.022587225
-3.6884383e-05 -0.047611378 -0.02508169 0.017136706 0.009289808 0.01873166 0.024836551 0.047470428
0.004666876 0.044232003 0.000765775 -0.007465334 -0.032447454 -0.056029808 0.028882897 0.004910325
-0.002620619 0.0057722246 0.0015049767 -0.008027397 -0.00010593748 0.0018257156 -0.04419921 -0.039827954
-0.016406516 0.0043267147 -0.0021108382 -0.011756186 0.0046454878 0.021379614 0.0065023354 0.037551653
0.0037041681 -0.025745658 -0.017676339 -0.016076751 -0.0033752776 -0.061126415 0.011913887 -0.027635548
-0.0024599687 -0.044921126 -0.052907515 -0.056972653 -0.005933832 -0.0034058057 -0.0032707143 0.0002742729
-0.0055002375 -0.055069692 -0.06867724 -0.07229477 0.046527237 -0.00936132 0.0033193645 -0.01613934
0.017341275 -0.05838722 -0.0561728 -0.06431469 0.011839621 -0.04359254 -0.05997919 0.00053434935
-0.049727377 -0.04728736 0.039594382 0.036699027 0.00067889126 -0.0232077 0.03470024 -0.0007226909
-0.02925124 -0.017839504 -0.0009282923 -0.009530989 -0.0037676308 -0.06722825 -0.06916542 -0.014942651
0.041543294 0.004576639 -0.0281465 -0.060271658 0.028743967 -0.002738619 0.025456566 0.019727418
-0.004284767 0.04779303 -0.007230653 0.0053310054 -0.01365176 -0.06517603 -0.028627979 -0.029208943
-0.07149898 -0.03528653 0.03023317 0.0020965172 0.039496794 -0.021053469 0.048325963 0.004319222
0.0463647 -0.062163487 -0.0007203526 -0.017581021 -0.058936607 0.045462493 -0.031962205 -0.011188035
-0.063049935 0.008292935 -0.00016800033 0.024038333 -0.0009945183 -0.007918812 -0.05489097 -0.07093137
-0.0657415 -0.0012643683 -0.045581546 -0.012685013 0.0021039934 -0.033022437 0.009472616 -0.044668414
-0.0024606662 -0.022872483 -0.041716743 0.035943646 0.014496855 0.008977593 -0.074237004 0.040215496
0.0032550262 -0.031183792 -0.02211493 -0.060741328 -0.048233774 0.047209058 0.0022067348 -0.008583379

bias f4 [64]
00000000: f7ef 92bd 2ae4 c83b acb8 1d3d 0b14 153d
00000010: b06b a73c d842 a13d 789b 0fbd 832a de3c
00000020: 22a6 b0bc 0c6e 853c 7481 86bd fbed 283c
00000030: 0fad d9bb 641c f1bb f8ba 0f3c e2ca 47bd
00000040: fcb4 883d 22a7 db3b de8f 15bc 98a0 4e3d
00000050: 7b8a 023d 6ace fb3b 4014 183d c209 313c
00000060: 6e3a c23c a708 9a3d f345 b3bb 6014 12bb
00000070: a06b 2cbd de59 f5bc f3ab 7e3d 95e5 523d
00000080: ff15 e9bc 3d05 a33d 1dfb 3dbd b7b8 a73c
00000090: 21d0 103d 75a2 363d 2825 b43b b3e3 c93c
000000a0: 6ee3 e83c 40eb 753d 2506 3c3c c9fe 33bd
000000b0: a9a7 fb3c 8aea 613d 83d7 2a3c 9141 ad3d
000000c0: 0f17 fcbc 989e 18bd b232 903d d23b 913d
000000d0: 2caa 973d 146d 47bc f1e2 8b3d 5795 9e3d
000000e0: 7dbf 3c3d 5062 fabb 1746 a73d b034 3abd
000000f0: a14b 39bc 7868 15bd 1255 e23c 5ef9 39bd
-0.07174676 0.006130715 0.038506195 0.036396068 0.020437092 0.078740776 -0.035060376 0.02711988
-0.021563593 0.016287826 -0.0656766 0.010310645 -0.0066429446 -0.0073581208 0.008772604 -0.04877747
0.06675145 0.0067032734 -0.009128539 0.050446123 0.031870347 0.0076845186 0.037128687 0.010805549
0.023709502 0.075211816 -0.005470985 -0.0022289976 -0.042094827 -0.029950079 0.062175702 0.051488478
-0.028452871 0.079599835 -0.04638206 0.020473821 0.035354737 0.044588525 0.0054975934 0.024644708
0.02842876 0.060038805 0.011476074 -0.043944154 0.030719595 0.055155315 0.010427359 0.084597714
-0.030772714 -0.03726062 0.07040919 0.07091488 0.074055046 -0.012172002 0.06830395 0.07743328
0.046081055 -0.0076411143 0.081676655 -0.045460403 -0.011309535 -0.036476582 0.027628455 -0.04540383

weight f4 [32, 64]
00000000: bc79 b9bd e680 c93c 07ce a8bd 3087 a83d
00000010: a936 95bc 2b59 61bc 5fcb abbd e75e f1bd
00000020: 4f16 b63d 14af 223b d0dd 573d 5554 26bd
00000030: d371 ac3d 9e81 bb3d 073a 833b f97d 113b
00000040: a5d9 02be 3c76 8cbd a3ca ac3d 05f8 99bd
00000050: 1cd2 e9bd 4a02 b6bd de87 0cbe d051 8a3d
00000060: 0225 c0bc dc17 50bd 06e5 8b3b a3ac 9a3c
00000070: b3fc f5bd ddda b73d 543d 4b3c d91f 9dbd
00000080: 83b7 9dbd ab7a ddbd 9f65 2b3c 7116 d23d
00000090: 35a6 c63c 26ae a43d 296a 6dbd 72ef 1e3d
000000a0: 3103 11be ca87 ca3d fecc debd 2aef 8fbd
000000b0: 88ad 08bc 9365 c5bd d11d b1bd db9c 12bd
000000c0: 1d7a d8bd 00e0 63bc c331 503d 1539 aa3d
000000d0: 4f68 fdbd 6fac 053d 2ccf 7e3d eda8 50bb
000000e0: 611a 6a3d ec95 833d 7e84 f33c dd1b 53bc
000000f0: eaf6 d23d 8f10 8e3c ff04 783d 2032 5fbd
00000100: 28ba c43d d42a 973d 1fdd 8fbd 2412 1f3d
00000110: f7d3 a93d ef8f 9f3d bc6a 78bc 70fe 82bd
00000120: 64f4 d5bc aaea 703b 78f5 bdbd 40d5 3c3d
00000130: 9099 16bd 2f01 763d e588 84bd f5b7 cf3d
00000140: 2026 d03c 109d 40bd a2ce 783b 8b62 083d
00000150: 99f4 a2bd d417 ce3d 168e ec3d d8c6 5c3d
00000160: b2fe 43bd 64ac c63d c8f9 cb3d 4639 39bd
00000170: 171e cc38 4a53 7b3d 0ce4 453d 3b71 bf3d
00000180: 21c3 553d b987 493d 1eed f8bd 66f9 42bd
00000190: fde9 403d f7c6 dcbd 29bb a83d d288 89bd
000001a0: 975b eb3c 7d6d 13bd 8ac5 8fbd 0745 55bd
000001b0: e573 303e 0c9a 893d cf51 98bd 1ce9 063e
000001c0: 03b8 88bd 7371 993d 2e80 143b ca95 00bd
000001d0: d03a 903d 1ae7 95bd aee6 08be 4702 ba3c
000001e0: 6314 633d dc7f 24bc 2be6 08be 9a72 8a3d
000001f0: 69ff 9d3d 9080 103d 39bb 213d f755 fbbc
00000200: b078 0cbd 4b36 113d d154 2cbb e815 7cbd
00000210: fdfc 063e 6f47 f53c d690 99bd 7c36 c4bc
00000220: 200d d93d 8185 99bd 2837 2dbd 1dc8 273d
00000230: 3668 e63d 5f2f fbba 01df d93c d391 bd3c
00000240: b1ac fdbb 7a5e b6bd b7ca 93bc 5401 153d
00000250: 66a2 8bbb 35e5 b5bd e7a2 193d 9adc 0a3e
00000260: aa00 a6bd 4c23 f13d 0e5b 693d d60f 853d
00000270: 509f dabd a713 32bc bcda 1a3d be7d 82bd
00000280: 09f3 123d 9039 d43d be71 cbbd a721 b7bd
00000290: 919a 723d 7dd3 d43d 3d99 56bc 801b 8cbc
000002a0: 10a9 483c 5e90 183e 7dea c13d fbf6 95bd
000002b0: 4b86 bc3d 7381 db3d 75a2 bebd 4ee7 55bd
000002c0: 221f aabc a2ea a1bc b6aa e13d 75bc d93d
000002d0: 7e90 68bd 089d 183e 42da aebd 33aa 3c3d
000002e0: dece ac3c c63a 3dbb 1852 b73d f75c bb3c
000002f0: 6af1 efbd 4f1c c43c ab83 1d3d 815b 8a3c
00000300: c8aa d93a aef0 e0bc 3494 a43d 0a27 bfbd
00000310: 6b90 0d3e a4dd 003e ed5c f1ba 9d9b f83c
00000320: c3fa 2ebd d0e6 553d 964a 0e3c 3246 923b
00000330: 3aee a5bd 9d02 2cbd 4347 62bc 39cb 86bd
00000340: 5d9d 1d3d fa46 a63d a19f c1bd d936 70bd
00000350: e51d cbbc fe67 e83c f027 ed3b 317f 9f3d
00000360: 596d 483d 05e8 00bc 1fe4 44bc e859 cbbd
00000370: 4a8f eb3c f2aa 34bc 7758 603d 8f90 98bd
00000380: 5225 27bc 5831 ca3a e4ca 523d 1213 313d
00000390: fe75 c13c 3484 fa3d ee0f a53d 928c 3d3d
000003a0: d07b 0e3e 898a c83d b84d 0fbd 3341 fb3d
000003b0: 1e21 28bd 947c 82bd e493 093d d325 41bd
000003c0: 7823 fa3d 79ca 053d 4c50 80bc cb12 5e3d
000003d0: 895d 1fbd 3b02 de3d fac3 f43d f02c d23d
000003e0: 861c 1cbe 4f05 3d3d 5e15 783d b9fd ebbc
000003f0: 57b3 6e3d 6569 4d3d 83ad e9bc a42b 36bd
-0.09056422 0.024597596 -0.082424216 0.0822891 -0.01821454 -0.013754169 -0.08388399 -0.11785679
0.08890974 0.0024823593 0.05270177 -0.04060777 0.08420148 0.09155582 0.00400472 0.002220033
-0.12778337 -0.06858489 0.084370874 -0.07518009 -0.11417028 -0.08887155 -0.13723704 0.06753886
-0.023455147 -0.050804004 0.004269245 0.018881148 -0.12011089 0.08977292 0.0124047585 -0.0767209
-0.07701018 -0.10814413 0.01046124 0.102581866 0.024249176 0.08041029 -0.05796257 0.03880257
-0.14161374 0.09889181 -0.10878943 -0.07028039 -0.008342154 -0.09638514 -0.08648265 -0.03579412
-0.10570166 -0.013908386 0.050828706 0.08311669 -0.12373411 0.03263515 0.062209293 -0.003183897
0.057154063 0.0642508 0.029726263 -0.012885061 0.10301001 0.01734188 0.06055164 -0.054491162
0.09605819 0.07381216 -0.070245974 0.03883566 0.08292382 0.07791125 -0.015162166 -0.06396186
-0.026117511 0.0036760964 -0.09275335 0.04610181 -0.036767542 0.060059723 -0.06471423 0.10142509
0.025408804 -0.047024786 0.003796496 0.033297103 -0.079568096 0.100631386 0.11550538 0.05390057
-0.04785032 0.0970085 0.09959751 -0.045220636 9.733083e-05 0.061358728 0.048313186 0.09347769
0.052188043 0.0492017 -0.121546015 -0.047601126 0.04709815 -0.10780137 0.08238823 -0.067155495
0.028730197 -0.035993088 -0.070200995 -0.052067783 0.1723171 0.06718835 -0.07437479 0.13174862
-0.066757225 0.07492342 0.002265941 -0.03139285 0.070424676 -0.0731947 -0.13369247 0.022706164
0.055439364 -0.01004025 -0.13369052 0.0676014 0.07714731 0.035278857 0.03948519 -0.03068064
-0.034294784 0.03545217 -0.0026295672 -0.06154433 0.13182445 0.029941289 -0.074983284 -0.023951761
0.105982065 -0.07496167 -0.04228893 0.040962327 0.112503454 -0.0019163898 0.026595594 0.023140823
-0.0077415337 -0.08904739 -0.018040998 0.03637822 -0.0042613028 -0.088816084 0.03750887 0.13560715
-0.081055954 0.117743105 0.056971602 0.06497161 -0.10674918 -0.010868943 0.037806258 -0.0637164
0.035876308 0.10362542 -0.09933804 -0.089419656 0.059229437 0.10391901 -0.013098058 -0.017102957
0.012247339 0.14898822 0.09468553 -0.073224984 0.09205302 0.1071805 -0.0930833 -0.052222542
-0.020766798 -0.019765202 0.11018889 0.106316485 -0.056778423 0.14903653 -0.08537723 0.046060752
0.021094736 -0.0028874143 0.08951205 0.022871478 -0.11715968 0.02393928 0.038455646 0.016889336
0.0016606683 -0.027458515 0.0803608 -0.09333618 0.13824622 0.12584549 -0.0018414535 0.03034764
-0.042719614 0.052222073 0.008684775 0.0044639343 -0.08102079 -0.04199468 -0.013810935 -0.065817304
0.03848015 0.081190065 -0.09454275 -0.058646057 -0.024794528 0.0283699 0.007237427 0.07787932
0.048932407 -0.007867818 -0.012017279 -0.09929258 0.028754849 -0.011027085 0.054771867 -0.07449447
-0.010201769 0.0015426083 0.051463023 0.043231077 0.023615833 0.12232247 0.08059679 0.046276636
0.13914418 0.097920485 -0.034986228 0.12268295 -0.041047208 -0.06371418 0.033588305 -0.047155213
0.122137964 0.032663796 -0.015663289 0.05421714 -0.03890756 0.10840269 0.11951442 0.102624774
-0.15245256 0.04614764 0.060567252 -0.028807508 0.0582765 0.05014934 -0.02852512 -0.044475213

bias f4 [32]
00000000: 660f a8bd 8118 713c 12c0 203c 151f a53d
00000010: 6583 e0bd 4c38 b33b 247e 82bc a78d 20bd
00000020: d6b0 0d3e 20dd d4bd 895a 04be b0bb 8d3d
00000030: 64fc 643d 3e57 07be 40f2 79bd 4192 d0bb
00000040: 2f88 e73d ea67 0837 2016 d5bd a98d d13d
00000050: b1ce 7e3d 54eb e43c 4539 babd 11c3 dc3b
00000060: 0109 8c3c afed 74bd 098f 9abd 31d1 a93d
00000070: 12a1 a8ba a253 a43d 1338 b23d 5edd a3bd
-0.08206062 0.014715315 0.009811418 0.08062569 -0.109625615 0.0054693576 -0.01592929 -0.03919759
0.13836989 -0.10393739 -0.12925161 0.06920564 0.05590476 -0.13216874 -0.061022043 -0.006365091
0.11305272 8.130426e-06 -0.10404611 0.10232098 0.062208835 0.027944244 -0.090929545 0.006737121
0.017094137 -0.059796985 -0.07546813 0.08291853 -0.0012865386 0.08023764 0.087021016 -0.08001207

weight f4 [8, 32]
00000000: 4634 c53b 2aac 883d 8bc8 243e 9c19 f8bc
00000010: 7d11 8fbc 9596 403d d728 9dbd 3859 213e
00000020: 310d 0f3e b0c5 c63c 5342 203e 2b64 693d
00000030: c98b 95bd 3723 88bd 4723 a7bd 37d0 ff3d
00000040: 032f 033e a766 963c e96a 0b3e e069 ffbd
00000050: 7bb4 04be 4c50 5bbd 4c28 1a3d 4adc ed3b
00000060: 85d8 bebd adcd d9bd 62b8 183e 7d35 b63d
00000070: 5403 2d3d 6ce7 653d 6fb5 ccbc 0af9 4abd
00000080: 4ecf 603b c129 c9bd b960 c03d 2496 dc3d
00000090: 5c63 053e adc1 9f3d 1ad3 11be c595 d3ba
000000a0: 14c1 95bd 85b3 793c bbd1 df3c 5f2e 1dbe
000000b0: 7b20 bdbd 379d 16bc 5dfe 4c3c 858b aabd
000000c0: 08a4 003e 69dc 333b 8217 3fbd 2678 603d
000000d0: 23a5 74bc cefa fcbd ebb4 b23b f07f d13d
000000e0: e0ed 72bc fc11 8bbc a70b fdbd 31ff b13a
000000f0: b12c 603d 1d69 97bc 1d3a a13c e771 f63a
00000100: 4d25 cbbd ae28 5ebd 0b10 123e 564f a93d
00000110: b82d 3dbd 6dcb 0f3d 45a2 8fbd a240 a23d
00000120: 6fee 923c d799 c63d d5c4 ec3d 4fad 8cbc
00000130: 3be9 07be b5d0 993c 09cd 1f3e 8bad 32be
00000140: 0a4e f63a 74e6 50bd 2a00 0cbe 2745 a6bd
00000150: 2d77 bfbd 1423 2ebe 0112 ed3d 91f6 fd3d
00000160: 1bf2 41be c213 c4bc 881a 40be b151 ec3d
00000170: eb3c b5bd ec3f a23d 8b1a ec3d 2c5d 91bd
00000180: 7b60 a03d b092 2abe c95f 133e a180 cb3d
00000190: c125 b7bd cbb4 3f3c c757 c93d 0dad 5c3c
000001a0: e53c 71bc 4108 43ba e044 92bd 6ea3 1b3e
000001b0: 6492 d6bc ddee dcbd 613d 06bc 2ced f4bd
000001c0: cc26 243d 410e d8bc e082 463d 3ca4 a4bd
000001d0: 701c 213e 8493 c0bb 2ebc 0e3d 1e91 433e
000001e0: b9dc e7bd ee92 8abd ecbf ebbc 7855 de3d
000001f0: 9ea9 d23a 3f3d 363e db60 1bbe 2754 3cbd
00000200: 6716 81bd 3642 c8bd 44c8 483e 0c10 fd3d
00000210: db34 803d 9f1c 383d e699 8f3d 3351 2e3d
00000220: c7f6 1b3e 84cb 17be b75e 03be 01ac 233e
00000230: 2754 ff3c 9666 90bc ebda 0f3e 47d1 ccbb
00000240: 7f0b 433e adfb e93c e23c 403d b466 2c3d
00000250: b445 edbd 2bd0 303e cbbc 493e a8ee 8d3d
00000260: c79e ea3d d06d 3fbd 4c16 cfbc ef5c 0c3d
00000270: 42eb 88bd 9f8a 263c 3173 203d fbeb 21be
00000280: 49b9 bcbc b6b1 2fbd 8bce 213e 96a7 d0bd
00000290: 94c7 3fbe e8d7 63bd 4f08 993d 1f9a aabd
000002a0: f8e2 a3bd 2443 cebd 3392 043c f20f 173d
000002b0: fa08 933d 21a0 313e a7dd 80bd 63c4 f43d
000002c0: a533 34bd cc5a 7a3b 69d2 ab3d f0e9 adbd
000002d0: eece 2cbe 28e3 af3c c3ce 8ebb 29e8 2dbe
000002e0: 90bd aa38 a118 ee3d 8850 f33a 3154 d23d
000002f0: c70f a1bc ee23 2ebe 7582 9ebd e83d 133c
00000300: b426 ffbd 91c9 21be e9ff a5bd 6452 4b3b
00000310: 174a 1c3d 040a ed39 6ac8 02be cc8f 6cbb
00000320: f015 933d 5308 813d 2d49 d1ba ea5e 3cbe
00000330: da55 0d3e 78e6 1a3e a241 97bb 9727 d53b
00000340: 9340 c33d 8ad6 a4bc adf5 143e c1dd 9e3d
00000350: edc4 a73c f73d 39be 2ba5 173e 7fcc b5bd
00000360: 1f9e b9bd d17b 9c3b 56c1 3dbe 49f6 3bbe
00000370: c309 0f3b f4ec a63d 8975 833c 1c34 173e
00000380: 67e5 f2bd c13c c3bd 934e bcbd fd0b a73d
00000390: 917a 66bd edf9 2cbe ae50 94bd f82e a13c
000003a0: fd58 d3bd ad95 123e 6ada bf3d b91a 48bb
000003b0: 2033 2a3e d4e1 cb3b 3a2b 273d d1a3 04bd
000003c0: 879c 82bd 6080 b63d 9147 22bd 7e0c 55bd
000003d0: ab64 15be 9185 aebd 0c61 073e e10d 003c
000003e0: af9b febc 35b8 cebb 2ecc 723d e7f0 5b3c
000003f0: 2671 7d3c f8d5 0a3e 491c 233e aaa1 093e
0.0060181944 0.06673463 0.16092126 -0.030285649 -0.017464394 0.047018606 -0.07673805 0.1575669
0.13969876 0.024264187 0.156503 0.056980293 -0.073020525 -0.06647342 -0.081610255 0.12490886
0.12810902 0.018359495 0.13615002 -0.12471366 -0.12959473 -0.053543374 0.037636086 0.0072589265
-0.093186416 -0.10634933 0.14914086 0.08896921 0.042239502 0.056128904 -0.024988858 -0.04955391
0.003430325 -0.09822417 0.093934484 0.107708246 0.13026184 0.078006126 -0.14240685 -0.0016142657
-0.07312217 0.015240555 0.027321687 -0.1534972 -0.09234711 -0.009192756 0.012511817 -0.083273925
0.12562573 0.0027444607 -0.04665328 0.054802082 -0.01493195 -0.12352525 0.005453696 0.1022948
-0.014827222 -0.016976349 -0.12355738 0.0013580081 0.05473012 -0.01848274 0.01968103 0.0018802256
-0.09919224 -0.054238014 0.14263932 0.08267085 -0.04618618 0.03510611 -0.07013372 0.07922484
0.01793596 0.09697311 0.1156098 -0.017172484 -0.13272564 0.018776277 0.15605558 -0.17449014
0.0018791568 -0.051001027 -0.13671938 -0.081186585 -0.09348903 -0.17005569 0.115756996 0.124005444
-0.18940012 -0.023935203 -0.18760121 0.11539019 -0.0884951 0.079223484 0.115285 -0.07097849
0.07830902 -0.1665752 0.14392008 0.099366434 -0.08942748 0.011700819 0.09831195 0.013468993
-0.014723991 -0.00074398896 -0.07142043 0.15199062 -0.026192851 -0.10787747 -0.008193345 -0.119592994
0.040076062 -0.026373984 0.048464656 -0.08039138 0.15733504 -0.0058769602 0.03484743 0.19098327
-0.113213964 -0.06766306 -0.028778039 0.108561456 0.0016072278 0.17796801 -0.15173666 -0.04597869
-0.06303101 -0.09778254 0.19607645 0.12356576 0.062600814 0.04494917 0.07011776 0.042557906
0.15230857 -0.14823729 -0.128291 0.15983583 0.031168057 -0.017627042 0.14048354 -0.0062505337
0.19047354 0.028562391 0.046933062 0.042090133 -0.115855604 0.1726691 0.19700925 0.06930286
0.114560656 -0.046735585 -0.025279187 0.034268316 -0.06685497 0.010164886 0.039172355 -0.15812676
-0.02303757 -0.042894088 0.15801446 -0.101882145 -0.18728477 -0.055625826 0.07472288 -0.083301775
-0.08002275 -0.100714 0.008091497 0.03688044 0.071794465 0.1734624 -0.06292277 0.1195152
-0.043994565 0.0038201092 0.08389742 -0.08491886 -0.16875812 0.021470621 -0.004358144 -0.16983093
8.1415405e-05 0.11625791 0.0018563429 0.102699645 -0.019660844 -0.17005894 -0.077397265 0.008986928
-0.12458554 -0.15799548 -0.081054516 0.003102445 0.038156595 0.00045211625 -0.12771764 -0.0036096452
0.071819186 0.06300416 -0.0015967243 -0.18395582 0.13802281 0.1512698 -0.0046159783 0.0065049636
0.09533801 -0.020121831 0.14546843 0.0775714 0.020479644 -0.18090044 0.148091 -0.08876895
-0.09063362 0.0047755023 -0.18530783 -0.18355669 0.0021825887 0.08150664 0.016047256 0.14765972
-0.11860161 -0.09533072 -0.09194674 0.081565835 -0.056269232 -0.16892214 -0.07241951 0.019675717
-0.103197075 0.1431491 0.09367831 -0.0030533506 0.16621065 0.006221989 0.04081271 -0.03238279
-0.063775115 0.08911204 -0.039619032 -0.052013867 -0.14589183 -0.085215695 0.13220614 0.007815809
-0.031080095 -0.0063085803 0.059276752 0.013424135 0.015468871 0.13558185 0.15928759 0.13440576

bias f4 [8]
00000000: e7a2 043a 28f5 1c3e 6c46 f9bb 9ccb 99bd
00000010: bb67 943d 11a0 0b3d d8d0 90bd 34b5 23be
0.0005059675 0.15327895 -0.007607272 -0.075095385 0.072463475 0.034088198 -0.07071084 -0.15987092

weight f4 [1, 8]
00000000: 4a3e 82be b7d0 5ebe bda9 703d 183f 5cbe
00000010: 42a4 a2be d172 aa3e baa8 003e 3d14 4fbe
-0.25438148 -0.21759306 0.058755625 -0.21508443 -0.31765944 0.33290723 0.12564364 -0.20222564

weight f4 [8, 1]
00000000: 8220 ce3e 9c07 77bf 2182 e43e 2eb5 133d
00000010: c9d6 a6be 8aff f0bd 20de 473f b75c 463f
0.40259176 -0.96495986 0.4463053 0.03606146 -0.32585743 -0.1176749 0.7807331 0.7748522

bias f4 [8]
00000000: f54c 413f 8860 8b3e 4b38 69bf ba6f c3bd
00000010: b963 bfbd d739 5bbe b679 a9bb 35fe 4c3d
0.7550805 0.27222085 -0.9110152 -0.095427945 -0.093451925 -0.21408783 -0.00517198 0.05004712

weight f4 [32, 8]
00000000: 456b 323e 8361 ee3d 7e9c 693e a72b 1ebe
00000010: a676 b3be 5ce7 90be 3d1f 29be 9896 9cbd
00000020: e0cc 843e 2090 9f3e 015c 69be 13f4 f73a
00000030: 07e4 06be cfb3 9c3e 83bc d1bc 3fe7 98be
00000040: b1be a33e f724 8d3e 1c48 69be 05ae 2c3b
00000050: 6ae4 60be cbbf 933e f881 7b3e 6c56 873e
00000060: 4fb5 72be b5c5 5d3e a94f 4d3b 1380 8a3e
00000070: 6676 24be 777a a23e 81be 55be d952 2b3d
00000080: 4de0 bbbd ae55 98be a629 e83d 4e3f 743d
00000090: a09a 85bc ec10 893e 1624 4cbe 7ca7 06bc
000000a0: 2ee3 fdbd 4fa5 a33e 40eb 66be 688a 3f3e
000000b0: 4a5c ddbd 33bc 64bc 3903 99be dd11 7d3e
000000c0: c0c8 94bb c6b5 6dbe 155c fc3d 9f28 40be
000000d0: 829a 4ebe 0311 ef3d 4e00 fbba 7c39 17be
000000e0: f3a4 f3bd a995 acbd 7d0e 8fbd 95f7 a6bd
000000f0: faf2 0f3e 1d7c 8a3e dca0 9abb 9088 213d
00000100: b208 1e3e 5896 f5bc 76b0 dc3d e42e 883e
00000110: 1054 97be 7c64 8db9 67bf 94be 13e8 bfbd
00000120: 0557 edbb fb6a a2bd 2068 19be 0484 6cbe
00000130: 32da 6e3d 1298 22b8 c00f bfb5 2da4 8b3c
00000140: da5c 043e 5289 6cba dd72 e33a 885b f23d
00000150: 0fb5 b33c 20c7 85be 1561 ce3d e69d 403e
00000160: ef64 b53d 6ccd 95bc 43a4 143e f636 533d
00000170: 3403 f939 1cdd 6d3e b809 973d b32f ff3d
00000180: 12f1 c23d 2a0a dabd da69 23bd 833e 1f3e
00000190: 237d 993e 9bcd 983e 6818 abbd da8f 72be
000001a0: 796f 35bd d2fe 79be 7a84 77be 69d8 813d
000001b0: 98f9 763e d389 703b 5a52 d93d 87eb 5a3d
000001c0: e9b4 243e be4a 8dbe b59e ce3a 6711 18bd
000001d0: 9fe7 d8bd 5600 23be f2e8 36be f339 913e
000001e0: b1f9 b73e df44 23be 9c89 09be 9db4 553c
000001f0: f905 143e e0ef 613d ec5d b43d 67e6 9bbd
00000200: 86ba f9bd e867 72be c2e2 81be 970e 653d
00000210: 7b22 b5be 3c9b 8cbd 4959 4b3e d4d6 8c3c
00000220: a433 093e f54a 263c e319 f63a 0518 1cbd
00000230: 6d05 a4be e249 9b3d 1ffc 48be 562c a5bd
00000240: 8e01 adbd d4cb fe3d 2de9 1f3d 3e5f 50be
00000250: d0ec ab3d e3fc f7bc 8739 dbbd cb0c 073e
00000260: 5652 0b3e 06be a83e fd95 99bb 3ac3 35bd
00000270: 9490 1c3d 0a6d ffbd 763a d43d fd3b a9be
00000280: 06b9 8d3e 064c 953d fcfd c4bd 64b9 07ba
00000290: f76c 5abd 498e 2d3e f1e4 b2bd c1bf 53be
000002a0: 5d4d 5f3d cc37 b63d 25cf 733d a79d f3bd
000002b0: d7a4 8fbe e7bb 8b3e 8378 14be 8a4d e2b8
000002c0: 2229 a13d d1d0 473e a566 03bd 4c45 51be
000002d0: 11ea 523d d5fb 5dbd 1892 803e 7c24 0d3e
000002e0: 3864 05bd 9016 2abd 0431 1a3b b893 c33d
000002f0: 6fb1 163e c233 a83b 4f1a 413a 715f 0cbd
00000300: ec93 423e a94e 183e ed05 663d 6b0f aa3d
00000310: a4fd 023e 1286 4abe 8a51 513d 605c 7f3b
00000320: 8968 2ebd 450d 1e3e 2dad eb39 c802 5ebe
00000330: 5b9b d93b ab62 8d3e bcc0 523e eee3 0c3d
00000340: c30a b0bd 4543 3c3d cd67 d23c 872e 2ebe
00000350: c2b4 77bd 5bf9 303e b18e 853e 0fde 3ebe
00000360: c6fa a93d 5e90 9dbe 0495 b1bd 4190 1d3e
00000370: a058 633e 455d 8c3e b7d6 3abd 755b a0bd
00000380: 5683 4cbe b3de 993e a1ce 69be a81c 31be
00000390: de96 a73d 9a7e a33e 9fd2 e0bc e095 913e
000003a0: 201c 4e3d 8b76 a23e 59cb 38bc a2cb 823d
000003b0: d1ea e93d acc5 2e3e e10d 603e ec90 1e3e
000003c0: afe7 663e 71a6 283b 73d5 583d d9a5 0b3d
000003d0: 2147 59be ecfe 33be 7707 bfbc 6765 743e
000003e0: c900 75be aafa 863e be03 bb3b 69fe a0bd
000003f0: d28f b23d 15ad fb3d 05ec 4b3b ffd8 8ebd
0.17423733 0.11639693 0.22813603 -0.1544634 -0.3505146 -0.28301513 -0.16515823 -0.07645911
0.25937557 0.31164646 -0.22789003 0.0018917344 -0.13172923 0.30605933 -0.025602585 -0.29863927
0.31981423 0.27567264 -0.22781414 0.002634884 -0.21962133 0.28857264 0.24561298 0.26433122
-0.23701976 0.2165745 0.0031327999 0.27050838 -0.1606079 0.31734058 -0.20873453 0.041827057
-0.09173641 -0.29752868 0.11336069 0.059630685 -0.016309083 0.26770723 -0.1993564 -0.008218642
-0.12396847 0.31962058 -0.22550678 0.18705142 -0.10808618 -0.013960886 -0.2988527 0.24713846
-0.004540533 -0.23213872 0.12322251 -0.18765496 -0.20176128 0.116731666 -0.0019149871 -0.14768022
-0.11896696 -0.08426983 -0.06985185 -0.08152691 0.14057532 0.27047816 -0.004718883 0.039436877
0.15433004 -0.029978916 0.10775845 0.26598275 -0.29556322 -0.00026968482 -0.29052278 -0.093704365
-0.0072430396 -0.07930561 -0.14981127 -0.23097235 0.058313556 -3.8765436e-05 -1.4235193e-06 0.017046059
0.12926045 -0.0009023148 0.0017352958 0.118338645 0.021936921 -0.26128483 0.10077111 0.18810233
0.08857142 -0.01828643 0.14515786 0.051566087 0.00047495367 0.23228878 0.073749006 0.1246027
0.09518637 -0.1064647 -0.03989587 0.1555119 0.29978284 0.29844365 -0.083542645 -0.23687688
-0.04429576 -0.24413612 -0.2417163 0.06340105 0.2411865 0.0036703243 0.106114104 0.053447273
0.16084637 -0.27596086 0.0015763851 -0.03712597 -0.10591053 -0.15918097 -0.17862299 0.28364524
0.35932687 -0.15944241 -0.134314 0.01304355 0.14455403 0.055160403 0.08806977 -0.07612305
-0.1219378 -0.2367245 -0.25368315 0.055922117 -0.3537787 -0.06865546 0.19858278 0.017192282
0.13398606 0.010149707 0.0018776025 -0.038108844 -0.3203539 0.075824514 -0.19627427 -0.08065097
-0.08447562 0.12441221 0.039040733 -0.20348832 0.08394778 -0.030271953 -0.10704332 0.13188474
0.13605627 0.32957476 -0.0046870694 -0.044375636 0.038223818 -0.124719694 0.10362713 -0.3305358
0.27680224 0.07289891 -0.09618756 -0.00051774667 -0.053326573 0.16948809 -0.08735073 -0.20678617
0.05451714 0.08897361 0.05952372 -0.11895304 -0.2805545 0.27291796 -0.14499097 -0.000107909626
0.078691736 0.19513251 -0.03208031 -0.20436591 0.051492754 -0.054195244 0.2511146 0.13783449
-0.03256628 -0.041525424 0.002352775 0.095496595 0.14716123 0.005133123 0.0007366286 -0.034270708
0.1900174 0.14873756 0.056157995 0.08303722 0.12792069 -0.19777706 0.051103152 0.0038964972
-0.04258016 0.1543475 0.0004495172 -0.21680748 0.0066408343 0.2761434 0.20581335 0.03439706
-0.08595803 0.04596259 0.025684262 -0.17009936 -0.06047512 0.17282622 0.26085427 -0.18639396
0.08299784 -0.30774206 -0.086710006 0.1538706 0.22201777 0.2741491 -0.045614924 -0.07829944
-0.19971976 0.3005272 -0.22832729 -0.17296088 0.081830725 0.31932527 -0.027444182 0.28434658
0.05031979 0.31731066 -0.011278951 0.06386496 0.11421741 0.17067593 0.21880294 0.15484971
0.22549318 0.0025733972 0.052937936 0.03409371 -0.2121854 -0.17577714 -0.02331899 0.23866807
-0.23926081 0.26363117 0.005707233 -0.07861025 0.08718838 0.12288872 0.003111602 -0.069749825

bias f4 [32]
00000000: 171a b53d 7b96 143e a120 5e3c 4765 b73e
00000010: 6354 783e 540c c13e 93b3 92bb 14a1 79be
00000020: 9c53 553d ca51 65be 2e57 65be c0cc a2be
00000030: af4e 643e 44f2 3938 4023 173e 256f a33d
00000040: 9c6b 823e caeb 373e 814e 2e3d fbd2 d8bc
00000050: 5da0 373e 45e3 1abe 9550 b63e d3b5 0bbe
00000060: 2836 a6be 783d 9cbd 932f 3b3e b537 7c3e
00000070: 8583 9b3e b4a0 053d 3e6b 81be 072d 04be
0.08842867 0.14510529 0.013557584 0.35819456 0.24250941 0.37704718 -0.0044769733 -0.24377853
0.05208169 -0.22394481 -0.22396538 -0.31796837 0.2229564 4.4333065e-05 0.1475954 0.079801835
0.25472724 0.1796104 0.042555336 -0.02646779 0.17932267 -0.15125759 0.35608354 -0.13643579
-0.32463193 -0.07628912 0.18279867 0.24630626 0.3037378 0.03262396 -0.25277132 -0.12907802

weight f4 [64, 32]
00000000: 6044 c7bd ac9b 9cbb a3c0 a5bd f12d 8a3b
00000010: 843c b4bd 9798 943c 1d61 203d 6e25 aebc
00000020: 3c9f 19bb fc45 91bd f9ca abba b3f2 763b
00000030: 6eb7 7ab9 eb1b 8e3d 55e1 1c3d 9ece 6a3a
00000040: 6461 0fbd a079 68ba 8cf8 c8ba 2676 d1ba
00000050: db83 053d 1e39 5b3a 9001 8b3b 82dd 613d
00000060: 25f6 51bc 5568 8dbb 4750 bfbd 77c0 993b
00000070: 7d39 b0bd f4ef d7b7 8387 633d d6eb c0bc
00000080: 4822 3e3e 6f49 e23d 81ec a53d 1f14 b23d
00000090: 2fff 5e3d 13ff 2e3e 5e98 c03d c6fb c7bb
000000a0: e209 b73d 3220 ff3b 536b a23c a487 d0bd
000000b0: 5cb4 d83d 1542 cebd 8d60 503d bbb1 393e
000000c0: 5d03 87bd 12b9 10bd 604a 033e 197e c13d
000000d0: 3f8a 0ebe 6d21 1c3e 0864 503e c085 f1bd
000000e0: 968c 423e d57c a83d 2fc2 dbbd 1127 3d3b
000000f0: 4924 0b3e 81c9 b03d dfb5 6dbd 0b2a 993d
00000100: 4ced 113e 71b8 853d 8f2c a43d e61c 343d
00000110: db7f c33d 8698 94bd c770 9d3a e004 b33d
00000120: 3c8c 133d 29d3 4cbb 0931 943c ceb7 b1bd
00000130: eb66 5d3d e8be 0cbd 5700 113e 5d4f 213d
00000140: dfbd 203c 302c 38be d258 12bc 048e d3bd
00000150: 1f8e 13be c9db c8bd 22f9 d23d 9734 793c
00000160: 116d f53d 21a0 1c3e 4b61 26be a1bd c9bc
00000170: d472 eb3d 54ab a43d 553e 8cbb 6ddb c73d
00000180: b7b4 4c3d 4cde 093e 25c9 133e fb9f 443e
00000190: a5ea ab3d 3d59 bbbd 30e4 89b9 d739 903d
000001a0: 2041 413e a9e0 64bd a03e 2aba 0dc2 213e
000001b0: d1fe a03d aec9 0a3a c840 083d 42cf 393e
000001c0: 5718 eb3d 3862 b33b ac6f 493d 299b 373e
000001d0: 7702 f8bc 71bb b8bd 8b45 4fbd 6835 9e3b
000001e0: a84e 053e 3e53 fdbd b78a 01be c6b6 453e
000001f0: 8aa6 d9bd 2583 16be ac2f a6bd 7cbe b8bd
00000200: 4db9 dabd a4d4 e1bc ffa5 b2bd 46ef 253e
00000210: d25d c5bd efa3 14be 387e 953d a853 cdbb
00000220: 7dbb 9bbd eec5 dbba 33f9 25bd 8b73 c23c
00000230: 7c4a dc3d 5ea2 e63a 710f c1ba ddab e33c
00000240: 1150 103b 9c8d 43bc eed2 9f3c 9d53 9a3c
00000250: fa6b e0bd 1392 b3bd 5b48 37bd 6b7d ef3d
00000260: 6c10 0bbc b561 1bbc 3fe2 ec3d cae8 18ba
00000270: b334 fb3d 79b9 d13c 45a7 1abd 5766 403e
00000280: c754 aa3d ba86 a13c 9d16 723d bb36 143e
00000290: c724 f3bd f5e4 b03b 63d1 163d 6911 31bb
000002a0: 64ca 9bbd 1169 e03b aff0 5ebb a93e e33c
000002b0: 01dc a23d 12ed 2e3d 638d 1c3d eeb8 a23d
000002c0: 76f7 c6bb e29e 18be 102d 123d 7869 31be
000002d0: aa62 dc3d 699c 103d 5af3 f33d 2ed8 9ebd
000002e0: e966 a23d 5ac0 623d 0cf6 f2bc e636 1bbc
000002f0: bff4 ad3c ad6f 24be 03a1 1d3a 0fe9 dfbd
00000300: f5cf 8b3d 3b41 04be f530 0d3e 4a4e 103e
00000310: 1b3e a0bc 630f b5bd caf9 4839 d81b bc3d
00000320: 4b6e 94bd 256d 423b 50bf 0ebd af25 e7bd
00000330: 7094 363d 166b 95bb fc9a 8d3d 4a32 743d
00000340: 4b61 12bd bf2c a63d b41a 403e fd70 7bbd
00000350: ecb9 0e3d d15f 09bd 391c 3d3e b956 ce3b
00000360: a97e 983d b5e5 c4bb 6d38 363e 1814 04be
00000370: ac26 303e f9bc 3e3e 07e7 cfbd c6c0 cdbd
00000380: 44c5 9c3d ef66 39be 3ca7 2fbe 94c2 16be
00000390: ba16 4f3d 77bb a0bc ee45 f339 0514 cd3a
000003a0: 7752 37bd 9d85 4abb 5f06 fdb9 482b 82bd
000003b0: 539a acbd 6c30 203d ee35 0c3d aee2 8b3b
000003c0: 565f a5ba 1c1b 2abb 71d1 053e 3ac4 a63d
000003d0: deda 22bb 53fa 47bc 4bb5 01be da96 95bd
000003e0: 8b3a 1c3e 6712 0e3e b59b 25bd d89a c23d
000003f0: 6d2f a13c b413 87bd 0a0e c83a fbd4 e33d
-0.09729838 -0.0047792997 -0.08093383 0.0042169024 -0.08800605 0.018139167 0.039155114 -0.021258082
-0.0023440858 -0.070934266 -0.0013106755 0.003768128 -0.00023910191 0.06938919 0.03830083 0.000895718
-0.03500499 -0.0008868221 -0.0015332862 -0.0015980646 0.03259645 0.0008362698 0.0042421296 0.055142887
-0.012815033 -0.004315416 -0.093414836 0.004692133 -0.08604715 -2.5741734e-05 0.055549156 -0.023549955
0.18567765 0.110491626 0.0810175 0.08695244 0.05444258 0.1708949 0.09404062 -0.006103012
0.08937432 0.0077858204 0.019826567 -0.101821214 0.10581276 -0.10071198 0.050873328 0.18134205
-0.06592438 -0.035332747 0.1282134 0.09447879 -0.13919924 0.15247126 0.20350659 -0.11793089
0.18998942 0.08226935 -0.10730397 0.0028862397 0.1358806 0.08632184 -0.058034774 0.07478722
0.14250678 0.0652932 0.080163114 0.043972872 0.09545871 -0.07255654 0.001201176 0.08741164
0.03602241 -0.003125379 0.018089788 -0.08677636 0.05405323 -0.03436175 0.14160286 0.039382327
0.009810894 -0.17985606 -0.008932309 -0.10329822 -0.14409684 -0.09807546 0.103014246 0.015210292
0.119836934 0.1529546 -0.16248052 -0.024626555 0.11496511 0.08040491 -0.0042798915 0.09758649
0.04997703 0.13463706 0.144322 0.19201653 0.08394364 -0.0914788 -0.0002630069 0.07042282
0.188725 -0.055878315 -0.0006494317 0.15796681 0.07861102 0.0005294335 0.033264905 0.18145469
0.11479252 0.005474355 0.049178764 0.17930283 -0.030274613 -0.090201266 -0.05060343 0.004828144
0.13018286 -0.12369393 -0.12650572 0.19308004 -0.10627468 -0.14698465 -0.081145614 -0.09020707
-0.106798746 -0.027567215 -0.087230675 0.16204557 -0.096370354 -0.1451566 0.07299465 -0.006266076
-0.0760412 -0.0016767362 -0.040520858 0.023736736 0.10756394 0.0017595997 -0.0014729333 0.027791912
0.002202038 -0.011935618 0.019509759 0.018838698 -0.10958095 -0.08768096 -0.044746738 0.116938435
-0.008487802 -0.009483744 0.115665905 -0.0005833028 0.12265911 0.025601136 -0.037757177 0.1878904
0.08316951 0.019717563 0.059103597 0.14474003 -0.11872249 0.0053983876 0.03682078 -0.0027018434
-0.07606962 0.0068484624 -0.003401797 0.02773984 0.07952119 0.042706557 0.038220774 0.07945429
-0.00607198 -0.14904359 0.035687506 -0.1732539 0.10761006 0.035305414 0.1191165 -0.07756077
0.07929785 0.055359222 -0.02965834 -0.009473538 0.021234868 -0.16058226 0.00060130673 -0.10933124
0.06826774 -0.12915508 0.13788207 0.14092365 -0.019560864 -0.088408254 0.0001916654 0.09184998
-0.07247599 0.0029667106 -0.03485042 -0.112864845 0.044575155 -0.004559885 0.069143265 0.059618272
-0.035737317 0.081140034 0.18760186 -0.06138705 0.034845278 -0.033538643 0.18467797 0.0062969592
0.074460335 -0.0060088285 0.17794962 -0.1289829 0.17202252 0.18626775 -0.10151487 -0.10046534
0.07654813 -0.18105672 -0.17153639 -0.14722663 0.050558783 -0.01962064 0.00046400673 0.0015646225
-0.04475638 -0.0030902394 -0.00048260667 -0.063559115 -0.084278725 0.03910868 0.03423112 0.0042689657
-0.0012616913 -0.00259561 0.13068177 0.08142896 -0.0024849693 -0.012205678 -0.12666814 -0.07304163
0.15256707 0.13874207 -0.040431697 0.0950219 0.019675935 -0.06595555 0.0015262973 0.11124607

bias f4 [64]
00000000: bdab ffbc c1a7 0fbd 1bd4 0bbe 6463 453e
00000010: e78d a93c e811 3fbc 489a d6bd 9c80 8d3d
00000020: bedd 303e d926 243e 9696 c13d d2d4 9fbd
00000030: 589e 4b3b 1516 203e 7412 80bc 23ff a5bc
00000040: 62c4 383d a360 87bd 930f 1bbe 7f06 ce3c
00000050: 2f6a 9b3d be26 923d 8de8 103e 1907 393e
00000060: 30af d9bd a36c 9cbb 4e68 a93a cf7c 2d3e
00000070: 1bfa 26ba 302f f73d d881 a03c 19c9 0fba
00000080: a8de 73bd c124 1cbe ec94 2e3c 31d8 eebc
00000090: 5d85 bf3d 4db7 0bbe 4c8e 123d 7884 0cbe
000000a0: e838 6ebd e1d5 1a3e c13b 88bc a0ed c7bd
000000b0: 294d 3fbd 6aa4 23bd 5672 1dbe 50b0 813b
000000c0: 068d da3d b76e 92bd be10 c2bd e996 dcbd
000000d0: c83c afbd 36b0 b43d e11f f33b c7e8 343e
000000e0: 0455 15bd c8df 15bd 8741 29be 2537 5dbd
000000f0: e1dd 1bbd 0b54 6bbd d4f2 123e 110d ebbd
-0.03120982 -0.035072092 -0.1365513 0.19276196 0.020697547 -0.011661984 -0.104786456 0.06909296
0.17272088 0.16030444 0.0945255 -0.07804264 0.0031069722 0.15633424 -0.0156338 -0.02026326
0.04510916 -0.06610229 -0.1514266 0.025149582 0.07588612 0.07136296 0.14151211 0.18069114
-0.106291175 -0.0047736927 0.0012924762 0.16942142 -0.0006369666 0.12069547 0.019593164 -0.0005484983
-0.059538513 -0.15248396 0.010655623 -0.029155822 0.09351609 -0.13644142 0.035780236 -0.13722408
-0.05815974 0.15120651 -0.016630055 -0.0976212 -0.046704445 -0.03995172 -0.15375647 0.0039577857
0.10671429 -0.071500234 -0.094758496 -0.10770971 -0.08556515 0.08822672 0.0074195717 0.17666923
-0.03645803 -0.036590368 -0.16528903 -0.054007668 -0.038053397 -0.057453196 0.14350444 -0.114771016
