model/042.128997802734375.pt (torch_old, 170435 bytes, 20 tensors)

weight f4 [256, 3]
000000 9a 64 85 be fc e5 e1 be 06 82 cb be cf 60 be 3d
       -0.26053315 -0.44120777 -0.39747638 0.092958085
000010 dd df 7e be 98 13 18 be af 3c 7c bd 9c 20 4b bd
       -0.24890085 -0.14851224 -0.06158131 -0.049591646
000020 f2 44 0a be 8e 97 90 be 93 b6 9e 3e a0 42 0e 3f
       -0.13502863 -0.28240627 0.30998668 0.5557041
000030 ef 34 ad 3e d4 4a 72 be 15 26 b6 3d 46 50 23 3a
       0.33829448 -0.23661357 0.08893982 0.0006229918
000040 26 86 ca b9 56 cc 96 bd 42 4e ba be cf 05 f6 be
       -0.0003862839 -0.07363193 -0.3638783 -0.48051307
000050 1d b7 f8 3e 65 4a c8 be 96 62 2b be 07 4a ea 3e
       0.48577204 -0.3911926 -0.16736826 0.45759603
000060 1b 17 05 be ee 4c 09 3f de 45 9e 3e 79 d6 d5 3d
       -0.12997095 0.5363301 0.3091268 0.10441298
000070 05 bb 15 3d cf 8f e2 bd 83 b1 fb be 85 ce bf 3e
       0.03655531 -0.110625856 -0.49158868 0.3746225
000080 43 8e fd be a3 23 ec 3e 8c 22 94 3e 2f 71 07 bf
       -0.495226 0.4612094 0.28932607 -0.5290708
000090 17 47 d4 be 7a d8 fc be 59 d1 b8 bd 6d f6 da 3d
       -0.41460487 -0.4938391 -0.09024305 0.10691533
0000a0 72 26 a1 3c 0c d9 d4 3d 47 71 11 3f f8 2b 8a 3e
       0.019671652 0.10392961 0.5681347 0.2698667
0000b0 cf 65 9e be 33 cd a7 be 99 43 01 bf ea 9d 9a 3e
       -0.3093705 -0.32773742 -0.5049377 0.30198604
0000c0 93 3c 13 bf a8 be b9 be e5 88 e5 be dc a8 8b be
       -0.57514304 -0.36278272 -0.44831005 -0.27277267
0000d0 be 00 af be bf 79 09 be b9 ec 0e 3f 56 7f d6 be
       -0.34180254 -0.13425349 0.5582996 -0.41894025
0000e0 39 22 c5 be b3 4e b0 3e fb e6 38 3e b1 71 90 3e
       -0.38502672 0.34435043 0.18056862 0.2821174
0000f0 58 a3 a6 be 20 5b 9c be e6 f0 0c bd fa e7 a1 3e
       -0.32546496 -0.30538273 -0.034409426 0.31622297
000100 47 ca b7 be da 6a e7 be 85 af bd 3e 1b 5f 8f be
       -0.35896513 -0.4519871 0.37047973 -0.28002247
000110 90 33 b8 3e c6 b6 82 3e 95 08 7c 3e bd d4 5f bd
       0.3597684 0.2553007 0.24612649 -0.054646242
000120 98 aa 56 3e 77 42 7e be 49 07 23 be 5b 8d 7d be
       0.20963514 -0.24830042 -0.15920748 -0.24760954
000130 80 48 0d 3f e9 2b 4c bd 0f 48 03 bf 22 21 9b be
       0.5518875 -0.049846563 -0.5128183 -0.30298716
000140 fa fe 52 3e 9a 33 7f be 1c b3 b8 3e 94 2e fa 3e
       0.20605078 -0.24922028 0.3607415 0.4886366
000150 f5 a3 15 bf 87 6d c5 3d 06 1f 94 be 13 73 c0 3e
       -0.58453304 0.09640031 -0.2892992 0.37587795
000160 01 0a b5 be 08 20 35 3c 1a 84 a9 3d 9a 29 82 3d
       -0.35359195 0.011055 0.082771495 0.06355591
000170 41 c9 bd be a8 6d 53 3d 18 26 9b 3e 04 01 0b bf
       -0.37067607 0.05161825 0.303025 -0.54298425
000180 30 22 9f be f6 bb 85 3d 76 a6 0d 3f 28 62 d9 3e
       -0.3108077 0.06529991 0.55332124 0.424577
000190 3a 91 5d 3e 0b f2 ad be 37 3b 45 be 5c 3a e4 3d
       0.21637431 -0.33973727 -0.1926087 0.11143944
0001a0 7c be bd be 84 d3 d4 be 2f cf df bd d3 a1 51 3e
       -0.3705939 -0.41567624 -0.10928189 0.20471887
0001b0 5a 02 8f be f9 26 c2 bd e7 e8 cc 3e a6 18 e6 bd
       -0.27931482 -0.0948009 0.4002144 -0.1123517
0001c0 e9 45 4e 3e a9 ee f4 3e 37 5a c7 3d b7 15 02 3f
       0.20143856 0.47838333 0.09734004 0.50814384
0001d0 81 04 bd be 2d 15 75 be 29 af 93 3e 4c 67 32 ba
       -0.369175 -0.23933859 0.28844574 -0.00068055536
0001e0 88 4d ee be db 63 17 be a6 d3 c0 be ea 30 71 3e
       -0.46543527 -0.14784186 -0.37661475 0.23553815
0001f0 5d 42 3b be 54 44 77 3e 75 71 0a 3f 49 ac 05 bf
       -0.18287034 0.24147159 0.5407937 -0.5221601
000200 9d 15 02 3f 43 e8 b2 3d 11 47 e5 be 32 7a ac 3d
       0.5081423 0.08735707 -0.44780782 0.084217444
000210 36 74 88 bd ff 1b 99 be 05 85 0d 3f 87 ea 1e 3e
       -0.066627905 -0.29904172 0.55281097 0.15519153
000220 65 63 03 bf 86 2e 01 3f 99 ce 8c 3e 31 ce b0 be
       -0.5132354 0.50461614 0.27501372 -0.34532312
000230 06 81 c1 be 81 58 ed be 8f 8a a9 3e 3b 66 38 3e
       -0.3779375 -0.46356586 0.33113524 0.18007748
000240 ca e4 0a bf b5 5f b2 3e c7 a7 cb be 61 d0 b3 bd
       -0.54255354 0.34838644 -0.3977644 -0.087799795
000250 5a 26 f2 3e db 3e 9d be 3d 63 0a bf ae 47 eb be
       0.47294885 -0.30712017 -0.54057676 -0.45953125
000260 3b 7b 6b 3d cc 97 e5 be 58 6c 0e 3e d9 76 54 3a
       0.05749057 -0.44842374 0.13908517 0.0008104868
000270 74 a5 e7 3e 93 8f 7f 3d 34 8b 9a 3b 1a b1 b7 ba
       0.45243418 0.062392782 0.0047163013 -0.0014014572
000280 7e 5a de 3d 43 9e a0 be 6a 10 c6 3e 5b bb ef be
       0.10857104 -0.31370744 0.38684398 -0.46822628
000290 51 31 01 3f 17 20 2b be 79 b0 08 be 22 02 9c bd
       0.50465876 -0.1671146 -0.13348569 -0.07617594
0002a0 30 9a 30 3e 62 06 86 bd ab 3f 0f 3e d7 41 d3 3e
       0.17246318 -0.06544186 0.13989131 0.4126117
0002b0 3e aa ce bb 8e 24 e8 3e 98 59 01 3f 5a ec 05 be
       -0.0063069155 0.4534039 0.50527334 -0.13078442
0002c0 78 40 19 3f d5 ce c5 3e 94 7b fc be ff 97 ea bd
       0.59863997 0.38634363 -0.49313033 -0.11454772
0002d0 2b 9d 28 3e 62 8a f8 be 31 d1 12 3f 4e ad 96 be
       0.16466205 -0.48543078 0.5735045 -0.29429096
0002e0 51 1e 18 be 75 ca 43 3e 04 a8 09 3f 11 9d 82 be
       -0.14855315 0.191202 0.53771996 -0.25510457
0002f0 94 ee 00 3f 7d 52 66 be d9 cd b7 3e ab d3 90 3e
       0.5036404 -0.22492404 0.35899237 0.2828649
000300 5b 81 d9 3e b9 54 46 3e 5b 40 47 be de 3b f2 3e
       0.42481503 0.19368257 -0.19458143 0.473113
000310 2f cb 6e 3c 14 c4 a3 be 55 30 a2 be 92 db db 3e
       0.01457481 -0.31985533 -0.316775 0.42940956
000320 72 11 5d 3e fc 17 1e bd cf 0d cb 3d 0b 85 d4 3e
       0.21588686 -0.038597092 0.09914743 0.41507754
000330 d8 73 7c be e8 f1 64 be db 77 00 3f 23 63 d3 bd
       -0.24653566 -0.22357905 0.50182885 -0.10321643
000340 fb 2f 26 be 99 3f fa 3e 4c b0 c5 3e 68 6a 46 be
       -0.1622924 0.48876646 0.38611066 -0.19376528
000350 50 7c d3 bd 09 fc f1 3e c9 fc c8 3e 18 11 02 bf
       -0.10326445 0.472626 0.3925536 -0.50807333
000360 06 2a 5d 3d 5c d7 ab 3e 73 d3 30 3e ca 9f 89 be
       0.053995155 0.33562744 0.17268161 -0.26879722
000370 a4 25 4e be ff ff f1 bd 65 fa 1c be 4e c8 05 bf
       -0.20131546 -0.118164055 -0.15329893 -0.52258766
000380 6c fd 2b 3d fa 98 04 bf 73 76 7b 3d 83 85 3d bd
       0.04198973 -0.51795924 0.06139226 -0.046269905
000390 93 bd ae 3e 28 32 9b be a2 2b 2d bd d4 8f 0d bd
       0.3412901 -0.30311704 -0.04227794 -0.034560993
0003a0 85 b2 9f 3e 78 19 17 3f 8c 6e 1d bd 5a 3b e8 3e
       0.31190887 0.5902324 -0.038435504 0.45357782
0003b0 3f 21 a6 3e a1 ab 3e be 4c 03 09 3e dd fb 98 be
       0.3244724 -0.18620159 0.13380164 -0.29879656
0003c0 be 59 e7 3d a8 b7 08 3f 96 89 9a 3d 17 e1 c9 3d
       0.11296414 0.5340524 0.07545774 0.098573856
0003d0 58 da d0 3d 59 cb 15 bd 3f 98 cf be 47 4f 03 bf
       0.10197896 -0.03657088 -0.40545842 -0.5129284
0003e0 ba d1 c2 3e 40 f0 5a be a0 5a fe be a7 76 4a 3e
       0.38050634 -0.2138071 -0.49678516 0.19771825
0003f0 10 86 89 be 29 9c 07 bd ea a4 19 3e 05 46 fd bd
       -0.26860094 -0.03310791 0.15004316 -0.12366871

bias f4 [256]
000000 fe 17 2f 3e b6 f1 29 be 96 a0 ed 3e e0 71 f1 be
       0.17098996 -0.16596112 0.4641158 -0.47157192
000010 a4 9e 7a 3e 95 fe de bd 32 75 37 bd 67 84 96 3e
       0.24474579 -0.108884014 -0.0447895 0.2939789
000020 1a 73 3a 3e 84 fb bf be df 33 e6 be 56 26 7d 3e
       0.1820797 -0.3749658 -0.4496145 0.24721655
000030 4e 6b 09 3f dd 2f 07 be 84 5e 29 3e 17 99 a7 be
       0.5367936 -0.13201852 0.16539961 -0.32733986
000040 56 ac ef 3e bf df 48 bd ce 46 a8 be 5d 95 2c 3d
       0.4681117 -0.049041506 -0.3286652 0.04213463
000050 c7 6e de 3e 1a 9f d9 3e 96 db 03 bf 48 ac ec 3e
       0.4344389 0.42504197 -0.51506937 0.4622519
000060 9c 7c c2 3e 80 2b c1 3d 4c 1d 77 3e 13 ef 4e 3d
       0.37985694 0.09432125 0.2413227 0.050520968
000070 ab d8 0d 3f d8 a8 11 bf 6e d7 90 bd 4d c2 ee be
       0.55408734 -0.5689826 -0.0707234 -0.46632615
000080 0a ba a5 be e4 4b c4 be 98 7c bf 3e 86 e2 86 be
       -0.323685 -0.3833915 0.37399745 -0.263447
000090 84 08 a1 3e 5c f7 0b bf 57 b5 80 3e 8a 74 06 3f
       0.3145181 -0.54674315 0.2513835 0.52521574
0000a0 c1 74 2a be bc 26 87 3e 66 90 fd be c4 18 4b 3e
       -0.166461 0.2639674 -0.4952423 0.19833666
0000b0 50 cd 77 be 17 4c 0d be e4 ad 71 3e fa 9f 03 bf
       -0.24199414 -0.13798557 0.2360149 -0.5141598
0000c0 9b c9 64 be 23 bf cc 3e 17 03 7f be d1 6b 9e 3d
       -0.22342531 0.39989576 -0.24903522 0.07735408
0000d0 f2 0e 9f 3e 43 1d b1 be 50 54 65 3e c8 17 61 3e
       0.3106609 -0.34592637 0.22395444 0.21981728
0000e0 ed 92 87 be 46 5c 0d 3e 92 7c 2a 3d e7 be c3 bd
       -0.26479283 0.13804731 0.041622706 -0.09557896
0000f0 25 d9 ee 3e 62 e6 a8 3e 04 32 b4 be a1 aa 9a bd
       0.46650043 0.32988268 -0.3519441 -0.07552076
000100 4c ab 04 3f 45 2c 58 be 90 c4 82 bc e4 17 e0 3e
       0.5182388 -0.21110637 -0.015962869 0.43768227
000110 96 a4 be be bf bc 91 bc 1e 5d d4 3e 50 ae 09 bf
       -0.37234944 -0.017790196 0.41477293 -0.53781605
000120 36 ea 09 3e 74 87 a9 3e e2 57 db be c9 a6 77 3e
       0.1346825 0.33111155 -0.42840487 0.24184717
000130 bb 79 c9 bd 29 8f 9d bb f8 ef d8 be de 18 12 3f
       -0.09837671 -0.004808326 -0.42370582 0.57069194
000140 0b 00 de 3d bf 21 c2 3d a0 7c 59 be df 26 94 3c
       0.10839852 0.09479093 -0.21238947 0.018084941
000150 54 87 ee be 3f 15 5c be b3 1a 9b 3e 09 d6 2c be
       -0.46587622 -0.2149248 0.30293807 -0.16878523
000160 fa a9 06 bf 8f e7 0e 3f fc 35 93 be 0b 03 89 be
       -0.52603114 0.5582208 -0.28752124 -0.26760134
000170 6c e6 19 3e 49 1a 3f 3d e7 9c fa 3e 38 60 ec 3e
       0.15029305 0.046655927 0.48947832 0.4616716
000180 a6 ea 43 be ae 18 82 be 04 3e 5f bd 26 cc 06 3f
       -0.1913248 -0.25409454 -0.054502502 0.52655256
000190 58 83 d9 3d 13 e7 95 be bb 92 fb be 47 ba cb bd
       0.10620755 -0.29277858 -0.49135384 -0.09947639
0001a0 c1 14 12 3d af 9c 0c bf 86 38 9d 3e 55 a7 50 3e
       0.035664324 -0.5492658 0.30707186 0.20376332
0001b0 46 ef cd be f4 54 24 3e b1 e7 3d 3e 20 5e fe 3e
       -0.40221614 0.16048032 0.18545415 0.49681187
0001c0 76 b8 da be 13 f0 21 be 4e 5e 55 be 76 59 9c bd
       -0.42718858 -0.15814237 -0.20836756 -0.07634251
0001d0 6d ea 09 be 53 fe 92 be c5 62 d9 bd da 84 f6 3d
       -0.13468333 -0.2870966 -0.10614542 0.12037058
0001e0 5a 9b 76 be 2a e6 af 3e 8d 72 20 3e 57 e3 d3 be
       -0.240827 0.3435529 0.15668698 -0.41384384
0001f0 df 81 99 bc 29 0f 95 3e 08 9c 23 3e 65 d7 04 3f
       -0.018738685 0.2911313 0.1597749 0.51891166
000200 e7 e7 36 3e d4 e2 da 3e 42 d2 a0 be 5d 03 da be
       0.17861901 0.4275118 -0.31410414 -0.4258069
000210 ac e8 05 3f 0d 0d 79 be 81 e4 4f 3e 46 88 28 3e
       0.52308154 -0.24321385 0.20302011 0.16458234
000220 86 56 f0 3e 39 91 17 3e 0c 11 a0 3d 9d e2 8d be
       0.46941012 0.14801492 0.078157514 -0.27711955
000230 52 52 dc 3e 61 a5 50 3e 25 6c 13 3e 80 1c 06 bf
       0.43031555 0.20375587 0.14396723 -0.5238724
000240 39 72 e5 be 3c 54 35 3d fd cb 0a bf ef 91 c8 be
       -0.44813707 0.044269785 -0.5421751 -0.39173838
000250 7e bc 20 3e 16 a9 9b 3e a2 8c 99 be ec bf b1 be
       0.15696904 0.3040244 -0.29990107 -0.34716737
000260 80 b8 9c 3e 8d be ed be a7 07 f0 bd 68 cf e1 be
       0.30609512 -0.4643444 -0.117202096 -0.4410355
000270 e7 e2 a6 3d 0e b7 4d be 69 1a 55 3d 92 fa 20 3c
       0.08148747 -0.20089361 0.05202714 0.009825366
000280 4b 40 c2 3e 87 94 06 3f 04 c8 a0 be d3 c6 00 bf
       0.37939677 0.52570385 -0.314026 -0.5030338
000290 7e ad dc be f6 78 ba be 1f f2 4b bd 88 f1 a1 be
       -0.43101114 -0.3642041 -0.04979145 -0.31629586
0002a0 c2 cb 65 bc 06 4e a9 3e 48 2c 8a 3e fd 1d ae be
       -0.01402563 0.3306734 0.2698691 -0.34007254
0002b0 76 93 f9 be 64 d7 8d 3d d8 6e 05 bf 8d 18 13 3d
       -0.48745316 0.06925848 -0.5212226 0.035912085
0002c0 ba d6 df bd 84 7f c3 3e 1a 9a 07 3d 01 ee 06 bf
       -0.10929628 0.38183224 0.033105947 -0.52706915
0002d0 8c 5f ec 3e 4e 2b eb 3e a7 33 51 be b0 60 57 3e
       0.46166646 0.45931476 -0.2042986 0.21032977
0002e0 e1 ca f3 bc 15 12 fb 3e 0d 95 fe 3e d1 b5 81 be
       -0.029759826 0.49037233 0.49723092 -0.25334027
0002f0 a6 34 a2 3d 14 6d ae 3e 94 1f 45 3e d0 53 06 3f
       0.07920198 0.34067595 0.19250327 0.5247164
000300 d6 17 9c be fd fe 00 be d0 99 d3 be 87 fd 71 3e
       -0.30486935 -0.1259727 -0.41328287 0.2363187
000310 68 5b d2 be 56 db 99 be c2 19 55 be 3d 43 08 bf
       -0.41085362 -0.30050153 -0.20810607 -0.532276
000320 82 bb a6 3e df 2c e9 bd 35 3e c4 3e 3b f3 d6 be
       0.32564932 -0.113855116 0.3832871 -0.41982445
000330 37 33 cd 3e 8c 41 83 3d 01 62 a9 be fc e6 bf be
       0.40078136 0.064089864 -0.33082584 -0.37480915
000340 10 fe 07 bf 28 5c 69 bd 94 01 e4 bd 68 d2 43 be
       -0.53122044 -0.056972653 -0.111331135 -0.19123232
000350 9c c0 6e be 9e ff 29 3e 7d 86 3e be 7b 32 95 3e
       -0.23315662 0.16601416 -0.1860599 0.29140076
000360 f0 1c f5 be ff 0a f2 be df 8b 06 3d 7e 46 4e bd
       -0.4787364 -0.47274014 0.032848235 -0.050360195
000370 dd 02 08 3f ea ab 57 be fc 34 c9 3e 37 d6 7c be
       0.5312937 -0.21061674 0.39298236 -0.24691091
000380 23 3d 07 bf b4 c9 11 bf e9 7a 6a be 51 e6 bd be
       -0.5282766 -0.569484 -0.22898449 -0.3708978
000390 56 0b d0 3e 11 8e 40 3e 4a ae a4 3e 0b 8b 04 bf
       0.4063365 0.18804194 0.32164222 -0.5177466
0003a0 3b 8e d7 bc ed d5 07 3e 09 5c 00 3f e3 4a ea bd
       -0.026312938 0.132652 0.50140435 -0.11440065
0003b0 a4 f7 a0 bc 0a 6d 09 3f 6c 1a 82 3d c3 58 99 be
       -0.019649334 0.53682005 0.06352696 -0.29950532
0003c0 33 f9 ce 3e 44 d2 c0 bd 0f 16 95 3e 09 f4 6b be
       0.404245 -0.09415105 0.29118392 -0.23042311
0003d0 02 ac 52 3d 0f 1e d7 3c 7a f9 97 3e 3d e9 8b 3e
       0.05143357 0.02625945 0.29682523 0.27326384
0003e0 0c 14 00 bf b0 8e 0c 3f f9 f2 8a 3e 71 47 9f 3e
       -0.5003059 0.54905224 0.27138498 0.31109193
0003f0 bd db 22 3e 3f 6e 64 be eb 9a 05 3f 6a 14 e6 3d
       0.15904136 -0.2230768 0.5218951 0.112343624

weight f4 [64, 256]
000000 12 60 f0 bb e2 8c 0b bc 03 12 d4 bc 53 9c ba bc
       -0.007335671 -0.008517476 -0.025887495 -0.02277962
000010 c7 6e 54 3c a3 d7 b4 39 a0 33 66 3c da 5b db 3c
       0.0129658645 0.00034492937 0.014050394 0.026777197
000020 b4 0a b2 3d 94 0d 8b bc 4d 2c 65 bd 2f 51 70 bc
       0.08693448 -0.016974248 -0.05595045 -0.014667793
000030 20 6d 59 bd 05 0b b7 3c af dc ad 3c 31 e4 50 3d
       -0.053082585 0.022344122 0.021223394 0.05099887
000040 40 d2 a0 bd bf e0 d1 3c 39 dd 9a bc 24 52 0c bd
       -0.07852602 0.025619863 -0.018904315 -0.034258023
000050 7d 30 bb 3b 06 e9 18 3c 4c b3 46 3d ce dc c8 3c
       0.0057125674 0.009332901 0.048510835 0.02451935
000060 ef 5e cb bc bc c7 aa 3c 21 ea 4c 3c cf c4 ff bc
       -0.024825541 0.020847194 0.012506993 -0.031221775
000070 02 d5 9e 3b ec 46 27 3d 92 cd 14 bc 68 8f 56 bd
       0.00484717 0.04083912 -0.009082215 -0.052382857
000080 4f c9 b7 3c 55 0e 0d 3d ab 66 a7 bd 07 31 8a 3b
       0.022434859 0.034437496 -0.08173879 0.0042172703
000090 00 8c 4b 3d 0a ad 2f 3d d5 75 89 bd 1a 8a f8 bc
       0.04969406 0.042889632 -0.06711928 -0.03033929
0000a0 d5 ca 5f bd 1c 0a 8a bc e0 74 01 bd 6d c0 fe 3b
       -0.054636795 -0.016850524 -0.0316056 0.007774404
0000b0 19 a9 48 3d 0a d7 12 bd 0d ac ab bd b8 42 4f 3d
       0.04898939 -0.03584961 -0.083824255 0.050600737
0000c0 bf b0 d1 bc ea 58 81 3b 4d 0a 0b bd 26 b6 47 3a
       -0.025596974 0.003947367 -0.03394537 0.000761839
0000d0 5b 3a 08 bd 5e ff ed 3b 3d 95 15 3c 14 4c d2 3c
       -0.033258777 0.007263108 0.009129819 0.025671043
0000e0 fb 64 d9 3c 5e fe a8 bc a5 05 ca 3c e9 68 9f bb
       0.026537409 -0.020629104 0.024660895 -0.004864801
0000f0 39 dc b3 bb a3 bf 13 3d 62 31 b1 3c d1 49 2a 3d
       -0.005488899 0.03607143 0.021629993 0.041574303
000100 35 f3 fa 3c 58 08 99 bd 10 9e 08 3d 69 5a 83 3d
       0.030633548 -0.074722946 0.033353865 0.06413729
000110 0d bf 44 3d ba cc 68 3c ee c3 3c 3c fb 4d 74 bd
       0.048033763 0.014208967 0.011521323 -0.05964468
000120 fd 0b d7 39 fe ab 86 bd ed dc 8c 3c 22 9a 8f bc
       0.00041016928 -0.06575774 0.01719519 -0.017529551
000130 92 fe 24 3c f5 0f b6 bb b5 86 ba bc 9f 08 67 bd
       0.01007046 -0.0055561014 -0.022769311 -0.056404706
000140 7a a2 67 3d 42 c3 5d bc be fb 98 3d 25 8f 5c 3d
       0.056551434 -0.013535323 0.07469891 0.05384745
000150 4c ae 0b 3c c6 32 cf bc 08 f0 8a 3d 3e bf 81 bc
       0.008525442 -0.025292765 0.067840636 -0.015838262
000160 d8 29 62 3c 93 88 6b 3d 03 64 9c bd 4b 38 2f 3d
       0.013803922 0.057503294 -0.07636263 0.042778295
000170 37 ef 8b bc 6c f7 b3 3b e8 8f a3 3c 07 dc 52 3d
       -0.01708184 0.0054921415 0.01996608 0.051479366
000180 8f d4 c2 3c fa 14 f0 bc c2 fa 9f 3d 41 d7 ba 3d
       0.023782996 -0.029306877 0.078115 0.09123088
000190 33 2f 11 bd 5d 71 31 bc f7 8c f7 bc 79 bd 84 bd
       -0.035445403 -0.010830251 -0.030218584 -0.064814515
0001a0 63 e9 07 3d f7 1f df 3c 5e 44 32 3d 20 84 7a bc
       0.03318156 0.027236922 0.04352223 -0.01529029
0001b0 17 42 f4 bc 3f 31 14 bb 57 cd c1 bc 68 ea db 3c
       -0.02981667 -0.002261236 -0.023657484 0.026845172
0001c0 b5 5b 5b bb ad 1f 04 bc c1 d0 92 bd 2b 23 16 3d
       -0.003347141 -0.008064193 -0.07168723 0.036654633
0001d0 16 59 8e bd e2 9f c5 3c 8f 10 18 3d 1a 46 41 3b
       -0.069505855 0.02412409 0.037125167 0.0029491247
0001e0 f7 8b 37 3d c6 16 8c 3c 75 5a f7 bc f5 f1 8a bd
       0.044811215 0.017100703 -0.0301945 -0.06784431
0001f0 ab 98 9b 3d de 86 f6 3c 34 ba e6 bc f5 c2 f5 bc
       0.075974785 0.030093607 -0.02816496 -0.03000019
000200 43 6b 15 bd 57 7f 41 3d 58 58 6b bc 2f a9 06 bb
       -0.036479246 0.04724058 -0.0143643245 -0.0020547619
000210 b3 de 9b 3d 08 8a 45 38 74 30 06 3d aa 88 08 bd
       0.07610836 4.709701e-05 0.032761052 -0.033333458
000220 81 46 cd 3c 69 ab 7c 3d dd c2 a8 3d 96 74 a4 bd
       0.025058033 0.061686907 0.08240292 -0.080300495
000230 9f da ad bc 40 ee ae bd 7b 64 71 3c 9f 1f fc 3c
       -0.02122241 -0.08541536 0.014733429 0.030776797
000240 50 b4 a6 3c c9 d0 e7 3b 16 6c ef bc 67 73 ee bc
       0.020349652 0.0070744497 -0.029226344 -0.029107763
000250 d0 90 08 bc 7b d3 aa 3d c7 ce 92 bc 4d 16 6f 3c
       -0.008335307 0.08341118 -0.017920865 0.014592719
000260 2b cd 51 3d 79 92 12 3c cd 14 29 bd 69 c1 1c 3d
       0.051221054 0.008946055 -0.041279603 0.038270388
000270 39 0d 6f bd 59 e5 0c bd 8d bf 2f bd 08 62 8f 3c
       -0.05836222 -0.03439841 -0.042907286 0.0175028
000280 9e 31 6f bd 5f ee 90 3d 56 c2 a4 3d 62 72 15 3c
       -0.058396928 0.07076716 0.08044879 0.009121509
000290 a3 bb 9b bc 06 87 08 3d 92 62 2e 3c 08 5c de bc
       -0.01901037 0.033331893 0.010643618 -0.027143493
0002a0 19 e1 54 bd 05 21 76 3c d8 af a5 3d eb 1e 69 bc
       -0.051972482 0.015022521 0.0809018 -0.014228563
0002b0 26 2e 9b bd c1 e7 24 bd 8a e8 07 3d b4 67 2e bd
       -0.075771615 -0.04026008 0.03318075 -0.042579368
0002c0 b4 b4 63 bc 88 01 c5 bc 62 0c 52 bd 10 5b f9 bc
       -0.013898063 -0.024048582 -0.05128134 -0.03043893
0002d0 82 b5 ff bb b8 a0 75 bc 62 30 38 3c 12 77 29 bd
       -0.00780362 -0.014991932 0.011242004 -0.04137332
0002e0 58 e3 1c bd 0b f4 a0 3d 1c 42 19 bc c4 49 ef 3c
       -0.03830275 0.078590475 -0.009354141 0.029209979
0002f0 87 97 2a bd 90 c0 f8 bc 22 66 41 3d 73 77 aa 3c
       -0.041648414 -0.030365258 0.047216542 0.020808911
000300 24 4d 71 3d 53 bb 5e bd ed 35 10 3d 36 09 bd bb
       0.058911458 -0.054377865 0.035207678 -0.0057689203
000310 94 fc 3f bd 33 e4 9e bd 40 a4 6a 3c 92 27 99 3d
       -0.046871737 -0.07758369 0.014321387 0.074782506
000320 e5 06 65 bd af ca ef bc 35 b3 fc bc d8 76 cc 3c
       -0.05591478 -0.029271452 -0.030847171 0.024959013
000330 77 fc f5 3b c5 25 a7 3d 8b 13 61 3d a7 60 46 3d
       0.007506903 0.08161501 0.05495028 0.04843202
000340 11 b6 26 bd 23 d9 80 bd 74 67 ec bc df d5 bc bc
       -0.040700976 -0.062914155 -0.028857924 -0.0230512
000350 c4 ba 47 bd f6 7a 46 bc d0 91 7f 3c 9d b5 a5 bd
       -0.048762098 -0.012114277 0.015598729 -0.080912806
000360 2b 1e ab 3d c0 04 f3 3c 98 73 2e bc 5d 53 84 bd
       0.083553635 0.02966535 -0.010647677 -0.06461213
000370 19 63 74 bc 19 b0 95 3d 75 88 8a 3d bc a4 92 3c
       -0.014916205 0.073089786 0.06764308 0.017900817
000380 f9 24 eb 3c 65 d6 80 bd 04 3b 86 38 2e 74 2f 3c
       0.028704153 -0.062908925 6.4006104e-05 0.010708852
000390 12 82 69 3d f1 85 11 3d 4e 94 7a bd 07 4f 18 3d
       0.05700881 0.035528127 -0.06117659 0.03718474
0003a0 78 6d 19 bd b5 70 00 bd 89 b8 bb bb 33 c0 a7 3d
       -0.037457913 -0.031357486 -0.0057287854 0.08190956
0003b0 52 d7 d6 3c b0 0d 47 3d 79 b3 37 3d ae 1e 89 3d
       0.02622572 0.048597038 0.044848893 0.06695305
0003c0 22 df a3 3d b8 e1 13 3d 19 89 d8 3b ef 85 6f 3a
       0.080015436 0.036103934 0.00660814 0.0009137084
0003d0 e5 11 a7 3c e2 12 01 3d e2 e5 ed 3c d1 df eb 3b
       0.020394275 0.03151215 0.02904028 0.007198312
0003e0 8b 76 eb 3c 17 36 9c 3d 9a 8a aa ba 87 f3 a5 bd
       0.02874305 0.07627504 -0.0013011277 -0.0810309
0003f0 54 ff 67 3d fd 1f 62 bd 75 fb f7 3c 8a cf ee bc
       0.056639984 -0.055206288 0.030271271 -0.029151697

bias f4 [64]
000000 69 d4 88 3c b4 f9 88 3d 0c a1 4a 3d 08 41 83 ba
       0.016702848 0.06688252 0.049469993 -0.0010013888
000010 4f 27 ac bc 99 88 29 bc 98 ac 2e 3d 53 d2 10 bd
       -0.021014838 -0.010347509 0.042645067 -0.03535683
000020 8d 20 c6 3d 2c 77 75 3d bb 44 bc bb 8c 53 4c bc
       0.09674177 0.059928104 -0.005745498 -0.012471091
000030 46 28 67 3d 17 73 6e bd 3c 33 78 ba 15 30 a2 bb
       0.056434892 -0.058215227 -0.0009468084 -0.0049495795
000040 34 00 9b 3b 22 74 03 bd 4c 29 e7 3c 8d da 41 3b
       0.004730249 -0.032093175 0.028217934 0.002957973
000050 de 4f e0 3c 87 57 c6 3c 66 00 9f bc 50 24 42 bd
       0.027381834 0.024211658 -0.01940937 -0.04739791
000060 4c bf bd bc 55 59 09 bd f9 7e a6 bc 52 7f 76 3d
       -0.023162507 -0.03353246 -0.020324217 0.060180016
000070 c6 ea 3a ba 39 d8 7c bc d1 42 18 3d 34 24 77 bb
       -0.0007130321 -0.015432411 0.037173096 -0.0037710788
000080 40 89 7b bc d5 b7 29 bd d4 b0 06 3d db af a1 3d
       -0.015352547 -0.04143508 0.03288348 0.0789487
000090 7a b5 95 3d 42 71 20 3d bc 50 6a 3c 33 af d0 bc
       0.073100045 0.03917051 0.014301475 -0.025474166
0000a0 52 6c 01 3d 4b f9 ce bb 80 e7 8c 3d f1 70 3a bd
       0.031597443 -0.006316339 0.068800926 -0.045517866
0000b0 4e 92 94 3d a5 69 51 bd 9b 98 ea 3c 6c c4 e5 bb
       0.07254468 -0.05112614 0.028637221 -0.0070119407
0000c0 a4 28 82 bd f2 a4 cb bc 50 25 cb 3c e7 c9 8b bd
       -0.06355408 -0.024858925 0.024798065 -0.06825619
0000d0 94 ad cd 3b 2e ad 8b bc 35 a4 55 bc 07 65 01 bc
       0.0062767956 -0.017050352 -0.013039638 -0.007897622
0000e0 89 14 f2 3c eb ce 49 bd a8 bf 20 3d 82 c6 bc bb
       0.029550808 -0.049269598 0.039245278 -0.0057609687
0000f0 02 62 95 bc a2 36 19 bc 65 fe 88 3d 4c 92 a1 bb
       -0.01823521 -0.009351404 0.06689147 -0.00493077

weight f4 [32, 64]
000000 49 fb 2b bc 8c 86 0c bb 42 e1 82 3d 22 55 28 bc
       -0.010496923 -0.00214425 0.06390621 -0.0102742035
000010 f7 e1 5b bc a9 40 0c be 94 34 cb bd 08 cd 5a 3d
       -0.013420573 -0.13696541 -0.09922138 0.05341819
000020 e8 1e f5 bc 39 19 b9 bd dd 8b a7 3d 32 ed 2e 3d
       -0.029921964 -0.09038014 0.08180974 0.042706676
000030 7c e3 1b 3d 3d 6e db 3c fe 33 b6 bb 2c ed a9 39
       0.038058743 0.026785964 -0.005560397 0.000324109
000040 67 b5 47 bd 18 5b b7 3d 9e b3 20 3d 36 c0 47 3b
       -0.048756983 0.08952922 0.039233796 0.0030479557
000050 96 aa ac bc 41 3b 3d 3d 1b f6 49 3c bd 9f 62 bd
       -0.021077435 0.046199087 0.0123267425 -0.05532812
000060 3c 35 91 3d 63 ff ab bb c8 2a 30 bd 6d a7 60 3d
       0.07090232 -0.0052489503 -0.04300955 0.05484717
000070 0c 24 52 3a 25 62 8f bc 04 68 8b bd b2 bb 6a 3c
       0.00080162357 -0.017502854 -0.06806949 0.014326977
000080 e0 79 0b be 84 a4 91 3d c4 d1 91 bd 1c a2 74 bb
       -0.1362071 0.07111457 -0.07120088 -0.003732807
000090 ec e1 7d 3c bc fa f0 3c f8 0b 07 bb 79 b2 f3 3b
       0.0154957585 0.029416434 -0.00206065 0.007437047
0000a0 52 3e 43 3c c8 18 41 bd a6 81 e0 3c 59 a7 b3 bd
       0.011916714 -0.047142774 0.027405571 -0.087721534
0000b0 b7 b3 d0 3c 6a 1e 6e 3d bf 98 5b 3d d4 44 f3 3c
       0.02547632 0.058134474 0.053612467 0.029695906
0000c0 c3 a6 c5 bc 34 df 92 bc 74 aa bf bd f1 59 d3 3d
       -0.02412737 -0.017928697 -0.09358683 0.10319889
0000d0 ed 7b 02 bd bb 4d 20 bc 82 d0 3c 3d 3a 35 91 3d
       -0.031856466 -0.009784157 0.046097286 0.0709023
0000e0 53 f9 2f bd c3 17 04 3d 1d b2 8c 3b 74 06 01 be
       -0.042962383 0.032249223 0.0042936937 -0.12600118
0000f0 87 63 17 be d5 56 cc 3b 6c b8 c6 bd 18 e8 0d be
       -0.1478406 0.006235937 -0.097031444 -0.13858068
000100 f0 ff 26 3d 60 9b 06 3d 8d 66 85 3d 94 ac 5a 3d
       0.040771425 0.03286302 0.06513701 0.05338724
000110 19 db 02 be cb 0d e9 bd 7c 38 b4 bc 36 c9 c9 3d
       -0.12778892 -0.11379584 -0.02199959 0.09852831
000120 09 18 c0 3d 0d 96 2e bd f5 f3 18 bd 9a 55 87 3d
       0.09379584 -0.04262357 -0.03734203 0.06608124
000130 70 4a 86 bd 7e f5 17 3c bd 3f 39 bc cb ba f0 3c
       -0.065571666 0.0092748385 -0.0113067 0.029385945
000140 98 b3 8f 3c fa 07 81 3c 3b e0 44 bd d8 1a 6a ba
       0.017541692 0.015750874 -0.048065405 -0.00089303916
000150 cd f8 9d 3b 21 34 18 3b 11 3e 1c 3c 88 b2 1e 3d
       0.004820919 0.002322443 0.009536282 0.03874448
000160 27 84 9d 3d 6c de b6 3c dc 35 7a bc fe 4f 14 bd
       0.07691222 0.022322856 -0.01527163 -0.0362091
000170 9d 65 64 3b c2 37 97 3d 94 05 b5 3d 0f fa 5a 3c
       0.0034850605 0.07383682 0.088389546 0.013365283
000180 54 ad e0 bd 52 40 7f 3d c9 55 62 bd ca 6b 64 bd
       -0.1097056 0.0623172 -0.055257592 -0.05576686
000190 1d e5 7b 3d c4 16 f9 bc fe 34 ae bd 7d 8b 9c 3d
       0.061497796 -0.030406363 -0.08506201 0.07643793
0001a0 a6 2f e3 bb f8 bc b2 3d b5 09 b4 3d 1a a3 96 3c
       -0.0069331704 0.08727449 0.08790914 0.01838832
0001b0 3d be d2 bc 56 b2 e2 bd c5 b3 3d 3d a0 ab 9f 3d
       -0.025725478 -0.11069171 0.04631402 0.07796407
0001c0 60 1d cc bc 51 2f 43 3d 42 6d 1e bd 32 34 24 3d
       -0.02491635 0.047652546 -0.038678415 0.04008884
0001d0 fe 67 0a 3d 8d 23 b1 3c b8 b1 8a 39 67 f0 81 bd
       0.03379058 0.021623397 0.00026453822 -0.06344681
0001e0 53 34 53 bd e4 0f 3a 3d 2f 1c 86 3d e4 19 bf bc
       -0.051563572 0.04542531 0.06548344 -0.023327775
0001f0 98 80 48 b9 99 2e dc bc d8 2e 51 3d 06 84 94 bd
       -0.00019121391 -0.026877688 0.051070064 -0.07251744
000200 2e 97 86 bd 25 db aa 3d 78 fc 25 3d 3f 1d 8f 3d
       -0.06571804 0.0834258 0.040523976 0.06988
000210 39 e3 ad bd c0 dd b5 3b 9a cc 5c bd 4a cd ff 3c
       -0.08490605 0.0055501163 -0.05390606 0.03122582
000220 b2 03 dc bd 3b 44 a1 bd 01 8f cc bc ce c2 61 bc
       -0.10742892 -0.07874342 -0.024970533 -0.013779355
000230 ef ab 93 3d 06 19 0d 3e 64 8e e7 3c 90 94 42 bc
       0.07210528 0.13779077 0.02826614 -0.01187624
000240 e2 3d 70 3d 0b 4c 2e bc eb 7d d9 3d de 4e 53 bb
       0.058652766 -0.010638247 0.1061972 -0.0032243053
000250 12 cf 29 bd b0 be d1 bd c0 7b d6 bd 11 13 59 bd
       -0.041457243 -0.10241449 -0.10472822 -0.0529967
000260 55 15 38 3d f1 d1 01 be 1d 56 d4 3c 63 1a 91 3d
       0.04494222 -0.12677743 0.025919968 0.07085111
000270 64 82 f0 bb b4 f3 48 bc 6f 9e ed bd ae 0f c4 3d
       -0.0073397625 -0.012265135 -0.116024844 0.09573303
000280 25 42 f6 3c 15 6f 28 bd b6 55 e7 bd 85 06 54 bd
       0.030060837 -0.04112156 -0.11295645 -0.05176403
000290 b5 9a f0 bc 49 e0 71 bc 68 00 89 3c 4c 01 06 be
       -0.029370645 -0.014762946 0.016723827 -0.13086432
0002a0 31 96 30 bd 6b 3a ff 3d 68 34 9d bd ea 4a fc bd
       -0.043111984 0.12462314 -0.07676011 -0.12318976
0002b0 3e d4 98 3c 0a 19 c7 bd 01 53 85 3d 38 4f e1 3d
       0.018655892 -0.09721573 0.06509972 0.11001438
0002c0 3f 3e e0 3d 21 42 49 3d 6a 49 18 3c 09 25 bc 3d
       0.109493725 0.04913533 0.009294847 0.091867514
0002d0 d2 39 99 3b cf 25 ba bd 84 7f 88 bd 01 d3 d0 bc
       0.004676082 -0.09089243 -0.06664947 -0.02549124
0002e0 f4 94 06 3e a3 6f 5c bd 0a 95 fc bc 37 39 a0 3d
       0.13142759 -0.053817403 -0.030832786 0.07823413
0002f0 6e bd 6b bc 2c 41 2e 3c 04 eb aa 3b f6 61 59 bd
       -0.014388425 0.010635655 0.0052160043 -0.05307194
000300 35 dd df 3c 5b e4 4f bd c2 93 f7 3d a5 da 2e bb
       0.02732716 -0.050754886 0.120887294 -0.0026680615
000310 d0 5d 93 3d 18 f5 21 3c 55 38 8b bd e2 54 76 3d
       0.07195628 0.009885095 -0.06797854 0.060139544
000320 ca 5e ae bd 70 a2 28 bd 54 7d e6 3d 19 fd 97 bd
       -0.08514173 -0.041170537 0.11254373 -0.074213214
000330 ef 66 32 3d 13 dc 97 bd 25 aa 0b be 17 e7 5f 3c
       0.043555196 -0.07415023 -0.13639124 0.013665936
000340 be ed 11 3e ef 13 66 3d 22 c2 d3 bc f6 9a df bc
       0.14250848 0.056171354 -0.025849406 -0.02729557
000350 64 09 46 3c ab a5 7d 3c 9c 5c 46 3d c7 8d f1 bc
       0.0120872 0.015481393 0.048428163 -0.02948655
000360 68 2a 61 3d 8a 6e f5 3d 2a d4 5b bd d5 97 86 3d
       0.054972082 0.11983974 -0.053669132 0.065719284
000370 aa cb b6 3a 9f 54 93 3d 63 0c a8 3c 8f 31 7b bd
       0.0013946195 0.071938746 0.020513719 -0.06132656
000380 04 db 28 bd ee b7 03 3e 45 21 8c bd ef 0d ca bd
       -0.041224495 0.12863132 -0.06842283 -0.09865939
000390 1d cd c5 3d 65 46 50 3c 04 39 08 3e 9e 1e 7e bd
       0.09658263 0.012712096 0.13303 -0.062040918
0003a0 b1 a9 63 bd 6c 20 44 bd 02 22 bd 3d 35 ec 29 bd
       -0.055581752 -0.047882482 0.09235002 -0.04148503
0003b0 47 43 13 3e 1f d8 8b bd 20 76 be bd c4 f3 4d bc
       0.14381133 -0.06828331 -0.09299874 -0.012570325
0003c0 cc cb 8a 3d ff 33 21 bc 36 cf 22 3d 34 24 b1 3d
       0.067771524 -0.009839057 0.039748393 0.08649483
0003d0 67 d0 64 3b 56 ed 08 3e 26 fd bb 3c b2 c9 2d bc
       0.0034914257 0.13371786 0.022947859 -0.01060717
0003e0 7b 8e bf 3d bb 30 99 bc 2b 4b 61 3d e5 05 f7 3c
       0.09353348 -0.018699994 0.055003326 0.030154178
0003f0 d8 a0 41 bd e8 2e b6 3c 72 de 57 3d e2 f0 26 3d
       -0.047272533 0.022239164 0.052702375 0.040757068

bias f4 [32]
000000 4d 67 a3 bc 76 89 58 bd cb 27 9a bd 14 45 63 bd
       -0.019946719 -0.052865468 -0.07527121 -0.0554858
000010 59 e2 50 3b a7 4e d3 3c 5e e9 94 3d e1 2a 08 3e
       0.0031873195 0.02579434 0.07271074 0.13297607
000020 f1 11 ac 3d 51 64 b7 3d 11 d6 0e be 31 dd 99 3c
       0.084018596 0.08954681 -0.13948847 0.01878223
000030 da bf 3c 3d f2 f2 17 3d 66 ff 01 be 9e 8f 8d bd
       0.0460814 0.037096925 -0.12695083 -0.069121584
000040 c8 06 8b 3b 86 d4 86 3d 64 48 d5 3d e0 52 62 3d
       0.0042427517 0.065835044 0.10414198 0.055254817
000050 70 c2 84 bd cb 8e 60 bd d7 cf a3 bd e4 e9 bc 3b
       -0.064823985 -0.054823678 -0.07998627 0.0057651866
000060 06 05 b0 bd 92 d3 15 bd f4 8c cf bc aa 61 9c 3b
       -0.08594708 -0.036578722 -0.025335766 0.0047723847
000070 0d fb 61 bd e7 20 36 bd fa 52 4f 3c 13 6c 7d bd
       -0.05517106 -0.044464972 0.0126540605 -0.061870646

weight f4 [8, 32]
000000 c4 99 c0 ba e9 98 82 bc 3d 5c e3 3a f0 92 13 bd
       -0.0014694263 -0.015942054 0.0017346215 -0.036028802
000010 07 78 6e bd 7f d3 5b bd 1c f7 39 3d cd 70 44 3d
       -0.058219936 -0.053668495 0.045401677 0.047959138
000020 30 ff e0 bc 92 51 2b 39 f8 3c 26 bb 60 41 b3 bd
       -0.027465433 0.00016338218 -0.002536593 -0.08752704
000030 90 99 af 3d f2 3f 98 bd 74 dd 9e 37 dd d2 a0 3a
       0.085742116 -0.074340716 1.893819e-05 0.0012269873
000040 c3 f3 d7 3c da 29 56 3d c1 f9 e3 bd 63 dc f5 3c
       0.026361352 0.052286007 -0.11131621 0.030012315
000050 c9 7d 0b 3d 16 b1 bb 3d 74 d6 e6 3c 2b b7 df ba
       0.034055505 0.09164636 0.028178431 -0.0017068138
000060 28 55 9b 3c cb a9 bd bd 81 eb 0b ba 16 6f 26 3d
       0.018961504 -0.09260901 -0.0005337522 0.040633284
000070 a7 a9 9b bb 51 24 cc bc 10 82 a4 bd 9a a6 ff bc
       -0.0047504487 -0.02491966 -0.0803262 -0.031207372
000080 e4 6c 7a 3d ac ef 63 b6 f8 63 a3 bc a5 d4 88 ba
       0.061139002 -3.3965143e-06 -0.01994513 -0.001043935
000090 22 dc 3b bb f7 c2 4f 39 fd c3 33 3d 32 8e c7 ba
       -0.0028665145 0.00019813688 0.04388808 -0.0015224873
0000a0 85 98 a9 3c 15 51 9d bd eb 78 90 3d 14 52 ec ba
       0.02070261 -0.07681481 0.07054313 -0.0018029832
0000b0 b2 9d 79 bd 9f 90 5d 3b bc 6f cc 3d 11 ea e6 39
       -0.060941406 0.0033808125 0.09982249 0.00044043412
0000c0 6f 70 91 bb 66 4d 68 bb 0d 65 33 3d 8c 97 a1 bd
       -0.004438452 -0.0035446524 0.04379754 -0.078902334
0000d0 e6 2a 5a bd d8 c1 47 bd ec b0 2e ba 51 a0 fc 3c
       -0.053263567 -0.04876885 -0.00066639367 0.030838164
0000e0 9a 0e 82 bd 96 6a 84 39 46 05 57 3d cc 2f 74 bd
       -0.06350441 0.00025256415 0.052495264 -0.059615895
0000f0 5a 8b 33 39 97 21 97 bc 75 69 b2 bd 00 27 33 37
       0.00017122683 -0.018448634 -0.087115206 1.0678312e-05
000100 69 2a 14 be cf d2 2b 3d a8 7e 3a be 22 32 44 3c
       -0.14469303 0.04194909 -0.18212378 0.011974843
000110 8a 7b 46 bc 17 a5 48 be 7d 7f 8a 3d c3 23 ae 3b
       -0.012114415 -0.19594227 0.06762598 0.0053143217
000120 02 a4 1a be d2 6d 23 be 21 e1 2a 3b 5f a0 33 be
       -0.15101627 -0.15959862 0.0026074129 -0.17541645
000130 fd f2 cd 3d 92 da ab bc 0c 5e 17 3e 2d af a8 3d
       0.10056112 -0.020978246 0.1478197 0.08236537
000140 68 02 09 3c 85 5b 10 3e 90 59 b7 3d d6 96 17 be
       0.00836239 0.14097412 0.089526296 -0.14803633
000150 00 2c 08 be 36 f0 cf bd bb 2a 1e 3d f2 9a a0 bc
       -0.13298035 -0.101532385 0.03861497 -0.019605134
000160 52 d2 1e 3e 2d d5 9b 3d a4 54 d5 bc b6 2b aa bd
       0.15509918 0.076090194 -0.026041336 -0.083091184
000170 2e 07 64 3c 1f 98 58 3c 3f 78 a7 bc 1f b9 24 be
       0.013917727 0.013219862 -0.02044308 -0.16086243
000180 f0 96 07 be 34 5b 38 3d b4 33 8b bd 20 21 f9 bd
       -0.13241172 0.045008853 -0.06796971 -0.12164521
000190 78 89 c8 3b 09 f1 20 3e e7 6b 87 bc 43 ec 0d 3e
       0.006119903 0.15716948 -0.016530944 0.13859658
0001a0 66 9f 96 bd ba cb 07 be 51 78 a9 bd ec c6 24 3e
       -0.073546216 -0.1326131 -0.08274902 0.16091508
0001b0 64 22 cb 3c e5 db dd 3d a1 bf 22 3b 95 60 90 3d
       0.024796672 0.10832957 0.0024833458 0.070496716
0001c0 03 03 d6 3c 31 79 2e 3a 11 ac 45 3e d8 d8 cc bd
       0.026124483 0.0006655632 0.1930392 -0.10002297
0001d0 89 d1 91 3d 63 07 bd bd fb 92 16 be 7d c1 85 bc
       0.07120044 -0.092299245 -0.14704506 -0.016327614
0001e0 34 22 db 3d f1 9d 5f bb f1 e9 b3 bc f7 c8 ca bd
       0.10699883 -0.003412124 -0.021962138 -0.09901612
0001f0 fa 41 04 3e ad 79 f2 bd c7 f9 70 3d f0 9f 1a be
       0.12915793 -0.11839614 0.058831956 -0.15100074
000200 dd d3 45 3e 86 17 d6 bd 19 cf e2 bd 60 b8 f1 3d
       0.193191 -0.104537055 -0.11074657 0.11802745
000210 ac f6 cb 3d b4 cd 28 3e f5 19 e0 bd e4 8d 9f 3b
       0.09959158 0.1648472 -0.10942451 0.0048692096
000220 04 32 40 3d f3 76 d9 bc fa 06 0d be 3e eb 91 bb
       0.0469227 -0.026545977 -0.13772193 -0.004453092
000230 8f 4d d2 3d 96 b9 ba 3c 83 4f 6e 3d 1e b7 46 3d
       0.102686994 0.022793572 0.058181297 0.048514478
000240 a1 d3 8a bb 07 4a 7b 3d 5a da 23 3e 12 2a 2a 3e
       -0.004236654 0.061349895 0.16001263 0.16617611
000250 67 0c f4 3d 84 5e 25 3e 27 8f c8 3d 1b 96 26 3e
       0.11916428 0.16149336 0.09792929 0.16268198
000260 ba a5 c9 bc 06 ba 42 3e e7 47 bb 3c 60 ee b5 3d
       -0.024615157 0.19016275 0.022861434 0.08883357
000270 b0 7b ad 3d 77 8a 29 bc e7 44 e4 3d 2d 76 1a 3d
       0.08470857 -0.010347954 0.111459546 0.037710357
000280 ec d0 79 bd 90 46 c3 3d 2e 9d 83 3d a6 82 b8 bd
       -0.06099026 0.09534943 0.06426464 -0.09009294
000290 86 53 3a 3b 7a a7 91 bc d2 b9 4b 3d 63 36 30 3c
       0.0028431132 -0.017780054 0.04973776 0.010755154
0002a0 8e bc 44 ba 2d f6 57 bc 17 e5 fa 3b 7b 65 27 3e
       -0.00075049035 -0.0131812515 0.007656704 0.16347305
0002b0 df 75 8e bd 99 88 f5 bd 28 33 85 bd fd 3d 86 bd
       -0.06956076 -0.119889446 -0.06503898 -0.06554792
0002c0 bc bc ad 3b 16 00 96 bc d5 2d 04 be 49 a2 51 bd
       0.00530204 -0.018310588 -0.12908109 -0.051180158
0002d0 8c 32 16 bc a3 86 90 3a 8b 6d bc 3d c7 aa c1 3d
       -0.009167325 0.0011026453 0.09200581 0.09456401
0002e0 d5 77 51 bd 8c 2c 1e 3e 90 df 9c bb 76 be e7 3c
       -0.05113967 0.15446681 -0.004787393 0.028289061
0002f0 af 46 b4 bd 48 0d a7 bd e4 db ed bb 3b f1 10 39
       -0.08802544 -0.0815683 -0.007258879 0.00013822776
000300 20 83 66 bd 1a 4a b1 3d cf 2b 38 3e e1 da f9 bc
       -0.056277394 0.08656712 0.17985462 -0.030499877
000310 ef 93 06 3d 2d 82 ad bc c0 d7 25 be 10 94 cd bc
       0.032855924 -0.021180237 -0.16195583 -0.025095016
000320 eb 69 ca 3d ef 85 ac 3d 3e eb fa 3c 26 59 7d 3d
       0.098834835 0.08423983 0.03062975 0.061852597
000330 49 e8 2c 3e 48 63 48 3e 8a 3d 19 be 54 c2 ed ba
       0.16885485 0.19569123 -0.14964882 -0.0018139579
000340 2c bb ab 3d c8 1b 64 bd 48 48 b5 3d 30 a3 41 3e
       0.083853096 -0.055690557 0.08851677 0.18909907
000350 1e ab 05 be e0 c5 f6 bc 92 e9 8b bd 5c e8 92 bc
       -0.13053557 -0.030123651 -0.068316594 -0.017933063
000360 5c 8a 65 bb 20 f9 2d bc e0 c0 c5 3d 32 b8 95 bd
       -0.0035025096 -0.010618478 0.096559286 -0.07310523
000370 d7 a3 0c bc 94 ea a3 3d 03 7e 0b be 6c 0e 74 bd
       -0.008583984 0.080037266 -0.13622288 -0.059584066
000380 06 f2 aa bd a2 2d 23 bd 2e 85 85 3d c8 7e 3f 3e
       -0.083469436 -0.03983844 0.06519543 0.18700707
000390 50 29 e5 bc 14 da de bd df 51 93 3d 0e fe 45 3e
       -0.0279738 -0.10881439 0.0719335 0.19335195
0003a0 20 4a 87 bc 73 e9 d5 bd 0c fe dc 3c b5 a4 0c 3e
       -0.016514838 -0.104449175 0.026976608 0.13734706
0003b0 13 69 1a 3e 39 cd 86 3d ed ce 56 bc fe 2e 07 bd
       0.15079145 0.06582112 -0.013110858 -0.0330038
0003c0 d8 fc 9e bd f5 d3 31 3d 13 a2 4c 3e 0a 8d 3b 3d
       -0.0776307 0.04341503 0.19983701 0.045788802
0003d0 c2 1a 0b be bf f0 bd 3d 03 c0 8d 3d 47 18 c4 bd
       -0.13584426 0.09274434 0.06921389 -0.09574943
0003e0 82 ac b8 3c 26 d8 43 3e 16 78 17 be 9f 37 01 3a
       0.022543196 0.19125423 -0.14791903 0.00049292477
0003f0 ac 5f c8 bd 3a 8a 55 bd 4a ff 7d ba 5c fe 32 3d
       -0.09783873 -0.052133776 -0.0009689225 0.043699607

bias f4 [8]
000000 44 04 c8 bb 59 1a 97 bd 65 4d 26 be c6 5a 13 3e
       -0.006104024 -0.07378072 -0.16240461 0.14390096
000010 14 63 13 bc db 0c 10 3e d4 c5 86 3d 35 41 bc 3d
       -0.00899579 0.14067404 0.065807015 0.09192125

weight f4 [2, 8]
000000 ad 3b 98 bc cc 80 86 3e 71 3d 38 be c8 01 19 3e
       -0.018583143 0.2627014 -0.17992188 0.14942086
000010 d3 51 a4 3e 58 22 64 be 03 1a bb 3e 4e 8a 95 3e
       0.32093677 -0.22278726 0.36543283 0.2920708
000020 c7 07 66 bd 39 07 5d 3e df b4 92 3e f5 3d 8b bd
       -0.05615976 0.21584786 0.2865362 -0.06798927
000030 3c 33 83 3d 66 ce 2b be 67 d7 8d 3e 2c fa c3 bd
       0.064062566 -0.16777954 0.277034 -0.09569201

bias f4 [2]
000000 91 d8 a4 be 30 b8 bc be
       -0.32196477 -0.36859274

weight f4 [8, 2]
000000 e3 50 03 3f cc 01 2d bf dd 19 10 3f 1d 7e b2 be
       0.512953 -0.67580867 0.56289464 -0.34861842
000010 73 e6 c9 bc cf 3a 1f 3f 22 b2 0a 3f 2b 00 93 be
       -0.02464602 0.6219911 0.5417806 -0.28711066
000020 76 b7 4e bd 87 50 0b 3f d0 c0 26 3f c7 ca 22 bf
       -0.05046793 0.5441975 0.6513796 -0.63590664
000030 25 28 02 3f eb e0 14 be b5 6d bd bd e0 51 09 3f
       0.50842506 -0.14538924 -0.092494406 0.53640556

bias f4 [8]
000000 8a 85 6c be a4 b3 5f 3e 56 5f c6 be d2 dc 0c 3f
       -0.23097816 0.21845871 -0.3874461 0.55024445
000010 8e 00 8e 3d 96 66 25 3e 17 ad 2c bc 80 8d fc be
       0.069336995 0.16152415 -0.010539315 -0.49326706

weight f4 [32, 8]
000000 0e f4 59 be bb 62 81 bc 3d fa 0d 3e 62 b0 ad 3e
       -0.21284506 -0.015794149 0.1386499 0.33923632
000010 48 d3 49 bc 3a ed 8c be fd 6c 59 be 18 77 f0 bd
       -0.01231844 -0.2752474 -0.21232982 -0.11741465
000020 78 20 ef 3c 90 9f f9 3a 36 ea d7 bd 05 00 bb bd
       0.029190287 0.0019044746 -0.10542719 -0.09130863
000030 e7 5f 17 bd e6 95 a2 3d 88 23 b0 bd f2 08 27 3e
       -0.036956694 0.07938747 -0.08600527 0.16312006
000040 fc 2c 43 be 4e 5a 48 be 10 47 c2 3d 40 e2 f1 3c
       -0.19060129 -0.19565699 0.0948621 0.02952683
000050 37 30 53 3e 59 2e 0e be d9 7e 95 bb 60 b5 0f 3b
       0.20623861 -0.13884868 -0.0045622406 0.0021928176
000060 3e 2d 40 3e f2 ac 93 be a4 ba eb bc 24 fd 09 bd
       0.18767259 -0.28842884 -0.02877552 -0.03368868
000070 e1 c3 62 3e a0 c5 84 be da 51 7b be 85 c7 05 3e
       0.22145034 -0.25932026 -0.24542943 0.13064392
000080 7f 8e e5 ba 5a 83 08 3d f6 14 5b be a7 d2 1a be
       -0.0017513781 0.03332839 -0.21394715 -0.1511942
000090 6b f0 ba bd 3e 25 fe 3c 18 40 e8 bc e9 79 5e 3e
       -0.09127887 0.031023618 -0.028350875 0.21726193
0000a0 94 ce 33 3e 55 c5 28 3e 41 d4 43 be 92 d1 4b be
       0.17559272 0.16481526 -0.19123937 -0.19904163
0000b0 22 80 3c be 22 be af 3e 6a 86 e9 3c 60 1c 39 3d
       -0.18408254 0.34324747 0.028506476 0.045193076
0000c0 d1 e9 47 3e a9 3f b1 3e 99 5d e8 3d cb f9 41 bd
       0.19522788 0.3461888 0.11345977 -0.04735736
0000d0 ce 9a 9f 3d 95 3c 87 3e ec 03 3a 3d 5d f5 e7 3a
       0.077931985 0.26413408 0.045413896 0.0017697025
0000e0 21 c2 82 be 54 11 8a 3e a0 4b eb bd 2d 53 2a be
       -0.25538734 0.26966345 -0.11489034 -0.16633292
0000f0 d2 9e 46 3e 7f fb 95 3e b1 03 9a be ee 3e 3f 3b
       0.19396523 0.2929344 -0.3008094 0.0029181796
000100 ec 62 f6 3d e8 3e 64 3d a3 ee 01 3e be 82 d3 36
       0.120305866 0.055724055 0.12688689 6.3035104e-06
000110 3f 4a 89 bd b8 1e 8a be 82 2f 8b 3b 48 eb 86 be
       -0.067036144 -0.26976562 0.0042476067 -0.2635138
000120 86 48 44 3d ea 0f b1 3e f9 62 02 bd 79 df 32 3e
       0.047920726 0.34582454 -0.03183267 0.1746806
000130 17 c8 4f 3e ce b9 ae 3e 76 8d ba 3d 33 8b 32 3e
       0.20291172 0.34126133 0.09109013 0.17435913
000140 49 7a 5a 3e 65 a2 95 3d 87 39 5a 3e 3d 59 20 bc
       0.2133571 0.07306365 0.21311007 -0.009786901
000150 36 9e af 3d 6d 34 60 be d7 4e a1 bd b8 13 78 bb
       0.08575098 -0.21894999 -0.07876366 -0.003785355
000160 86 93 99 3d a0 35 c4 3c 47 ef 21 be b6 e5 82 bc
       0.07498841 0.023951352 -0.15813933 -0.015978675
000170 b0 13 2b 3c 15 2f a4 3e 52 86 0d be 22 ac 95 bb
       0.010441706 0.3206717 -0.1382077 -0.004567639
000180 51 28 b9 3e 82 9f d6 bc 83 65 f1 bd 73 ae 0a bd
       0.3616357 -0.026199106 -0.1178694 -0.033857774
000190 41 20 8a be 89 f5 95 3e a0 f0 47 be 46 c1 11 be
       -0.26977733 0.2928889 -0.19525385 -0.14233884
0001a0 0b a5 a5 bd 85 67 8c be 62 a6 fe bd 95 50 3f 3d
       -0.0808812 -0.2742273 -0.12434079 0.04670771
0001b0 c3 bc 7e bc 6c 0d 3d be 5a 65 ca b9 9d fc 8c 3e
       -0.015547934 -0.18462151 -0.00038603955 0.2753648
0001c0 fa 77 7e be d2 bb 47 3e 7b 73 73 be 4a 9c 86 bd
       -0.24850455 0.19505242 -0.23774521 -0.065727785
0001d0 71 5c 10 3e cb 02 59 be 56 08 ea bd 9d 8d 8b be
       0.14097764 -0.21192472 -0.11427371 -0.2725648
0001e0 f5 94 ac 3e 52 b5 87 be 2d 8b 4b be e5 65 a9 3e
       0.33707395 -0.26505524 -0.1987731 0.33085552
0001f0 23 80 90 be 6e f2 f1 3d 1c 38 31 3b 99 6b 79 3c
       -0.2822276 0.11813818 0.00270415 0.015223407
000200 c2 e0 35 3d 76 ec 5a be 8f f3 18 3e c7 1e 8c 3d
       0.0444038 -0.21379265 0.1493666 0.06841808
000210 ca 4e 75 3e 0e 2e 1f 3d 91 6c 10 3e 8b fa 8b be
       0.23955837 0.03886228 0.14103915 -0.27339587
000220 ea 91 ce 3d b8 4d f8 3d 35 40 c8 3d f1 0d ac bd
       0.10086425 0.12124199 0.097778715 -0.084010966
000230 a7 6e 59 be f8 84 4b 3e 1c e0 45 3e 7d 4c 2d 3e
       -0.21233617 0.19874942 0.19323772 0.16923709
000240 ab 87 ea bd dc a3 96 3e 2f 81 d9 3a cc 7c a7 3d
       -0.11451658 0.2942189 0.0016594286 0.081781
000250 26 15 f4 bd f4 8a 16 3e ba f4 40 be 0c fb fa 3d
       -0.11918096 0.14701444 -0.18843356 0.12254915
000260 6b 2e 14 be 2d 19 d7 bc d3 f6 99 3b b2 75 e9 3d
       -0.14470832 -0.026257122 0.004698613 0.11399402
000270 08 06 82 3d f2 82 61 be 5e ba 2e 3e f6 e4 a0 bd
       0.063488066 -0.22022608 0.17063281 -0.07856171
000280 75 7a fe bd e0 de e3 3d aa 25 57 bb 80 e8 09 bd
       -0.124257006 0.111264944 -0.0032828846 -0.033668995
000290 b9 05 77 be 4c 6f 1f 3d 48 58 5d 3d 23 27 51 3d
       -0.24123277 0.0389245 0.05403927 0.051062714
0002a0 fd 73 1a 39 14 1c 11 be 9e 07 7d 3a 4c a3 89 be
       0.00014729793 -0.14170867 0.0009652319 -0.26882398
0002b0 ca 2c 8b 3b f8 9b 67 be ae 18 7d 3e 3e dc 75 be
       0.0042472826 -0.22618091 0.24716446 -0.24009797
0002c0 7d 81 38 3e f7 70 95 bd 6c fa 01 3e f3 b3 84 be
       0.18018146 -0.07296937 0.12693185 -0.2591854
0002d0 3d 9f 7a be eb 78 a3 3e 20 ca 3b be 9d 3f 09 3c
       -0.24474807 0.3192819 -0.18338823 0.008376983
0002e0 f7 7d c7 bd 2a e3 e1 3b 3d a8 95 3d 31 36 79 3e
       -0.09740823 0.006893535 0.073074795 0.24337079
0002f0 1d ad b1 be ba 60 e9 bd f2 8a 02 be 35 e6 ea ba
       -0.34702387 -0.11395402 -0.12748316 -0.001792139
000300 ac c5 e0 bd d7 99 32 3e 81 90 07 3c f8 c2 a7 3e
       -0.10975203 0.17441498 0.0082741985 0.32765937
000310 ed 7b b7 3e de bf a8 bd 44 bc b7 3e 74 90 2b 3e
       0.35836735 -0.08239721 0.35885823 0.16754323
000320 a6 29 b1 bc cb af 79 be 09 49 05 3e 0e c7 09 ba
       -0.021626305 -0.24383466 0.13016142 -0.0005255797
000330 52 d7 32 3e 8e 3b 6f b9 55 eb 46 be 0b 55 4d 3d
       0.1746495 -0.00022815002 -0.1942571 0.05012993
000340 d5 aa d8 ba 42 ab 8f 3d 11 77 fa bd 80 97 03 be
       -0.0016530404 0.07015087 -0.12229741 -0.12850761
000350 fa 6d 83 3e fa 73 be bd 58 7b 57 b8 76 c4 03 3e
       0.25669843 -0.092994645 -5.1374867e-05 0.12867913
000360 88 88 70 be ce 8b 8c be c8 78 d3 bd ca e7 06 3e
       -0.23489583 -0.27450413 -0.103257716 0.13174358
000370 2d ab 3b be 71 40 06 3d 6b 99 a4 be bc 85 4b 3a
       -0.18327017 0.0327763 -0.321483 0.00077637634
000380 4f b3 e5 bd 10 bc e2 3d e8 17 9c 3b 99 c8 26 be
       -0.11215841 0.11071026 0.004763592 -0.1628746
000390 e3 d0 f0 3b ab 7c 40 be fe f8 9a 3c 99 8c 96 3c
       0.00734912 -0.18797557 0.018917557 0.018377589
0003a0 ce 17 b9 be de 3e 9d be 95 32 43 3e 71 87 83 3e
       -0.36150974 -0.30712026 0.19062264 0.2568927
0003b0 7b 4f 36 3e d7 38 96 3e 7e 75 62 be 7d 29 e6 bd
       0.17803757 0.2934024 -0.22115132 -0.11238382
0003c0 22 6e 16 be 31 a0 04 3e 87 18 23 be 6e 8a 9e 3e
       -0.1469045 0.12951733 -0.15927325 0.30964988
0003d0 72 99 50 3e 97 46 ed 3d 44 0a 12 be cc 3a 8e ba
       0.20371035 0.115857296 -0.14261729 -0.0010851263
0003e0 b3 3f 4e be ea a2 57 3e fa 6d 81 bd a6 0f f3 3d
       -0.20141487 0.2105824 -0.063198045 0.11868219
0003f0 57 24 d9 bd 9d 94 2e 3e 33 fa a6 3e 7c a6 9c bb
       -0.106026344 0.17048879 0.32612762 -0.0047805887

bias f4 [32]
000000 d2 48 c8 3d b4 de 2c be d3 2b 4b 3a dd 60 a5 3e
       0.09779514 -0.1688183 0.0007750366 0.32300463
000010 f2 31 3b 39 54 c5 88 3d 35 ec 87 3e 2f 4b 91 be
       0.00017852316 0.06678262 0.265474 -0.28377673
000020 8a f7 99 3b 38 0e 8e 3e a3 a9 2f 3d 6b e1 b6 3e
       0.0046986984 0.27745223 0.042886388 0.35718855
000030 c8 bd 12 be 5e e8 59 3b f7 ec 76 be 67 9e b2 3e
       -0.14330208 0.0033250074 -0.24113832 0.34886476
000040 45 e8 42 bd 1c e8 bf bd ae e9 09 bb ef 8d 24 be
       -0.04758479 -0.09370443 -0.0021043825 -0.16069768
000050 97 b2 32 bb de 6b 32 be 8f 36 bb 3b 1b c7 fa bd
       -0.0027267092 -0.1742396 0.005713291 -0.122450076
000060 c4 4e 09 be 62 9f 71 3a ca 00 51 be 0e 23 74 3d
       -0.13408953 0.00092171703 -0.20410457 0.059603743
000070 74 e6 af 3c 2d 08 07 be 18 db ad bd 25 82 93 3e
       0.021472193 -0.13186713 -0.084890544 0.2881023
