model/059.95254135131836.pt (torch_old, 168315 bytes, 19 tensors)

weight f4 [256, 2]
0	0x3eb9da28	0.36299253
1	0x3d04d3e0	0.032428622
2	0x3da4131e	0.08011459
3	0x3d6568e0	0.05600822
4	0xbe56fd7e	-0.20995137
5	0xbf13c76f	-0.57726187
6	0xbcdbaeca	-0.026816744
7	0xbf068f29	-0.52562195
8	0xbf0333b8	-0.5125079
9	0x3ee632ec	0.44960725
10	0xbe02c176	-0.12769112
11	0x3dbf4a09	0.09340293
12	0x3e4306a5	0.19045503
13	0x3ee036fe	0.43791956
14	0x3e0a67f0	0.13516212
15	0x3f20d1a1	0.6281987
16	0x3ead51f0	0.33851576
17	0x3e7492fd	0.23884197
18	0x3e65a264	0.22425228
19	0x3ec8f4b7	0.39249203
20	0xbe61774d	-0.22018166
21	0x3f30f73d	0.69127256
22	0xbef61599	-0.48063353
23	0x3eccf183	0.4002801
24	0x3ec5af0f	0.38610122
25	0x3e161947	0.1465808
26	0xbd9b7695	-0.07590977
27	0xbe6fbbba	-0.23411456
28	0x3f0245ab	0.50887555
29	0xbe964185	-0.29346862
30	0xbe993a03	-0.29927072
31	0x3e43822c	0.19092625
32	0x3f00aa2e	0.50259674
33	0xbe47dd0d	-0.19517918
34	0x3efc29be	0.49250597
35	0x3f02d0b8	0.5109973
36	0x3f045118	0.5168624
37	0xbe5bab61	-0.21452095
38	0x3df84a51	0.1212355
39	0xbd39eff5	-0.045394856
40	0x3effe1b6	0.4997689
41	0xbf0d6b70	-0.5524206
42	0xbecc2474	-0.39871562
43	0x3f224500	0.63386536
44	0x3eaad4eb	0.3336557
45	0x3e440be1	0.19145156
46	0x3e360aee	0.17777607
47	0x3d65092c	0.05591695
48	0x3f24f7da	0.6444069
49	0xbf25514a	-0.6457716
50	0x3f038320	0.51371956
51	0xbf21491e	-0.6300219
52	0xbec8cb8e	-0.392178
53	0xbd83c422	-0.06433894
54	0x3f009edb	0.50242394
55	0x3b432957	0.002977928
56	0x3f1f4665	0.6221679
57	0xbe39cbc4	-0.18144137
58	0xbee9c0cd	-0.45654908
59	0xbf27e851	-0.6558886
60	0x3e3b6d13	0.18303327
61	0x3f01ec8e	0.5075158
62	0xbf1f128b	-0.6213767
63	0x3e6f1f03	0.23351674
64	0xbe7f7c90	-0.2494986
65	0x3f0196e4	0.50620866
66	0x3e9c43e5	0.3052055
67	0x3f2bbeb5	0.6708787
68	0xbef0567e	-0.46940988
69	0x3ee45993	0.4459959
70	0x3f2613c5	0.64873916
71	0x3ddfd72e	0.10929714
72	0xbf02aa1a	-0.51040804
73	0xbeb739dd	-0.35786334
74	0x3f20eb21	0.6285878
75	0x3e91f0cf	0.28504035
76	0x3f01bd9a	0.50679934
77	0xbe4b2f1b	-0.19842188
78	0xbee2862b	-0.44242987
79	0x3f0a26fd	0.5396574
80	0xbe1d644b	-0.1537029
81	0x3ec0498e	0.37556118
82	0xbe0d3fd1	-0.13793875
83	0xbf3142a7	-0.6924233
84	0x3ea55190	0.3228879
85	0x3f1f5c15	0.6224988
86	0x3e71d924	0.23617989
87	0xbed5ce69	-0.4175904
88	0x3e4bf9fd	0.19919582
89	0xbf008d79	-0.5021587
90	0xbe05467c	-0.13015169
91	0xbf0b924a	-0.54520094
92	0x3cb44c37	0.022008998
93	0x3e5f0208	0.21778119
94	0x3eabacdb	0.33530316
95	0xbd87cea0	-0.066312075
96	0x3f114b18	0.5675521
97	0xbe8e8a37	-0.27839825
98	0xbe185d13	-0.14879255
99	0x3efa4418	0.48880076
100	0xbf1d32ac	-0.61405444
101	0x3d952a18	0.07283419
102	0xbe92323c	-0.2855395
103	0xbedda99b	-0.4329346
104	0x3ec2948c	0.38003957
105	0x3dc0b3cb	0.09409293
106	0xbed92512	-0.42411095
107	0x3f33d853	0.7025196
108	0x3eeeb281	0.46620563
109	0x3da75a84	0.08171561
110	0xbee32b2c	-0.44368875
111	0x3df74b44	0.12074903
112	0x3f2f1d60	0.684042
113	0x3f27d290	0.6555567
114	0x3e5b9d2b	0.21446674
115	0xbe81e19c	-0.2536744
116	0xbd0bb3ee	-0.03410714
117	0x3c65d795	0.01402845
118	0x3ec79034	0.38977206
119	0xbea23799	-0.31683043
120	0xbf331f96	-0.6997007
121	0xbeb0892f	-0.34479663
122	0x3ea2d6da	0.31804544
123	0x3ed612f5	0.41811338
124	0xbb16836e	-0.0022966522
125	0x3ee27617	0.4423072
126	0x3a8eaf50	0.0010885987
127	0x3e2d1ee1	0.1690631
128	0xbed30fa8	-0.41222882
129	0xbec46f33	-0.38366088
130	0x3f157ea2	0.5839635
131	0xbe621db2	-0.2208164
132	0x3f34d966	0.70644224
133	0xbe8be917	-0.2732627
134	0xbf0a46b0	-0.5401411
135	0x3ec56063	0.385501
136	0x3eca3be7	0.39498827
137	0x3e8bda62	0.2731505
138	0x3eb509e6	0.35359114
139	0x3f19e68f	0.6011743
140	0x3e4f3ff4	0.2023924
141	0xbf30d694	-0.6907742
142	0x3ebbf4ac	0.36710107
143	0x3f10176e	0.5628575
144	0x3e74e6d3	0.23916177
145	0xbe3332c5	-0.17499836
146	0xbdca46f2	-0.09876813
147	0xbe6d5536	-0.23177037
148	0x3edb1e3b	0.42796502
149	0x3f2aa79c	0.66662
150	0xbe235022	-0.15948537
151	0x3e022391	0.1270888
152	0xbe62c458	-0.22145212
153	0xbeddcd40	-0.43320656
154	0xbe08333d	-0.13300796
155	0x3eefd51a	0.4684227
156	0x3ea64d31	0.32480767
157	0xbf0cca65	-0.5499633
158	0xbede7738	-0.43450332
159	0xbe6aebe8	-0.22941554
160	0xbee2b2ea	-0.44277126
161	0xbdae0a07	-0.08498006
162	0x3e990ec1	0.2989407
163	0xbf2f15ca	-0.6839262
164	0xbe8f499a	-0.2798584
165	0xbeb1cd0f	-0.3472676
166	0xbd115fa5	-0.035491604
167	0x3e7f1e78	0.24913967
168	0x3e673432	0.22578505
169	0xbf2df4ab	-0.6795146
170	0xbf0070ed	-0.5017231
171	0x3efb5319	0.49086836
172	0xbef5e517	-0.48026344
173	0xbe8b2a42	-0.27180678
174	0x3eaddfd0	0.33959818
175	0xbed0f6bc	-0.40813243
176	0x3f330b47	0.6993908
177	0xbd19638c	-0.03744845
178	0xbdecebc5	-0.11568407
179	0x3f1b0e30	0.60568523
180	0x3dd6f3bf	0.1049571
181	0x3ee5c0c8	0.44873643
182	0x3f0d112c	0.5510433
183	0x3db78cf4	0.089624316
184	0x3dce2e5c	0.10067436
185	0x3e131f2b	0.14367358
186	0xbd67e4bf	-0.056614634
187	0x3d0b9b5f	0.03408372
188	0xbd65696a	-0.056008734
189	0x3e9a5786	0.301449
190	0x3f0bef92	0.5466243
191	0xbf1a3f1d	-0.60252553
192	0x3ed30071	0.41211274
193	0xbf179fbd	-0.59228116
194	0xbc3f7ef0	-0.011687979
195	0xbf149c6d	-0.58051187
196	0xbf06e8e1	-0.52699095
197	0xbebf69b9	-0.37385347
198	0xbed6afaa	-0.41930896
199	0xbe8a819e	-0.27052015
200	0x3e6ecb32	0.233197
201	0xbf0d8ab8	-0.55289793
202	0x3e2bbcf5	0.167713
203	0x3e87be96	0.26512593
204	0x3e763451	0.24043395
205	0x3d81a1f1	0.06329716
206	0xbed7d43c	-0.4215411
207	0xbd978762	-0.07398869
208	0x3defe8d2	0.11714329
209	0x3eedd455	0.4645106
210	0xbe523d7a	-0.20531264
211	0xbf1a50d6	-0.60279596
212	0xbe6c958d	-0.23103924
213	0xbe31972e	-0.17342827
214	0xbf12d288	-0.57352495
215	0xbf0e2c2c	-0.5553615
216	0xbf0bff60	-0.54686546
217	0x3f1ba4f0	0.6079855
218	0xbebca57e	-0.3684501
219	0x3e1df430	0.15425181
220	0x3ec24c52	0.37948853
221	0xbef86a05	-0.48518386
222	0x3eddc3f0	0.4331355
223	0xbdd825ec	-0.10554108
224	0x3cec92f0	0.028878659
225	0xbef9533d	-0.48696318
226	0xbf1d8765	-0.6153472
227	0x3e148592	0.14504078
228	0x3eb258e7	0.34833452
229	0x3f2271a6	0.63454664
230	0xbea76c55	-0.32699838
231	0x3f2de3ad	0.6792553
232	0xbf0820fa	-0.5317532
233	0xbedca5e0	-0.43095303
234	0x3f217866	0.6307434
235	0x3e9c6bc4	0.3055097
236	0xbeb43349	-0.35195377
237	0xbd8729a2	-0.06599738
238	0xbf21eb4c	-0.6324966
239	0x3f0b2fd7	0.5436987
240	0xbf04037a	-0.51567805
241	0xbe9b6165	-0.30347744
242	0xbe875f8b	-0.2644008
243	0x3e0b11fe	0.13581082
244	0x3e032682	0.12807658
245	0x3e2c2f55	0.1681493
246	0xbeb8ebc3	-0.36117372
247	0x3e42d382	0.19025996
248	0xbf2fb7dc	-0.6863992
249	0x3e3a3bef	0.18186925
250	0x3d9469fe	0.07246779
251	0x3f0fc65b	0.5616204
252	0xbded487e	-0.115860924
253	0xbf1c338c	-0.61016154
254	0xbef7fce8	-0.4843514
255	0x3f0c0532	0.5469543

bias f4 [256]
0	0xbf0f1e8e	-0.55906
1	0x3f05eee8	0.52317667
2	0x3c6013e2	0.013676615
3	0xbe682f81	-0.22674371
4	0xbdafd17e	-0.08584879
5	0x3f179298	0.5920806
6	0x3f04513e	0.51686466
7	0xbf1542d6	-0.5830511
8	0xbf2b7022	-0.66967976
9	0xbe563353	-0.20918016
10	0x3e9ec018	0.3100593
11	0xbdb36d77	-0.08761113
12	0x3e84cb3a	0.259363
13	0x3f2a75a1	0.6658574
14	0xbe70fa94	-0.23533088
15	0x3e657d40	0.2241106
16	0xbecda8e2	-0.4016791
17	0xbef94de8	-0.4869225
18	0x3ed427cc	0.41436613
19	0x3e585974	0.21127874
20	0xbe99c471	-0.30032685
21	0xbe2f12f0	-0.17097068
22	0xbe750c74	-0.23930532
23	0xbf22359a	-0.6336304
24	0x3f1be709	0.60899407
25	0xbf2e03aa	-0.6797434
26	0x3f086861	0.5328427
27	0xbeae4300	-0.34035492
28	0xbd902bff	-0.070396416
29	0xbf2fd5dc	-0.686857
30	0x3ecad055	0.3961207
31	0xbde7f8c5	-0.11326746
32	0x3e8fdbd5	0.28097406
33	0xbe0e2387	-0.1388074
34	0x3ea45bcb	0.32101282
35	0x3f303f60	0.688467
36	0xbf16130a	-0.586228
37	0x3e60adbe	0.21941277
38	0x3f1a28ab	0.60218304
39	0x3c9f1d4f	0.019423155
40	0x3e4a7598	0.19771421
41	0x3ea736ae	0.32658905
42	0xbf199ba4	-0.60003114
43	0x3e80eea7	0.25182077
44	0xbea2c605	-0.31791702
45	0xbeba4688	-0.36381936
46	0x3e7b867a	0.24563017
47	0x3eff9f66	0.499263
48	0x3efe85da	0.49711496
49	0x3efb0dbc	0.49033916
50	0xbf33136d	-0.69951516
51	0xbe48e974	-0.19620305
52	0x3d0e4bab	0.03474013
53	0xbf231529	-0.6370416
54	0xbea92a44	-0.3304006
55	0x3e901f52	0.28148896
56	0x3e307481	0.17231943
57	0xbf13beed	-0.57713205
58	0x3f080396	0.5313047
59	0xbf271501	-0.65266424
60	0x3e7404a5	0.23829897
61	0x3f0ce5c6	0.55038106
62	0xbf064fdf	-0.52465624
63	0xbd7c2480	-0.061558247
64	0x3f0c066c	0.546973
65	0x3e1fce43	0.15606026
66	0xbe773907	-0.24142848
67	0x3d4d02af	0.050051387
68	0xbe8625bc	-0.26200664
69	0xbefdc342	-0.49563032
70	0x3edf8874	0.43658793
71	0x3e6bf8f6	0.2304419
72	0xbf0176c8	-0.5057187
73	0xbe811d0c	-0.25217474
74	0x3f15ca40	0.58511734
75	0x3f0667a4	0.52501893
76	0x3f2634a3	0.6492407
77	0xbf170781	-0.58995825
78	0xbf0e7482	-0.55646527
79	0x3f149f79	0.58055836
80	0xbeda6fd6	-0.4266345
81	0xbf12522c	-0.57156634
82	0x3cf29511	0.029612096
83	0xbf1ad046	-0.6047405
84	0xbc5382a7	-0.012909568
85	0xbf2ed6fc	-0.6829679
86	0x3eec3d39	0.4614046
87	0x3f1aff2e	0.60545623
88	0xbf2f251b	-0.68415993
89	0xbe849a3f	-0.2589893
90	0x3ee2ff3d	0.44335356
91	0x3f2bc9ba	0.67104685
92	0x3e9ef8a9	0.31049088
93	0xbf015071	-0.5051337
94	0x3f129ff5	0.57275325
95	0xbd80ba0c	-0.062854856
96	0xbec0939c	-0.37612617
97	0x3e7cbae7	0.24680673
98	0x3ef80d23	0.48447523
99	0xbe048e09	-0.12944807
100	0x3f15f44c	0.5857589
101	0xbda760f5	-0.0817279
102	0x3e3beb9c	0.18351597
103	0xbdf28273	-0.118412875
104	0x3e529421	0.20564319
105	0xbf12f94c	-0.57411647
106	0x3e28308d	0.1642477
107	0xbf1f3c3e	-0.622013
108	0x3e89d00a	0.26916534
109	0x3f01af90	0.5065851
110	0x3d6247c3	0.05524422
111	0x3f12a8f8	0.57289076
112	0xbcfafeea	-0.03063913
113	0x3f07f710	0.5311136
114	0xbe6d791a	-0.23190728
115	0xbf062b61	-0.5240994
116	0x3f081e72	0.53171456
117	0x3ecbdc0c	0.3981632
118	0xbf085783	-0.5325853
119	0x3f1080f9	0.56446797
120	0xbce34214	-0.02774147
121	0x3e63f26b	0.22260444
122	0x3e3132f9	0.17304601
123	0x3e594883	0.21219067
124	0xbe04e234	-0.12976915
125	0x3eed7fde	0.46386617
126	0xbea7b957	-0.3275859
127	0x3f0c3b08	0.54777575
128	0xbee3eccf	-0.44516608
129	0xbddf8ff6	-0.1091613
130	0xbe28de11	-0.16490962
131	0xbe9d84a2	-0.30765253
132	0x3f081e42	0.5317117
133	0x3e90becf	0.28270575
134	0xbed9fa44	-0.4257375
135	0xbf175bf4	-0.59124684
136	0xbf085902	-0.53260815
137	0xbe837f3d	-0.25683013
138	0xbe39927d	-0.18122287
139	0x3dbf1810	0.093307614
140	0xbe5c96fb	-0.2154197
141	0xbf15c3ab	-0.5850169
142	0x3e8239bf	0.25434682
143	0x3f06576e	0.5247716
144	0xbf328973	-0.6974098
145	0xbea5cb94	-0.3238188
146	0xbe014239	-0.12622918
147	0xbece1c11	-0.40255788
148	0x3f11ecdc	0.57002044
149	0x3e07224d	0.13196678
150	0x3de098d2	0.10966648
151	0x3e9c9878	0.30585074
152	0xbe23844d	-0.15968437
153	0xbf10698f	-0.5641107
154	0x3f354e9f	0.7082309
155	0xbf333835	-0.7000764
156	0xbe71eba4	-0.23625046
157	0x3e0f8f74	0.14019567
158	0xbf20e023	-0.62842005
159	0x3ef1d691	0.47234014
160	0xbef7adda	-0.48374826
161	0xbe866188	-0.26246285
162	0x3d68041f	0.056644555
163	0x3eb249af	0.3482184
164	0xbf18b179	-0.596458
165	0x3e70baba	0.2350873
166	0xbeed7a21	-0.4638224
167	0x3dd43f75	0.10363666
168	0xbc9084cc	-0.017641447
169	0xbea8d52b	-0.32975134
170	0x3eb69841	0.35663036
171	0x3f17cea9	0.59299713
172	0x3f3068fc	0.68910193
173	0x3d0982a8	0.03357187
174	0xbea1780b	-0.31536898
175	0x3e0db0d8	0.13836992
176	0x3ed79553	0.42106113
177	0xbee19dc8	-0.4406569
178	0xbef4272d	-0.4768614
179	0x3d94d5ef	0.07267367
180	0xbec19534	-0.37809145
181	0x3ebc6f0c	0.36803472
182	0xbedb4d5e	-0.42832464
183	0xbe80675b	-0.25078854
184	0xbe9b9a17	-0.30391
185	0x3e54b6e7	0.20772897
186	0xbf3105d9	-0.6914955
187	0xbf2b0516	-0.66804636
188	0xbf336a13	-0.7008373
189	0x3e6b05d2	0.22951439
190	0xbe0a23b2	-0.13490179
191	0x3edbf0e1	0.42957214
192	0x3ec466cd	0.3835968
193	0x3f30d783	0.69078845
194	0xbea59b6f	-0.3234515
195	0x3de43f27	0.11144858
196	0xbee478ea	-0.446235
197	0x3d251d1b	0.04031096
198	0x3f0a4075	0.54004604
199	0xbea7720f	-0.32704207
200	0xbebcbb81	-0.36861804
201	0x3eaff615	0.34367433
202	0xbeb4272f	-0.35186145
203	0xbc818e89	-0.015815036
204	0xbe9d9c28	-0.307832
205	0x3ef09dfe	0.46995538
206	0x3d84022b	0.06445726
207	0xbf24323b	-0.64139146
208	0x3e0e3a40	0.13889408
209	0x3e8b7902	0.2724076
210	0xbdffe571	-0.12494934
211	0x3dc56a20	0.09639382
212	0xbd08894d	-0.033334065
213	0xbd7a2f09	-0.061080012
214	0x3ec56eb1	0.38561013
215	0x3eeb4320	0.4594965
216	0x3f0bbc69	0.54584366
217	0x3ee25515	0.44205537
218	0x3f1a0de4	0.60177445
219	0x3d375ce5	0.044766326
220	0x3d91ea3a	0.07124753
221	0x3e336ae5	0.17521246
222	0x3d38c91b	0.045113664
223	0x3e9f0ab7	0.31062862
224	0x3e040f96	0.1289657
225	0xbee1845e	-0.440463
226	0x3e91f830	0.28509665
227	0xbec3910e	-0.38196605
228	0x3e815a1d	0.25264063
229	0x3a346dd0	0.00068828184
230	0xbe1be2a3	-0.15223174
231	0x3dde0002	0.10839845
232	0xbe9452b1	-0.2896934
233	0x3f17db69	0.5931917
234	0xbd3442af	-0.044008907
235	0x3f140dc4	0.57833505
236	0xbefb61d8	-0.49098086
237	0xbf06186f	-0.5238103
238	0x3eb606c6	0.35552043
239	0xbeca2070	-0.39477873
240	0x3f0a2b97	0.5397276
241	0x3e8e7e73	0.27830848
242	0xbebe72ee	-0.3719706
243	0xbe7b5293	-0.24543218
244	0x3ec0450a	0.37552673
245	0x3eab54b1	0.33463052
246	0x3eb97672	0.3622318
247	0x3ea7c7e3	0.3276969
248	0x3eec49f7	0.4615018
249	0x3ee71da3	0.451398
250	0xbe964163	-0.2934676
251	0xbeeefd28	-0.46677518
252	0x3e9d6807	0.3074343
253	0x3f2a42ca	0.6650816
254	0xbeabd0c0	-0.335577
255	0xbef77217	-0.4832923

weight f4 [64, 256]
0	0x3ce2c964	0.027683921
1	0x3d85fb51	0.065420754
2	0x3cea4d7a	0.028601397
3	0xbd4b1d06	-0.049588226
4	0xbd5c0f67	-0.053725626
5	0xbcc8962f	-0.024485676
6	0x3b8555a1	0.0040690457
7	0x3cc14004	0.023590095
8	0xbc966f3a	-0.018363584
9	0xbc1ed172	-0.00969349
10	0x3d890e55	0.06692187
11	0xbd5ca3d5	-0.05386718
12	0x3cb1b92e	0.021694746
13	0xbd2ce6d6	-0.04221233
14	0xbc37eb89	-0.01122559
15	0x3d2b995b	0.041894298
16	0xbd398286	-0.045290492
17	0x3c8bdbd1	0.01707259
18	0xbd113a33	-0.035455894
19	0x3ca84728	0.020541742
20	0xbce3ae98	-0.027793214
21	0x3d0599db	0.03261743
22	0xbc285e1d	-0.010276345
23	0x3cb518c6	0.02210654
24	0x3c0d8f62	0.008640142
25	0xbd2e1174	-0.042497113
26	0x3ce79711	0.028270276
27	0x3d41ce0a	0.047315635
28	0x3d2e726e	0.042589597
29	0x3ca9a82a	0.02071007
30	0x3d4fb514	0.0507098
31	0x3d412fcd	0.047164727
32	0xbd49b29a	-0.049242593
33	0x3ca39eb2	0.019973133
34	0x3d36cd69	0.04462949
35	0x3c86a052	0.016433869
36	0x3d591551	0.052998845
37	0x3d0e8ca9	0.034802113
38	0x3d06e6af	0.03293484
39	0xbc1bd2cf	-0.00951071
40	0x3d66fce4	0.05639352
41	0x3caf478f	0.021396426
42	0x3d03c2e2	0.032168277
43	0xbce02529	-0.02736147
44	0x3d186b26	0.03721156
45	0x3d482d33	0.04887123
46	0x3d76e417	0.060276117
47	0xbd258806	-0.040412925
48	0x3b915bd8	0.0044359975
49	0x3c9fad4f	0.01949182
50	0x3ca89717	0.020579858
51	0xbb3ab546	-0.0028489395
52	0xbce3e900	-0.027821064
53	0x3d36eeb2	0.04466123
54	0x3d375364	0.044757262
55	0x3d85354d	0.06504307
56	0xbb82f7dc	-0.0039968323
57	0x3caa385d	0.02077883
58	0x3d2a8254	0.041628197
59	0xbd2bc932	-0.04193992
60	0x3d89ad4e	0.06722508
61	0x3c7228b9	0.014780217
62	0xbd319322	-0.043353207
63	0x3ca73d09	0.020414846
64	0x3cc8a6a2	0.02449352
65	0xbc96eda7	-0.018423868
66	0x3d669dd3	0.056302857
67	0xbc3126f0	-0.010812506
68	0x3bdf4969	0.006814171
69	0x3caf7063	0.021415895
70	0x3d3d2ca4	0.04618515
71	0xbd2f17b6	-0.042747222
72	0xbc46a99c	-0.012125399
73	0x3d115d16	0.035489164
74	0x3d466ca2	0.048443444
75	0xbd118ce9	-0.035534773
76	0xbb5b5f94	-0.0033473717
77	0x3be92150	0.007114567
78	0xbcc2442a	-0.023714144
79	0xbced6faa	-0.02898391
80	0xbd6570ee	-0.0560159
81	0xbd0e6f21	-0.03477395
82	0xbd60e3d6	-0.05490478
83	0xbcfe8d49	-0.03107323
84	0x3d7a215e	0.061066978
85	0x3d040d48	0.03223923
86	0xbcb7312c	-0.022362314
87	0xbd2cde42	-0.04220415
88	0xbd6166b6	-0.055029593
89	0xbd5ef136	-0.054429255
90	0x3d3d2d1d	0.0461856
91	0xbc1954aa	-0.009358564
92	0x3c7f76e1	0.015592308
93	0x3d3ef2b8	0.046618193
94	0xbcefa1b3	-0.029251909
95	0x3d7ea2b2	0.062166877
96	0x3c4c15e3	0.01245639
97	0xbd5cfed7	-0.05395397
98	0xbd33c60e	-0.04389005
99	0xbd2e38d6	-0.04253467
100	0xbd54514a	-0.051835336
101	0x3d116fe6	0.035507105
102	0x3d673c51	0.056454007
103	0x3ac7b8cb	0.0015237568
104	0x3d863e18	0.06554812
105	0xbd641a8a	-0.055689372
106	0x3d34ac5e	0.044109695
107	0x3d85b1d9	0.065280624
108	0x3d6093ca	0.054828443
109	0x3ccbd3c0	0.024881244
110	0xbd177ebe	-0.036986105
111	0xbc3f4b10	-0.011675611
112	0x3d00900e	0.03138738
113	0x3c6510d8	0.013981067
114	0x3d4105a5	0.047124524
115	0x3d6890c7	0.056778695
116	0xbc384acc	-0.011248302
117	0x3d40b546	0.047047876
118	0xbd3c31a2	-0.04594577
119	0x3c55968f	0.013036384
120	0x3ce0c4e0	0.027437627
121	0xbcf9fa4b	-0.030514857
122	0x3c96282c	0.018329702
123	0x3ce43602	0.027857784
124	0x3bcd7760	0.006270334
125	0x3d689ea9	0.056791935
126	0x3d387834	0.04503651
127	0xbd31f1b5	-0.0434434
128	0xbd3d9326	-0.04628291
129	0xbc8dcb18	-0.017308757
130	0x3d16e8e5	0.0368432
131	0x3d139712	0.036032744
132	0x3d3ebe51	0.04656822
133	0x3d174788	0.036933452
134	0x3d6a48b8	0.057198256
135	0x3d66c82c	0.056343243
136	0x3d3550f6	0.044266663
137	0x3c46578e	0.012105836
138	0xbd4e7178	-0.05040118
139	0x3d1089bd	0.035287607
140	0xbcd25608	-0.025675789
141	0x39d1e320	0.00040032808
142	0xbd1acf97	-0.03779563
143	0x3c7f0d13	0.015567082
144	0xbd1c7142	-0.03819395
145	0xbcb0a430	-0.021562666
146	0x3d7993c9	0.060931955
147	0xbc9c299f	-0.019062815
148	0x3d067722	0.032828458
149	0x3ab099bc	0.0013473551
150	0x3d807fa2	0.06274344
151	0x3d1fe5a7	0.039037373
152	0xbc5d7d06	-0.013518577
153	0xb92791dc	-0.00015980698
154	0x3bf61cf2	0.007510775
155	0x3caf9ee1	0.021438064
156	0x3bb9f849	0.00567535
157	0xbd310653	-0.043218922
158	0x3cc6c4e4	0.024263807
159	0x3d8346b0	0.06409967
160	0x3cf210e7	0.029549075
161	0xbd132547	-0.035924222
162	0xbb6cc55e	-0.0036128382
163	0x3ca6b0e6	0.020348024
164	0x3cd36799	0.025806235
165	0xbd4ecbb8	-0.05048725
166	0xbc657333	-0.014004516
167	0x3ca4a79b	0.020099452
168	0x3c26f622	0.010190519
169	0x3ca29d64	0.01985044
170	0x3d867c8d	0.06566725
171	0xbc71d88b	-0.0147611005
172	0x3d49df40	0.049285173
173	0x3d0bc4cd	0.03412323
174	0x3d625dd8	0.055265278
175	0xbcd2a3c4	-0.025712855
176	0xbccb0063	-0.024780458
177	0xbc9db667	-0.019252015
178	0x3d7d7f3d	0.061888922
179	0xb9e703bc	-0.00044062536
180	0x3c6dc662	0.01451263
181	0xbcfa4c8d	-0.03055408
182	0xbc622ea0	-0.013805062
183	0xbce31c4d	-0.027723456
184	0x3d3bcc46	0.045849107
185	0x3c9198c1	0.017773034
186	0xbd05ee37	-0.032697883
187	0x3d497682	0.049185283
188	0x3d8450e6	0.06460743
189	0xbce19a7e	-0.027539488
190	0x3af27e7b	0.0018500829
191	0xbd695296	-0.056963526
192	0x3c6570bb	0.014003928
193	0x3d3cc1b9	0.046083186
194	0x3d84dbdb	0.064872466
195	0x3d1407d6	0.036140285
196	0xbd3e93ea	-0.04652778
197	0xbd2b651f	-0.041844483
198	0xbc7f1110	-0.015568033
199	0x3cfe211b	0.031021645
200	0x3d3786a4	0.044806138
201	0x3d56de86	0.05245831
202	0xbd44c1ee	-0.04803651
203	0xbca15a65	-0.019696424
204	0xbd6078b4	-0.05480261
205	0xbb94fd1e	-0.0045467755
206	0xbd684951	-0.056710545
207	0x3c93f577	0.018061383
208	0x39add916	0.00033158873
209	0xba27f611	-0.0006407211
210	0xbd0c86c1	-0.0343082
211	0x3c743cf1	0.014907108
212	0x3c46c537	0.012131981
213	0x3d14853b	0.03625987
214	0x3ccb7a57	0.02483861
215	0x3cc80e0f	0.024420766
216	0x3ca0ef90	0.019645482
217	0x3a3b0208	0.00071337866
218	0x3d3f7200	0.04673958
219	0x3d8553d3	0.06510129
220	0x3b689928	0.003549168
221	0x3d1a8706	0.037726425
222	0x3d2d6d6c	0.04234068
223	0x3d81712b	0.06320413
224	0xbd65795a	-0.056023933
225	0xbc4d44d9	-0.012528622
226	0x3c9c023c	0.019044034
227	0xbb9db21e	-0.004812493
228	0xbd6535a3	-0.055959355
229	0xbd47129a	-0.048601724
230	0x3c69b90a	0.014265308
231	0xbce98398	-0.028505132
232	0xbcc00210	-0.023438483
233	0xbcc1bef1	-0.023650618
234	0x3d2b0040	0.041748285
235	0x3d7c28b7	0.061562266
236	0x3d345800	0.044029236
237	0xbd2f9504	-0.04286672
238	0x3d7e6b40	0.062114
239	0x3d150d96	0.03638991
240	0x3cd82aef	0.02638766
241	0x3d05c886	0.032661937
242	0x3d042a78	0.032267064
243	0x3cf2185f	0.029552637
244	0x3ca6898b	0.020329257
245	0xbd123e94	-0.03570421
246	0x3b133a29	0.0022465086
247	0xbc8a66bc	-0.01689469
248	0x3d1d1939	0.038354132
249	0x3d2640f4	0.040589288
250	0x3d6f2e77	0.05839392
251	0x3d0090f9	0.031388257
252	0xbcae520a	-0.021279354
253	0xbd15c57b	-0.036565285
254	0x3cd5d502	0.026102547
255	0xbd5886db	-0.052862983

bias f4 [64]
0	0x3d0dd85b	0.03463016
1	0x3d4c4d75	0.049878556
2	0xbbb664c0	-0.0055662096
3	0xbd537034	-0.051620677
4	0x3d118f05	0.035536785
5	0x3d69da35	0.057092864
6	0xbc191068	-0.00934229
7	0x3d47ac49	0.04874829
8	0x3d0ea117	0.034821596
9	0x3c768164	0.015045498
10	0x3bc696bb	0.006060449
11	0xbd542f9c	-0.051803216
12	0x3d6ea282	0.05826045
13	0xbd431596	-0.047628008
14	0xbd24ed43	-0.040265333
15	0xbd280204	-0.041017547
16	0x3c80b4b9	0.015711175
17	0xbb19f845	-0.0023493927
18	0xbd6d877a	-0.05799053
19	0x3d2dd5f6	0.042440377
20	0xbd51118b	-0.05104212
21	0xbc21091b	-0.009828831
22	0xbd4236a8	-0.047415406
23	0xbcbfc81c	-0.02341085
24	0xbca7f333	-0.020501709
25	0xbce4f91e	-0.02795082
26	0x3d03f141	0.0322125
27	0xbc6b8dde	-0.0143770855
28	0x3cbfe81a	0.023426104
29	0x3d014ff6	0.031570397
30	0x3cc79b14	0.02436594
31	0xbcd1188b	-0.025524398
32	0x3d71d93b	0.059045058
33	0x3b24f2b4	0.0025169076
34	0x3c82ef23	0.01598317
35	0xbc4841bb	-0.012222703
36	0x3cff9fe6	0.031204175
37	0xbd1a073b	-0.03760455
38	0xbcf2bc06	-0.029630672
39	0xbba072af	-0.004896484
40	0xbd34d8b4	-0.044151977
41	0xbd172602	-0.03690148
42	0xbcfed5fc	-0.031107895
43	0x3bb3947f	0.0054803486
44	0xbd74cbe9	-0.059764776
45	0xbcf9c9f6	-0.03049181
46	0xbba054b9	-0.004892912
47	0x3d636a40	0.05552125
48	0x3d67c503	0.05658437
49	0xbd4bbe48	-0.049742013
50	0xbcc41808	-0.02393724
51	0x3bab427c	0.0052264314
52	0xbd2da4bb	-0.042393427
53	0xbbad0caa	-0.0052810507
54	0xbb748493	-0.0037310466
55	0x3b903311	0.004400619
56	0x3caed6de	0.021342691
57	0xbd65acf2	-0.056073137
58	0x3cacdc37	0.0211011
59	0xbd3c7080	-0.046005726
60	0xbd00e382	-0.03146697
61	0xbb4f3395	-0.0031616439
62	0x3cbb23a9	0.022844153
63	0xbcbcf27f	-0.02306485

weight f4 [32, 64]
0	0x3d2de096	0.04245051
1	0x3d7351c0	0.059404135
2	0xbc0b40e8	-0.008499362
3	0xbc53ad00	-0.012919664
4	0x3cab127c	0.020882837
5	0xbbdeb622	-0.0067966143
6	0xbbd39ebf	-0.006458133
7	0x3b90217d	0.0043985234
8	0xbd9cd223	-0.07657268
9	0xbd543522	-0.051808484
10	0xbd90843a	-0.0705647
11	0xbd01b255	-0.03166421
12	0xbd86075c	-0.065443724
13	0x3dbb8bd6	0.09157531
14	0xbc51ee01	-0.012813092
15	0x3d97264c	0.073803514
16	0x3e038311	0.12842967
17	0x3d0b0349	0.03393868
18	0xbce2168a	-0.027598638
19	0x3ce0daae	0.027448025
20	0xba7fa06f	-0.00097513845
21	0xbdd6bd38	-0.10485309
22	0x3d228323	0.039675843
23	0x3e05d9d1	0.13071372
24	0x3d9a54e0	0.0753572
25	0x3cc64b3e	0.0242058
26	0x3d7b1603	0.06130029
27	0xbc5f8dbb	-0.013644631
28	0xb8654de7	-5.4670407e-05
29	0xbda6898c	-0.08131704
30	0xbde2f973	-0.11082735
31	0xbdb55066	-0.088532254
32	0x3d149b94	0.036281183
33	0xbcfa0c49	-0.030523436
34	0xbc43292b	-0.011911671
35	0x3d6ecfe9	0.058303747
36	0x3d29d98b	0.04146723
37	0xbdcb8094	-0.09936634
38	0x3d6c4c93	0.057690214
39	0xbd80fbe9	-0.06298048
40	0xbdbe17fb	-0.09281918
41	0x3da75d90	0.081721425
42	0xbd90f005	-0.0707703
43	0xbbcb8081	-0.006210387
44	0x3d7d4b08	0.061839134
45	0xbdae4cd1	-0.08510745
46	0x3d500c64	0.050793067
47	0x3c3d6616	0.011559984
48	0x3d0aeecb	0.033919137
49	0x3d6b546c	0.057453558
50	0xbd0c5312	-0.03425891
51	0x3d914e3c	0.07095
52	0x3d5454c3	0.051838648
53	0xbdb79917	-0.089647464
54	0x3c757ef0	0.014983878
55	0xbd03a4a6	-0.032139443
56	0xbdeeeb97	-0.11666029
57	0x3cb1ff73	0.021728253
58	0xbd39a179	-0.045320008
59	0xbdcff237	-0.10153621
60	0x3d26e8f3	0.0407495
61	0x3db55694	0.08854404
62	0xbdf971df	-0.12179922
63	0xbb7e6e57	-0.0038823092
64	0xbd3a73ce	-0.045520596
65	0x3d44bdd0	0.04803258
66	0xbd82ae73	-0.0638093
67	0x3b79754a	0.0038064294
68	0x393f955b	0.00018270819
69	0xbd0f8b03	-0.03504468
70	0x3d1b1e09	0.03787044
71	0xbda212e3	-0.079137586
72	0xbddccd18	-0.10781306
73	0xbba7e5eb	-0.005123844
74	0xbc87ffd6	-0.016601484
75	0xbdace48e	-0.08442031
76	0x3db8af2a	0.09017785
77	0xbd546ece	-0.051863484
78	0xbd8014cd	-0.062539674
79	0x3cebdd3d	0.028792018
80	0xbcd39dbd	-0.025832051
81	0x3da3087d	0.079606034
82	0x3dde7881	0.10862828
83	0x3cb3b19a	0.021935273
84	0xbd9684b1	-0.073495276
85	0x3daf6481	0.085640915
86	0x3d0552aa	0.032549538
87	0x3c1fef6f	0.009761675
88	0xbd4d9538	-0.050191134
89	0x3d73543d	0.059406508
90	0xbcde7c45	-0.027158866
91	0x3da863d7	0.08222168
92	0xbdc94bf9	-0.09828944
93	0xbd1fe168	-0.039033324
94	0xbdea18bb	-0.11430498
95	0xbd438e2a	-0.047743
96	0x3ce828ae	0.02833971
97	0xbdb31d4e	-0.08745824
98	0xbd76b2ab	-0.060228985
99	0xbd9f9b09	-0.077932425
100	0xbc7e5a70	-0.015524492
101	0x3da67b31	0.08128966
102	0xbd1e6c2b	-0.038677376
103	0xbcb00850	-0.021488339
104	0x3ce7f603	0.02831555
105	0xbd5f78d2	-0.054558583
106	0xbcedc99c	-0.029026799
107	0xbdd5af3c	-0.10433814
108	0x3c9d4937	0.01919995
109	0xbda09ede	-0.078428015
110	0xbdbc67c7	-0.091994815
111	0x3d8cd101	0.06875802
112	0xbdb37e76	-0.08764355
113	0x3dcc2f7c	0.099699944
114	0x3d1f7ece	0.03893929
115	0xbdaac573	-0.08338442
116	0x3d8ec577	0.06971257
117	0xbd1d98f4	-0.038475946
118	0xbdec1780	-0.1152792
119	0x3c5fae54	0.013652403
120	0x3d87e1bd	0.06634853
121	0xbca08671	-0.019595357
122	0x3d96b968	0.07359582
123	0xbdb3567f	-0.08756732
124	0x3dd919b6	0.10600607
125	0xbdf0d8ce	-0.11760102
126	0x3d7e2150	0.062043488
127	0xbc24ec71	-0.010066138
128	0x3de16d72	0.11007203
129	0xbd8e3a27	-0.069446854
130	0xbd989d0f	-0.074518315
131	0x3d4d84f0	0.050175607
132	0xbd23c87a	-0.03998611
133	0x3d5d8200	0.054079056
134	0xbc788d36	-0.015170386
135	0x3dfa354a	0.12217195
136	0x3ac8eff4	0.0015330301
137	0xbd553e05	-0.0520611
138	0x3daa6962	0.083208814
139	0x3cbe118d	0.023201728
140	0xbdb9865b	-0.090588294
141	0xbdd07812	-0.101791516
142	0xbdc13ee4	-0.094358236
143	0xbb8347f7	-0.0040063816
144	0x3d34a812	0.044105597
145	0xbd49bf50	-0.049254715
146	0xbdae954b	-0.08524569
147	0xbdda4eaa	-0.10659535
148	0x3d94757f	0.07248973
149	0xbd4b98c9	-0.049706254
150	0xbdef578f	-0.11686622
151	0x3de554c0	0.111978054
152	0x3d5cbaf1	0.05388922
153	0x3c8ce359	0.017198252
154	0x3c6fd631	0.01463847
155	0x3dd40de9	0.10354216
156	0x3dc93499	0.09824485
157	0x3e055456	0.13020453
158	0xbc87be2e	-0.016570177
159	0xbd7fca30	-0.06244868
160	0xbc92ca5a	-0.017918754
161	0xbdbe2b33	-0.09285583
162	0xbd5be2ec	-0.053683206
163	0x3d80c2b8	0.0628714
164	0xbdc5699d	-0.09639285
165	0x3d200d0c	0.039074942
166	0xbdf488ee	-0.1194018
167	0x3d1911c0	0.037370443
168	0x3d4d9def	0.050199445
169	0xbdb36514	-0.087595135
170	0xbde6afd0	-0.11264002
171	0xbce18a2e	-0.02753171
172	0xbc499f55	-0.012306054
173	0xbd3cc8f6	-0.04609009
174	0x3de29af1	0.11064709
175	0x3ca67961	0.02032155
176	0x3dd231d6	0.10263412
177	0x3ddbcdab	0.107325874
178	0xbc967853	-0.018367922
179	0xbd906a47	-0.07051521
180	0x3ca11592	0.019663606
181	0x3dbe0255	0.092777885
182	0xbc217bd4	-0.009856183
183	0xbdd02175	-0.101626314
184	0x3dd04b4b	0.10170611
185	0xbd699986	-0.057031177
186	0x3db6d6d7	0.08927696
187	0x3dc2575d	0.094893195
188	0xbcfbefdc	-0.030754022
189	0x3df5d65e	0.12003778
190	0x3cbedbf1	0.023298236
191	0x3dd3566e	0.103192195
192	0x3dc266f5	0.09492294
193	0x3dc04310	0.09387791
194	0xbda9689a	-0.08271904
195	0x3e00c34e	0.12574503
196	0x3cb0f26a	0.021599967
197	0x3d9c13c4	0.076209575
198	0x3db6633c	0.08905646
199	0x3d8a2114	0.067445904
200	0x3dbec809	0.093154974
201	0xbded5f80	-0.11590481
202	0xbdcb1624	-0.09916332
203	0x3dc2691e	0.09492706
204	0x3d9821b8	0.07428306
205	0xbdd2a868	-0.10286027
206	0x3d9f55cf	0.077800386
207	0xbd7dc7ed	-0.061958242
208	0x3b793e67	0.003803158
209	0x3d21f992	0.03954465
210	0x3b895e73	0.0041921674
211	0x3db8301f	0.08993553
212	0xbd9812aa	-0.07425435
213	0x3d9d9653	0.07694688
214	0x3d8f28a6	0.06990175
215	0x3d7fcd86	0.06245186
216	0xbdaf865d	-0.0857055
217	0x3e0136e6	0.12618598
218	0xbd497426	-0.049183033
219	0x3d9010da	0.07034464
220	0xbbdb730c	-0.0066970643
221	0x3b74dae0	0.0037361905
222	0x3defac40	0.11702776
223	0x3e063005	0.13104255
224	0x3da49f55	0.08038203
225	0xbca21e69	-0.019789891
226	0x3ae7a20b	0.0017672194
227	0xbc6aea25	-0.014338051
228	0x3d9b9d38	0.075983465
229	0xbda89ba3	-0.0823281
230	0xbb4b8de4	-0.0031059915
231	0xbc8b462e	-0.017001238
232	0xbdf2f3fe	-0.11862944
233	0x3dd8c695	0.105847515
234	0x3dbdc6c2	0.09266426
235	0x3db9b443	0.09067585
236	0x3ca4f808	0.020137802
237	0x3d6a59b6	0.05721446
238	0xbd82eecf	-0.063932054
239	0xbbac222b	-0.0052530966
240	0xbdd0e242	-0.10199405
241	0x3b8d2f23	0.0043085977
242	0xbc3ae262	-0.011406513
243	0xbde06fa6	-0.10958795
244	0x3e0431e6	0.1290966
245	0x3d2d5a8a	0.042322673
246	0xbdeef2e4	-0.116674215
247	0x3d922fb4	0.07138005
248	0xbcc45a7a	-0.023968924
249	0x3d808fc0	0.06277418
250	0x3df3bd4f	0.11901342
251	0xbdb0f36b	-0.08640178
252	0xbde11dec	-0.10992035
253	0xbde58c73	-0.11208429
254	0xbdb8498b	-0.08998402
255	0x3debffb0	0.11523378

bias f4 [32]
0	0x3d030829	0.031990204
1	0x3b1e9814	0.0024199532
2	0xbd5ec82c	-0.054390118
3	0xbd7c5772	-0.06160683
4	0x3cc4d157	0.024025602
5	0x3c1946d1	0.009355263
6	0x3d82b460	0.0638206
7	0xbd246c12	-0.040142126
8	0x3dafc436	0.08582346
9	0xbd2ad3b4	-0.041705802
10	0xbd928ea0	-0.0715611
11	0x3dec03c9	0.115241595
12	0x3d9952ef	0.074865215
13	0xbd2684fe	-0.040654175
14	0xbddb4001	-0.10705567
15	0xbd80ff8d	-0.062987424
16	0xbd4d7f43	-0.050170194
17	0xbd3eb141	-0.04655576
18	0x3d0b529a	0.034014322
19	0xbd8d1eec	-0.068906635
20	0xbcf362e0	-0.029710233
21	0xbe046890	-0.12930512
22	0x3ca7b3d9	0.0204715
23	0xbdfdacd6	-0.123864815
24	0x3d2dba28	0.04241386
25	0xbd65dbdc	-0.056117877
26	0xbc99afb1	-0.018760534
27	0xbc9fd2d1	-0.019509705
28	0x3c9905ec	0.018679582
29	0x3dc3745c	0.09543678
30	0x3cbf5a1a	0.023358393
31	0xbdc9aa15	-0.09846894

weight f4 [8, 32]
0	0xbe1f2fbf	-0.15545557
1	0x3d85353d	0.06504295
2	0x3dfb2b0c	0.1226407
3	0x3e1dc456	0.15406927
4	0x3cad4238	0.02114974
5	0xbd85a5b3	-0.06525745
6	0xbd7d2130	-0.06179923
7	0xbd885afc	-0.06657979
8	0x3cc097c2	0.023509864
9	0xbd602b41	-0.05472875
10	0x3d98fe70	0.07470405
11	0xbdbf7b2e	-0.093496665
12	0xbc261bfc	-0.010138508
13	0xbe244a84	-0.1604405
14	0xbe00a2b6	-0.1256207
15	0xbce3aee9	-0.027793365
16	0x3d500e70	0.05079502
17	0x3e1b5d20	0.15172243
18	0xbb8ad7eb	-0.004237165
19	0xbe048a62	-0.12943414
20	0xbdd6d735	-0.10490266
21	0xbc750b48	-0.014956303
22	0xbdfaaf46	-0.12240462
23	0xbcebd033	-0.0287858
24	0xbdeba6f7	-0.115064554
25	0xbe075a43	-0.13218026
26	0xbe0310a5	-0.12799318
27	0xbd5ad0b9	-0.05342171
28	0x3e27aa8b	0.1637365
29	0x3d04c050	0.032409966
30	0xbddbd98b	-0.107348524
31	0xbcbfb069	-0.023399549
32	0x3dffb718	0.12486094
33	0xbba5959c	-0.005053235
34	0xbce09cb9	-0.027418481
35	0x3deeec10	0.11666119
36	0x3c394e74	0.011310209
37	0xbbb3e7c9	-0.0054902774
38	0x3e015ea0	0.12633753
39	0x3e118178	0.14209545
40	0xbd82a1b8	-0.06378502
41	0x3e00c516	0.12575182
42	0xbddcbb95	-0.10777966
43	0xbd163ccc	-0.036679074
44	0xbc371cbc	-0.011176284
45	0xbe2fcc7f	-0.17167853
46	0xbe037672	-0.12838152
47	0x3cb371ee	0.021904912
48	0xbe002484	-0.1251393
49	0x3e2eb1e5	0.17060049
50	0xbc7e1016	-0.015506765
51	0xbdb7d053	-0.089752816
52	0x3dfd4df8	0.12368387
53	0x3d7ea36c	0.06216757
54	0x3e0d0b80	0.13773918
55	0x3e046ccd	0.12932129
56	0xbcb42f3d	-0.021995181
57	0x3d2903ee	0.041263513
58	0x3d39e584	0.0453849
59	0x3d4155d8	0.047201008
60	0x3dad5eb9	0.084653325
61	0x3bbb7e1c	0.0057218205
62	0x3def86cb	0.116956316
63	0x3e34ff0b	0.17675416
64	0xbc1ee075	-0.009697069
65	0x3dbe5720	0.092939615
66	0x3d67ee10	0.05662352
67	0x3e1b6f48	0.15179169
68	0xbb8f24d2	-0.004368403
69	0x3e02c969	0.12772144
70	0xbdecb1dd	-0.11557362
71	0xbc2684ab	-0.010163466
72	0x3d650bab	0.05591933
73	0x3d3d387b	0.046196442
74	0xbe260b18	-0.1621517
75	0x3d6ffb18	0.05858907
76	0x3e2aa279	0.16663541
77	0xbd898b1c	-0.06715986
78	0xbe259411	-0.16169764
79	0xbe084a51	-0.133096
80	0xbdf6ea1e	-0.12056373
81	0xbdcbda53	-0.099537514
82	0xbd476a82	-0.04868556
83	0x3d7be348	0.06149605
84	0xbe0498d1	-0.1294892
85	0xbe1d7278	-0.15375698
86	0x3c84fb6e	0.016233172
87	0x3d83d4b1	0.06437052
88	0xbdfeaf94	-0.124358326
89	0xbdb68709	-0.08912475
90	0x3d19c3fe	0.03754043
91	0x3c2a4497	0.01039233
92	0xbcafc088	-0.02145411
93	0x3e0a557c	0.13509172
94	0xbdf5fc33	-0.12010994
95	0xbe177416	-0.14790377
96	0x3cf45f04	0.029830463
97	0x3a916295	0.0011092002
98	0xbc8dcd17	-0.017309709
99	0x3dd659b8	0.10466331
100	0xbe10a3ea	-0.14125028
101	0x3e1361a6	0.14392719
102	0x3dcd730e	0.100317106
103	0xbb3834a2	-0.0028107543
104	0xbdc83a9f	-0.09776806
105	0xbe1729c4	-0.14762026
106	0x3e0e5db6	0.13902935
107	0x3dd47a21	0.10374857
108	0x3d76946d	0.060200144
109	0x3dc06bd8	0.093955696
110	0xbd2a3a61	-0.04155958
111	0xbe057dd4	-0.13036281
112	0xbd41ca4c	-0.047312066
113	0x3d30c207	0.04315379
114	0xbe14fd7d	-0.14549823
115	0xbdbcded5	-0.09222189
116	0xbddf199a	-0.10893555
117	0x3d7b4bd0	0.061351597
118	0xbc972731	-0.018451305
119	0x3d6a9b20	0.057276845
120	0x3cc603e9	0.024171786
121	0xbd3d4073	-0.04620404
122	0xbe0db03a	-0.13836756
123	0xbe28eea1	-0.1649728
124	0x3dd0c529	0.10193855
125	0xbda1ed72	-0.07906617
126	0x3d3755b3	0.044759464
127	0xbdb48afc	-0.08815572
128	0x3e22112c	0.15826863
129	0xbc5e2291	-0.013558046
130	0xbe131c4c	-0.14366263
131	0xbd586f66	-0.052840613
132	0xbdf239d8	-0.11827439
133	0xb9d1884b	-0.00039965133
134	0xbe1988f1	-0.14993645
135	0xbd8a6a77	-0.06758588
136	0x3d05d08a	0.03266958
137	0xbdb1cba1	-0.08681417
138	0x3dc88f2c	0.09792933
139	0x3e077e44	0.1323176
140	0xbd23e5c6	-0.04001405
141	0xbe17fa14	-0.14841491
142	0x3dd976eb	0.10618385
143	0xbd948067	-0.07251053
144	0x3e0d84d8	0.13820207
145	0x39b31f43	0.00034164832
146	0xbe19bcfe	-0.15013501
147	0xbd754387	-0.059878852
148	0x3df894a1	0.12137724
149	0x3ca6cdde	0.020361837
150	0xbc4dc50a	-0.012559185
151	0x3e020213	0.12696104
152	0xbc49e579	-0.012322777
153	0x3d9158f9	0.07097048
154	0xbdc15519	-0.09440059
155	0x3d2127ff	0.039344784
156	0xbc0e0887	-0.008669025
157	0xbd3dddaa	-0.046353973
158	0xbb95f29b	-0.00457604
159	0x3dc38554	0.09546915
160	0xbb8f318e	-0.004369921
161	0x3e0bbb20	0.13645601
162	0x3e0e13a2	0.13874677
163	0x3e014f66	0.12627944
164	0x3db100d5	0.08642737
165	0x3d6cfe06	0.057859443
166	0xbbab8aa4	-0.005235033
167	0xbdb3e707	-0.08784299
168	0xbd5bdce9	-0.053677473
169	0xbafde84c	-0.0019371598
170	0xbe220c4f	-0.15825008
171	0xbcdbd71a	-0.026835967
172	0xbde4dde1	-0.111751325
173	0x3dc35169	0.09537012
174	0x3d078e52	0.03309471
175	0x3dedf65b	0.11619254
176	0x3e178c58	0.1479963
177	0xbdd33b04	-0.10313991
178	0xbdbb0692	-0.091321126
179	0xbd69a41e	-0.05704128
180	0xbe1e517e	-0.15460774
181	0xbe10f706	-0.14156732
182	0xbe12c1d1	-0.14331748
183	0xbc602b2c	-0.013682168
184	0x3b49972c	0.0030760271
185	0xbdffb5da	-0.12485857
186	0x3dfb1c0e	0.122612104
187	0xbdb73e6d	-0.08947454
188	0xbdbe6bd9	-0.09297914
189	0x3c8641fd	0.016388888
190	0xbddba449	-0.10724694
191	0xbdef64c1	-0.11689139
192	0x3c98c4d3	0.01864854
193	0xbe2549d5	-0.16141446
194	0xbe025450	-0.12727475
195	0x3da81b66	0.08208351
196	0xbd8936dc	-0.06699917
197	0x3c8611d0	0.016365916
198	0x3d88d108	0.066804945
199	0xbbaa67cc	-0.005200362
200	0xbdccd155	-0.100008644
201	0x3e0b0b87	0.13578616
202	0xbdd34c29	-0.10317261
203	0xbcd2f6b1	-0.025752397
204	0x3e10b51e	0.1413159
205	0x3d2b379b	0.041801076
206	0xbe0d4899	-0.13797225
207	0x3e15c9fd	0.14627834
208	0x3e3ae256	0.18250403
209	0x3d557925	0.052117486
210	0x3d82b51c	0.063822
211	0xbdbaca75	-0.09120647
212	0xbd99ff47	-0.075193934
213	0x3d150d52	0.036389656
214	0xbe0add54	-0.13560992
215	0x3bbcb6fc	0.005759118
216	0x3dafb202	0.08578874
217	0xbdddb281	-0.108250625
218	0xbe161b47	-0.14658843
219	0x3da12ac6	0.078694865
220	0x3dbbf0e0	0.09176803
221	0x3d710632	0.0588438
222	0xbda7a7d1	-0.08186305
223	0xbd09b0cc	-0.033615872
224	0xbd3e83cb	-0.046512406
225	0x3d3464a5	0.044041295
226	0x3ad4407f	0.0016193538
227	0xbc8ba52e	-0.017046537
228	0x3daaa756	0.08332698
229	0xbe21f688	-0.158167
230	0x3d4e9544	0.05043532
231	0xbde61ac2	-0.112355724
232	0xbe316f03	-0.17327504
233	0x3d4f43c8	0.05060175
234	0xbe0349d7	-0.12821136
235	0xbe1ea4cf	-0.15492557
236	0x3e1e88c6	0.15481862
237	0x3e093398	0.13398588
238	0x3ca5a649	0.020220893
239	0x3dcdd95c	0.10051224
240	0xbdd328b0	-0.10310495
241	0x3de2b960	0.11070514
242	0x3d5ddf1e	0.05416786
243	0xba9e8afe	-0.0012095866
244	0x3df1c32f	0.118048064
245	0xbc1bda35	-0.009512474
246	0x3db29617	0.087200336
247	0xbc0ea981	-0.008707405
248	0x3e1a8849	0.15091051
249	0xbe0167a6	-0.12637195
250	0xbe01a1b4	-0.12659341
251	0x3d5f08be	0.054451697
252	0x3d3e6005	0.04647829
253	0xbe115eeb	-0.14196365
254	0xbb9b55e5	-0.004740464
255	0xbc941e7b	-0.01808094

bias f4 [8]
0	0x3d79482e	0.06085985
1	0x3d04c898	0.032417864
2	0xbd948865	-0.07252578
3	0xbcc8d7a4	-0.024516888
4	0xbdc34b96	-0.09535901
5	0x3c092c84	0.00837243
6	0xbe1d8562	-0.15382913
7	0x3db5eaf7	0.088827066

weight f4 [1, 8]
0	0x3d297041	0.04136682
1	0xbe266b10	-0.16251779
2	0xbd552b68	-0.05204335
3	0x3e3d6e32	0.18499067
4	0x3e0c660e	0.13710806
5	0x3eb68c0c	0.35653722
6	0x3d8dace1	0.0691774
7	0xbe65185d	-0.22372575

weight f4 [8, 1]
0	0x3d6ccfd3	0.057815384
1	0x3f524631	0.82138354
2	0x3f3963b2	0.7241775
3	0x3da8c844	0.08241323
4	0x3f2b3d05	0.66889983
5	0xbf5edba3	-0.8705389
6	0xbcfa7210	-0.030571967
7	0x3e8b87bb	0.27251992

bias f4 [8]
0	0xbe943561	-0.28946975
1	0x3f660831	0.8985625
2	0x3ed4cbc8	0.41561723
3	0x3e834dee	0.25645393
4	0xbe5a7c97	-0.2133659
5	0xbee97e07	-0.45603964
6	0xbf548fda	-0.83032
7	0xbe7f7a75	-0.24949057

weight f4 [32, 8]
0	0x3e0ff7db	0.14059393
1	0xbe00d2c7	-0.12580405
2	0xbd54a962	-0.05191935
3	0xbe4d4363	-0.20045237
4	0xbea98fd6	-0.3311755
5	0xb9c064c2	-0.00036696164
6	0x3e7c3de0	0.24632978
7	0xbe148e23	-0.14507346
8	0xbe447da3	-0.19188552
9	0xbe651c86	-0.22374162
10	0xbe0ad331	-0.13557126
11	0xbe8f34c6	-0.2796995
12	0xbe00636a	-0.12537923
13	0x3d79f0b2	0.06102056
14	0x3dadadda	0.08480425
15	0x3e4bb49f	0.1989312
16	0x3daf028e	0.08545409
17	0xbd46ca66	-0.048532866
18	0x3db2fd45	0.087397136
19	0x3e6ced73	0.23137455
20	0x3e6a7ba9	0.22898735
21	0x3d8f045c	0.06983253
22	0x3e9c7a7f	0.30562207
23	0x3e9739ac	0.29536188
24	0x3dad2aa9	0.084554024
25	0x3e8a6546	0.2703039
26	0xbdc2cf8f	-0.09512245
27	0x3e8716da	0.26384622
28	0x3e967d2b	0.2939237
29	0x3de61398	0.11234206
30	0x3d85355f	0.0650432
31	0x3e73665e	0.23769519
32	0xbe277b2f	-0.16355585
33	0x3e7c897e	0.24661824
34	0x3d96e08b	0.07367047
35	0xbe48d657	-0.19613014
36	0xbdcebeb8	-0.100949705
37	0xbe6de696	-0.23232493
38	0xbeab9420	-0.33511448
39	0x3cbd089c	0.023075394
40	0xbe2ede86	-0.17077073
41	0x3e761d56	0.24034628
42	0xbd856862	-0.0651405
43	0xbc50d45c	-0.012745943
44	0x3e123fdb	0.14282171
45	0x3eaab0d8	0.33338046
46	0x3b626b83	0.0034548945
47	0x3ba09425	0.0049004727
48	0xbe37e793	-0.17959432
49	0xbdf94981	-0.12172223
50	0xbe917a92	-0.28413826
51	0x3d6d194f	0.057885464
52	0xbe3f08c0	-0.18655682
53	0xbda65df0	-0.08123386
54	0xbdd4a7a5	-0.10383538
55	0xb9b82ec1	-0.0003513005
56	0x3d2e858d	0.042607833
57	0x3e9d92fa	0.30776197
58	0x3e39a408	0.18128979
59	0x3e6646f3	0.22488002
60	0x3da5be22	0.080929056
61	0xbe850ee8	-0.25987935
62	0x3e74d17d	0.23908038
63	0xbe4b1c80	-0.1983509
64	0xbdc718de	-0.0972154
65	0xbe1ea6a5	-0.15493257
66	0x3e9dce1d	0.30821314
67	0xbd2206a8	-0.03955713
68	0x3da9e32d	0.082952835
69	0x3e1e4ec0	0.15459728
70	0xbe3b53ca	-0.18293682
71	0xbe14f5ee	-0.1454694
72	0x3dd476c0	0.10374212
73	0x3e7a24e6	0.24428138
74	0x3ea0788a	0.31341964
75	0xbd8fe3d2	-0.07025875
76	0x3e8f5050	0.2799096
77	0xbe8fc5d8	-0.2808063
78	0x3e13e484	0.1444264
79	0x3ea57723	0.32317457
80	0x3c37362a	0.011182347
81	0x3e8428e0	0.25812435
82	0xbd20e105	-0.039277095
83	0x3eb7f900	0.3593216
84	0x3d5ef6de	0.05443465
85	0xbd1e42be	-0.03863787
86	0xbe987cb2	-0.29782635
87	0xbe34c1cd	-0.17652054
88	0x3e32de3b	0.17467587
89	0xbdf59c49	-0.119927
90	0x3e9798c1	0.2960873
91	0x3db457f1	0.08805836
92	0xbe7a95c8	-0.244712
93	0xbd1918ca	-0.037377156
94	0x3e205abf	0.15659617
95	0x3e3e13b2	0.185622
96	0x3d9515e5	0.07279567
97	0x3ea3c565	0.31986538
98	0x3e9eaf21	0.30992988
99	0x3ea530ef	0.32263896
100	0x3d82359e	0.06357883
101	0xbdd848cb	-0.10560759
102	0x3b928984	0.0044719595
103	0x3d75d960	0.060021758
104	0xbe670f5b	-0.22564451
105	0xbe359f89	-0.17736639
106	0x3eb0fe5a	0.34569055
107	0xbea600fd	-0.3242263
108	0x3e118416	0.14210543
109	0x3e9fd7f8	0.3121946
110	0xbe4a5123	-0.19757514
111	0xbb723182	-0.0036955778
112	0xbe94bab7	-0.29048702
113	0xbcd5e4d1	-0.026110085
114	0xbea216e5	-0.31658092
115	0x392f8f04	0.00016742578
116	0x3e2227f7	0.15835558
117	0xbe39d1de	-0.18146464
118	0x3e235006	0.15948495
119	0xbe6c680e	-0.23086569
120	0x3dbd8ce7	0.092553906
121	0xbe1ac14f	-0.15112804
122	0x3e8f3c0b	0.27975497
123	0x3de7f81d	0.11326621
124	0x3eaa3039	0.33239916
125	0xbe336092	-0.17517307
126	0xbe98c358	-0.29836535
127	0xbc7e98e5	-0.015539383
128	0x3e0ef19c	0.13959354
129	0xbe491666	-0.1963745
130	0xbe258bda	-0.1616663
131	0xbeaefd7f	-0.34177777
132	0xbe863f75	-0.2622029
133	0xbeb0df7b	-0.34545502
134	0xbdc13488	-0.09433848
135	0x3e828bea	0.2549737
136	0x3e81e37d	0.25368872
137	0x3ea6ba2c	0.32563913
138	0x3e4a9541	0.19783498
139	0x3db64f3b	0.08901831
140	0xbe7eb3fb	-0.24873345
141	0xbb8a7274	-0.0042250697
142	0x3da36da8	0.079799
143	0xbe350bcb	-0.1768028
144	0xbd83c87c	-0.06434724
145	0x3df4d2bc	0.11954257
146	0xbe066928	-0.13126051
147	0xbe1ec7f4	-0.15505964
148	0xbd2b927f	-0.041887756
149	0x3ddd8974	0.10817233
150	0x3e69264e	0.22768518
151	0xbea61d6c	-0.32444322
152	0xbcba4f14	-0.022742786
153	0xbeac1e26	-0.3361675
154	0xbddb959f	-0.10721897
155	0xbdbfb13c	-0.09359977
156	0xbe9d8b10	-0.3077016
157	0x3e930eb1	0.28722146
158	0xbce061cc	-0.027390383
159	0xbdfa67e2	-0.12226845
160	0xbe623c4b	-0.22093312
161	0xbe9dc839	-0.3081682
162	0x3e8b8c32	0.27255398
163	0x3d03e9e2	0.03220547
164	0x3e4a4a1f	0.19754837
165	0xbe133283	-0.14374737
166	0xbe1b2ee9	-0.15154614
167	0xbdbe9190	-0.093051076
168	0x3e2022fb	0.15638344
169	0xbd9b5b25	-0.07585744
170	0x3e37ea1e	0.17960402
171	0x3dfbdeae	0.12298332
172	0x3de54f2e	0.11196743
173	0xbe10caa7	-0.14139806
174	0x3e9854c8	0.29752183
175	0xbe053ede	-0.13012263
176	0xbe110e6d	-0.14165659
177	0x3eaf8eb4	0.3428856
178	0x3e26d736	0.16293034
179	0x3eac29e2	0.33625704
180	0xbe1f8523	-0.15578131
181	0xbe816c51	-0.2527795
182	0xbe47f5ce	-0.19527361
183	0x3d3fd609	0.04683498
184	0x3d7e5f0c	0.062102363
185	0xbcbe79b9	-0.023251401
186	0x3dfc9cf8	0.12334627
187	0xbe4682d3	-0.19385843
188	0xbdbc5ba4	-0.091971666
189	0xbdf4fab2	-0.11961879
190	0xbe000e17	-0.12505375
191	0x3d47c442	0.04877115
192	0x3eaf0413	0.34182796
193	0x3e9217ea	0.2853387
194	0xbea6ce54	-0.3257929
195	0x3e8cd902	0.27509314
196	0x3e15f740	0.146451
197	0x3e534daa	0.20635095
198	0x3d10d7c1	0.03536201
199	0xbe741c2b	-0.2383887
200	0xbe560c84	-0.20903212
201	0x3ea766aa	0.32695514
202	0xbe2490db	-0.16070883
203	0x3eb0ab79	0.34505823
204	0xbe95e926	-0.2927944
205	0xbe46cef4	-0.19414884
206	0x3dc4540e	0.09586345
207	0x3e429216	0.1900104
208	0xbe476554	-0.19472247
209	0xbe619fd4	-0.22033626
210	0xbdc9f602	-0.098613754
211	0x3ea10589	0.31449535
212	0xbe08b107	-0.1334878
213	0xbc6ceef3	-0.014461267
214	0xbe25e691	-0.16201235
215	0xbb5da130	-0.0033818
216	0xbe6b2b63	-0.2296577
217	0x3dd9d0e0	0.10635543
218	0x3dd480cc	0.103761286
219	0x3c9fe2cc	0.019517325
220	0xbe85bb60	-0.26119518
221	0x3e64f351	0.22358443
222	0x3d197928	0.03746906
223	0xbe90ccbd	-0.28281203
224	0xbe229c39	-0.15879907
225	0x3d84c97d	0.06483743
226	0xbe458293	-0.19288091
227	0x3e747f0a	0.23876587
228	0xbead050a	-0.33792907
229	0x3dc71e0e	0.09722529
230	0xbc0de5d7	-0.008660755
231	0x3e4f24fd	0.20228954
232	0xbc42503b	-0.011859949
233	0x3e9370ad	0.28796902
234	0x3e1ba599	0.15199889
235	0x3dae4010	0.08508313
236	0xbe78ae89	-0.2428533
237	0x3dbf614e	0.09344731
238	0x3d4708d6	0.04859241
239	0xbe9df7ec	-0.30853212
240	0x3c696a44	0.014246527
241	0xbe577408	-0.21040356
242	0xbc9e1098	-0.019295022
243	0x3e78ec00	0.24308777
244	0xbe8cca2d	-0.27497998
245	0xbd2a28e3	-0.0415429
246	0xbe9b9c9b	-0.30392918
247	0xbb9a63d3	-0.004711607
248	0xbe4310cc	-0.19049376
249	0x3eae7d3a	0.34079915
250	0x3e1ca83e	0.15298554
251	0xbe9f690c	-0.31134832
252	0xbe74f76f	-0.23922513
253	0xbe9017e9	-0.28143242
254	0xbe5a3fcf	-0.21313404
255	0x3e216e83	0.15764813

bias f4 [32]
0	0xbe9d4200	-0.30714417
1	0x3e4689f3	0.19388561
2	0x3d9163b8	0.07099098
3	0x3e75d98b	0.24008767
4	0x3e149999	0.14511718
5	0x3ea756be	0.32683367
6	0xbd8720d0	-0.06598055
7	0xbe84c072	-0.25928074
8	0xbd3c1295	-0.04591616
9	0xbeb03c40	-0.34420967
10	0x3e904327	0.28176233
11	0xbe205a03	-0.15659337
12	0x3e364075	0.17798026
13	0x3d03387e	0.032036297
14	0x3e02641d	0.12733503
15	0x3e9b86f0	0.30376387
16	0x3d548a04	0.051889434
17	0xbdd28731	-0.10279692
18	0xbe4dc1e4	-0.20093495
19	0xbe958036	-0.2919938
20	0xbe5eee57	-0.21770607
21	0x3eae7f5f	0.3408155
22	0x3e58bdc9	0.21166147
23	0x3e1b7e51	0.15184905
24	0x3e90f0a1	0.28308585
25	0xbc078017	-0.008270285
26	0xbea09c0b	-0.3136905
27	0xbe140d20	-0.14458132
28	0x3d739202	0.059465416
29	0x3e373582	0.17891505
30	0x3e403c5d	0.18773027
31	0xbd1f7d28	-0.038937718
