model/1019.923303604125977.pt (torch_old, 168315 bytes, 19 tensors)

weight f4 [256, 2]
00000000: 90a4 32be c970 2b3f 611b d63e aeb3 0a3e
00000010: 4f9d b6be f77c 1fbd 1680 2d3f 3fbb ffbe
00000020: 41fd edbe 2f87 7fbe d7b9 bfbe c6fe 093f
00000030: 6735 483e 600d 1c3f 7e83 63bd 8fd8 97be
00000040: 7057 8b3e 8fad c13c 5c0c b83e 3adf 76be
00000050: 6d04 9bbe a543 e53e dc9f 09be bf70 b0be
00000060: 5018 f2be f49f 24bf 9bd8 a73e 5815 7dbd
00000070: 46e9 afbe dc4a 333f a005 953e 14d4 81be
00000080: 4e2a 4cbd ee90 9f3e a055 1d3f 26df 973e
00000090: 921e 2bbf 73ce 6cbc be91 a23e 0634 f5bd
000000a0: 6229 483e 02ba 07bf c835 aa3e 6a3f 303f
000000b0: bdc1 b73e b06c 593d a6bf 33bf c50a 44be
000000c0: ab56 f1be 6f51 3abf 4491 3f3e 5a4f e3be
000000d0: d9ca 9f3d 18a4 313f b343 5d3d 5f84 603d
000000e0: 7f05 bcbe 1bd9 103f 210a debe 5712 1b3f
000000f0: 4b05 f7be 2f74 01bf 20fa 283f fcbc f63d
00000100: 81db 1b3f bcca e63e 7ed6 69be a932 1a3f
00000110: 0a68 34bf 6f8a 74bd 0093 23bd 8599 963e
00000120: d225 3d3f b741 91bc fb37 e0be 38d5 ce3e
00000130: 1484 a03e 9b31 17bf f68b 24bf c2f6 c4bd
00000140: 21a7 32bf 278f d83e 3c1f 983e 1eb3 f73e
00000150: 318e 51be b9bd 0abe 4251 aabe b1e2 aabe
00000160: 221c 323f faca c73d 3608 15bf a78a 0fbe
00000170: cac8 f0be 65af f63e 885f 1e3f c9e0 39bf
00000180: 8b46 b43e 9b3a 05bf eaab 5dbe 715b e93d
00000190: 0a14 41be c197 f93e 1382 f03e f9d0 f93e
000001a0: 104c 2e3f 3559 923d ee14 a33e 30a6 3dbe
000001b0: c0ed e7be 25b2 013f a624 2bbf c442 fe3e
000001c0: e22b b73e 15ea a53e 9bc5 2cbf 02fd 693e
000001d0: 5777 cebd c4e1 fa3e 6d64 1ebf d75e 1cbf
000001e0: 1dd0 38bd 7cbd 3a3e 3a67 a13e 7165 113f
000001f0: ce4f b13e b857 d93e 69f9 a0be 4060 b33e
00000200: 29a3 f8bd 93c9 923e b128 bcbe c06e 82be
00000210: 34a7 d73e 6db0 1abf 88d7 2fbf bee6 49bd
00000220: 0425 fdbe 80ab dc3e 00b5 a9be dfec 173d
00000230: 2401 2fbf 7c90 1f3c d153 fd3e bb49 37bf
00000240: 2a8b 0d3f bf5b 59be 8892 403e e24c 9b3e
00000250: d0e0 e2be 5287 133f 2a4c cfbe 4ab9 a13e
00000260: f7b2 b0bd fa84 e83d db8c b4bd d451 1fbf
00000270: 0b68 10bf 4b5a a3bd 67b0 a6be 5901 633e
00000280: a2a4 b53e 6554 e5be 3089 06bf b261 e2be
00000290: 3d56 733e 9314 d63c 741c fb3e ae72 ea3e
000002a0: eb31 733e 723d cebe 166f ca3e 69ac 25bf
000002b0: 905a 233f 2f52 0e3e c18a afbe 0963 e3be
000002c0: b537 02bf 4a9d ee3e e9b1 0abe dd52 323f
000002d0: 454c 873e 9b2d 843e c3f3 253e 2127 49be
000002e0: 1999 353f 34ec 243f cede 07bf 64d1 cc3e
000002f0: 9edf c43e 1d60 16be 246b d03e 60d1 373f
00000300: 146b 40bd aa83 383f c748 b23e 54f2 0dbf
00000310: 71f7 65be f8c1 a0be 5fe0 a1be 6dcf 003e
00000320: df82 3f3f daff 9dbd 81dd c43e 2beb 21bf
00000330: b4e2 113f 6d07 b63e 0a2f 34bf 685e 0cbf
00000340: 62b5 643e b75e 1f3f 0774 02bf c4c0 fe3e
00000350: 3958 06bf 6342 b0be 6b41 0cbf 3cab 203f
00000360: ac66 1dbf d653 fcbe 81d9 c5bd 3c6d d6be
00000370: fbc5 39be ddcf 043f 289b 1dbf aba1 8cbe
00000380: ba4f 0f3f cd2e 0a3f cabc 7abe 8c19 26be
00000390: 2528 93be d0c7 3b3e 3518 dcbe 7533 11bf
000003a0: e9af 0cbe 7220 7a3e 981b d8be dce5 203f
000003b0: 359d bcbe d3ad 993e 6afd cebe c723 05bf
000003c0: 1db5 95be aa13 b5bd 3a22 1d3f 1670 d3be
000003d0: a2a7 ea3e cda4 233f d814 283f 71d4 27be
000003e0: 52db 2d3f 3a18 d3be a35d d73d e4c3 2b3e
000003f0: 36b0 2bbf 1439 283f acf0 183d 0d87 0e3f
-0.17445588 0.6696897 0.41817763 0.13545105 -0.35666892 -0.038937535 0.6777357 -0.49947545
-0.4648228 -0.24953912 -0.37446472 0.5390438 0.19551621 0.6095791 -0.055545323 -0.2965741
0.27215147 0.02364233 0.3594693 -0.24108592 -0.30276814 0.4477817 -0.13439888 -0.34461018
-0.47284174 -0.6430657 0.32782444 -0.061787933 -0.3435766 0.700361 0.29105854 -0.25357115
-0.049845032 0.3116526 0.6145878 0.29662436 -0.6684352 -0.014453518 0.31751817 -0.11972813
0.19547036 -0.530182 0.33244157 0.6884676 0.35889998 0.053082168 -0.7021431 -0.19144733
-0.47136435 -0.7278051 0.18707758 -0.44396478 0.07802362 0.6939101 0.05401964 0.05481374
-0.36722943 0.56581277 -0.43367103 0.6057486 -0.48246226 -0.5056791 0.6600666 0.12047765
0.6088181 0.4507655 -0.22835729 0.6023355 -0.7047125 -0.059702333 -0.039935112 0.29414
0.73885834 -0.01773153 -0.4379271 0.40397048 0.31350768 -0.59060067 -0.64276063 -0.09617378
-0.6978627 0.42296717 0.2971133 0.48378843 -0.20464398 -0.13548936 -0.3326512 -0.33376077
0.6957418 0.097555116 -0.58215654 -0.14017735 -0.4702819 0.4818069 0.6186452 -0.7260862
0.3521007 -0.5204255 -0.21647611 0.11394394 -0.188553 0.48748592 0.4697424 0.48792246
0.6808481 0.07145921 0.31851906 -0.18520427 -0.45298576 0.5066245 -0.66852796 0.49660313
0.35775667 0.32405153 -0.6748902 0.22850421 -0.10081356 0.4900037 -0.6187199 -0.61082214
-0.045120347 0.18236345 0.31524068 0.5679541 0.346312 0.42449737 -0.31440285 0.3503437
-0.12140495 0.28669414 -0.36749795 -0.2547512 0.42119753 -0.60425454 -0.6868825 -0.04929232
-0.49442303 0.43099594 -0.33145905 0.037091132 -0.68361115 0.009739038 0.4947801 -0.7159688
0.5529047 -0.21226405 0.18805897 0.30332094 -0.44312143 0.5762836 -0.40487796 0.31586677
-0.08627885 0.11353488 -0.088159285 -0.62234235 -0.56408757 -0.079762064 -0.3255646 0.22168483
0.35477167 -0.4479095 -0.5255308 -0.4421516 0.23763366 0.026132857 0.49045146 0.4579062
0.23749511 -0.40281254 0.39537877 -0.647162 0.6381006 0.13898538 -0.34285548 -0.44411495
-0.5086625 0.46604377 -0.1354443 0.6965769 0.26425377 0.25816044 0.16206269 -0.19643833
0.70936733 0.6442292 -0.5307435 0.40003502 0.38451856 -0.14685102 0.40706742 0.71803856
-0.046977118 0.72075903 0.3482115 -0.5544789 -0.22457673 -0.31397986 -0.31616494 0.12579127
0.7480907 -0.077148154 0.38450244 -0.6324946 0.56986547 0.3555254 -0.70384276 -0.5483155
0.22334817 0.622539 -0.50958294 0.49756444 -0.5247837 -0.3442565 -0.5478732 0.6276128
-0.6148479 -0.49282712 -0.09660626 -0.41880214 -0.1814193 0.51879674 -0.61564875 -0.27467093
0.5598103 0.5397766 -0.2448608 -0.16220683 -0.28741565 0.18337941 -0.42987218 -0.5671914
-0.1373898 0.2442644 -0.42208552 0.6285074 -0.3683869 0.3001543 -0.40427715 -0.52007717
-0.2923974 -0.08841641 0.6138035 -0.41296452 0.4583102 0.6392334 0.65656805 -0.16389634
0.6791278 -0.4122942 0.10515907 0.16773945 -0.6706575 0.65712094 0.037338898 0.5567482

bias f4 [256]
00000000: 98bc c23d 64e3 f83d 9f38 1e3f f971 4b3e
00000010: 7307 033e 46bc 3e3e 71c0 99be b9a1 d83b
00000020: cb14 1ebd 1c9d 823e 0cd5 e7be b88e b93e
00000030: c485 9a3d c08f 24bf 5e4a 0f3f 9ec3 95bc
00000040: c582 f7be 6bd9 183f 0544 a23e 44dd 03bf
00000050: ff32 5abe 9897 163e f40f a4be 90a8 1ebe
00000060: 757b d3bc 4f07 2f3f 3a58 fc3e 978d be3d
00000070: d9d4 0abf e8d2 d8be a3e7 d5bd 0c53 313f
00000080: 33b0 9ebc c05f 56be 5438 ce3d 51dd 2e3e
00000090: c1b1 a43d 82d9 0d3f 7c98 0b3f 0e29 f8be
000000a0: 0689 30be d7a5 0f3f db8e d4be 7a3a 11bf
000000b0: 7764 34bf dc96 ad3e ab4b b0be a553 023f
000000c0: c64d 823d 3ef4 07bf 8cc1 8bbe bbd2 84be
000000d0: 5b1b dabd 19cd 7abe c62a 5cbe cd92 2b3f
000000e0: 03a5 cf3e 1a1a 1ebe b85f ddbe ccf2 29bf
000000f0: 4137 81bb b7c7 a6be 4390 90be 3825 3c3f
00000100: b69a 053f 4182 b73d 018b 1bbf 7201 0abf
00000110: 3751 013f 6b15 373f 9cb3 363e f51d 613e
00000120: 6136 30be 9a79 523e e6ea ba3e 15b1 e03e
00000130: d54c f33e aecc d53e adc6 2c3f 2f05 033f
00000140: ec67 e7be 3341 8abe 5fb4 9e3e 2a1c 8bbe
00000150: 56b3 053d 604b a6be 0929 333f 03ba 3a3e
00000160: beea 8fbd 4e2e 0bbf 6cf3 ffbe 09ea a6be
00000170: 4fe2 a2be 39c9 353f f94f 11bc b8ea d5be
00000180: 0b88 1fbc 76f5 c03c f9dc 30be f06a afbe
00000190: 063e 21bf 421a 763e b5c0 c5be 7a38 113e
000001a0: c0a2 94bc 2e62 2e3f 6d38 8f3e 8ed7 113e
000001b0: cd39 51be 12a3 fb3e e480 9b3c 6c33 dabd
000001c0: 8628 963c 4c47 433e 74a7 f8ba 1fe8 20bf
000001d0: 0d48 eb3c be89 8b3e 7edd ffbe ff71 71be
000001e0: 0f7e 1a3f 86af 88bd 8e6e cbbe 1aee b0be
000001f0: 2e10 0dbf bdb6 f53e d52c cd3d 8ae7 3a3f
00000200: ee03 043f 76f4 06bf 55fb 0c3e b19e a03d
00000210: 88dc d9be f718 103f 09e0 f33e a423 74be
00000220: 8c5e e63e e47a 0abf 0dc4 123d 168f 063f
00000230: d9d9 3cbe e88b 33bd 4faf 463e 1189 353f
00000240: 9395 b93e deee f93c 97d9 5dbe f9e1 1e3e
00000250: e3aa 46be 42bc b1bd 9457 c63e a5b0 ff3e
00000260: 9d79 bc3d 4b7e d4be 2423 d53e 9181 0abf
00000270: 1036 cabd 1cfc 7cbe f3ac 173f 26b6 353f
00000280: 78bb 0cbf a4ba 0fbe 8e90 313e e46d e83e
00000290: 4a49 3bbe 0a91 8ebe 1f02 30be c23b 60be
000002a0: 6953 0b3f 7775 723e 9c18 f73e b1aa da3d
000002b0: e204 b93e 2a99 0d3f 333c 0ebf 5e54 65be
000002c0: 3ea0 1f3f 4d1c 0a3f dbd9 e4be 2acf 76be
000002d0: f28e e53e 2985 88be 8e17 babd 8b82 f2be
000002e0: 5299 d83e 77d5 993e e018 1fbf 8e82 8fbe
000002f0: bcb8 88be afc0 b83e e0ec 013e d9da 033e
00000300: 3816 67be b02f af3e 99b4 9f3e 65b7 aabe
00000310: 5c93 d7be 6b49 d4be f775 13bf bf99 673e
00000320: 62ab 04bf 8db5 91be 2212 15bf d421 023e
00000330: ad6c b3be 801e d13e 3ffc 883e a486 25be
00000340: fe44 cfbe f458 06be 695a 66be 978e 283e
00000350: e7a5 b63e ad11 d0be 05e7 97be a483 d13e
00000360: 0a19 063f ad7e 04be 1ffd fbbe e6f2 913e
00000370: ea75 143f 8a12 023e 41cb 853e 21c7 9b3e
00000380: 8782 143f 9128 35bd 5232 1f3f f260 0bbf
00000390: 32a8 af3e b381 4f3e a4ec 05bf 4807 f53e
000003a0: 8bda 61be e2eb 043f dbe6 cf3e c4df 2c3f
000003b0: d916 a7bd 1d73 263f 5eea eebe 03d0 203f
000003c0: eac0 4c3e aa93 183f 5fb5 323f 8fb3 bb3e
000003d0: 39ab f13e 1472 373e 866f 88bd 8f64 3cbe
000003e0: c4ca 013f f086 1d3f 58cd 05bf bec4 fabe
000003f0: a484 073f 0df1 223c 62d6 a43c b2b3 d33e
0.09508628 0.12152746 0.61805147 0.19867696 0.1279581 0.18626508 -0.30029634 0.0066110757
-0.03859405 0.2551049 -0.4527973 0.36241698 0.07545045 -0.64281845 0.5597285 -0.018281754
-0.48341957 0.59706753 0.3169252 -0.515095 -0.21308516 0.14706266 -0.3204342 -0.15493989
-0.025815705 0.6837053 0.49286062 0.0930435 -0.5423103 -0.4234841 -0.10444572 0.69267344
-0.019371128 -0.20934963 0.100693375 0.17076613 0.08041716 0.55410016 0.5452955 -0.48468822
-0.1723977 0.56112427 -0.4151524 -0.56729853 -0.704658 0.3390416 -0.3443273 0.5090888
0.0636249 -0.5310706 -0.27296102 -0.25942025 -0.10649749 -0.24492301 -0.21500692 0.67020875
0.4055558 -0.15439644 -0.4323709 -0.66386104 -0.0039433544 -0.32574245 -0.28235063 0.7349429
0.52189195 0.08960391 -0.6075898 -0.53908455 0.5051455 0.71517056 0.17841953 0.21984084
-0.17208244 0.205542 0.36507338 0.43885103 0.47519556 0.4175772 0.67490655 0.51179785
-0.45196474 -0.27002868 0.30996987 -0.27169925 0.03264173 -0.32479382 0.6998449 0.1823502
-0.070271954 -0.5436753 -0.49990404 -0.3260043 -0.31813285 0.71010166 -0.008869165 -0.4178064
-0.009737025 0.023554545 -0.17271794 -0.34261274 -0.62985265 0.24033454 -0.38623586 0.141817
-0.018144011 0.6811856 0.27972737 0.14242384 -0.20432205 0.4914785 0.018982358 -0.10654339
0.01832987 0.19070166 -0.0018970803 -0.6285419 0.02872088 0.27253526 -0.49973673 -0.23578642
0.603486 -0.066741034 -0.39732784 -0.34556657 -0.55102813 0.4799098 0.10018317 0.7300955
0.51568496 -0.5271677 0.1376775 0.07842768 -0.42551064 0.56288093 0.47631863 -0.23841721
0.4499401 -0.54093766 0.0358315 0.5256208 -0.18442477 -0.043834597 0.19402812 0.7091227
0.3624693 0.030509409 -0.21665035 0.15515889 -0.19401126 -0.086784855 0.38738692 0.49939457
0.092028834 -0.41502604 0.41628373 -0.5410395 -0.09873593 -0.24705547 0.59248275 0.7098106
-0.54973555 -0.14036041 0.173403 0.4539634 -0.18289676 -0.2784503 -0.17188309 -0.21897796
0.5442415 0.23677622 0.48260963 0.10677088 0.36136538 0.55311835 -0.55560607 -0.22395465
0.62353885 0.53949434 -0.4469746 -0.24102464 0.4483562 -0.26664093 -0.09086524 -0.4736522
0.42304474 0.30045673 -0.6214733 -0.28029293 -0.2670344 0.36084506 0.12688017 0.12876453
-0.2256707 0.3421607 0.31192473 -0.33343044 -0.42104614 -0.41462263 -0.57601875 0.22617243
-0.5182401 -0.28458825 -0.58230793 0.12708217 -0.3504385 0.40843582 0.26754948 -0.16164643
-0.40482324 -0.1311987 -0.22495426 0.16460644 0.35673448 -0.40638486 -0.2966844 0.40920746
0.52381957 -0.12938948 -0.49216554 0.2850563 0.5799242 0.12702385 0.26131633 0.3042536
0.5801167 -0.04422814 0.6218616 -0.544448 0.3430801 0.2026432 -0.5231421 0.47857118
-0.22056024 0.5192243 0.40605816 0.6752894 -0.08158655 0.650194 -0.46663183 0.628174
0.19995466 0.5960032 0.69808 0.3666043 0.47200945 0.17914611 -0.066618964 -0.18397735
0.5070002 0.61534023 -0.52266455 -0.48978227 0.5293677 0.009945166 0.020121757 0.41348034

weight f4 [64, 256]
00000000: aac7 923c 2873 a23c 06fb 7b3d 8c47 f33d
00000010: 5155 ff3b bde4 283d 576f 013d 31b4 1f3d
00000020: 3c26 c33d 577a ec3d ed63 cc3c 1f0c 27bc
00000030: 55d7 1a3d 8e43 5d3d 6f92 b03c 9aab 453d
00000040: 1e2e 083b cbd2 823d 5a8b 35bd 989b 853d
00000050: 637c e33c ae96 8dbc d516 a73d ca1a dd3c
00000060: 1b60 debc f8fa 593d 6f21 323d 01e1 923d
00000070: 5e69 c9bc fef4 863d 1c75 673c 8a22 843d
00000080: 4427 ec3c 44ae ee3b a0c3 adbc 1211 f63c
00000090: 646c a73d b1f2 6c3d ead6 363d 7a5f a53c
000000a0: a984 da3c 6d75 883d 12bd 97bc e64d 0c3d
000000b0: 6005 8c3b b43b 903b b92b 573d b75a be3c
000000c0: ae61 d53c f168 833d 85c3 78bc 0f4c 843d
000000d0: 3032 373d 57d3 263d 7256 0abd 3be8 813d
000000e0: c737 90bc 4734 7abc 04fd f03a 4273 093b
000000f0: 8556 a03b 3e29 9d3c bf13 423c bff0 ef3c
00000100: 048f 43bd 4833 babc 29ae fc3d 2634 f03b
00000110: dd50 3f3d e07d 76bb c9ba 063c 7a73 b53d
00000120: aa68 1a3d 1b30 743d bb13 a6bb e04c ecbb
00000130: 9ac6 783d 15a1 de3b a930 6b3d 6860 bc3c
00000140: 76aa db3d a4ac 37bd 9e2d 533d 7536 fa3c
00000150: 62ae 483d 6c48 9d3c 286a ac3d fcd6 2c3c
00000160: 4f89 2cbd c2b2 3dbd d4a1 113d b140 a73d
00000170: 12c1 0fbd 19ba 0a3d c218 e13c 4667 613c
00000180: 4990 40bd 51ce 873d 4974 e93c dede 5b3c
00000190: aaf2 613d ef24 993d 8348 cdbb 714b 2fbd
000001a0: bf69 1ebd ffa7 6abc 88a0 e0bb f38a 5fbd
000001b0: c098 2e3b ae0d 71bc 8734 2e3c c14c c1bb
000001c0: d990 5c3d fa4b 6dba 09c6 7d3d bda3 8fba
000001d0: f414 d9bc 4bfe 1fbd de6f a1bc bada c6ba
000001e0: 66b6 68bc 120f ee3d 12a8 143c 19dc 943b
000001f0: 3147 533d 6022 11bd 4501 d6bc ecf9 503d
00000200: cecf eebc 0047 413d 2a4d e23c 31a0 993c
00000210: ac50 913b f56d 0b3c 42e5 ba3d 19e7 1a3d
00000220: 4140 ac3c 45c7 5f3d 3a3c ac3b a5f1 9cbb
00000230: 727d 303d b05d 083b 3c3d 12bd ecc2 c4bc
00000240: 616b b33c 787b d5ba 6822 9dbc b11f ad3b
00000250: 48fb 15bc 1464 353c 8e30 633d aa22 bfbc
00000260: 015f 25bb 4aa9 973d 51e2 c6bc 8a5c cf3c
00000270: cc9c 143d c177 963d f3ba ccba 2ed3 62bc
00000280: ed97 f63c ec66 5dbd 7855 7f3c 2eb4 b83c
00000290: 3364 5bbc 15ed bb3b a81c 3a3b af98 a83d
000002a0: 7ce5 e23c 2216 8bba fed5 02bb 2c93 5ebd
000002b0: 1778 5a3d 5ec8 7f3c e8ee 42bb d317 b23d
000002c0: 27a8 6e3c 914d 11bc 2e4e 083c 9f4c c03b
000002d0: bffa abbb 0b51 bd3d 04b2 2cbd 4a0b 46bd
000002e0: 7a8f a7bc 45c4 013d e2d8 3f3d 0bfb 4c3d
000002f0: fee6 5a3d 9b76 283c 6226 a03c e6d8 4f3d
00000300: cc65 23bc 1d3a f63d ca83 debc 7251 863d
00000310: 0282 883d 6744 21bd 8c1e 18bc 2038 cdbb
00000320: a0be 06bb 4c4a ed3c be92 983d 06d8 313b
00000330: f07e a5bc 4240 0e3a 03ee b43d f4cf 53bd
00000340: 0838 783c f282 083d 9a96 adbb 39dd 783d
00000350: 9168 af3c 3831 2dbd 38cb 8e3d bc43 c93d
00000360: 2bcf 773d 3524 633d 6b1b 53bd c465 49bd
00000370: f60c 583c bb3f 263c 7da4 083d 7872 f6bb
00000380: 863f cb3c 03ef 423d a669 4fbd 8d0f 10bd
00000390: 80ce 313c d2a9 15bd 02a3 c63d eec4 803d
000003a0: e302 0b3d d46a 5d3b a9e8 80bb 6c3c 8a3c
000003b0: 69c7 cf3a 721c 163d 3f7d 323c f03d 423c
000003c0: 2e19 18bd fafb f2bb 7a51 393d ea07 553c
000003d0: 5337 363d 34eb 133d 8656 a53c a919 083d
000003e0: 66ee f43d 631b 3abc 0d0e 1cbd 3841 103d
000003f0: 3e1b 883d 2e76 d2bb e99f 14bc 0108 1dbd
0.017917473 0.019830301 0.06151869 0.11878881 0.007792153 0.041233767 0.031600323 0.038990203
0.09528777 0.11546772 0.024949992 -0.010195761 0.037803013 0.054019503 0.0215542 0.048259355
0.002077944 0.06387862 -0.04432235 0.06523818 0.027769273 -0.017283764 0.08158652 0.026990313
-0.027145436 0.053217858 0.043488916 0.07171822 -0.024586376 0.06589697 0.014127042 0.064519
0.028827317 0.0072839577 -0.021211445 0.030037437 0.08174971 0.057848636 0.04463855 0.020187128
0.026674585 0.06663022 -0.018522773 0.034253977 0.0042731017 0.0044016484 0.05253193 0.023236616
0.026047554 0.064165 -0.015183334 0.064598195 0.044725597 0.040728893 -0.033773847 0.063431226
-0.017604722 -0.015271253 0.0018385951 0.002097324 0.0048931264 0.019184705 0.011845528 0.029289601
-0.047743812 -0.02272953 0.12337906 0.0073304353 0.046707977 -0.0037611648 0.008223244 0.08859916
0.03769747 0.05961619 -0.00506827 -0.0072113127 0.060736276 0.006794105 0.057419453 0.022995189
0.10725872 -0.044842377 0.051557176 0.030543545 0.04899443 0.019199573 0.08418685 0.010549303
-0.042123135 -0.046313055 0.035554722 0.08166636 -0.035096236 0.033868883 0.027477626 0.013757532
-0.0470126 0.066311486 0.028497832 0.013419835 0.055163063 0.07477748 -0.0062647476 -0.042796556
-0.038675066 -0.01432228 -0.0068550743 -0.05457587 0.002664134 -0.014712734 0.010632641 -0.0058990424
0.053849075 -0.0009052154 0.06195644 -0.0010958832 -0.026499249 -0.039060872 -0.019706663 -0.0015171387
-0.014203643 0.11623968 0.009073274 0.0045428392 0.051581565 -0.035433173 -0.026123652 0.051019594
-0.029151823 0.04718685 0.027624685 0.018753143 0.0044346657 0.0085101025 0.09125759 0.03781805
0.021026732 0.054633398 0.005256203 -0.0047895485 0.043088384 0.0020807795 -0.03570293 -0.024018727
0.021901788 -0.0016287407 -0.019181445 0.005283319 -0.009154148 0.011071224 0.055466227 -0.023331959
-0.0025233629 0.07405336 -0.024277838 0.02531268 0.036282346 0.0734706 -0.001561968 -0.0138442945
0.03010174 -0.054053232 0.015584342 0.022546854 -0.013390589 0.0057350495 0.0028398428 0.08232247
0.027697317 -0.0010611454 -0.0019963975 -0.054339573 0.053337183 0.015611736 -0.002974445 0.0869595
0.014566458 -0.008868591 0.008319421 0.005868509 -0.005248397 0.09243973 -0.042161956 -0.04835061
-0.020454157 0.031681318 0.046837695 0.0500441 0.053442948 0.010282184 0.019549552 0.05074396
-0.009973001 0.12022803 -0.027162451 0.06558503 0.06665422 -0.039371874 -0.009284627 -0.006262794
-0.0020560399 0.028966092 0.07449864 0.0027136817 -0.02020213 0.0005426445 0.0883446 -0.05171199
0.015150078 0.033328004 -0.005297494 0.06075785 0.021412166 -0.042283267 0.06972355 0.098273724
0.060500305 0.05545445 -0.05153982 -0.049169317 0.013186684 0.01014703 0.033359993 -0.00752097
0.024810564 0.04759122 -0.050637864 -0.03517108 0.010852456 -0.036538906 0.0969906 0.06287561
0.0339383 0.0033785598 -0.0039339853 0.016874515 0.0015852276 0.03664822 0.010894119 0.011855587
-0.03713339 -0.007415292 0.045243718 0.013002375 0.044486355 0.03611298 0.02018286 0.033227596
0.119595334 -0.011359069 -0.038099337 0.035218447 0.06645821 -0.0064227795 -0.009071329 -0.03833771

bias f4 [64]
00000000: bad6 f8bb b64a aa3d 18bc 10b9 d896 4ebd
00000010: 1256 be3d 64fa 33bc 24e7 143d 21c8 743c
00000020: ba4d 943c d10b 773d 0f72 3bbd 7de9 a43d
00000030: 5bbc 2e3d f22b 073b 241c 893d 0ed7 bb3c
00000040: 0764 16bd 8bdd 933a 8fb1 bebb 8113 4abc
00000050: b535 bd37 c7d0 073c 165e ccbc dfdd 633d
00000060: 586f 2a3d 343a 183d dcba 44bc eafa 753c
00000070: c943 893d 17a4 df3c ba14 1b3a b607 f4bb
00000080: 90e2 8f3d 9c47 a63d 0cb5 8dbd bb23 b1bc
00000090: 8e64 19bd e60e f0bb bcae ebbc 2af8 a93d
000000a0: ff77 4e3d 8357 163d 3d61 933d 3d0f c73d
000000b0: 795e 2b3d 4a3b 493c 527f a73b 7b23 dab9
000000c0: 7456 473d 6d9b 0e3d 4b14 7a3d 1782 7e3d
000000d0: e33f 7a3d d447 adbb 73a3 4abb b19d 363d
000000e0: 0e11 a83b bce6 4f3d 88e7 13bd 6a04 25bd
000000f0: 0133 b73d aa48 8c3c 1b14 8d3d fd3f 853d
-0.007593957 0.08315031 -0.0001380298 -0.050436825 0.0929376 -0.010984991 0.036353245 0.014940293
0.01810347 0.060314003 -0.04576307 0.08052347 0.0426601 0.0020625559 0.066948205 0.022929695
-0.036716487 0.0011281235 -0.0058195065 -0.012333752 2.2555565e-05 0.0082895225 -0.024947207 0.055631515
0.041610092 0.03716488 -0.012007441 0.015013436 0.06702382 0.027299924 0.0005915869 -0.0074472083
0.07025635 0.08119127 -0.069192976 -0.021623483 -0.037449412 -0.007325995 -0.028769843 0.08299287
0.050407406 0.03670455 0.07196281 0.09719703 0.041838143 0.012282202 0.0051116133 -0.00041606635
0.048666432 0.034816194 0.06105451 0.062135782 0.061096083 -0.0052881036 -0.0030920177 0.04458398
0.005128986 0.050757155 -0.036109477 -0.040287413 0.08945275 0.017124493 0.068886004 0.065063454

weight f4 [32, 64]
00000000: 2e47 413d 226b bc3d fe3b b939 32f9 5abd
00000010: c275 8f3d 23f8 19bc 911d 213d 514c 1d3e
00000020: 8b8a 883d ddc0 423d 5405 343c 8e03 1d3e
00000030: add1 a2bd 1805 dc3c 4666 013e dc8e 0ebe
00000040: 2d70 4abd 7e55 f7b8 3750 ce3d 9dc6 abbd
00000050: 5a1e a93c 88b7 023d 83a0 b9bd 2c78 24bd
00000060: ca3d acbd 3ff6 4d3c f643 02bd edcc c6bd
00000070: 69bc 17bd 0c18 f1bc 8db5 98bd 114e 8b3b
00000080: fcd1 2d3d 6532 c93d 88b6 c4bd 8101 96bb
00000090: c363 613d 4508 3ebd ee2d 8dbd ca3a 853d
000000a0: db5c 013e c01f 6d3d c4c0 c53d 9bc5 a83c
000000b0: 3fc8 143e 2c10 17bc 5413 46ba 969d d03d
000000c0: a650 5fbc c9d8 543d b636 93bd f66b 56bd
000000d0: 691d 0c3e d525 fb2b 78c1 ce3c 76a1 46bb
000000e0: 38e6 bebd 3af4 8e3d 96ad aebd 738c e53d
000000f0: ba1c 2f3d c8fe 2dbd 28c1 21bc 5aac 933b
00000100: 647d 803d f050 733c 2f9a 1438 c4f7 5dbd
00000110: 754b 00bd 7534 ae3a fed8 95bc 1d0f e53c
00000120: a578 f33c a39c 703d 39d5 debd cae1 cf3d
00000130: 3dbc 683d 6d09 21be 61f9 db3d 2e3b 9abd
00000140: 56ff 6a3c 3b73 6db9 2380 5dbd 83ce 12bc
00000150: 5546 3330 e307 afbb 138b 8fbc 5e08 c1bc
00000160: e337 6e3d 0fcc e93d 007b 07ba 8aac 80bc
00000170: 1b18 09be e138 0e3e 6f68 ab3d 2540 e7bd
00000180: ea7a ac3d 2e6b 443c 2068 fb3c 00d4 b7ba
00000190: 2eb6 dfbc 3305 08be 0d4a 20be 971a 9f3d
000001a0: 1468 d23d ecea 9a3d 892c bfbc ace4 1c3e
000001b0: 23ab 37bd 5972 ed3c aca6 833d 4f50 233d
000001c0: b298 193e 7c99 4cbd f663 213e 0931 6e3d
000001d0: 923a fe3c e464 8933 1abd 1e3d 431c 4ebd
000001e0: 8acd f13d c933 78bd b702 72bd 00e7 f3bd
000001f0: 8b3e 873b 94f4 b83d 382d 60bd d422 d33d
00000200: 6a0b 403d 8aca d4bc f901 f8b8 52db 3dbd
00000210: f043 dfbd a9e8 5cb9 6478 9fbd f56d 0e3d
00000220: df25 883d eb56 9e3d 2472 f3b9 c1dd 853d
00000230: 8401 133e 8784 083e 5715 07be 47f4 393e
00000240: 89ca e3bd de31 86bc 1a12 353d 7f9b 043e
00000250: f8be 313c cb33 f23c 5a66 06be 869a e6bd
00000260: d613 a9bd f66f 12be 14a6 abbd 6355 d93d
00000270: 03a3 113d 017b 793d 5537 013d 6f9e c1bc
00000280: beeb 63bd f534 bf3d 5356 f13d 18eb 463d
00000290: e10d cc3c d718 1abe 563c 453d 5dd1 3abd
000002a0: 845f ffbd b870 39bc e978 73bd 90df 0a3d
000002b0: 009a f0bd 2d89 09be e835 e4bc 5196 7f3a
000002c0: 6480 3fbd 2efb 5fbd 4120 e3bc bac5 553d
000002d0: 7efb f93c c0a9 423b ad98 7b3c 201f 2dbe
000002e0: 4100 2b3e 5577 1abe 5a3b 493d 5d55 d53d
000002f0: 4e64 a0bd 45ff 33be 5387 b93c 09fe e03d
00000300: 67c7 8a3c 8825 9e3d 0634 b5bc 7a50 1239
00000310: 533b d9b7 8892 143d 3703 d23d 243a adbc
00000320: b32f 35bd b326 df3c 4514 bfba 33c2 ba3b
00000330: eb55 883b 1907 6c3d 1ab5 323d 74e2 9733
00000340: a8b3 17bc 5d66 6c39 de6b babb 9092 eabc
00000350: f3e0 30bc bc52 9ebd eac8 6dbd 796a 1dbc
00000360: f506 0dbd 576b 9f3d ca07 533d f079 b1bc
00000370: d96f 09bd 6a01 cd3b ae55 89bc bc72 cdbd
00000380: f36f 02bd e529 13bb d150 8abc 0359 0a3b
00000390: eb24 b2b9 f422 853c 23ad 3f3d 4701 103b
000003a0: c168 96bd dbf2 21bd 398d 2a3b 3208 4bb5
000003b0: cc5c 80bc fad3 32bd 8f7a 893d 3a78 7cbd
000003c0: a6bb 42bc cd87 00aa 6e50 75bc e6c0 edbb
000003d0: 5ff7 9cbd 1ffe 1db5 577e 143b 4929 bbbb
000003e0: 1d30 d8aa 3941 09bc d2e1 be3b a92b 42bd
000003f0: eda6 883d 37df 31bd 9fd3 45bc 325b 3d3c
0.047187023 0.092001215 0.00035330647 -0.053460307 0.070048824 -0.009397539 0.039334837 0.15361144
0.0666705 0.04754721 0.010987598 0.15333387 -0.07950149 0.026857898 0.1263667 -0.13921684
-0.049423385 -0.00011793802 0.100738935 -0.08387492 0.020644356 0.03191331 -0.09063818 -0.040153667
-0.08410223 0.012570917 -0.031803094 -0.09707055 -0.037044916 -0.029430412 -0.07456503 0.0042512496
0.042436585 0.09824065 -0.096051276 -0.004577816 0.05502678 -0.046394605 -0.06893526 0.06505354
0.12633078 0.057891607 0.09655908 0.020602038 0.14529513 -0.009220164 -0.00075559807 0.10186307
-0.013630068 0.051964555 -0.0718817 -0.052349053 0.13683094 1.7845123e-12 0.025238737 -0.003030864
-0.093212545 0.06980176 -0.08529203 0.11208429 0.042752005 -0.042479306 -0.009872712 0.00450663
0.06273916 0.01485084 3.5429544e-05 -0.054191366 -0.03132196 0.001329078 -0.018291947 0.027961308
0.029720614 0.05874313 -0.10880513 0.10150488 0.056820143 -0.15726252 0.107409246 -0.07530819
0.014343103 -0.00022645008 -0.05407728 -0.008960369 6.521977e-10 -0.0053415163 -0.01752237 -0.02356356
0.058158766 0.11415874 -0.000516817 -0.015707273 -0.13388102 0.13888885 0.083695285 -0.112915315
0.084218815 0.011988444 0.0306893 -0.0014024973 -0.02730855 -0.13283233 -0.15653248 0.077687435
0.102737576 0.07564339 -0.023336666 0.15321606 -0.044840943 0.02898519 0.064282745 0.03987151
0.14999655 -0.04995106 0.15760788 0.058152232 0.031033788 6.3979115e-08 0.03875456 -0.05031992
0.118067816 -0.06059626 -0.05908462 -0.11909294 0.0041273287 0.090310246 -0.054730624 0.10309377
0.046885885 -0.025975484 -0.00011825929 -0.04635174 -0.1090163 -0.00021067508 -0.077866346 0.034772832
0.06647848 0.07731422 -0.00046433613 0.06536437 0.14356047 0.13331805 -0.13191734 0.1815959
-0.11122615 -0.0163812 0.044206716 0.12949942 0.010848753 0.029565712 -0.13124982 -0.11259942
-0.082557365 -0.14300522 -0.08381286 0.10611989 0.03555585 0.06090832 0.03154691 -0.023635117
-0.055644743 0.093362726 0.11784043 0.048564047 0.024908962 -0.15048538 0.048153244 -0.04560982
-0.1246939 -0.011318378 -0.05944148 0.033904612 -0.11748123 -0.13431235 -0.027857736 0.0009749877
-0.046753302 -0.054682903 -0.02772534 0.05219052 0.030515429 0.002970323 0.015356225 -0.16906404
0.16699316 -0.15084584 0.049128868 0.104166724 -0.078316316 -0.17577846 0.022647535 0.10985953
0.016940786 0.07722002 -0.022119533 0.00013953625 -2.589604e-05 0.036272556 0.102545194 -0.021145888
-0.044234943 0.027240133 -0.0014578184 0.00569942 0.004160633 0.057623956 0.043629743 7.072677e-08
-0.009259142 0.00022544847 -0.0056891283 -0.02863434 -0.01079582 -0.07730624 -0.058052935 -0.009607905
-0.034430463 0.07784145 0.0515211 -0.02166459 -0.03355393 0.006256272 -0.016764488 -0.100316495
-0.031845044 -0.002245539 -0.01688424 0.0021110184 -0.00033978312 0.016252019 0.046795975 0.0021973418
-0.07344199 -0.039538246 0.0026024117 -7.563532e-07 -0.015669249 -0.043659188 0.06712829 -0.061638094
-0.011885559 -1.1415799e-13 -0.014972789 -0.0072556613 -0.0766437 -5.885685e-07 0.0022658312 -0.0057117087
-3.8402693e-13 -0.008377367 0.0058252597 -0.04740492 0.066724636 -0.043425765 -0.01207438 0.011557387

bias f4 [32]
00000000: a530 d73d 00cc 063c fdd1 533c ddc7 9c3c
00000010: 0ded b93d d318 5e3d a833 643d 5a9e 6cbc
00000020: 6adb 89bd dcc2 e73d 4c5e 02bd ab7f e23d
00000030: 0d66 1c3d 13ff 9cab ecd1 d0bc b4ea bbbd
00000040: 7efa 5a3d 392b 5d3d 3cfe e3bd 785a ecac
00000050: 8a2e 2e3d ff76 8f3d b6ac 92bd 6e46 ec3c
00000060: 6c73 28bd 6280 02bd 1bfd a4bc a376 23bd
00000070: 47fa c3bc e15e 59bd cbca a7bd 1e62 483d
0.10507325 0.008227348 0.012928483 0.019138271 0.09078417 0.054222893 0.055713326 -0.014442051
-0.06731303 0.11316463 -0.03182821 0.11059507 0.03818326 -1.1155264e-12 -0.025490724 -0.091756254
0.053461544 0.0539963 -0.11132476 -6.7175675e-12 0.04252485 0.070051186 -0.07161848 0.028842177
-0.0411257 -0.031860717 -0.020140221 -0.039908063 -0.023923052 -0.053069 -0.081929766 0.048921697

weight f4 [8, 32]
00000000: 779f a8bd 3424 92aa 790c acb1 cb81 89bc
00000010: e9c8 19bd 16a5 e6bc f66b d52b 0bb6 3a3a
00000020: 452b 2630 f61e bb3d 2a29 3abd 95eb 30b5
00000030: f7ae 083a 8e12 e9aa e672 0f3d d91c 43bc
00000040: e3d8 2a3d 7b07 a0bd b8da 5c2e fc00 51aa
00000050: 7b0c 40bd 9d87 4e3a d7f2 c43d d83a e338
00000060: ddaa 183d a584 4fbd d844 1fbd 5d90 b5bc
00000070: f64a aebd a30d b3bd e760 3f3d 6d7a afbd
00000080: cfd3 583d 42a5 97bd 3e2b bdbc be1d 413d
00000090: a8d5 de3d 8e48 ef3d ba8d ccbd 32e8 913c
000000a0: 9750 b5bd 1a36 2ebd 3879 1f3e a91a f5bd
000000b0: c3c0 833d b3e8 b23c c9c1 973d 9324 123e
000000c0: ee27 a4bc e503 583d a871 0abe 02f2 4dbc
000000d0: be00 86bd 9fff 8fbd 6229 a2bc 2240 053e
000000e0: b851 72bd b5f5 b83d d7a8 9b3c 2393 c8bd
000000f0: 8138 bd3b f275 29bd 1dbc 25be 752d 4fbc
00000100: b3c1 163e 3008 4fbd b2c7 51be cbde a03d
00000110: 1449 b53d a2dd f63d 9862 fdbd 0408 233e
00000120: ae59 50be 11fc 8cbd 3705 953d 4ea0 bfbd
00000130: 5f9e c33d bf97 8cbd de60 313e a25e 183e
00000140: a927 0cbd a773 a1bd 7dfd 32be 4dce 58bd
00000150: e971 2e3d d4bf e33d b32b e23c 0593 0f3e
00000160: b7d8 6f3d 413f 823d 67d7 51be 5603 8bbd
00000170: e39e 863c 8c6f 3abe cad3 b73d e6f6 29be
00000180: ad5c 01be e16f 8b3c 9a0f 7d3e c6d7 c3b9
00000190: e78a 093d d256 f1bc 4afd 433e 995c 0d3e
000001a0: f9d3 cd3c 7284 d539 3914 febc 033e 123e
000001b0: 4d22 de3d e0c9 313d 66cc 3bbe 3d64 07be
000001c0: 1ed6 32bd fad5 04be ec66 23bd 26aa b3bd
000001d0: 4eab 5b3e 6f7e 8b3c 14ee 40bd 35a4 ed3d
000001e0: fcda 853d 99aa 143e cbc7 d8bc 1419 5abc
000001f0: 7d4d 4abc 9a1d ee3d f1e9 4b3e a497 c13d
00000200: b60f ca3c 43d0 743d ccaa 3ebd 2416 4c3d
00000210: b135 16be 4e8d 343d dba3 0c3d f5a9 9c3d
00000220: 3cfc 013e 61cd 09bd e31e 2c3d cd9a 36be
00000230: 80e7 b6bd 9021 b53d 479c f83d f4e5 a83d
00000240: 8c91 aabd e4f7 143d 072e cd3d 8eea 993d
00000250: d810 bdbd af71 22be e804 36bd 69a6 08be
00000260: 247e 87bc a8a0 15be 7cc0 20bd 8c64 003e
00000270: 4d76 893d 4d07 273e efcf 7e3b f0e3 f43d
00000280: 3fb3 173e 0142 31be a0a9 6bbd af76 5f3d
00000290: a48b 1b3e eea7 0dbe a06b 093e 84ee ea3d
000002a0: 2bde 693e e3eb 94bd 45be 113e a2db d5bc
000002b0: d1c2 10bc 8ce2 5b3c cdb2 2dbe a911 1dbe
000002c0: ad92 ef3c 68d5 35be d39e 82bd 2dee 142a
000002d0: e7b2 b43d 7a56 d63d 5977 963b 5c25 47bd
000002e0: 8d9b 763e b613 3b3e 5918 8e3e 7cc2 3ebe
000002f0: a41b 86bd 02b1 23bd b542 1c3e 5db9 e93d
00000300: 4a71 253e 1eea 2d3e 160b 63be e3f7 81bd
00000310: 35ce f63d c134 ecba 45cc 63bd 2ed7 273e
00000320: e981 19be 5860 07be 6f2d 563e 7667 073e
00000330: d105 023e e354 62bc 104e c43d 9c24 97bd
00000340: c8e3 6fbd e34c 403d 5e82 18be 4d16 af3d
00000350: 01b1 30be db9e efbd 4ef0 823d 64e3 403e
00000360: 3e4a 16be 0b49 1b3d 411c b1bd 2e58 143e
00000370: 3c4a b23d 662d ccbd c867 01be b218 40be
00000380: ec4e e7bd 0724 1c3d 14a0 a9bd 90d1 922b
00000390: 1f08 fbbc b27c 1abd 3c9e c13d 72ee 19bd
000003a0: 85a5 b73d 03c9 87bd 97e6 053e 4ea4 f2bd
000003b0: baa0 1b3e 05a3 7b3c 789a be3d ba5b 003e
000003c0: 8b1f d2bc 7e04 4c3e e5c0 81bd b99d de39
000003d0: d552 52be a969 62bd 8789 ffbd 856a 54bd
000003e0: 2553 3bbe e58c f53c fa9e 32bd 0b63 9dbc
000003f0: adaa 18bd c09f 10be 4b65 32be 8053 6e3d
-0.082335405 -2.595993e-13 -5.007277e-09 -0.016785523 -0.03754512 -0.028154891 1.5164525e-12 0.00071224634
6.045194e-10 0.09136765 -0.045449413 -6.5907926e-07 0.000521406 -4.140199e-13 0.035021685 -0.011908733
0.041710746 -0.07813927 5.021647e-11 -1.856327e-13 -0.046886902 0.00078784843 0.096166305 0.00010835164
0.037272323 -0.05066361 -0.038884014 -0.022163564 -0.085103914 -0.087428354 0.046723273 -0.08568273
0.05293637 -0.07404567 -0.023091909 0.047147505 0.108805954 0.116837606 -0.0998797 0.017810915
-0.08853262 -0.042532064 0.15573585 -0.11967976 0.06433251 0.021839475 0.074100085 0.14271764
-0.020038571 0.05273809 -0.13519919 -0.012569906 -0.0654311 -0.07031178 -0.019795123 0.13012746
-0.059159964 0.0903124 0.019001408 -0.09793689 0.005774558 -0.041372247 -0.16185041 -0.012645115
0.14722328 -0.050544918 -0.20486334 0.078549944 0.08851829 0.12053992 -0.12372321 0.15921026
-0.2034671 -0.06884015 0.07276385 -0.093567476 0.09551691 -0.06864881 0.17322108 0.1487985
-0.03421751 -0.07883387 -0.1747951 -0.05293112 0.042589102 0.11120573 0.027608728 0.14020927
0.058556285 0.06359721 -0.20492326 -0.06787746 0.016433185 -0.18206614 0.089759424 -0.1659809
-0.12633009 0.017021121 0.24712983 -0.00037354062 0.033579733 -0.029460344 0.19139591 0.13804854
0.02512549 0.00040725205 -0.031015502 0.14281468 0.10846386 0.043405414 -0.1833969 -0.13221832
-0.04366123 -0.1297225 -0.039893076 -0.087726876 0.21452066 0.017028062 -0.04710205 0.11603586
0.065359086 0.14518203 -0.026462456 -0.013311643 -0.012347576 0.1162674 0.1991346 0.09452751
0.024665695 0.059768926 -0.046549603 0.049825802 -0.14668919 0.04408007 0.034335952 0.07649604
0.12693876 -0.03364313 0.042021643 -0.1783249 -0.08930874 0.08844292 0.121391825 0.08246985
-0.08328542 0.03636922 0.10018545 0.07515441 -0.09231728 -0.1586368 -0.044438273 -0.1334473
-0.01653964 -0.14612067 -0.039246067 0.12538356 0.06712017 0.16311379 0.0038881262 0.11957538
0.1481447 -0.17310335 -0.057534814 0.054556545 0.15189987 -0.13833591 0.13419962 0.114712745
0.22838657 -0.07271554 0.14232738 -0.026105706 -0.00883551 0.013420712 -0.16962738 -0.15338768
0.029244745 -0.1775719 -0.063779496 1.3227674e-13 0.088231854 0.10465713 0.004591864 -0.048619613
0.24082775 0.18269238 0.2775295 -0.18628877 -0.06548241 -0.03996373 0.15259822 0.11412308
0.16156498 0.1698384 -0.22172198 -0.06346109 0.120510496 -0.0018021093 -0.05561473 0.16390678
-0.14990963 -0.13220346 0.20915769 0.13223061 0.12697531 -0.013814184 0.09585202 -0.073800296
-0.05856684 0.046948325 -0.14893481 0.085491754 -0.17255022 -0.11700221 0.06393491 0.18836743
-0.14676759 0.037911456 -0.08647967 0.14486763 0.08705565 -0.099695966 -0.12637246 -0.1875942
-0.1129435 0.038120296 -0.082824856 1.0432089e-12 -0.03064352 -0.037716575 0.09454009 -0.037580915
0.08967117 -0.06630137 0.13076244 -0.11847745 0.15198031 0.015358691 0.09306806 0.12534991
-0.025649806 0.19923589 -0.0633562 0.00042460652 -0.2053941 -0.055276547 -0.12477403 -0.051859397
-0.18293436 0.02997441 -0.043608643 -0.019212266 -0.037272144 -0.1412344 -0.17421453 0.0581851

bias f4 [8]
00000000: 129f a4bd b425 7e3d 7d5e dc3d 3ce6 abbd
00000010: 3466 1dbe ac0b b63d 5f56 80bb 4b89 113d
-0.08038153 0.062047675 0.1076021 -0.08393523 -0.15371019 0.08888945 -0.0039165462 0.035531323

weight f4 [1, 8]
00000000: 9d57 223e 472a 933d 0806 f53d 8d0e 50be
00000010: 42fa fa3b 7a47 f5bd b810 483e 0ff4 263e
0.15853734 0.07185798 0.11964041 -0.2031805 0.0076592276 -0.11976524 0.19537628 0.16304038

weight f4 [8, 1]
00000000: 0d7c 6a3f abcc b93e 946f 17be b36a 453f
00000010: 0d85 6a3f 4352 6f3f bc23 763e 2ad7 8bbd
0.91595536 0.36288962 -0.14788657 0.77115935 0.9160927 0.93484896 0.24037069 -0.06828149

bias f4 [8]
00000000: fca4 163f 3ea7 e2bd cd5d 29bf a566 24bb
00000010: f61c 493f 5e00 45bf 472a 1dbf 1655 e93e
0.58845496 -0.11067055 -0.66158754 -0.0025085595 0.78559816 -0.76953685 -0.61392635 0.45572728

weight f4 [32, 8]
00000000: cf90 c43e 2f87 4f3e daf4 5bbd 8dbf 16be
00000010: ab34 8b3e 61d4 7d3e afda 0e3e 8125 863e
00000020: 5bb6 87be 0488 263b bb83 59be ad36 a23d
00000030: 885c dbbd e0c0 513e 53d4 633e 8021 e93b
00000040: 3ace bb3e 88f8 33be 19ad 3cbe 2f4a f63d
00000050: a6bb dcbd a5f6 cdbc 2574 f93c 053a 5c3e
00000060: 6aa2 0cbd 9e9d 663e d27f a23d b5b9 16be
00000070: fa40 bfbe 4123 0a30 74e9 cab5 410b 5ebe
00000080: 0b9e 233e 2137 2a3e b4c9 c53d 1115 833e
00000090: fea8 98be ceea 623c 33ae 943e 9637 4d3e
000000a0: 7aec 81be c895 bebe 34d0 973d 6a5c 98bd
000000b0: 9998 683c 0a58 8abe 6f4e 48bd 97a0 443e
000000c0: e4ac 953e 420c 983e 011f 67be 6d57 723d
000000d0: 3994 05bc 7cf9 8d3d 00af 28bd e572 cc3d
000000e0: 7719 e4bc 8e0f 4c3e 9699 7dbe e8a3 8fab
000000f0: e9fa 61be 0f86 8dbd e6c4 89be ee35 493e
00000100: fecd aabe 5eeb 43be 6a76 46bd 425a 8cbd
00000110: 84e8 323e 4dd3 943d 9032 03be d16b 32bd
00000120: 968b 0ebd b742 083e 09b0 8b3e 60b2 85b3
00000130: 165a 6bbe adc8 c3bc 0f9c 3abe d775 cd3c
00000140: 702c ea3d 7e11 05bd 97e2 263d a15d 4fbe
00000150: fd17 043e 7644 32bd 1542 e6ba 3ce4 8c3e
00000160: 434d 98be 1453 96be 52a8 0b3e 3612 afbe
00000170: fe8e 963e 9e65 7cbe ca8b 20be 2c37 a13e
00000180: 858a 08bd 6754 3b3e eee1 85be 9756 d43d
00000190: fdd6 ad3e f2d0 47bd 6de3 313e f8ba 4abd
000001a0: 348b 33bc 638f 00ab 68bd 113e a908 7a3e
000001b0: 038d 00be 7364 15be 1e8a e83d 9550 7abe
000001c0: bad5 9dbe a868 843e a327 8b3e 1e30 cfbc
000001d0: 4dff 9dbe 22a6 80bd ee24 eb3d b096 473e
000001e0: bf53 433e 408f a73d 193f 13be 1646 403e
000001f0: a0a7 aabc c093 8d3d 953c 3ebe 862e 3dbe
00000200: ac9c 2dbe 7035 84be 0de6 54bc 6952 4c3e
00000210: e640 92be c5d9 99bb a68d 55ba 03eb 8c3e
00000220: 3279 4bbe bb49 733e 1e01 5dbe 750e ca3c
00000230: 115e af3e a444 34bd d15b 63be 8e48 543e
00000240: b08d 0fbe ca6c 153b 4bcc 7bbe 3405 7abe
00000250: 3bb1 1fbe fa1d e03b 7f7c cd3d da3e b0bd
00000260: 7968 563e adec 82be ec7a 97bc 1f16 a03c
00000270: d4d4 6e3e b29a 5f3b 5962 a6be 5d5d 8ebd
00000280: 9480 b03e 11b5 5cbe b326 ecbd 0956 02be
00000290: ea2c ee3d 6ade 4dbe f63f 6d3e 1f5e fcbc
000002a0: 070c a73e 9d83 943e 627e 34bb d8a4 a53e
000002b0: 81c3 dcbd af7a 8d3e ba3b a53d b738 1a3e
000002c0: 50e2 1fbd 617e 08be e00e 303e ec18 2bbe
000002d0: ff8c c63e bb7d 753e 349b a93e 265a bcbd
000002e0: 993b 44be 2335 dfbd 1b0f 103e 7ddc 793b
000002f0: d508 383d 8277 85be ad97 0c3e d055 9a3e
00000300: 2b4e 493e 61c8 4b3e 6d0c 33be ef6d f2bc
00000310: bc20 233e 2693 af3d c026 853e 626e 27be
00000320: bb2a bdbe 505d 8abe 55f7 b6bd e32a c6be
00000330: 4b9a 333e 270f 5abe e089 2c3e 7b65 e33e
00000340: 6bd2 2cbe fc3d a0bb 3c06 b53d 7e9f e63d
00000350: db98 67ba 13e5 5bbc 2d0a 4bbd cf0d 4b36
00000360: ebc6 6fbe e458 e33c 06f9 5bbe e7f6 4bbe
00000370: 68b5 cabd 22ab 1cbe 8f93 2e2b cc57 263d
00000380: bc86 b53d 8893 8fbe fe3a 803d 5c86 a8be
00000390: 0646 7f3c 3ded 773e 2570 423e 14c7 213c
000003a0: ad95 482c 129f 163b 2561 eb3d 8ac7 f1bd
000003b0: 15d9 1cbe 4d08 ecad 9ebd 093e fc9e ce3d
000003c0: 1048 073e 1a63 9c3e d696 ff3d cc13 abbd
000003d0: 2804 1fbe 863d a03e 8f61 0a3d 903c 0abe
000003e0: ba60 243e e457 babd a3da b53d 60d9 74be
000003f0: 12f8 16be 313f 813a f492 8c3c 63d5 eebc
0.3839173 0.20266412 -0.053700306 -0.14721508 0.2718862 0.24788047 0.13950609 0.26200488
-0.26506314 0.0025410661 -0.21241657 0.07920585 -0.10711008 0.20483732 0.22248964 0.007114589
0.36680776 -0.17575276 -0.18425407 0.12025868 -0.107779786 -0.025142023 0.03045089 0.21506508
-0.034334578 0.22521064 0.07934536 -0.14719279 -0.3735426 5.0254206e-10 -1.5118117e-06 -0.2168398
0.15978257 0.16622593 0.096576124 0.2560201 -0.2981643 0.013849927 0.29039153 0.20040736
-0.2537573 -0.3722365 0.074127585 -0.074395016 0.014196538 -0.27020293 -0.048902925 0.19201885
0.29233468 0.29696852 -0.22570421 0.059165407 -0.008153015 0.06932351 -0.041182518 0.09982852
-0.027844174 0.19927809 -0.2476562 -1.0206254e-12 -0.22068371 -0.06910335 -0.26908034 0.19649479
-0.33360285 -0.19132754 -0.048452772 -0.06853153 0.1747151 0.07266865 -0.12812257 -0.043559853
-0.03480109 0.133067 0.27282742 -6.225741e-08 -0.22983584 -0.0238994 -0.18223594 0.025080604
0.11434257 -0.032487385 0.040743437 -0.2025056 0.12899776 -0.04352232 -0.0017567301 0.2751788
-0.29746446 -0.2936026 0.13638428 -0.3419358 0.2940597 -0.24648139 -0.15678325 0.31487405
-0.033335228 0.18293916 -0.26148933 0.10368078 0.33953086 -0.04878325 0.17371912 -0.049494714
-0.010958482 -4.5673724e-13 0.14232409 0.24417366 -0.12553792 -0.145891 0.11354469 -0.24444802
-0.30827123 0.25861096 0.27178678 -0.025291499 -0.30858842 -0.06281687 0.11481653 0.19491076
0.19074915 0.0818162 -0.14379539 0.18776736 -0.020831883 0.06912947 -0.18577798 -0.18474779
-0.16954297 -0.2582202 -0.0129943015 0.19953312 -0.2856514 -0.0046951496 -0.00081464124 0.2752305
-0.19870451 0.23758595 -0.21582457 0.024665097 0.34251454 -0.044010773 -0.22202994 0.20730802
-0.14018893 0.002280044 -0.2458965 -0.24416047 -0.15594952 0.006839511 0.10033511 -0.08605738
0.2093829 -0.25571194 -0.01849123 0.019541798 0.23323375 0.0034119305 -0.32496908 -0.069514014
0.34473097 -0.21553446 -0.11530819 -0.12728132 0.116296604 -0.20104375 0.2316893 -0.0308066
0.32626364 0.29006663 -0.002754115 0.32352328 -0.10779477 0.27632663 0.080680326 0.15060697
-0.039034188 -0.1332946 0.17193174 -0.16708726 0.38779446 0.23973744 0.33126223 -0.09196882
-0.1916336 -0.10898807 0.14068262 0.0038125806 0.044930298 -0.2606774 0.13729735 0.30143595
0.19658725 0.19900657 -0.17485209 -0.029593436 0.15930456 0.08572988 0.26006126 -0.16350701
-0.36946663 -0.27024317 -0.089338936 -0.38704595 0.17539327 -0.21294843 0.1684947 0.4441336
-0.16877143 -0.0048902016 0.0883908 0.112608895 -0.0008834728 -0.013421315 -0.04957025 3.0257395e-06
-0.23415725 0.027752347 -0.21481714 -0.19918405 -0.09897882 -0.15299657 6.2021997e-13 0.040611073
0.08863589 -0.28042245 0.06261252 -0.32915008 0.01558066 0.24211593 0.18988092 0.009874124
2.8504796e-12 0.0022982997 0.11493138 -0.11805637 -0.15317185 -2.683378e-11 0.1345124 0.100889176
0.13211083 0.30544358 0.124799415 -0.08353385 -0.15528929 0.3129694 0.033784445 -0.13499665
0.16052523 -0.09098795 0.08879592 -0.23911047 -0.14743069 0.0009860751 0.017159916 -0.029154485

bias f4 [32]
00000000: 9807 91be 9a9d 57bc 3e1d 1ebe 08d8 913e
00000010: 5f96 56bd 0956 a73e cf48 4cbe 3d46 cdbd
00000020: 2049 2b3e 35f7 acbd 4d9a 983e aa22 053e
00000030: ac4d 5cbb 7fd1 a23b 4578 b63e 165d bc3e
00000040: 7690 dc3e 3e26 1dbe f992 cd39 2b88 bd3d
00000050: 87f4 ce3d ecb7 9cbe cd3e d6bd c3d1 41be
00000060: 03e2 a1bd a00e b03e b9f7 02be a0da 16bd
00000070: 9093 d3bd ba42 b0bd 5cb4 923b dc36 23be
-0.28326106 -0.013160134 -0.15440843 0.2848513 -0.0523895 0.32682827 -0.1994965 -0.100231625
0.16727114 -0.084455885 0.29805222 0.13001505 -0.0033615632 0.0049688215 0.35638633 0.3678977
0.43078965 -0.1534662 0.0003921015 0.092544876 0.10105234 -0.3060907 -0.10461197 -0.18927674
-0.079044364 0.34386158 -0.12789811 -0.03682959 -0.1033088 -0.08606477 0.004477067 -0.15938896

weight f4 [64, 32]
00000000: 0909 0a3e 8303 04bc d498 e3bc a961 a13d
00000010: 1348 e7bd 5334 04be f9e2 2dbc 6433 73bd
00000020: 053b 42be 1476 563c a7e9 283e 5c97 adbd
00000030: 0ff0 3d3e fa26 40bd 2a15 03be 9ce5 a13d
00000040: 8def 36be 2782 053b 3892 ebbb 427f 413e
00000050: b960 643e b692 c6bc 92c1 d23c eef7 7cbd
00000060: 55bf 163e 4a3c 3bbc 14e8 c73d 8a88 43af
00000070: b125 d9bd 1b51 973c ada0 b1bd 73bb 7bbd
00000080: e77b 1fbe f2dd febc 946b 523d f4dc 9dbd
00000090: 7c80 dcbd a6c6 573e 3554 0d3e a616 953d
000000a0: 2e37 cd3c 0e41 053d 912b 1c3e 427b 233e
000000b0: 60b4 293d 4cc5 883c ab28 153e f986 bbbd
000000c0: a11a 40bc 82fe 2ebe 03de b43d d6ee 613d
000000d0: 4a46 28be 09e2 963d 7651 c1bc 7df8 233c
000000e0: 690f 1c3e 40bc c93d d7fc 1b3d 01da 9d3d
000000f0: ee14 0b3a 321a 083e a9d6 57bd df9c 5fbd
00000100: 9753 d93c 1c19 383c d9e9 0a3e 5969 47bd
00000110: 7be3 1f3e 8ae6 d6bd 3ff9 283e 7edb 803d
00000120: 5414 94bd e4df 893a e2cb 8dbd 8ac7 ecbc
00000130: dfe5 df3d a5ff bc3d 6962 aebd 90cb 553d
00000140: 6019 7fbd 62d2 6bbd cae2 563c 1772 b8bd
00000150: f03e 363d 547b f7bd 9357 8c3d 1461 8cbd
00000160: 89c6 ae3d dad5 24be b5fe c3bd 6beb 45bd
00000170: 6b8a a13d 6ad6 7b39 532e 953c 1b01 4b3d
00000180: 1380 6dbd 0126 8dbd 2472 393e d7dd 01be
00000190: 6b0c d83d 7334 bcbc beee edbd 8c1f bebd
000001a0: f87f 043e 201f a13d ff4b ddbd 2e6f f3bb
000001b0: 0910 013e 399c 7bbd 1651 30be 525f fdbd
000001c0: 05aa 3abe f660 c73d 7af2 843d 3025 9ebd
000001d0: 1154 8abd ee22 3c3e c1d7 163e 103f 1b3d
000001e0: 6def de3b 00b4 babd 8ba8 75bd a0c8 10bd
000001f0: 5a8e fcbd 66ae 102e 4dd8 50bd 49af 98bd
00000200: 5128 adbd 4785 5b3d d3c1 a33c 371f 06bc
00000210: 6661 eb39 d7b3 4ebd 4b1c e7b3 001a 70ba
00000220: dbed c7bb daf6 b13d 5412 13bd 8cac bb31
00000230: 86b9 9236 1150 e437 ab14 81bd e89b aeb9
00000240: 405a 3a3c 7548 5aab 37c8 ff3a 2eef 853d
00000250: f2c9 2b30 6f60 a23c 277a 2e3d 1183 833d
00000260: 738b 95b1 f269 963b d620 c6bc 59f1 c53c
00000270: 1e5c 0c3c 4af4 06bd 36f0 0ebc c056 ce3c
00000280: dedd 1bbe e28b baab 1603 14be 5c45 5c3e
00000290: a708 593d 3f64 683e b016 3fbe 3a83 ee3d
000002a0: 782a 8a3c 5087 0b3d 5553 6c3e e3ee 793e
000002b0: a43b 993d 831f 5abd ed9a 103d 60b0 b3bc
000002c0: 9a82 783c 8d24 c1bd 3932 b53d a967 11be
000002d0: 89f0 ad3d 0ad9 873d f1cc afbd f3ca 5cbc
000002e0: 3f3f 00be 14e1 8b3d 90ca a13d 8365 da3d
000002f0: 7a06 bf3a e068 293d eb9e 23bd 811f 093d
00000300: ce33 2fbc 65eb a63d e320 a23c 0350 bbb1
00000310: 44bc e4bd 1f77 85bd 3ed0 173e 1e98 00bc
00000320: 9499 3fbd f877 97ba 2bd6 f7bd 9eeb c0bc
00000330: 3340 11bc 0683 a73c 53ff 2437 0e4e 10be
00000340: c844 32bd 23e1 193e edc2 ac3d 8838 21be
00000350: d007 073c af45 f63d e0c6 d1bd 4cdc 08b9
00000360: 55d7 1d3d 2420 c83d a880 4f35 d36c 0dbc
00000370: c77a 0f3c 8c3e 1538 db2e 63bd 2053 d63c
00000380: 8ab1 a33d 83fc df3c b615 853b 40fe 373e
00000390: d733 243e e31f 3b3e 6bb9 8a3b fe92 5a3d
000003a0: e75d 303d f954 f73d 111b 1b3e 42b8 743e
000003b0: ee2a b7bd 1f2f 2bbb e0c0 2d3e 0ecc 123c
000003c0: db0f f13c d434 13be aac7 7a3d 412b e4bd
000003d0: 781b 1b3e d517 76bd 6b66 bbbd be56 183e
000003e0: 1300 bf3d 1c56 0abc 8583 ebbc f835 8abd
000003f0: b64d b43d 240b 643d e2a4 be3c f41b 0238
0.13480009 -0.008057478 -0.027782835 0.07879955 -0.11293044 -0.12910585 -0.0106131965 -0.05937518
-0.18967827 0.013089675 0.16495381 -0.08476135 0.18548606 -0.04691217 -0.12801042 0.07905123
-0.17864819 0.0020371766 -0.0071890615 0.18896201 0.22302522 -0.02423988 0.025727067 -0.06175988
0.14721425 -0.011427948 0.09761062 -1.7783655e-10 -0.10602892 0.018471291 -0.086732246 -0.061458062
-0.15574609 -0.031111691 0.051372126 -0.07708159 -0.10766694 0.21071872 0.13801654 0.072797105
0.025050726 0.032532744 0.15250994 0.15964988 0.041431785 0.016695641 0.14566295 -0.09156603
-0.011725099 -0.17089275 0.08831408 0.055159412 -0.16433063 0.073673315 -0.023598414 0.010007975
0.15240254 0.09850359 0.038082924 0.077075966 0.0005305548 0.13291243 -0.05269495 -0.054592963
0.026529117 0.011236455 0.13565768 -0.04868445 0.1561412 -0.104931906 0.1650133 0.06291865
-0.0723044 0.0010518995 -0.06923653 -0.028903741 0.10932516 0.09228448 -0.08514864 0.052196085
-0.06228006 -0.057573684 0.013115594 -0.09006136 0.044493616 -0.1208407 0.06852641 -0.06854454
0.08533961 -0.16097203 -0.09570066 -0.048320215 0.07887729 0.00024017101 0.018210566 0.0495616
-0.05798347 -0.06892014 0.18109947 -0.12682281 0.105492435 -0.022974228 -0.11617802 -0.09283361
0.12939441 0.07867265 -0.10805511 -0.007429025 0.12603773 -0.061428282 -0.17218432 -0.123716965
-0.1822892 0.09735291 0.06491561 -0.07721937 -0.06754316 0.183727 0.14730741 0.037901938
0.006803444 -0.091163635 -0.05997519 -0.03534758 -0.12331839 3.2896706e-11 -0.05098753 -0.07455308
-0.08454955 0.0535939 0.019989884 -0.008186153 0.0004489526 -0.050464477 -1.0761922e-07 -0.0009159148
-0.0061013526 0.08689661 -0.03590615 5.4620326e-09 4.372737e-06 2.7217002e-05 -0.0630277 -0.00033304025
0.011374056 -7.754971e-13 0.0019514625 0.065397605 6.249642e-10 0.019821374 0.042596962 0.06421483
-4.3523243e-09 0.0045902664 -0.02418558 0.024162935 0.008566884 -0.032947816 -0.008724263 0.02518785
-0.15221354 -1.325492e-12 -0.14454302 0.21510834 0.052986767 0.22694491 -0.18660998 0.11646123
0.016865954 0.03406459 0.23078664 0.24407534 0.07482079 -0.05325271 0.035304 -0.021934688
0.015167857 -0.094308 0.0884747 -0.141997 0.08493144 0.06633194 -0.08584011 -0.013476121
-0.12524126 0.068300396 0.07899964 0.10663893 0.0014574074 0.041359782 -0.039946478 0.03347731
-0.010693504 0.08150367 0.019791072 -5.4515126e-09 -0.11168721 -0.06516861 0.14825532 -0.007848768
-0.046777323 -0.0011556139 -0.12101396 -0.023549851 -0.008865404 0.020448219 9.834609e-06 -0.14092276
-0.043522626 0.15027289 0.08435617 -0.15744221 0.008241609 0.1202501 -0.102430105 -0.00013052038
0.038535435 0.09771755 7.730073e-07 -0.008631903 0.0087573 3.558262e-05 -0.055464607 0.026162684
0.07992847 0.027342087 0.004061426 0.17968082 0.160354 0.18273883 0.0042335293 0.05336284
0.043058302 0.12076754 0.15147044 0.23898414 -0.08943735 -0.0026120616 0.16968107 0.008959783
0.029426506 -0.14375621 0.06122557 -0.111410625 0.15147197 -0.06008132 -0.09150394 0.1487684
0.09326186 -0.008443382 -0.028749237 -0.06748575 0.08803885 0.055674687 0.023271982 3.102045e-05

bias f4 [64]
00000000: 4bd8 213e c861 153e b824 e3bd e2d2 253e
00000010: 8055 75bd baed 933d 37a7 a5bd 17ad 753e
00000020: 483a 1a3a ca62 9fbd 6a07 2c3e 4ffa 2e3e
00000030: ebac 333e 67eb 23be e6df e73d 92e5 403e
00000040: f4f3 dcbd 3fb4 99bd 337c 0a3e 61a5 5e3e
00000050: adb1 c1bc d23e 5f3b c51d 94bd 2707 fd3d
00000060: 923a 093e 10dd 133e 0935 713d fbf1 2d3e
00000070: 7040 cf3d 9d71 ea3d e551 01be 1c7a 803d
00000080: 8dd4 08be 5324 473e 2588 7cbd 3275 273e
00000090: 6189 903d 73e6 4e3e 47f0 043e c7a7 23bd
000000a0: c982 77bc c867 023e 4ebb fd3c a4fc 88bb
000000b0: dcb8 ac3d 09f3 1e3c 44c4 183e 1644 993d
000000c0: 9305 1fbd 679d 2a3d 4960 503e 3903 403e
000000d0: c4df 193e 539d 04be d2ac 383d 0324 d1bd
000000e0: 5165 c3bc 78ca a43d 1233 bfbd b5a7 bf3d
000000f0: e67d 2dbd 1e33 95bc ac12 243e 92b4 15bc
0.15805165 0.14588082 -0.11090988 0.16193727 -0.059895992 0.07223077 -0.08088534 0.2399181
0.00058833184 -0.077825144 0.16799703 0.17087673 0.17546432 -0.16007768 0.11322002 0.18837574
-0.10788718 -0.07505082 0.1352394 0.21742775 -0.023644293 0.0034064543 -0.072322406 0.1235488
0.13401249 0.14439797 0.05888847 0.1698684 0.10119712 0.11447451 -0.12628897 0.062732905
-0.13362332 0.1944745 -0.061653275 0.163533 0.07057453 0.20205097 0.12982284 -0.039954927
-0.015106865 0.12734902 0.030973103 -0.0041805077 0.08433697 0.009701499 0.1491862 0.074836895
-0.038823675 0.041654017 0.2034923 0.1875123 0.15026766 -0.1295064 0.04508669 -0.10211947
-0.023852022 0.0804643 -0.09335913 0.093581595 -0.042356394 -0.018212851 0.16022748 -0.00913729
