model/1025.940357208251953.pt (torch_old, 170367 bytes, 19 tensors)

weight f4 [256, 3]
000000 2f 40 6a 3e bc c0 ef be 2d d4 6e bd 72 e4 b9 bd
       0.22876047 -0.46826732 -0.058307815 -0.090767756
000010 c3 36 0d bf 2b 1e 16 3f ab 2d 56 be be b8 12 3f
       -0.55161685 0.5863978 -0.20915858 0.57313144
000020 91 59 e0 3e 1c be 08 3d 48 1c a6 3e ca ef ce 3e
       0.43818334 0.033384427 0.32443452 0.4041732
000030 c4 18 a8 3e 3c ec 7d be e9 8d 42 3e b3 cb e4 3e
       0.32831395 -0.24797148 0.18999447 0.4468666
000040 98 12 a2 be 7b 8a c3 3b 7d b4 79 be 7f c2 ca 3d
       -0.3165481 0.005967436 -0.24385257 0.099003784
000050 ba bc 1a 3e 96 7f 65 3d d9 78 18 3f 58 b3 d7 3e
       0.15111056 0.05602988 0.595594 0.42129016
000060 ef 14 3d 3c d2 46 14 3f bf 77 4d be 49 59 ba 3e
       0.0115406355 0.57920563 -0.20065211 0.36396244
000070 69 fe 0d 3f 5c 22 31 be 5f fb 2d 3d c8 ed 35 bf
       0.55466324 -0.17298263 0.042476054 -0.7106595
000080 f7 8f 26 be ed 90 90 be eb 0f 4b be b6 e7 71 3d
       -0.16265856 -0.2823557 -0.19830291 0.059058867
000090 f0 a8 3d be 4c c3 e2 3e 80 1a 48 3d e1 50 c6 3e
       -0.18521476 0.44289625 0.048853397 0.3873358
0000a0 7a ba a9 be 1d ba 09 3f 2b 32 15 3e 2b 90 be bd
       -0.33150083 0.5379961 0.14569919 -0.093048416
0000b0 e6 5c 22 3e 42 36 5e 3e 9e 42 f7 be cd 28 72 3e
       0.1585575 0.21700385 -0.48293012 0.23648377
0000c0 f8 18 be 3e 34 aa e4 be 60 89 87 bd b3 68 b2 be
       0.37128425 -0.44661105 -0.06617999 -0.34845504
0000d0 cb 64 ef 3e 16 81 bd 3e 05 fd 08 bf ce df 0d 3f
       0.46756586 0.37012547 -0.5351108 0.55419624
0000e0 d7 31 06 bf 00 7c f5 3e e2 d7 03 3f bb 7d ed 3e
       -0.524198 0.47946167 0.51501286 0.46384987
0000f0 d7 42 10 3e c6 87 39 bf 65 12 1a be 79 b9 ae be
       0.14087997 -0.724728 -0.1504608 -0.3412588
000100 7b 29 de 3e f8 96 7b 3d 95 0f e9 3d db 91 04 3f
       0.43391022 0.061423272 0.11379925 0.5178506
000110 2c 1d 9d 3e 0a aa 15 bf ed 67 44 3e 94 c3 68 be
       0.3068632 -0.58462584 0.1918027 -0.22730857
000120 ea 56 7f 3e b7 6f 1b 3e 43 12 f4 3e f6 cd 10 bf
       0.24935499 0.15179335 0.47670183 -0.5656427
000130 54 db 3b 3e 2d 73 d2 bd 9c 6b b4 be 84 99 e4 be
       0.18345386 -0.10275874 -0.3523835 -0.44648373
000140 8f 7c e6 3e c4 5e 20 3f bc d4 0c bf 3c af a1 be
       0.45016906 0.626446 -0.55012107 -0.31579006
000150 fd c2 03 bd 58 89 b7 be b9 49 69 bd 61 0a 03 3f
       -0.032168377 -0.35846972 -0.056955073 0.5118771
000160 7f 4d b3 3e 5c 8e d8 be 25 18 44 bd 9c 56 dc 3e
       0.35020062 -0.42296112 -0.04787459 0.43034828
000170 e6 79 af 3e d5 5d dc 3e 14 f4 dd bd e5 b7 cf 3e
       0.3427269 0.43040338 -0.1083757 0.40569988
000180 27 d5 43 3d ac a1 d7 be cb 09 18 bd 73 74 d7 3e
       0.0478107 -0.42115533 -0.037118714 0.4208103
000190 b0 2f 87 bd 88 9a 98 3e ee b0 8f be a4 99 dc 3d
       -0.066008925 0.29805398 -0.28064674 0.10771492
0001a0 a8 08 12 bd b4 9f eb be 0c 2a f8 3e df 32 4c 3d
       -0.035652786 -0.4602028 0.4846958 0.049853202
0001b0 cf 54 36 3e 29 59 ce 3e f9 33 3e 3d 1f 6f a0 be
       0.1780579 0.403024 0.046436284 -0.3133478
0001c0 60 f7 a0 be aa f1 e4 bd 77 11 cc 3d 3d c3 13 bf
       -0.31438732 -0.11178906 0.09964269 -0.57719785
0001d0 ed 81 03 bd e8 47 f5 be d1 d9 10 bf 54 d9 0b be
       -0.03210633 -0.47906423 -0.5658236 -0.13657123
0001e0 89 88 e5 3d 73 02 f2 3e 8e 08 7b 3e f2 cb 99 be
       0.11207683 0.47267494 0.24514982 -0.3003841
0001f0 b1 44 9c be c7 e0 18 3e 48 3c e3 be b6 b6 46 be
       -0.30521157 0.14929496 -0.44381928 -0.19405636
000200 b9 df 06 3f 94 1a 96 3e 6a 44 af 3e 42 97 b9 3d
       0.52685124 0.29317153 0.34231883 0.09062053
000210 b0 52 22 bd d9 84 4c 3d cd 98 0a 3f 6b 2f d8 be
       -0.03962964 0.04993138 0.54139405 -0.42223677
000220 ae b4 10 3e 5f 16 e5 be 47 69 e9 3e f4 14 4f 3e
       0.14131424 -0.4474363 0.45588133 0.20222837
000230 76 4c d7 be b5 80 03 bd d8 10 04 bf 46 8d a0 3e
       -0.42050523 -0.032105166 -0.515882 0.31357783
000240 08 5e b8 3e 7f 03 b6 be 4e cc a8 be e1 06 e5 3e
       0.3600924 -0.35549542 -0.32968372 0.4473181
000250 f7 f8 17 bf c6 3d 8b be 69 b9 b9 be 8e 27 0c 3f
       -0.59364265 -0.27195567 -0.3627427 0.54747856
000260 bd 42 92 bd ce 69 27 be 29 6d f3 3e e0 74 24 be
       -0.071416356 -0.16348955 0.4754422 -0.1606021
000270 db c1 98 3e c3 62 8d be 90 75 da 3e f5 77 80 be
       0.298354 -0.27614412 0.42667818 -0.2509152
000280 0a f9 73 3e 96 d6 8d be e3 bb d9 3e fc 73 a2 be
       0.2382547 -0.2770278 0.4252616 -0.31729114
000290 20 74 24 3e e1 f2 d6 3e 29 6b b2 3e 20 82 3b bc
       0.16059923 0.41982177 0.34847382 -0.011444598
0002a0 2d d1 f8 3e c4 a0 63 bc f1 42 af 3e 48 63 bf 3e
       0.48597088 -0.01389331 0.3423076 0.37380433
0002b0 53 a7 8d be e9 0d 8b bd 08 bd c5 bd 4a 49 09 bf
       -0.2766672 -0.067897625 -0.096551955 -0.53627455
0002c0 d4 e6 ba 3e a6 63 3b be ee cf d6 3e 66 72 bc be
       0.36504233 -0.18299732 0.41955513 -0.3680603
0002d0 bf 16 45 be 73 1b 0e 3f 42 2c 94 3e f2 aa 74 be
       -0.19246958 0.55510634 0.28940016 -0.23893335
0002e0 13 af 19 3f f2 0a 86 3e 93 b0 71 3e 8a b6 05 bf
       0.6003277 0.26180226 0.23602514 -0.5223166
0002f0 66 70 77 bd 08 6b c3 3e 8f ac 1c be c8 dd 9b be
       -0.060409926 0.38167596 -0.15300201 -0.30442643
000300 06 6f e0 3e c3 21 f6 be d6 4b de 3e 00 ad c4 b8
       0.43834704 -0.48072633 0.43417233 -9.378232e-05
000310 34 55 d7 be 23 bf f9 3e cb 6e ff be 7b e4 6c 3d
       -0.42057192 0.48778638 -0.49889216 0.057835083
000320 16 be 32 3e 73 75 f6 3e 68 31 10 be ed 69 d9 3e
       0.17455325 0.48136482 -0.14081347 0.42463627
000330 7d c7 ef 3e 51 69 0a 3f c3 94 0d bf fe b8 fc ba
       0.46831885 0.5406695 -0.5530512 -0.0019281206
000340 07 9c 04 bf 5f 09 21 3d 67 da 19 be cd 9e 12 3f
       -0.5180058 0.039315578 -0.1502472 0.5727356
000350 74 ec 41 be b2 9d 9d bd 7d 91 8a 3e 83 48 28 3d
       -0.18937856 -0.076960936 0.27064124 0.041084778
000360 f2 31 ea be 88 dc 10 be 25 d0 f2 3e a8 c3 90 bd
       -0.4574123 -0.14146626 0.47424427 -0.070685685
000370 16 6d 10 bf 8d 8a c4 bd d1 87 8d 3e 1b c0 c4 be
       -0.5641645 -0.09596739 0.27642682 -0.38427815
000380 a6 05 26 be ae 0f 33 3e 58 3e b3 3e 25 01 d3 3c
       -0.16213092 0.1748645 0.35008502 0.025757382
000390 61 23 e4 3e 94 6c 2e 3e 6a 4b b1 bd 4d 78 9d 3e
       0.44558242 0.17033607 -0.08656962 0.30755845
0003a0 7b 78 a5 be c3 a2 0a 3f bf bb ee be a2 25 2a bf
       -0.32318482 0.54154605 -0.46627614 -0.66463673
0003b0 5f 52 81 be 87 95 cb 3e ee 5f d2 3e 9c fb 22 3d
       -0.25258157 0.39762518 0.41088814 0.039790735
0003c0 05 c0 c9 be 1c 38 eb 3e 96 a3 d2 be 27 0b 28 bf
       -0.39404312 0.45941246 -0.4114043 -0.6564202
0003d0 0f 7b 7e be 99 c9 b3 be 2c 54 ce 3e 55 ac 96 3e
       -0.2485163 -0.35114744 0.40298593 0.29428354
0003e0 ee 93 b4 3d 78 7d e4 be 37 a4 34 3e 28 83 af 3e
       0.08817278 -0.44626975 0.17640768 0.34279752
0003f0 b2 72 a1 be 60 f3 87 3e 81 c8 8e be 67 3b b1 3c
       -0.31532818 0.26552868 -0.27887347 0.02163477

bias f4 [256]
000000 60 b0 77 be f2 47 f5 bc 9c 64 d6 3e 57 8c 26 3e
       -0.24188375 -0.029941533 0.41873634 0.16264473
000010 e5 92 fe be f9 47 11 3f c4 d0 cf 3e fb 22 b2 3e
       -0.49721447 0.56750447 0.40588963 0.34792313
000020 61 bb 30 3e 07 02 ac 3e e5 9a 9b 3e 97 98 f5 be
       0.1725898 0.33595297 0.30391613 -0.4796798
000030 73 f9 e0 3e 84 48 4c be 83 bf 44 3d 8a 38 62 be
       0.43940315 -0.19949538 0.048034202 -0.2209188
000040 2c 74 71 be 47 5d d8 3e 7e 14 2f 3e 00 d5 bd 3e
       -0.23579472 0.42258665 0.17097661 0.3707657
000050 e6 9f 13 3f 3c 80 b3 be 01 83 af bd 82 26 d6 3e
       0.5766586 -0.35058773 -0.08569909 0.41826254
000060 f0 81 f0 3e 4a 7d 57 3e a4 4e 65 be 47 e4 3a be
       0.46974134 0.21043888 -0.2239328 -0.18251143
000070 32 8e ba 3e 3f d5 e8 bd 15 67 aa 3d 4f 54 d2 bd
       0.3643661 -0.113687985 0.083204426 -0.10269987
000080 7a 9a 12 3d 38 2d 2f be bc a8 c0 bd 26 1d 79 3d
       0.03579185 -0.17107093 -0.094071835 0.060818814
000090 41 43 a2 3e 53 b0 13 3f 9e 33 d4 be d9 bb 16 be
       0.31691936 0.57690924 -0.4144563 -0.14720096
0000a0 b5 10 be 3e 79 72 ef be 30 4c 92 3e e7 52 87 3e
       0.3712212 -0.46767023 0.2857375 0.26430437
0000b0 53 4d 25 3d bf bb 21 3e 73 94 65 be db e4 a6 be
       0.040356945 0.15794276 -0.2241991 -0.32596478
0000c0 b9 46 0f 3f b3 0b 15 3f a4 03 b6 be 85 f8 80 3d
       0.5596729 0.58220977 -0.35549653 0.06297401
0000d0 2e e0 60 be 4d e7 e7 3e 11 a7 f8 3e 08 bc c4 be
       -0.21960518 0.45293656 0.48564962 -0.38424706
0000e0 9d 79 e7 3e a7 65 90 3e a3 c7 ce bc 05 72 a4 3b
       0.4520997 0.28202555 -0.025241679 0.005018475
0000f0 a5 f3 35 be 2e 22 15 bf 92 ee 95 be 32 e5 5c ba
       -0.17768724 -0.5825528 -0.29283577 -0.0008426487
000100 ea 89 fd be d6 59 0f bf ae 32 89 3c 2f eb 8e be
       -0.49519283 -0.55996454 0.016747799 -0.27913806
000110 dd 47 23 be 51 72 cb 3d 80 08 10 be 0d 8b 94 3e
       -0.15945382 0.099339135 -0.14065742 0.29012337
000120 a3 a0 d4 be 72 7c 1b bd d9 95 39 3f fb 72 ca 3e
       -0.41528806 -0.037960477 0.72494274 0.39540848
000130 57 26 aa 3e 38 37 96 3d 60 13 aa be 41 06 1c bf
       0.33232376 0.07334751 -0.33217907 -0.6094704
000140 ab e9 f7 3e 32 f1 0c 3c 7f 5f f3 3d 9b ef 19 bf
       0.48420462 0.008602427 0.11883449 -0.60131234
000150 36 df ac be b4 38 8d 3e f8 b4 00 bf 78 ed 02 bf
       -0.33764046 0.27582324 -0.50276136 -0.511436
000160 56 67 ad 3e 41 be b9 3e aa 54 0d bf 18 71 4d be
       0.33867902 0.36277965 -0.5520731 -0.20062673
000170 57 7e 05 bf f3 10 66 3e b4 ae 07 3f 76 54 25 3e
       -0.52145904 0.22467403 0.5300095 0.161455
000180 00 d1 4d be 56 cf 60 3e 43 e2 1a 3e 02 f8 2b 3b
       -0.20099258 0.21954092 0.15125374 0.0026240353
000190 6c d4 a2 3e 14 a5 02 3e c6 fa 62 3f 4b 79 db 3d
       0.3180269 0.12758285 0.886639 0.10716494
0001a0 41 46 cf 3d 8a 23 02 bf ad 80 b2 3e 2f 76 94 3d
       0.10120822 -0.5083548 0.34863797 0.07249104
0001b0 9f 6f 92 be 15 ee 83 bd 8f f7 b7 3e c3 ae 43 be
       -0.28600785 -0.06441895 0.3593106 -0.19109635
0001c0 65 fc 9c 3e 7a 75 81 3e ea b6 ef be 8c c5 d3 3e
       0.30661312 0.2528494 -0.4681924 0.41361654
0001d0 0b 9f ad be 00 d5 6d 3e 8a c4 0f be c0 64 b9 3d
       -0.33910403 0.23225784 -0.14039817 0.0905242
0001e0 7b 20 a6 bd b0 6c 5c 3d d4 fc 8d bd e8 52 5b be
       -0.08111664 0.05381459 -0.06932989 -0.21418345
0001f0 22 3a dc 3e 73 ed 7b 3e 16 ef 3e be 86 c0 ee 3d
       0.43013102 0.24602298 -0.18645892 0.11657815
000200 70 bd 8c 3e 18 e8 e9 3e 67 f5 d1 3e bc 94 cc 3d
       0.2748828 0.45684886 0.4100754 0.09989306
000210 72 80 b4 be fb 8c 80 be 07 ff 8c 3e a0 15 88 be
       -0.35254246 -0.2510756 0.2753832 -0.26579
000220 c3 8c 96 be a7 84 06 3f 88 58 53 3d e4 40 00 3f
       -0.29404268 0.5254616 0.0515981 0.50099015
000230 01 cc dc be 92 e2 12 3f 67 be 21 3f f9 da 0f bc
       -0.43124393 0.5737697 0.63181156 -0.0087802345
000240 ae 79 93 3e ed 72 d4 3e af f7 99 3d e5 96 a8 3e
       0.28803772 0.4149393 0.07517945 0.32927623
000250 59 90 d0 3e a7 ad a8 3e f5 7b f4 be 3f fb 18 be
       0.4073513 0.32944986 -0.47750822 -0.14939593
000260 21 1f 23 3e b0 5d 60 bc ea ea 6c 3e af 8d a1 3e
       0.15929843 -0.013694212 0.23136488 0.31553409
000270 4a dc 39 be 1e b6 f5 3e 16 68 15 bf 94 ba 80 be
       -0.1815044 0.47990507 -0.5836195 -0.25142348
000280 5d ba 85 bc 2e b3 20 bf 3e d0 ec 3e 4b 2e 08 3e
       -0.016324216 -0.62773407 0.46252626 0.1329891
000290 cb b5 56 bc d4 ae d1 be fc 2e 96 be d1 65 c3 be
       -0.013104866 -0.40953696 -0.2933272 -0.38163617
0002a0 62 f7 db bd 42 d8 57 3f ad 49 8b 3b 65 ee 08 be
       -0.10740544 0.8431436 0.004250726 -0.1337219
0002b0 f8 0b b8 3e b2 1d e0 3e b8 49 53 be b0 7a 29 3f
       0.3594663 0.43772656 -0.2063359 0.6620283
0002c0 67 07 23 3f 30 47 3c 3c 9d e5 b0 be 0d 29 c7 be
       0.6368317 0.011491582 -0.3455018 -0.38898507
0002d0 b9 1c a8 be 45 c1 aa 3e d7 a4 f4 bc 33 75 84 be
       -0.32834414 0.33350578 -0.029863758 -0.25870666
0002e0 99 5a d7 3e 34 e2 03 3b 79 bc 4e be cf e0 9e be
       0.42061308 0.0020123841 -0.20189084 -0.3103089
0002f0 a4 76 bf bd 64 9e be 3e 65 f6 c0 3e 49 4b 33 3c
       -0.09348801 0.37230217 0.37687984 0.010943242
000300 c6 d6 4c 3f 85 99 20 3f 3e 2b a7 be 96 3f 14 bf
       0.8001522 0.6273425 -0.3265018 -0.57909524
000310 12 ce d3 3d 9b 0a 6e 3c 1b 61 be 3e 89 40 c2 be
       0.10342039 0.014528896 0.3718346 -0.3793986
000320 31 d7 8b bd db e7 86 3e 02 cf 8c 3e ee d6 8a 3e
       -0.06828154 0.26348767 0.27501684 0.27117103
000330 10 7e 21 be 8d 3c b1 3e 81 84 c8 3d 1e b2 ef 3d
       -0.15770745 0.3461651 0.09790898 0.11703895
000340 76 11 9e 3e da 33 c3 3d 83 ac 8d bd ca b7 06 3f
       0.30872697 0.09531374 -0.069176696 0.5262419
000350 a4 9c f7 3e 22 0d 30 3f f0 13 15 3e 5d 03 13 3f
       0.48361695 0.6877004 0.14558387 0.57427007
000360 2f 3a bd 3e dd 3b 68 bd de 77 c8 be 78 a7 42 be
       0.36958453 -0.056697715 -0.3915395 -0.19009197
000370 b5 49 a0 bd 7e 68 3f 3d e7 2e af 3e 48 0c 1c 3f
       -0.078265585 0.04673051 0.3421547 0.6095624
000380 9d 78 b5 3e 49 d3 1c 3e 0a 06 ab bd 6e 2d 30 3f
       0.35443583 0.15314974 -0.08350761 0.6881932
000390 1b 42 1b 3e 7c f6 85 be 8a 7c 11 3e ae 38 aa bd
       0.15161936 -0.26164615 0.14207664 -0.08311592
0003a0 31 e3 7a be 6c fe c2 3e 66 f1 17 3e d5 f4 e0 be
       -0.24500729 0.38084733 0.1483818 -0.43936792
0003b0 d9 e3 a5 3e 42 9e cb 3e fe 7d 96 3e c0 13 a5 3e
       0.32400396 0.3976918 0.29393 0.3224163
0003c0 36 e8 0e bf ca c2 42 be f8 f3 99 3d ea aa ac 3e
       -0.55823076 -0.19019619 0.075172365 0.33724147
0003d0 77 12 d0 be 9d 8b e0 be 31 77 af be c2 92 58 be
       -0.40639088 -0.43856516 -0.34270623 -0.21149734
0003e0 f1 45 47 be 00 84 04 3f 16 ce 29 3d 71 18 24 3f
       -0.19460274 0.51763916 0.041456304 0.64099795
0003f0 92 ac 17 3d e2 a9 0d bb 3e d9 8a 3e a9 f0 0b be
       0.03702981 -0.002161615 0.27118868 -0.13666023

weight f4 [64, 256]
000000 4e 49 06 3c 16 1a bf 3c fb 75 64 3d 16 bc 94 3d
       0.008196188 0.023327868 0.055776577 0.07262437
000010 90 14 dc 3c 02 bd ce 3c 7a c3 81 3d 71 e5 7b 3d
       0.026865274 0.02523661 0.06336112 0.06149811
000020 34 b6 ad bd 71 98 e0 bd 1c f7 3a be 09 ec 41 3d
       -0.08482018 -0.10966576 -0.18258327 0.04734424
000030 ef ae 23 3d 6f 67 4c 3d 18 00 94 3d ba 53 ef b9
       0.03996175 0.04990333 0.072265804 -0.00045648013
000040 3f 87 8e bb 6a 19 a2 3d b9 d7 8f bd bf 75 0c bb
       -0.0043496187 0.079150036 -0.07023568 -0.0021432487
000050 eb b4 e0 bd ce f5 13 bc 77 7b 3c 3d 65 61 8a bc
       -0.10972007 -0.009030772 0.046016183 -0.016892144
000060 bc 97 95 3d 76 ad af bd 07 dd 44 3d be dd 5c bd
       0.07304332 -0.08578007 0.04806235 -0.053922407
000070 a5 38 69 be 1a 07 68 bd 27 e5 0e bc 82 b6 96 3d
       -0.22775514 -0.056647398 -0.008721626 0.07359029
000080 84 8d 7f bd f7 05 15 3d 2a aa d4 bc c4 07 ef bc
       -0.06239082 0.03638264 -0.025960047 -0.029178508
000090 38 f6 7e 3d b5 b4 68 be de d4 4a 3d 19 f9 97 bd
       0.06224653 -0.22725184 0.049519412 -0.074205585
0000a0 42 c7 83 3d a2 54 85 bc f6 18 4d bc de 19 31 3d
       0.0643449 -0.016275708 -0.012518158 0.04323756
0000b0 35 62 86 3d 78 20 1f be fc 45 0c 3c 14 3b de 3c
       0.065617 -0.1553973 0.008561607 0.02712778
0000c0 24 8f 1e be c9 c2 34 be 6b 49 b9 bc 0f 6a b1 bb
       -0.15484291 -0.1765243 -0.022618016 -0.0054142545
0000d0 a9 50 d5 ba 53 91 a2 bd 38 60 36 3d e7 b2 90 bc
       -0.0016274649 -0.07937875 0.044525355 -0.017663432
0000e0 59 16 cf 3c d8 56 c8 3c e5 44 df bb c3 65 a0 bc
       0.02527921 0.024455473 -0.006813633 -0.019579774
0000f0 40 78 f5 3c 9c 6d 83 3b b4 d1 12 bd cc 39 02 bd
       0.029964566 0.004010869 -0.03584452 -0.0317934
000100 8e 41 3c bc 20 fb 5c 3c 8d 44 d2 3b d1 89 0c bd
       -0.011490239 0.013487607 0.0064168633 -0.03431112
000110 31 27 3e bd 14 73 04 3d 8e c6 1a bd 2e ed 48 bc
       -0.046424095 0.03233631 -0.037787013 -0.012263579
000120 3c fb 62 3d d1 37 b4 be 58 23 e1 bd ab f1 50 3d
       0.055415377 -0.35198835 -0.109930694 0.051011723
000130 02 cf 36 bd 64 a5 52 3d 8e 97 14 be d1 2a 23 3d
       -0.04463101 0.05142726 -0.14510939 0.039835755
000140 a7 3b d8 3b b0 0c 8a bd 8d c7 3e 3d b0 b2 3a 3c
       0.006598908 -0.06740701 0.046577025 0.0113951415
000150 a8 52 95 bd 09 62 01 3d 4a 33 1f bd a2 91 25 bd
       -0.07291156 0.031587634 -0.038867272 -0.04042209
000160 ed a0 39 3d 77 8d 67 bd 94 4e 0f bd b9 da 5e bd
       0.045319486 -0.056531396 -0.034987047 -0.05440781
000170 a4 d6 83 3d 03 e9 a7 bc f7 c8 b3 bb f5 62 af 3c
       0.06437424 -0.02049685 -0.0054866034 0.021409491
000180 15 91 05 3d b1 ef 7a bd c6 8b 86 3d f2 aa 9e 3d
       0.032609064 -0.061263744 0.065696284 0.07747449
000190 a8 d5 87 3d 46 46 9d be 65 17 a5 be af e3 3a bd
       0.066325486 -0.30717677 -0.3224441 -0.045627292
0001a0 18 c8 0f 3d bc 00 b0 3b 0f ea d7 b9 89 f5 6e bd
       0.035102934 0.0053711813 -0.00041182383 -0.05833963
0001b0 1e 35 87 be 22 47 3b 3c 71 50 08 bd 14 5b 3e 3c
       -0.26407713 0.011430534 -0.03327984 0.011618394
0001c0 b3 4b d1 bc 62 38 08 be fe 71 81 3c 5b c6 9a bd
       -0.025548792 -0.13302758 0.015801426 -0.075573646
0001d0 e1 f4 0c be bf ab 22 3c e5 c3 0a 3d b5 c2 67 be
       -0.13765289 0.009928643 0.033878226 -0.22632869
0001e0 76 fd 94 3d e0 bb 13 3d 83 c0 38 3d 8f 39 90 3c
       0.07274906 0.036067843 0.04510547 0.017605571
0001f0 5a 38 0a be a1 9f 5c 3d e8 22 09 bd 54 e9 f0 bd
       -0.13498059 0.05386317 -0.033480555 -0.11763254
000200 52 d7 89 3c c4 e7 a4 3d bc 97 9d 3d 0a 81 24 3d
       0.016826306 0.08052018 0.07694957 0.040162124
000210 f0 14 9c bd 2b 29 c9 bd 87 25 d3 3b 08 f7 dc bc
       -0.07621181 -0.09822305 0.0064436826 -0.026973262
000220 84 e0 57 bb 16 44 87 bd 62 da e9 bd 3f a4 b5 be
       -0.0032940218 -0.06604783 -0.11418606 -0.35476872
000230 8c b3 87 3d 39 bf 14 be fd f1 85 be b3 bd de bd
       0.06626043 -0.1452607 -0.26161185 -0.10876026
000240 9d 18 2f 3d 86 b0 b1 bd 9a c5 89 bd 4f 8f 44 be
       0.042748082 -0.08676247 -0.06727143 -0.19195293
000250 22 86 f0 bb 36 21 47 bc e4 db 8a 3d fc 0d 89 3d
       -0.0073402086 -0.012153914 0.06780222 0.066921204
000260 76 82 02 be 79 64 36 3d ed 41 57 3d a8 66 c3 bb
       -0.1274508 0.044529412 0.052553106 -0.0059631653
000270 eb ad cd bd 7f 4a 41 3d 6f 4a e1 bc 09 74 02 3d
       -0.10042938 0.047190186 -0.027501313 0.03184894
000280 53 73 a1 3d 56 41 18 3d 05 21 6f 3d 1c 31 11 bd
       0.078833245 0.037171684 0.0583811 -0.035447225
000290 56 dc db bd 00 fe 30 3c 16 8d 3c 3d 06 47 4c bd
       -0.10735385 0.010802746 0.046032988 -0.04987242
0002a0 4a 68 07 be 83 8c 82 be 30 b5 1c 3b 6f 6c 83 bd
       -0.13223377 -0.25497827 0.0023911707 -0.064171664
0002b0 dc b1 9b bc 70 69 32 be 1f 68 c1 bc db 74 00 bf
       -0.019005708 -0.17423034 -0.02360922 -0.5017831
0002c0 d4 0b f3 bd 97 06 f9 bc a8 e0 88 bc 01 44 f4 3c
       -0.118674904 -0.03039865 -0.016708687 0.029817583
0002d0 ef a4 02 3d 9c 11 23 bb ee 6e 27 3d 14 8d 0f 3d
       0.031895574 -0.0024882322 0.040877275 0.035046652
0002e0 bc 23 f1 bd aa 3c 12 bd ab 19 a1 bc 3d ab 7f 3d
       -0.11774394 -0.035702385 -0.01966556 0.062419165
0002f0 bc af 56 3c 5b 55 88 3d 19 22 60 3d 16 5c 0a bd
       0.013103422 0.06656905 0.054720018 -0.033779226
000300 88 63 ba bd 9e 6a 64 bc d8 ad 81 3d f6 f9 ae 3c
       -0.09101015 -0.013941435 0.06331986 0.021359425
000310 fd 98 3b bd f3 dc 6b bd 2d f8 86 3c 0f b6 68 3c
       -0.045800198 -0.05758376 0.016475761 0.014203562
000320 00 6f df bd 23 44 3b 3d be 2d af 3a 93 0a bf be
       -0.109098434 0.045719277 0.0013365073 -0.37312755
000330 a6 65 53 bd e8 87 a7 be 5b c6 c1 3c 3b 04 b1 bd
       -0.05161061 -0.32720876 0.023654154 -0.08643385
000340 94 82 98 bc 61 e6 df ba 46 e1 b3 bd 5e fa dd bb
       -0.018616952 -0.0017082208 -0.08783202 -0.006774231
000350 e1 9a fc bb 84 fc 89 bd 51 45 af 3b 3d 80 77 be
       -0.0077088927 -0.06737617 0.0053488393 -0.24170013
000360 9f 55 31 be 64 4c bf 3c c2 db e9 bb d0 91 5c 3d
       -0.17317818 0.023351856 -0.007136793 0.053849995
000370 6b 28 86 bd a2 5d 27 bc 61 5f 73 3c 1f f4 ad 3c
       -0.06550678 -0.010215195 0.014854283 0.02123457
000380 d1 cf 5a 3d 08 ed 93 bb 07 60 fe bb 41 77 a0 bd
       0.053420845 -0.0045143403 -0.007762912 -0.07835246
000390 14 ed b1 be f4 21 9a 3d 3d 44 35 bd b3 44 7f 3d
       -0.3475119 0.07526007 -0.04425453 0.062321376
0003a0 b1 7e f2 3c 9b 53 70 3d 90 57 62 3c c5 65 f2 3c
       0.029601427 0.058673482 0.013814822 0.029589543
0003b0 91 06 9d 3d cc 1d a1 3d 64 34 92 bc 0d 85 30 bd
       0.07667268 0.078670114 -0.017847247 -0.043095637
0003c0 7a dc 73 3a 42 68 d8 bd ac 7f 44 3c 8b 4a ea 3c
       0.0009302568 -0.105667606 0.01199333 0.028599998
0003d0 33 5b f1 bc fc 00 22 3d ea 3c 70 bc 0b c0 60 bd
       -0.029462432 0.03955172 -0.014662961 -0.054870646
0003e0 ea 17 1d 3d 52 08 a7 bd e6 57 96 3d 8c 5d 05 bd
       0.038352884 -0.08155884 0.07340984 -0.032559916
0003f0 87 e5 a5 bc 9a b7 c3 be 6d 02 ee 3b 79 45 23 3d
       -0.020251049 -0.38226014 0.007263473 0.039861176

bias f4 [64]
000000 42 67 11 3d 4a 88 5b bd 92 6e 1e 3c 50 6c f6 ba
       0.035498865 -0.053596772 0.009669917 -0.001880059
000010 2d a2 91 bd fc 5a bb 3d 70 75 0b 3e aa 8b 8a 3c
       -0.07111011 0.09148213 0.13619018 0.0169123
000020 21 9d a0 3c 27 e5 20 3d 5b 38 ff 2f 45 1b 38 bd
       0.019606175 0.039281037 4.6424273e-10 -0.04494788
000030 b3 c4 25 3c 57 3c 76 bd a0 81 85 3e fe ea 11 2e
       0.0101176975 -0.06011614 0.2607546 3.3177898e-11
000040 81 6e 8a bc 35 ca ef 3d 30 28 cf b7 b3 10 6a bd
       -0.016898395 0.1170849 -2.4695037e-05 -0.057144832
000050 33 ec dd 3c ec d5 cf 3d dd 2a 5a 3c 5d 81 e5 3d
       0.027090168 0.10148224 0.013315883 0.11206315
000060 6f 53 38 3c 2d 0d de bc 5e 5b 1b 3e 95 81 cf 3c
       0.011250361 -0.027105892 0.15171573 0.025330344
000070 21 a3 a3 3c b0 84 d4 3a c8 68 b4 ba f7 ee 7c 3d
       0.019975247 0.001621386 -0.0013764137 0.061751332
000080 21 9c 16 bd 91 76 bc 3c 68 1c 15 3e eb 24 60 3c
       -0.03676999 0.023005756 0.14561617 0.013680677
000090 a1 ef 00 3d 31 7d 82 bd 43 1c 28 3d af 92 84 3e
       0.031478528 -0.063715346 0.041042577 0.2589316
0000a0 f0 2b ce 3d 35 fb e6 bc a6 c7 c0 3d 27 1d f2 2c
       0.10066974 -0.028195957 0.0941308 6.8812902e-12
0000b0 01 56 12 3d 22 25 05 3d 82 c9 1e b8 9f 19 3c bd
       0.03572655 0.032506116 -3.7857804e-05 -0.04592287
0000c0 8b da fe bc 76 f1 23 3c 22 fb 47 38 e2 4c e8 3c
       -0.031110069 0.010006299 4.7679183e-05 0.028356973
0000d0 58 db 06 bd a0 a2 57 bd eb 59 63 bc 61 82 f3 3d
       -0.032924026 -0.052645326 -0.013876419 0.11890102
0000e0 15 02 5e 3c d7 99 16 bd 07 d4 79 bd 94 29 88 bc
       0.013550301 -0.036767807 -0.06099322 -0.016621388
0000f0 d2 84 0f bd 95 20 0d ae dc c7 38 b8 f5 e3 a7 bd
       -0.035038777 -3.2088627e-11 -4.4055152e-05 -0.08197776

weight f4 [32, 64]
000000 61 81 c2 3d e8 9f 9e 3c b9 75 33 3c 9d dd a0 3d
       0.09497333 0.019363359 0.01095336 0.078547694
000010 b2 8b 11 be ef f4 87 3e 24 04 0c 3e 81 20 e8 bd
       -0.14213446 0.26554057 0.13673455 -0.11334325
000020 c1 d4 ed 3c 6f 60 b0 bd a8 25 90 30 d1 30 3b 3d
       0.029032113 -0.08612143 1.0488082e-09 0.04570085
000030 e3 cd ca 3c 20 b1 94 bd 99 03 85 be 72 65 84 31
       0.024756378 -0.072603464 -0.25979307 3.8532386e-09
000040 07 42 4c bc 95 52 9c 3e ee 1d 8b 3c 23 50 5c be
       -0.012466914 0.30531755 0.016982045 -0.21514945
000050 79 3a 56 3d 27 28 33 3e 1b 93 bc bd ad 42 42 3e
       0.052301858 0.17495786 -0.09207746 0.18970747
000060 60 c6 21 bc 8b fe 5a bd 20 79 91 3e b2 53 09 3d
       -0.009873956 -0.053465407 0.28412724 0.033527084
000070 1f af 31 bd 98 56 3d bb 28 40 b0 38 e8 7f ca 3d
       -0.0433799 -0.0028890725 8.404284e-05 0.098876774
000080 32 2e 1c 3d d0 84 c7 3d 27 41 7f 3e 44 83 5a 3d
       0.038129993 0.09742129 0.24927197 0.05334784
000090 8a 05 0e bd d5 18 d5 bd 0f 69 dc bd 00 72 27 3d
       -0.03467325 -0.10405127 -0.10762226 0.040880203
0000a0 c6 fd 27 3d 5a f4 b0 bb aa 98 b8 3d 80 a4 01 2e
       0.0410135 -0.0054002227 0.09013493 2.947731e-11
0000b0 7c 5f aa bd 13 cc 90 bb 72 e9 35 38 1a 2d a9 bd
       -0.083189934 -0.004418859 4.3371176e-05 -0.082605556
0000c0 cb 84 1c bc 9e 98 07 bd b6 81 97 3c 6c ca 81 bc
       -0.009553145 -0.03310453 0.018494468 -0.015843593
0000d0 b1 24 03 3d 58 e9 dd bd 85 19 09 bd 4c 2b d0 3e
       0.032017414 -0.108355224 -0.033471603 0.40658033
0000e0 ee 06 2a bb 13 b7 85 bd 23 ab 9e bd 0c 4e 12 bc
       -0.0025944072 -0.06529059 -0.077474855 -0.008929741
0000f0 62 d7 9a bc 7f 85 50 2f aa 61 a0 2f 98 8d 6a 3c
       -0.01890153 1.8964917e-10 2.9173225e-10 0.014315985
000100 a6 aa 53 3d a5 59 b9 3d cd 5b c6 bd 3f ed 0a 3e
       0.051676415 0.090503015 -0.09685478 0.13567065
000110 c4 1b a4 bd 23 e6 3b 3e 2a cb 62 3e 24 8a 99 bd
       -0.080131084 0.18349509 0.22147813 -0.07497051
000120 06 f4 4e bd e3 12 e1 3d 90 18 26 bb c4 91 8f 3c
       -0.050525688 0.109899305 -0.002534423 0.017525561
000130 9a f1 0c 3d 10 91 21 3d 18 cc 1b be a3 17 65 38
       0.034410097 0.039444983 -0.15214574 5.4619868e-05
000140 3b fc 49 bc 7c 8b 4f 3e a2 f5 d9 bc 62 32 b7 3b
       -0.012328203 0.20268053 -0.026606385 0.005590723
000150 c6 c1 b2 3d 8b a4 32 3d 02 73 eb 3c 77 e2 76 3e
       0.087283656 0.04361395 0.028741363 0.24109827
000160 05 34 97 bd 47 cf 56 bd 49 10 aa 3d 1f b7 ec 3d
       -0.07382969 -0.05244377 0.083038874 0.11558365
000170 71 9d 9c bd f1 c6 a1 3d 2b 76 21 3a 06 ad d3 3d
       -0.07647217 0.07899273 0.0006159271 0.10335736
000180 f0 c5 b9 3c b7 41 00 3e 90 e4 14 3d f6 53 6e 3d
       0.022677392 0.12525068 0.036350787 0.05818554
000190 36 8b 58 3d e6 51 88 bd 1d 2f a5 3d da 03 64 3d
       0.052867137 -0.06656246 0.08065627 0.055667736
0001a0 b3 04 e1 3d a8 08 20 3c 24 a2 d1 3d ba b1 56 2d
       0.109872244 0.009767689 0.10236004 1.2203955e-11
0001b0 b6 fe 59 bc fd 5c c3 bc 40 8a f4 ba 73 cb 74 3d
       -0.013305357 -0.023848051 -0.0018656924 0.059764337
0001c0 47 bf 15 3d 42 53 f7 3c c1 ff 0e 3d 43 a5 00 bd
       0.03655937 0.030191068 0.034911875 -0.031407606
0001d0 21 b6 9e 3d 88 84 cd 3d 2e bb cd 3d 0e 87 ab 3e
       0.07749582 0.10035044 0.10045467 0.33501476
0001e0 5b 06 7e 3d 05 46 c2 3c 8a 0b 66 bd 2e 87 c0 3d
       0.06201778 0.023715029 -0.05616335 0.094007835
0001f0 ca 33 b7 bd f0 0b 22 ba 9e 78 dd 3b 02 c8 dd bc
       -0.08945425 -0.00061815884 0.0067587635 -0.02707291
000200 74 2b f5 bd 1b 3a da 3c 71 75 b9 3d 23 28 05 bd
       -0.11971179 0.026639035 0.09055603 -0.03250898
000210 3e 1e 86 3d ea 60 e9 3c 23 f7 36 3e bc 58 fe ad
       0.06548737 0.028488595 0.17867713 -2.8915863e-11
000220 8a 3b 6a 3d ba 53 aa 3c 46 18 c1 2c 14 1d ae bd
       0.057185687 0.020791877 5.488085e-12 -0.0850164
000230 4b d2 01 be fa a4 61 bd 09 af 6c be 5e 79 e7 2c
       -0.12677877 -0.055088975 -0.23113646 6.5788893e-12
000240 dd 9c c2 bd ec 14 a2 3d e1 13 0b bd 82 15 f2 bd
       -0.095025755 0.07914147 -0.033954505 -0.118205085
000250 d3 9a 2b bd bc 19 04 3e b5 71 50 bc 18 46 de 3d
       -0.0418957 0.12900442 -0.012722422 0.10853213
000260 68 ac b7 bd 14 fb 58 be 05 15 b2 3d 7f 34 bf 3d
       -0.08968431 -0.21189529 0.086954154 0.09336185
000270 c9 16 2a 3d 77 20 78 3d ef 45 de 2c ce 42 2c bd
       0.041525636 0.060577836 6.3173837e-12 -0.042055897
000280 e9 27 8b 3d 06 11 d7 3d a5 8a 27 3e 95 61 1e bc
       0.06794722 0.10501294 0.16361482 -0.00966682
000290 31 45 5a bd a9 7f ad 3c 4c f4 20 3d 49 7b 22 3c
       -0.053288642 0.021179037 0.03929548 0.009917089
0002a0 4a ae e8 3c f1 1f 1b bc 01 dd ad 3d 53 03 16 af
       0.02840342 -0.009468065 0.08489419 -1.3643602e-10
0002b0 87 94 52 3d 64 3d 4f 3d 6b 86 6d 2b ea 7a a0 3d
       0.051411178 0.050595656 8.4385857e-13 0.07835944
0002c0 9d eb 31 3d f5 13 cd bd e1 35 9c ad 2d 4e 03 be
       0.04343759 -0.10013572 -1.7759074e-11 -0.1282279
0002d0 84 0f c1 b6 1f 87 d5 3d 29 48 3e 3c f8 30 2d 3e
       -5.7536545e-06 0.10426163 0.011613884 0.16913211
0002e0 8b 7b 96 37 e0 88 87 3d 4d 19 55 3d 5c 07 b7 3c
       1.7938923e-05 0.06617904 0.05202608 0.022342376
0002f0 ee 1d 88 3d c9 be 3f 2d e8 87 f2 2f de 0e 52 be
       0.06646334 1.0899456e-11 4.411611e-10 -0.20513484
000300 79 23 78 3d d8 e8 82 bd fb 9f 6b 3d 82 52 4d 3d
       0.060580704 -0.06392068 0.057525616 0.050127514
000310 30 7d 8c b9 dd 8e cd bc 6f 66 e1 3d 16 3b eb bd
       -0.00026796153 -0.025092537 0.11005866 -0.11485879
000320 1a 92 eb 3d 5c 6c 66 bd 6a a1 d0 b0 74 62 8d 3a
       0.11502476 -0.056255683 -1.5179868e-09 0.0010786788
000330 b1 46 bd 3c 75 bd 36 bd 54 77 b2 be 92 48 d0 2c
       0.023104997 -0.044614274 -0.34856665 5.9197725e-12
000340 89 78 a1 3d f8 61 1c ba 70 cc 1d 3d fb ae 24 bd
       0.078843184 -0.0005965526 0.038525045 -0.040205937
000350 88 51 45 3c 66 af 11 3e 47 63 33 3d fb 2d 96 bd
       0.012043364 0.14227065 0.04379585 -0.07332989
000360 c4 a2 88 3d b3 88 b2 bd 00 f7 3a bd e8 75 c5 3d
       0.0667167 -0.087174796 -0.045645714 0.096416295
000370 4c 06 e9 3b ff 2b ad 3d 2e 4a 86 2d 40 fb aa 3c
       0.0071113463 0.08455657 1.5266979e-11 0.020871758
000380 a3 37 d4 3d 43 f2 4f 3c 91 36 f7 3d 22 7c f6 bd
       0.10362174 0.012692037 0.120709546 -0.12035395
000390 39 9b 27 bd fa 65 f5 bc 82 63 b1 3d bd 7f f7 3c
       -0.040919516 -0.029955853 0.08661558 0.030212278
0003a0 9c b8 9f bd 44 b4 30 3d 5c de 26 3d 77 de 13 2d
       -0.07798883 0.043140665 0.040739402 8.40538e-12
0003b0 e6 01 9e 3c c1 b3 29 3d 7c 41 a5 2c 22 12 cc bd
       0.019288015 0.041431192 4.6968523e-12 -0.09964396
0003c0 06 22 a1 3d b1 62 83 3d 83 be 6f bb 7d d7 65 3b
       0.078678176 0.06415308 -0.003658206 0.0035071068
0003d0 22 d9 ad 3d 6a 0e 00 3d 73 fe 5b 3d ef c9 38 be
       0.084886804 0.031263746 0.05370946 -0.18045782
0003e0 7d 8b f4 b5 70 0d 90 3c 39 af 75 bd 5a 7b 69 bd
       -1.8220013e-06 0.017584532 -0.05998156 -0.057002403
0003f0 e7 b2 b1 3d d3 bb db b5 96 10 b8 b9 6d 74 2c be
       0.08676701 -1.6371436e-06 -0.00035107572 -0.16841288

bias f4 [32]
000000 63 d5 96 bd d6 4c 04 3e a5 55 9a 3d a4 f6 9c bd
       -0.07364919 0.12919936 0.07535867 -0.076642305
000010 65 bb 43 3d a4 0b b6 3d 17 dd 80 3c 08 f8 b5 bd
       0.047786135 0.08888939 0.015730424 -0.08885199
000020 ae c7 f4 3b b7 75 26 3e 5c b5 83 3d 94 1c 04 bc
       0.0074700927 0.16255842 0.06431076 -0.008063454
000030 a6 6e 46 ba 00 42 d2 bd 72 09 4e bd 9c c1 ee 3b
       -0.00075695885 -0.10266495 -0.050301977 0.0072862636
000040 ba 86 a9 3d 8e 95 cc 3c 51 6d d2 3d cc 26 77 3d
       0.0827765 0.024973657 0.10274757 0.060339734
000050 69 70 eb bd 16 d1 ae b9 ea a8 2a bb 00 9e a7 bd
       -0.1149605 -0.00033343647 -0.0026040622 -0.08184433
000060 e8 77 9a 3e 42 f2 f1 3c 51 5a 54 3d 3a 06 64 3d
       0.30169606 0.029534463 0.051843945 0.05567
000070 d0 97 2f 3e 94 73 7b 3b 8b be d9 bd ad 18 ef 3d
       0.17147756 0.003836845 -0.10632046 0.116746284

weight f4 [8, 32]
000000 7f 8f 10 bf f8 bd 01 be 94 84 59 be 6e f1 07 3e
       -0.5646896 -0.12670124 -0.21241981 0.13275692
000010 3b f5 e3 ba 4b a9 0c 3e dc 9b 9a 30 e6 2c 10 3e
       -0.001739181 0.13736455 1.1249273e-09 0.14079627
000020 47 e3 39 3e 9e 28 82 be 74 d6 28 3e e9 bf 50 bd
       0.18153106 -0.25421613 0.16488057 -0.05096427
000030 15 fe b9 3b d6 0e b2 bd 35 6f 25 3e 47 65 b5 3a
       0.005676041 -0.08694236 0.16155703 0.0013839387
000040 d9 f7 5e bc 94 77 05 3e db 4f b8 bd 35 47 0e bd
       -0.013608896 0.13033897 -0.08999606 -0.034735877
000050 b9 64 d2 bc f0 98 ff bb 14 c7 9a 3d a8 77 87 bd
       -0.025682794 -0.007800214 0.075575024 -0.066146195
000060 54 1a 94 3d e0 4f 19 be 16 79 de b8 9f cd dc 31
       0.07231584 -0.14971876 -0.00010608339 6.426219e-09
000070 65 2a f8 be 7f a1 7a bd 6f aa 9f 3d ae 18 13 3d
       -0.48469844 -0.06118917 0.077961795 0.03591221
000080 37 3a d6 be fd b1 ff bd 76 db bd be 3a 06 1b 3e
       -0.4184129 -0.124851204 -0.37081498 0.15139094
000090 b9 34 8b bd 64 ab 37 3e 58 ee cc ba 40 83 53 bd
       -0.067971654 0.17936474 -0.0015634997 -0.05163884
0000a0 d7 84 94 bd 4e 6a 7d bc e4 af 42 3d f0 be 4a 3d
       -0.072519 -0.01546724 0.047531024 0.0494985
0000b0 02 de 40 3b a6 20 05 3e be 6c 94 3d 6c 54 1a bd
       0.0029429202 0.13000736 0.072473034 -0.037678167
0000c0 2c 6a 61 3d aa da 41 3e 07 66 a7 3c c4 28 05 bd
       0.055032894 0.1893107 0.020434393 -0.03250958
0000d0 91 05 05 3e 61 61 03 bc 54 6e f0 3c 49 3f 13 3e
       0.12990405 -0.008018822 0.029349484 0.1437961
0000e0 bc 61 e3 3e 2c 3a e7 bd 77 cf aa 3d a4 90 cf b6
       0.44410503 -0.11290392 0.08340352 -6.185919e-06
0000f0 6e d7 bb be e1 c7 40 3e 6a 5a 94 3d 7b d4 88 3d
       -0.36687797 0.18826248 0.072438076 0.066811524
000100 78 8f a7 bc 9c 8b 37 3d 80 0b bf bc 7c 88 5f be
       -0.020454153 0.044810876 -0.023320913 -0.21829408
000110 23 a1 31 be 84 2b b8 3c 4b aa 73 3d 37 b6 ea bd
       -0.17346625 0.022481687 0.059488576 -0.11460536
000120 76 8f 04 3d cc af 6c 3d c4 bf 1d bd 54 3d 21 bd
       0.032363378 0.05778484 -0.03851296 -0.039365128
000130 09 24 cc 3d 1c c1 1f bd 02 fa 16 3b 64 44 cc 3d
       0.09967811 -0.039002523 0.00230372 0.09973982
000140 a1 bb 47 3c 01 ad ea 3c 0e 86 22 bd fd 70 02 bd
       0.01219073 0.028646948 -0.039678626 -0.031846035
000150 f7 e4 df 3d e6 8a 8d bc 9d ab 44 be 11 54 3d bd
       0.109323435 -0.017278146 -0.1920609 -0.04622275
000160 a5 4e d7 bd 54 5c 93 3b 30 ad bc bd 4d 72 cd 3d
       -0.10513047 0.0044970904 -0.092127204 0.10031567
000170 5f c7 9b bd bd df 40 3d 5d ba 82 bd a7 2a 05 be
       -0.076063864 0.047088373 -0.06383202 -0.13004552
000180 3d 05 31 be ca fe ee bc 9b cf 04 bd dc 04 f9 bd
       -0.17287154 -0.029174227 -0.03242455 -0.1215913
000190 d3 44 20 be cf 97 04 be 82 e9 6a 3d 7f be 13 bd
       -0.15651254 -0.12948535 0.057351597 -0.036070343
0001a0 f0 dd b0 3d dd 44 7d bd 83 c8 dc bd 39 bd 8d bd
       0.08636081 -0.06183325 -0.10780432 -0.06920857
0001b0 af e2 09 bd d5 19 da bd 7c 4a 12 be 60 f1 cd 3d
       -0.033663448 -0.10649458 -0.14286226 0.10055804
0001c0 40 5e 3a be 46 fa 97 3c 08 6d 65 bd 12 07 b0 3c
       -0.18200016 0.018551957 -0.056012183 0.021487746
0001d0 76 1c e9 3b 10 0e 94 a7 80 0b 24 bd 47 be a4 3b
       0.0071139885 -4.10935e-15 -0.04005003 0.0050275656
0001e0 93 38 1b 3a 10 bb 5a bd 4e 58 36 be dc 68 0b bd
       0.0005921211 -0.053401053 -0.17807123 -0.03403555
0001f0 21 d1 80 bc b3 f9 29 be 6a 37 d0 bd e1 22 a6 bc
       -0.01572472 -0.16599159 -0.101668194 -0.020280303
000200 0c ed 21 bf 85 ea 7e be c1 d9 90 be 78 8a d5 bc
       -0.6325233 -0.2489415 -0.28291133 -0.026067004
000210 e4 f5 d2 bd 17 ae 7c 3d 67 bd 9a bd 4f 60 61 3d
       -0.10300806 0.061689463 -0.07555657 0.055023488
000220 56 18 13 3d bb d2 a5 be 1e fe df 3d b8 a8 5c 3d
       0.03591188 -0.32387337 0.10937141 0.05387184
000230 4b 0f 17 bd 82 c1 66 3d a7 e2 bb 3d 73 b8 31 3d
       -0.03687982 0.056336887 0.0917409 0.043388795
000240 7a e7 ab 3d f6 c3 0f 3e 1e 96 2b 3e 33 16 cb 3d
       0.0839376 0.14039597 0.16756484 0.099163435
000250 63 f5 cd bc 11 b5 01 3d 04 1f 25 3e d8 70 8e bd
       -0.025141424 0.03166682 0.16125113 -0.06955117
000260 61 5f d4 bd 2c 12 ff bd 92 b8 71 3d 87 b9 19 bb
       -0.103697546 -0.12454638 0.05901391 -0.002345653
000270 9f 7e 11 bf f9 57 42 3e f2 4b de 3d f3 7b 0f 3e
       -0.56833833 0.18978871 0.10854329 0.14012127
000280 9a 99 9b 3d 28 7e 43 be 05 7e 25 3b a4 79 d1 3a
       0.075976565 -0.19091094 0.0025252115 0.0015981686
000290 06 0b b6 bc 45 24 91 bd 1d dc a4 3d 8f 96 13 be
       -0.022222053 -0.07086996 0.08049796 -0.14412902
0002a0 4d 0c 8c 3c aa ca 96 3d df 3c eb 3b d1 87 09 bc
       0.01709571 0.07362874 0.0071788873 -0.008394198
0002b0 32 83 b1 2f 79 f0 b3 3d 84 9c 2b be 59 1d 96 bc
       3.2289332e-10 0.08786101 -0.16758925 -0.01832454
0002c0 51 23 ab 3c 71 21 5a bd 29 e2 36 3d 59 ad 0e 3d
       0.020890864 -0.05325455 0.044649277 0.034833286
0002d0 32 f0 91 3a 58 c3 98 ad 81 cf b8 3d ba 2c 9d 36
       0.0011134206 -1.736715e-11 0.09023953 4.6841715e-06
0002e0 0c ea 90 bd 8e cd 70 bd 47 21 89 bd 23 c9 34 3b
       -0.07075891 -0.058789782 -0.066958 0.0027585707
0002f0 7e b9 32 3b 82 22 18 bd 93 65 ea bd b1 14 0a ba
       0.0027271206 -0.037142284 -0.11445155 -0.00052673655
000300 05 dd 50 3e bf e3 48 3e b3 cd a0 3d 1f 99 b7 3d
       0.20396812 0.19618128 0.07851734 0.089647524
000310 f8 03 a3 3d 49 b9 2b be cb ac 26 3d 2f 3d 20 3d
       0.07959741 -0.167699 0.040692132 0.03912085
000320 32 bb 83 3d 84 00 a8 bd 83 df 93 3d e8 cb 40 3d
       0.06432189 -0.08203223 0.07220366 0.04706946
000330 eb 0b d7 bd e3 0e 10 be b8 90 c5 bd 52 88 5e bd
       -0.1050032 -0.14068179 -0.096467435 -0.054329224
000340 41 02 29 3d 49 ee 48 be d3 f7 09 bd 94 3c 11 3d
       0.041261915 -0.19622149 -0.03368361 0.035458162
000350 8f 4a 29 3d a9 c0 ba bb 43 cf 06 3c ea 14 6b bd
       0.04133087 -0.0056992364 0.008228126 -0.057392992
000360 c4 f3 aa be 98 1f cd 3c 7e 49 04 3e d9 59 a7 3d
       -0.33389103 0.02503948 0.1291866 0.08171434
000370 c5 22 9b 3d 75 4c 17 bd 5f 1d 83 bc 00 a4 37 3d
       0.07574991 -0.03693815 -0.016005216 0.044834137
000380 78 96 13 3b 14 82 42 be 92 e6 bf bd ed ff 07 3d
       0.0022520106 -0.18994933 -0.0937015 0.033203054
000390 3b 8e e9 bd 2b 52 be bc 51 fe 17 3e 32 32 8f 3c
       -0.114040814 -0.02323254 0.14843108 0.01747999
0003a0 26 64 0d be f5 78 9e bd 08 e4 06 be 30 47 95 bd
       -0.13807735 -0.077379145 -0.13172925 -0.072889686
0003b0 82 4f 0c 3e 73 44 3d be 5e de 0f 3d 7d 90 0c 3e
       0.13702205 -0.18483143 0.035124175 0.13726993
0003c0 eb 0c 87 bc 79 90 8d bd 5c 9d 43 3d 92 a7 97 3d
       -0.016485652 -0.069123216 0.04775749 0.074050084
0003d0 44 bc 71 3d 16 10 6d ac a3 fb 10 be f7 35 45 2d
       0.059017435 -3.3688655e-12 -0.14158492 1.1210136e-11
0003e0 c1 c9 d6 3c 81 7b 31 bd 81 87 a1 3c 37 e4 9c bd
       0.02621925 -0.043330673 0.019717934 -0.07660716
0003f0 e7 0f 0a bc 54 2a 1c 3e 06 78 3d be ed af 5d bd
       -0.008426643 0.15250522 -0.18502817 -0.054122854

bias f4 [8]
000000 29 0b c8 3d 38 f4 db 3d 3c eb e6 3d b4 ea f7 bc
       0.09767754 0.107399404 0.11275336 -0.030263282
000010 53 cc 81 bd a2 e0 82 bd 76 cc cc bd 8f 45 cd bd
       -0.063378 -0.063905016 -0.09999935 -0.10023033

weight f4 [1, 8]
000000 cc ab 01 be a3 94 aa bd de 15 7d 3e 4e 0a cd 3d
       -0.12663192 -0.083291315 0.24715373 0.10011731
000010 b0 f6 be be 9b 50 25 3e 22 d0 c4 3e 0d 32 85 3e
       -0.37297583 0.1614403 0.38440043 0.26014748

weight f4 [8, 1]
000000 a7 ae 67 3f a7 c1 78 bf de e6 49 be a0 75 80 bf
       0.90500873 -0.9717049 -0.19716975 -1.0035896
000010 91 eb 0c 3f 4a 2b 71 bf 2f 00 fe 2d c6 2f 7c bf
       0.55046946 -0.9420668 2.8876538e-11 -0.98510396

bias f4 [8]
000000 15 f0 86 3f f8 42 6d be 79 d9 23 3f 95 e9 2d 3f
       1.0542017 -0.23170078 0.6400371 0.6793454
000010 36 6d 59 be 05 17 81 bf 65 97 8f be db 22 13 bf
       -0.21233067 -1.008515 -0.28045192 -0.5747506

weight f4 [32, 8]
000000 be 0d ed 3e 04 ee b3 3d ad 8e 52 be 55 82 ad be
       0.46299547 0.08785632 -0.20562239 -0.33888498
000010 e4 ef f4 bd 0a 54 c0 ab aa 31 e6 31 18 c6 ae bc
       -0.11959818 -1.3665746e-12 6.699527e-09 -0.021334693
000020 f6 7d 7e be dc 69 60 be c7 d4 e0 3e 10 12 b2 3e
       -0.24852738 -0.21915382 0.43912336 0.34779406
000030 1b 75 72 bd 38 b9 80 3d 90 02 21 b3 85 a5 71 be
       -0.05919371 0.06285328 -3.7488064e-08 -0.23598297
000040 3c e9 aa bd f8 57 10 3e f0 76 1a 3e 90 8f ac bc
       -0.08345267 0.14096057 0.15084434 -0.02106455
000050 11 25 72 bc 03 e6 38 3e 7a be 66 2a 9f 4e 3f 3c
       -0.014779345 0.18056493 2.0494188e-13 0.01167646
000060 8b 9e c6 be 4e 26 76 3e 23 2d 99 be 28 7b 80 3e
       -0.38792834 0.2403805 -0.2991725 0.2509396
000070 d2 5f d7 2d e1 c1 f4 3d 9b 96 4a 39 c6 55 ad 3e
       2.4485223e-11 0.11951042 0.00019320326 0.33854502
000080 0a 6e 6f be 47 e1 9a bc ed 8b 5e bd 2e 56 ab 3e
       -0.2338182 -0.018906249 -0.054332662 0.33464187
000090 ae be 43 b9 bc b6 57 be 6f 74 70 ad 17 cf ac 3e
       -0.00018667683 -0.21065801 -1.3668274e-11 0.33751747
0000a0 1c 3a a1 33 d7 98 4e 3d 77 4c b4 3e 2a 18 9b be
       7.507717e-08 0.05043873 0.35214588 -0.30291873
0000b0 e6 bc a5 38 58 a7 52 3e 19 35 e3 3a 04 c1 66 3e
       7.902998e-05 0.20571649 0.001733455 0.22534567
0000c0 f0 eb d0 be af d9 99 bd 18 6a 91 3d 06 fd b1 3e
       -0.40805006 -0.07512223 0.07100314 0.34763354
0000d0 0a 18 e0 37 ae 87 ca 3d d0 16 dd b1 b9 ec 60 be
       2.6714075e-05 0.0988916 -6.43454e-09 -0.21965303
0000e0 1e 6a 92 3e 0a a1 9e 3e 0b eb 6e be 7f c7 56 be
       0.28596586 0.30982238 -0.2333185 -0.20974539
0000f0 41 33 80 3e 12 43 22 be d6 24 48 ad 4f b1 dd bd
       0.25039104 -0.15845898 -1.1376863e-11 -0.108248346
000100 59 a6 b3 be 08 2e 40 3e cf a4 c1 3e 67 d6 da 3c
       -0.3508785 0.1876756 0.3782105 0.026713563
000110 95 2f ae 2b c6 89 9a be 7f 2e 24 ad f1 81 b8 3e
       1.237665e-12 -0.30183238 -9.332645e-12 0.36036637
000120 e2 0b 19 bf ca 85 af 3e 5e 6a ec bd 63 47 48 3e
       -0.59783757 0.3428176 -0.115437254 0.19558482
000130 e4 a9 86 3a e1 da 66 3d 65 98 63 37 e7 cb e1 bc
       0.001027402 0.056361083 1.35657365e-05 -0.027563049
000140 f3 36 e6 3d 59 d6 44 3e d0 03 02 3e aa 10 7f 3e
       0.112409495 0.19222392 0.12696767 0.249087
000150 24 46 9f 3d a5 ea 1e 3e fb 3c 87 b3 40 0f 92 3c
       0.0777705 0.15519197 -6.29752e-08 0.017829537
000160 c6 74 a0 3e 1e 24 82 be ca d2 31 3e 7c e2 57 be
       0.3133909 -0.2541818 0.17365566 -0.2108249
000170 9e 19 bb 3e 9e 95 9b 3d 70 90 9e b9 63 cb 96 bd
       0.36542982 0.075968966 -0.00030243723 -0.07363012
000180 a6 b0 b3 be fa af 42 3e 98 09 48 3e 1e 5b 27 3e
       -0.3509571 0.19012442 0.1953491 0.16343352
000190 c9 55 4b ae 5b 04 b5 bc 84 68 d3 31 a4 dc 87 be
       -4.623305e-11 -0.022096803 6.1527903e-09 -0.26535523
0001a0 67 a7 ae be de e8 6e be ca 2d 38 3e 84 2d 9b 3e
       -0.34112093 -0.2333102 0.17986217 0.30308163
0001b0 1d ad a1 bd f7 26 c7 3d b2 19 b6 31 5d cf 4a be
       -0.07894347 0.09724229 5.2998184e-09 -0.19805665
0001c0 13 c8 78 3e 68 55 e4 3d d7 2e 1f 3e 2e 07 c1 3e
       0.24295072 0.111491024 0.15545212 0.3770079
0001d0 40 f6 31 3e 66 fe 6d 3d b2 31 0f 39 1c d8 b5 3d
       0.17379093 0.05810394 0.00013656056 0.0887911
0001e0 d4 4a f0 bb 78 65 af 3c a9 df 25 be 39 61 75 3d
       -0.007333139 0.021410689 -0.16198601 0.059907172
0001f0 08 20 da bb fb 2d 94 3e da d7 f3 ad d2 1d 2b be
       -0.0066566505 0.2894133 -2.7721759e-11 -0.16710594
000200 5a 84 86 3e 3b 9c d6 bc 4b c0 f0 be 4c 18 04 bd
       0.2627285 -0.026197543 -0.47021708 -0.032249734
000210 d3 8f 0c 3f 62 c8 eb bc 0a cd b2 b4 33 82 d7 bc
       0.5490696 -0.028782073 -3.330427e-07 -0.026307201
000220 1f b0 1b 3d 36 38 c7 bd fc f6 af 3e 63 ad 4a 3e
       0.03800976 -0.09727518 0.34368122 0.19792704
000230 ab 3e 86 be 1f 7a d9 bd b3 52 3e 3a 8d 37 a6 3e
       -0.26219687 -0.10618996 0.0007260248 0.32464257
000240 d5 de ea bd 2b 38 24 be ef 4a 8e be d3 65 a0 3e
       -0.11468283 -0.16037051 -0.27791545 0.31327686
000250 5f ad 49 be d2 cd 3a 3e 0e e6 de 39 1c c8 a7 3e
       -0.19695042 0.18242577 0.00042514544 0.3276986
000260 63 60 1a 3e a5 15 6e bd 29 11 da 3e fd 70 b7 be
       0.15075831 -0.05812611 0.42591217 -0.3582839
000270 6b 0f b1 3e 36 6e 8a be 17 62 6c 2d b9 14 30 be
       0.34582075 -0.2703721 1.3436827e-11 -0.17195405
000280 53 af 8c 3e 8e 90 9d 3e 6a 84 23 3e 36 0c 85 be
       0.27477512 0.3077435 0.1596848 -0.2598588
000290 78 1f 8b 3c 63 9f 45 3e 2e 9c da ad 26 6e 5b 3e
       0.016982779 0.19299082 -2.4853088e-11 0.21428737
0002a0 dc c4 6f 3e c0 da 09 be 8a 1b 38 be 42 4e af 3e
       0.2341494 -0.13462353 -0.17979255 0.34239393
0002b0 ac 92 b5 3d 65 4a c3 3d ad f3 7a b3 bb 78 9c bd
       0.08865866 0.09535674 -5.8429283e-08 -0.07640215
0002c0 33 5f 61 b6 b2 02 11 b5 b4 7d c8 ad ea 7d cf b9
       -3.3583026e-06 -5.402063e-07 -2.2793191e-11 -0.0003957593
0002d0 62 38 c3 34 44 be a1 33 f3 95 c8 2f a9 b4 e9 ac
       3.6362604e-07 7.531756e-08 3.6486333e-10 -6.6423156e-12
0002e0 cb 29 73 3e 2b 4d 9d bd 95 e0 e4 be 99 99 1e be
       0.23746412 -0.07680734 -0.44702592 -0.1548828
0002f0 34 74 c7 3e 89 49 1f 3c c2 87 f6 b8 f9 09 88 bd
       0.38955843 0.009722122 -0.00011755481 -0.06642527
000300 3e 2c 1a ad 29 11 ad 2a b2 77 5e b3 ef a3 60 30
       -8.76371e-12 3.074288e-13 -5.1797265e-08 8.172369e-10
000310 32 76 b1 2f 1c 61 6c b8 99 7e d3 2f 61 74 2a 30
       3.2280095e-10 -5.6357225e-05 3.847063e-10 6.2011024e-10
000320 52 1d b9 3e 4a c3 3a 3d 28 cb a0 3e 0d 34 49 3e
       0.36155182 0.0455964 0.31404996 0.19648762
000330 6a a5 03 bd 58 94 34 be dd 2f c5 ab 06 73 29 be
       -0.032140173 -0.17634714 -1.4010977e-12 -0.16547784
000340 4f 02 c5 3e 4f 5e b2 3d 5e 7f 09 bc 78 50 37 3d
       0.38478324 0.08709394 -0.008392183 0.044754475
000350 f1 28 75 3e ea cf 9a be c9 d7 8c ad ca 1e 62 3e
       0.23941399 -0.3023675 -1.6011985e-11 0.22082058
000360 86 f5 79 3e 4e 3f 18 2b 7b 05 10 bf 8a a4 eb bd
       0.24410066 5.40891e-13 -0.5625836 -0.11505993
000370 6b 03 ef 3e c7 ae 70 b9 64 f1 20 38 cc 4c ae 30
       0.46682295 -0.00022953293 3.8371785e-05 1.2681993e-09
000380 43 b2 0d 3b 5f fd 51 3e 05 50 17 3e 25 2e bf 3e
       0.0021621145 0.2050681 0.14776619 0.37339893
000390 4a 7b 82 be 6a 25 89 3e 02 64 09 ab 7b b3 b4 bd
       -0.25484687 0.26786357 -4.8810966e-13 -0.08823296
0003a0 cb 18 97 be 1a 9a 8b 3e f3 af 54 3e 37 94 e6 3d
       -0.29511103 0.27266008 0.20770244 0.112587385
0003b0 a7 59 99 ac cf 5c cc 3d d9 3a aa 38 57 ed aa 3d
       -4.358475e-12 0.09978639 8.117193e-05 0.0834605
0003c0 90 2e 95 3e 7a f1 47 be 22 0d 85 be 33 ab 34 3e
       0.29137087 -0.1952571 -0.25986582 0.17643432
0003d0 08 46 52 bd bc e2 73 3d ca a9 1d ad 53 8b 90 3e
       -0.05133632 0.059542403 -8.9621175e-12 0.28231296
0003e0 02 e6 1f be fa 00 aa 3c 2b 6d 51 3e 6c d5 4a bd
       -0.15615085 0.020752419 0.204518 -0.04951994
0003f0 3b fc 0d ba 0a d6 ed 3d 8d 21 e3 b9 48 50 94 3e
       -0.00054163084 0.1161309 -0.0004332181 0.289675

bias f4 [32]
000000 d3 7e 6e 3e 9c 7e 8e 3d 18 20 ae bd 72 bb 3f be
       0.23290567 0.069577426 -0.08502215 -0.18723848
000010 fd 6c 57 3e 35 0b 52 be 23 25 07 be 2c ae 8e 3e
       0.2103767 -0.20512088 -0.1319776 0.27867258
000020 13 35 fb 3d 15 09 82 be d9 81 a0 be 99 b5 ca 3e
       0.122659825 -0.25397554 -0.31349066 0.39591673
000030 3b 48 3e bd 5e d3 c9 3e ec 4e 17 be 7e a4 bf 3a
       -0.046455603 0.39419073 -0.147762 0.0014621166
000040 2c f0 1a be ae 20 2a 3e ee 96 3c bd a5 e3 f7 3e
       -0.15130681 0.16614029 -0.046042375 0.48415866
000050 6b 7e ed bd a4 74 8f 3e aa 16 f6 34 3a c1 6b 3c
       -0.11596378 0.28018677 4.583756e-07 0.0143893305
000060 1f b3 d2 b9 f0 60 e9 3e 00 57 93 3e 69 2d 97 bd
       -0.00040187777 0.4558177 0.28777313 -0.07381708
000070 9c d1 98 be c3 b0 96 bd 7b 98 e3 3c f4 40 4a be
       -0.2984742 -0.07357933 0.02778267 -0.1975134
