model/1027.202041625976562.pt (torch_old, 168315 bytes, 19 tensors)

weight f4 [256, 2]
0	0xbd49942c	-0.049213573
1	0xbec030e0	-0.3753729
2	0x3d5a42d2	0.05328638
3	0x3eb18194	0.34669173
4	0xbf2d7950	-0.67763233
5	0xbf2d0696	-0.67588174
6	0xbe3d647d	-0.18495364
7	0x3eaeb078	0.3411901
8	0x3d97a5f6	0.074047014
9	0xbecacd59	-0.39609793
10	0xbf1abae9	-0.6044145
11	0x3dbbe9c7	0.09175449
12	0xbeae86cc	-0.34087217
13	0xbdfb0203	-0.12256243
14	0xbf098851	-0.5372363
15	0xbf1e12a1	-0.61747175
16	0xbda8920e	-0.08230983
17	0x3f37287f	0.7154617
18	0x3cbe4fcc	0.02323141
19	0xbf2a935c	-0.666311
20	0x3d9c226d	0.07623754
21	0xbe58f88c	-0.21188563
22	0xbf2557ee	-0.64587295
23	0xbf2eb3e6	-0.68243253
24	0xbe316b71	-0.17326142
25	0xbf35e3c5	-0.71050674
26	0x3ee384ab	0.44437155
27	0xbf0c1c2f	-0.54730505
28	0x3d2bd0a1	0.04194701
29	0xbf07ddd7	-0.53072876
30	0x3e208905	0.15677269
31	0x3edd863b	0.43266472
32	0xbf08e992	-0.534814
33	0x3e1addbb	0.15123646
34	0xbf16e265	-0.589392
35	0x3f2516d2	0.64487946
36	0x3d13c0c0	0.036072493
37	0x3e811f6d	0.25219288
38	0xbf2ae141	-0.6674996
39	0xbecb9c8d	-0.39767876
40	0xbe8a55ec	-0.27018678
41	0x3f13779d	0.5760439
42	0x3f13c5a0	0.57723427
43	0xbf1831cd	-0.5945099
44	0x3ec10d4e	0.37705463
45	0xbca492b2	-0.020089481
46	0x3f239d4c	0.6391189
47	0xbea51bb3	-0.32247695
48	0x3f1a13cf	0.60186476
49	0x3eab3158	0.33436084
50	0xbe1a9bf6	-0.15098557
51	0x3f368101	0.71290594
52	0x3dbf685d	0.093460776
53	0xbf1c7f69	-0.6113191
54	0x3e7f5086	0.24933061
55	0x3e903721	0.2816706
56	0x3dae7015	0.08517472
57	0x3f0ea3a6	0.5571846
58	0xbe2e15af	-0.17000459
59	0xbd53c0dc	-0.051697597
60	0xbf22da82	-0.63614666
61	0xbee3de9f	-0.44505784
62	0x3f102640	0.56308365
63	0xbed55d80	-0.41672897
64	0x3e510b17	0.20414387
65	0xbef13ecb	-0.4711822
66	0x3db3fb03	0.08788111
67	0xbdb9ad81	-0.09066296
68	0xbe501318	-0.20319784
69	0x3ec8a23e	0.3918628
70	0xbeb671e7	-0.35633776
71	0xbf179e67	-0.5922608
72	0xbee80661	-0.45317367
73	0xbe9542f5	-0.29152647
74	0xbf0014c0	-0.5003166
75	0x3e8bae9b	0.2728165
76	0xbe63c624	-0.22243553
77	0x3f17c8e0	0.59290886
78	0x3f236b91	0.6383601
79	0x3d4c9b0d	0.049952555
80	0xbf3c45a4	-0.73543763
81	0x3f265e0f	0.6498727
82	0x3eec5d46	0.46164912
83	0x3dd13685	0.10215477
84	0xbee760bc	-0.4519099
85	0x3dc898ab	0.09794744
86	0xbf0de3b5	-0.5542558
87	0xbdbf7154	-0.093477875
88	0xbf06136a	-0.52373374
89	0x3ee90bfd	0.4551696
90	0x3ec67292	0.38759285
91	0x3e30bae7	0.17258798
92	0x3e14586c	0.14486855
93	0xbef8821c	-0.48536766
94	0x3ee8f1da	0.45497018
95	0xbea3a544	-0.31962025
96	0xbf24b7fc	-0.6434324
97	0xbf18dd17	-0.59712356
98	0xbec28480	-0.37991714
99	0xbea3c4c4	-0.31986058
100	0xbe75dbd8	-0.24009645
101	0x3e11d110	0.14239907
102	0x3f0f2c3b	0.55926865
103	0x3c861ab3	0.016370153
104	0xbf26cf98	-0.6516051
105	0x3f2aa27f	0.666542
106	0x3f048eb8	0.5178027
107	0xbf08c18f	-0.53420347
108	0x3f17b352	0.59257996
109	0xbee8c73a	-0.45464498
110	0x3e930e63	0.28721914
111	0x3c91600e	0.017745998
112	0x3eea3fc4	0.45751774
113	0xbf3126fe	-0.6920012
114	0x3d94da02	0.07268144
115	0xbee2ffad	-0.4433569
116	0xbed8b1bd	-0.42323104
117	0x3dd7c950	0.10536444
118	0x3e17bec2	0.14818862
119	0xbe5f6081	-0.21814157
120	0xbf08c219	-0.5342117
121	0xbf0af4a6	-0.54279554
122	0xbe0fdf8f	-0.14050125
123	0xbeaa48fd	-0.3325881
124	0xbdaef5c7	-0.08542972
125	0x3f28d7fb	0.6595456
126	0x3f0a418e	0.5400628
127	0xbeb78434	-0.3584305
128	0xbf0ce630	-0.5503874
129	0x3f128661	0.57236296
130	0x3dbf28f5	0.09333984
131	0xbf399349	-0.72490364
132	0x3f330ddd	0.6994303
133	0xbde95507	-0.11393171
134	0x3d726e4f	0.05918723
135	0xbe2fd6a4	-0.17171723
136	0xbf0046b5	-0.5010789
137	0x3c8f29c1	0.017475965
138	0xbe6e2e4f	-0.23259853
139	0x3eaf457c	0.342327
140	0x3b8f3886	0.004370752
141	0xbf26641d	-0.6499651
142	0x3ed6ceb2	0.4195457
143	0x3ef1899c	0.471753
144	0x3eed3c10	0.46334887
145	0x3f109620	0.5647907
146	0xbec2be5c	-0.38035858
147	0x3e074090	0.13208222
148	0x3f0ed777	0.55797523
149	0xbf2db349	-0.6785169
150	0xbe5ee15d	-0.21765657
151	0xbf081121	-0.53151137
152	0xbeb2e379	-0.34939173
153	0xbeb903e8	-0.36135793
154	0x3c79eebc	0.015254673
155	0x3eb5afa6	0.35485572
156	0xbec68a2d	-0.38777295
157	0xbe7d1e4d	-0.2471859
158	0xbec4d678	-0.38444877
159	0xbf0b8976	-0.54506624
160	0x3f2fcf2d	0.686755
161	0xbbc7ad0a	-0.006093626
162	0x3ee6146b	0.44937453
163	0xbf15134a	-0.5823256
164	0x3ee60d97	0.44932243
165	0xbf318eca	-0.69358504
166	0x3e93ccaf	0.288671
167	0x3d7c35cf	0.061574753
168	0x3f1058f6	0.56385744
169	0xbcea8999	-0.028630065
170	0xbdb3eadc	-0.0878503
171	0x3f1ca169	0.6118379
172	0x3f25c86b	0.6475894
173	0x3f1154a0	0.5676975
174	0x3f0256bd	0.509136
175	0x3ec7bb96	0.39010304
176	0x3f05d23c	0.5227392
177	0x3e154cd2	0.14580086
178	0x3ea45204	0.32093823
179	0xbefb40dd	-0.49072924
180	0x3f26802c	0.65039325
181	0xbe5d4c11	-0.21611048
182	0xbf28226e	-0.65677536
183	0xbed8c151	-0.4233499
184	0x3eca5e32	0.3952499
185	0x3f355437	0.70831627
186	0x3f2e3235	0.6804536
187	0x3e0bb6b9	0.13643922
188	0x3eb84412	0.35989434
189	0x3ea7c195	0.3276488
190	0x3f1f6209	0.62258965
191	0xbd653e5e	-0.05596768
192	0x3ed771c5	0.42078987
193	0x3ec06431	0.3757644
194	0xbeed7007	-0.46374533
195	0x3cb8b219	0.022545861
196	0xbefc532c	-0.49282205
197	0xbf22993c	-0.6351507
198	0xbd957411	-0.072975285
199	0x3e96b747	0.29436705
200	0xbedce85b	-0.43146023
201	0xbddda6d5	-0.10822836
202	0x3f08da44	0.53458047
203	0xbf017751	-0.5057269
204	0x3e3d78a3	0.1850305
205	0x3ea11ba7	0.3146641
206	0x3f1eb238	0.6199069
207	0x3f1fb38a	0.6238333
208	0xbddb8fc1	-0.10720778
209	0xbee12375	-0.43972364
210	0xbe85bd27	-0.26120874
211	0x3d8de86d	0.06929097
212	0xbf19a26b	-0.60013455
213	0x3dd21a6f	0.10258948
214	0xbee1107f	-0.43957898
215	0xbf2a218e	-0.6645745
216	0xbea6b910	-0.32563066
217	0xbe38ba7c	-0.18039888
218	0x3c4f02b6	0.012634924
219	0xbe92bfff	-0.28662106
220	0x3ee3b127	0.44471094
221	0x3d6008c7	0.05469587
222	0x3e29dc5d	0.16587968
223	0xbe7c2ed8	-0.24627244
224	0x3ec2c57d	0.38041297
225	0xbf312949	-0.6920362
226	0x3f06ba10	0.5262766
227	0x3eee0289	0.4648631
228	0x3f3796c2	0.71714413
229	0x3f3365b5	0.7007707
230	0xbce0c068	-0.027435496
231	0xbf0ff7e8	-0.5623765
232	0x3ee9bff1	0.45654252
233	0x3d024eb0	0.031813323
234	0x3f1f465f	0.6221675
235	0x3e81bb07	0.25338003
236	0xbea9fb95	-0.33199754
237	0xbe00a8fd	-0.12564464
238	0xbf1ee1e3	-0.62063426
239	0x3f35e662	0.7105466
240	0x3ece468b	0.40288195
241	0xbca232f3	-0.019799685
242	0x3dda7367	0.106665425
243	0xbdf5e6e4	-0.120069295
244	0xbf317b0c	-0.6932838
245	0x3f279af3	0.6547081
246	0x3ed4a3f1	0.41531327
247	0xbd53c87a	-0.05170486
248	0x3ecf94a0	0.4054308
249	0xbead534d	-0.33852616
250	0x3ef07005	0.46960464
251	0x3ece5824	0.4030162
252	0xbf268d4b	-0.65059346
253	0xbe7b92f0	-0.24567771
254	0xbed4d5f5	-0.41569486
255	0x3e2d7ae1	0.16941406

bias f4 [256]
0	0x3ed79201	0.4210358
1	0x3e8cd4ba	0.27506047
2	0x3e0bf0f1	0.1366613
3	0x3ef24b58	0.47323108
4	0xbe76fc35	-0.24119647
5	0x3e5fad88	0.2184354
6	0x3f0c1e84	0.54734063
7	0xbda32a17	-0.079670124
8	0x3f39e7a8	0.72619104
9	0x3e38a9c6	0.18033513
10	0x3dac7f89	0.08422763
11	0xbd164862	-0.036690123
12	0xbe7c9477	-0.2466601
13	0xbe982d53	-0.2972208
14	0x3f1ab613	0.60434073
15	0x3e7cc564	0.24684674
16	0x3f173436	0.5906404
17	0xbf04f1d2	-0.5193149
18	0xbea0a0a2	-0.31372553
19	0xbeba0d16	-0.3633811
20	0xbdfafe83	-0.122555755
21	0x3ee2700c	0.4422611
22	0xbdfa352f	-0.12217175
23	0x3f10fe69	0.566382
24	0x3f1b1804	0.6058352
25	0x3e1a7402	0.15083316
26	0x3e159554	0.14607745
27	0xbf075a7c	-0.52872443
28	0x3f017d33	0.50581664
29	0xbe0bd8c4	-0.13656908
30	0xbee6be1b	-0.45066914
31	0x3eb4088b	0.35162768
32	0x3f29dbe8	0.66351175
33	0xbe483c4b	-0.1955425
34	0xbe4169e4	-0.1888805
35	0xbd305009	-0.043045077
36	0xbce18886	-0.02753092
37	0xbe7d38ef	-0.2472875
38	0xbe882361	-0.26589492
39	0x3efe5cb1	0.49680093
40	0xbe2801cf	-0.1640694
41	0xbee2a1bc	-0.4426402
42	0xbf04c88d	-0.51868516
43	0xbf053e85	-0.5204852
44	0xbd637692	-0.055533
45	0xbe25c240	-0.16187382
46	0x3ead3d43	0.338358
47	0xbe3ff91f	-0.18747376
48	0x3dc8370e	0.09776126
49	0xbf1c788f	-0.6112146
50	0xbedbda75	-0.42940107
51	0xbebd296a	-0.3694566
52	0xbf0ec017	-0.55761856
53	0xbf13f96c	-0.5780246
54	0xbe03f3a5	-0.12885912
55	0xbe95e56b	-0.29276595
56	0xbf34bd34	-0.706012
57	0xbe911b5d	-0.2834119
58	0xbeaf6401	-0.34255984
59	0xbe8977b3	-0.26849136
60	0xbd8d8e14	-0.06911865
61	0x3f30b629	0.69027954
62	0x3ab4cd62	0.0013794119
63	0xbd11fb23	-0.035639893
64	0xbf1e6faa	-0.61889136
65	0x3f322312	0.69584763
66	0x3f23bf14	0.6396344
67	0xbed8a8b9	-0.42316225
68	0xbd9f7190	-0.07785332
69	0xbee886a1	-0.45415214
70	0x3f3a9911	0.7288981
71	0xbe95f209	-0.2928622
72	0x3ee6890b	0.4502643
73	0xbf13b8d8	-0.57703924
74	0x3d1287c6	0.035774015
75	0xbf06adad	-0.5260876
76	0xbd81628b	-0.06317624
77	0x3e41199f	0.1885743
78	0x3d846dba	0.06466241
79	0xbea17a8d	-0.3153881
80	0xbf0ae21c	-0.54251266
81	0x3ebac276	0.36476487
82	0x3f2441a2	0.6416265
83	0x3ec82734	0.3909241
84	0x3e69bc89	0.22825827
85	0xbe95f911	-0.29291585
86	0xbd41e931	-0.04734153
87	0x3e78e641	0.24306585
88	0xbdb03881	-0.08604527
89	0xbdbe4e5d	-0.0929229
90	0x3ef0af95	0.47008958
91	0x3d452284	0.04812862
92	0xbda960ef	-0.08270442
93	0xbea05ffd	-0.31323233
94	0x3f2412ca	0.6409117
95	0x3f0054ce	0.501294
96	0x3e6e567b	0.23275177
97	0xbe0963c4	-0.13416964
98	0x3ed6db9a	0.41964418
99	0x3f14159c	0.57845473
100	0x3ede5b21	0.434289
101	0x3f1b30d9	0.6062141
102	0xbf028542	-0.50984585
103	0xbe76e778	-0.24111736
104	0xbed43b88	-0.4145167
105	0x3dc636c3	0.09678414
106	0x3e20b8f2	0.15695551
107	0x3dbfa1d9	0.09357042
108	0xbd44b205	-0.048021335
109	0x3f2d54ae	0.67707336
110	0xbf2ac011	-0.6669932
111	0xbec316fa	-0.38103467
112	0xbef5ff83	-0.48046502
113	0x3f0fcbb4	0.561702
114	0xbced8de9	-0.028998332
115	0x3ded57fe	0.11589049
116	0x3f1c4cda	0.61054766
117	0xbc68e396	-0.014214417
118	0xbdcc5b9e	-0.09978412
119	0x3ecc7e32	0.3994003
120	0x3f275dd5	0.6537755
121	0x3f35da57	0.71036285
122	0xbebc8833	-0.36822662
123	0x3dd1c7ad	0.10243163
124	0x3e1b7646	0.15181836
125	0x3e48367a	0.19552031
126	0xbe6505fc	-0.22365564
127	0x3f218b2d	0.6310299
128	0x3f380bb7	0.71892875
129	0xbec6b0b7	-0.38806698
130	0xbf1aea23	-0.60513514
131	0x3eabee3d	0.335802
132	0xbe1128d4	-0.14175731
133	0xbe2c260b	-0.16811387
134	0xbd4b30aa	-0.049606957
135	0xbe5f3fb2	-0.21801642
136	0x3e232970	0.15933776
137	0xbe9d9b9f	-0.30782792
138	0x3f2d9943	0.67811984
139	0x3e6b4aaf	0.22977708
140	0x3eaef1b1	0.3416877
141	0x3f38c04c	0.7216842
142	0xbed771ad	-0.42078915
143	0xbf2eb300	-0.6824188
144	0x3f03a146	0.5141796
145	0x3e83d3d8	0.2574756
146	0x3e0aca7c	0.13553804
147	0x3f1d74c4	0.61506295
148	0x3e9aae90	0.30211306
149	0xbea01ab7	-0.31270382
150	0x3f037508	0.5135045
151	0x3f3ad7d5	0.72985584
152	0x3e6ce623	0.23134665
153	0x3f3353c4	0.7004969
154	0xbf274121	-0.65333754
155	0xbe81e936	-0.25373238
156	0xbefbb61c	-0.49162376
157	0xbf2165d3	-0.63045996
158	0xbe2b9431	-0.1675575
159	0xbef78f89	-0.48351696
160	0x3efbe7e3	0.49200353
161	0xbf1315e9	-0.5745531
162	0xbef52bd1	-0.47884992
163	0xbf0818fc	-0.53163123
164	0xbf0659a8	-0.52480555
165	0xbf14e6e3	-0.58164805
166	0xbf28b61d	-0.6590288
167	0x3ed0e184	0.40797055
168	0xbf0d4693	-0.5518581
169	0xbd0797dc	-0.03310381
170	0x3e99515e	0.2994489
171	0x3e1bfb9d	0.15232702
172	0x3f341fd2	0.70361054
173	0xbd2ed8a5	-0.042687077
174	0x3e832fb3	0.2562233
175	0xbf03cb19	-0.5148178
176	0x3ed74671	0.4204593
177	0xbec8d624	-0.39225876
178	0x3ef97ea0	0.4872942
179	0x3f132cf1	0.5749045
180	0x3d6f6140	0.058442354
181	0xbd96e75c	-0.07368347
182	0x3efe37d2	0.49651963
183	0x3f2277d7	0.6346411
184	0x3d3fcbf1	0.046825353
185	0x3f09883d	0.5372351
186	0xbec01923	-0.37519178
187	0xbc6c98b2	-0.014440702
188	0xbeb90b1a	-0.36141282
189	0x3df7dfe5	0.12103251
190	0x3ec8c013	0.3920904
191	0x3e4eaf99	0.20184173
192	0x3d58b55e	0.05290734
193	0xbece1804	-0.40252697
194	0xbef2b1f4	-0.47401392
195	0xbe971538	-0.29508376
196	0xbe13645a	-0.1439375
197	0x3eff31e7	0.4984276
198	0xbf098686	-0.5372089
199	0x3ea50d87	0.32236883
200	0xbeb751ad	-0.358045
201	0x3eb3fc32	0.35153347
202	0xbf02db3e	-0.5111579
203	0x3eaf0fcd	0.34191743
204	0x3f281055	0.6564992
205	0x3e934652	0.28764588
206	0xbebe26dd	-0.37139025
207	0x3e3e4425	0.18580683
208	0xbec8e2e6	-0.3923561
209	0xbe96515a	-0.2935894
210	0x3e6e067b	0.2324466
211	0xbf18f343	-0.5974619
212	0xbf0ea309	-0.5571752
213	0x3ece9c95	0.40353838
214	0x3ed46620	0.41484165
215	0x3f16403d	0.5869177
216	0xbe7a6ff4	-0.24456769
217	0xbdac46f5	-0.084119715
218	0xbec53e80	-0.38524246
219	0xbe2d3908	-0.16916287
220	0x3f3e5d9a	0.74361575
221	0xbec4a956	-0.38410443
222	0x3f3cfff5	0.7382806
223	0xbcde5931	-0.02714214
224	0xbf11c083	-0.56934375
225	0xbf22c8ad	-0.63587457
226	0xbd6fe0e3	-0.058564078
227	0xbdc9f277	-0.098606996
228	0xbf11a6c0	-0.56895065
229	0x3f283ace	0.6571473
230	0x3e2c43d8	0.16822755
231	0x3f24e34a	0.64409316
232	0xbe80b8ea	-0.25141078
233	0x3e766768	0.24062884
234	0x3cd3d8d3	0.025860226
235	0x3df7f110	0.12106526
236	0xbe093db9	-0.13402452
237	0x3e9350cf	0.2877259
238	0xbe07f510	-0.13277078
239	0xbed2c99d	-0.41169444
240	0xbf06673f	-0.5250129
241	0xbf03cda0	-0.51485634
242	0xbe5f3c66	-0.21800384
243	0xbf0a87ff	-0.54113764
244	0xbf0a88d7	-0.5411505
245	0x3cd76f46	0.026298176
246	0x3ecfecff	0.406105
247	0xbe1e0925	-0.15433176
248	0xbf15a716	-0.5845808
249	0x3ef7a60a	0.48368865
250	0x3c966eef	0.018363444
251	0xbe6060e0	-0.21911955
252	0x3f0214a7	0.5081276
253	0xbe901a36	-0.28144997
254	0xbeedaade	-0.46419424
255	0x3f29dc80	0.6635208

weight f4 [64, 256]
0	0x3d0e129b	0.034685712
1	0x3d172424	0.0368997
2	0x3ccdbc08	0.025114074
3	0x3c86645f	0.016405283
4	0xbd14bb1e	-0.03631126
5	0x3cb6b840	0.022304654
6	0x3d1d044f	0.038334187
7	0x3ce94cd8	0.028479025
8	0x3dab3976	0.08360569
9	0xbcfa9cb9	-0.03059231
10	0x3c687e9f	0.014190345
11	0x3ccf661b	0.025317242
12	0x3d316c05	0.043315906
13	0x3d1d86bf	0.038458582
14	0x3d1b0c69	0.037853632
15	0x3d4aa8b8	0.04947731
16	0x3c447a2b	0.011992018
17	0x3c323255	0.010876258
18	0xbc8d53f6	-0.01725195
19	0x3d056c88	0.032574207
20	0x3d2e524a	0.042558946
21	0xbd579f66	-0.05264225
22	0x3d8ec038	0.069702566
23	0xbce27f23	-0.027648514
24	0x3c2869c4	0.010279123
25	0x3d9e08d0	0.077165246
26	0x3c8f2eb3	0.017478323
27	0x3d1d3603	0.038381588
28	0x3c065aef	0.008200391
29	0x3d86098f	0.06544792
30	0x3dba0065	0.090821065
31	0x3cbf1576	0.023325663
32	0x3c454229	0.0120397
33	0x3c892817	0.01674275
34	0x3b4eac81	0.0031535926
35	0xbce820c0	-0.028335929
36	0xbc069268	-0.008213617
37	0x3d3308c0	0.043709517
38	0xbc7f011c	-0.015564229
39	0x3d9e5f7e	0.077330574
40	0x3d159af2	0.03652472
41	0x3d05ab15	0.03263386
42	0xbcda020f	-0.02661231
43	0x3d06b9f6	0.03289219
44	0x3cdf7e37	0.027281864
45	0x3d9a2993	0.07527461
46	0x3d364e5d	0.044508327
47	0xbce13d5d	-0.02749508
48	0x3d16fec2	0.03686405
49	0x3dc58498	0.09644431
50	0xbcc71a62	-0.024304572
51	0xbca1f2ef	-0.01976916
52	0xbc0f9483	-0.008763435
53	0xbc63cdc8	-0.013904043
54	0xbd0930a0	-0.033493638
55	0x3b85a1ea	0.0040781396
56	0xbd854aaf	-0.065083854
57	0xbcb1a8e4	-0.021686979
58	0x3d0ab81c	0.033866987
59	0xbd85103e	-0.064972386
60	0x3d0619a8	0.03273931
61	0xbd18b946	-0.037286066
62	0x3d4c136e	0.049823217
63	0x3d78c80d	0.06073766
64	0xbc643c4b	-0.013930391
65	0xbd1642a7	-0.03668466
66	0xbd2ae105	-0.0417185
67	0xbd97c005	-0.07409672
68	0x3beb59d8	0.007182341
69	0x3bacc47d	0.0052724467
70	0xbd4f21b4	-0.05056925
71	0x3d116cb3	0.035504054
72	0x3d821a4f	0.06352674
73	0xbcbd6f29	-0.023124294
74	0x3a810fbf	0.0009846612
75	0x3d516997	0.05112609
76	0x3c192f95	0.009349723
77	0x3d00ee82	0.03147746
78	0x3d9236fc	0.07139394
79	0x3d0928e3	0.03348626
80	0x3ca8e804	0.020618446
81	0x3c64c51e	0.013963012
82	0x3c658bae	0.014010353
83	0x3da47347	0.080298
84	0x39e28b10	0.0004320969
85	0x3da64580	0.08118725
86	0x3c943506	0.01809169
87	0x3d8407f7	0.06446832
88	0x3c80095f	0.015629468
89	0xbd2acbe0	-0.041698337
90	0x3ceeec44	0.029165395
91	0x3d8b630e	0.068060026
92	0xbcd0537c	-0.025430433
93	0x3d0dbe20	0.034605145
94	0x3d890035	0.066894926
95	0xbc1664d4	-0.009179313
96	0x3d018b14	0.031626776
97	0x3cb8ba18	0.022549674
98	0x3d48bb64	0.049006835
99	0x3cd548a4	0.026035614
100	0xbb83e9cb	-0.004025673
101	0xbd2a2320	-0.041537404
102	0x3c519910	0.012792841
103	0x3d1a9dc0	0.0377481
104	0xbccb310f	-0.024803666
105	0xbc58ff9b	-0.013244535
106	0x3c4c5f29	0.01247386
107	0x3d9dee8a	0.07711513
108	0x3d9e02be	0.07715367
109	0xbcc24d19	-0.023718404
110	0x3d7b82bb	0.06140397
111	0xbd7275b2	-0.059194274
112	0xbd6e79e8	-0.058221728
113	0xbbb0e672	-0.005398565
114	0x3daa22bb	0.083074056
115	0x3d057040	0.032577753
116	0xbbc7d503	-0.006098391
117	0xbc72d0c9	-0.014820286
118	0x3d84a8eb	0.06477531
119	0x3d853adf	0.065053694
120	0x3be731d2	0.0070554996
121	0xbc0d174e	-0.008611513
122	0xbcc74ed5	-0.024329582
123	0xbd332618	-0.0437375
124	0xbc754d4a	-0.01497204
125	0xbb1bf630	-0.0023797862
126	0x3da32f06	0.079679534
127	0xba80e9af	-0.0009835268
128	0x3d0bfc4a	0.03417615
129	0x3cce24c3	0.025164014
130	0x3da8c2a3	0.08240249
131	0x3c6bce19	0.014392399
132	0x3daa3423	0.083107255
133	0x3d67878d	0.056525756
134	0x3d4fcf2b	0.05073468
135	0x3d5e974e	0.054343514
136	0xbc16fa15	-0.009214898
137	0xbca8d427	-0.020608975
138	0x3d70bd50	0.058774292
139	0x3a9c5475	0.0011927026
140	0x3cf9fbe4	0.030515619
141	0x3d0702aa	0.032961525
142	0x3d02543a	0.031818606
143	0x3bb0d71d	0.0053967373
144	0x3c06a8c4	0.008218948
145	0x3b9352e1	0.004495964
146	0x3ca793d7	0.020456238
147	0xbb0f6594	-0.0021880614
148	0xbc7ecd82	-0.015551927
149	0x3c3116ab	0.010808627
150	0x3d347ce9	0.044064436
151	0xbbc355ff	-0.0059611793
152	0x3d93f558	0.0722453
153	0x395b1425	0.00020892972
154	0x3d5a319f	0.05326998
155	0x3cf9c139	0.030487644
156	0x3c2f3e89	0.010696062
157	0xbc756519	-0.014977717
158	0x3c8b284c	0.016986988
159	0x3cdafb1b	0.026731065
160	0x3d1ecfbc	0.03877233
161	0x3d10b078	0.035324544
162	0x3d6388ff	0.05555057
163	0xbbcabbdb	-0.006186945
164	0x3d32d687	0.04366162
165	0xbbd37512	-0.006453165
166	0xbd5ada3c	-0.05343078
167	0x3d7d130b	0.06178574
168	0xba9e3f2f	-0.0012073274
169	0x3d9f1d26	0.077692315
170	0x3a8ba704	0.0010654633
171	0x3d2b5fd7	0.041839447
172	0xbc8c4625	-0.017123291
173	0xbc098ea5	-0.0083958255
174	0x3d13a344	0.036044374
175	0xbcf2afde	-0.029624876
176	0xbca569fc	-0.020192139
177	0x3d820445	0.063484706
178	0xbd0545f0	-0.0325374
179	0xbc5960f1	-0.013267742
180	0xbd03b19e	-0.03215181
181	0x3cefa4c8	0.029253379
182	0x3cac0e36	0.02100287
183	0xbd0a9d66	-0.033841513
184	0xbd0d5dd4	-0.03451331
185	0x3d4e4a53	0.05036385
186	0x3d6f25c5	0.05838563
187	0x3c9860ff	0.018600939
188	0xbcc4131e	-0.023934897
189	0x3cba79d8	0.022763178
190	0x3d5f28db	0.054482322
191	0xbd01b962	-0.031670935
192	0xbc318903	-0.010835889
193	0x3d894f36	0.067045614
194	0xbc1dd688	-0.009633668
195	0xbddaeded	-0.10689912
196	0x3c580e51	0.013187007
197	0x3db39b99	0.08769912
198	0xbbe3c551	-0.006951012
199	0xbc9717c3	-0.018443948
200	0xbd44337a	-0.047900654
201	0xbad87408	-0.0016514072
202	0xbcc0cdc9	-0.023535626
203	0x3da7fa25	0.08202008
204	0xbcd5d8aa	-0.02610429
205	0x3d028016	0.031860434
206	0x3d7018b6	0.058617316
207	0x3d864491	0.06556047
208	0x3cdf1454	0.027231373
209	0x3d0e336c	0.03471701
210	0xbcf12e8f	-0.029441146
211	0xbd8596c3	-0.06522896
212	0xbcc0d6f0	-0.02353999
213	0x3c1d7185	0.009609585
214	0xbd0f5729	-0.03499523
215	0xbc37320c	-0.011181366
216	0x3cec952a	0.02887972
217	0xbcf679e2	-0.030087415
218	0x3c0d09a0	0.008608252
219	0xbbccd63b	-0.006251124
220	0x3cfcc525	0.030855725
221	0x3d6a07cc	0.057136342
222	0x3c3f5305	0.011677508
223	0xbcc5b44d	-0.024133826
224	0x3d025542	0.03181959
225	0x3c90ffd0	0.017700106
226	0x3d6421c0	0.05569625
227	0xbcf5fe4d	-0.030028487
228	0xbd1ed4bb	-0.038777094
229	0x3cd22e01	0.025656702
230	0xbcc99538	-0.024607286
231	0x3cd4ca8c	0.025975488
232	0x3d53f3d7	0.051746216
233	0xbd09685e	-0.033546798
234	0xbb7ab824	-0.003825673
235	0x3d040a4d	0.032236386
236	0xbd03dd31	-0.032193366
237	0x3da28e23	0.07937267
238	0x3cbca843	0.023029452
239	0x3d6a4f70	0.057204664
240	0x3d25af1b	0.040450197
241	0xbca23f6f	-0.019805638
242	0x3da9899c	0.082782
243	0x3d8c8de3	0.06863
244	0x3d0ac3d8	0.033878177
245	0x3d441a19	0.04787645
246	0x3cddae18	0.027060553
247	0x3ccbb1c6	0.024865042
248	0xbd0f254c	-0.03494768
249	0x3da026a9	0.07819874
250	0x3d9c524b	0.07632884
251	0xbc7135b6	-0.014722278
252	0x3c1a2013	0.009407061
253	0xbbfbe00e	-0.0076866215
254	0x3d298fbe	0.04139685
255	0xbae1ace5	-0.0017217664

bias f4 [64]
0	0xbb8d5904	-0.00431359
1	0x3d91364a	0.07090433
2	0x3d09b502	0.033619888
3	0xbcf7e384	-0.030259855
4	0xbc975b1b	-0.01847606
5	0xbd1a9d27	-0.03774753
6	0x3ce312d0	0.027718931
7	0xbd06ae30	-0.032880962
8	0xbd199559	-0.037495945
9	0xbc0db0fd	-0.008648154
10	0xba0e75c8	-0.0005434421
11	0x3d124a33	0.035715293
12	0x3d8f3219	0.06991977
13	0x3d64ede3	0.05589093
14	0x3b4c2cfe	0.0031154747
15	0x3d2be8cf	0.04197007
16	0x3d5f5dda	0.054532863
17	0x39be1deb	0.00036261915
18	0xba42b95e	-0.00074281346
19	0xbd65a1bd	-0.05606245
20	0x3aab5073	0.001307024
21	0x3caf272a	0.02138098
22	0xbcbd4647	-0.0231048
23	0x3cc561c6	0.024094474
24	0xbd12c51f	-0.03583252
25	0x3d2f36b6	0.042776786
26	0x3daa5779	0.08317465
27	0x3d531ca7	0.051540997
28	0xbc9838eb	-0.018581828
29	0xbc8ce231	-0.0171977
30	0xbccd6df8	-0.025076851
31	0x3c9b6e36	0.018973451
32	0xbbbb7d03	-0.0057216897
33	0x3da89ff3	0.08233633
34	0x3d40b9b7	0.04705211
35	0xbc633a4d	-0.01386888
36	0xbcfa005b	-0.030517748
37	0xbcd0b74b	-0.025478026
38	0x3c92110b	0.017830392
39	0xbd505293	-0.05086
40	0xbc5487e9	-0.012971857
41	0x3d886648	0.066601336
42	0x3d2cb56c	0.042165205
43	0xbd0e4502	-0.03473378
44	0xbcbf2e8a	-0.023337621
45	0x3da5246a	0.08063586
46	0xbcb36a0b	-0.021901151
47	0xbbffde0d	-0.007808453
48	0xbd83f059	-0.06442327
49	0x3dba0c05	0.09084324
50	0xbc8db12a	-0.017296392
51	0xa8121e8a	-8.11125e-15
52	0xbd330c80	-0.043713093
53	0x3da39306	0.07987027
54	0x3d9595ae	0.0730394
55	0x3d440f22	0.047865994
56	0xba2cb8ca	-0.0006588815
57	0x3b510bd6	0.0031897924
58	0xba316856	-0.00067675614
59	0x3b27ac38	0.0025584828
60	0xbc51290c	-0.012766134
61	0xbc45cd72	-0.012072908
62	0xba59ad77	-0.00083037413
63	0x3c90d844	0.017681248

weight f4 [32, 64]
0	0xb944ebad	-0.00018779813
1	0xbe0ea6c1	-0.13930799
2	0x3de966d1	0.11396564
3	0xbb41d1f6	-0.002957461
4	0x3d1020ca	0.03518752
5	0xbda49d79	-0.08037848
6	0x3d71471b	0.058905702
7	0xbbe14e97	-0.0068758237
8	0xbcce2e62	-0.025168601
9	0xbd80c76d	-0.062880374
10	0xbda82e80	-0.08211994
11	0x3e0f3cce	0.13988039
12	0x3dd30604	0.10303882
13	0x3cd7f1cb	0.026360413
14	0x3dc22d92	0.09481348
15	0x3dc09b73	0.094046496
16	0x3dcf91d3	0.10135236
17	0xbd09e15b	-0.03366218
18	0x2d9da4e8	1.7922067e-11
19	0xbd35d127	-0.044388916
20	0xbca38660	-0.019961536
21	0x3ac1ff87	0.0014800885
22	0xbcae8770	-0.021304816
23	0xbc7b8375	-0.015351166
24	0x3d9c4ebe	0.076322064
25	0x3d8a342b	0.067482315
26	0x3e0b0022	0.1357427
27	0xbdb20bf3	-0.086936854
28	0xbcaaaa42	-0.020833138
29	0x3e07f4ff	0.13277052
30	0x3e136bb3	0.14396553
31	0xb9bac3c2	-0.00035622536
32	0x3ddfc8e8	0.10926992
33	0xbd043b41	-0.03228307
34	0x3d7f1d61	0.062283877
35	0x3deae396	0.1146919
36	0xbd51fe30	-0.051267803
37	0x3e068044	0.13134867
38	0x3da336e8	0.07969457
39	0xbd0010f2	-0.03126616
40	0xbe0818e1	-0.1329074
41	0xbd13c904	-0.036080375
42	0xbd9e5bf1	-0.0773238
43	0x3d82efcd	0.063933946
44	0xbe23fa0f	-0.16013359
45	0xbdb86a43	-0.09004643
46	0x3cb1274c	0.021625184
47	0xbdd27090	-0.10275376
48	0xbdb5edc8	-0.08883244
49	0x3cb3322f	0.021874515
50	0x3dfcb4bc	0.1233916
51	0xbcedfce1	-0.029051246
52	0xbda6b9cf	-0.08140909
53	0xbdaffd29	-0.08593208
54	0xbdd98119	-0.106203265
55	0x3d7ec49f	0.06219923
56	0xbd620917	-0.05518445
57	0xbca94481	-0.020662548
58	0xba775d34	-0.00094361906
59	0xbd9620b6	-0.07330458
60	0xbd598f01	-0.053114895
61	0x3d5ed176	0.054398976
62	0x3d292136	0.041291438
63	0xbcbcdfbc	-0.023055904
64	0xbd223807	-0.039604213
65	0xbc928738	-0.017886743
66	0xbcf8548b	-0.03031375
67	0x3c0b33d3	0.008496243
68	0x3cf133d9	0.029443668
69	0xa9e26430	-1.0053796e-13
70	0xbd50c195	-0.050965864
71	0xbcfcb0b5	-0.03084598
72	0xb9a6789f	-0.00031751857
73	0x3ac674e7	0.0015141041
74	0x3c401b14	0.011725206
75	0xbca1f8c8	-0.019771948
76	0xbd0c9525	-0.034321923
77	0x2a824848	2.3142794e-13
78	0xbb0187ec	-0.0019764854
79	0x3897f362	7.245575e-05
80	0x3ccaab54	0.024739899
81	0x2ae8aebc	4.1332725e-13
82	0x3ab79dee	0.0014008859
83	0x3a42c465	0.0007429778
84	0x3b118ee2	0.002221041
85	0xbbedda29	-0.0072586727
86	0xbcec8c92	-0.028875623
87	0x37278280	9.98436e-06
88	0x3d531ad7	0.05153927
89	0xbc80616d	-0.015671456
90	0xbcc6484e	-0.0242044
91	0x3cd4c99a	0.025975037
92	0xbd03487a	-0.03205154
93	0x3b2eb018	0.0026655253
94	0x3c774322	0.015091689
95	0x2bb1ff9b	1.2647551e-12
96	0xb00739cc	-4.919485e-10
97	0x3c5053d7	0.0127153015
98	0x3c34298d	0.010996235
99	0x3d09e6db	0.033667427
100	0x3be8d204	0.007105114
101	0xbd2a9170	-0.041642606
102	0x366fa410	3.5709272e-06
103	0xbbcdaa28	-0.0062763877
104	0xbbafae49	-0.0053613526
105	0x3c07cc81	0.008288504
106	0xbd3e93b4	-0.04652758
107	0xbd0a5f2c	-0.03378217
108	0xbd42a19c	-0.047517404
109	0xbd4b9d62	-0.04971064
110	0x3b5eff60	0.0034026727
111	0xbb793736	-0.0038027293
112	0x3d276137	0.040864196
113	0x3cb0db5e	0.021588977
114	0xbd4f2af4	-0.050578073
115	0xb812a83c	-3.4965793e-05
116	0xb7279b2e	-9.990106e-06
117	0x3d38d8fd	0.04512881
118	0xad4c893a	-1.1626528e-11
119	0x3b80f5b4	0.00393554
120	0x3c0557a6	0.008138573
121	0xbcabfa6d	-0.020993436
122	0x2cec3473	6.7133465e-12
123	0x35852f63	9.923064e-07
124	0x3a4d2c87	0.00078267645
125	0xbc38e81d	-0.011285809
126	0xbc0e9d5b	-0.008704509
127	0xbd396076	-0.045258008
128	0xbdaa20b1	-0.08307017
129	0x3b09f852	0.0021052551
130	0xbd99f1ec	-0.07516846
131	0x3de607ef	0.11231982
132	0xbc0ca6b7	-0.00858467
133	0x3d809d56	0.062800094
134	0xbc405507	-0.011739022
135	0x3badc460	0.0053029507
136	0x3d955163	0.07290914
137	0x3e2ca114	0.16858321
138	0x3dfcac2d	0.123375274
139	0x3d78a586	0.06070473
140	0x3e1cbe5b	0.1530699
141	0xbdc7b20a	-0.09750755
142	0x3d9558e2	0.07292344
143	0x3e10fd7b	0.14159195
144	0xbdc7fcdf	-0.09765028
145	0xbcd49ad4	-0.025952734
146	0xb7efbe74	-2.8579707e-05
147	0x3dfde824	0.12397793
148	0x3c53fdb1	0.012938903
149	0x3c943876	0.018093329
150	0x3e1b1b3a	0.15147105
151	0xbd988e88	-0.07449061
152	0xbc13f6b1	-0.009030984
153	0xbc4eb037	-0.012615255
154	0x3c8ca9bc	0.01717078
155	0x3d9986e7	0.07496434
156	0x3a17aafd	0.0005785672
157	0x3dc57a14	0.09642425
158	0xbd2111df	-0.039323684
159	0x3df1cad7	0.11806267
160	0x3dba544a	0.09098108
161	0xbdb16276	-0.08661358
162	0xbc94bbe5	-0.018156001
163	0xbd009147	-0.031388547
164	0x3c81d2bb	0.015847554
165	0xbca8fd16	-0.020628493
166	0x3e0b64ea	0.13612714
167	0xbcbd5cc2	-0.02311552
168	0x3d895408	0.06705481
169	0xbd28ea2e	-0.041238956
170	0x3dc067b6	0.09394781
171	0xbd17e8ca	-0.03708724
172	0xbd9e7ec2	-0.07739021
173	0x3ddb6e16	0.107143566
174	0xbdec6e45	-0.1154447
175	0x3da7f1b6	0.082003996
176	0xbd0bc75e	-0.03412568
177	0xbd99e7b1	-0.07514895
178	0xbd48c5ac	-0.04901664
179	0x3b57e6e0	0.0032944009
180	0x3d47a4da	0.0487412
181	0xbd9235ad	-0.07139144
182	0x3dcd753d	0.10032127
183	0xbd0764ce	-0.03305512
184	0x3debe50e	0.11518298
185	0x3d057833	0.032585334
186	0xbcab20bc	-0.020889632
187	0x3d8572b4	0.065160185
188	0x3dd06d6a	0.10177119
189	0x3d96f537	0.0737099
190	0xbb8bf76f	-0.0042714397
191	0xbbd88453	-0.006607571
192	0xbce3bdd0	-0.02780047
193	0x3dafb1b0	0.08578813
194	0xbdd2ce1d	-0.10293219
195	0x3dc5cb5c	0.09657928
196	0xbbcf0a34	-0.006318355
197	0xbbbc2fab	-0.005742987
198	0xbdde93ab	-0.10868009
199	0x38822326	6.20543e-05
200	0xbcc5d5e6	-0.024149846
201	0x3daab520	0.08335328
202	0x3d03b5f4	0.032155946
203	0xbdbcb1d7	-0.09213608
204	0x3dc8ae1e	0.09798835
205	0xbd263baf	-0.040584262
206	0xbd18e0a3	-0.037323605
207	0x3dc223c9	0.09479482
208	0x3d404a4d	0.04694586
209	0x2b7a4f3c	8.89278e-13
210	0x3bb42c92	0.0054984773
211	0xbd181d30	-0.03713721
212	0xbb6902d3	-0.0035554662
213	0xbd4ca0be	-0.049957983
214	0x3dd76514	0.10517326
215	0x3da82858	0.0821082
216	0xbd7d78a6	-0.061882637
217	0x3d42c1a8	0.047547966
218	0x3d36f261	0.044664744
219	0x3d73bdb7	0.059507098
220	0xbd956b43	-0.07295849
221	0x3c806d9f	0.015677271
222	0xbd250d06	-0.040295623
223	0x3cb96e86	0.02263571
224	0x3d4e50c0	0.050369978
225	0xbd71b476	-0.05900999
226	0xbdc4d5aa	-0.09611066
227	0x3d94838f	0.07251655
228	0xbcdcb21c	-0.026940398
229	0xbce03bcd	-0.027372265
230	0xbd626fc5	-0.055282373
231	0xbd890549	-0.06690461
232	0x3dccdbce	0.10002862
233	0xbd82832c	-0.06372675
234	0xbdd3947a	-0.10331054
235	0x3daf0603	0.085460685
236	0xbd6265b6	-0.05527278
237	0xbe095ffa	-0.13415518
238	0xbdb4d4cd	-0.08829651
239	0xbdc29126	-0.09500341
240	0xbc8926e3	-0.016742175
241	0xbd371199	-0.044694517
242	0x3d047452	0.032337494
243	0x3b8a57a1	0.004221872
244	0x3d19b302	0.03752423
245	0xbca011ad	-0.019539678
246	0xbe0c32f0	-0.13691306
247	0xbdde2640	-0.10847139
248	0xbd00f46e	-0.031483106
249	0xb580344a	-9.551961e-07
250	0x3af79eeb	0.0018891966
251	0x3d19fb94	0.03759344
252	0x3cb5beb4	0.02218566
253	0xbd4a410f	-0.04937845
254	0x3d4dbad7	0.050227012
255	0xbcee731f	-0.029107628

bias f4 [32]
0	0xbc2707b6	-0.0101947095
1	0x3cc127b8	0.02357851
2	0xbc905787	-0.017619861
3	0x3db246a7	0.08704882
4	0x3e07a680	0.13247108
5	0x3de3a774	0.111159235
6	0xbcc14bad	-0.023595655
7	0xbd98101f	-0.0742495
8	0x3deb9743	0.1150346
9	0x3ddf9a66	0.10918121
10	0x3db25cad	0.08709083
11	0x3d958fa8	0.07302791
12	0x3d155137	0.036454406
13	0x3cda1996	0.026623528
14	0x3e0eecb7	0.13957487
15	0x3b1406e3	0.0022587113
16	0x3df47bd2	0.11937679
17	0x3db66314	0.089056164
18	0x3d3382a2	0.043825753
19	0xbacaf2cd	-0.0015483737
20	0xbd837ffb	-0.06420895
21	0xbdd96bf7	-0.10616296
22	0xbcc46a73	-0.02397654
23	0x3dd0972a	0.10185082
24	0xba170b72	-0.00057618984
25	0x3b727814	0.0036997842
26	0x3e0d80cd	0.13818665
27	0x3cc3e098	0.023910806
28	0xbdcd0f03	-0.10012629
29	0xbdc6486f	-0.09681784
30	0x3dbf955e	0.093546614
31	0xbdc7fa74	-0.09764567

weight f4 [8, 32]
0	0xbe1a9616	-0.15096316
1	0x3c222bfb	0.009898181
2	0x3e33f51e	0.17573974
3	0x3de2c91a	0.11073513
4	0x3e4a0b9d	0.19730993
5	0x3e177a3f	0.14792727
6	0xbdf7de53	-0.12102952
7	0xbdf2e0d7	-0.11859291
8	0x3e03fe1f	0.12889908
9	0xbdf9db8f	-0.122000806
10	0xbd3656b8	-0.044516295
11	0xbe252c62	-0.16130212
12	0x3d73811e	0.059449308
13	0x3d831843	0.06401112
14	0x3dc47e5b	0.09594413
15	0x3deaeecb	0.114713274
16	0xbd21fa86	-0.03954556
17	0x3d65e277	0.056124177
18	0x3dd05ac3	0.101735614
19	0x3cd6f98b	0.026242038
20	0x3d87958c	0.06620321
21	0xbdca9b92	-0.09892954
22	0xbd0897fb	-0.033348065
23	0xbdaf9b2e	-0.0857452
24	0xbcb495e1	-0.022044124
25	0x3daf4971	0.0855893
26	0xbe1ab6bb	-0.15108769
27	0xbd5208da	-0.051277973
28	0xbb185ede	-0.0023249905
29	0x3c0e1947	0.008673019
30	0xbdf36ae7	-0.118856244
31	0xbdd6e621	-0.10493112
32	0x3cc63f1e	0.024200018
33	0x3b5068e1	0.0031800794
34	0x3dcda6da	0.1004159
35	0x3db402d8	0.08789605
36	0x3ce286a8	0.0276521
37	0x3e0bf908	0.13669217
38	0x3d5dace8	0.054119974
39	0xbdb8e8fb	-0.090288125
40	0x3e140442	0.14454749
41	0x3d899abb	0.067189656
42	0xbd1dc095	-0.03851374
43	0xbe0ec148	-0.13940918
44	0x3c8d53d9	0.017251896
45	0x3e203021	0.1564336
46	0x3d8148a0	0.0631268
47	0x3deeeb4f	0.11665975
48	0xbd9153ba	-0.07096048
49	0xbd5c6233	-0.053804588
50	0x3e4c16f5	0.19930632
51	0x3cd4cd5f	0.025976835
52	0x3e04c0c2	0.12964156
53	0xbc8e7c46	-0.017393243
54	0xbd7f4886	-0.062325023
55	0x3d43e6c4	0.047827497
56	0x3e0f5262	0.1399627
57	0x3e47fcfb	0.19530098
58	0xbd54de44	-0.05196978
59	0xbe1873ee	-0.14887974
60	0xbdbf9bc0	-0.09355879
61	0x3e07ea8d	0.13273068
62	0xbdeb1c4b	-0.11480006
63	0xbd66ac14	-0.05631645
64	0x3cc978a9	0.024593668
65	0x3d908d2d	0.07058177
66	0x3dba9cb2	0.091119185
67	0xbe092e1a	-0.13396493
68	0x3e528d24	0.20561653
69	0xbd093420	-0.033496976
70	0x3c2cb4e0	0.010541171
71	0x3e11b0d2	0.14227608
72	0xbc9a594b	-0.018841406
73	0xbe256456	-0.16151556
74	0xbdec6443	-0.11542561
75	0x3c9070d0	0.017631918
76	0x3db51c40	0.08843279
77	0x3e44880a	0.1919252
78	0xbd1b624a	-0.037935533
79	0xbdb932fa	-0.09042926
80	0x3db329a2	0.08748175
81	0x3bfe2a8f	0.007756538
82	0x3c15ce28	0.00914339
83	0x3e3d01b1	0.18457676
84	0xbe1a4430	-0.15065074
85	0xbda72f66	-0.081633374
86	0xbe132f56	-0.14373526
87	0x3d0d1e14	0.034452513
88	0x3daeebd5	0.08541075
89	0x3ddffe32	0.10937156
90	0x3da7b305	0.08188442
91	0xbde87a5b	-0.113514625
92	0xbe108286	-0.1411229
93	0x39de6c53	0.00042423847
94	0x3da75c2c	0.08171877
95	0xbe0f2d66	-0.13982162
96	0x3985edd0	0.0002554492
97	0xbca261a4	-0.01982195
98	0xbe202a68	-0.15641177
99	0x3dbe517f	0.09292888
100	0x3c8336d2	0.016017351
101	0x3d4acf77	0.04951426
102	0xbd77234e	-0.060336404
103	0x3cdd4715	0.027011434
104	0x3d9752a0	0.07388806
105	0xbdab1ff8	-0.08355707
106	0x3dd365fd	0.10322187
107	0x3e47b5b8	0.19502914
108	0x3de9eb2c	0.114218086
109	0xbded2d77	-0.11580937
110	0x3d3205bb	0.043462496
111	0x3d4ed9ed	0.0505008
112	0x3e0da471	0.1383226
113	0xbccf8d17	-0.025335832
114	0x3e032ed2	0.1281083
115	0xbdafecc0	-0.08590078
116	0xbe0ab15b	-0.13544218
117	0x3cd62733	0.026141739
118	0xbdb35933	-0.08757248
119	0xbca1aa52	-0.019734535
120	0x3c3fe89e	0.011713175
121	0x3e1b1d2d	0.15147848
122	0x3deecb18	0.11659831
123	0x3d0c25da	0.034215786
124	0xbe1fe56f	-0.15614866
125	0xbad682e5	-0.0016365914
126	0x3e2db8af	0.16964982
127	0xbd5142d9	-0.05108914
128	0x3d4e8239	0.05041716
129	0x3bf546a2	0.0074852267
130	0xbc8631c2	-0.016381148
131	0xbdd4f8ff	-0.10399055
132	0xbe1f6724	-0.15566689
133	0x3e1b9e45	0.15197094
134	0xbd6d673d	-0.057959784
135	0x3dfb133b	0.12259527
136	0x3d980e3c	0.0742459
137	0x3dd81837	0.105514936
138	0xbd843034	-0.064545065
139	0x3e189af0	0.14902854
140	0xbdce85a8	-0.10084087
141	0x3da5d897	0.08097952
142	0x3d842cb1	0.06453837
143	0xbd50149d	-0.05080091
144	0xbe18daaf	-0.14927171
145	0xbe3005e7	-0.17189752
146	0xbdb87274	-0.09006205
147	0xbd4ed22f	-0.050493415
148	0xbdbe0f86	-0.092803046
149	0xbd4dd355	-0.05025037
150	0x3dfa35c5	0.12217287
151	0x3d80f946	0.06297545
152	0xbe37875e	-0.17922732
153	0xbe0381d1	-0.1284249
154	0xbd823e19	-0.063595004
155	0x3e2acb87	0.16679202
156	0x3e1d4017	0.1535648
157	0x3d51da7d	0.051233757
158	0x3db48012	0.0881349
159	0x3ca63bcb	0.020292183
160	0x3e4ab807	0.19796763
161	0xbc2e2a2a	-0.01063017
162	0xbe148609	-0.14504255
163	0x3cfed696	0.031108182
164	0xbd198277	-0.037477937
165	0xbdd5c9e7	-0.104389004
166	0x3e482b9c	0.19547886
167	0x3e000c9f	0.12504815
168	0xbe133a3d	-0.14377685
169	0x3e4bda0c	0.19907397
170	0xbe15992f	-0.14609216
171	0x3dd15d65	0.10222892
172	0x3e1bcae6	0.15214118
173	0xbe082d8f	-0.13298629
174	0x3cb2bdfe	0.021819111
175	0x3e00a2e5	0.1256214
176	0x3e41971f	0.18905304
177	0x3db05e33	0.08611717
178	0x3c7b3cde	0.015334336
179	0x3d5e59e0	0.05428493
180	0x3e0678b7	0.13131987
181	0xbda5b9f4	-0.08092108
182	0x3b1df310	0.0024101175
183	0x3cb4637a	0.02202009
184	0xbe19c499	-0.15016402
185	0xbdb42a9d	-0.0879719
186	0x3debbfa9	0.11511166
187	0xbdaf8804	-0.08570865
188	0xbc18a35f	-0.009316294
189	0xbab6e762	-0.0013954455
190	0x3e176f1b	0.14788477
191	0x3e233fcb	0.15942304
192	0xbd662779	-0.056189988
193	0x3becad53	0.0072228103
194	0x3def98d9	0.11699075
195	0xbe187625	-0.14888819
196	0x3ddec317	0.10877054
197	0x3c057d0d	0.00814749
198	0x3e056ec2	0.13030532
199	0xbb979b93	-0.0046267
200	0x3e14ad80	0.1451931
201	0x3ddd9eec	0.108213276
202	0xbdc5061e	-0.096203074
203	0x3dc36e28	0.09542495
204	0x3e2b4132	0.16724089
205	0xbdfc3f79	-0.12316794
206	0x3cdf027c	0.027222864
207	0x3d7e8789	0.062140975
208	0x3e0182b5	0.12647517
209	0xbd7b2276	-0.06131216
210	0xbd433323	-0.04765619
211	0x3d93d8cb	0.07219084
212	0x3d1f0e61	0.038832072
213	0xbc1a0c86	-0.0094024
214	0x3c37f4aa	0.011227766
215	0xbe242a7b	-0.1603183
216	0x3cf0d0a4	0.029396363
217	0xbc373998	-0.011183165
218	0x3dc8d6f4	0.09806624
219	0xbe20c536	-0.1570023
220	0xbc8ba8d0	-0.01704827
221	0xbdd18789	-0.102309294
222	0x3e17f2c6	0.14838704
223	0x3d991068	0.07473832
224	0xbdfc5139	-0.123201795
225	0x3b7570e0	0.0037451312
226	0x3e567b46	0.20945463
227	0xbe2acd0a	-0.16679779
228	0x3dfd2af5	0.12361709
229	0x3e0720b1	0.13196065
230	0xbc947ffa	-0.01812743
231	0xbd8ba5c3	-0.06818726
232	0x3cb08ba4	0.02155096
233	0x3e1ac12e	0.15112755
234	0xbe169a0a	-0.14707199
235	0xbd843953	-0.06456246
236	0xbdf61c37	-0.120171
237	0x3c56be80	0.013106942
238	0x3e2bf3f8	0.16792285
239	0xbd863ff7	-0.06555169
240	0xbd2dd658	-0.042440742
241	0x3e701786	0.23446473
242	0x3d9fecd6	0.07808845
243	0x3ddc7968	0.10765344
244	0x3d3802d2	0.044924565
245	0xbe066a42	-0.13126472
246	0x3d489c8d	0.048977423
247	0xbc356a32	-0.011072682
248	0x3d840081	0.064454086
249	0xbd19fcb9	-0.03759453
250	0xbccd0fe5	-0.025031993
251	0x3e140497	0.14454876
252	0x3e383bbb	0.17991535
253	0x3e36ca17	0.17850529
254	0xbd504aca	-0.050852574
255	0x3de69d17	0.11260431

bias f4 [8]
0	0x3cfb4a0d	0.030674959
1	0xbd53594b	-0.05159883
2	0x3bdcc4b0	0.006737314
3	0xbd9c32fe	-0.076269135
4	0xbd2a809d	-0.04162656
5	0x3e4ae556	0.19814047
6	0x3c0e55ad	0.008687419
7	0xbdd66dd7	-0.10470169

weight f4 [1, 8]
0	0x3d4ce85f	0.050026294
1	0x3e0ea659	0.13930644
2	0x3e8582ac	0.26076257
3	0xbe3cec0c	-0.1844942
4	0xbe94c67e	-0.29057688
5	0xbe640e5f	-0.22271107
6	0xbe9d5b43	-0.3073369
7	0x3e19f738	0.15035713

weight f4 [8, 1]
0	0xbf3bc6ca	-0.73350203
1	0xbf5046dc	-0.8135812
2	0xbeac372d	-0.33635846
3	0xbf4111b0	-0.75417614
4	0xbf6203d7	-0.8828711
5	0xbf1de510	-0.61677647
6	0xbf3d29a7	-0.7389168
7	0x3f5ad8d8	0.8548713

bias f4 [8]
0	0x3f3f294c	0.7467239
1	0x3f08e490	0.5347376
2	0xbf0e2fbf	-0.55541605
3	0xbee6288a	-0.44952804
4	0xbd80edbf	-0.062953465
5	0x3f76cb5e	0.96404064
6	0xbcd025d4	-0.025408663
7	0x3f01773d	0.5057257

weight f4 [32, 8]
0	0x3dae209c	0.085023135
1	0x3e5573e6	0.20844993
2	0x3e8e5cc5	0.27805153
3	0xbea36530	-0.31913137
4	0x3d452509	0.048131023
5	0x3e98dd05	0.29856125
6	0xbea4a030	-0.32153463
7	0xbb5e57ab	-0.0033926766
8	0xbd9c6774	-0.076369196
9	0xbe314710	-0.17312264
10	0xbce38bbc	-0.027776591
11	0x3e7d5567	0.2473961
12	0x34036f60	1.2240844e-07
13	0x3da4b681	0.08042622
14	0xbdc4cd4e	-0.09609471
15	0xab42b4fd	-6.9173817e-13
16	0xbdb867ba	-0.09004159
17	0x3eae4c13	0.34042415
18	0x3e802648	0.25029206
19	0x3e56c843	0.20974831
20	0x3e4b8a66	0.19877014
21	0x3e7295d5	0.23689969
22	0x3d04d95d	0.032433856
23	0xbd6aa117	-0.057282533
24	0xbba13d1c	-0.004920615
25	0x3ea6aa5b	0.32551846
26	0x3e877ae8	0.26460958
27	0xbbf628eb	-0.007512202
28	0xbe08542b	-0.13313358
29	0x3df2cd99	0.11855621
30	0x3e7d80d0	0.2475617
31	0x3db2561c	0.0870783
32	0xbe0d69b7	-0.13809858
33	0xbe756d82	-0.23967555
34	0xbe10d45e	-0.14143512
35	0x3e373a45	0.17893322
36	0x3daf025b	0.08545371
37	0xbe84806d	-0.2587923
38	0x3e2354f9	0.15950383
39	0x3d782a0b	0.06058697
40	0x3e038ae3	0.1284595
41	0x3e1e3dde	0.15453288
42	0xbe7033bd	-0.23457237
43	0x3e4a6380	0.19764519
44	0x3ea994e1	0.33121398
45	0xbdaa9d78	-0.08330816
46	0xbd9c8549	-0.076426096
47	0xbea825af	-0.3284125
48	0x3d5afc15	0.05346306
49	0xba01fdee	-0.0004958798
50	0x3dabe90e	0.08394061
51	0x3b39a861	0.0028329121
52	0xbe4d73ed	-0.20063753
53	0xbe870ced	-0.2637705
54	0xbe7ac834	-0.24490434
55	0xbe63c89d	-0.22244497
56	0x3e577170	0.21039367
57	0x3dac63ef	0.08417498
58	0x3d1d7558	0.038441986
59	0xbe93f4ad	-0.2889761
60	0x3e8951f6	0.26820344
61	0xbe51cd14	-0.20488387
62	0xbe343b3f	-0.17600726
63	0xbe1e41e5	-0.15454824
64	0xbe2c818f	-0.16846298
65	0x3e811cf4	0.25217402
66	0x3e887dad	0.26658383
67	0x3e0503cb	0.12989728
68	0xbe93d130	-0.28870535
69	0x3e87dda8	0.26536298
70	0x3e36785c	0.17819351
71	0x3eaddca2	0.33957392
72	0x3eb8139f	0.3595247
73	0x3ea83846	0.32855433
74	0x3d1e84ed	0.038700987
75	0x3dbccd2e	0.092188224
76	0xba2bd594	-0.0006554958
77	0x3c361fe5	0.011116003
78	0x3df0d29b	0.1175892
79	0x3e57b1a0	0.21063852
80	0xbe2e9389	-0.17048468
81	0xbe01c6b4	-0.12673455
82	0xbdd76f1b	-0.105192386
83	0xbd9c34e7	-0.07627278
84	0xbe591efc	-0.21203226
85	0x3e11c642	0.14235786
86	0xbe9ec1b4	-0.3100716
87	0x3e5e8efb	0.2173423
88	0xbd8ccdf9	-0.06875224
89	0x3da5c5fa	0.08094402
90	0xbd0eb3e4	-0.034839526
91	0xbc4df686	-0.012570983
92	0xbe93aa5e	-0.28840917
93	0x3e0ad008	0.1355592
94	0xbe4888c9	-0.1958343
95	0x3db631d0	0.0889622
96	0x3e049af3	0.12949733
97	0xbdfdc605	-0.12391285
98	0xbda1be43	-0.07897618
99	0xbe22dac2	-0.15903762
100	0xbdd16318	-0.10223979
101	0x3e625adc	0.22104973
102	0xbe9cb357	-0.30605575
103	0x3e6006c1	0.21877576
104	0xbe8285f6	-0.2549283
105	0xbd9d6070	-0.076844096
106	0xbbdea9c7	-0.0067951414
107	0x3e19a4d0	0.15004277
108	0x3d747787	0.059684303
109	0xbd29c75d	-0.041449893
110	0x3dd06c5f	0.1017692
111	0xbdd0a94f	-0.10188543
112	0x3e932b4d	0.28743973
113	0xbe8f73ea	-0.28018123
114	0x3e76489c	0.24051136
115	0xbe492d0d	-0.19646092
116	0x3e2d867d	0.16945834
117	0xbe5be0ac	-0.21472424
118	0xbdd287a1	-0.102797754
119	0x3e8ff8a5	0.28119388
120	0xbe3989f1	-0.18119027
121	0xbe9267f4	-0.28594935
122	0xbdd8e112	-0.10589804
123	0x3c15b4bf	0.0091373315
124	0x3e83c58f	0.25736663
125	0x3e95f56b	0.29288802
126	0xbe53fec0	-0.20702648
127	0xbc983e64	-0.018584438
128	0xbcb807b8	-0.022464618
129	0xbe53be7c	-0.20678133
130	0xbd60c4f2	-0.05487532
131	0x3e7ee11d	0.24890561
132	0xbe2535c9	-0.16133799
133	0x3e62708c	0.22113246
134	0xbe19c70c	-0.15017337
135	0x3e7b8b84	0.2456494
136	0xbe25fce4	-0.16209751
137	0x3d0bb579	0.034108613
138	0x3e2bae35	0.16765673
139	0x3ca71df7	0.02040003
140	0xbc07e3aa	-0.008294025
141	0xbe5cb0d7	-0.21551834
142	0x3e2f8432	0.17140272
143	0x3e221df7	0.15831743
144	0x38daab31	0.00010426937
145	0xbd290e2c	-0.04127328
146	0x3c916066	0.017746162
147	0xbac373fb	-0.0014911884
148	0x3e24cd61	0.16093971
149	0xbdf27fa4	-0.11840752
150	0xbe81c8c5	-0.25348487
151	0xbe88549e	-0.26627058
152	0xb7baa289	-2.2248614e-05
153	0x370db851	8.447169e-06
154	0xba4a6b51	-0.000772168
155	0xbdac8e75	-0.08425609
156	0x3ce80533	0.028322792
157	0x2c04c7fa	1.8869338e-12
158	0x3bbae18f	0.005703158
159	0x3d5c573f	0.05379414
160	0xbe48bfd5	-0.19604428
161	0x3d3c20af	0.045929607
162	0xbd1aa01b	-0.037750345
163	0x3e9017ee	0.28143257
164	0x3e894817	0.26812813
165	0x3e7b695d	0.24551912
166	0x3d07b729	0.03313366
167	0x3e07e665	0.13271482
168	0x3e40ac5a	0.18815747
169	0x3d35b29c	0.04435979
170	0x3e3c65a4	0.18398148
171	0x3dc12b4e	0.09432088
172	0xbdd208a6	-0.10255556
173	0x3e068b53	0.13139085
174	0x3bdb7183	0.0066968813
175	0xbde3f9b9	-0.11131615
176	0xbc080dd5	-0.008304079
177	0x3df677f8	0.12034601
178	0x3e684a46	0.22684583
179	0xbcab8a11	-0.020939859
180	0x3e3bb39f	0.18330239
181	0xbd85e275	-0.06537334
182	0xbe97ee1f	-0.2967386
183	0x3ea135f3	0.31486472
184	0xbbeb9afa	-0.0071901055
185	0x3c00a824	0.007852588
186	0x3e1b4270	0.15162063
187	0xbd7a436b	-0.06109945
188	0xbe292f55	-0.16521962
189	0xbe045fc8	-0.12927163
190	0x3e7b433f	0.24537371
191	0x3da3b940	0.07994318
192	0x3e6f319d	0.2335877
193	0x3d5a810c	0.053345725
194	0x3e9772a6	0.29579657
195	0x3d270d1f	0.040783998
196	0xbde0c010	-0.10974133
197	0x3da7c7d2	0.081924096
198	0x3eb36866	0.35040587
199	0x3dd231fa	0.102634385
200	0x3b0525ef	0.00203168
201	0x3eb1385b	0.34613308
202	0xbdc6df57	-0.097105674
203	0x3eb1728a	0.346577
204	0x3e8335d9	0.2562702
205	0x3e0fc724	0.1404081
206	0x3e8dd94f	0.27704856
207	0x3dd67d28	0.104730904
208	0x3eb7e172	0.3591419
209	0xbe081edd	-0.13293023
210	0x3c2f32ef	0.010693296
211	0xbe528f73	-0.20562534
212	0x3e8be7b7	0.27325222
213	0xbe951193	-0.2911497
214	0x3dbb4e67	0.091458134
215	0x3d9b85f7	0.07593911
216	0xbd422c3e	-0.047405474
217	0xbdffaf5b	-0.12484618
218	0xbd62aa74	-0.055338338
219	0x3eaa7734	0.3329407
220	0xbd935ef4	-0.07195845
221	0xbcf3d681	-0.02976537
222	0xbd7bbc20	-0.061458707
223	0xbe6f9011	-0.233948
224	0xbda65620	-0.08121896
225	0xbe04ab39	-0.12955941
226	0xbdc86b37	-0.097860746
227	0xbe16df48	-0.14733613
228	0xbcf746ef	-0.030185191
229	0xbe4c726a	-0.1996552
230	0x3d5f2f87	0.054488685
231	0x3e3e646d	0.18592997
232	0xbde3832f	-0.11109006
233	0x3e92c1c3	0.28663453
234	0x3e3741e5	0.1789623
235	0x3e96177f	0.293148
236	0x3eb99dba	0.36253148
237	0xbca4610d	-0.020065809
238	0xbd31290c	-0.043252036
239	0xbe1f57ea	-0.1556088
240	0x3e5d0ea5	0.21587618
241	0x3d928993	0.071551464
242	0x3e0dd207	0.1384965
243	0x3e124585	0.14284332
244	0x3d3a4f83	0.045485985
245	0xbe7776a1	-0.24166347
246	0x3cde6676	0.027148467
247	0xbe751e7e	-0.23937413
248	0x3e9cf219	0.30653456
249	0x3ea0c909	0.31403378
250	0xbd618c28	-0.055065304
251	0x3c6ebd7c	0.014571544
252	0xbe1a625c	-0.15076584
253	0x3e783f37	0.24242865
254	0x3e3ef19f	0.18646859
255	0x3e2e4da9	0.17021812

bias f4 [32]
0	0x3e8f128a	0.27943832
1	0xbe66a608	-0.22524273
2	0xbd8e5937	-0.0695061
3	0x3dcbe942	0.099566
4	0x3bcdcde1	0.006280646
5	0x3d55746d	0.052112985
6	0x3e189550	0.14900708
7	0x3e6178ee	0.22018787
8	0xbe7b7351	-0.24555708
9	0x3e083151	0.13300063
10	0x3e2a5ed9	0.16637744
11	0x3eb2c473	0.34915504
12	0xbe73eeac	-0.23821515
13	0xbd0f2c8d	-0.034954596
14	0x3c9fce8c	0.019507669
15	0xbd393615	-0.045217592
16	0xbe85c38d	-0.26125756
17	0xbe3f21e0	-0.18665266
18	0x3dcd58e5	0.10026721
19	0xbe985582	-0.29752737
20	0xbe17530b	-0.14777772
21	0x3c25158f	0.010075941
22	0x3e552d90	0.20818162
23	0xbdde81bf	-0.10864591
24	0x3e7778e2	0.24167207
25	0x3d4a6e80	0.049421787
26	0xbdc9fffa	-0.09863277
27	0x3eb4b4f8	0.35294318
28	0x3e8559c7	0.26045057
29	0x3e56039e	0.20899817
30	0xbdd83a13	-0.10557952
31	0x3e54c872	0.20779589
