model/104.04318380355835.pt (torch_old, 168315 bytes, 19 tensors)

weight f4 [256, 2]
000000 8c 61 f9 3e 7b 33 94 bd 35 92 8d bd 2a 86 b4 3e
       0.48707235 -0.072363816 -0.069126524 0.3525861
000010 99 8d d6 be a8 47 32 be b1 e5 10 3f 39 4f c6 3d
       -0.41904905 -0.17410147 0.5660048 0.09683079
000020 1c 7c d5 be 1c 41 a3 bd 57 8f 08 be 26 22 d6 3e
       -0.4169625 -0.07971403 -0.1333593 0.41822928
000030 23 05 15 3f 03 32 bc 3e de e8 27 be 2d b6 2a 3f
       0.58210963 0.36756906 -0.16397426 0.6668423
000040 4d c7 18 3f be fc a2 3e c6 c2 b6 3e be d2 61 bd
       0.5967911 0.31833452 0.35695475 -0.05513262
000050 d8 f9 02 3e 89 62 25 3f 2e e1 2f bf 27 6c 1e bf
       0.1279062 0.6460348 -0.6870297 -0.6188378
000060 d2 c1 56 be fb 17 f5 3e 5b 23 7b be 82 7b df be
       -0.20972374 0.47869858 -0.24525206 -0.43648916
000070 d3 28 87 3e 8d 6c de 3d 63 f1 bd 3d bc 17 8f 3e
       0.26398334 0.10860548 0.092745565 0.27947795
000080 53 e0 cd be 4c 83 d7 3e b1 03 31 bf b1 9d 88 be
       -0.40210208 0.4209236 -0.6914626 -0.2668281
000090 da e4 50 3e 8c d5 ef be 22 a6 59 3c 5a f2 21 bc
       0.203998 -0.4684261 0.013284238 -0.009884441
0000a0 9b 06 36 3f 73 37 ec be 3d 5b fa 3e af 08 d7 3e
       0.7110383 -0.46136054 0.48897734 0.41998813
0000b0 d1 5a 97 3c 72 6c 29 be 8a e6 4c be 61 a8 92 3e
       0.018475922 -0.16545275 -0.20009819 0.28644088
0000c0 88 25 b5 3c 3b 1d 1b 3f 26 e6 2c 3e 9d 86 0c 3d
       0.022112623 0.6059148 0.1688467 0.034308065
0000d0 41 18 61 3e 56 a0 16 3f 76 46 ba 3d 61 3f 36 bd
       0.21981908 0.58838403 0.090954706 -0.044494037
0000e0 dc f1 77 3e 6e 0e a5 be 44 64 ab be e9 66 28 bf
       0.24213356 -0.3223757 -0.33474934 -0.6578203
0000f0 5f f4 a3 3e 74 4b 0b 3f 6b 27 e2 be 5a 2a aa 3e
       0.32022378 0.5441201 -0.441707 0.33235437
000100 f0 20 f0 bd 57 cb ef be 80 4a 34 3f c5 6e 5a be
       -0.11725032 -0.46834823 0.7042618 -0.21331318
000110 bf 26 dc be cb 94 cd be 69 dd ac be 75 07 65 bf
       -0.4299831 -0.40152583 -0.33762673 -0.89464504
000120 95 a9 0d 3e 1f dd c2 3e a1 30 9a be e3 44 32 bf
       0.13834222 0.38059327 -0.30115226 -0.6963636
000130 5d 93 f5 be e9 dd d7 3d a4 08 c1 be a4 a0 1e 3e
       -0.47963992 0.10540373 -0.37701905 0.15490967
000140 90 48 2f 3e 6b 29 f9 be 56 05 d5 3e b7 e0 1f bf
       0.17117524 -0.48664412 0.41605633 -0.6245226
000150 6c 79 9d be b4 28 11 bf 9a 7a 1c 3f b8 0e a7 bd
       -0.307567 -0.56702733 0.61124575 -0.08157104
000160 b0 6c ea be a3 50 01 bf 81 3b 43 bd 80 37 04 3e
       -0.45786047 -0.50513667 -0.04766417 0.12911797
000170 6c 67 5f aa 17 5d 60 ac e7 90 2c bf d9 d9 ce bd
       -1.984226e-13 -3.188399e-12 -0.67408603 -0.10100145
000180 89 28 d2 be a7 56 4d bf d6 58 a1 3e 32 87 ae 3e
       -0.4104655 -0.80210346 0.3151309 0.3408752
000190 72 40 fe 3e 93 38 07 3c 8f de d3 3e d5 de d3 be
       0.49658543 0.008253234 0.41380736 -0.41380945
0001a0 a9 7c 17 3f 32 31 b5 bd 0c 64 c0 3d 86 f9 ae be
       0.5917459 -0.08847274 0.093940824 -0.34174746
0001b0 7f 0d 6a be b8 11 3d 3f 4f 8b 87 3e ea 83 03 bf
       -0.22856711 0.7385516 0.26473472 -0.5137316
0001c0 b0 8b c9 be 8a c5 27 bd b2 a5 a3 be 5e 85 a7 3e
       -0.39364386 -0.040959872 -0.31962353 0.3271894
0001d0 88 0a 0f bf 95 b6 d1 be 6d 31 34 3e d4 3a 15 be
       -0.55875444 -0.40959612 0.1759698 -0.14573222
0001e0 cd 45 b0 bd 69 7e 37 3d 3a e3 a3 3e bf 3a 4a 3f
       -0.086070634 0.04479829 0.32009298 0.7899589
0001f0 e3 3a 4e be 7a 10 1b 3f 10 fb fa 3e 9c da 9f 3c
       -0.20139651 0.60572016 0.4901967 0.01951342
000200 a9 2f a9 be 09 6e ad 3e fe da 40 3e 0d 03 33 bf
       -0.33044174 0.33873013 0.18833539 -0.6992653
000210 d9 28 c0 bc b8 0a 98 3e d3 e9 07 be 40 ed 19 bf
       -0.023456978 0.29695678 -0.1327279 -0.6012764
000220 a8 27 98 3e e5 c5 c8 3d 02 6c 9c 3e 98 ba 02 3f
       0.29717755 0.098033704 0.30551153 0.5106597
000230 cc 57 05 3f a5 f7 13 bf 7d 1c ce be bd 2a e0 3e
       0.5208709 -0.5779975 -0.4025611 0.43782607
000240 27 51 69 be dd f4 4c bf 4d f1 1e bf 21 a5 bf 3e
       -0.22784863 -0.8006113 -0.62086946 0.3743067
000250 3e 3f 23 bf 5d b2 44 be e7 78 0b be 24 cf 42 3f
       -0.63768375 -0.19208665 -0.1362034 0.7609732
000260 b4 2a 03 3f 27 ca 4e be d4 e6 2d 3f b3 93 1d bf
       0.51237035 -0.20194302 0.6793034 -0.61553496
000270 e4 5e 04 bf 0e c6 9f 3e f2 e3 ab bd 54 de 07 3f
       -0.5170729 0.3120579 -0.083930865 0.5307362
000280 8d 98 f4 bc 4c 44 19 3f 28 ff 8a 3e 36 31 5f be
       -0.029857898 0.5986984 0.27147794 -0.21796116
000290 24 93 b1 be bc bb 03 bf 5c 4d 82 be b3 b6 42 bf
       -0.34682572 -0.51458335 -0.25449646 -0.76060027
0002a0 a0 f8 b0 be dd c2 d7 3e b3 e7 02 3f c6 7c 16 3f
       -0.34564686 0.42140856 0.51134795 0.5878414
0002b0 5c cb 8e be 8f 48 cd 3d 83 c4 20 bf 30 48 15 bf
       -0.27889526 0.10023605 -0.62799853 -0.58313274
0002c0 1d 46 18 3f 2b f2 1a bf 65 89 2b bf e9 26 e3 3e
       0.59481984 -0.6052577 -0.6700652 0.44365624
0002d0 76 d4 d0 be c9 a9 36 3e 69 b2 18 bf ae 51 a9 be
       -0.40787095 0.17838205 -0.5964723 -0.3307013
0002e0 c7 16 b1 3e 80 cb 8c bd eb 4c 17 bf 0e e2 a4 3d
       0.3458769 -0.06874752 -0.5910174 0.08050929
0002f0 82 bc 2a 3f 49 74 e6 be 8e 81 fb be c6 a3 2e bf
       0.6669389 -0.45010594 -0.4912228 -0.6821865
000300 41 ec 0d 3e b7 28 f3 be 0e b7 21 bf 32 1d 2b 3f
       0.13859655 -0.47492 -0.63169944 0.66841424
000310 95 0f 2c 3f 34 75 6a bd 71 85 af 3d 35 86 0b 3f
       0.67211276 -0.05724068 0.08570374 0.5450166
000320 2f ee fd be 19 d2 03 3f e0 17 0a 3f 6c b2 a4 be
       -0.49595782 0.5149246 0.5394268 -0.32167375
000330 6e 54 69 be 0f f7 c9 3e 2a 2b 04 bf fa eb c2 bc
       -0.22786114 0.39446303 -0.51628363 -0.023794163
000340 15 d6 2c 3d ed fc c8 be 26 00 9b be fc 94 48 bd
       0.042196352 -0.39255467 -0.3027355 -0.048970208
000350 e9 a1 04 3f 9a c9 48 bd cc f2 1e bf b1 d9 47 bf
       0.51809555 -0.049020387 -0.6208923 -0.78066546
000360 23 ec a4 be bc ed a9 3d e0 aa b0 3e ec ef 21 3f
       -0.32211408 0.08297297 0.34505367 0.63256717
000370 a9 26 3b 3e 13 54 cf 3d 70 59 39 3e dd f2 cb 3e
       0.18276466 0.10123458 0.18100524 0.39833727
000380 d0 03 3a bf d3 e5 77 be 4e b0 8a 3e 3a af 2e 3f
       -0.7266207 -0.24208765 0.27087635 0.68236125
000390 9b 72 e2 3e d3 0f 59 3e 18 56 21 3e eb 3e 01 bf
       0.44228062 0.21197443 0.15755498 -0.5048663
0003a0 68 20 b4 be 5f 59 b7 be ed 0e 86 3e 38 85 aa be
       -0.35180974 -0.35810372 0.26183262 -0.33304763
0003b0 fd d3 20 3f a1 ea 96 be f4 2f 61 be e0 9b 07 bf
       0.6282347 -0.29475883 -0.21990949 -0.5297222
0003c0 da 59 08 bf 9b 3d 1d 3f 49 18 0d 3e 78 fe ff bc
       -0.532621 0.6142213 0.13778795 -0.03124927
0003d0 a7 76 fc bd f7 3c 2a be 43 e0 80 3e c7 d1 12 3f
       -0.12327319 -0.16624819 0.25171098 0.57351345
0003e0 8b 2e 1c 3f 54 94 fd bd 3e 7b 59 3e b6 d6 a0 3e
       0.6100852 -0.12381807 0.2123842 0.3141381
0003f0 b4 ff d8 3e 64 55 f5 3e 38 b5 42 3e 3e 49 ec 3e
       0.42382586 0.4791671 0.19014442 0.4614963

bias f4 [256]
000000 ef 2a 32 3f 87 66 e2 be 44 21 08 3f 02 25 d6 3d
       0.6959676 -0.44218847 0.5317576 0.104562774
000010 59 26 7c 3e a2 04 88 3d 23 42 ce 3c 32 6d 38 3f
       0.24624003 0.06641509 0.02517802 0.7204162
000020 86 3c 96 3e a1 3f 99 be d2 70 15 bf 98 8c 05 3f
       0.2934305 -0.29931358 -0.58375275 0.52167654
000030 d0 2f 4b be 08 29 8d be 9b c8 25 bf 8d 24 ee bd
       -0.19842458 -0.27570367 -0.64759225 -0.11628065
000040 2c 85 39 3e 49 1e c4 be bb 09 b3 be 70 40 01 3f
       0.18117207 -0.38304356 -0.3496836 0.5048895
000050 d2 88 db be 64 97 b8 be 6b b5 49 be 61 79 b4 be
       -0.42877823 -0.36053002 -0.19698112 -0.35248855
000060 d6 2f 93 3e 3d 68 7f 3e 99 c8 55 3e ac 97 32 3e
       0.28747433 0.24942107 0.20877303 0.1744067
000070 66 ee 73 3e fb 94 af 3e 02 ab 27 3f 1b 1c 33 3f
       0.2382141 0.3429335 0.6549531 0.6996476
000080 d3 7c 15 3f 5a 77 4d 3e b0 7a 07 3f 28 ae 0e 3f
       0.5839359 0.2006506 0.5292158 0.5573449
000090 1d 56 f4 be 0a c2 33 be 6a 36 15 3f 88 a2 b4 be
       -0.4772195 -0.17554489 0.58286154 -0.35280252
0000a0 df 5b 8f bd 66 bb e3 3e 30 68 80 be ec dc 07 be
       -0.06999945 0.4447891 -0.2507949 -0.13267869
0000b0 00 b0 51 be c5 a8 3d 3e 92 81 91 be 01 e4 c9 3e
       -0.20477295 0.18521412 -0.28419167 0.39431766
0000c0 d6 f8 31 bf 46 69 02 3f 17 5b 53 3e d4 db c8 3e
       -0.6952032 0.50941885 0.20640217 0.39230216
0000d0 0c 61 89 bd 17 a2 f5 be 8a 99 06 bf d0 31 88 be
       -0.06707963 -0.47975227 -0.5257803 -0.26600504
0000e0 08 31 46 3f 84 c2 01 bf af 5b fb 3e c6 89 85 bd
       0.77418566 -0.5068743 0.49093387 -0.06520419
0000f0 d5 58 e7 3e 88 88 09 3e 5e ba bf 3e 3b c0 a2 be
       0.4518496 0.13430989 0.37446874 -0.31787285
000100 c1 a6 23 bf ec 22 25 bf ef 59 19 3f 6e 38 2c 3f
       -0.6392632 -0.6450641 0.5990285 0.67273605
000110 2d 3c 00 3f 4e d9 1c 3f fb 81 10 3f e1 e5 67 3f
       0.5009182 0.6126908 0.56448334 0.9058514
000120 75 ab c5 3e 74 ff 9a 3c 04 98 35 3e ed 03 b3 3d
       0.38607374 0.018920638 0.1773377 0.08740983
000130 ce f3 87 3e b2 7e 25 bf 90 fa 32 3f 5f 5b 43 3f
       0.26553196 -0.64646447 0.6991358 0.76311296
000140 dc 3d ad 3e ec 17 12 bf f5 80 64 be e9 7e eb 3e
       0.33836257 -0.5706775 -0.22314818 0.45995262
000150 65 52 df be 87 0e 08 bf 9b ae 79 be 87 13 25 bf
       -0.4361755 -0.53147167 -0.24383013 -0.6448292
000160 d5 bb 00 bf e2 92 29 bf 05 7c 1c bf 6b fc b8 be
       -0.5028661 -0.6623975 -0.6112674 -0.3613008
000170 54 10 ac be 4f 64 4c 3e c5 34 bc be d5 8a 0d bf
       -0.33606207 0.1996014 -0.3675901 -0.55289966
000180 fc be 33 be 1b de b9 3e 97 c7 4b be 4d 23 58 3f
       -0.17553324 0.36302266 -0.19900356 0.84428865
000190 c5 e8 0b 3f e9 96 c1 3e f1 7f 45 3f 78 ad 1d bf
       0.54652053 0.37810448 0.7714835 -0.6159282
0001a0 87 bc e6 bd 4e 0c 45 3f a7 48 3c 3f 44 44 09 bf
       -0.112664275 0.769719 0.7354836 -0.5361979
0001b0 b5 c6 a6 3e cc 7d de be 61 fb 26 bf fe 75 67 3e
       0.32573476 -0.4345535 -0.65227324 0.22603604
0001c0 ed 6a cc 3e ba 52 d1 bc 53 cd fd 3e c5 66 1a 3f
       0.39925328 -0.025552142 0.49570712 0.60313064
0001d0 18 35 3b bf f7 30 26 be 4e 81 f2 3e ab 18 96 be
       -0.7312789 -0.16229616 0.47364277 -0.29315695
0001e0 82 7e fd be ce a5 3a 3e 65 db f0 be a1 c6 3a 3f
       -0.4951058 0.18227312 -0.47042385 0.72959334
0001f0 3e f9 34 bc f2 f8 cf be 8f 72 89 be 66 5e fa 3e
       -0.011045752 -0.40619618 -0.26845214 0.48900145
000200 57 aa 92 be 0f 0b 5b 3f c0 f0 8a be b1 c6 ad bd
       -0.28645584 0.8556375 -0.27136803 -0.08485163
000210 ce c9 a7 be 07 98 68 3e e1 cf c8 3d 48 4d d2 be
       -0.32771152 0.22714244 0.09805275 -0.41074586
000220 c6 0f 05 3f 2a a2 92 be 34 e0 f4 3e a7 a3 36 3f
       0.51977193 -0.28639346 0.47827303 0.71343464
000230 51 31 37 bf 69 4c 3f 3d 0f c4 5a be 38 73 ae 3e
       -0.71559626 0.04670373 -0.21363853 0.3407228
000240 19 c5 27 3e a3 bd 0b 3e 1b 04 18 bf 9d b2 a7 be
       0.1638378 0.1364656 -0.59381264 -0.3275346
000250 99 98 f8 be fb 38 d6 be 54 c9 d8 bd 85 48 16 bf
       -0.48553923 -0.41840348 -0.10585275 -0.58704406
000260 62 bd 72 3e 46 bc 1a bf 5c 4d 04 bf 00 da 9e 3e
       0.23705056 -0.6044353 -0.5168054 0.31025696
000270 7e 97 18 3f d8 95 32 3f 21 52 14 3f 84 96 28 3f
       0.5960616 0.69759893 0.5793782 0.6585467
000280 b0 c4 02 3e 4b 4c 1b 3f ec 99 eb 3e d5 e7 db 3e
       0.12770343 0.6066329 0.4601587 0.4295031
000290 0d 79 05 3f 68 4b ae be ad df a7 3e fc f7 25 bf
       0.52137834 -0.34041905 0.3278784 -0.6483152
0002a0 1f c9 78 be 4b 4f 21 bf 2d 4d 7e be 48 50 1b bf
       -0.24295472 -0.63011616 -0.24834128 -0.60669374
0002b0 a3 6c 45 3f a0 9e ed be 03 7d 18 3e 9b c2 1a bf
       0.7711889 -0.46410084 0.14891438 -0.60453194
0002c0 40 31 23 bf 57 21 68 3f 96 76 ac be 3d f5 dc bd
       -0.63747025 0.9067587 -0.33684224 -0.10788963
0002d0 6d b7 12 3f 21 7f 24 3e a3 53 0a 3f 08 23 f5 be
       0.57311136 0.16064121 0.5403387 -0.4787829
0002e0 74 97 44 3e 16 10 40 3f 63 37 c0 3c 2b 18 a9 be
       0.191984 0.75024545 0.02346391 -0.3302625
0002f0 1a 1b 56 be c9 e4 ac be 39 29 2f 3f 4e 58 c4 3d
       -0.20908776 -0.337683 0.68422276 0.09587155
000300 b4 54 0c 3f 3a 91 17 3f 8a 1a 05 bf 30 98 41 bf
       0.54816747 0.59205973 -0.5199362 -0.75622845
000310 50 75 3b 3e 06 45 eb 3d e3 f1 37 3f ff 4a 3c bd
       0.1830647 0.114877746 0.71853465 -0.04596996
000320 33 0a d7 be 7e 14 26 3f 73 a4 14 3f e0 5e 5e 3f
       -0.4199997 0.6487502 0.5806343 0.8686352
000330 45 6f 3d bf af e4 42 3f f5 09 7f 3e 62 ef 8e 3e
       -0.7399791 0.76130193 0.24906142 0.2791701
000340 b6 3c 02 bf 6d 55 e3 be 2d 19 b2 3e 54 bd 8a 3d
       -0.5087389 -0.44401112 0.34784833 0.06774393
000350 4a 6e 2a 3f fb 20 34 bf 2b dd f4 be 09 36 0b bf
       0.6657454 -0.70362824 -0.47824988 -0.54379326
000360 a1 fe a8 3e 77 f1 50 3f cc 61 44 3f 2e e7 02 3f
       0.33006766 0.81618446 0.76711726 0.51134
000370 29 60 00 bf 4a df e2 be 97 c0 8c be e9 33 ae 3d
       -0.5014673 -0.4431098 -0.27490684 0.08505995
000380 6e cc 5f be 22 ed c6 be cd 74 fb 3e 8d 83 07 be
       -0.21855327 -0.38852793 0.4911255 -0.13233776
000390 5e 7c 06 bf 36 03 0c 3e b4 2e bf be b2 c2 e6 3e
       -0.5253352 0.136731 -0.3734032 0.45070416
0003a0 c2 89 fa 3d c8 b8 bf 3b 96 87 3a 3f e0 f1 a4 3e
       0.122333065 0.005850885 0.7286314 0.32215786
0003b0 e1 1f 0d bf ee fb 7a be cd 25 01 3e 0c d5 1d be
       -0.5512677 -0.24510166 0.12612076 -0.15413302
0003c0 7e b6 08 bf 75 6c 2a 3e 7d fa 23 bf 82 a9 32 bf
       -0.5340346 0.16642936 -0.6405409 -0.697899
0003d0 19 10 04 bf 8f f4 14 3f cc 0d 4c bd a8 c7 83 be
       -0.51587063 0.58185667 -0.049817845 -0.25738263
0003e0 d6 be 18 3f 02 6c b9 bc ea 28 bf be da 66 6c 3e
       0.5966619 -0.02263451 -0.37335902 0.2308611
0003f0 4b bc ff be 35 81 06 3e 97 79 b4 be 2b 03 8e 3e
       -0.49948344 0.13135226 -0.35249016 0.27736792

weight f4 [64, 256]
000000 9a a6 3f 3d 5c 99 8f bd 6a 4e 4a 3d c9 cc 98 3d
       0.046789743 -0.07011673 0.049391188 0.07460935
000010 15 aa e7 bc 0b f0 01 bb ea 8a 2b 3d f2 4e 5a 3d
       -0.028279344 -0.0019826915 0.041880526 0.053297944
000020 a3 8c e0 3c fe d9 e3 bc de 73 db bb ef 36 b8 3c
       0.02741081 -0.027813908 -0.006697162 0.022487132
000030 dc 11 1f bd 4e 83 56 3d 4e 8f a0 3c fe 79 90 bb
       -0.03883539 0.052371316 0.019599583 -0.004409074
000040 99 54 72 bd af 3d 34 3c ad f3 b1 3d 32 d4 80 3d
       -0.05916271 0.011001035 0.086890556 0.06290473
000050 0b 9d 09 bd 70 b2 0a 3d 78 66 87 3d 50 7e 81 bd
       -0.033597033 0.033861578 0.06611341 -0.0632292
000060 c1 2c 75 3d 2d d3 5d 3d 33 d1 f3 3c d9 d9 ce 3b
       0.059857134 0.05415647 0.02976284 0.0063125906
000070 2d 59 b8 3d 4b f4 21 3d f2 cb 7b 3d c8 3d 5c 3d
       0.09001384 0.039539617 0.061473794 0.053769857
000080 61 06 2d 3d 28 d6 46 3d 8c 0b ac 3d 10 ea e6 3c
       0.04224241 0.04854408 0.0840064 0.028187782
000090 9b d5 3c 3d 2c 90 4a 3c f7 59 5d 3c d2 50 64 bd
       0.046102148 0.012363475 0.013510219 -0.05574114
0000a0 a5 ef 83 3d 99 3a 81 3d 30 8a 64 3d 19 ab 0b bd
       0.06442193 0.06310005 0.05579585 -0.03409872
0000b0 49 41 91 3c 27 f5 d0 bc fc 5c 37 ae ac e9 18 3d
       0.017731326 -0.025507523 -4.169197e-11 0.037332222
0000c0 d4 ec 2e 3c be e6 7a bc 27 dd 44 3d d7 df 0e 3d
       0.010676581 -0.015313802 0.04806247 0.03488144
0000d0 b3 d7 82 bc 20 26 e9 bc cf 7b a4 bd 29 89 af 3d
       -0.015971994 -0.028460562 -0.08031427 0.08571083
0000e0 a5 39 f8 ba e7 13 bb bd 7f 07 94 3d 01 73 27 bc
       -0.0018938078 -0.091346554 0.07227992 -0.01022029
0000f0 62 97 c9 3b 05 55 a8 3c ad 9f d4 ba 0d 59 72 3d
       0.0061520794 0.020548353 -0.0016221903 0.059166957
000100 75 bb 0b bd 49 e9 40 3d 95 a8 97 3d 3c a8 c3 3d
       -0.03411432 0.047097478 0.07405201 0.095535725
000110 17 e8 94 3d 59 53 07 bd a6 48 5e 3c 80 43 9c 3d
       0.0727083 -0.03303847 0.013567125 0.07630062
000120 08 b6 91 3d 99 8e b9 bc 36 51 8c bd 00 a1 ab 34
       0.07114798 -0.022651004 -0.06851427 3.1968375e-07
000130 48 9e cc bc 47 d6 a6 3d 77 fa 86 bc 47 cf 4c 3d
       -0.024977818 0.08146339 -0.016476853 0.050002363
000140 25 a4 fe bb 1d 1e 00 bc a5 81 7e 3c 51 b9 66 3d
       -0.0077710324 -0.00781968 0.015533839 0.056329075
000150 e5 2a c2 bd 3e cb 10 bc 6f 7d c6 bd 37 0c b8 bc
       -0.09480838 -0.008837519 -0.09691893 -0.022466762
000160 d0 6b 86 3d 02 fe 20 3c 0a ee 3b bc f4 dc 66 3c
       0.06563532 0.009826185 -0.011470327 0.014090765
000170 32 40 d7 3a 6b 2e 35 3d 64 71 f1 3c 98 15 a6 3d
       0.001642233 0.04423372 0.029473014 0.081095874
000180 ee 10 61 3d 6c 36 85 bc 82 4f 2c bc f2 e7 9c 3d
       0.054947786 -0.016261302 -0.010517003 0.076614276
000190 5c 68 a1 3c 76 0f 7c 3c c7 6d bc bc e5 2f 2c bc
       0.019703083 0.015384546 -0.023001565 -0.010509466
0001a0 d5 df 71 3b f7 1d 03 3d f5 72 7b 3d 36 ce ae 3c
       0.0036907096 0.032011 0.06138893 0.021338563
0001b0 43 db cc 3c 50 5b f1 3c 57 3c a3 bc d8 87 e2 3c
       0.025006896 0.029462487 -0.019926233 0.027652666
0001c0 b1 50 76 bd 15 b2 26 bd 59 49 8a 3b d8 0f 36 3d
       -0.060135547 -0.040697176 0.0042201695 0.044448704
0001d0 69 83 64 bd 1b e5 a8 bc ea 23 d6 3b cd c3 32 3d
       -0.055789385 -0.020617059 0.006535043 0.04364376
0001e0 e6 35 28 bd 5f cf 4e 3d 4c 72 a9 bd 84 10 14 3d
       -0.041067027 0.050490733 -0.082737535 0.036148563
0001f0 1f fc 83 3d 7f f3 d3 bc df fb da 3c e4 12 96 3d
       0.06444573 -0.025872944 0.02673143 0.07327822
000200 5a c1 86 3c 4a 3b 27 3c 91 3f 90 3c 1a da 60 3d
       0.01644962 0.010207007 0.017608436 0.054895498
000210 fc 00 6d 3c 64 0f 68 3b 40 7c 47 3d dc a1 ae ba
       0.014465567 0.0035409564 0.04870248 -0.0013323384
000220 8b 0b 26 3d 0b 34 98 bc d3 a6 1a 3d 7b 8e c3 ba
       0.040538352 -0.018579504 0.037756752 -0.0014919782
000230 98 ce c7 bd a0 83 6b 3d 85 a3 2c 3d b8 89 12 bd
       -0.097562015 0.057498574 0.042148132 -0.03577587
000240 3a 09 96 3d 5c fb 45 bd 46 37 fa 3b 42 05 a8 3d
       0.073259786 -0.048335418 0.0076359836 0.08204128
000250 94 56 75 3c 76 bf 7b bc 0e a2 d6 bc ad 35 dd bb
       0.014974255 -0.015365472 -0.02620032 -0.0067507834
000260 19 6a 4b 3d 12 e3 82 3d 7f 3f 2c bd cb 28 73 3d
       0.04966173 0.063909665 -0.042052742 0.059365075
000270 f5 b0 3a 3d fb 14 65 3d 78 e9 2e 3b 3d 41 ee 3c
       0.045578916 0.05592821 0.0026689451 0.029083842
000280 1a b8 e8 bc 33 96 8b bc dd 4c cf bc 46 5f ae 3c
       -0.028408099 -0.017039394 -0.025305206 0.021285664
000290 02 e6 ac 3d 05 a3 71 bd ba b9 23 bd b6 6f 04 bd
       0.08442308 -0.05899336 -0.039972045 -0.0323331
0002a0 dd 59 e2 bb b5 d6 f3 bc 70 53 30 3d 54 56 53 3d
       -0.006907685 -0.029765466 0.043048322 0.051596
0002b0 af ff 1f 3d e6 7e 96 3c d7 35 13 3d da 93 e5 3c
       0.0390622 0.018371057 0.035940018 0.028024603
0002c0 f4 b4 49 3d ab 90 1c 3d a1 63 8e 3d 97 8a 8c bc
       0.049244836 0.038223904 0.069525965 -0.017155929
0002d0 2b 52 f8 3c 03 4e 32 3d d2 4e 4e 3a ec 21 12 bd
       0.030312618 0.04353143 0.00078700215 -0.03567688
0002e0 60 94 02 3d 45 89 63 3d ec 3b b3 3d 71 47 28 bd
       0.031879783 0.055550832 0.087516636 -0.041083757
0002f0 7f 9a 4b bc 18 97 db bd aa 2c d2 3b 63 e3 59 3c
       -0.012426971 -0.10722178 0.006414016 0.013298842
000300 2a d9 5b bb 0c ee 65 bd 97 a4 b6 bb 6f c4 07 bd
       -0.0033546188 -0.056135222 -0.00557382 -0.033146318
000310 ce 29 54 3d 27 aa 47 bd 5c 91 84 3d e1 d4 99 3d
       0.05179768 -0.048746254 0.064730376 0.075113066
000320 60 8e 1d 3d 3b 30 1c bc 57 16 a8 3c 9f ca 3a 3c
       0.038465858 -0.009532983 0.020518465 0.011400848
000330 a6 21 0d be 9f 1d 8e bc 4d f4 7c 3c 60 f5 8a 3b
       -0.13782367 -0.017348109 0.015439105 0.0042406768
000340 84 f4 c7 bc 3e d9 17 3d df 0a 76 bc d7 a5 5d 3d
       -0.024408586 0.037072413 -0.01501724 0.054113235
000350 c4 c8 8e 3d f9 f7 88 3c b1 bf 1a bd 5c 72 dd bc
       0.06971887 0.016719805 -0.037780467 -0.02703207
000360 a1 2b 81 ba 3e dd 82 ba b9 ba 5c 3d a8 a3 bf 3b
       -0.0009854921 -0.0009984148 0.05388901 0.0058483668
000370 f0 3c 1a 3c 12 95 e2 bc ae 7f fc 39 fd e8 a7 3d
       0.009413943 -0.027658973 0.00048160314 0.08198736
000380 a2 9f 9f 3d 1d eb 83 bc 98 36 74 3b 5a e6 c0 3c
       0.077941194 -0.016103322 0.0037263986 0.02354734
000390 92 65 94 bd 3f b9 5d 3d 64 08 f4 ba 1c 03 6c 3d
       -0.072459355 0.054131743 -0.0018618223 0.057620153
0003a0 01 c6 b3 3a fc 5e c2 3d ff 1a 5e bc 86 99 80 3d
       0.0013715626 0.09490773 -0.013556241 0.06279282
0003b0 a7 73 f3 bb d9 20 11 bb fb 6c d1 3d 0b 6e 83 3d
       -0.0074295583 -0.0022144823 0.102258645 0.064174734
0003c0 38 6f 48 bd f0 45 94 3d fb 91 d6 bc 1d 84 20 bd
       -0.04893419 0.07239902 -0.026192656 -0.039188493
0003d0 1a 47 84 3d 10 71 56 3d 15 10 6a bc 72 73 e5 3a
       0.06458874 0.05235392 -0.014286061 0.0017505719
0003e0 1e 34 6c 3d 20 df 02 bc ea 6a b7 3c 22 79 99 3d
       0.05766689 -0.007987767 0.022389848 0.074938074
0003f0 33 4a a7 bd 42 43 c0 3c 7d 18 49 3c e7 77 5e bd
       -0.08168449 0.023469571 0.012273905 -0.054313567

bias f4 [64]
000000 7e 8d 95 3d a6 20 41 3e 77 77 1e 3e e4 22 27 3e
       0.07302378 0.1886011 0.1547526 0.16321903
000010 0e 5c 48 3e f4 4a b6 bd 54 72 0c 3e fc f9 f2 bc
       0.19566366 -0.08901015 0.13715488 -0.029660217
000020 ca 7d 48 bd 41 51 05 3c 03 96 3a 3e fb 41 25 3e
       -0.048948087 0.008137048 0.18221287 0.16138451
000030 fb e3 e3 3d a2 2d 14 be d1 fa df 3d 55 af be 3d
       0.11127468 -0.14470533 0.10936511 0.09310786
000040 60 7d d4 bc 2f 7b 05 be f6 73 a0 3b 9f 68 be 3d
       -0.02593869 -0.13035272 0.004896636 0.09297299
000050 1a 86 91 3c 53 a5 25 3e 9d 79 3f 3e 15 23 40 bd
       0.01776414 0.16176347 0.18698736 -0.046908457
000060 b8 fa ce 3d 31 16 12 be 5b bc a5 3d 81 ae ae bc
       0.101064146 -0.14266278 0.080925666 -0.021323444
000070 69 4f 14 bd 34 7d 3e 3e 55 ac f3 bc 32 55 01 3d
       -0.036208544 0.18602449 -0.02974526 0.03157539
000080 5c d7 ef 3d 0f 13 33 bc f8 cd 4f 3e ec 3c 2a bd
       0.117109984 -0.010929837 0.20293415 -0.041562006
000090 93 fd 30 3e 4c e1 b4 bc cc 5d 16 3e 4d f0 3d bd
       0.17284231 -0.022080086 0.14684218 -0.046371747
0000a0 6c 73 da 3d 4b e6 04 3e 35 45 f5 bb 48 82 f6 bc
       0.10666546 0.12978475 -0.0074850568 -0.03009142
0000b0 7c e7 09 3d 2b 6c f7 bc c7 d7 7a bb 08 a0 53 3e
       0.033668026 -0.030202946 -0.0038275586 0.20666516
0000c0 6f c2 47 bc 4f 94 bd bd fd 11 3d 3e fd 3e 1d 3e
       -0.012192353 -0.09256803 0.18463893 0.1535606
0000d0 28 2d 78 bc 50 55 cd bc 33 3e c6 3d 48 3e 70 bd
       -0.015147485 -0.025065094 0.09679832 -0.058653146
0000e0 be 16 61 bd 3b 05 29 3d 98 94 d5 bc c5 65 d2 bc
       -0.05495333 0.041264754 -0.026071832 -0.025683293
0000f0 85 c3 5b bd 51 bd 24 bd ea ed 37 bc 8a 87 3a bd
       -0.05365326 -0.04021961 -0.011226157 -0.045539416

weight f4 [32, 64]
000000 1c 1c cc 3c 62 77 b4 bc b4 1e ad bd d9 d6 de 3d
       0.024915747 -0.022029582 -0.08453122 0.10880823
000010 a8 98 0f 3d 9a b2 3f bd 6f 26 a6 3d 4b 5e 3d 3d
       0.035057694 -0.046801187 0.081127994 0.046232503
000020 82 e4 83 bd b7 82 0c bd 77 c5 27 bd 7c ac db bc
       -0.06440069 -0.034304347 -0.0409598 -0.026815645
000030 94 c8 58 bd 32 f5 45 3c 04 bb 7e bd 3e 63 91 3d
       -0.05292566 0.012082385 -0.06219007 0.07099007
000040 a3 39 11 3d 02 29 bb 3d 4a 4e 69 bc 6a f2 dd 3d
       0.035455357 0.09138681 -0.014239857 0.108372524
000050 bc a4 f4 ad b0 4d 99 bb 19 8b bc bd 20 3d 46 3c
       -2.7812745e-11 -0.0046784505 -0.09206218 0.012099534
000060 45 68 10 be 2a cb b8 bc 31 36 23 bd f6 87 17 b1
       -0.14102276 -0.022557814 -0.039846603 -2.2050677e-09
000070 84 7c 89 3c 59 7d 1b 3d 0d e8 60 bd c5 b9 f6 bb
       0.016783006 0.037961338 -0.0549088 -0.0075294697
000080 7d 3c d9 bc e0 a3 6a 3d 46 91 f1 3c 69 35 92 bd
       -0.0265181 0.05728519 0.029488217 -0.071390934
000090 16 96 ce bc c1 a2 e5 bc 17 a5 f3 bc 34 f2 d9 bd
       -0.02521805 -0.028031709 -0.029741807 -0.106419
0000a0 0b 69 c3 3c cb 53 01 be 2b e6 83 bd 9f 27 28 bc
       0.0238538 -0.1262962 -0.064403854 -0.010263353
0000b0 ef 11 63 3d 98 c6 18 bc ad 18 bf 3d a3 9e cf bc
       0.055437025 -0.009324692 0.093308784 -0.025344199
0000c0 92 a5 8d 3d fb 01 e0 bd 92 b1 c6 3c 48 da 04 3d
       0.06916346 -0.10937878 0.024254594 0.03243473
0000d0 73 c6 ed 3c e7 74 ae 3d 37 28 ed bd b1 e7 ab bb
       0.029025292 0.08518391 -0.11579936 -0.0052461256
0000e0 a1 94 52 bc fb 69 5e bd ea f6 d0 32 13 53 81 bd
       -0.012852819 -0.05430029 2.432667e-08 -0.06314673
0000f0 cf 32 c0 bd a1 dc af 3d bf 4c ca 32 a1 95 47 2e
       -0.09384691 0.085870035 2.3550795e-08 4.538026e-11
000100 51 ab 38 bd 36 e8 2d bc b6 e5 02 3e 76 12 10 3e
       -0.045085255 -0.010614445 0.1278294 0.14069542
000110 1c 09 75 3c 2d 1a 94 bd 2f c5 ad 3d 2b 4f 04 be
       0.014955785 -0.07231555 0.084848754 -0.12920825
000120 bd fa b7 bc c9 c6 ad bd d4 27 f0 3c ae 17 44 3d
       -0.022458429 -0.08485181 0.029315867 0.047874145
000130 9d 8c 61 bb 7b c2 69 bd 71 45 e9 bb fd ad aa 3d
       -0.0034416087 -0.057070237 -0.0071188738 0.08333967
000140 da 5f 04 2d 0b 5b d8 bc 9c b2 bb bc 1a a1 ca bc
       7.524615e-12 -0.0264106 -0.022912316 -0.024735022
000150 20 94 b4 3a 8e c3 89 3d 4f 20 7b 3c 23 79 4d 3c
       0.0013777055 0.06726752 0.015327527 0.012541088
000160 6f 54 9a 3d 86 21 8a bd d9 aa 4c bd 5b f5 cc 37
       0.07535636 -0.06744675 -0.04996762 2.4432948e-05
000170 87 a0 30 b9 a4 2e 03 3d 67 bc 8f 3c 81 0f 8e 3d
       -0.00016844469 0.0320269 0.017545892 0.06936551
000180 c6 7b 01 3e 1d 9e b0 bc 93 b1 0b 3d 9d f5 79 bd
       0.12644872 -0.02155977 0.034104895 -0.06102525
000190 bf 45 8c bc 07 59 d5 2b 82 e9 23 3e 67 b4 0c be
       -0.017123101 1.515927e-12 0.16007045 -0.13740693
0001a0 41 c9 ed 3d aa e1 8d 3d 27 71 bf bd e6 61 81 bd
       0.11610652 0.06927808 -0.09347754 -0.06317501
0001b0 91 eb 4f bd 11 de 25 3c 87 07 18 3e 36 7e 6c 3d
       -0.050761763 0.010123746 0.14846621 0.05773755
0001c0 1b df 6f bd 8b f1 7c 3d 32 0a e8 3d ab 4e 9e 3b
       -0.05856238 0.06175379 0.113300696 0.0048311553
0001d0 f4 45 c3 3d df 46 8d bd 16 bd 6c 3d f8 9e 87 bd
       0.09534827 -0.06898283 0.057797514 -0.06622118
0001e0 ed 7a 07 bd db 11 85 bd a5 16 52 39 32 eb 51 bd
       -0.033076216 -0.06497546 0.00020035596 -0.05124969
0001f0 1c a8 e7 3c 4e d7 6e 3d 3d 72 49 bc 91 c6 bb 3d
       0.028278403 0.0583108 -0.012295303 0.09168733
000200 85 5c 7c bd fe 18 e8 bd 32 29 3c 3d a6 7d 7e bd
       -0.06161167 -0.11332892 0.045937724 -0.062131546
000210 65 90 7d 3c e6 fe e6 3d 19 45 97 bd 9b 40 d9 3d
       0.015476321 0.11279087 -0.07386226 0.10608026
000220 0b d0 05 3e bd 39 a6 3d 70 a3 df bd 65 fe 86 bd
       0.13067643 0.081164815 -0.10919845 -0.06591491
000230 d2 bd df 3d a6 ff 38 3e 36 e3 01 be 65 9f bb 3d
       0.10924877 0.18066272 -0.1268433 0.091612615
000240 ed 28 33 3d 52 7f 92 bc f6 2f e7 3d c1 8a df bc
       0.0437402 -0.017882977 0.11288445 -0.027287843
000250 97 85 3c bc 68 00 0f bb b8 13 03 bb 6f 87 d1 bd
       -0.01150646 -0.002182031 -0.0020000767 -0.1023091
000260 57 9d 95 3d a6 06 f4 3d 8b 43 94 bd 3c c8 8a bc
       0.07305401 0.119153306 -0.07239445 -0.016941182
000270 4c 06 df bc 52 73 33 bd c9 2c ce bd ad 73 33 bd
       -0.027224682 -0.04381115 -0.10067136 -0.04381149
000280 3e 80 df bd 77 4f 9c 3d 74 f7 0c 3d ef ca cc 3d
       -0.10913132 0.07632344 0.034415677 0.09999644
000290 4e 78 9d 3d b3 9c 1f bc aa fa 1e be ee c8 bb 3d
       0.07688962 -0.00974195 -0.15525308 0.09169184
0002a0 8a 03 89 bd 2e f1 6c bd 0f ce 33 bc 30 2f 67 3d
       -0.06690128 -0.057847194 -0.010974421 0.056441486
0002b0 98 49 9a bd bb 21 99 3c cb 3d c5 3a eb 7b 39 3d
       -0.07533568 0.018692842 0.0015048323 0.045284193
0002c0 f1 bd 2e 3d c7 89 f0 3d 07 34 b9 bd a2 0c 13 bd
       0.04266161 0.11745029 -0.090431266 -0.03590072
0002d0 55 1a 29 bd 94 b9 cc 3d 46 66 c6 3d 16 ac aa 3d
       -0.041284878 0.09996334 0.09687476 0.08333604
0002e0 1c ad 86 3d 39 ae 9f 3d 8b b6 3e 3b c8 bd 0a 3e
       0.06575987 0.07796902 0.0029100503 0.13548958
0002f0 f0 7f 0f 3e ce 25 89 3d 57 96 3c 3c bc 8d f7 bd
       0.14013648 0.06696664 0.011510453 -0.120875806
000300 af fd a4 3d c5 ba 1b 3d 77 dd 2e 3d f1 e8 eb bd
       0.08056199 0.038019914 0.042691674 -0.115190394
000310 39 d5 a1 3d 79 1f 9a bc ec c4 46 bd 4b 41 35 3d
       0.07901997 -0.018813835 -0.048527643 0.04425172
000320 62 18 b3 3c 08 59 9b 3b 93 7e 7c 3d 27 bf 86 3d
       0.021862213 0.004740838 0.061644148 0.06579428
000330 35 75 07 3d 58 18 2c 3d ef 4e d0 3d 4d 99 5a 3d
       0.03307076 0.042015404 0.101713054 0.053368855
000340 82 d0 0a 38 84 b4 c9 bd 91 ec bd 3d 69 fc fa 3d
       3.3095952e-05 -0.09848884 0.09273637 0.12255175
000350 db 30 55 38 43 32 3b bd c9 11 d5 3d 29 7f e4 bd
       5.0828658e-05 -0.04570223 0.10403783 -0.111570664
000360 03 a1 de bd f7 66 28 bd be 2e cd bc 52 c3 1c b9
       -0.10870554 -0.04111382 -0.025046702 -0.00014950082
000370 5b 99 8e 3c 2a db 16 3d 58 16 a9 3d be 39 c3 bc
       0.01740711 0.036830105 0.08256215 -0.023831245
000380 ed c1 5d 3d 07 6b fa bd 9c 5a 7d 3d 37 58 02 be
       0.05414002 -0.12227445 0.06185399 -0.12728964
000390 82 5a 86 bd be e3 40 b8 b7 0f e0 bd e8 05 9f 3d
       -0.06560232 -4.598847e-05 -0.10940497 0.077647984
0003a0 ae 4c aa bd 29 56 01 3e ff 2c bb bd e6 45 91 3d
       -0.08315407 0.12630524 -0.09139442 0.0709341
0003b0 5e c7 48 3d 14 b6 07 3b 86 52 38 3d c1 0f b4 bd
       0.049018256 0.0020707892 0.045000575 -0.08792067
0003c0 4e ea be bd 22 cd 6f bb ad 61 6c 3d 6c fd d3 bc
       -0.09322034 -0.0036590775 0.05771034 -0.025877677
0003d0 1c 0d c8 bd 4e b6 6a 3d 82 10 42 bd b3 4c 52 bd
       -0.097681254 0.057302766 -0.047379024 -0.051342677
0003e0 87 35 9c 3d 0c 1a e5 bd 2a cc 4a 3b 31 6b 82 bd
       0.07627397 -0.11186609 0.0030944445 -0.063681014
0003f0 6b 34 13 be 63 f9 dc bd 5b 63 37 bc 9b d5 d6 bb
       -0.14375465 -0.10789754 -0.011193122 -0.0065562255

bias f4 [32]
000000 61 cd 12 bd 1e cb 59 3e 43 5d 46 be 05 19 aa bd
       -0.035840396 0.2126889 -0.19371514 -0.08305553
000010 79 c1 5d 3d d2 ab c2 bd fc c0 56 bd c3 8d 16 be
       0.054139588 -0.095054284 -0.052430138 -0.14702515
000020 c1 c5 1e 3e 14 92 25 be 8a 5b df 3d 5b 0b 28 bd
       0.15505125 -0.16169006 0.109061316 -0.041026454
000030 40 79 9a 3d 5f 86 f1 3c 5a a8 d2 bd d3 37 f9 3d
       0.07542658 0.029483018 -0.10286017 0.12168851
000040 80 ca 39 39 8b b5 23 bd ef fa 05 be 33 40 55 3e
       0.00017718412 -0.039968055 -0.13084005 0.20825271
000050 b9 e0 3b bc a4 80 27 3c b4 17 04 3e f7 4c a0 3c
       -0.011467152 0.010223541 0.12899667 0.01956795
000060 65 69 83 bd 03 a8 63 be f0 b4 c6 bd c3 f9 19 bd
       -0.06416587 -0.2223206 -0.0970248 -0.037591707
000070 8f 27 13 3e bf d8 7f 3e 87 9d 9f bd 33 78 e7 3d
       0.14370559 0.24985026 -0.07793718 0.11302223

weight f4 [8, 32]
000000 68 c9 6e 3d 35 8f 81 3d 8a ab 33 be 8e f7 21 be
       0.058297545 0.06326143 -0.17545906 -0.15817091
000010 9c ea 21 be fe a2 32 3c dc 5d 01 be d4 7d e9 2b
       -0.15812153 0.010903118 -0.12633461 1.659057e-12
000020 fd 09 43 bd 28 94 26 3d 5e c1 28 3d de a6 c1 3d
       -0.047616947 0.040668637 0.041200034 0.094556555
000030 f7 a0 57 3c 80 98 f3 3d f5 83 2d 3d 47 b0 4a 3c
       0.013160936 0.118943214 0.042362172 0.012371129
000040 2e 90 19 bc d1 43 14 3e 36 9f d3 bd 9b c0 28 be
       -0.009372754 0.14478995 -0.103331015 -0.16479723
000050 ec 7c ec b9 cf ec f9 3d c2 c1 29 3d 20 54 f3 3c
       -0.00045106502 0.12203371 0.041444547 0.0297032
000060 ed a9 0b bd 0e 05 7a ae 13 7a 54 2d fc 69 df 3d
       -0.0340976 -5.684791e-11 1.2077911e-11 0.10908887
000070 9f 41 6b bd 70 07 e8 b2 10 69 c3 bd fa fb 1b bd
       -0.057435628 -2.7011737e-08 -0.095415235 -0.0380821
000080 56 e5 f5 3b 16 99 46 3e c2 96 52 be 69 ed be 3d
       0.0075041456 0.19394335 -0.20565322 0.09322626
000090 e6 75 17 bd 8a 09 df bd be eb 6c 3e f5 ae bd bd
       -0.03697767 -0.10890491 0.23136804 -0.09261886
0000a0 c7 99 b8 3c d2 a1 1e be fd 39 c2 3d 81 64 5d bc
       0.022534264 -0.15491417 0.09483717 -0.0135127315
0000b0 42 4c 9b be 21 3e 0d be 17 f1 fa bd d1 b3 48 be
       -0.30331618 -0.13793232 -0.122530155 -0.19599845
0000c0 46 35 32 bc ea 99 34 be 98 00 d7 3d 3d 5d 3b 3e
       -0.010876959 -0.17636839 0.1049816 0.18297286
0000d0 21 c0 42 3c 6d 18 04 3e b5 47 cb 3d a5 76 4f 3e
       0.011886627 0.12899943 0.099257864 0.20260103
0000e0 8d 0c 50 bd 35 60 ef bd c6 8a d3 3a ae 75 ff 3d
       -0.05079322 -0.11688272 0.001613938 0.124736175
0000f0 f6 dc c8 3c aa 7a 1d 3c d0 07 f7 3d df f7 1e 3e
       0.024519425 0.009611765 0.12062037 0.15524243
000100 c5 f3 bd 3d 21 fb 59 3c 46 a9 b3 3d b3 a9 68 bd
       0.09275011 0.013304503 0.08772521 -0.056802463
000110 49 44 c9 bd ae 2e 73 bd 96 58 6a 3d 6d 49 51 bd
       -0.098274775 -0.05937069 0.05721339 -0.051095415
000120 dc 2e bd 3c 16 25 5d 3c 1c c7 8a bd aa 0b 14 bd
       0.023093633 0.0134976115 -0.06776258 -0.036143936
000130 7b b8 bf 3d b1 49 f9 bd 3a b7 19 3e f3 c1 a5 bd
       0.09361359 -0.12172259 0.15011302 -0.080936335
000140 b3 de 02 3d 2f e3 92 bb 69 d9 0d 3e 14 b6 3b bd
       0.031950664 -0.004482649 0.13852467 -0.04582794
000150 90 cf a8 ab 22 f4 3b be 39 d3 0f be 2c c3 31 3c
       -1.1994728e-12 -0.18354848 -0.14045419 0.010849755
000160 bf b0 ae bc 35 cf 80 3d 5a 44 7e bd 54 0e aa 3c
       -0.021324513 0.062895216 -0.062076904 0.020758785
000170 98 f4 df bd c8 f2 2e bd 18 9a 6f bd 42 bf a7 3d
       -0.109353244 -0.042712003 -0.058496565 0.081907764
000180 b9 e5 b2 bd 83 35 ed bd be 3d 8c 3b a5 c5 4e 3c
       -0.08735222 -0.11582472 0.004279821 0.012620364
000190 b2 3b ab 3d 33 19 b4 bc 23 9b 65 bd ab 73 d4 bc
       0.08360995 -0.021984672 -0.056056153 -0.025934061
0001a0 ee f7 02 be f3 df 34 3e ca ad 06 3d d4 c4 80 3d
       -0.1278989 0.17663555 0.032880582 0.06287542
0001b0 a5 81 fc 3d 54 6b 29 3e d3 24 12 3e 81 52 97 3e
       0.12329415 0.16544849 0.1427186 0.29555133
0001c0 3f d5 c0 3b bc 78 f5 3c 43 e9 a7 3d 9a 62 44 bc
       0.005884796 0.029964797 0.08198788 -0.011986399
0001d0 e0 b0 dc bc fe 64 1c 3e 0d 27 2b 3e b0 78 2b be
       -0.02693981 0.152729 0.16714115 -0.16745257
0001e0 20 70 83 3d a4 b8 03 3e ed e1 ac 3c d3 c6 dd bd
       0.064178705 0.12863404 0.021103824 -0.10828938
0001f0 4a 2d 1e be 00 e5 0b be bc 8b 40 3d a4 f2 f0 3c
       -0.15446964 -0.13661575 0.04700826 0.029412575
000200 c8 c8 6d bd f4 a8 0b be 8b 07 a6 3d 01 ca 0c be
       -0.058052808 -0.13638669 0.081069075 -0.13748933
000210 ec 1e 04 3c d3 9f 90 bd d2 db 34 be f1 97 65 3e
       0.008064013 -0.07061734 -0.1766198 0.22421242
000220 8c 7e 4e 3d 20 26 3a 3e 7d 8e 0f be d2 c0 00 be
       0.050413653 0.18178606 -0.14019199 -0.12573555
000230 eb 81 ba 3d ff 12 3f 3e 3c 5e 52 3e c6 e4 26 3e
       0.09106811 0.1865959 0.2054376 0.16298208
000240 51 80 20 be 7f bb 8e 3c eb ef 96 3c f7 3e 40 3e
       -0.15673949 0.01742339 0.018424949 0.18774019
000250 f0 5a 31 3c 39 6b 83 bd 04 ea 01 3e a1 31 05 bd
       0.010824904 -0.064169355 0.12686926 -0.032518033
000260 fa 3f d2 3d 71 04 3a 3d c3 49 21 bd a5 ee b5 bd
       0.10266109 0.045414392 -0.039376985 -0.088834085
000270 47 5f c6 3d a0 17 f8 bd 62 96 55 3d 73 bd 81 bd
       0.096861415 -0.12113881 0.05214537 -0.06334963
000280 0c 34 49 bc 45 39 ae bc ba 36 98 bc e3 da 7e 3b
       -0.012280475 -0.021267543 -0.018580783 0.003888779
000290 ad 15 03 3e a7 d6 fa 3d 3e 8a d6 3d 3d be 78 3d
       0.12801237 0.12247973 0.10475586 0.0607283
0002a0 86 f3 41 3e cc 02 74 3d 49 82 c8 3d e4 8e be bd
       0.18940553 0.05957298 0.09790475 -0.09304598
0002b0 5c ab 25 be 7c 3b 43 bd 1d 07 15 be 38 aa 86 be
       -0.1617865 -0.04766415 -0.14553495 -0.26301742
0002c0 be 39 e4 bd 9b 9a 65 bd da eb 4b be c7 77 b1 3c
       -0.11143826 -0.056055646 -0.19914189 0.02166356
0002d0 70 d1 3f 3c fb 87 f9 3d c5 37 19 3e af 76 0c 3e
       0.011707649 0.12184139 0.1496268 0.13717149
0002e0 ab 85 fb bd be 31 7f bc af 88 47 bc 9d 19 3a be
       -0.122813545 -0.015575824 -0.012178584 -0.18173833
0002f0 7b 64 35 3e 2f 3f 05 3e f8 b8 cd bc 25 23 1b 3e
       0.17714112 0.13012384 -0.025112614 0.15150125
000300 2a 10 8f 3d 07 5f ca 3c 9c bf e3 3d 0c 8b 2a 3e
       0.06985505 0.024703516 0.11120531 0.16654605
000310 35 db b8 3d 92 fe 06 3d 32 6b 52 be e7 ab 9e 3c
       0.090261854 0.03295762 -0.20548704 0.019369079
000320 62 c9 d3 bd 15 25 06 3e f0 18 4a be 76 06 54 3e
       -0.10341145 0.13100083 -0.19736075 0.2070559
000330 96 f2 89 3e 90 28 fd 3d 71 16 19 bc 7b b2 96 3e
       0.2694289 0.12361252 -0.009343729 0.29433045
000340 b0 a8 9e bd 09 7c 36 3e c8 de 97 3d 20 57 9d bc
       -0.07747018 0.17820753 0.07415539 -0.019206583
000350 ad bc 4e bc 89 da e5 3d 85 7d d8 bc f5 0f a3 bd
       -0.012618226 0.11223323 -0.02642704 -0.07962028
000360 90 f8 74 3c d6 b9 48 3b 92 07 a9 3c 8b 2a 3e bd
       0.01495184 0.0030628345 0.020633493 -0.04642729
000370 1f 44 8f 3d 92 e7 48 be 46 a4 23 3e c9 6d b3 3d
       0.06995415 -0.19619587 0.15980634 0.08761174
000380 88 e9 82 3d c7 17 68 3d 96 c6 28 be e2 88 0e be
       0.06392199 0.0566633 -0.16482005 -0.13919404
000390 7f ed 27 3e a2 df b5 bb 6a 62 8a 3d c8 08 5f be
       0.16399191 -0.0055503407 0.06757052 -0.21780694
0003a0 cd dc 11 3e 5a 98 8e 3d 0c 15 9f 3d 39 74 09 3e
       0.14244385 0.069626525 0.07767686 0.13423242
0003b0 f8 7b 5b be 57 90 7c 3d ed 41 44 be 3b 7a 44 be
       -0.21434009 0.06166109 -0.19165774 -0.19187252
0003c0 7a b4 8d bd 99 0b a7 3b e3 98 c4 3c c0 51 29 3e
       -0.06919189 0.005097818 0.023998683 0.16535091
0003d0 72 2a 4c 3c ae 9e 16 3e c0 88 f6 3d 3e 62 b4 bc
       0.012461292 0.14708969 0.12037802 -0.022019502
0003e0 83 d4 af 3c fb 2d 7a 3d db a5 6a 3d fd 6d 0b be
       0.021463638 0.061079007 0.05728708 -0.13616176
0003f0 1b f0 47 bd 3a d1 05 be 05 bf 2b 3d 95 9c fd 3d
       -0.048812967 -0.13068095 0.041930217 0.12383381

bias f4 [8]
000000 a5 54 64 bd 96 a3 9e 3c df 5b eb 3c 22 78 3e be
       -0.055744786 0.019365113 0.028730331 -0.18600515
000010 94 5d 01 be f7 5d 94 3e 42 5d ee 3c e2 56 27 3e
       -0.12633353 0.2897794 0.029097203 0.16341737

weight f4 [1, 8]
000000 90 9a 94 3e f0 76 ad be f6 c3 12 bd c7 a9 20 3e
       0.29024172 -0.33879805 -0.035831414 0.15689765
000010 63 05 1c 3e 71 57 a4 be 6b 48 68 3e db 90 dc bd
       0.1523643 -0.32097962 0.22683875 -0.107698165

weight f4 [8, 1]
000000 22 50 48 bf 9b fc ee be 74 c3 45 bf e4 f7 4b 3d
       -0.7824727 -0.46677098 -0.7725136 0.049796954
000010 41 d0 c3 be ad 82 44 bf 0d 52 e4 be de 33 20 bf
       -0.38244823 -0.76761895 -0.4459385 -0.62579143

bias f4 [8]
000000 ad d9 39 3f 8b 5d 7b be 70 67 af 3e 15 96 bd be
       0.7259777 -0.24547403 0.34258604 -0.37028566
000010 9d ac 77 3f 72 d2 00 bf b6 34 e9 be 14 76 23 bf
       0.9674776 -0.50321114 -0.45548028 -0.6385205

weight f4 [32, 8]
000000 92 ec a3 3e 96 4c 6d be 0f b0 a5 3c 09 88 b8 2b
       0.32016426 -0.23173746 0.020225553 1.3111744e-12
000010 69 5c bc 3d 32 bc df bd 58 43 45 be fa 79 9e bd
       0.09197313 -0.10924567 -0.19263971 -0.07738109
000020 35 4c 5a bd 43 c4 e3 bd d0 2d 38 be 44 fb 24 3c
       -0.053295333 -0.11121418 -0.17986226 0.010069672
000030 64 99 7e bd cc 2e ed bb 86 ef ef b2 f3 80 0e 2d
       -0.062158003 -0.0072382446 -2.7932185e-08 8.100398e-12
000040 50 a2 23 3a 7d 04 70 bd c9 d0 c7 3c 20 bf 30 ab
       0.0006242143 -0.05859803 0.024391549 -6.2793e-13
000050 08 26 2f bd c4 0c 7a bd e9 13 8b bd 29 aa 7f 3c
       -0.04276088 -0.06104733 -0.06790907 0.015604534
000060 02 5a 51 3e 60 7b 8c 3c 74 e9 84 3e b3 00 d3 bd
       0.20444492 0.017148674 0.2595936 -0.10302868
000070 a5 e8 53 be a0 06 ca bd ea 68 80 be bb e9 14 be
       -0.20694216 -0.09864545 -0.25080043 -0.14542286
000080 d1 66 b2 3e 92 77 a9 3d e4 4a 47 3c 63 1c 6f 3d
       0.34844068 0.08274759 0.012163851 0.05837668
000090 dc 6b 40 3e 9c 0a 67 bd cc 44 4c be d8 ec 0f 3d
       0.18791145 -0.056406602 -0.19948119 0.03513798
0000a0 cc 1c 3e 3e 9c 4a 9b 3e e3 be 20 3e 6c 41 57 3b
       0.18565673 0.3033036 0.15697818 0.003284539
0000b0 52 01 96 be e1 5b ae bd df f7 0a 3e 20 a3 97 3e
       -0.29297882 -0.08513618 0.13571118 0.29616642
0000c0 b9 ec fd bd f8 ac 1a be 74 fd 75 38 b7 6c 5b bd
       -0.12398667 -0.15105045 5.86486e-05 -0.053570475
0000d0 21 e9 86 3e 8c 40 74 bc 62 9f b8 bd 7a 9f 5a be
       0.26349738 -0.014907967 -0.09014775 -0.21349898
0000e0 45 8e 9d 3d 0a 97 84 be 91 68 be 3e c0 8d 59 3e
       0.076931514 -0.25896484 0.37189153 0.2124548
0000f0 89 88 6a be 08 b8 a5 3e 6c 61 22 be d3 43 1a be
       -0.22903647 0.32366967 -0.15857476 -0.15064935
000100 b6 77 c5 3e 1a 49 94 3e 75 eb 86 3e 70 04 10 3b
       0.38567895 0.28962022 0.26351514 0.0021975301
000110 7d 6b 9b 3e 24 56 09 3c bf 75 00 3e 30 dc df 3d
       0.30355445 0.008382354 0.12544917 0.10930669
000120 b2 b9 c2 3e 80 f1 04 be 30 6a b0 3e fe a9 a4 38
       0.380323 -0.1298275 0.34456015 7.851793e-05
000130 2a f9 5c 3e 7f 8f ac 3e 24 38 3c bd 11 5a 84 3d
       0.21579424 0.3370323 -0.045951977 0.06462491
000140 e1 76 ab 3e 7e 71 ba 3e 4e 09 78 3d e9 38 10 bc
       0.33489135 0.36414713 0.06055575 -0.008802631
000150 27 8f 8d be 12 15 9c 3e e0 dd 76 3e e5 b8 89 be
       -0.2764828 0.30484825 0.24108076 -0.26898876
000160 49 53 02 be 56 23 4e be 84 bc 9f 3e db ad df 3d
       -0.12727083 -0.20130667 0.31198514 0.10921832
000170 4a ad bf 3e 7c 54 80 be f3 bd 14 3e 75 0f 94 bd
       0.37436897 -0.25064456 0.14525585 -0.07229511
000180 93 88 21 bc 3c c0 f3 39 9d f1 16 3a 1a cc 14 3d
       -0.009859222 0.00046491798 0.0005758049 0.03632746
000190 d6 0a aa b6 ad d9 3e bc 56 db bf b9 c6 4e fe 2e
       -5.0676563e-06 -0.011648578 -0.00036593777 1.1564576e-10
0001a0 a4 e2 6c bd 17 38 1f 3e e5 c9 3f bc e8 96 67 bd
       -0.05783333 0.1554874 -0.01170585 -0.0565404
0001b0 4f 71 3a bc 79 57 34 3e da a6 86 be d2 6f 82 bd
       -0.011379554 0.17611493 -0.26299173 -0.06368984
0001c0 f5 36 34 be 32 f5 dd be c2 70 e7 be 75 37 17 ba
       -0.1759909 -0.43351132 -0.45203215 -0.00057684566
0001d0 ff d3 4f 3d 2d 55 62 be 18 cd 7c bd aa 79 2c be
       0.050739285 -0.22102804 -0.06171903 -0.16843286
0001e0 f3 bf 1b 3e 46 04 b1 3a 09 5a 69 3d dc 80 83 bd
       0.15209942 0.0013505302 0.05697063 -0.06421062
0001f0 1f e4 da bc 41 3d 3a be fc e6 cd bd 05 29 58 be
       -0.026720105 -0.18187429 -0.100538224 -0.21109398
000200 3b b8 56 bd 02 0a 21 2a 0e f7 c2 ac 64 2d 1f bc
       -0.05242179 1.4303145e-13 -5.54124e-12 -0.009715412
000210 31 42 77 3d 17 52 30 2c 8d 16 3b bd 9d 58 69 bd
       0.06036586 2.5056673e-12 -0.045675803 -0.056969274
000220 91 ce a7 b5 0a 63 a8 ad 0e 25 d5 2e fa dd 40 be
       -1.2502588e-06 -1.9143371e-11 9.692701e-11 -0.18834677
000230 b3 f5 04 bf b0 0f 28 2d f9 15 14 3d 5a 84 1b af
       -0.5193741 9.553178e-12 0.036153767 -1.4144189e-10
000240 e3 30 61 3e c2 87 52 3e 97 a7 55 be 0b 15 5c 3e
       0.21991305 0.205596 -0.20864712 0.21492402
000250 07 e3 9c 3e 3d c7 af 3e 4c 75 67 3d 35 8f b4 3e
       0.30641958 0.34331694 0.056508347 0.35265508
000260 db aa 10 be 97 0f 4b 3e 71 e3 88 bc ab 22 87 ba
       -0.14127676 0.19830166 -0.016710015 -0.0010310014
000270 6e 22 1b bd 6d d5 a2 be c7 c6 22 be 87 a5 79 3e
       -0.03787463 -0.31803456 -0.1589614 0.2437955
000280 83 c5 94 bd f2 e3 96 3e 65 ef 9b 3e bd 77 f6 bc
       -0.07264235 0.29470783 0.3045608 -0.030086393
000290 31 0c b1 be 79 47 0a 3e e5 16 10 3e 38 2c 6c 3e
       -0.34579614 0.13503827 0.14071234 0.23063743
0002a0 11 f2 a1 3d 58 4a 89 3e b9 94 15 3d 53 cc a5 3d
       0.07907499 0.26814532 0.036518786 0.080956124
0002b0 b5 67 f0 3d 87 9b 1c 3d 8e b5 d1 bd fe 7c 9b 3d
       0.117385305 0.03823426 -0.10239707 0.075922
0002c0 ff ea 2e bc 38 c3 54 ae c7 43 74 bd 42 51 60 37
       -0.010676145 -4.837661e-11 -0.05963495 1.337036e-05
0002d0 42 06 5e 3b 9c 55 f8 32 35 3b a5 bd fa 6e 94 bd
       0.0033878242 2.890993e-08 -0.080679335 -0.072477296
0002e0 9c 2f 05 3e fd a9 28 be 63 43 66 3c cd 8b 94 bc
       0.13006443 -0.16471095 0.014054152 -0.018133068
0002f0 80 64 c5 3e ae 62 79 3d 8b 4f 95 be 04 ad 92 be
       0.38553238 0.060885124 -0.2916225 -0.28647625
000300 f4 64 99 3e a6 0c 7c be 05 45 64 be ea 91 89 3e
       0.29959834 -0.246142 -0.22291954 0.26869136
000310 95 b2 14 3e cf 92 84 be 00 74 c1 bd 77 9c 49 3e
       0.14521249 -0.25893256 -0.09445953 0.19688593
000320 c8 a4 1e 2a 03 c9 4a bd 9a 99 92 3b bd 99 ba b5
       1.4090389e-13 -0.049508106 0.004473877 -1.3902824e-06
000330 43 a6 eb bb 58 cc b3 bd bd c1 ff 2a 0e 6f 8c 3c
       -0.007191451 -0.0877921 4.5431532e-13 0.017142799
000340 80 df 12 3e 6f 09 d5 3d cb 84 64 3e 16 96 d0 3c
       0.14343071 0.1040219 0.22316281 0.025462192
000350 e6 0f 89 be e9 e1 4a 3e e5 84 3e be 3e a0 b1 3d
       -0.26769942 0.1981274 -0.18605383 0.08673142
000360 bb 9b be 3e e7 d2 cc 3d 09 e3 20 3e d8 bb b9 bd
       0.37228188 0.10001164 0.15711607 -0.090690315
000370 a8 f8 82 3e c3 b1 98 be 81 96 b2 be 62 ea 80 3e
       0.25580335 -0.2982312 -0.3488045 0.2517882
000380 33 1c 12 3c fc c5 22 3e 2e b7 83 be 09 a2 92 ad
       0.008917856 0.15895838 -0.25725693 -1.6670236e-11
000390 f0 3e bd bd ce dd 98 3e 28 1e f4 3d 26 12 82 3e
       -0.0924052 0.29856724 0.11919814 0.2540447
0003a0 4a 73 6b bd 99 1a 63 3d 3e 40 af bc b3 2b 1b bb
       -0.057482995 0.055445287 -0.021392938 -0.002367717
0003b0 a2 37 76 2d a4 d2 69 3d bb e2 f5 bc b0 7f 50 3c
       1.3995834e-11 0.05708565 -0.03001534 0.012725756
0003c0 dd ff a4 3d f6 40 8b 3d 04 0e e8 3d a5 95 e4 ba
       0.080566145 0.067995 0.11330798 -0.0017439617
0003d0 4e 6c 5d be f7 5a 37 3e c0 27 ce 3d 91 36 bb 3d
       -0.21623346 0.17905794 0.100661755 0.09141267
0003e0 9f cd 49 aa 43 c9 ae bc 53 c7 5b bc e6 69 4a 2d
       -1.7923725e-13 -0.021336203 -0.013414222 1.1505885e-11
0003f0 5d 50 03 b0 83 c4 a7 bd f6 4c bb 3c 50 19 4c 3a
       -4.7771725e-10 -0.081917785 0.022863846 0.0007785754

bias f4 [32]
000000 b2 b7 9a 3d a2 e1 c1 3e 4f 5f a1 bb 78 b9 d6 3e
       0.07554568 0.37867457 -0.0049246917 0.41938376
000010 0c 57 3a 3d 95 37 66 be 42 75 c1 3e 7a 94 db 3e
       0.04549317 -0.2248214 0.37784773 0.42886716
000020 c4 ce 49 be 6f 0a 08 3c 63 a1 8f be 88 99 d3 3e
       -0.19707781 0.008303269 -0.28052816 0.41328073
000030 2a c0 9e bb 8b 9c 82 be ec 9c 5c 3e d7 eb 58 3e
       -0.004844685 -0.25510058 0.21544236 0.21183716
000040 d3 f1 87 bd 7d 60 56 3e 6e 16 89 bd 9f 45 ea 3e
       -0.06637921 0.20935245 -0.06693731 0.45756242
000050 b6 c9 b5 3e 99 55 08 bf c0 e8 62 bd 8c c0 e3 3e
       0.35505456 -0.5325561 -0.05539775 0.4448284
000060 ff cf 6c 3e 9b 63 9e bd dc a1 b3 3e bc 47 e1 bc
       0.23126219 -0.07733842 0.35084426 -0.027500026
000070 54 7f 34 be e9 4b be bd 9a b4 e1 be 86 83 85 bd
       -0.17626697 -0.092918225 -0.440831 -0.06519227
