model/104.585162162780762.pt (torch_old, 168315 bytes, 19 tensors)

weight f4 [256, 2]
-0.57237786 -0.46618286 0.24263033 -0.06705798 0.68736124 -0.33943832 0.6890305 -0.33965975
0.20479059 -0.25801274 -0.33271497 0.45564175 0.60173213 0.51663005 -0.023685254 0.100553766
0.0057627335 0.021630142 0.25973928 0.62891114 0.33787462 0.45354247 0.1888987 0.53183264
-0.3506829 0.49030766 -0.4424348 -0.43474615 0.42391214 -0.49380058 0.68850994 -0.5303076
0.41460988 0.5487732 0.43952113 -0.4641258 -0.3821614 -0.14961584 0.39309907 0.50383276
-0.20274459 0.6428232 -0.22668985 -0.28527138 -0.00052075135 0.52447426 -0.59933317 0.55360425
-0.24850169 -0.50848264 0.35536054 -0.056282952 -0.12207507 0.12061167 0.533533 -0.23526949
0.050917234 0.35938036 0.2398366 -0.16044493 0.73293215 -0.29722154 0.4756391 0.6696477
-0.26915997 0.43480292 0.48931193 0.56236166 0.47893476 -0.42002964 0.32370046 -0.24573982
-0.012505725 0.66009545 -0.38413 0.19357672 0.23418444 0.15196534 0.37523994 -0.32329294
-0.19539362 0.68580973 -0.62748593 0.023038974 0.3025997 -0.39047435 0.008682127 0.059636254
0.58518636 0.36601955 0.23346642 -0.15351337 -0.30322948 0.43771765 0.7344721 0.042137165
-0.07767137 0.5871294 0.34914166 0.2561292 0.2819838 -0.34901947 0.07337862 0.13171993
-0.23751451 -0.43201128 0.2854793 -0.15075518 0.73892283 -0.7292668 0.17156215 0.0938794
0.44561717 0.09099457 -0.25924325 0.07273804 0.026250517 -0.53446424 -0.3224298 -0.6424498
-0.06318711 0.07624492 -0.67366815 -0.41697556 0.4628149 -0.5605359 -0.7606431 0.1064747
-0.022496652 0.37498197 -0.62432927 -0.3045064 0.6577786 0.6032934 0.5546199 0.06649863
0.4155542 0.24128856 -0.20363769 0.10747724 0.7475576 -0.7048415 0.3930315 -0.4423382
0.64519733 -0.5147863 -0.69326854 -0.23492537 0.47902384 0.6615831 0.017792234 0.58545285
0.20167862 -0.20706934 -0.1752049 0.50964636 0.35744742 0.058733262 -0.53011036 0.14186104
0.5335069 0.30235982 -0.0031774957 0.16072242 -0.5932177 -0.5318608 0.7260201 -0.6381278
0.6397703 -0.49265692 0.32028636 -0.20431784 -0.725998 0.57131535 -0.31580198 0.4378905
-0.20846514 0.426392 -0.6798606 0.076555416 0.51170653 0.5484048 0.47701725 -0.45137477
-0.52218175 0.18608233 -0.33276042 -0.31367064 0.11141948 -0.49500233 0.4644426 -0.23955451
0.17733231 -0.31741476 -0.29315296 0.35193428 0.7025838 0.24790232 -0.35417476 -0.36313227
0.014690911 0.26981938 0.019426307 -0.33795524 0.21627071 0.48484734 0.58512986 0.5741998
0.6272332 -0.3028924 -0.4011401 0.064555 -0.5046294 0.182882 0.40947038 -0.40643546
0.21584372 -0.5773762 0.64476603 0.41104865 0.56777155 0.4597447 -0.57168776 0.2114353
-0.44997558 0.407742 0.3801217 -0.45295292 0.28920767 -0.3125556 0.13475198 0.550763
0.26682362 -0.23168424 -0.33051017 0.4596825 -0.5261771 0.282079 -0.0071927556 -0.5466239
0.36376858 -0.35516766 -0.10821818 -0.5725326 -0.077719115 -0.61239797 -0.4366295 -0.25831753
0.603728 -0.58000666 0.14678328 -0.11713386 -0.7796659 0.24362147 -0.7598087 0.20391685
00000000: 5b87 12bf 85af eebe 1674 783e b255 89bd
00000010: e8f6 2f3f dcca adbe 4e64 303f e2e7 adbe
00000020: a0b4 513e 3f1a 84be 9e59 aabe e049 e93e
00000030: 1e0b 1a3f de41 043f 9407 c2bc 22ef cd3d
00000040: 50d5 bc3b b231 b13c 8cfc 843e 5200 213f
00000050: e7fd ac3e b836 e83e a96e 413e 2f26 083f
00000060: b68c b3be 9b09 fb3e d086 e2be 0c97 debe
00000070: 030b d93e 6ed3 fcbe 3042 303f 3dc2 07bf
00000080: bf47 d43e 677c 0c3f ea08 e13e e6a1 edbe
00000090: a9aa c3be e534 19be 4844 c93e 2ffb 003f
000000a0: 479c 4fbe 1090 243f 6221 68be 170f 92be
000000b0: 0883 08ba f243 063f e66d 19bf 02b9 0d3f
000000c0: 3a77 7ebe eb2b 02bf d1f1 b53e f488 66bd
000000d0: 7f02 fabd 4003 f73d 9e95 083f 7cea 70be
000000e0: 978e 503d b400 b83e ba97 753e ad4b 24be
000000f0: 71a1 3b3f 6c2d 98be f886 f33e 086e 2b3f
00000100: 56cf 89be 7d9e de3e 1887 fa3e eff6 0f3f
00000110: f036 f53e 200e d7be 11bc a53e 38a3 7bbe
00000120: d0e4 4cbc 04fc 283f b0ac c4be fa38 463e
00000130: 0cce 6f3e cd9c 1b3e 731f c03e a786 a5be
00000140: 4415 48be 3a91 2f3f eba2 20bf 3bbc bc3c
00000150: 59ee 9a3e 41ec c7be 7b3f 0e3c 2545 743d
00000160: c6ce 153f ea66 bb3e d211 6f3e 9c32 1dbe
00000170: e540 9bbe 871c e03e 5d06 3c3f 0598 2c3d
00000180: 2b12 9fbd 1d4e 163f b2c2 b23e 5e23 833e
00000190: 2e60 903e aeb2 b2be 8847 963d 97e1 063e
000001a0: 0137 73be 9530 ddbe 582a 923e 915f 1abe
000001b0: 0c2a 3d3f 3bb1 3abf fdad 2f3e d843 c03d
000001c0: ef27 e43e 5c5b ba3d 88bb 84be aef7 943d
000001d0: 530b d73c a6d2 08bf 8515 a5be 9777 24bf
000001e0: 3e68 81bd 4c26 9c3d 8475 2cbf d27d d5be
000001f0: 13f6 ec3e 487f 0fbf 82b9 42bf 680f da3d
00000200: e64a b8bc a3fd bf3e 0bd4 1fbf 43e8 9bbe
00000210: 2e64 283f 7071 1a3f 92fb 0d3f 6f30 883d
00000220: 85c3 d43e 5914 773e 6686 50be 071d dc3d
00000230: ef5f 3f3f 7e70 34bf 6d3b c93e 277a e2be
00000240: a72b 253f 09c9 03bf 0c7a 31bf 4790 70be
00000250: 9d42 f53e 835d 293f 05c1 913c 3de0 153f
00000260: d784 4e3e fc09 54be ea68 33be 2f78 023f
00000270: 5903 b73e 4a92 703d 50b5 07bf 0544 113e
00000280: e893 083f e8ce 9a3e 883d 50bb 6b94 243e
00000290: 1ddd 17bf 0828 08bf 74dc 393f 585c 23bf
000002a0: fdc7 233f 873d fcbe 93fc a33e b238 51be
000002b0: 01db 39bf b941 123f ccb0 a1be 2f33 e03e
000002c0: e377 55be 0d50 da3e 580b 2ebf 16c9 9c3d
000002d0: 33ff 023f 4264 0c3f 9b3b f43e 981a e7be
000002e0: b4ad 05bf 5e8c 3e3e 935f aabe 7099 a0be
000002f0: e52f e43d f270 fdbe 6ccb ed3e c74d 75be
00000300: 9a96 353e 3084 a2be 2518 96be bb30 b43e
00000310: 88dc 333f 1bda 7d3e 6556 b5be 79ec b9be
00000320: 26b2 703c c425 8a3e eb23 9f3c 7808 adbe
00000330: 1276 5d3e e93d f83e 12cb 153f c2fe 123f
00000340: 5b92 203f b614 9bbe 3c62 cdbe 6935 843d
00000350: 642f 01bf 6b45 3b3e 1aa6 d13e 4f18 d0be
00000360: 2306 5d3e edce 13bf 630f 253f f874 d23e
00000370: 7a59 113f a863 eb3e 215a 12bf 7f82 583e
00000380: 3363 e6be 8fc3 d03e 509f c23e 72e9 e7be
00000390: 0713 943e 4a07 a0be 6cfc 093e cefe 0c3f
000003a0: 1b9d 883e a23e 6dbe a138 a9be 815b eb3e
000003b0: 8bb3 06bf a96c 903e 35b1 ebbb 8bef 0bbf
000003c0: e03f ba3e 89d8 b5be 7ea1 ddbd 7f91 12bf
000003d0: 332b 9fbd 1dc6 1cbf e78d dfbe 3242 84be
000003e0: eb8d 1a3f 517b 14bf 5b4e 163e e1e3 efbd
000003f0: 2f98 47bf e877 793e d382 42bf 94cf 503e

bias f4 [256]
-0.7118374 0.06722046 0.15139791 0.83005756 0.44516945 0.32504392 0.6641217 -0.4285315
-0.8190929 0.3045888 -0.29413944 -0.68164825 0.2026848 0.60772765 0.8138369 0.5634955
0.08004541 0.3317304 0.29426104 0.7092812 -0.4162598 0.6705674 -0.72199446 -0.0052956743
0.5439406 0.84446466 -0.5239025 0.48574874 -0.18189007 -0.2541472 -0.119817615 0.63710284
-0.3754913 -0.283542 0.1017316 0.17281902 -0.664449 -0.81047654 -0.4749296 0.18693092
0.34333333 0.5147039 0.65235883 0.8046569 0.24760395 -0.21781076 -0.21574107 0.6359303
0.2367497 -0.38273782 0.5023118 0.0013272932 0.43179646 -0.50287634 0.14764264 0.88982785
0.86934936 -0.5168204 0.17285118 -0.9222117 -0.20091812 -0.46004534 0.770435 -0.1561036
-0.45751256 -0.23858364 -0.5490318 -0.23621973 0.33690524 -0.87914276 0.17972073 0.47279924
0.59639394 0.43910578 0.25134787 -0.533983 0.16386218 -0.59555787 -0.033177577 -0.09175102
-0.5614296 -0.5958798 -0.034088675 -0.14679787 0.40033802 -0.4564133 -0.8971407 0.21652195
0.42708117 0.0018273601 0.8113279 -0.16215797 -0.7510346 0.022679044 -0.3265924 0.547281
-0.12040574 0.22048792 0.20558462 0.022584783 -0.1194166 -0.6368859 0.52475786 -0.36416808
0.7355462 -0.21887511 0.10090605 0.030866541 0.020869307 0.09968358 -0.5175699 0.3965755
-0.11454168 0.69881064 0.17239009 0.27971175 -0.04746251 0.22477978 0.20963676 -0.5121385
0.057373483 -0.15791763 -0.87333363 -0.1761827 -0.27531904 -0.60136867 0.17962985 -0.6626768
0.2717144 -0.43398255 -0.19579914 -0.4580785 0.63989204 -0.7245817 0.83982724 0.2792662
0.64229894 -0.010708413 0.4251761 0.33334804 0.098710634 0.26763877 -0.30463845 0.9621348
-0.74713516 0.14553252 0.6036175 0.07279049 -0.023555454 0.59698224 0.39022258 -0.5145909
-0.04668126 -0.45111635 -0.034503665 0.52364784 -0.23506862 -0.116190694 0.58222884 0.53009504
-0.22380902 -0.61074555 -0.01320068 0.15970378 0.6177664 0.58436525 -0.23669364 0.4405232
0.15899508 -1.0541433 1.0124185 0.070930734 0.53174084 0.67948514 -0.70313877 -0.14586036
0.50670856 -0.12811586 -0.5382418 0.4280496 -0.065227814 -0.32948285 -0.45350224 0.809901
-0.15963674 0.5835647 -0.7776132 -0.37436622 -0.23731318 -0.61489123 -0.7094828 0.053476013
-0.053681996 0.565843 -0.34898245 -0.004381444 0.6466085 0.92917365 -0.35646352 0.5237594
-0.9486829 0.6244227 0.3942026 -0.3134172 0.03263397 0.6153485 -0.6716488 0.18744144
-0.58276176 0.9548359 -0.19702306 -0.27685648 0.2067347 -0.65019184 -0.85260147 -0.17423244
0.5037487 0.7087482 0.11975306 0.44145378 -0.41453743 -0.31889245 0.5734294 -0.23122232
-0.6435418 -0.14623933 0.15798111 -0.7065979 0.45253402 0.05358173 0.5760176 -0.24104974
0.77703774 0.52893084 -0.21970084 0.73495644 -0.19297786 -0.25245604 -0.39329433 0.11750056
0.3905208 -0.41431382 0.831735 0.2999063 -0.24393794 0.5233655 -0.102928214 -0.87958485
-0.2028149 -0.5503695 -0.3747278 -0.41687337 -0.41465056 0.62613076 -0.41740817 -0.47558734
00000000: fa3a 36bf e1aa 893d 0e08 1b3e a77e 543f
00000010: 40ed e33e 286c a63e e103 2a3f 7b68 dbbe
00000020: 13b0 51bf 10f3 9b3e 7299 96be 8080 2ebf
00000030: 9b8c 4f3e 0a94 1b3f 9d57 503f 3e41 103f
00000040: d9ee a33d 91d8 a93e 62a9 963e 7493 353f
00000050: 0120 d5be 4eaa 2b3f a1d4 38bf 5687 adbb
00000060: b13f 0b3f d62e 583f 791e 06bf 0fb4 f83e
00000070: 6441 3abe 951f 82be f062 f5bd 2c19 233f
00000080: 6540 c0be 6b2c 91be a858 d03d 78f7 303e
00000090: 5419 2abf 647b 4fbf f929 f3be d26a 3f3e
000000a0: 63c9 af3e a3c3 033f fd00 273f fffd 4d3f
000000b0: e48b 7d3e c909 5fbe 3aeb 5cbe 54cc 223f
000000c0: 836e 723e 36f6 c3be 8297 003f 92f8 ad3a
000000d0: 6d14 dd3e 81bc 00bf a22f 173e c2cb 633f
000000e0: ae8d 5e3f 574e 04bf e6ff 303e 1116 6cbf
000000f0: 7bbd 4dbe 108b ebbe 3a3b 453f 9fd9 1fbe
00000100: 163f eabe 454f 74be 598d 0cbf 96e3 71be
00000110: d87e ac3e 800f 61bf b608 383e be12 f23e
00000120: 46ad 183f 79d2 e03e abb0 803e 1cb3 08bf
00000130: 7dcb 273e 7b76 18bf 36e5 07bd f5e7 bbbd
00000140: dab9 0fbf 948b 18bf 91a0 0bbd 2e52 16be
00000150: 1bf9 cc3e 01af e9be 03ab 65bf eeb7 5d3e
00000160: 62aa da3e 0884 ef3a 2fb3 4f3f bd0c 26be
00000170: ce43 40bf 67c9 b93c 1e37 a7be 9c1a 0c3f
00000180: 4997 f6bd 96c7 613e c684 523e b903 b93c
00000190: b190 f4bd f40a 23bf 8856 063f 3d74 babe
000001a0: c14c 3c3f cc20 60be d5a7 ce3d d4db fc3c
000001b0: 1cf6 aa3c e826 cc3d 767f 04bf f20b cb3e
000001c0: d494 eabd 41e5 323f 0787 303e 6136 8f3e
000001d0: 0d68 42bd ac2c 663e 05ab 563e 821b 03bf
000001e0: 7500 6b3d 29b5 21be cb92 5fbf 3d69 34be
000001f0: 9ef6 8cbe 4cf3 19bf e3f0 373e 30a5 29bf
00000200: 261e 8b3e f632 debe 927f 48be 4489 eabe
00000210: f7cf 233f 307e 39bf ebfe 563f fbfb 8e3e
00000220: b46d 243f 5772 2fbc afb0 d93e 98ac aa3e
00000230: cd28 ca3d f307 893e 92f9 9bbe 774e 763f
00000240: 4044 3fbf 7a06 153e ad86 1a3f 2e13 953d
00000250: 5ef7 c0bc d4d3 183f 41cb c73e 3bbc 03bf
00000260: d934 3fbd b9f8 e6be b753 0dbd c90d 063f
00000270: d4b5 70be 63f5 edbd f30c 153f 4fb4 073f
00000280: 312e 65be d259 1cbf aa47 58bc 6389 233e
00000290: f025 1e3f f698 153f d15f 72be 428c e13e
000002a0: 9bcf 223e 2bee 86bf ee96 813f 2244 913d
000002b0: 2b20 083f bdf2 2d3f e700 34bf 6b5c 15be
000002c0: a7b7 013f ce30 03be 37ca 09bf 5129 db3e
000002d0: 2996 85bd fab1 a8be 7231 e8be ac55 4f3f
000002e0: d077 23be 7f64 153f a911 47bf eeac bfbe
000002f0: 3a02 73be 8369 1dbf aaa0 35bf aa09 5b3d
00000300: a7e1 5bbd 16db 103f d4ad b2be 3792 8fbb
00000310: 2288 253f 53de 6d3f 6382 b6be 1915 063f
00000320: e2dc 72bf 2bda 1f3f ecd4 c93e 3878 a0be
00000330: 33ab 053d 7b87 1d3f 2df1 2bbf a6f0 3f3e
00000340: e02f 15bf 2070 743f 6ac0 49be 22c0 8dbe
00000350: 43b2 533e f972 26bf 1744 5abf fd69 32be
00000360: adf5 003f 8670 353f 1841 f53d 3b06 e23e
00000370: 403e d4be df45 a3be 45cc 123f 8bc5 6cbe
00000380: 28bf 24bf c3bf 15be cdc5 213e 9ae3 34bf
00000390: 8ab2 e73e 8478 5b3d e475 133f bed5 76be
000003a0: f2eb 463f 0368 073f 42f9 60be 1b26 3c3f
000003b0: fd9b 45be eb41 81be e05d c9be 22a4 f03d
000003c0: 58f2 c73e f120 d4be 96ec 543f 528d 993e
000003d0: deca 79be 48fb 053f 07cc d2bd 792c 61bf
000003e0: b6ae 4fbe 04e5 0cbf 52dc bfbe 6d70 d5be
000003f0: 144d d4be 1b4a 203f 86b6 d5be 2f80 f3be

weight f4 [64, 256]
-0.0106425425 0.049200922 0.06676194 0.083935924 0.12654307 -0.048859585 -0.0148633495 0.032571092
-0.052014433 0.050044265 0.028918065 0.03951692 0.007303919 0.028697366 0.022318002 0.07426421
0.06778461 0.043161653 0.035320036 0.024367096 -0.04249581 0.021250052 -0.013248619 -0.044364966
0.08010399 0.11225441 -0.014132338 0.090805694 -0.0056472686 0.02298852 0.026729854 0.029049909
-0.019837255 -0.019343926 0.11808065 0.13003719 -0.019016573 -0.05789397 -0.026710942 0.027278991
0.029078934 -0.094323635 0.11318949 0.039408732 0.083900444 0.11728571 -0.030123034 0.08658872
-0.03105346 -0.0047782487 0.094151676 -0.016978126 0.08241624 0.063791975 0.08761814 0.082019344
0.049633794 -0.022918498 0.046181742 -0.010542216 -0.012936037 0.058579102 0.03491895 -0.11520573
-0.016311185 0.029768655 0.030607792 0.023451755 0.08550552 -0.024554482 0.113848515 0.1032158
0.0911919 0.036167603 0.014588543 -0.038117304 0.108712405 0.011675896 0.039009444 -0.027482947
0.0041029444 -0.06508446 -0.008374409 0.013139909 0.09991864 0.032463 -0.037173472 -0.07560585
0.00794269 -0.07178509 0.047339633 0.06780707 -0.0074181026 -0.014304076 0.03518799 0.1420527
0.08107002 -0.010154773 0.05909305 0.06259321 -0.031695616 -0.035993528 -0.018898921 0.05768722
0.06813275 -0.11407448 -0.07022802 0.058683693 -0.001865041 0.0039146277 0.07895686 -0.057166044
-0.059319105 0.14449498 0.024564525 0.028903127 0.10014247 0.011382103 -0.08261932 0.039767113
0.10024495 0.0074668117 -0.04419748 0.038938977 0.08410867 -0.099257514 -0.109617785 -0.110062465
0.096302435 -0.0035683657 0.06071096 -0.0512533 0.020243647 -0.056549724 0.1233917 -0.096936926
0.064163916 0.033060063 -0.05097471 0.028184237 -0.00034834433 -0.048778784 -0.038249005 0.08275204
-0.07995115 -0.047104258 0.020446103 0.033070795 -0.03297374 0.07420938 0.08535733 -0.02865883
0.016560737 -0.022089299 0.061546102 0.14120778 0.022003263 0.019808413 0.11367309 0.027218137
0.10183737 -0.0056908634 0.109611906 0.0250302 -0.054473035 -0.05509858 0.0018343471 0.063337706
0.05396855 -0.062663905 0.06542178 0.007125936 -0.03765211 0.04444411 -0.03198281 0.018842304
0.05917805 0.032581788 0.035165813 0.04333745 -0.028171482 -0.010952787 -0.04003819 0.15222965
-0.034766454 0.063513055 -0.087641 -0.012590148 0.05077308 -0.03639489 0.066788174 0.029561946
0.065909535 0.113831684 -0.12352188 0.061678022 0.14629167 0.1305767 0.048583854 0.033222716
-0.00072258787 0.045350756 0.050048675 0.026751282 0.12656605 0.10977381 -0.060669694 0.0033769673
0.040174663 0.081952795 0.032753184 -0.09071834 0.122785375 -0.018722326 -0.09857137 -0.07276519
0.008906884 0.04259953 -0.053682264 0.030610178 -0.018688219 0.10236565 0.0039726887 0.030958146
0.011122234 -0.001210669 0.011231048 0.07762723 0.07661111 0.00977568 0.02416104 -0.0114293555
0.05161669 -0.060924243 -0.037185974 0.14163822 -0.036751147 0.011174883 -0.011935402 0.01489019
0.052899886 -0.0817534 0.031804964 0.02119622 0.0356617 0.072281875 -0.0033814278 -0.009929576
0.018723441 0.009529597 -0.0123131005 -0.009727307 0.0588833 0.10665431 0.05511094 -0.019924853
00000000: 0f5e 2ebc e886 493d 7cba 883d 99e6 ab3d
00000010: 8294 013e fd20 48bd 6885 73bc 4469 053d
00000020: 160d 55bd 37fb 4c3d 94e5 ec3c 7edc 213d
00000030: b755 ef3b bd16 eb3c 3ed4 b63c d617 983d
00000040: a8d2 8a3d 46ca 303d beab 103d 819d c73c
00000050: 1610 2ebd 9714 ae3c bc10 59bc 0ab8 35bd
00000060: 900d a43d a4e5 e53d 528b 67bc 56f8 b93d
00000070: b90c b9bb 6c52 bc3c 91f8 da3c 13fa ed3c
00000080: bd81 a2bc 2777 9ebc 45d4 f13d 7828 053e
00000090: a5c8 9bbc 3a22 6dbd e8d0 dabc 3178 df3c
000000a0: f236 ee3c c02c c1bd e4cf e73d 0d6b 213d
000000b0: ffd3 ab3d 7e33 f03d 95c4 f6bc 6d55 b13d
000000c0: d363 febc db92 9cbb 98d2 c03d b615 8bbc
000000d0: d8c9 a83d 5ea5 823d 2471 b33d c2f9 a73d
000000e0: ce4c 4b3d 93bf bbbc 1129 3d3d 42b9 2cbc
000000f0: acf1 53bc a4f0 6f3d 2c07 0f3d fbf0 ebbd
00000100: 099f 85bc 65dd f33c 31bd fa3c e51d c03c
00000110: 851d af3d 7b26 c9bc 6929 e93d ce62 d33d
00000120: d2c2 ba3d 7b24 143d c904 6f3c e420 1cbd
00000130: 9ca4 de3d 424c 3f3c 5ec8 1f3d eb23 e1bc
00000140: fe71 863b 004b 85bd d134 09bc c648 573c
00000150: 25a2 cc3d ecf7 043d 3643 18bd 3dd7 9abd
00000160: 0e22 023c 1004 93bd 34e7 413d 6fde 8a3d
00000170: 8e13 f3bb a55b 6abc 4821 103d 4376 113e
00000180: 0a08 a63d 3460 26bc 8e0b 723d de30 803d
00000190: 43d3 01bd f36d 13bd e9d1 9abc 6f49 6c3d
000001a0: 2f89 8b3d e29f e9bd b5d3 8fbd 505e 703d
000001b0: 6474 f4ba 4746 803b 22b4 a13d f126 6abd
000001c0: 97f8 72bd 7ef6 133e 8b3b c93c 40c6 ec3c
000001d0: 7f17 cd3d 007c 3a3c 5134 a9bd d7e2 223d
000001e0: 394d cd3d 28ac f43b 6b08 35bd 7a7e 1f3d
000001f0: 2b41 ac3d 8647 cbbd 4a7f e0bd 6e68 e1bd
00000200: 363a c53d 3edb 69bb 0eac 783d fbee 51bd
00000210: 01d6 a53c afa0 67bd cab4 fc3d de86 c6bd
00000220: 5f68 833d fd69 073d dcca 50bd a1e2 e63c
00000230: fca1 b6b9 43cc 47bd fdaa 1cbd e779 a93d
00000240: 6ebd a3bd 65f0 40bd 967e a73c 3e75 073d
00000250: 790f 07bd 16fb 973d d3cf ae3d ecc5 eabc
00000260: 62aa 873c 9ef4 b4bc c417 7c3d c698 103e
00000270: 3040 b43c 4145 a23c 70cd e83d 92f8 de3c
00000280: 1c90 d03d 6c7a babb 357c e03d 220c cd3c
00000290: 1e1f 5fbd 0caf 61bd 7a6e f03a 33b7 813d
000002a0: 200e 5d3d ef55 80bd dbfb 853d af80 e93b
000002b0: 1939 1abd 070b 363d 6800 03bd 2d5b 9a3c
000002c0: af64 723d 7b74 053d 070a 103d 9c82 313d
000002d0: e1c7 e6bc 5173 33bc 16ff 23bd 17e2 1b3e
000002e0: 4567 0ebd 2213 823d 207d b3bd e846 4ebc
000002f0: 6ff7 4f3d cf12 15bd 3dc8 883d e52b f23c
00000300: 94fb 863d 9620 e93d 0af9 fcbd 18a2 7c3d
00000310: 7ccd 153e e6b5 053e ddff 463d 8b14 083d
00000320: 0d6c 3dba b7c1 393d d7ff 4c3d 8125 db3c
00000330: 889a 013e 17d1 e03d c980 78bd 1c50 5d3b
00000340: 308e 243d ded6 a73d 3428 063d 89ca b9bd
00000350: e676 fb3d 905f 99bc c9df c9bd ea05 95bd
00000360: 2eee 113c d87c 2e3d efe1 5bbd 32c2 fa3c
00000370: 0918 99bc 15a5 d13d 542d 823b f09b fd3c
00000380: 083a 363c 50af 9eba 6e02 383c 06fb 9e3d
00000390: 49e6 9c3d 2c2a 203c 60ed c53c 3142 3bbc
000003a0: 066c 533d b38b 79bd 5250 18bd 9c09 113e
000003b0: 5f88 16bd db16 373c b48c 43bc fcf5 733c
000003c0: 8dad 583d 546e a7bd ec45 023d b2a3 ad3c
000003d0: 0112 123d 8508 943d f29a 5dbb a9af 22bc
000003e0: e761 993c 0722 1c3c e3bc 49bc 485f 1fbc
000003f0: 9d2f 713d 936d da3d 02bc 613d 7239 a3bc

bias f4 [64]
0.14155404 -0.004060931 -0.26820695 0.12379225 0.11266438 0.14445755 0.11183509 0.20339954
-0.0024719604 -0.0014680722 -0.03522301 -0.078686096 0.114817426 0.10922899 0.030025335 -2.657225e-11
0.111829355 -0.30023593 0.30745336 -0.00823564 0.0013071531 -0.22600877 0.07069846 -0.00051799073
0.140003 0.09655789 -0.037397794 -0.13504674 0.07505099 0.020328963 0.16361439 0.15554057
-0.056719933 0.038999237 0.15969773 0.22617178 0.15947239 -0.011685919 -0.24999787 0.019788345
0.0047732694 0.12912661 0.12284649 0.042555325 0.020273374 0.04625506 0.25084484 -7.976405e-06
-9.017624e-07 0.013597801 -0.0038020678 0.00040474598 0.18390176 0.0289384 -0.041350357 0.06447898
0.33611166 0.04946451 -0.02817009 -0.020412752 0.1497317 -0.056655686 0.22022481 0.28732684
00000000: 8bf3 103e 8f11 85bb 6c52 89be cb86 fd3d
00000010: 95bc e63d aeec 133e cc09 e53d f847 503e
00000020: 9d00 22bb 546c c0ba 0146 10bd 2d26 a1bd
00000030: 6625 eb3d 73b3 df3d b1f7 f53c 63bb e9ad
00000040: ca06 e53d 86b8 99be 876a 9d3e c7ee 06bc
00000050: c854 ab3a d86e 67be 5bca 903d c5c9 07ba
00000060: f25c 0f3e 25c0 c53d 6e2e 19bd b149 0abe
00000070: 55b4 993d ed88 a63c 888a 273e 0746 1f3e
00000080: 2953 68bd aabd 1f3d cd87 233e 9399 673e
00000090: bb4c 233e 4c76 3fbc 71ff 7fbe 2b1b a23c
000000a0: 1669 9c3b c439 043e f196 fb3d 7e4e 2e3d
000000b0: 5914 a63c f275 3d3d bc6e 803e 66d2 05b7
000000c0: a410 72b5 50c9 5e3c 1d2c 79bb 1634 d439
000000d0: be50 3c3e 3910 ed3c fe5e 29bd 8e0d 843d
000000e0: d416 ac3e 4c9b 4a3d f6c4 e6bc a538 a7bc
000000f0: 4453 193e cb0f 68bd 9d82 613e 811c 933e

weight f4 [32, 64]
-0.27886724 -0.004615866 0.10216998 0.152903 -0.13004135 -0.09612599 -0.15294297 0.018775288
0.040604252 -0.002842717 -0.003352956 0.0051675527 0.011071753 0.14424574 -0.11188548 -2.0464823e-11
-0.15884167 -0.057825767 -0.047207426 -0.020870183 1.164826e-05 -0.08296907 -0.008651062 -1.0627523e-12
-0.19361567 0.08383728 0.087066665 0.019123219 0.17017154 -0.33481377 -0.08307967 -0.24665146
-0.035047274 0.083858535 0.058871396 0.09832683 -0.15804301 -0.080162175 -0.11478914 0.08659651
0.09651735 -0.19558015 -0.25962904 0.09210543 0.047918 0.15510459 0.04738304 0.0156358
0.00034229425 0.1020295 0.09344017 -4.3647853e-11 -0.16078033 -0.14087006 0.003010526 -0.0058656936
0.14708826 -0.19363181 0.03195004 0.033931587 -0.16623032 -0.036535345 -0.02645018 0.07040404
0.07036596 -5.4277763e-14 -0.0056157517 -0.014254732 0.12952647 0.025933998 0.0013933969 -0.10031871
-0.014734283 -0.007266418 0.0014970709 0.092778414 -0.056973357 -0.08333931 0.20954452 -3.1267116e-12
0.104726896 -0.019521246 0.024514018 -0.015540454 1.5482103e-11 0.029161155 -0.00038031512 -9.849188e-12
0.027759114 -0.13165662 -0.033040576 0.09325974 -0.0097863665 0.16963543 -0.12101158 0.09876716
-0.0704914 0.054839958 0.02054767 0.04117668 0.03163222 -0.0076337694 0.22553727 -0.011539021
-0.0016946591 0.12829906 0.033085715 -0.11585581 -0.005351698 0.10536044 0.14679608 -6.81174e-05
-1.1542817e-10 0.017394483 -2.9311974e-12 5.1628177e-11 -0.18465753 0.00768325 -0.009784262 -0.01620343
0.07324625 0.14625289 0.0103538055 0.024589567 0.0640488 -0.023514459 0.002041102 -0.08383075
-0.063196495 -5.2890677e-08 -0.027624777 -0.060313895 -0.05464331 -0.2818095 -0.14630549 0.07044392
-0.028544838 0.00014039259 0.039237205 0.09228755 -0.0127764465 0.112254135 -0.13804394 5.014923e-12
-0.11430348 -0.1199908 0.10023515 -0.018505359 2.7218452e-09 0.05671963 -0.2804769 1.1118378e-10
-0.059810575 0.11022947 0.054019243 0.14540042 0.16092382 -0.2918237 -0.16226284 -0.38989547
0.028392008 0.09439532 -0.15646797 0.08258457 -0.14619921 -0.12037502 -0.08516615 0.12047018
0.007385948 -0.17979208 -0.22498052 0.021662323 0.02758921 0.09458941 0.07237547 0.03140362
-1.3037544e-12 0.043861777 -0.035398707 -0.063565135 -0.18284902 0.073796764 0.029910635 0.100899175
-0.06954821 -0.018164024 0.050931126 -0.029188786 -0.1164156 0.031587128 -0.10594524 -0.055428684
-0.015670244 -0.038806427 -0.08599455 0.003554591 0.09699036 0.030784396 0.008227887 0.11555975
-0.0038070455 0.017710218 -0.06241355 0.03304789 -0.038336758 0.011153156 -0.08553839 1.2397453e-12
0.09395534 -0.1888038 -0.03374348 -0.021002386 1.1821642e-11 -0.20607167 -0.033322 1.4767316e-11
0.084956326 0.118359245 -0.11136203 -0.14416608 0.0026570638 0.124558076 -0.003090512 0.14923829
0.07811646 -0.13442065 -0.05403701 -0.1117496 0.10985656 -0.03273992 -0.04716442 0.011999809
-0.04641555 0.041224312 -0.047225934 -0.07462902 0.09009558 -0.008542024 0.022077367 -0.004068663
-0.00083916326 -0.05611529 -0.0036967008 -0.0032541044 0.07331182 -0.04844685 -0.007200052 -0.07002494
0.14326197 -0.100481115 0.07618074 0.04018875 0.14239638 -0.078879245 0.00581117 -0.039535865
00000000: b0c7 8ebe b140 97bb 7f3e d13d 9b92 1c3e
00000010: 8f29 05be b4dd c4bd 159d 1cbe a2ce 993c
00000020: a550 263d e14c 3abb 44bd 5bbb 9354 a93b
00000030: 4c66 353c 28b5 133e 3724 e5bd af02 b4ad
00000040: 64a7 22be b6da 6cbd 935c 41bd f2f7 aabc
00000050: e56c 4337 b0eb a9bd 2fbd 0dbc b091 95ab
00000060: 3043 46be e1b2 ab3d 0250 b23d 4ca8 9c3c
00000070: 7341 2e3e b66c abbe ad25 aabd 3392 7cbe
00000080: bb8d 0fbd 06be ab3d 2223 713d 945f c93d
00000090: 07d6 21be 112c a4bd 9216 ebbd 8359 b13d
000000a0: e3aa c53d 2a46 48be 19ee 84be c6a1 bc3d
000000b0: aa45 443d bdd3 1e3e b814 423d a616 803c
000000c0: f575 b339 d8f4 d03d 8f5d bf3d 1df7 3fae
000000d0: 99a3 24be 3e40 10be 3f4c 453b 0135 c0bb
000000e0: 4e9e 163e 6b47 46be 0cde 023d d9fb 0a3d
000000f0: 4838 2abe 16a6 15bd 0cae d8bc fe2f 903d
00000100: 071c 903d 0072 74a9 5704 b8bb ae8c 69bc
00000110: 96a2 043e 8973 d43c a4a2 b63a e573 cdbd
00000120: 1068 71bc 221b eebb 5d39 c43a 9c02 be3d
00000130: e55c 69bd cdad aabd d792 563e d405 5cac
00000140: 0e7b d63d 05eb 9fbc 9fd1 c83c 639d 7ebc
00000150: 992e 882d 60e3 ee3c 0865 c7b9 cd44 2dad
00000160: 1567 e33c fed0 06be 8e55 07bd f6fe be3d
00000170: ff56 20bc e9b4 2d3e ebd4 f7bd 7046 ca3d
00000180: cc5d 90bd dd9f 603d 9653 a83c e1a8 283d
00000190: c990 013d b324 fabb 3ef3 663e 290e 3dbc
000001a0: 531f deba d460 033e e384 073d d045 edbd
000001b0: 4c5d afbb 37c7 d73d b651 163e 40da 8eb8
000001c0: 48d4 fdae e07e 8e3c c243 4eac 2910 632e
000001d0: dd16 3dbe c6c3 fb3b 2b4e 20bc 0ebd 84bc
000001e0: 2102 963d 51c3 153e 02a3 293c 0f70 c93c
000001f0: 042c 833d 65a1 c0bc 02c4 053b 75af abbd
00000200: 2a6d 81bd ea29 63b3 5b4d e2bc b40b 77bd
00000210: aad1 5fbd 5649 90be 1bd1 15be e744 903d
00000220: ddd6 e9bc 5936 1339 31b7 203d 4101 bd3d
00000230: 4d54 51bc 7fe5 e53d 645b 0dbe 6972 b02c
00000240: f117 eabd bdbd f5bd 1648 cd3d 8d98 97bc
00000250: 350b 3b31 d852 683d ab9a 8fbe e77e f42e
00000260: effb 74bd fdbf e13d 4843 5d3d d9e3 143e
00000270: 37c9 243e ea69 95be 3b28 26be 61a0 c7be
00000280: 5b96 e83c 5552 c13d 2439 20be 1922 a93d
00000290: 3fb5 15be 2e87 f6bd 976b aebd 12b9 f63d
000002a0: d305 f23b 6a1b 38be 4b61 66be 2f75 b13c
000002b0: c402 e23c 18b8 c13d 9739 943d 15a1 003d
000002c0: b47c b7ab 68a8 333d 3cfe 10bd 702e 82bd
000002d0: c63c 3bbe c222 973d 2607 f53c 3aa4 ce3d
000002e0: 4b6f 8ebd b8cc 94bc 289d 503d 521d efbc
000002f0: 4d6b eebd 8161 013d d1f9 d8bd 3009 63bd
00000300: e25e 80bc 7df3 1ebd e91d b0bd 24f4 683b
00000310: e2a2 c63d 8f2f fc3c 42ce 063c 97aa ec3d
00000320: a07f 79bb 0515 913c 5aa5 7fbd 395d 073d
00000330: 0107 1dbd babb 363c c02e afbd 887a ae2b
00000340: a86b c03d c955 41be 9a36 0abd 320d acbc
00000350: f1f7 4f2d 7404 53be a67c 08bd 0ae5 812d
00000360: 95fd ad3d 5566 f23d c711 e4bd 46a0 13be
00000370: 2222 2e3b 4e18 ff3d 308a 4abb ecd1 183e
00000380: 86fb 9f3d 91a5 09be e955 5dbd f9dc e4bd
00000390: 7afc e03d 4b1a 06bd 7b2f 41bd d99a 443c
000003a0: 3b1e 3ebd d3da 283d fb6f 41bd 1ad7 98bd
000003b0: 0884 b83d d8f3 0bbc 98db b43c 6b52 85bb
000003c0: 4bfb 5bba 25d9 65bd 5944 72bb d042 55bb
000003d0: 8224 963d 3470 46bd 6aee ebbb 3c69 8fbd
000003e0: 44b3 123e 0bc9 cdbd a604 9c3d f59c 243d
000003f0: 5bd0 113e 718b a1bd a16b be3b 5cf0 21bd

bias f4 [32]
0.28659353 -0.079044074 0.040885415 0.3255754 0.040969025 -0.004183658 0.06931432 -0.15525517
0.2553693 -0.1946218 0.20056918 0.13293043 -0.0003684389 0.10490025 0.2140738 0.077444315
0.21528551 -0.05494296 0.18838306 0.058252715 -0.20850486 0.029361963 0.22679122 -0.046018757
-0.055407733 0.29894933 0.1203188 0.18437582 0.20637518 -0.051571827 -0.16699797 -0.23207644
00000000: 63bc 923e dce1 a1bd 7777 273d d2b1 a63e
00000010: 23cf 273d 1117 89bb abf4 8d3d 36fb 1ebe
00000020: c4bf 823e f04a 47be 0262 4d3e ea1e 083e
00000030: 082b c1b9 f1d5 d63d 2a36 5b3e 209b 9e3d
00000040: ce73 5c3e df0b 61bd 7de7 403e 669a 6e3d
00000050: 4c82 55be 8088 f03c f53b 683e 2a7e 3cbd
00000060: 38f3 62bd e30f 993e b469 f63d 04cd 3c3e
00000070: 0454 533e fb3c 53bd 8401 2bbe 72a5 6dbe

weight f4 [8, 32]
-0.048688605 0.15001456 0.14964926 0.060674403 -0.095318995 0.027369589 0.015968319 0.02734919
0.077226095 0.16383602 0.06895431 0.0938033 -0.08321237 -0.10900431 0.018952133 -0.28993896
-0.03502684 -0.024073133 -0.18151656 -0.17347507 0.13602194 0.09364581 -0.043393083 0.095861286
0.04406704 -0.120941676 0.064452626 0.18844742 0.06550951 0.0385544 0.15131141 -0.13873878
0.051947605 0.033046816 -0.21594912 -0.17000468 -0.06777359 0.0328293 0.00289668 0.08715542
-0.2119373 0.08065073 0.09908253 -0.018037163 0.049481273 0.058385927 0.03860687 -0.027912127
0.04911245 0.032951783 0.00592269 -0.14003728 0.19134274 -0.199811 -0.19446157 -0.1341412
-0.0007469014 -0.013126808 -0.10390011 -0.056731477 -0.015531487 -0.050547052 0.058838017 -0.15181099
0.15173861 -0.025884097 -0.07458916 -0.1726472 0.07409323 0.055574328 0.1656243 0.026967559
-0.22921404 0.05494675 -0.13194713 -0.14400655 -0.07141554 0.01559331 0.17142142 -0.24049164
-0.34707808 -0.012188463 0.02100553 -0.147831 -0.17154323 -0.20003197 0.1882965 -0.028720025
-0.11051098 -0.13802893 0.21724235 -0.021687994 0.07350293 -0.074767604 -0.026245296 -0.18550202
0.12198969 -0.049544234 -0.117475 0.05030057 -0.06529709 -0.030020837 0.05908401 -0.0102177905
-0.002526702 -0.12407869 0.052610375 0.023357514 -0.13687986 -0.019263515 0.051089156 0.005993839
-0.00550326 1.0010565e-10 0.0253318 -0.006932734 -0.16860434 -0.0041651637 -0.05780023 -0.013812163
-0.027985001 5.897608e-11 -0.07932506 -0.04147292 -0.0458279 -0.08673215 -0.11131374 0.007904565
-7.345927e-12 -0.010884548 -0.15211272 -0.15937504 -0.046140376 -0.058680635 -5.4889413e-09 1.1680459e-11
-0.044704862 -0.005993447 -0.026204415 -0.011610442 -0.038081385 -0.12683898 -0.027581042 0.028809013
0.013845446 0.014554543 -0.03016818 0.01686325 0.08903199 -0.046746675 -0.049143236 1.9699208e-11
1.2256692e-09 -0.1268501 -0.033102542 -0.15263915 -0.0040531293 -1.1816763e-11 -0.1374137 -1.3763166e-12
-0.24852411 -0.22359926 -0.13056764 0.022183252 -0.007126333 1.0335742e-09 -0.181567 0.0033726736
-0.08497791 -0.22133417 0.06447636 -0.13765582 0.014902357 0.059131756 -0.05186683 0.1270642
-0.0009922272 4.8339115e-12 0.08481637 0.096343935 -0.0983114 0.010809834 0.1477352 0.001339728
-0.0002096183 0.087409176 0.062528126 0.0867377 0.02201534 0.116095774 -0.16151293 -0.050267443
0.07000879 -0.0271943 0.10634511 -0.12947947 -0.0023923267 0.036316004 0.14159578 0.029064408
-0.17991103 0.011567327 0.16392814 0.028650647 -0.22288209 -0.115915194 0.1185683 -0.15700066
-0.07679791 0.015389014 -0.21719562 -0.09227853 -0.32927427 -0.3877966 0.14701605 -0.13474756
-0.023496049 -0.34347603 0.17834476 0.17142913 0.11278849 -0.09412155 0.0451614 -0.18254766
-0.24569233 -0.03865081 -0.21554357 0.096286505 0.054770023 0.004743566 -0.29562995 -0.10446415
0.16633986 -0.15717392 0.15736079 -0.17989215 0.058776207 0.032455016 -0.31911093 0.25710246
0.18398379 -0.022026343 0.21645726 0.20923905 0.011386561 0.13513848 0.17666794 -0.019627942
0.09387841 0.14504969 0.03440122 0.14798051 0.27296117 -0.1537023 -0.16723065 -0.17922796
00000000: b46d 47bd 6b9d 193e a83d 193e b985 783d
00000010: 9b36 c3bd 3036 e03c fecf 823c 690b e03c
00000020: b728 9e3d a1c4 273e eb37 8d3d f21b c03d
00000030: 3f6b aabd a73d dfbd 8141 9b3c e172 94be
00000040: 4e78 0fbd 0535 c5bc 7adf 39be 73a3 31be
00000050: 5649 0b3e 60c9 bf3d f2bc 31bd ec52 c43d
00000060: a47f 343d 45b0 f7bd bdff 833d 5cf8 403e
00000070: da29 863d 38eb 1d3d 61f1 1a3e 8a11 0ebe
00000080: 03c7 543d 195c 073d c421 5dbe b515 2ebe
00000090: e1cc 8abd 0478 063d 3ad6 3d3b 8a7e b23d
000000a0: 1706 59be 362c a53d c8eb ca3d acc2 93bc
000000b0: e0ac 4a3d 1526 6f3d 3d22 1e3d f9a7 e4bc
000000c0: 232a 493d 73f8 063d 2013 c23b ef65 0fbe
000000d0: 5aef 433e 419b 4cbe ef20 47be 505c 09be
000000e0: b4cb 43ba d311 57bc 95c9 d4bd 445f 68bd
000000f0: c777 7ebc 6d0a 4fbd 2200 713d 5774 1bbe
00000100: 5e61 1b3e e30a d4bc 34c2 98bd 6dca 30be
00000110: 31be 973d e8a1 633d 6b99 293e 12eb dc3c
00000120: 16b7 6abe d80f 613d 261d 07be 7476 13be
00000130: 5042 92bd 157b 7f3c 1989 2f3e 7143 76be
00000140: 38b4 b1be 1eb2 47bc ca13 ac3c 0261 17be
00000150: 07a9 2fbe 2ed5 4cbe ccd0 403e 4246 ebbc
00000160: 9553 e2bd 7557 0dbe c774 5e3e 05ab b1bc
00000170: b488 963d c21f 99bd 6000 d7bc 3ef4 3dbe
00000180: bbd5 f93d e5ee 4abd bc96 f0bd f807 4e3d
00000190: 7bba 85bd 42ee f5bc 1302 723d 8568 27bc
000001a0: 0697 25bb f81c febd fa7d 573d 4258 bf3c
000001b0: 3c2a 0cbe 85ce 9dbc dd42 513d f767 c43b
000001c0: b154 b4bb 7922 dc2e a384 cf3c fd2b e3bb
000001d0: 9ea6 2cbe ed7b 88bb efbf 6cbd 694c 62bc
000001e0: cd40 e5bc 95b0 812e 2d75 a2bd 82df 29bd
000001f0: 09b6 3bbd a0a0 b1bd 75f8 e3bd 2682 013c
00000200: 1d3b 01ad 1a55 32bc 70c3 1bbe 3633 23be
00000210: b1fd 3cbd 1b5b 70bd 3d99 bcb1 1c7c 4d2d
00000220: 721c 37bd ad64 c4bb a4aa d6bc b939 3ebc
00000230: 3afb 1bbd 14e2 01be a3f1 e1bc e100 ec3c
00000240: 02d8 623c 2e76 6e3c 4223 f7bc cc24 8a3c
00000250: 6756 b63d 7179 3fbd 6b4a 49bd ac46 ad2d
00000260: 6774 a830 fee4 01be 8896 07bd 704d 1cbe
00000270: 1dd0 84bb f8e1 4fad 2db6 0cbe 08b3 c1ab
00000280: 1b7d 7ebe 34f7 64be 86b3 05be a7b9 b53c
00000290: 0484 e9bb a90d 8e30 b3ec 39be 1308 5d3b
000002a0: e608 aebd 6da5 62be 2f0c 843d a6f5 0cbe
000002b0: 0429 743c 2434 723d 5072 54bd 1e1d 023e
000002c0: 9f0d 82ba 0114 aa2c 34b4 ad3d f84f c53d
000002d0: 7d57 c9bd bb1b 313c e547 173e d099 af3a
000002e0: fccc 5bb9 9503 b33d bf0e 803d 89a3 b13d
000002f0: 8459 b43c 9fc3 ed3d a563 25be 3ce5 4dbd
00000300: c560 8f3d 95c6 debc 77cb d93d 4496 04be
00000310: 95c8 1cbb 17c0 143d 7cfe 103e 7b18 ee3c
00000320: 993a 38be e384 3d3c c7dc 273e c3b4 ea3c
00000330: 343b 64be f264 edbd f0d3 f23d c8c4 20be
00000340: 3948 9dbd 3422 7c3c 8768 5ebe 87fc bcbd
00000350: a396 a8be 478d c6be 608b 163e 44fb 09be
00000360: c97a c0bc 17dc afbe 02a0 363e 1e8b 2f3e
00000370: a7fd e63d cdc2 c0bd 29fb 383d c6ed 3abe
00000380: c596 7bbe 5050 1ebd 74b7 5cbe dc31 c53d
00000390: 8856 603d ea6f 9b3b cf5c 97be 4df1 d5bd
000003a0: ff54 2a3e 33f2 20be 3023 213e a635 38be
000003b0: 52bf 703d 8def 043d 8262 a3be efa2 833e
000003c0: 3f66 3c3e 9770 b4bc f9a6 5d3e c342 563e
000003d0: b38e 3a3c be61 0a3e 71e8 343e c7ca a0bc
000003e0: 5343 c03d e887 143e 4be8 0c3d 3488 173e
000003f0: 91c1 8b3e 2364 1dbe 833e 2bbe 8987 37be

bias f4 [8]
0.0225262 -0.11218452 0.29593012 0.2633741 -0.18164264 -0.05849142 0.07546376 0.26284003
00000000: de88 b83c ffc0 e5bd 2784 973e f8d8 863e
00000010: 8700 3abe b394 6fbd be8c 9a3d f892 863e

weight f4 [1, 8]
-0.1304678 0.09517742 -0.21859077 -0.22604439 -0.07831512 0.311972 -0.23787774 0.38714415
00000000: 5a99 05be 61ec c23d 42d6 5fbe 2e78 67be
00000010: ad63 a0bd cbba 9f3e 3996 73be c237 c63e

weight f4 [8, 1]
-0.92485034 0.31121445 0.3924161 -0.7469071 -0.20959723 -0.9639201 -0.69687396 0.6948163
00000000: fec2 6cbf 8057 9f3e c3ea c83e 4e35 3fbf
00000010: a8a0 56be 78c3 76bf 5566 32bf 7bdf 313f

bias f4 [8]
-0.043344524 -0.09005605 0.13050672 0.13611612 -0.030907996 0.6253035 0.14927784 -0.5015328
00000000: 078a 31bd 4e6f b8bd 8ea3 053e 0662 0b3e
00000010: c432 fdbc e413 203f 4adc 183e 7464 00bf

weight f4 [32, 8]
-0.1450199 -0.3418219 0.15356581 -0.20959115 -0.31640288 0.081533514 0.07736355 0.041465014
-2.1028956e-11 1.36623335e-08 0.0006496568 -0.00020653591 0.00027855125 -3.5949635e-12 -1.06216026e-11 -2.97961e-05
0.03872948 -0.44874027 -0.12578157 -0.15614808 -0.21269998 0.10071276 -0.011070643 -0.3085681
1.0406921e-11 0.17169002 0.24551292 -6.0938596e-06 1.44378225e-11 -0.26495752 -2.620482e-12 0.19006138
-0.3608831 -0.09806204 0.37030402 -0.40762562 -0.13201581 -0.28628224 -0.225145 0.11812709
0.09501305 0.27729538 0.35681912 0.065764345 0.33007565 0.34505123 0.16221279 0.088723086
0.1567401 -0.13222861 -0.12846272 0.18854028 -0.03195499 0.27031678 0.070642464 -2.1234287e-10
-0.017971871 0.38471052 0.0029610402 0.10792506 -0.063226916 -0.12512223 -0.028456138 0.35607538
-0.02193921 -0.047954176 -0.041576702 -0.040629115 -0.0044292854 -0.029327903 -0.046416443 -0.06024473
-0.2130389 0.088624604 -0.17342027 0.23561028 0.0074894913 0.012176993 -0.051767185 -0.28475124
0.24137834 -0.124571525 0.099119514 0.21529739 0.12099129 0.24112856 -0.102571905 -0.07750321
-0.029245768 -0.25194648 -0.1928638 -0.16193844 -0.19402789 0.37036017 -0.30249754 -0.20263557
-0.04145452 0.30813518 0.094326735 0.37062618 -0.22969349 -0.055776082 0.35107738 0.09281693
-0.14038035 0.096458755 0.12140844 -0.10259664 -0.11295321 0.006925429 -0.09653789 -0.15857524
-0.040266756 -0.1379266 0.17160827 -0.25591987 -0.27247193 -0.19472337 -0.26948908 -0.023988144
-0.3478518 0.13877401 0.36824647 -0.10460373 -0.024431739 -0.2824791 -0.10581725 -0.08423016
0.08409516 -0.24963862 -0.023514915 -0.24765186 0.2759056 0.30915534 0.36759382 0.11168367
0.28018513 5.662996e-13 -0.39918604 0.23078343 0.071578436 0.18950701 0.09482208 -0.00020599278
-0.16803741 -0.28411248 -0.59554106 0.34186062 -0.14988282 0.11324163 0.29911098 0.12832463
-0.09551281 -0.0023608285 0.01611121 -0.25829884 -0.07672387 0.13254046 -0.07134443 -0.0026756325
-0.01202051 0.1001241 -0.08400133 0.0009024708 -0.0709013 -0.09737534 0.14453556 -0.41580924
8.404179e-13 0.3449117 0.0408419 -0.02996811 -3.567487e-05 -0.48447615 -0.2452901 -0.029288128
0.17365631 -0.0362762 -0.039155584 0.1618603 0.26842612 0.11354954 0.30445793 0.1416585
-0.024753874 0.011396064 0.17604503 -0.044579227 4.746715e-13 -0.11716003 -0.24677247 0.27589473
-0.00016473175 -0.11526025 0.30725512 -0.1905384 -0.35126784 0.30091274 -0.03831714 -0.19863138
-0.08011589 -0.38362414 0.25957766 0.16825762 0.19491729 0.28583017 0.03934472 0.21766604
-0.11970353 -0.05570875 0.0085403295 0.056893837 -0.02759214 -0.030307177 0.08525629 -0.053012695
-0.06298991 -0.059542127 -0.082038544 0.042193584 -0.027002517 -0.07378816 -0.045310125 -0.05219376
0.32326427 -0.0005868316 -3.8671572e-13 0.29149812 0.29604107 -0.13099776 -0.01214933 -6.255627e-06
-0.031941544 0.020356225 0.031480145 -0.03252115 -0.01583451 -0.09146619 -0.03365918 0.010188981
0.21011469 -0.00025796876 -0.33880234 -0.017167 0.21952169 0.08526375 0.08048318 -0.00050608837
0.27254266 0.1786837 -0.31717214 0.2123038 0.15434615 0.3025516 0.35449815 -0.12164906
00000000: 1980 14be 4803 afbe 5b40 1d3e 109f 56be
00000010: 8fff a1be 0bfb a63d c870 9e3d 38d7 293d
00000020: 00f9 b8ad 94b7 6a32 bb4d 2a3a 9091 58b9
00000030: 840a 9239 1bf9 7cac 72db 3aad a3f2 f9b7
00000040: cea2 1e3d 49c1 e5be e2cc 00be 48e5 1fbe
00000050: 06ce 59be 7e42 ce3d a461 35bc a3fc 9dbe
00000060: 9b14 372d 82cf 2f3e bd67 7b3e db79 ccb6
00000070: 2cfe 7d2d 83a8 87be 6866 38ac 739f 423e
00000080: abc5 b8be c0d4 c8bd 7d98 bd3e 4eb4 d0be
00000090: 272f 07be 9693 92be 698c 66be 9eec f13d
000000a0: 3496 c23d a9f9 8d3e ffb0 b63e 75af 863d
000000b0: adff a83e 8eaa b03e 1c1b 263e 73b4 b53d
000000c0: 7a80 203e f066 07be bb8b 03be b410 413e
000000d0: 3ce3 02bd f666 8a3e ffac 903d 3479 69af
000000e0: bf39 93bc c7f8 c43e 030e 423b d007 dd3d
000000f0: 1d7d 81bd 0b20 00be d91c e9bc 834f b63e
00000100: dcb9 b3bc 996b 44bd 554c 2abd b76a 26bd
00000110: 8a23 91bb 1241 f0bc 2b1f 3ebd 2ec3 76bd
00000120: df26 5abe d180 b53d 1595 31be d243 713e
00000130: 686a f53b 0382 473c d409 54bd eaca 91be
00000140: e22b 773e 5b1f ffbd 2cff ca3d eb76 5c3e
00000150: 48ca f73d 68ea 763e 3811 d2bd 01ba 9ebd
00000160: d294 efbc 21ff 80be 177e 45be 31d3 25be
00000170: 3faf 46be d99f bd3e f5e0 9abe b37f 4fbe
00000180: 37cc 29bd e5c3 9d3e 602e c13d b7c2 bd3e
00000190: c534 6bbe 7675 64bd 6ac0 b33e cd16 be3d
000001a0: debf 0fbe 2b8c c53d fda4 f83d 301e d2bd
000001b0: 0354 e7bd b6ee e23b a8b5 c5bd 8c61 22be
000001c0: c1ee 24bd a13c 0dbe 14ba 2f3e ee07 83be
000001d0: 7181 8bbe 9065 47be 79fa 89be c982 c4bc
000001e0: a219 b2be c61a 0e3e cd8a bc3e 7b3a d6bd
000001f0: 1225 c8bc 1aa1 90be b7b6 d8bd dd80 acbd
00000200: 153a ac3d 44a1 7fbe 5aa2 c0bc 7398 7dbe
00000210: 8043 8d3e 9c49 9e3e 4235 bc3e 68ba e43d
00000220: 6d74 8f3e 3066 1f2b 1d62 ccbe 7e52 6c3e
00000230: b797 923d 200e 423e 1432 c23d c4ff 57b9
00000240: 0012 2cbe 3177 91be 6175 18bf 5b08 af3e
00000250: e27a 19be 3aeb e73d 1325 993e 8867 033e
00000260: 389c c3bd 21b8 1abb a8fb 833c bf3f 84be
00000270: 6821 9dbd b0b8 073e 071d 92bd aa59 2fbb
00000280: acf1 44bc dd0d cd3d e408 acbd ca93 6c3a
00000290: b334 91bd b96c c7bd 2101 143e f3e4 d4be
000002a0: 7e8e 6c2b 4498 b03e d649 273d af7f f5bc
000002b0: 9aa1 15b8 420d f8be 542d 7bbe a8ed efbc
000002c0: f6d2 313e 5a96 14bd 9b61 20bd b5be 253e
000002d0: 266f 893e a98c e83d e9e1 9b3e ed0e 113e
000002e0: a3c8 cabc 8fb6 3a3c 2645 343e b598 36bd
000002f0: b09b 052b 99f1 efbd ecb1 7cbe 1342 8d3e
00000300: d8bb 2cb9 910d ecbd 8b50 9d3e 801c 43be
00000310: 61d9 b3be 3c11 9a3e 6ff2 1cbd 0666 4bbe
00000320: cd13 a4bd 626a c4be 5de7 843e ba4b 2c3e
00000330: 6698 473e 5558 923e ee27 213d d9e3 5e3e
00000340: 2027 f5bd dc2e 64bd bdec 0b3c 8309 693d
00000350: e908 e2bc c246 f8bc da9a ae3d d723 59bd
00000360: db00 81bd 72e2 73bd d303 a8bd 2ed3 2c3d
00000370: 6234 ddbc 3f1e 97bd 1c97 39bd 20c9 55bd
00000380: e582 a53e 9ad5 19ba 9cb3 d9aa 3e3f 953e
00000390: b292 973e 4724 06be fc0d 47bc 6de7 d1b6
000003a0: 23d5 02bd 19c2 a63c 53f1 003d e634 05bd
000003b0: 60b7 81bc a052 bbbd 35de 09bd afef 263c
000003c0: 4e28 573e fb3f 87b9 8077 adbe cfa1 8cbc
000003d0: 4bca 603e c39e ae3d 5ed4 a43d 04ab 04ba
000003e0: b68a 8b3e dcf8 363e 6364 a2be 2b66 593e
000003f0: eb0c 1e3e 0be8 9a3e c880 b53e 2423 f9bd

bias f4 [32]
0.3583206 -0.0111505855 0.3562216 0.01789915 0.42234728 -0.17162348 -0.03693849 0.065483704
-0.02227399 0.35354608 -0.16802783 0.19915651 -0.10230157 0.38064858 0.60891986 0.28604358
0.4902641 -0.052779462 0.20423223 -0.14742288 0.27029335 0.3362089 -0.2106608 0.09971218
0.5397159 0.13518551 0.41244176 -0.017351896 -0.2635772 0.023617737 -0.0060901777 0.290656
00000000: cc75 b73e f2b0 36bc ad62 b63e 3da1 923c
00000010: e73d d83e 11be 2fbe d04c 17bd 521c 863d
00000020: f177 b6bc fe03 b53e 7d0f 2cbe afef 4b3e
00000030: 7c83 d1bd 5fe4 c23e 2ce2 1b3f 4e74 923e
00000040: e503 fb3e 472f 58bd 4122 513e 06f6 16be
00000050: e463 8a3e 9323 ac3e 77b7 57be e635 cc3d
00000060: d22a 0a3f 126e 0a3e 912b d33e 9025 8ebc
00000070: 97f3 86be fc79 c13c 1d90 c7bb ddd0 943e

weight f4 [64, 32]
0.028813867 -9.7055454e-11 0.14717622 -0.2127121 0.19714001 -0.014632973 -0.33731517 -0.051391385
0.027508637 0.11149278 -0.44390652 0.05415869 -0.17299746 0.45222506 0.26332542 -0.0022274442
0.07286982 -0.49748757 -0.39931738 0.001251309 0.39848447 0.22325121 -0.2200748 0.07179717
0.36841467 0.103989206 0.3415352 -0.014616279 -0.030940142 -0.032405365 -0.46785304 0.075667225
-1.3738672e-08 -1.889245e-11 7.063546e-08 -3.409039e-08 7.5158806e-07 -5.9324993e-08 -1.1037111e-08 7.3188126e-08
2.1891624e-11 1.0781861e-08 4.730458e-10 -2.727114e-10 -1.7167928e-08 -1.11190054e-07 -4.193119e-07 -4.110691e-08
1.8864977e-08 -7.0640773e-09 -2.0760458e-08 2.9449984e-11 5.7650436e-08 2.0305828e-08 -5.0953797e-10 1.1825008e-07
-2.2887848e-07 -1.0592506e-07 -1.1059641e-07 -4.3298826e-11 1.0390913e-12 3.2942735e-12 4.7560356e-09 -2.2062324e-11
-0.15659426 -1.3264877e-11 0.11668835 -0.20073037 0.0649892 0.2034463 0.010428105 0.054302245
-0.014594879 -0.115540564 -0.015396887 0.16117926 -0.07726417 -0.1974174 -0.09919281 -0.1035089
0.14858642 -0.021412658 0.053601786 0.0020594315 -0.0053235157 -0.14175873 0.14377762 -0.03576953
-0.04697192 0.03549581 -0.0023550424 -0.0009865593 0.15963459 0.0024737353 0.21743758 0.05259522
-0.09770126 -3.0250993e-11 -0.08716917 -6.2947898e-12 0.04576208 -0.044317264 -0.06734631 -1.9168913e-11
4.1682174e-13 -0.13290891 -0.055952653 -0.004212646 -0.054502904 4.694118e-11 0.050156213 -5.277135e-12
-0.06553941 0.04968922 -0.05438561 6.863976e-11 -2.6693e-12 -0.015741114 0.05359219 -1.4815973e-11
0.091814436 -0.14584674 0.01528935 7.473265e-12 0.05472042 9.888305e-10 -0.0037843718 0.048067093
0.24098949 9.556082e-11 0.15343665 -0.013013354 -0.19983302 -0.13678505 0.16906121 -0.013665674
-0.022029547 0.33839166 -0.076245174 0.3824192 0.006948885 -0.10063437 -0.38255417 -0.11890037
0.032320037 0.00077865284 0.0011889065 -0.03852865 0.13023414 -0.121634215 0.04368709 -0.055214345
0.008431192 0.1660488 0.20892592 0.011467384 -0.056133743 0.0014225724 0.09956406 0.11160197
0.19044417 9.3129e-10 -0.11784578 0.041641057 -0.020701297 0.021626614 -0.07751043 0.061919894
0.019359257 -0.19060816 -0.0155126825 -0.5673875 0.06575014 0.38108557 0.09117601 0.17161548
0.10610082 -0.11532609 -0.09765588 -0.022287587 -0.10679657 -0.02274306 0.1010869 0.028348219
-0.051590282 0.16010724 0.0604628 -0.02014954 -0.01082854 -0.018406868 0.07158093 -0.012981218
0.053277332 3.4626982e-11 0.18013054 0.014770774 0.0059792986 -0.11100555 0.16208588 0.05131282
-0.014550916 0.1414275 0.18140748 0.34803185 -0.13786858 -0.0037440686 -0.21683443 -0.2224766
0.16952325 0.032583054 0.16930875 -0.030444235 0.08335322 -0.259551 0.113107786 -0.2678009
-0.0056766192 -0.12531102 0.16782457 0.0111852465 0.13774748 0.06226624 -0.09244506 -0.075126834
0.023058182 -9.995852e-13 0.07656313 -0.045307647 -0.09791626 0.014368899 0.05262667 -0.062881105
-0.009917187 0.16034843 0.04370421 0.13270022 -0.020418039 0.060068835 -0.0982511 -0.096817374
0.059424054 0.055412427 0.076315165 -0.025147203 0.13583626 -0.060778648 0.050594773 -0.025354244
0.071110666 0.023183214 0.117258415 -2.7533392e-06 -0.054776557 -0.0755197 0.053754926 0.06001245
00000000: 0f0b ec3c 5d6d d5ae 5db5 163e 33d1 59be
00000010: 12df 493e 23bf 6fbc 93b4 acbe c67f 52bd
00000020: cb59 e13c 5456 e43d b747 e3be 81d5 5d3d
00000030: 3f26 31be 0b8a e73e 97d2 863e 50fa 11bb
00000040: c63c 953d b1b6 febe 5473 ccbe f602 a43a
00000050: 2806 cc3e f79b 643e 4a5b 61be 650a 933d
00000060: d9a0 bc3e 4bf8 d43d b4dd ae3e 1e79 6fbc
00000070: 2e76 fdbc 7dbb 04bd 6f8a efbe 6bf7 9a3d
00000080: 5207 6cb2 042e a6ad 41b0 9733 c86a 12b3
00000090: bdc0 4935 85cc 7eb3 ba9d 3db2 992b 9d33
000000a0: 8e8f c02d 203b 3932 a407 0230 b8ec 95af
000000b0: ac78 93b2 61c7 eeb3 ca1d e1b4 878d 30b3
000000c0: 860c a232 48b8 f2b1 bb54 b2b2 bc85 012e
000000d0: 539b 7733 fd6c ae32 8c0f 0cb0 abf0 fd33
000000e0: a3c1 75b4 eb78 e3b3 0581 edb3 256e 3eae
000000f0: 363d 922b 5bd0 672c 886a a331 f00f c2ad
00000100: 3f5a 20be b25b 69ad 4dfa ee3d 438c 4dbe
00000110: 0f19 853d 3a54 503e a4da 2a3c 086c 5e3d
00000120: 5c1f 6fbc 88a0 ecbd 3a43 7cbc 2d0c 253e
00000130: ad3c 9ebd c927 4abe 9a25 cbbd 79fc d3bd
00000140: 0a27 183e 9969 afbc 8c8d 5b3d 87f7 063b
00000150: e370 aebb 3329 11be 713a 133e 1283 12bd
00000160: a165 40bd 0e64 113d 0e57 1abb 704f 81ba
00000170: 4077 233e 641e 223b f5a7 5e3e 166e 573d
00000180: 9917 c8bd 970b 05ae c085 b2bd 6d7a ddac
00000190: 0571 3b3d 0586 35bd ddec 89bd 8e9c a8ad
000001a0: 58a6 ea2a 4619 08be 9c2e 65bd 3c0a 8abb
000001b0: 703e 5fbd 1273 4e2e 9a70 4d3d 35ac b9ac
000001c0: 8739 86bd ec86 4b3d 72c3 5ebd c0f0 962e
000001d0: d5d5 3bac 82f3 80bc 7c83 5b3d 9b52 82ad
000001e0: 3509 bc3d d958 15be 2f80 7a3c 9878 032d
000001f0: 8522 603d 61e7 8730 3903 78bb 00e2 443d
00000200: f3c5 763e f623 d22e 7f1e 1d3e f635 55bc
00000210: 07a1 4cbe 6111 0cbe 621e 2d3e fee5 5fbc
00000220: 4f77 b4bc ac41 ad3e 6e26 9cbd 73cc c33e
00000230: 79b3 e33b 6519 cebd 24de c3be 0a82 f3bd
00000240: 0462 043d 821e 4c3a 15d5 9b3a 38d0 1dbd
00000250: 195c 053e 5c1b f9bd 3cf1 323d 7028 62bd
00000260: fb22 0a3c b208 2a3e adf0 553e b2e1 3b3c
00000270: 7fec 65bd 9c75 ba3a 3ee8 cb3d 938f e43d
00000280: cc03 433e b5fd 7f30 2159 f1bd d08f 2a3d
00000290: c495 a9bc 4c2a b13c cabd 9ebd b79f 7d3d
000002a0: 4e97 9e3c c92e 43be e828 7ebc 4f40 11bf
000002b0: 02a8 863d a61d c33e 7dba ba3d f8bb 2f3e
000002c0: 634b d93d 1630 ecbd ceff c7bd 7594 b6bc
000002d0: 29b8 dabd a74f babc a606 cf3d 863a e83c
000002e0: 5550 53bd 27f3 233e d7a7 773d a610 a5bc
000002f0: 306a 31bc 00ca 96bc 0699 923d 2daf 54bc
00000300: 5539 5a3d 844a 182e 2474 383e 1e01 723c
00000310: feed c33b e156 e3bd d7f9 253e 642d 523d
00000320: f766 6ebc 5fd2 103e e2c2 393e 3b31 b23e
00000330: 6c2d 0dbe 0c5f 75bb d809 5ebe e8d0 63be
00000340: 8197 2d3e cf75 053d 465f 2d3e 3066 f9bc
00000350: 18b5 aa3d dee3 84be 0ea5 e73d 331d 89be
00000360: ef02 babb 8851 00be 34da 2b3e 5342 373c
00000370: ad0d 0d3e e30a 7f3d d653 bdbd 19dc 99bd
00000380: 83e4 bc3c daad 8cab 21cd 9c3d 8394 39bd
00000390: 5288 c8bd 886b 6b3c 108f 573d cfc7 80bd
000003a0: b27b 22bc 6132 243e 3003 333d 91e2 073e
000003b0: bb43 a7bc bd0a 763d df37 c9bd 3048 c6bd
000003c0: a366 733d 24f8 623d 204b 9c3d 8201 cebc
000003d0: a918 0b3e 08f3 78bd 773c 4f3d b4b3 cfbc
000003e0: 78a2 913d b9ea bd3c 2e25 f03d 02c6 38b6
000003f0: 625d 60bd 13aa 9abd 202e 5c3d 9dcf 753d

bias f4 [64]
0.30373526 -1.8932198e-05 -0.023159744 -0.063236035 -0.021173809 0.27482197 0.13219725 0.07131016
-0.00020741417 0.20936902 0.09544493 -0.050145723 0.033557314 0.08567625 -0.017152313 0.19115202
0.25850624 0.26877952 0.20996433 -0.067264244 0.12644887 -0.13098603 2.4673913e-10 0.29751897
-0.033002846 -0.010307358 0.31483495 -0.003377632 0.23476656 0.082992055 0.27572316 0.20771742
0.26715147 0.24552533 0.079016455 0.20143934 0.063443765 0.31658673 0.18906662 0.3110257
0.08996885 0.18986994 -0.05672537 0.0267077 0.100339256 -0.03240321 0.35663703 -0.11983341
0.08129223 0.062798664 0.00971505 0.07661745 -0.020844411 0.011471325 0.2000581 0.12906277
0.13699907 0.2405475 -0.10173203 0.045913443 0.17638636 -0.07486319 0.13687356 -0.041572355
00000000: 3083 9b3e 96d0 9eb7 81b9 bdbc e581 81bd
00000010: b274 adbc 77b5 8c3e b75e 073e 100b 923d
00000020: 517d 59b9 d564 563e a278 c33d 9a65 4dbd
00000030: 6573 093d 0877 af3d 0283 8cbc 5bbd 433e
00000040: ee5a 843e 789d 893e e400 573e d6c1 89bd
00000050: d07b 013e 3421 06be 72a5 872f 6854 983e
00000060: fe2d 07bd 31e0 28bc 0c32 a13e 435b 5dbb
00000070: a566 703e bdf7 a93d 962b 8d3e e0b3 543e
00000080: 14c8 883e fe6a 7b3e 61d3 a13d 1d46 4e3e
00000090: ceee 813d a817 a23e ae9a 413e c33e 9f3e
000000a0: 9741 b83d 446d 423e dd58 68bd 1bca da3c
000000b0: ab7e cd3d 3ab9 04bd 2199 b63e 386b f5bd
000000c0: 8a7c a63d 969c 803d e02b 1f3c 9ce9 9c3d
000000d0: e6c1 aabc 39f2 3b3c 08dc 4c3e 0829 043e
000000e0: 7c49 0c3e 1552 763e e258 d0bd bc0f 3c3d
000000f0: a09e 343e df51 99bd 9528 0c3e c647 2abd
