model/104.327605724334717.pt (torch_old, 168315 bytes, 19 tensors)

weight f4 [256, 2]
0	0xbdea31f0	-0.11435306
1	0x3e60d06f	0.21954511
2	0xbf229b61	-0.6351834
3	0xbf4f7845	-0.8104289
4	0xbe2e44a7	-0.17018376
5	0x3edb7c6b	0.4286836
6	0xbdbe00b3	-0.09277477
7	0xbdb1979d	-0.08671496
8	0xbe7f221c	-0.24915355
9	0xbf2560f4	-0.64601064
10	0x3f036b7a	0.5133587
11	0x3eecab2e	0.4622435
12	0xbed2c4ac	-0.41165674
13	0x3dc04bd5	0.09389464
14	0xbea90389	-0.3301051
15	0x3d707a1d	0.058710206
16	0x3f0b11fa	0.54324305
17	0x3f1f3941	0.6219674
18	0xbf34c767	-0.70616764
19	0xbebf1cd4	-0.37326682
20	0x3f114d26	0.56758344
21	0xbda30e0b	-0.07961663
22	0xbefded40	-0.4959507
23	0xbf1cc669	-0.6124025
24	0xbe25c182	-0.16187099
25	0x3cd07163	0.025444692
26	0x3f0adbfe	0.5424193
27	0xbe975463	-0.2955657
28	0x3eefcb5b	0.46834835
29	0xbe1c893b	-0.15286724
30	0xbe0ab146	-0.13544187
31	0xbd1562a5	-0.036471028
32	0xbf02fc8a	-0.51166594
33	0xbf0cea00	-0.55044556
34	0x3f1c609c	0.61084914
35	0xbdfcb573	-0.12339296
36	0xbf1021ff	-0.56301874
37	0x3eadb32e	0.33925766
38	0xbe056cf1	-0.13029839
39	0xbf1e7ef0	-0.6191244
40	0xbedc4c21	-0.43026832
41	0x3c4bc8e0	0.012438029
42	0xbf218382	-0.6309129
43	0xbe8a20d9	-0.26978186
44	0xbe2450da	-0.16046467
45	0x3e85dd8d	0.26145592
46	0xbf0c8728	-0.5489373
47	0xbf46b70c	-0.7762306
48	0xbe9ef3c7	-0.31045362
49	0xbf26f6af	-0.6522016
50	0x3ca59943	0.020214682
51	0x3e5e7719	0.2172512
52	0x3d4fb842	0.05071283
53	0x3f34bc62	0.7059995
54	0xbef596b5	-0.47966543
55	0x3f1835c6	0.5945705
56	0xbf13d5a2	-0.5774785
57	0xbec8565c	-0.39128387
58	0xbe77c78a	-0.24197212
59	0xbdfa21c3	-0.12213471
60	0xbf2c6b53	-0.67351264
61	0x3e927c15	0.28610292
62	0x3f25c19b	0.64748544
63	0x3ef3f79e	0.47649854
64	0xbda0c00e	-0.078491315
65	0xbf071f9d	-0.52782613
66	0x3e881fe0	0.2658682
67	0x3ecdb8f8	0.40180182
68	0xbe35f325	-0.17768534
69	0x3eb2d53f	0.3492832
70	0xbe14b121	-0.14520694
71	0xbee2c14e	-0.44288105
72	0xbe882eb1	-0.26598123
73	0xbf0a1099	-0.53931576
74	0xbdfa28af	-0.12214791
75	0xbee82897	-0.45343468
76	0x3f223e64	0.6337645
77	0x3f2160e0	0.63038445
78	0x3e0e2465	0.13881071
79	0x3f45f6df	0.7732982
80	0x3f139284	0.5764544
81	0xbc8d6228	-0.017258719
82	0xbe79c96b	-0.24393241
83	0xbf26a8fe	-0.6510161
84	0x3f2a30b8	0.6648059
85	0x3e0c8bc8	0.13725197
86	0xbe5ee572	-0.21767214
87	0xbdeb1357	-0.11478298
88	0x3e405e8e	0.1878607
89	0xbd5f1f47	-0.054473188
90	0xbdc8050d	-0.09766588
91	0xbf447454	-0.7674
92	0xbeb5197a	-0.35371
93	0x3ee31343	0.44350633
94	0xbef7f791	-0.48431066
95	0x3e2d0306	0.16895685
96	0xbf0ce7c4	-0.55041146
97	0x3f1e6340	0.61870193
98	0x3f068c43	0.5255777
99	0xbf09e969	-0.5387178
100	0xbef51ee6	-0.47875136
101	0xbf0456a8	-0.51694727
102	0x3d83c40f	0.064338796
103	0x3eff5898	0.4987228
104	0xbe094e18	-0.13408697
105	0x3f102200	0.5630188
106	0x3e43043d	0.19044586
107	0x3f436fff	0.7634277
108	0xbdb869db	-0.09004565
109	0xbf010025	-0.50390846
110	0x3e89db08	0.2692492
111	0x3ee54db6	0.4478585
112	0xbf1fd59d	-0.62435323
113	0x3ef637f0	0.48089552
114	0x3ec2fbd7	0.38082764
115	0x3f2d4014	0.676759
116	0xbf14e457	-0.5816092
117	0xbf3578e7	-0.7088761
118	0xbf26ff73	-0.65233535
119	0x3e71fb25	0.2363096
120	0x3d94bf42	0.07263042
121	0x3ce8c558	0.028414413
122	0xbe613f50	-0.21996808
123	0xbe959d47	-0.29221556
124	0x3de6b33d	0.11264656
125	0x3f3f3c37	0.74701256
126	0xbf1f0e7d	-0.6213148
127	0xbe207ba2	-0.15672162
128	0x3d877f54	0.06616083
129	0x3f3fe372	0.7495643
130	0xbeff564c	-0.49870527
131	0x3deb6003	0.11492922
132	0xbec6cfe3	-0.3883048
133	0x3f135044	0.5754435
134	0xbeb6ae0c	-0.35679662
135	0x3ebb167d	0.36540595
136	0xbdae13e0	-0.084998846
137	0xbeaa67b2	-0.33282238
138	0xbedb5af6	-0.42842835
139	0xbf3b0686	-0.7305683
140	0xbd8844e0	-0.06653762
141	0x3e490ee7	0.19634591
142	0x3deab2b4	0.11459866
143	0x3f4a1912	0.78944504
144	0x3f0b87da	0.5450417
145	0x3ee43148	0.4456885
146	0xbc9b5b3a	-0.018964399
147	0xbe9ab09f	-0.30212876
148	0xbb9a1872	-0.004702621
149	0xbf3d7df5	-0.7402032
150	0x3e2df9c8	0.16989815
151	0x3f4d6c53	0.80243415
152	0x3e8a5a45	0.27021995
153	0xbed52b9f	-0.41634843
154	0xbdb707ab	-0.089370094
155	0x3d8f0e52	0.06985153
156	0x3dbbb983	0.09166243
157	0x3e748424	0.23878533
158	0x3e47b07c	0.19500917
159	0x3f3d8679	0.74033314
160	0xbc9a95c2	-0.018870238
161	0xbec5b8bd	-0.38617507
162	0x3da16ab0	0.07881677
163	0x3f14cca1	0.5812474
164	0xbe6be52a	-0.23036638
165	0x3e8828ae	0.26593536
166	0x3dc31477	0.09525388
167	0xbe966fbf	-0.2938213
168	0xbf15626f	-0.5835332
169	0x3ebc733c	0.36806667
170	0x3df39074	0.118927866
171	0x3f43b508	0.76448107
172	0x3ef977fd	0.48724356
173	0x3ecfa16e	0.4055285
174	0xbe988acb	-0.2979339
175	0x3f33f498	0.70295095
176	0xbe2a4aa4	-0.16630036
177	0xbf4aa6d2	-0.791608
178	0xbd6cda6c	-0.05782549
179	0x3f321c10	0.6957407
180	0xbf018aee	-0.50602615
181	0x3e8da2d5	0.27663293
182	0x3e8f0054	0.27929938
183	0x3f1e3faa	0.61815894
184	0x3f2222c4	0.633343
185	0x3f0f3a1d	0.5594805
186	0xbedc7da7	-0.43064615
187	0xbf4d3381	-0.80156714
188	0xbb95b9b4	-0.0045692567
189	0xbf4f5204	-0.8098452
190	0x3dc13692	0.094342366
191	0x3f42def9	0.7612148
192	0x3f0d7f4e	0.55272377
193	0xbee1def1	-0.44115403
194	0xbdf5e340	-0.12006235
195	0x3f152b85	0.5826953
196	0x3f163a49	0.58682686
197	0xbe85c2f4	-0.261253
198	0x3e9385a8	0.2881291
199	0xbeb699d1	-0.35664228
200	0xbf2001b0	-0.62502575
201	0xbf1d0356	-0.61333215
202	0xbedb938d	-0.4288601
203	0xbdbcf96d	-0.09227262
204	0x3db22466	0.08698349
205	0xbf3c8cce	-0.7365235
206	0xbdd3c8ff	-0.10341071
207	0xbeebc10e	-0.46045727
208	0x3ea36b60	0.31917858
209	0x3e2c5963	0.16830973
210	0xbe4747d4	-0.19460994
211	0x3ed1103e	0.40832704
212	0x3eadafd2	0.33923203
213	0xbe26c834	-0.16287309
214	0xbe3e03df	-0.18556164
215	0x3e9281ca	0.28614646
216	0xbddeb747	-0.10874801
217	0xbf1487a5	-0.5801948
218	0xbdd7cdc3	-0.10537293
219	0xbf1bdac6	-0.60880697
220	0x3d6452fd	0.055743206
221	0xbe84e479	-0.2595556
222	0xbdb685f5	-0.08912269
223	0xbf217d0e	-0.63081443
224	0xbe965015	-0.29357973
225	0xbeeb1eb3	-0.4592186
226	0x3e907863	0.28216848
227	0x3f18d820	0.5970478
228	0x3e9fdd2f	0.31223437
229	0xbe6f2dee	-0.23357365
230	0x3ddb43a3	0.1070626
231	0x3e0b848a	0.13624778
232	0xbf27150a	-0.6526648
233	0x3e14a010	0.14514184
234	0xbe181d45	-0.14854915
235	0x3e8d745c	0.27627838
236	0xbf208618	-0.6270461
237	0x3f100c09	0.56268364
238	0x3ebe8f6f	0.37218806
239	0xbd58fdb1	-0.052976314
240	0x3daa7c4b	0.08324488
241	0x3f227d89	0.634728
242	0xbe17beb0	-0.14818835
243	0xbf394213	-0.72366446
244	0x3ecfea4b	0.4060844
245	0xbf01039e	-0.50396144
246	0xbe0ef695	-0.13961251
247	0xbf542896	-0.8287443
248	0x3e46006a	0.19336095
249	0xbca65e94	-0.02030877
250	0xbdd0b090	-0.101899266
251	0xbedd2175	-0.43189588
252	0xbc6b3540	-0.0143559575
253	0x3db127e2	0.08650185
254	0xbf37fe03	-0.71871966
255	0xbeb760aa	-0.35815936

bias f4 [256]
0	0x3ebeef52	0.37291962
1	0x3e819ff6	0.25317353
2	0xbe080aa3	-0.13285308
3	0x3d844359	0.06458158
4	0x3ee98ff0	0.45617628
5	0x3f24b34e	0.643361
6	0x3f611a55	0.87930804
7	0x3f013174	0.50466084
8	0xbf291636	-0.66049516
9	0x3f1f5bc5	0.62249404
10	0xbf10db69	-0.56584793
11	0x3db16fec	0.086639255
12	0x3f5b7e6e	0.8573979
13	0xbeeabd2f	-0.4584746
14	0xbea29077	-0.31750843
15	0x3f135d8d	0.5756462
16	0xbf20afa2	-0.62767994
17	0xbf00bb2d	-0.5028561
18	0x3f183aeb	0.594649
19	0xbe7feb7d	-0.24992175
20	0x3f0abcd5	0.54194385
21	0x3e6251eb	0.22101562
22	0xbe4da1d1	-0.2008126
23	0xbeaa7ab3	-0.33296737
24	0x3d848ce5	0.06472186
25	0xbe6928eb	-0.22769515
26	0xbefe9aff	-0.49727628
27	0x3f61f124	0.88258576
28	0xbf35a599	-0.70955807
29	0x3e72a2b0	0.23694873
30	0x3e9e50d3	0.3092104
31	0xbb0fb5bf	-0.0021928397
32	0x3e1d32be	0.15351388
33	0xbf26c191	-0.6513911
34	0x3f0b9838	0.5452914
35	0x3e8379db	0.25678906
36	0x3d4e63fe	0.05038833
37	0x3f0c4d46	0.5480541
38	0x3dcd8d7d	0.100367524
39	0x3ee72ae3	0.45149907
40	0xbef658be	-0.4811458
41	0x3f1d540a	0.6145636
42	0xbf2407ef	-0.64074606
43	0x3e7e32ef	0.24824117
44	0xbe6e52c4	-0.2327376
45	0x3ee73dea	0.45164424
46	0x3e95897d	0.29206458
47	0xbf31653a	-0.69295084
48	0x3ee7ef3a	0.45299703
49	0xbec66158	-0.38746142
50	0xbe31c5b2	-0.17360571
51	0x3eeaea99	0.4588211
52	0xbef31ed2	-0.47484452
53	0x3f452f2a	0.7702509
54	0x3f483cc6	0.7821773
55	0xbefcb0d9	-0.49353674
56	0xbf26833d	-0.65044004
57	0x3cc88784	0.024478681
58	0x3d1af64c	0.037832543
59	0xbf2945eb	-0.6612231
60	0x3e8fc825	0.28082386
61	0xbb02848a	-0.0019915425
62	0xbe1985f6	-0.14992508
63	0xbe9554e4	-0.2916633
64	0xbf1b2b48	-0.60612917
65	0x3cdebe75	0.027190426
66	0x3f23df77	0.64012855
67	0xbf23e59f	-0.6402225
68	0xbf059462	-0.5217954
69	0xbf34c8f2	-0.7061912
70	0x3ef54f57	0.47912094
71	0xbe17d79c	-0.14828342
72	0xbebf495d	-0.3736066
73	0x3ece2e8d	0.4026989
74	0xbda3bb9c	-0.07994768
75	0x3eb24b28	0.34822965
76	0x3ecb6666	0.3972656
77	0x3f50426a	0.8135134
78	0x3e79f9ef	0.24411748
79	0x3f3faf1d	0.74876577
80	0xbf144aab	-0.57926434
81	0xbeb06b2b	-0.34456763
82	0x3ed77c64	0.4208709
83	0xbf56b959	-0.8387657
84	0x3e79a7b7	0.24380384
85	0x3db6530c	0.08902559
86	0x3f04a074	0.5180733
87	0x3d893c28	0.06700927
88	0xbe733eab	-0.23754375
89	0xbf39eff3	-0.7263176
90	0x3f68fc8f	0.91010374
91	0xbe9950e6	-0.29944533
92	0xbed914ed	-0.42398778
93	0x3ecb97bd	0.39764205
94	0xbe93f253	-0.28895816
95	0xbe958bf0	-0.29208326
96	0x3f003015	0.5007337
97	0xbe90cc6e	-0.28280967
98	0xbea22675	-0.31669965
99	0x3f061fea	0.52392447
100	0xbaf4be8c	-0.001867251
101	0x3f2704d0	0.6524172
102	0xbe806dd8	-0.25083804
103	0xbed1d2b7	-0.40981075
104	0x3dcdedb8	0.10055107
105	0x3f1bbc57	0.6083426
106	0xbee5c00d	-0.44873086
107	0xbea6e14b	-0.3259376
108	0xbe0b9234	-0.13629991
109	0xbc17e133	-0.00927
110	0xbf222df7	-0.63351387
111	0xbf11c6ad	-0.5694378
112	0x3e636c5b	0.22209303
113	0xbe218468	-0.15773165
114	0xbf2c88be	-0.6739615
115	0xbf0f1ef5	-0.5590661
116	0xbd6ec62f	-0.05829447
117	0x3d88baf6	0.06676285
118	0x3e504cc3	0.20341782
119	0x3e886d78	0.26646018
120	0xbea5ea44	-0.32405293
121	0xbe20ea01	-0.15714265
122	0xbf515337	-0.817676
123	0x3e079c8c	0.13243312
124	0xbec071e2	-0.37586886
125	0x3efb4ffa	0.49084455
126	0xbea92965	-0.33039394
127	0xbedcf4b8	-0.43155456
128	0x3efc6106	0.49292773
129	0x3f0672b5	0.5251878
130	0x3f3b1b9f	0.7308902
131	0x3e0a8d4a	0.1353046
132	0xbf1e677e	-0.61876667
133	0xbef7cb24	-0.48397171
134	0xbedf08f0	-0.43561506
135	0x3be9f083	0.007139267
136	0xbec2cdd4	-0.3804766
137	0x3f1b13ba	0.60576975
138	0xbf06e58e	-0.5269402
139	0xbf3cce48	-0.7375226
140	0xbf3146d0	-0.69248676
141	0x3e11fb43	0.14256005
142	0x3f3a56f2	0.7278892
143	0xbec38a58	-0.38191485
144	0x3e6d211d	0.23157163
145	0xbd3072bd	-0.043078173
146	0x3ea2f780	0.31829453
147	0x3d4ba105	0.049714107
148	0x3f014e60	0.50510216
149	0x3e29e013	0.16589384
150	0xbe1accd5	-0.151172
151	0xbe0abefc	-0.13549417
152	0xbe385ef5	-0.18004973
153	0x3e93d374	0.28872263
154	0xbda1cd0b	-0.07900437
155	0x3ef53677	0.47893116
156	0x3ef75fa1	0.48315147
157	0xbe0bbfda	-0.13647404
158	0x3e040e1d	0.12896009
159	0xbe2ad8b5	-0.1668423
160	0x3c4b978b	0.012426267
161	0x3eee3ea5	0.4653217
162	0x3defa007	0.11700445
163	0x3dfbef9f	0.123015635
164	0xbd8aeeac	-0.06783804
165	0x3e8036ce	0.25041813
166	0xbee2153b	-0.44156823
167	0x3f151a42	0.5824319
168	0x3f2be784	0.6715014
169	0x3ee32d67	0.44370577
170	0xbf19cf73	-0.6008217
171	0x3f2a3d0d	0.66499406
172	0xbf325481	-0.6966019
173	0xbf055e7f	-0.52097315
174	0xbf176b48	-0.59148073
175	0xbf03663f	-0.5132789
176	0xbf05fb5c	-0.5233667
177	0xbf1df1d9	-0.61697155
178	0x3eecbc37	0.46237347
179	0x3f2396dc	0.6390207
180	0x3f0c0f34	0.547107
181	0x3eb76c71	0.35824922
182	0xbe450b1a	-0.19242516
183	0x3f40bd65	0.75288993
184	0x3ea0d476	0.31412095
185	0xbea3c8aa	-0.31989032
186	0xbedddaa9	-0.43330887
187	0x3dd8d31d	0.10587142
188	0x3e550501	0.2080269
189	0xbf3c8c34	-0.73651433
190	0xbdc29965	-0.09501914
191	0x3ed4df02	0.4157639
192	0x3f35a083	0.70948046
193	0x3f61789f	0.8807468
194	0x3e9ec2c6	0.31007975
195	0xbf27701d	-0.65405446
196	0x3e9f9206	0.31166095
197	0x3d9d0998	0.076678455
198	0xbea3ed0a	-0.32016784
199	0xbe5cca29	-0.21561493
200	0xbeb35baa	-0.35030872
201	0xbf0f2367	-0.55913395
202	0xbf107928	-0.5643487
203	0xb99a475a	-0.0002942633
204	0xbf17ac24	-0.5924704
205	0x3f0adadd	0.5424021
206	0xbf10f741	-0.5662728
207	0x3f423470	0.75861263
208	0xbc8343e9	-0.016023593
209	0x3f517680	0.8182144
210	0xbf011a21	-0.50430495
211	0xbe0d08ab	-0.13772838
212	0xbf317383	-0.6931688
213	0x3df3bfb6	0.119018
214	0xbdfb37fb	-0.12266537
215	0x3e1a21e0	0.15051985
216	0xbf3554ac	-0.70832324
217	0x3f60116b	0.8752658
218	0x3d7f202f	0.062286552
219	0x3d63300e	0.05546575
220	0xbec9e5fe	-0.39433283
221	0x3eb93f86	0.36181277
222	0x3e646ba7	0.22306691
223	0x3e5bde95	0.21471627
224	0x3daa87de	0.08326696
225	0xbef9278a	-0.48662978
226	0x3f1d8f58	0.6154685
227	0xbf41afac	-0.7565868
228	0xbefa24dc	-0.48856246
229	0xbf147fcc	-0.580075
230	0x3dee6e78	0.11642164
231	0x3f253ade	0.6454295
232	0x3e54dce6	0.20787391
233	0x3f2b0ec1	0.6681939
234	0x3ebb25f2	0.36552387
235	0xbeda3874	-0.42621195
236	0x3f630769	0.8868318
237	0x3ea57147	0.32312986
238	0xbf2dd252	-0.6789905
239	0x3d9c1c0b	0.07622536
240	0x3e74a507	0.23891078
241	0x3dbf7874	0.093491465
242	0x3f0b523e	0.54422367
243	0x3e12a3c6	0.14320287
244	0x3ee5e081	0.44897845
245	0x3d02692e	0.03183859
246	0x3eafd7be	0.34344286
247	0x3f246daa	0.64229834
248	0x3f0b50f3	0.54420394
249	0x3f0283e6	0.5098251
250	0xbe057448	-0.13032639
251	0xbe9b0d3d	-0.30283538
252	0xbefc5948	-0.49286866
253	0x3d87e323	0.0663512
254	0xbda465e4	-0.080272466
255	0x3eb32213	0.34986934

weight f4 [64, 256]
0	0x3dbc4bc8	0.091941416
1	0x3d4e0222	0.050295003
2	0x3c6cdd1f	0.014457016
3	0x3bb69563	0.0055720075
4	0xbc66713c	-0.014065083
5	0x3da03fba	0.07824655
6	0x3d30e04f	0.043182667
7	0x3ca55c06	0.020185482
8	0xbbd66f97	-0.0065440643
9	0x3d898b3c	0.0671601
10	0x3c113ae9	0.008864143
11	0x3db70e1e	0.089382395
12	0x3e18cdfa	0.14922324
13	0x3d03335a	0.032031395
14	0xbd0651b9	-0.03279278
15	0x3d84ddbd	0.06487606
16	0x3ce98d7a	0.028509844
17	0x3d68a666	0.056799315
18	0x3d861c10	0.06548321
19	0x3dc65311	0.096838124
20	0x3dbf641b	0.093452655
21	0x3c079677	0.00827562
22	0xbc922351	-0.017839106
23	0x3d44c01d	0.048034776
24	0x3d8a1fb1	0.06744326
25	0x3c8c9818	0.017162368
26	0x3c8eae22	0.017417017
27	0x3cd3ed0c	0.025869869
28	0x3dc5b0f9	0.096528955
29	0x3d9fa8d5	0.07795874
30	0x3d466ff9	0.04844663
31	0xbc3c4afb	-0.011492486
32	0x3d690672	0.056890912
33	0x3d7bf5b3	0.061513614
34	0x3d8c5ed7	0.06854027
35	0x3dad14c4	0.08451226
36	0x3dbde603	0.09272387
37	0x3c237db4	0.0099787
38	0x3d849cb7	0.064752035
39	0x3d68249d	0.056675542
40	0x3d915799	0.07096786
41	0xbb43320f	-0.0029784476
42	0xbc5eddb9	-0.0136026675
43	0x3dc11e1b	0.0942957
44	0x3c07b3a7	0.008282579
45	0x3d50c102	0.050965317
46	0x3d102392	0.035190172
47	0xbd00c317	-0.031436052
48	0x3c3ed00f	0.011646285
49	0x3baef6f6	0.0053394986
50	0x3dd281d7	0.10278671
51	0x3d951d59	0.07280988
52	0x3ce0fe4a	0.027465004
53	0x3d4df14a	0.05027894
54	0xbd3a9607	-0.045553233
55	0xbcabf9b1	-0.020993086
56	0xbd385692	-0.045004435
57	0x3dab1565	0.0835369
58	0x3d94b5e8	0.07261258
59	0xbd40371f	-0.046927568
60	0xbbd38355	-0.006454865
61	0x3d1f4c93	0.038891386
62	0x3d9bf134	0.07614365
63	0x3ce6b97a	0.028164614
64	0xbc2bf415	-0.010495205
65	0x3ce71990	0.028210431
66	0x3dd5a490	0.104317784
67	0xbb129cec	-0.0022371365
68	0x3e42c0dd	0.19018884
69	0x3d1fcb86	0.039012454
70	0x3dc57dc0	0.096431255
71	0x3dc85c59	0.09783239
72	0x3c1c1cb4	0.009528328
73	0xbd5614fa	-0.0522661
74	0x3ca5fc34	0.020261861
75	0x3cdfb0fb	0.02730607
76	0x3d440323	0.047854554
77	0x3df369f5	0.11885444
78	0x3cc6ae1b	0.024252942
79	0x3d407b0a	0.04699234
80	0x3deb6252	0.114933625
81	0x3d902309	0.070379324
82	0x3d21c828	0.039497524
83	0xbb0f2a9e	-0.002184547
84	0xbccd87f1	-0.025089236
85	0x3d7fcd01	0.062451366
86	0x3c989120	0.018623888
87	0x3d91981c	0.07109091
88	0x3d212674	0.039343312
89	0x3d0017ba	0.031272627
90	0x3d8cb9c7	0.06871372
91	0xbbdf34a8	-0.006811697
92	0xbb4790a8	-0.0030451212
93	0x3c42c2d1	0.011887268
94	0x3d608df3	0.054822873
95	0x3da01c26	0.07817869
96	0xbc0b2f90	-0.0084952265
97	0x3da20a2d	0.07912097
98	0x3cbc3b2e	0.022977438
99	0x3cd7b59c	0.026331715
100	0x3dd928ba	0.10603471
101	0x3de87861	0.113510855
102	0x3c02dc03	0.007987025
103	0x3e3a293e	0.18179795
104	0x3d8495ea	0.06473906
105	0xbb05ebec	-0.002043481
106	0xbd217542	-0.039418466
107	0x3caecc03	0.021337515
108	0x3dd92383	0.106024764
109	0x3dcd4c74	0.10024348
110	0x3db8bd51	0.09020484
111	0x3dc80a7f	0.09767627
112	0x3d8627ff	0.065505974
113	0xbc1e0b86	-0.009646302
114	0xbc81b873	-0.015835023
115	0xbcdc1a1c	-0.026867919
116	0xbd92ee87	-0.07174402
117	0x3c9daf9e	0.01924878
118	0x3d5d47c2	0.05402351
119	0xbca5af2f	-0.020225136
120	0xba00d1da	-0.0004914083
121	0x3d608c6d	0.05482142
122	0x3d7a4193	0.061097693
123	0xbc607380	-0.013699412
124	0x3c0e0aa6	0.008669531
125	0x3d2ebca1	0.04266036
126	0xbe44210c	-0.19153231
127	0x3df2d233	0.118564986
128	0x3c898375	0.016786316
129	0x3d0e0a7f	0.03467798
130	0x3bf34f2a	0.0074252086
131	0xbad75a55	-0.0016430119
132	0xbe250957	-0.16116844
133	0x3d662be4	0.0561942
134	0x3d873b7b	0.06603142
135	0x3c9a26b7	0.018817289
136	0xbb93482b	-0.004494687
137	0x3dada9dd	0.084796645
138	0xbcab7b2f	-0.020932762
139	0xbc97ca1d	-0.018528992
140	0xbcc435dd	-0.023951465
141	0xbd567e09	-0.05236629
142	0xbcbdf8ba	-0.023189891
143	0x3e21eb0a	0.15812317
144	0x3b7c07f6	0.0038456894
145	0xbc171cfc	-0.009223219
146	0xbb92eae4	-0.0044835676
147	0xbc511c94	-0.012763161
148	0x3d548ae1	0.051890258
149	0xbd027927	-0.03185382
150	0x3c0e726c	0.0086942725
151	0x3b401de7	0.0029314698
152	0x3c4774bf	0.0121738305
153	0xbd1696d0	-0.03676492
154	0xbcaf701f	-0.021415768
155	0x3d186d9b	0.037213903
156	0x3d9dab24	0.07698658
157	0xbcec41d9	-0.028839992
158	0x3da69032	0.08132972
159	0x3d8194f2	0.06327237
160	0xbc66ac7d	-0.01407921
161	0x3e006877	0.1253985
162	0x3bde6500	0.0067869425
163	0xbd2fd7e0	-0.042930484
164	0xbd1e9b7b	-0.038722496
165	0x3db13ff3	0.086547755
166	0x3d145119	0.036210153
167	0x3dba0d46	0.09084563
168	0x3ccccabb	0.024999013
169	0xbd2d8a9c	-0.042368516
170	0xbd0d5325	-0.03450312
171	0xbd033965	-0.032037158
172	0xbd3348de	-0.043770663
173	0x3d1f8d3f	0.038953062
174	0x3cf53943	0.029934531
175	0x3d747c46	0.05968883
176	0x3db8e8a1	0.090287454
177	0x3d93c9e6	0.072162434
178	0x3d379501	0.044819836
179	0x3cdd1e8a	0.026992101
180	0x3d014cf2	0.03156752
181	0x3dcf3e00	0.101192474
182	0x3d120fac	0.035659477
183	0x3df9ee9f	0.122037165
184	0x3d35089e	0.04419767
185	0x3daf4d7c	0.08559701
186	0x3cba15e4	0.022715516
187	0x3d9d5c69	0.076836415
188	0x3d9a49ef	0.07533633
189	0x3d30aa3e	0.043131106
190	0xbc44a716	-0.012002727
191	0x3d0d8a15	0.034555513
192	0x3d3f1c22	0.04665769
193	0x3de8c069	0.11364824
194	0x3d90de3d	0.070736386
195	0x3d1e917b	0.03871296
196	0xbca23b62	-0.019803707
197	0x3d8c59f2	0.06853093
198	0x3d084fd9	0.033279274
199	0x3dc74436	0.09729807
200	0x3d5ca2c9	0.05386618
201	0x3d4818b7	0.048851695
202	0x3d4d335f	0.05009782
203	0x3d802276	0.06256573
204	0xbc400377	-0.011719576
205	0xbd3b9b5e	-0.045802467
206	0x3e89e527	0.26932642
207	0x3c82005a	0.015869308
208	0x3da87e49	0.08227212
209	0x3dae1060	0.08499217
210	0xbd58e580	-0.052953243
211	0x3c5b1f8a	0.013374219
212	0x3dcd4628	0.10023147
213	0xbce2d4a9	-0.027689295
214	0xbb5d8a6c	-0.003380443
215	0x3d601f5d	0.05471741
216	0x3deca3eb	0.11554702
217	0x3dd8c4b6	0.10584395
218	0x3c80fa4c	0.01574435
219	0xbce394f7	-0.027780993
220	0xbd8d23a1	-0.06891561
221	0x3bbd7b13	0.005782494
222	0xbc96269e	-0.018328961
223	0x3dd35489	0.10318858
224	0x3d11a007	0.035553005
225	0xbbe9f18b	-0.00713939
226	0x3d87b262	0.06625821
227	0xbd001626	-0.031271122
228	0xbce8e2a0	-0.028428376
229	0x3e48b038	0.19598472
230	0x3d8a1b3b	0.06743475
231	0x3c32ecb3	0.010920691
232	0x3d2446e8	0.040106684
233	0x3de21e91	0.11040986
234	0x3b349eb3	0.0027560412
235	0x3cbfaf6c	0.023399077
236	0x3de9c502	0.114145294
237	0xbb24d61f	-0.002515204
238	0x3d3b4a49	0.04572514
239	0x3d15e5f9	0.036596272
240	0x3d774638	0.0603697
241	0x3d57768f	0.0526033
242	0x3d3cb252	0.046068497
243	0x3d67cab0	0.056589782
244	0x3d2d444c	0.04230146
245	0x3daeb230	0.0853008
246	0x3da527de	0.08064245
247	0x3cbf595b	0.023358038
248	0x3c3037c6	0.010755485
249	0x3b8bc29f	0.004265144
250	0xbb57036b	-0.0032808434
251	0x3d2cc92d	0.042184044
252	0xbc920ba2	-0.017827813
253	0x3d90ab57	0.070639305
254	0xbd12e93f	-0.035866972
255	0x3da88b4b	0.08229693

bias f4 [64]
0	0x3d9cab8b	0.07649907
1	0x3e33c5f9	0.1755599
2	0x3cb82b42	0.022481564
3	0x3d95a6f4	0.073072344
4	0xbb4e886d	-0.0031514422
5	0xbdb81c01	-0.08989716
6	0x3da8f44a	0.082497194
7	0xb5884137	-1.015177e-06
8	0xbd225bec	-0.039638445
9	0xbaa34abc	-0.0012458186
10	0xbd9770ef	-0.07394587
11	0xbd07de7f	-0.033171173
12	0x3d659553	0.05605061
13	0x3e045ac2	0.12925246
14	0xbdb25597	-0.08707731
15	0x3d052868	0.032509238
16	0x3e1a21ce	0.15051958
17	0x3d2be23e	0.04196381
18	0xbbf4f67c	-0.0074756723
19	0x3e16bc1a	0.14720193
20	0xbdae2abb	-0.08504244
21	0xbccf8ec1	-0.025336625
22	0xbd79d7cc	-0.060996816
23	0x3e2b076f	0.16702054
24	0xbc15b6f2	-0.009137856
25	0xbd45ff67	-0.048339274
26	0x3aae3ff5	0.0013294207
27	0xbab513c7	-0.0013815098
28	0x3e11cdf0	0.14238715
29	0x3d135325	0.035967965
30	0x3d19f723	0.037589204
31	0x3e10b8ad	0.14132948
32	0x38c2c918	9.2880975e-05
33	0x3ba0323e	0.004888802
34	0x3c07dc92	0.008292334
35	0x3c97916c	0.01850196
36	0xbcc6f580	-0.024286985
37	0xbc55408b	-0.0130158765
38	0x3dfb4298	0.12268561
39	0x394ea2ed	0.00019706386
40	0x3d5103ef	0.051029142
41	0xbdb4f1c8	-0.088351786
42	0x39242ed3	0.00015657702
43	0x3c190c9f	0.009341388
44	0xbdabbb4b	-0.08385333
45	0x3dace355	0.08441798
46	0x3e2d55b3	0.16927223
47	0x3d11dee6	0.035612963
48	0x3e1aedcd	0.15129776
49	0x3d92b633	0.07163658
50	0x3df5802b	0.11987337
51	0xbdcd938f	-0.1003791
52	0xb976f507	-0.00023551668
53	0x3e1c1261	0.15241386
54	0xb808f06a	-3.264883e-05
55	0xbd410538	-0.047124118
56	0x3d103efc	0.035216317
57	0x3e0bbc66	0.13646087
58	0xbb8afa7c	-0.004241286
59	0xbb957f59	-0.0045623
60	0xbe0060c6	-0.12536916
61	0x3dc89f85	0.09796051
62	0xbd5e5e9a	-0.054289438
63	0x3cc96816	0.024585765

weight f4 [32, 64]
0	0xbcb73145	-0.02236236
1	0xbcce615f	-0.025192915
2	0xbcc3311c	-0.023827128
3	0xbc93b92f	-0.018032638
4	0x2bb776b8	1.3035883e-12
5	0xba12adf9	-0.0005595382
6	0xbc93afc6	-0.018028151
7	0xb2a45e7b	-1.9135078e-08
8	0xaa07a59a	-1.2047863e-13
9	0xbcf83f88	-0.030303732
10	0xbd37f2c6	-0.04490926
11	0xbc8d7cf2	-0.017271493
12	0xbc394f23	-0.011310372
13	0xbc915fbf	-0.01774585
14	0xbc9a24e2	-0.018816415
15	0xbc26345e	-0.010144321
16	0xbc8064ed	-0.015673125
17	0xbcbc5fba	-0.022994865
18	0x30e81834	1.6887101e-09
19	0xbc9066b3	-0.017627096
20	0xbb0cd808	-0.002149107
21	0xba48237a	-0.0007634681
22	0xbc2a96cd	-0.01041193
23	0xbc99ee6f	-0.018790452
24	0xba6a922a	-0.0008948172
25	0xbc9d466d	-0.01919862
26	0xab101880	-5.119308e-13
27	0x2af5b91c	4.3649188e-13
28	0xbc983c1c	-0.01858335
29	0xbcc75c03	-0.024335867
30	0xbb16958c	-0.002297732
31	0xbc9bedaf	-0.019034235
32	0xbc79fedf	-0.01525852
33	0x2d8adebb	1.5787696e-11
34	0xbc946800	-0.018115997
35	0xbb862d41	-0.00409475
36	0xbc0ead69	-0.008708336
37	0x2cff1ad0	7.2505127e-12
38	0xbca00333	-0.019532776
39	0xae3f0e4e	-4.3441077e-11
40	0xbc8bee96	-0.01708154
41	0xbd4b0316	-0.04956349
42	0xb8f29181	-0.000115665614
43	0xbc764337	-0.015030674
44	0xbc227581	-0.00991571
45	0xbcbfce60	-0.023413837
46	0xbc91fb7b	-0.01782011
47	0xbbaeb4a2	-0.0053315917
48	0xbc969495	-0.018381396
49	0xbc9a725e	-0.018853363
50	0x3c111f0a	0.008857498
51	0xbcc0b874	-0.023525454
52	0x3cc4c3ef	0.02401921
53	0xbc9406d5	-0.018069664
54	0x32223abe	9.4429975e-09
55	0xbc9ed60c	-0.019389175
56	0xbc987bf5	-0.018613795
57	0xbcc230d8	-0.023704931
58	0xaf9db382	-2.8685682e-10
59	0xbd4bf51c	-0.0497943
60	0xb9f7742b	-0.00047198063
61	0xbcbaf43b	-0.022821536
62	0xba684fba	-0.0008861978
63	0x3a44b3d9	0.0007503606
64	0x3e1e0acb	0.15433805
65	0x3d00934d	0.031390477
66	0x3a32ee04	0.0006825628
67	0xbbc7bdb5	-0.006095613
68	0xbd67aa0f	-0.056558665
69	0xbdc1240f	-0.09430706
70	0xbd1b5319	-0.037921045
71	0xb572aaaf	-9.04004e-07
72	0x3ce4ddff	0.027937887
73	0x3d766e12	0.060163565
74	0xbe4dd2dc	-0.20099968
75	0xbdca96eb	-0.098920666
76	0x3d92d159	0.07168836
77	0xbd6c0a6e	-0.057627134
78	0xbcb300d1	-0.021850975
79	0xbdbcc413	-0.09217086
80	0x3cd12849	0.025531905
81	0x3de70d77	0.11281865
82	0x2c27c62d	2.3842137e-12
83	0x3d136279	0.035982583
84	0x3d5b6550	0.053563416
85	0xbce3ecc5	-0.027822861
86	0xbdfb1031	-0.12258948
87	0xbc70cf99	-0.014697933
88	0x3da28410	0.07935345
89	0xbe192656	-0.1495603
90	0x2d08da32	7.779154e-12
91	0x2baec59f	1.2418294e-12
92	0xbd0befcc	-0.034164235
93	0xbd8a17fe	-0.067428574
94	0xbf0439c1	-0.51650625
95	0xbbeb6a7e	-0.0071843257
96	0x3ddc53f4	0.107582
97	0x37ff8f00	3.0464958e-05
98	0x3d7b2cae	0.061321907
99	0xbdd454f9	-0.1036777
100	0xbd8b1157	-0.06790417
101	0x3c3efe0b	0.011657248
102	0x3b9c356e	0.0047671115
103	0xac05c248	-1.9008285e-12
104	0x3d953426	0.07285337
105	0xbba75b0a	-0.0051072882
106	0xad7e0938	-1.4440275e-11
107	0x3d5f0d51	0.05445606
108	0x3d000269	0.0312523
109	0xbd037697	-0.032095518
110	0x3dabc050	0.0838629
111	0x3d67fe47	0.056638982
112	0xbd7207e4	-0.059089556
113	0x3de91ee2	0.113828436
114	0x3cd85a11	0.026410135
115	0x3e122298	0.14271009
116	0xbd996d38	-0.07491535
117	0x3d9341cf	0.07190286
118	0x2d08e7bf	7.782163e-12
119	0x3d922af2	0.071370974
120	0x3e095a45	0.13413341
121	0xbd733ffb	-0.05938719
122	0xac26529a	-2.3635872e-12
123	0xbcb7692d	-0.022389019
124	0x3e01e965	0.12686689
125	0x3e020ddf	0.12700604
126	0x3d3d7868	0.046257406
127	0xbdbe3b78	-0.092886865
128	0x3cf19e6b	0.029494485
129	0xbe2e5c36	-0.17027363
130	0xbdcf385e	-0.10118173
131	0x3cd15365	0.02555246
132	0x3c13fab3	0.009031939
133	0x3d5570b0	0.05210942
134	0xbaedd564	-0.001814526
135	0x3d40aa59	0.047037456
136	0x37434042	1.1637867e-05
137	0xbddfff02	-0.10937311
138	0xbd7e31bc	-0.06205915
139	0x3d5d3256	0.054003082
140	0xbd8665db	-0.06562396
141	0x3d4dcaac	0.05024211
142	0xbd4f4dc7	-0.050611284
143	0x3d01d9f5	0.031702
144	0xbd049d33	-0.03237648
145	0xbc991c2d	-0.018690193
146	0x3b6a0eb1	0.0035714323
147	0xbe0ef7d0	-0.1396172
148	0xbc89beaa	-0.016814549
149	0x3b93af79	0.004507002
150	0xbd340667	-0.04395142
151	0xbd5b4102	-0.053528793
152	0x3cbbd2ac	0.022927605
153	0x3d7be496	0.061497293
154	0xbcd02905	-0.025410185
155	0x3c895587	0.016764415
156	0x3ca4edb3	0.020132875
157	0x3d243005	0.040084857
158	0xbc8813d6	-0.016611021
159	0x3d60ef4c	0.05491571
160	0xbca1854d	-0.019716883
161	0xbd403859	-0.046928737
162	0x3d974ed7	0.073880844
163	0x3d1fd449	0.03902081
164	0x3c399640	0.011327326
165	0xbb1cf91a	-0.0023952187
166	0xbd8f2e49	-0.0699125
167	0x39e516d2	0.00043695286
168	0x3d82f9a1	0.06395269
169	0xbd8affb8	-0.06787056
170	0x3c7aa2fc	0.015297648
171	0xbdd62d3a	-0.10457845
172	0xbdf15c14	-0.11785141
173	0xbdbbcf6f	-0.09170424
174	0xbd7c8d56	-0.061658226
175	0x3da3e91c	0.080034465
176	0xbda79e75	-0.0818452
177	0x3cb64d97	0.022253795
178	0xbd03f627	-0.03221717
179	0x3d78b7e4	0.060722247
180	0xbd8610b4	-0.065461546
181	0x3d3e2a2c	0.046426937
182	0x3b6ee43e	0.003645196
183	0x3cddec0d	0.027090097
184	0xbcb0822b	-0.021546444
185	0xbd826db4	-0.063685805
186	0xbcd29378	-0.025705084
187	0x3d4f9f30	0.050688922
188	0x3d126981	0.035745148
189	0xbc695eb5	-0.014243771
190	0xbcccf6a1	-0.025019946
191	0x3d7cf129	0.061753426
192	0xbdd7bca5	-0.10534028
193	0xbcb62ae9	-0.022237258
194	0x3ab378d8	0.001369263
195	0xbdd8915e	-0.105746016
196	0xbd2951ed	-0.041337896
197	0x3e05e33f	0.13074969
198	0xbda45c7e	-0.08025454
199	0xbc502e35	-0.012706329
200	0xbcf60b65	-0.03003473
201	0x3dc396db	0.09550258
202	0x3e340e3d	0.17583556
203	0x3dd0a3ab	0.10187467
204	0x3de7439c	0.11292192
205	0xbd9d8f69	-0.07693369
206	0x3e4d0059	0.20019664
207	0x3e17ee4d	0.14836998
208	0xbdf5f745	-0.120100535
209	0xbd02c1a3	-0.031922948
210	0x37e3c4b0	2.7152098e-05
211	0x3d857868	0.06517106
212	0x3c2867a5	0.010278617
213	0x3dab7de2	0.083736196
214	0x3e22897e	0.15872762
215	0x3ce4b84f	0.027919916
216	0xbdb74600	-0.08948898
217	0x3d753505	0.059865016
218	0xbbf2ece1	-0.007413492
219	0x2e321365	4.048974e-11
220	0x3d072bb0	0.033000648
221	0x3dd9839b	0.10620805
222	0x3f135004	0.5754397
223	0x3b2126f0	0.002458986
224	0x3da873d0	0.082252145
225	0xbd8dc609	-0.06922538
226	0x3ce60292	0.028077397
227	0x3daf6c52	0.08565582
228	0x3e91edce	0.28501743
229	0xbbeb140d	-0.007174021
230	0xbd7e575f	-0.062095042
231	0xbc02b18a	-0.007976899
232	0xbdd66765	-0.1046894
233	0x3df86574	0.12128726
234	0xbcc95ec8	-0.024581328
235	0x3de85b08	0.11345488
236	0x3d6f9bd3	0.058498215
237	0x3e15ed3e	0.14641282
238	0x3c13b529	0.00901536
239	0x3d70ecac	0.058819458
240	0xbdb74531	-0.08948744
241	0xbd099cc1	-0.033596758
242	0xbcc9f7e3	-0.024654334
243	0x3c623197	0.013805768
244	0x3dfc4b4f	0.123190515
245	0xbce11ea6	-0.027480435
246	0xb084f3e9	-9.673587e-10
247	0x3d86c79e	0.06581043
248	0x3df47a69	0.119374104
249	0xbcfa38c4	-0.030544646
250	0x380be96d	3.3357577e-05
251	0xbd2b16be	-0.041769736
252	0x3d4513f8	0.048114747
253	0x3dc57c4e	0.0964285
254	0xbe1b663a	-0.15175715
255	0x3b0e4770	0.002171006

bias f4 [32]
0	0xbc20416d	-0.009781224
1	0x3e30ffa8	0.17285025
2	0x3d5d4585	0.054021377
3	0x3d92d291	0.071690686
4	0xbc29bb16	-0.010359546
5	0x3cfc8e63	0.030829614
6	0xbc0ceba3	-0.008601102
7	0xbd4740b6	-0.048645698
8	0x3df2ab79	0.11849112
9	0xbcea317a	-0.028588045
10	0xae8e8faa	-6.482932e-11
11	0xbc1c24be	-0.009530244
12	0x3c0989b4	0.008394647
13	0x3e36c705	0.17849357
14	0x3d3879a8	0.045037895
15	0x3ce18fc6	0.027534377
16	0x3d637a7f	0.055536743
17	0x3d9abbb5	0.075553335
18	0xbbc2f007	-0.0059490236
19	0x3e4b6cc1	0.19865705
20	0x3c17baab	0.009260814
21	0xbbd5f67f	-0.0065296288
22	0xbb0986e9	-0.0020984954
23	0x3d01d9c4	0.031701818
24	0xbc0335cb	-0.008008431
25	0x3d8de58d	0.06928549
26	0x3ce64782	0.02811027
27	0xbc3b4059	-0.011428916
28	0xbd923b2e	-0.07140194
29	0x3e2d24c8	0.16908562
30	0xbd92b22c	-0.0716289
31	0xbd9948c5	-0.07484583

weight f4 [8, 32]
0	0x3c43b6ee	0.011945469
1	0x3dc3672e	0.09541164
2	0x3d9f363b	0.077740155
3	0xbe164814	-0.14675933
4	0x3df59abc	0.11992404
5	0xbe4f3191	-0.20233752
6	0x3c659f9f	0.014015107
7	0xbd6fe0c7	-0.058563974
8	0x3e5cd4e4	0.21565586
9	0xbdfcd5f8	-0.12345499
10	0xaf968bf1	-2.7384275e-10
11	0x3dc2b4de	0.09507154
12	0x3d7f9c75	0.06240507
13	0xbe033c0c	-0.12815875
14	0xbde7ff86	-0.11328034
15	0x391af9dc	0.00014779664
16	0x3dad6b50	0.08467734
17	0x3e15381f	0.1457219
18	0x3e2c1bd6	0.16807494
19	0xbd655071	-0.055984918
20	0x3e1add80	0.15123558
21	0xbdb1f0b6	-0.0868849
22	0x3aa86829	0.0012848425
23	0x3dd4b122	0.10385348
24	0x31294194	2.4630014e-09
25	0x3e0940b1	0.13403584
26	0x3d6bea6c	0.05759661
27	0x3d289989	0.041162048
28	0x3d9c3fba	0.076293424
29	0x3e38051f	0.17970704
30	0x3de43737	0.11143344
31	0xbd8d9269	-0.06912691
32	0xbc979260	-0.018502414
33	0xbbe39d28	-0.0069462247
34	0xbe0fc498	-0.14039838
35	0x3e5e7186	0.21722993
36	0xbe251205	-0.16120155
37	0x3d477a43	0.048700582
38	0xbce20881	-0.027591946
39	0xbdc168dc	-0.094438285
40	0xbdb94503	-0.09046366
41	0x3dfa2439	0.1221394
42	0x2e985b82	6.928415e-11
43	0x3d7ec13c	0.062196
44	0xba856463	-0.0010177012
45	0xbdc5acbd	-0.09652088
46	0xbd851043	-0.06497242
47	0xbdae63de	-0.08515142
48	0x3d58e94f	0.052956875
49	0xba9014a7	-0.0010992483
50	0x3d86ffaf	0.065917365
51	0x3dd775ca	0.10520513
52	0xbdad1e4c	-0.08453044
53	0xbdd3b51d	-0.10337279
54	0x38a610af	7.9186044e-05
55	0x3db7b40a	0.089698866
56	0xb0d739a6	-1.5659694e-09
57	0xbe12080c	-0.14260882
58	0x3daafb31	0.08348692
59	0x3d9206cf	0.07130205
60	0x3e64d318	0.22346151
61	0x3da02dd7	0.07821243
62	0x3e538d37	0.20659338
63	0x3dfa577a	0.12223716
64	0x31821394	3.7857237e-09
65	0xadeeb8fd	-2.7139619e-11
66	0x3d5f99e2	0.054590113
67	0x38379510	4.3769425e-05
68	0x2e19aa95	3.493968e-11
69	0x3cc88a1d	0.02447992
70	0xaf10d5d9	-1.3172698e-10
71	0xaac040c5	-3.4150994e-13
72	0xb1a197df	-4.7029824e-09
73	0x2fae5850	3.1713165e-10
74	0x2e8f4418	6.514983e-11
75	0xbc8776b9	-0.016536104
76	0x32c1deeb	2.2569528e-08
77	0x39608a11	0.00021413738
78	0x2d900ac7	1.637569e-11
79	0xbaf91b3d	-0.001900531
80	0x3cd909ed	0.02649399
81	0xb76c79d9	-1.4095066e-05
82	0xbb943d5b	-0.0045239157
83	0x2d152388	8.477559e-12
84	0xae9771d9	-6.8869084e-11
85	0xbb16dbc0	-0.0023019165
86	0xacfcd4e5	-7.185907e-12
87	0x3d00425e	0.031313293
88	0xaf251da9	-1.50172e-10
89	0xbd701bc2	-0.058620222
90	0x3b5ccce1	0.0033691453
91	0xab2b9c2b	-6.096813e-13
92	0xbc254e76	-0.010089507
93	0xb81a39cc	-3.677029e-05
94	0xad028988	-7.4201825e-12
95	0xbd86aaee	-0.06575571
96	0xbcbed98d	-0.023297096
97	0x3c93f9ce	0.018063452
98	0xbcd20b4a	-0.025640149
99	0x3ce6d3e3	0.028177207
100	0x3dacb664	0.08433226
101	0x3e7e4f08	0.24834836
102	0xbc701607	-0.014653689
103	0xbcce9727	-0.02521856
104	0x3da4e48f	0.080514066
105	0xbd115b31	-0.035487358
106	0xafca9c6e	-3.6854736e-10
107	0xbb87a7b4	-0.004139865
108	0x3c0458c2	0.008077802
109	0xbe1cac79	-0.15300168
110	0x3de4493f	0.11146783
111	0x3e1cdce1	0.15318634
112	0x3e3777ad	0.17916746
113	0x3c315bc4	0.010825101
114	0x3dd64894	0.10463062
115	0xbdbe11cd	-0.09280739
116	0x3dc55c1f	0.09636711
117	0xbe06bfba	-0.13159075
118	0xb99da457	-0.00030067816
119	0xbdf83628	-0.121197045
120	0x31432a90	2.8400429e-09
121	0x3b7cd1f1	0.0038577283
122	0x3e2ff576	0.1718348
123	0xbdf972e6	-0.12180118
124	0x3d8fa7c6	0.07014422
125	0x3cb9d16c	0.022682868
126	0x3ddcb1cd	0.107761
127	0x3e200f6c	0.15630883
128	0x2b912913	1.031427e-12
129	0xbccaeeb0	-0.024772018
130	0xb1211f02	-2.344621e-09
131	0xbc3f92ea	-0.011692742
132	0xbb446064	-0.002996468
133	0xbb757106	-0.00374514
134	0xaeae4c14	-7.926118e-11
135	0x2aba8b47	3.313688e-13
136	0xbce6e48b	-0.02818515
137	0xaeb95855	-8.428517e-11
138	0xaea4d966	-7.496474e-11
139	0xbceee95d	-0.02916401
140	0x2c18a51f	2.169216e-12
141	0xbce51aa6	-0.027966809
142	0xbc96008f	-0.018310813
143	0xbce93ec0	-0.028472304
144	0xbc93ad9b	-0.018027117
145	0xbcc727c4	-0.024310954
146	0xbce6586b	-0.028118333
147	0xbce84699	-0.028353976
148	0x3bbf1c25	0.0058322125
149	0x31b4c417	5.2609823e-09
150	0xaa43e398	-1.7398442e-13
151	0xbd01f099	-0.031723592
152	0xafcf04dd	-3.7656536e-10
153	0xbd049e8b	-0.03237776
154	0xbc82ffd5	-0.01599113
155	0xbcb9d7da	-0.022685934
156	0xbb8383c8	-0.0040135123
157	0xbd0fedbd	-0.035138834
158	0xba9e282c	-0.0012066416
159	0xbc633a27	-0.013868845
160	0x2c636ce6	3.231909e-12
161	0xadfc0364	-2.8650589e-11
162	0x3e1b6b9b	0.15177767
163	0xbb11b082	-0.002223045
164	0x3d891d2f	0.066950195
165	0xbce1b69a	-0.027552892
166	0xafd643c1	-3.8974515e-10
167	0x2c0c7c17	1.996408e-12
168	0xbd9134ec	-0.07090172
169	0x3d8fc274	0.07019511
170	0x30b2784e	1.2985397e-09
171	0x39895d1f	0.00026200057
172	0xb8cd44f2	-9.788004e-05
173	0xbdb1d391	-0.08682931
174	0xbd2748f5	-0.04084106
175	0xbcef4e63	-0.029212182
176	0xbd16ec4d	-0.036846448
177	0xbc801f89	-0.015640037
178	0x3dcf1599	0.10111541
179	0xbdf79859	-0.12089605
180	0x3cf72eef	0.030173747
181	0x3d48917d	0.048966873
182	0x3042522b	7.0693557e-10
183	0xbe4e503f	-0.20147799
184	0xadf06bbd	-2.7332686e-11
185	0xbe3489b8	-0.1763066
186	0xbcc9a182	-0.024613146
187	0xbda7d85c	-0.08195564
188	0xbd5ddf24	-0.05416788
189	0xbe19c22d	-0.15015478
190	0x3dcf8506	0.10132794
191	0xbd83648f	-0.064156644
192	0x3ca8cbb4	0.020604946
193	0x3e0f522d	0.13996191
194	0xbd61a1a9	-0.05508581
195	0xbdc1e84c	-0.09468135
196	0x3d3566b4	0.0442874
197	0x3bb881d9	0.0056307134
198	0xbcf89792	-0.030345712
199	0xbdebf426	-0.11521177
200	0x3d8cf9b7	0.06883567
201	0x3db0ba32	0.08629264
202	0xb00f49fa	-5.2128224e-10
203	0x3e32ba88	0.17453969
204	0xbb48c0ee	-0.0030632573
205	0x3e2a553b	0.16634075
206	0x3e0b4f88	0.13604558
207	0x3e43bd77	0.19115244
208	0xbd4b87d5	-0.049690086
209	0x3e163a0b	0.14670579
210	0x3d2b6fec	0.041854784
211	0x3e647191	0.22308947
212	0xbdebd7aa	-0.11515744
213	0x3d142780	0.036170483
214	0xbb46fe3c	-0.0030363938
215	0x3d781a46	0.06057193
216	0x3194b912	4.328407e-09
217	0x3d8fcaba	0.07021089
218	0xbe25832c	-0.1616332
219	0x3e02eb85	0.12785156
220	0xbdedc9c0	-0.116107464
221	0x3daf70d9	0.08566446
222	0xbda93736	-0.08262484
223	0xbdd1fca8	-0.102532685
224	0xbc9454ff	-0.018106936
225	0x3d72e11e	0.05929672
226	0xbe233702	-0.15938953
227	0x3e643f4f	0.22289775
228	0xbdf4fecd	-0.11962662
229	0x3e635aa4	0.22202545
230	0x3dcb4648	0.099255145
231	0x3c99ff09	0.018798368
232	0xbe11484b	-0.14187734
233	0x3e0b9e1f	0.13634537
234	0x2ec53d49	8.969409e-11
235	0xbdd646ea	-0.104627445
236	0xbcfcd924	-0.03086526
237	0x3e202bae	0.15641662
238	0xbdf49942	-0.11943294
239	0x3d287419	0.041126344
240	0x3e44c876	0.19217095
241	0xbdabf7a8	-0.08396846
242	0x3e46001a	0.19335976
243	0xbe244789	-0.16042913
244	0xbcf2557e	-0.029581781
245	0x3dd82a79	0.10554976
246	0x37c4de7b	2.3468621e-05
247	0xbd9a5861	-0.07536388
248	0xb14cb24f	-2.9787264e-09
249	0x3e164d62	0.14677957
250	0x3e2bdda7	0.16783772
251	0xbdafb0e2	-0.085786596
252	0x3da688cc	0.08131561
253	0x3c680e51	0.01416357
254	0x3e2f05da	0.17092076
255	0x3dc9128c	0.09817991

bias f4 [8]
0	0x3bf8bfb2	0.0075912112
1	0xbe106d0a	-0.14104095
2	0x3d3683bb	0.04455922
3	0x3d64f4db	0.055897575
4	0xbad3322d	-0.0016112976
5	0xbe02d5f8	-0.12776935
6	0x3d92f93a	0.071764424
7	0x3da5e403	0.081001304

weight f4 [1, 8]
0	0x3e09ca7c	0.13456148
1	0xbdcde9a7	-0.10054331
2	0x3d62949e	0.055317514
3	0xbe3a9659	-0.18221416
4	0xbc2afe58	-0.010436617
5	0xbdf2b200	-0.11850357
6	0x3e5b1d22	0.21397832
7	0xbe55dadb	-0.20884268

weight f4 [8, 1]
0	0x3f3f1f8b	0.74657506
1	0x3f6d3b3b	0.92668504
2	0x3e229629	0.15877594
3	0x3ec342e2	0.38136965
4	0xbead77eb	-0.33880553
5	0x3f1e0413	0.61724967
6	0x3ee72020	0.45141697
7	0xbdb38d0f	-0.08767139

bias f4 [8]
0	0xbeb33701	-0.35002902
1	0x3ee5dc51	0.4489465
2	0x3df0a456	0.117500946
3	0xbe9c6ea2	-0.30553156
4	0xbe081992	-0.13291004
5	0xbf808398	-1.0040159
6	0x3f66a009	0.90087944
7	0xbf1a517c	-0.60280585

weight f4 [32, 8]
0	0x3e9ac18a	0.30225784
1	0x3e9a2d28	0.30112576
2	0xbe85895e	-0.26081365
3	0xbe82db87	-0.2555811
4	0x3e8e4d1c	0.27793205
5	0x3e2cacf2	0.16862848
6	0x3e511a13	0.20420103
7	0x3cb55219	0.022133874
8	0xaf20fb82	-1.4641269e-10
9	0xb7232329	-9.7237435e-06
10	0x3078513d	9.033732e-10
11	0x359b37b4	1.1564612e-06
12	0xb8961294	-7.156018e-05
13	0xb09ba286	-1.1323926e-09
14	0x33cf0d27	9.641581e-08
15	0xaeaea40f	-7.9417466e-11
16	0x3d949ec9	0.07256848
17	0x3e15beef	0.14623617
18	0x3dad347c	0.08457276
19	0xbe17499b	-0.14774172
20	0xbdbbb7c1	-0.09165908
21	0xbd2825aa	-0.041051544
22	0x3d89b529	0.06724007
23	0xb11f665a	-2.3195725e-09
24	0xbe4d151d	-0.20027585
25	0xbd208a15	-0.039194185
26	0x3e9952c1	0.2994595
27	0x3c6686b3	0.014070201
28	0xbdc898dc	-0.097947806
29	0x3e3a56d6	0.18197188
30	0x3dad59f1	0.084644206
31	0xbd112f5b	-0.035445552
32	0xbd974dce	-0.07387887
33	0x3bd3016c	0.0064393785
34	0x3e8e2c5a	0.27768213
35	0xbe607e4d	-0.2192318
36	0xbd1374b3	-0.035999965
37	0xbe446903	-0.19180684
38	0xbbb0cbb0	-0.005395375
39	0xbdac059e	-0.08399509
40	0x3e234231	0.15943219
41	0xbd33eb5b	-0.043925624
42	0x3de0832d	0.1096252
43	0x3e8c1bb4	0.27364886
44	0x3db431b0	0.0879854
45	0xbdff7b0d	-0.12474642
46	0xbc6c66a3	-0.014428767
47	0x3ecad6f5	0.39617124
48	0xbdae9724	-0.085249215
49	0x3e1ec367	0.15504228
50	0xbe03ee69	-0.12883915
51	0x3d98a8c0	0.074540615
52	0x3e996364	0.29958642
53	0x3e011b00	0.12607956
54	0xbe79c384	-0.2439099
55	0xbead4937	-0.3384492
56	0x3ec9d915	0.39423433
57	0x3dacc8d5	0.08436743
58	0xbe963404	-0.2933656
59	0x3e3397c4	0.17538363
60	0xbeb714c1	-0.3575802
61	0x3d17772b	0.03697888
62	0xbd9fdc8f	-0.0780574
63	0xad089dee	-7.765772e-12
64	0xbad9fdca	-0.0016631421
65	0xac46ffdd	-2.8279525e-12
66	0xba074cdc	-0.0005161294
67	0xad08e154	-7.780738e-12
68	0x2d9479c6	1.687973e-11
69	0x2d9bf9b5	1.7732352e-11
70	0xac0b4688	-1.979224e-12
71	0x38eae708	0.000112010224
72	0xbe8c9b14	-0.27462065
73	0x3d56d192	0.052445956
74	0x3e342883	0.17593579
75	0xbe59eda3	-0.21282057
76	0x3e099165	0.1343437
77	0xbdc558e7	-0.096360974
78	0xbd966159	-0.07342786
79	0xbe84cd07	-0.25937673
80	0x3d3c5d8b	0.045987647
81	0xbec2f127	-0.3807461
82	0x3e956680	0.29179764
83	0xbccce774	-0.02501271
84	0xbd12a312	-0.035800047
85	0x3dbfb7c2	0.09361221
86	0x3e93d90f	0.2887654
87	0x3e300e0d	0.1719286
88	0x2f0920f4	1.2471785e-10
89	0xb13b94bf	-2.7296634e-09
90	0xabac95be	-1.2262897e-12
91	0x2bd15bac	1.4875787e-12
92	0x3e8c0c86	0.27353305
93	0xafa72b46	-3.040787e-10
94	0xbdfaf1e6	-0.1225317
95	0x3e1c76b0	0.1527965
96	0x3e1a51cb	0.15070264
97	0xbd72e632	-0.059301563
98	0x3e2ee2a0	0.17078638
99	0xbea8f475	-0.32999006
100	0x3ec96ea1	0.39342216
101	0xbd403e3d	-0.046934355
102	0xbe9b41c2	-0.30323607
103	0x3dda6e9c	0.10665628
104	0xbe9caa3e	-0.30598634
105	0x3dc24997	0.094866924
106	0xbdd7396b	-0.105089985
107	0xbeb9ffbb	-0.3632792
108	0x3e1ceaf7	0.15324007
109	0x3e05a04d	0.13049431
110	0x3ea630e3	0.32459173
111	0xbd9f75c0	-0.07786131
112	0x2c4f429c	2.9453445e-12
113	0xbacc1c9a	-0.0015572489
114	0xad99cabe	-1.7484122e-11
115	0x2e037215	2.9887277e-11
116	0x3e512362	0.20423654
117	0x30ae10d6	1.2664951e-09
118	0xbf17b027	-0.5925316
119	0x3e4fb84d	0.20285149
120	0xbdffebf2	-0.12496175
121	0xbc8b3578	-0.01699327
122	0x3d92343e	0.07138871
123	0x3cd8805d	0.026428396
124	0x3cd1ec09	0.025625246
125	0x3a19a27c	0.0005860699
126	0x3df7f8c9	0.12107999
127	0x3c2ada51	0.010428027
128	0xb86dbdd0	-5.668198e-05
129	0xb7e9d2cf	-2.787393e-05
130	0x2e0947a3	3.121382e-11
131	0xae38ed56	-4.2047553e-11
132	0x3e737e87	0.23778735
133	0xb0058810	-4.8578475e-10
134	0xbdd50f8d	-0.10403357
135	0x3e980ded	0.29698125
136	0x3c89c761	0.016818704
137	0x3cb965a7	0.02263148
138	0xbd364b51	-0.04450542
139	0xbe9a1bd4	-0.30099356
140	0xbd8fe1c9	-0.07025487
141	0xbec713bc	-0.38882244
142	0x3eb8f55a	0.36124688
143	0xbe82855f	-0.2549238
144	0x3e93fc44	0.289034
145	0x3ecdc2ef	0.40187785
146	0xbd4b613a	-0.04965327
147	0x3e3689c6	0.17825994
148	0x3e601f19	0.21886863
149	0xbe8bc5f1	-0.27299455
150	0x3ec1ed84	0.37876523
151	0x3f00fe73	0.5038826
152	0x3e84d616	0.25944585
153	0x3eac4f97	0.33654472
154	0xbd9a1d6b	-0.07525142
155	0x3c6caf83	0.014446142
156	0xb1e0188a	-6.522048e-09
157	0x3d730fe0	0.05934131
158	0xbd8efeb1	-0.06982172
159	0xb98c4a20	-0.00026758108
160	0xb6c49da7	-5.8596083e-06
161	0xabff97e6	-1.8161e-12
162	0xac0d547a	-2.00842e-12
163	0x2fce85ec	3.756634e-10
164	0x3e77479a	0.24148408
165	0x2cb83572	5.235528e-12
166	0xacc276e8	-5.527013e-12
167	0x3e15f54e	0.14644358
168	0x2ea1657e	7.339461e-11
169	0x336d872e	5.5303808e-08
170	0xad28cdbc	-9.595377e-12
171	0xb788bc46	-1.6300135e-05
172	0x3e70a2eb	0.23499648
173	0x2da0f2c4	1.8297704e-11
174	0xb8ef051b	-0.00011397359
175	0x3e8829b7	0.26594326
176	0x3dec7b7c	0.1154699
177	0x3eb4ded1	0.35326245
178	0xbc98762f	-0.018611042
179	0xbd5a3950	-0.053277314
180	0xbdfbd968	-0.12297326
181	0x3da34aad	0.07973228
182	0xbe1509b8	-0.14554489
183	0xbea33d09	-0.31882504
184	0x3e032c65	0.12809904
185	0x3e177fb4	0.14794809
186	0xbe948715	-0.2900931
187	0xbdf836bf	-0.12119817
188	0xaca72364	-4.7503546e-12
189	0xbd192317	-0.03738698
190	0xbe69904d	-0.22808953
191	0x392b85fe	0.00016357747
192	0x3df8ca34	0.12147942
193	0xbe8e48da	-0.27789956
194	0x3e97811a	0.29590684
195	0xbdf2360d	-0.118267156
196	0x2f2c15f9	1.5651115e-10
197	0x3d6144dc	0.05499731
198	0x3e771e03	0.24132542
199	0xaeab593c	-7.792031e-11
200	0xb9c3cde0	-0.00037346687
201	0x33a3a349	7.6199804e-08
202	0x3afa6b1a	0.0019105405
203	0x3646b7b7	2.9611235e-06
204	0x3ddcac52	0.10775055
205	0x3984598b	0.00025243717
206	0x2d774ecd	1.4057822e-11
207	0xbe937e5f	-0.2880735
208	0xbd8b91b2	-0.068148986
209	0x3e13739a	0.14399567
210	0xbdc21e09	-0.09478385
211	0x3e29806a	0.16552892
212	0xaca5bfbc	-4.710869e-12
213	0x3eae84eb	0.34085783
214	0x3dda0040	0.10644579
215	0xba285b08	-0.0006422256
216	0x3e48b78d	0.19601269
217	0x3d7c1f5c	0.061553344
218	0x3d4b55cd	0.049642373
219	0x3dfed47b	0.12442871
220	0x3e77d832	0.24203566
221	0x3e0ee2e8	0.13953745
222	0xbe97cae0	-0.2964697
223	0xbda33434	-0.07968941
224	0xbe246b00	-0.16056442
225	0xbdb52d2b	-0.08846506
226	0x3d28bc88	0.041195422
227	0xbecf0d72	-0.40439945
228	0x3ea8864b	0.32914957
229	0x3d162ab0	0.036661804
230	0xbd626c2d	-0.055278946
231	0xbee3d75f	-0.44500253
232	0x3d1ba2d0	0.037997067
233	0xbd6697ea	-0.05629722
234	0x3e36eff6	0.17864975
235	0x3c0b11f4	0.008488167
236	0x3e5db082	0.21649364
237	0x3e836c08	0.2566836
238	0xbd8557c4	-0.065108806
239	0x3be3d241	0.0069525545
240	0xbdf840f1	-0.121217616
241	0xbe9d3977	-0.30707905
242	0x3cfc197b	0.030773869
243	0x2fd64d00	3.8981085e-10
244	0x3e4a1a5c	0.19736618
245	0xba135889	-0.0005620798
246	0xbde1bc7e	-0.1102228
247	0xbcd87aef	-0.026425807
248	0x3d6e878b	0.058234733
249	0x3eb9e0e2	0.36304384
250	0xbdaedc87	-0.08538156
251	0xbe2b8c74	-0.16752797
252	0xbdc2ce80	-0.09512043
253	0xbe21e0f6	-0.15808472
254	0x3c010fb4	0.007877279
255	0x3b2bcace	0.002621341

bias f4 [32]
0	0x3e2641f2	0.16236094
1	0xb78c8083	-1.6749143e-05
2	0xbaf32f80	-0.0018553585
3	0x3ef92797	0.48663017
4	0x3ec1cc54	0.37851202
5	0x3d09c322	0.03363336
6	0x3e32a3cc	0.17445296
7	0x3e1219f2	0.1426771
8	0xba3f3ca2	-0.0007295107
9	0x3ea30cb2	0.31845623
10	0xbe570289	-0.20997061
11	0xbe203ea4	-0.15648896
12	0x3ed1ce47	0.4097769
13	0x3e205df6	0.15660843
14	0x3d3c5a76	0.045984708
15	0x3e8c5f52	0.27416474
16	0xbdd1431f	-0.102178805
17	0x3f0e1307	0.55497783
18	0xbcefc50b	-0.029268762
19	0xbe82e204	-0.2556306
20	0xbe657304	-0.22407156
21	0xbe5b3bf5	-0.2140959
22	0x3eaa968a	0.33317977
23	0xbe1ffd19	-0.15623893
24	0xbe8800fe	-0.26563257
25	0xbea5c2d5	-0.32375208
26	0xbe9f10c8	-0.3106749
27	0x3e1fb547	0.15596496
28	0x3efdbefa	0.49559766
29	0x3e3718ed	0.17880602
30	0x3ed77622	0.42082316
31	0x3eafae48	0.34312654
