model/106.090694904327393.pt (torch_old, 170435 bytes, 20 tensors)

weight f4 [256, 3]
00000000: 9595 69be a5e9 c7be cac6 e3be abb2 a33d
00000010: 067f d3be 100d 863d 508d b7bd 338f b5bb
00000020: f2a4 d9bd f6f5 98be 2570 a83e ed42 0d3f
00000030: 24d6 a93e a416 3dbe 03e5 ba3d 663d a6be
00000040: 72e5 69be 2a85 f6bc e23b afbe cc34 d6be
00000050: 90de f83e f7a6 bebe 013b fdbd 5d52 e93e
00000060: 9114 0abe 85a3 0b3f 2ad9 9c3e b14d 4c3d
00000070: 33a8 b2ba 2102 08be 20a5 13bf 21e3 843e
00000080: 79c5 09bf e1fc c23e f460 913e 5a7c 06bf
00000090: 8f5c 22bf fe20 13bf 2c84 84bd a009 f73d
000000a0: 71fb 9b3d 6408 c93d 9fb9 093f 0936 8b3e
000000b0: 29dc 9cbe 13d4 89be 32e7 eabe 1306 993e
000000c0: 6a1e 0dbf ea1d 7fbe a4a7 00bf 3177 05bf
000000d0: 6198 99be a114 68bd 2a76 123f 3f70 0bbf
000000e0: 0b4a 83be 36ac b03e 24b2 6c3e dba0 8d3e
000000f0: f2b6 f3be 9a23 c4be b344 5dbd fac1 883e
00000100: 3cea bbbe 0c21 ddbe 9125 c73e d147 8ebe
00000110: b772 b53e 686f 663e 52d6 a83e 25ea 27bd
00000120: 312d 623e bd0b 95be f8f7 c7bd dfff fbbe
00000130: 6a73 0b3f 0f34 cdbd bb6f f8be 841c 74be
00000140: 186f 4f3e 1fbb 88be c0cd bc3e c3ba f63e
00000150: e33c 3ebf 4d23 70be 0e9c eebd 7fdd bc3e
00000160: 1b02 cabe 5578 8f3d cf17 113d 5be4 a13c
00000170: bd17 c1be f89d 17be 07fe 8e3e 9351 0fbf
00000180: a09d 9bbe 67de d83d 2564 0c3f 13c8 d33e
00000190: d3dc 8a3e 3937 97be b19c b6be c433 283d
000001a0: bd07 a7be 5924 bbbe 4d6c 66bd 539a 4f3e
000001b0: c796 89be 0133 5ebd b4b7 cb3e 743e e9bd
000001c0: 747c 5a3e e879 f33e fe22 673d 981b 013f
000001d0: c466 b6be f9ff d1be 5f34 a93e e558 5cbd
000001e0: a2d4 debe e3a6 b3bd c12c d1be 4253 713e
000001f0: d606 28be 7557 713e 53b2 123f 2e03 01bf
00000200: eb2c 003f d34a 8dba f711 0ebf 57b9 903d
00000210: 219f 8bbd 10ef 88be 2bb2 0c3f cf87 283e
00000220: 1292 eabe 7c54 003f 0f1d 8e3e 6f08 b8be
00000230: 9dd4 99be a599 04bf fd70 b73e 40d7 293e
00000240: b692 1dbf f6e6 9c3e 54f9 bbbe b0a8 54be
00000250: 3989 003f 60fd 72be ebbe 06bf 1634 1dbf
00000260: eed1 cebb 38a7 e3be 09b7 4f3e 8633 4cbc
00000270: e104 e03e 4c0d db3d d4c8 883c 64dc 7abe
00000280: 520d 853d bc54 5ebe 4bcb d33e d77a ddbe
00000290: 111c 003f 88c4 82be 0647 cfbe a4ea 453b
000002a0: 45fd 4a3e 7503 73bd 4373 0a3e 5b11 de3e
000002b0: 4001 383d 1734 e43e 4220 013f ddf0 dcbd
000002c0: e8a0 183f 901c a43e 6d95 20bf 0ac5 97bd
000002d0: 72af 2c3e 4d4b dfbe 8196 123f c88c 83be
000002e0: d42c b3bd 3a3e 423e 71f8 0b3f 4377 69be
000002f0: f5dd fe3e b7a9 82be 7ecb bd3e 424c 8c3e
00000300: b41a ca3e 009f 3a3e 60b4 4ebe 6b4b da3e
00000310: 2388 bbbd 1ae7 9fbe 029c b1be 3af3 e13e
00000320: 9f15 583e 1c7a 4ebd 29dd 093e c171 d23e
00000330: 2265 7abe bc72 49be eabe fe3e b258 ddbd
00000340: f340 0bbe 49be f83e 6c2e cc3e a1a9 88be
00000350: 1ddc 5fbd 2fed e03e e8eb e03e 7c7a e2be
00000360: 84e2 833c e66f b53e b0b3 253e 4115 f5be
00000370: f353 c2be 8475 63bd d48d a8be e72e 2bbf
00000380: fe76 993d f7e6 01bf 40a5 353e 5b6b 21bd
00000390: f501 ab3e 766d aabe 61cb d2bc 3d84 83bd
000003a0: 04e9 a83e 9029 163f d5fd 6abd 044b ed3e
000003b0: 7cc3 a33e 45f3 9cbe 77b2 1e3d 2537 94be
000003c0: b879 8d3d 4e7f 123f abac 4a3d edcc b03d
000003d0: d325 463e 5872 c1bc 3a37 b8be 71cd debe
000003e0: 8c81 c23e be7a 2ebe bdd2 34bf 9dfd 0e3e
000003f0: f5d9 7ebe 3e0a 1fbc f98c 163e 8561 12be
-0.22810967 -0.39045444 -0.44487602 0.079930626 -0.4130785 0.0654546 -0.089625 -0.0055407523
-0.10627164 -0.29875153 0.3289806 0.55180246 0.3317119 -0.18465668 0.09125712 -0.32468718
-0.22841433 -0.030092794 -0.34225374 -0.41837156 0.48607302 -0.3723676 -0.1236477 0.4557065
-0.13484408 0.54546386 0.30634433 0.04987878 -0.001363045 -0.13282062 -0.57673836 0.25954536
-0.53816944 0.38083556 0.28394282 -0.52533495 -0.63422483 -0.5747222 -0.06470522 0.12062383
0.07616318 0.098160535 0.5379886 0.27189663 -0.3063672 -0.26919612 -0.45879513 0.29887447
-0.55124533 -0.24913755 -0.502558 -0.52134997 -0.29999068 -0.0566603 0.57211554 -0.5446815
-0.25642428 0.34506387 0.2311483 0.27661785 -0.47600514 -0.38308412 -0.054020595 0.26710492
-0.36702144 -0.43189275 0.38895848 -0.27789167 0.35439083 0.22503436 0.32976013 -0.040994782
0.22087552 -0.29110518 -0.09764093 -0.49218652 0.5447298 -0.10019695 -0.48522744 -0.23839003
0.20257223 -0.26705262 0.36875725 0.48189363 -0.74311656 -0.23450966 -0.11650859 0.36887738
-0.3945473 0.070053734 0.035423096 0.019762209 -0.37713423 -0.14806354 0.27928182 -0.5598385
-0.30393696 0.10589295 0.5484031 0.41363582 0.271216 -0.2953432 -0.3566642 0.041064993
-0.3262309 -0.3655117 -0.056255627 0.20273714 -0.26872846 -0.05424786 0.39788592 -0.11388865
0.21336538 0.47553945 0.056429856 0.5043273 -0.3562528 -0.41015604 0.33047768 -0.053795714
-0.435216 -0.087720655 -0.40854457 0.23566917 -0.16408858 0.23568518 0.5730335 -0.50395477
0.5006854 -0.0010779746 -0.5549616 0.07066601 -0.06817461 -0.2674489 0.5495936 0.16458057
-0.45814568 0.5012891 0.27756545 -0.35943934 -0.30045024 -0.5179694 0.3582839 0.16586018
-0.6155199 0.3064496 -0.3671366 -0.20767474 0.50209385 -0.23729467 -0.5263507 -0.614076
-0.0063116467 -0.44463515 0.20284666 -0.012463456 0.43753722 0.106958956 0.016697325 -0.24498135
0.06496681 -0.21712011 0.41366038 -0.43257782 0.50042826 -0.25540566 -0.40483874 0.0030199671
0.19823177 -0.05932947 0.13520531 0.43372616 0.044923067 0.4457099 0.50439847 -0.107881285
0.59620523 0.3205304 -0.62728006 -0.07410629 0.16863802 -0.43612137 0.572609 -0.25693345
-0.08748785 0.1896905 0.54675967 -0.22799401 0.49778715 -0.25520107 0.37069315 0.2740193
0.39473498 0.18224716 -0.20185995 0.42635664 -0.091568254 -0.31231004 -0.34689337 0.4413088
0.21101998 -0.05040942 0.13463272 0.41102412 -0.24452642 -0.19672674 0.4975503 -0.10807933
-0.13598995 0.48582676 0.39879167 -0.26691917 -0.054653276 0.43930957 0.43929982 -0.44234073
0.016099222 0.35436934 0.16181827 -0.47867778 -0.37954673 -0.055531994 -0.32920706 -0.6686844
0.07493399 -0.5074305 0.17738819 -0.039409023 0.3339993 -0.33286637 -0.025731744 -0.06421707
0.32990277 0.5865717 -0.05737098 0.46346295 0.3198508 -0.3065435 0.038744416 -0.28948322
0.06907982 0.572255 0.049481075 0.086328365 0.19350366 -0.023614094 -0.35979635 -0.43516114
0.3798946 -0.1703901 -0.7063406 0.13963933 -0.24887832 -0.009707032 0.14702214 -0.14295013

bias f4 [256]
00000000: 2ff3 de3d 0abf ec3c 8ea1 e93e d169 f7be
00000010: 2839 713e 28a8 0dbe 9d6c 55bd 97c0 8f3e
00000020: df9d 2d3e 1e8c cebe 7590 c9be 0c04 3e3e
00000030: f55a d23e 5fb8 10be 083b 253e f52a aebe
00000040: 3b57 d13e a448 febd ac5f 74be 936d d43c
00000050: a632 963e 5686 cb3e ef17 09bf 97f5 f53e
00000060: 9b72 de3e 7944 033d b117 6a3e d4c2 053d
00000070: 2dd6 093f 2a21 05bf 0ebb d4bd 0997 d2be
00000080: 70fd acbe 647d bcbe 2559 eb3e 8480 8dbe
00000090: a191 983e e0ed 0ebf 054a 8c3e 475d e83e
000000a0: a2ef 35be 7605 7a3e 83d0 02bf 60e0 6c3e
000000b0: 09ad 84be 8d73 14be edb8 8b3e 189c 07bf
000000c0: 006e 13be 05ce ec3e d9cd c0be 8b27 963d
000000d0: da8f 9e3e 719f 2fbe d208 5a3e 23f4 503e
000000e0: aad0 90be 8662 003e ca9c f03c 61ed debd
000000f0: ae46 ea3e e9f6 a23e 5b14 bcbe 1d5e bcbd
00000100: f2f4 003f 49a7 6fbe 61d6 d8bc 14ba d93e
00000110: 3eb6 c7be f3a4 07bd 3634 de3e 264d 03bf
00000120: 082e e93d 7eec 7a3e 0549 d1be adde 7e3e
00000130: 8c38 c4bd 0f9d 87bc b05b e2be 87d1 183f
00000140: 9055 b53d 12fe e43d a0c9 61be cb01 b0bc
00000150: ec4d f5be c063 68be ad72 933e 16c9 6dbe
00000160: 5fba e7be 0c7f 0b3f a57a 5cbe 961d 8dbe
00000170: 2026 cd3d bb27 79bd 8c60 f03e 2038 a43e
00000180: 6135 46be 4f54 86be 80b1 87bd feaf 013f
00000190: b7b7 653d 9023 9ebe 822f 00bf ba60 02be
000001a0: c5c9 0e3d b5ed d2be 3ca6 953e ef63 453e
000001b0: ec4d d6be 1098 1a3e 0efe 3a3e 8e07 1a3f
000001c0: 1a5c e4be a95d 63be 61b8 d1bd da39 38be
000001d0: 9954 28be bc3e 60be dd6f f4bd 5550 6a3e
000001e0: 7a72 a4be 514b b63e 338a 343e ce87 b3be
000001f0: 4136 16bd 1c04 883e 0ff7 0a3e 1a65 1a3f
00000200: 8f93 2a3e fc2f d53e 3ba4 a8be bb63 ddbe
00000210: eb7a 033f dac4 80be ca40 403e 5471 1b3e
00000220: 6844 e73e 0e5c 023e a7b6 843d fbbc 6ebe
00000230: c51f 013f 28e6 aa3e ea11 113d 032e 09bf
00000240: d2d3 00bf b67b 023d 7093 10bf d419 9abe
00000250: a2d0 973e 5c53 6f3e fb26 c0be 30a2 bcbe
00000260: c336 963e 5eba e1be 8836 0e3c 73d0 e8be
00000270: 797e e83d eb7f 6abe 1c4c 593e 9f86 c4bb
00000280: ced5 af3e 0d0c 043f db02 a8be 3ca4 04bf
00000290: 0cf1 e3be 3b30 76be c084 8cbd 6ab3 a0be
000002a0: 9b80 053e 4b7c 8e3e 2edc 813e cfc2 b3be
000002b0: 1361 ffbe ec10 943d fa3b 06bf dca5 60ba
000002c0: f461 39be c4fe bb3e 5331 de3c 2098 0cbf
000002d0: f794 e63e 188d de3e 7f0c 5abe 9849 213e
000002e0: e076 3c3b aa2b f23e ab55 cc3e 6229 84be
000002f0: 8143 963d d530 b33e 49ab 493e f52d 073f
00000300: 489b a0be 8611 e9bd bbba d0be 0bb8 a73e
00000310: 6dcb fdbe 9aef 87be 08f4 61be 7782 0bbf
00000320: 0d9f b43e a625 05be fe04 d23e 62cf ddbe
00000330: bc95 ca3e 839c 563d d502 afbe ad2a c9be
00000340: ff99 04bf bd13 8cbd 02ee f4bd f858 4bbe
00000350: bae3 61be e402 1b3e ac4e 79be 3f5c 843e
00000360: 7973 ffbe 5418 f5be ea47 c23c 25d0 5f3c
00000370: 5ce9 053f d092 97be 823e d23e 5804 85be
00000380: dfed 11bf 0fda fbbe 5f09 72be 22a6 bebe
00000390: bec1 c43e adf1 fe3d feaa 833e d460 2dbf
000003a0: f41a 30be be11 913e 0114 db3e bfd2 09be
000003b0: 3c87 55bd 7e15 073f e291 463d 2f7a a1be
000003c0: 9377 c73e 9aeb e8bd 864a 8a3e d537 9ebe
000003d0: 05b3 a83b f8fa 433c e27c 6f3e c2cd 6b3e
000003e0: 5673 02bf d8c6 fc3e d9f7 a23e 64ab 823e
000003f0: c224 173e b994 8bbe 0a19 2c3f 5cb3 c83d
0.10886227 0.028899688 0.4563107 -0.4832292 0.2355696 -0.13833678 -0.052105535 0.28076622
0.16954754 -0.40341276 -0.39368024 0.18556231 0.4108502 -0.14132832 0.161358 -0.3401715
0.40886864 -0.12416199 -0.23864621 0.025931155 0.29335517 0.39750928 -0.53552145 0.48038933
0.43446812 0.032047722 0.228606 0.032656506 0.5384243 -0.5200373 -0.1038724 -0.41130856
-0.33787107 -0.36814415 0.4596645 -0.27637112 0.29798606 -0.5583172 0.27400222 0.45383665
-0.17767194 0.24416146 -0.51099414 0.23132467 -0.25913265 -0.14497204 0.27289525 -0.52972555
-0.1439743 0.4625093 -0.3765705 0.07331761 0.30969125 -0.17150666 0.21292427 0.20405631
-0.28284198 0.12537584 0.029371638 -0.1088512 0.4575705 0.31829002 -0.3673428 -0.09197638
0.50373757 -0.23403658 -0.026469411 0.4252478 -0.39006227 -0.033116292 0.4339921 -0.51289594
0.11385733 0.24504277 -0.40876022 0.24889632 -0.09581098 -0.016554384 -0.44210577 0.59694713
0.088542104 0.111812726 -0.2204957 -0.02148523 -0.47911012 -0.22694302 0.28798428 -0.2322124
-0.45259377 0.54490733 -0.2153116 -0.27561635 0.100170374 -0.060828906 0.4694866 0.3207407
-0.193563 -0.26236197 -0.06625652 0.5065917 0.056083407 -0.30886507 -0.5007249 -0.12732211
0.03486039 -0.4119698 0.2922839 0.19276403 -0.41856325 0.1509707 0.18260977 0.6016778
-0.44601518 -0.22203697 -0.102402456 -0.17990819 -0.16438521 -0.21898931 -0.11935399 0.22882207
-0.3211859 0.35604337 0.17630844 -0.35064548 -0.036672834 0.26565635 0.13570808 0.6031052
0.16657852 0.41638172 -0.32937798 -0.4324015 0.5135943 -0.25150186 0.18774715 0.1517995
0.45169377 0.12730429 0.06480151 -0.23314278 0.504391 0.3337872 0.035417475 -0.53585833
-0.5032321 0.03185626 -0.5647497 -0.3009783 0.29651362 0.23371643 -0.3752974 -0.3684249
0.29338655 -0.440875 0.008679993 -0.45471534 0.11352248 -0.2290036 0.2122044 -0.0059974934
0.34342808 0.5158089 -0.3281468 -0.518131 -0.44519842 -0.24041836 -0.068612576 -0.31386882
0.1303734 0.27829203 0.25363296 -0.35109565 -0.4987875 0.0722979 -0.52435267 -0.0008569637
-0.18103772 0.36717808 0.027123129 -0.54919624 0.45035526 0.4346702 -0.2129383 0.1575073
0.0028757378 0.47298938 0.3990911 -0.25812823 0.07337094 0.34998193 0.19694246 0.528045
-0.3136847 -0.113802955 -0.40767464 0.327576 -0.49569264 -0.2654999 -0.22065747 -0.5449595
0.35277596 -0.13002643 0.41019434 -0.43322283 0.39567363 0.052395355 -0.34181848 -0.39290372
-0.5179748 -0.06839702 -0.11959459 -0.19858158 -0.22059527 0.15137821 -0.24346417 0.25851628
-0.49892786 -0.47870123 0.023715932 0.013660465 0.52309203 -0.29604197 0.41063315 -0.25979877
-0.5700359 -0.49189803 -0.23636387 -0.37236124 0.38429064 0.1244844 0.25716394 -0.67725873
-0.17197782 0.2833385 0.427887 -0.134593 -0.052130923 0.5276717 0.04847897 -0.3153853
0.38958415 -0.113730624 0.27009982 -0.3090197 0.005148294 0.011961691 0.23387483 0.23027709
-0.5095724 0.49370456 0.31829718 0.25521386 0.14760116 -0.27261904 0.67225707 0.09799835

weight f4 [64, 256]
00000000: 7d72 a5bb af96 f3bc f1ba 4abd d6a8 bebc
00000010: dd15 2d3c 5e03 05be 7396 5f3c fc06 d33c
00000020: 9fac b03d 93eb fdbb b9ae cebd 85ee 943c
00000030: 5298 02be fa0f ab3c b756 f33c 7ccf 4d3d
00000040: 08ce 94bd 917b 0dbd b560 5dbd 78e6 12bd
00000050: d235 68bd c262 f7bb 7f0d 3e3d f0da c9bc
00000060: 966d 6fbd ec9c 643d 4162 4d3c 2e21 03bd
00000070: aec3 91bd 59e4 5b3d d99e ad3c 834e bf3c
00000080: 985f b23c 0695 6f3d bdab 58be a613 823b
00000090: 657b 463d f262 2d3d f56c 28bd d7a3 66bc
000000a0: 80cf a1bd 17f9 a4bc d0d9 0abd fe77 8bbc
000000b0: 67cb 443d f4cb 19bd 2b7a cebd df1c 473d
000000c0: bd1b 26bd 589e b1bb 80bb 9fbd bbb0 0c3c
000000d0: 7747 5abd b64b ccbd 0fa4 d63b 5fd4 a7bd
000000e0: 1ff7 c73c 0882 babc 6bb9 b63c 582d 993b
000000f0: 982d f7bb e18d 0e3d 5e4f 9e3c edcb 263d
00000100: 8e08 ed3c 59cf c4bd 7f52 023d 62dc 7f3d
00000110: dd9d 423d 61b1 563c e2d3 f43b a417 86bc
00000120: f8c5 67b9 b86c 54be d598 bebc 4dc7 9abc
00000130: 179a 943c 7c5b d7bb cb13 bdbc b950 05be
00000140: bb9b 8d3d 897d 94bd 6fd5 983d 64a0 203d
00000150: c2a5 043c c6b2 cbbc d3f7 873d fa70 ce3c
00000160: 050e 113c 1bed 5d3d 60bb 14be 3f28 2c3d
00000170: 5056 fabc 43b3 3dbe 6fd1 923c 4993 90bb
00000180: 5f28 94bc 4d01 223d fd8f 9e3d 2d42 b83d
00000190: 8f0d cebc 1aa4 57bc 4eeb 03bd eff7 a4bd
000001a0: acd0 1b3d e73d b83d 1e87 233d dec0 82bc
000001b0: 6a89 03bd ff84 a1bb 70e3 ccbc 5d4d 5b3d
000001c0: fdb1 69bb 862a fc3c f192 b1bc 78db 1dbc
000001d0: b1a2 94bd 9d4b 943d 1d40 153d 5594 983c
000001e0: a545 68bd f192 5abc 4695 68bd ed8c 58bd
000001f0: b03b 963d 8935 103d 66d0 eebc 6020 8cbd
00000200: 8084 21bd f8bf 3c3d 4c56 74bc 5cdb 1cbb
00000210: 53bd 983d 6c0f 95ba 7ce0 023d 1205 0dbd
00000220: a36f c33c b08f 763d d49d a53d 4374 debd
00000230: 931a 65bd b5f0 19bd 72be 37bc c0e0 f43c
00000240: 96f9 033d 0cb2 b33b a6f5 b2bc 0a35 c1bd
00000250: 0b66 81bd 9bce cd3d 078a 833c 3359 513c
00000260: f8d7 473d 31c3 df3b 7c57 f3bc 0b4e 1c3d
00000270: 7197 39bc fd17 08bd 710a 9ebd bd1e 823c
00000280: 3d68 11bd e7e2 9e3d 6f42 a03d 903f 1b3c
00000290: 8747 b1bc 7f0c 133d e9e1 e23b e840 e3bc
000002a0: 2b5c 35bd 022e 533b 59c8 a33d 0727 74bc
000002b0: 7dbe 83bd 14cf 3bbd dfff 073d 2ca4 47bd
000002c0: 0be1 1ebe e7ad cdbc 5177 5f3d 00ff f0bc
000002d0: 45b5 743b c31e 76bc e71a 343c efd3 4abd
000002e0: 09d4 13be 3c2e 9d3d 8ed3 3bbc cbd0 d13c
000002f0: 6f3f 82bd 7479 d2bc 6f49 4e3d 341e de3c
00000300: a6f3 653d 3afc 90bd 2705 4c3d 798b 1bbd
00000310: d939 c4bd b524 6c3c b8fe 553c feaf 943d
00000320: 15c6 47bd 90ff f4bc 06f2 423b 2fb8 c53c
00000330: abfe 9cbc 6f4f a43d bdb8 5c3d a63e 433d
00000340: 3566 edbc a0cc 93bd 037d f0bc 13b9 d7bc
00000350: 5c90 54bd b039 62bc 72eb c43c b1d7 c3bd
00000360: d381 ab3d b753 d63c 1d32 f9bc 3595 0ebe
00000370: 0e38 6ab9 e1e8 053d b852 1c3d 6985 8d3c
00000380: 6cf7 773d 6013 9cbd 595a 98ba b4f8 133c
00000390: 7674 5c3d 75a5 ab3d 1324 65bd f157 93bc
000003a0: 5ef4 ffbd a30f c4bc 8f60 66bc 8990 a43d
000003b0: dfa4 a73b 2fd6 3f3d 28e2 303d 616e 873d
000003c0: 2abc a13d 5432 f73c 25cb 8c3b a902 a6bd
000003d0: 28bf a43c 363c fa3c a657 c63c 47a5 08bb
000003e0: e7fc e13c 4bab 4b3d d381 d0bc 66df 93bd
000003f0: e653 663d 6579 7bbd 1922 673c 10fd 363d
-0.0050490485 -0.029734937 -0.049494687 -0.023273867 0.010564295 -0.12989566 0.01364671 0.025760166
0.08626675 -0.00774903 -0.100919195 0.018180141 -0.12753418 0.020881642 0.029704435 0.0502467
-0.0726586 -0.03454167 -0.054047305 -0.035864323 -0.056691952 -0.0075496146 0.04639959 -0.02464053
-0.05845412 0.055813715 0.012535633 -0.032014064 -0.07117401 0.053684566 0.021193909 0.023352867
0.021774098 0.05849173 -0.21159263 0.0039696274 0.048457522 0.04233069 -0.041119535 -0.014077148
-0.079009056 -0.020138307 -0.03389913 -0.01702499 0.048045542 -0.03754802 -0.100818954 0.048611518
-0.040553797 -0.0054204874 -0.07799435 0.008587058 -0.05329081 -0.09975378 0.006550319 -0.081948034
0.024409829 -0.022767082 0.022305211 0.004674595 -0.007543277 0.034803275 0.019324955 0.040721823
0.028934743 -0.09609861 0.031816956 0.062466033 0.04751383 0.013103814 0.0074715475 -0.016368695
-0.00022103626 -0.20744598 -0.023266235 -0.018893862 0.018139882 -0.006572185 -0.023080727 -0.13019074
0.06914469 -0.072505064 0.07462584 0.03921546 0.00809616 -0.02486552 0.066390656 0.025200356
0.00885344 0.0541812 -0.14524603 0.04203057 -0.030558735 -0.18525414 0.017922131 -0.004412089
-0.018085657 0.03955202 0.07742307 0.08996997 -0.02515295 -0.013161683 -0.032206826 -0.08055102
0.038040802 0.08996182 0.03992378 -0.015961107 -0.03211347 -0.0049291844 -0.025010794 0.053540576
-0.0035659068 0.030781996 -0.021676512 -0.009634845 -0.072575934 0.072409846 0.036438096 0.018625418
-0.056707043 -0.013340698 -0.056782983 -0.052868772 0.07335603 0.035207305 -0.029152106 -0.068421125
-0.039433002 0.046081513 -0.014913153 -0.002393446 0.07457986 -0.0011372394 0.031952366 -0.034428664
0.023856943 0.060195625 0.08086744 -0.10862019 -0.055933546 -0.03758307 -0.011214839 0.029892325
0.032220446 0.0054838713 -0.02184565 -0.094339445 -0.06318291 0.100491725 0.016057028 0.012777614
0.04878995 0.0068286886 -0.029704802 0.038160365 -0.01132761 -0.033226002 -0.07716835 0.015883798
-0.0354998 0.07758122 0.07825171 0.009475604 -0.021640552 0.03590059 0.0069239032 -0.02774091
-0.04427735 0.0032223468 0.07997198 -0.014901883 -0.06432817 -0.045851782 0.033203002 -0.04874055
-0.15515535 -0.025107337 0.05455715 -0.029418468 0.003733949 -0.015021983 0.010992742 -0.049518522
-0.14436354 0.07674834 -0.011464013 0.025612256 -0.06359755 -0.025692679 0.050363 0.027114011
0.056140564 -0.070793584 0.0498096 -0.03797481 -0.09581346 0.0144130485 0.013061218 0.0726013
-0.04877289 -0.029907018 0.0029746308 0.024135677 -0.019164404 0.08022963 0.053887118 0.047667168
-0.0289794 -0.072167635 -0.029356485 -0.026333367 -0.051895484 -0.013807699 0.02403805 -0.09562624
0.083743714 0.026162965 -0.030419404 -0.13924105 -0.00022336861 0.032692794 0.038164824 0.017275529
0.060538694 -0.07620883 -0.0011623605 0.009031463 0.053822003 0.08381168 -0.055942606 -0.01798627
-0.12497781 -0.023933237 -0.014061107 0.080353804 0.0051160897 0.04683512 0.04318443 0.0661285
0.078972176 0.030175366 0.0042966777 -0.08105976 0.020110682 0.030546289 0.024211716 -0.0020850466
0.027586414 0.049723905 -0.02545253 -0.07220344 0.056232356 -0.061395068 0.014107251 0.044674933

bias f4 [64]
00000000: 0f28 223b 91f4 7f3d 807e e23c 680c 59b9
00000010: 060f f9bc a207 1dbc d495 eb3c 096c 04bd
00000020: 0370 f43d a09d 5f3d 54f1 86bc b6f4 83bb
00000030: b766 173d 2fc0 45bd cb93 1ebd 401d 1334
00000040: 086a c2bb 877f 3fbd 5e1c 9638 8bd5 693d
00000050: 0d2a c53c d972 813c aff4 efbb c505 4bbd
00000060: b840 d9bc 48b3 0abd a13b 86bc 6d35 a33d
00000070: 9319 9c3d 8694 8fba d97a a43c 636b bbb8
00000080: 8645 cdbc d21a 89bb 5564 5e3d 5e40 a63d
00000090: 59cc 963d a621 1a3d c144 a3bb 84bf 9abc
000000a0: 0a9c 8f3d 1f9c afbb 91d6 303d b6d5 cfbc
000000b0: ad97 753d 39d0 a9bc 84bc 5e3c f999 26bc
000000c0: da75 5ebd 3d72 21bd abdc 5f3c 9fa0 41bb
000000d0: fe04 5b3d 82d9 14bd dba9 72b9 14fd 0bbd
000000e0: aaf6 e539 f9fb 25bd f53a 0d3e acaa 8cbc
000000f0: 36d8 2bbc b3d6 00b9 981b 493d 0a00 d3bb
0.0024743115 0.062489096 0.02764821 -0.00020699354 -0.030402672 -0.009584339 0.028757967 -0.032329593
0.11935427 0.054593682 -0.016472496 -0.0040269746 0.03696319 -0.048278984 -0.038715165 1.3701083e-07
-0.00593305 -0.04675248 7.157841e-05 0.057088416 0.024067903 0.015801834 -0.0073228697 -0.04956605
-0.026520118 -0.033862382 -0.016385855 0.079691745 0.076220654 -0.0010954298 0.02007811 -8.936857e-05
-0.025057565 -0.0041841054 0.054294903 0.08117746 0.07363195 0.037629746 -0.0049825613 -0.01889015
0.07012184 -0.0053591873 0.043173376 -0.02537046 0.059959102 -0.020729171 0.01359475 -0.010168546
-0.05431161 -0.039415587 0.013663451 -0.00295452 0.053471558 -0.036340244 -0.00023142195 -0.0341769
0.00043862063 -0.040523503 0.13792022 -0.017171226 -0.01048856 -0.00012287013 0.04909858 -0.0064392136

weight f4 [32, 64]
00000000: 7c19 83bc 427e 9dbb b598 7d3d 53af 31ad
00000010: 8e43 bdbc d193 0bbe 29ec b0bd 651e baae
00000020: 0de9 8a3b 5c88 c6bd abd2 9a3d a219 273d
00000030: bddc 033d 7c8a 8d3c 5433 7a3d fab4 7eab
00000040: bd4b 63bd 39f1 9e3d b108 f42d 0980 85bc
00000050: ef96 0cbc 4153 84b2 1885 2d30 81ac 7ebd
00000060: e078 863d ee1c 68bc 0a37 24bd 85f5 0b3d
00000070: b729 5ebc 5265 6cbc 35ab 95bd e9cd 502d
00000080: cbb0 11be 60b4 593b ec33 95bd 5ed6 26bc
00000090: 4211 033d a407 b63c 54b2 06bc 4820 4abb
000000a0: 0bf6 8bbc 8672 0ebd ad37 b23c c9af 2bb7
000000b0: b125 9e3c 958d 06af 00dd 4b3d cdee c13c
000000c0: 34c3 b6bc e732 8e3d 9751 cbbd 8409 033a
000000d0: 6d17 59bc a4d7 66bc 9d88 f3ae 2b21 893d
000000e0: b220 48bb 6ae2 8d3c ec09 9d3c 4ffb 05be
000000f0: cf9c 18be 2d25 0dad 6b28 d6bd 18e4 15be
00000100: d1d4 193d 5fc3 4d3d 79a3 fdba b228 502e
00000110: 0851 13be a668 c3bc e5f4 79ad 7153 13bd
00000120: 92b8 9fbb 0386 53bd 5bba 86bd 9061 1b3e
00000130: 255b dabd 1c34 9938 9a09 e0bc e229 97ad
00000140: 67e6 3e3b 49c6 fb3b 86f9 7eac 732a 243e
00000150: 4f57 efbd e8ae de29 5a1c ea32 186a 8a3d
00000160: 75c3 823d ebcd 613d d753 ecb6 9b02 29be
00000170: fc0f e03d 44d9 523c e386 8b3d 1e7d 0f2d
00000180: 4456 16be ace9 8731 834d 9fbc 0e39 88bd
00000190: 33f0 26bd ea14 3dbd c084 06be 3495 d23d
000001a0: c06d d6bd cf44 a531 6f03 5d3d 2b6e 9230
000001b0: 1112 61bd 4602 03b8 b45f 353d 620e b03d
000001c0: 40b2 84ad 5bd4 fd3c b2d7 4fbd a16d d535
000001d0: b796 313e bb19 b6bc 743d 322c 50da d1bd
000001e0: 1208 7bae d2eb f234 8726 6b3d 97f1 62bd
000001f0: 866e 94bd 8a80 472d 20ea 9c3c c124 c3bd
00000200: 968f 8abd 25e8 a63d 4d20 1d3d 3e44 3d3c
00000210: a4f1 b1bd 06ef b13b 0242 53bd 419a 8caf
00000220: f7d1 babd 7032 a5bd 7e80 dcbc 377c 80bc
00000230: ca8a 8f3d 6915 053e d3b7 9e3c 0d31 0532
00000240: 7c24 683d 90ad 51bc 5836 b33a f7df baab
00000250: ac62 94ae 15b1 b0bd 9880 24bb 33a4 60bd
00000260: c40c 303d a0d5 03be 1e8f ce3c a12a 8c3d
00000270: 21b7 a22c 9e9d 71bc 8c9e f1bd 15f3 b13a
00000280: 463e e63c d6f2 6bb7 5116 ebbd 3be4 5bbd
00000290: e9ce c8bc 9fad 89bc dc3a 6f3c 0801 08be
000002a0: b4b2 aebb 87e2 f73d 9251 a1bd 949a d8bd
000002b0: 2eb1 883c 365f 72bd 5a78 813d 4567 dd3d
000002c0: 78d1 dc3d 0245 3b3d 3168 f23b c2f5 293b
000002d0: 6c7b 4eac 1242 bebd 30fb bfbc 948f e0bc
000002e0: 5b52 dc3d 6224 56bd b8ad cbbc 4535 9c3d
000002f0: ecab 88bc 3849 5e39 b92d 513b a4b8 61bd
00000300: 482b e53c 48b8 4cbd dbab 003e 0f99 5ab6
00000310: c686 953d 72e5 2d3c 9ec5 86bd 0343 0d3c
00000320: d434 34bd 2f31 27bd 15f2 e73d 5845 97bd
00000330: b139 343d d73f 6cbd 2c6c eabd 595e 8cb7
00000340: 6c47 123e dbb2 683d d7f8 eeb7 8369 5cbd
00000350: e7ac b83c e563 543c 4a98 0935 ce76 d9bc
00000360: c3c3 663d b534 fa3d b37d 46bd 0dcf 843d
00000370: 367b a73c 7cc4 823d 7285 ad3c ad13 6a30
00000380: 176f 23bd e3c0 073d add0 86bd 7da8 c6bd
00000390: 1244 0a3e 4f18 513c 89c4 093e e433 78bd
000003a0: 0680 55bd 1e5f 3cbd 7c08 bf3d 8fde a6ad
000003b0: 0194 133e fe03 1133 7fc6 babd a8f8 31bc
000003c0: 5171 893d 8e71 beba eba3 263d c5cb d83a
000003d0: 0f30 1bbd 75b8 093e 8e4b 022d a365 17bc
000003e0: fd92 4a3d 8c96 92bc 45c4 273e 74d7 fe3c
000003f0: d6a2 48bd 86ae 962d 3279 583d 88d9 2c3d
-0.016003363 -0.004806311 0.06191321 -1.0100215e-11 -0.023103502 -0.13630606 -0.08638794 -8.4637e-11
0.0042392076 -0.09693977 0.07559713 0.04079593 0.032192934 0.017277949 0.061084107 -9.0490083e-13
-0.05549215 0.07760853 2.7743448e-11 -0.016296403 -0.008580907 -1.5404682e-08 6.312617e-10 -0.06217623
0.06566024 -0.014167054 -0.04009155 0.034169693 -0.01355975 -0.0144284535 -0.07308046 1.1869152e-11
-0.14227597 0.0033219084 -0.07285294 -0.010182945 0.03199888 0.02222044 -0.008221228 -0.0030841995
-0.017085096 -0.034777187 0.021755064 -1.0233322e-05 0.019305082 -1.2237529e-10 0.04977131 0.02367344
-0.022309877 0.069433026 -0.099276714 0.00049986714 -0.013250214 -0.014089499 -1.1074628e-10 0.066957794
-0.0030537066 0.017319877 0.01916977 -0.13084148 -0.14903568 -8.023177e-12 -0.10456928 -0.14637792
0.037556473 0.05023515 -0.0019351087 4.732987e-11 -0.1438638 -0.023853611 -1.4208389e-11 -0.035968248
-0.0048742974 -0.051641475 -0.06578513 0.15173936 -0.10661916 7.305315e-05 -0.027348328 -1.7185312e-11
0.002912903 0.0076835495 -3.6234084e-12 0.16031818 -0.11686575 9.889122e-14 2.7254078e-08 0.06758517
0.06384937 0.05512802 -7.0431083e-06 -0.165049 0.10940549 0.012869183 0.06812837 8.1563905e-12
-0.14681345 3.9555825e-09 -0.01944614 -0.06651507 -0.040756416 -0.046162523 -0.13136578 0.102823645
-0.10470152 4.8099547e-09 0.053958353 1.065421e-09 -0.05494887 -3.123495e-05 0.044280723 0.08596493
-1.5085821e-11 0.030985048 -0.050742812 1.5901643e-06 0.1734265 -0.022229066 2.5329435e-12 -0.10246718
-5.707796e-11 4.5247594e-07 0.05740979 -0.05540618 -0.07247643 1.1340382e-11 0.019154608 -0.095284946
-0.06765668 0.08149747 0.038360883 0.011551915 -0.086886674 0.005430105 -0.05157662 -2.5575456e-10
-0.09122079 -0.08066261 -0.026916739 -0.01568423 0.07008894 0.12996449 0.019374764 7.752772e-09
0.05667542 -0.012797728 0.0013672812 -1.3278258e-12 -6.7477884e-11 -0.08627526 -0.0025101062 -0.054844093
0.042980924 -0.1287446 0.025214728 0.06844068 4.6246483e-12 -0.0147470515 -0.117978185 0.0013576472
0.028105866 -1.4063631e-05 -0.11478866 -0.053684454 -0.024512725 -0.016806422 0.0146014355 -0.13281643
-0.0053313617 0.121037535 -0.078768864 -0.105763584 0.016686048 -0.05917283 0.06321783 0.10810713
0.107821405 0.045720108 0.0073976745 0.0025933837 -2.9342874e-12 -0.09289946 -0.023435205 -0.027412213
0.107578956 -0.05228079 -0.024863109 0.07627348 -0.016683541 0.00021198846 0.0031918122 -0.055107728
0.02797474 -0.04998043 0.12565558 -3.2573623e-06 0.073010966 0.010613786 -0.06580661 0.008621934
-0.043995693 -0.04081839 0.1132547 -0.07386273 0.04400033 -0.05767807 -0.114464134 -1.6733235e-05
0.14285058 0.056811195 -2.8487686e-05 -0.05381156 0.022543384 0.01296327 5.1258087e-07 -0.026545908
0.056339037 0.12217084 -0.04845972 0.06484804 0.020444494 0.06385133 0.021181796 8.5156665e-10
-0.039900865 0.033142935 -0.065827705 -0.09700105 0.1350253 0.012762143 0.13453878 -0.06059636
-0.052124046 -0.04598915 0.0932779 -1.8970851e-11 0.14411928 3.3764074e-08 -0.091198914 -0.010862507
0.067110665 -0.0014529692 0.040683668 0.001654022 -0.03788763 0.13449271 7.406421e-12 -0.009240541
0.049456585 -0.017894052 0.16383465 0.031108595 -0.048983417 1.713053e-11 0.052849956 0.04219964

bias f4 [32]
00000000: 5efc f1bc ec5e 16be 099f 9cbd f50d 98bd
00000010: 20a9 afbd 89f9 963b 9cac 553d b56d fb3d
00000020: 655f a83d b172 aa3d b9f1 c4bd 3c8d 5c3b
00000030: 656d 193d 9a0e c93c ea1f ccbd d8eb 6632
00000040: 7511 8c3d 4eaa 8d3d 1619 bc3d 449d 243d
00000050: 4bef 52bd ace0 e4bc 96e7 a9bd 8b92 923b
00000060: e549 a7bd 2679 43bd ea57 c93d d7ff 72bb
00000070: 0549 4ebd a72e dfbb eb2e 3a3c 0069 74bd
-0.029539283 -0.14684647 -0.07647521 -0.07424537 -0.0857718 0.0046073836 0.052166566 0.12276784
0.0822132 0.08322657 -0.096164174 0.0033653518 0.037457842 0.024543095 -0.099670246 1.3441387e-08
0.06839267 0.06917249 0.09184472 0.040189043 -0.05149774 -0.027939163 -0.08296125 0.0044730357
-0.08168391 -0.047722958 0.098312214 -0.0037078762 -0.050362606 -0.0068109813 0.011363725 -0.05967045

weight f4 [8, 32]
00000000: 6210 8f3c 50c2 303e 1fc8 6a2b 8710 1ebe
00000010: eb9f 8ebe e921 d13d 7284 813e 7b4d b93d
00000020: ae2e 3abd 3405 83b3 5d1e 393e f132 05bd
00000030: 2389 0e3d dcf4 1d3c 9c4a 00aa 721c 4ab3
00000040: 28f5 6a3e 74cb 3abc 4ac8 b9bc 9986 be3d
00000050: 4856 c12d f0b6 75b0 7c2a b73c e0f5 ae32
00000060: 94f4 bb3b 458d 39bc 604e 643e 1f84 eaac
00000070: c9d8 073d fbf4 193e 3b21 1cbe 3dc7 f02c
00000080: f2f7 daad e95f 0bbd 66c0 50ad 36d8 bfbc
00000090: 91c0 3cbd 7297 ebbc 862d 14bd 7227 b2bc
000000a0: 3de8 8b2d b4d8 93af 1441 d5bc 8518 c7bc
000000b0: 7b7a dcbc a441 c2bc 1281 6cb0 962a 13ab
000000c0: 41e1 dbbc c1d2 bebc 2748 c5bc 8e59 dabc
000000d0: c04d 8eae 46d1 7d2d 5dd0 b0bc 9765 36ad
000000e0: c4da 97b1 f417 b9bc 6f6c dbbc e5bb aead
000000f0: b04e d0bc c2a5 f2bc 6ef7 d63c 6857 bca9
00000100: 848e edbd 0907 303e bc2b 3bbe d6e4 813c
00000110: 4c85 93be badb 36be 8edd f13d 2369 2a3c
00000120: dc58 1bbe 2d2c 20be ed73 5ebb 45b0 2abe
00000130: 593c da3d f74a 54bc 7cf8 033e fdb9 7db7
00000140: 2f27 183e 1d77 153e 9775 c53d a2e7 0cbe
00000150: dd23 82bd 0e36 79b7 e6da 073d 8d47 9dbc
00000160: 94d9 0f3e 1fc5 ab3d 4c0e 303e 4825 b2bc
00000170: d292 943c 2ba5 0e3d 68ce dfbd eabe 56bd
00000180: 7b6c 07be a2f5 4fbd 549a 8cbd d031 f9bd
00000190: e5ec 803e d6c0 1d3e 1afd f6bd 9cfd 0e3e
000001a0: c493 98bd 08a5 05be 2530 acbd 7ec5 243e
000001b0: 820b c63c 08b0 db3d 3c63 263b 0e4d 0fb2
000001c0: 5bd4 863c fee5 d03a 2e88 453e 2c51 d1bd
000001d0: 57a4 6c3d 7abc f2b8 e441 13be a00f 7fbc
000001e0: af02 f63d 83ab 5dbb 2877 75be 0213 90bd
000001f0: 9d01 043e 84b4 0bbe 9252 a53d efe9 17be
00000200: 78d6 293e 3b23 00be 5349 e4bd 4cfd f43d
00000210: 00f9 f33d fd9a 283e c38e 25be 981b ed3b
00000220: cb1c 3c3d 86f9 d3bc 9d93 bdbd 1e02 37bb
00000230: 8729 d63d 1598 c83c 5eb4 4c3d fd08 5433
00000240: eb80 613d ee5b 873d eb1d 263e 08da 2a3e
00000250: 4231 d63d 7344 e23d 0fbb ce3d bdf2 243e
00000260: 1a1e 19bb 15ad 443e a2e7 45bd f329 ce3d
00000270: f98e b13d ae16 2e3d 170c 003e f8f6 1a3d
00000280: 74a7 c23b a905 6bbe b784 de3b 7fc1 afbd
00000290: 80df b2be 5e0b 24bd c235 283f ef7f 333c
000002a0: 4111 032c b243 173a e67a 88bc 4586 0d3e
000002b0: b69a b0bd d488 11be 7586 cbbb ee63 252f
000002c0: c5c6 97be e1f3 5dbd d016 13be d1da a7bd
000002d0: 8450 95ad b2d9 792e 6fda fd3d baec ce38
000002e0: c20f 8fbc bc6d 073e 44ce a6bd d3d5 923b
000002f0: 1b74 e5bd 2087 a9be 3efc 833d 9623 dd29
00000300: 3e87 acbd 885e 0e3e bd12 373e 3587 b3bc
00000310: 756f 5fbe 78bb 70bc 7c65 51bd 987e 95bc
00000320: ebd2 c73d 784d a83d f900 9e3d 5b1d 8d3d
00000330: 4c02 343e cf95 4f3e 6ae1 a5bd 2a5b 86b2
00000340: 157d 313e ee9a 3cbd 559b c43d c8d1 463e
00000350: e869 f0bd 9365 56bc b7ac 82bd 7968 88bc
00000360: 3dee 063d aefb 85bb 797b 673e 2a52 3abd
00000370: 9973 90bb 5d1b 243e cac0 15be 40c5 68bd
00000380: 3d61 b5bd 6eaf a9bd b12f 843d daa1 3f3e
00000390: f597 8a3e 546c e3bd 9ce6 1b3d f05d 473e
000003a0: bad4 8ebc d544 d4bd fe04 243d cde9 0c3e
000003b0: cc01 1b3e 0d3c 873d 86a1 39bc 5cf5 c3b2
000003c0: 5714 8cbd 5965 3c3d 776d 4d3e 4133 393d
000003d0: 3126 04be 78cd 863d bd5d 943d bd80 c1bd
000003e0: ca40 113d da84 443e 1bcb 8fbe 2d18 9d3c
000003f0: 998f c5bd 3479 32bd a351 a83c f3e8 333d
0.017463867 0.17261624 8.3411224e-13 -0.15435992 -0.27856383 0.10211546 0.2529636 0.09047981
-0.045454673 -6.101109e-08 0.18077989 -0.032519285 0.034798753 0.009640899 -1.1394569e-13 -4.705766e-08
0.22945082 -0.011401046 -0.022678513 0.09303016 2.1979876e-11 -8.939045e-10 0.022359125 2.0368077e-08
0.005735943 -0.011325185 0.22295523 -6.6653484e-12 0.033165727 0.15034859 -0.15247051 6.84333e-12
-2.489384e-11 -0.034027014 -1.1866152e-11 -0.023418527 -0.046082083 -0.028758738 -0.036176227 -0.021747325
1.5905605e-11 -2.689312e-10 -0.026032008 -0.024303684 -0.026913872 -0.02371294 -8.603972e-10 -5.228399e-13
-0.026840808 -0.023293855 -0.024082256 -0.026654031 -6.4712236e-11 1.4427853e-11 -0.02158373 -1.036806e-11
-4.419549e-09 -0.02259443 -0.026785104 -1.9864952e-11 -0.025428146 -0.029620055 0.02624103 -8.36404e-14
-0.11599448 0.17190184 -0.18278402 0.015856188 -0.28812635 -0.17857257 0.11809836 0.010401043
-0.15170616 -0.15641852 -0.003394361 -0.16668804 0.10656042 -0.012957326 0.12887758 -1.5123279e-05
0.14858697 0.1459622 0.09641569 -0.13760236 -0.06354497 -1.4854142e-05 0.033167742 -0.019199157
0.14047843 0.08387207 0.17192954 -0.021746293 0.018136416 0.034825485 -0.10928041 -0.052428164
-0.13224976 -0.050771363 -0.06865373 -0.12167704 0.25180736 0.15405592 -0.12059994 0.13963932
-0.07450059 -0.13051236 -0.0840762 0.16090962 0.02417541 0.10726935 0.0025388738 -8.341216e-09
0.01645868 0.0015937684 0.1929023 -0.102205604 0.057773914 -0.00011574566 -0.14380604 -0.01556769
0.120122306 -0.0033824153 -0.23971236 -0.070348755 0.1289124 -0.1364308 0.0807239 -0.14835332
0.1658572 -0.1251344 -0.11146798 0.11962375 0.11912727 0.16465373 -0.1616774 0.0072359554
0.045925897 -0.025875818 -0.092566706 -0.0027924846 0.104571395 0.02448658 0.0499767 4.936827e-08
0.055054586 0.06609331 0.1622235 0.16684735 0.10458614 0.11048212 0.10094272 0.16108222
-0.002336389 0.1920665 -0.048316605 0.10066595 0.08669848 0.042502098 0.12504612 0.037833184
0.005940372 -0.22951378 0.006790723 -0.08581828 -0.34936142 -0.040049903 0.6570703 0.010955795
1.8625798e-12 0.000577028 -0.016660165 0.13820751 -0.08623259 -0.14212352 -0.006211097 1.5042165e-10
-0.29643837 -0.05418766 -0.14364171 -0.08196033 -1.6975095e-11 5.6809397e-11 0.123951785 9.866939e-05
-0.017463569 0.13225454 -0.08144811 0.0044810562 -0.11203786 -0.33110905 0.06444596 9.820545e-14
-0.08424233 0.13903248 0.17878242 -0.021915058 -0.21819861 -0.0146931335 -0.051122174 -0.018248841
0.09757026 0.08217901 0.07715029 0.06890365 0.17579001 0.20271991 -0.08099635 -1.564111e-08
0.17332871 -0.04604619 0.0959994 0.19415963 -0.1173895 -0.013085741 -0.06380599 -0.016651379
0.032942045 -0.0040888404 0.22605695 -0.045488514 -0.0044083116 0.16026063 -0.14624324 -0.056828737
-0.08856437 -0.08285414 0.06454409 0.18714085 0.2706906 -0.11104646 0.038061723 0.19469428
-0.01743542 -0.10364691 0.040043823 0.13761063 0.15137404 0.06603251 -0.011330014 -2.2812564e-08
-0.06839817 0.04599509 0.20061289 0.045214895 -0.12905194 0.06582159 0.07244442 -0.09448383
0.03546218 0.19191304 -0.28084645 0.019176567 -0.0964653 -0.04357262 0.02054674 0.04392333

bias f4 [8]
00000000: 4f6d 163e 9236 11bd 9a43 17be 3ff8 053e
00000010: b6f7 aebc a66a 983e f4be 783d 315f a43d
0.14690135 -0.035452433 -0.14771882 0.1308298 -0.021358352 0.29768866 0.060728982 0.08025969

weight f4 [2, 8]
00000000: ae31 15be 7262 f9bc 6aea dfbd d676 1a3e
00000010: e952 a53e a724 5bbe c5f6 ba3e 4b1c 963e
00000020: 1df2 643e 6ea0 293d 3b5b 823e 9dc9 89bd
00000030: ea6e 823d 231e 14bf 9592 903e 6c5b c2bd
-0.14569733 -0.03044245 -0.10933383 0.15084395 0.32289818 -0.214007 0.36516395 0.2931846
0.22357984 0.041412763 0.25460228 -0.06727908 0.063688114 -0.57858485 0.28236833 -0.094900936

bias f4 [2]
00000000: 5b06 abbe 7820 b6be
-0.33403286 -0.35571647

weight f4 [8, 2]
00000000: b6cc 063f 009e 34bf fc15 113f 3159 a2be
00000010: 082e b93c f6ed 283f 8d7a 0b3f 5988 5ebe
00000020: 0b58 a0bc 637a 103f f1b8 253f e367 29bf
00000030: 9451 013f dd9f e2bd 6fee 9c3d ea33 103f
0.52656114 -0.7055359 0.5667417 -0.31708673 0.022604957 0.659881 0.5448387 -0.217317
-0.019573232 0.5643675 0.64735323 -0.66174144 0.50515103 -0.11065648 0.07662665 0.56329215

bias f4 [8]
00000000: 7383 90be 252d 413e 9361 e8be 5f76 ee3e
00000010: 6740 293e da5d 243e c487 b53d c2f4 a2be
-0.28225288 0.18864878 -0.45386943 0.46574685 0.16528474 0.16051427 0.08863786 -0.3182736

weight f4 [32, 8]
00000000: 7d2e e5be 4c41 32bd a746 0d3e 3d26 9f3e
00000010: 27df 7d3d d740 d6be 1749 3abe eee7 b63d
00000020: 92ed e2bc 3050 553c 25a9 b43c f2f4 7f3c
00000030: f4a1 d03c 1bea 46ba 9abd b33c 5db6 a13d
00000040: 4377 adbd 7251 34bc c167 cf3d 98d4 a43d
00000050: 0d54 383e 247c a6bc 8842 b43d b7a4 da3d
00000060: 896e 843d 7f52 b1be 085f 2a3d 3357 fabd
00000070: cbae 9a3e 7034 9dbe 74fe adbe 3dec 473d
00000080: 840f a83c 1004 093a ab2c cabc 5837 e8bb
00000090: c30f 03bd ce38 3b3c 9eae 2bbb 7de3 94bc
000000a0: 84bb 333e fbd0 263e fc41 efbc ccc0 4dbe
000000b0: 91ca 4cbe 5a48 af3e 255f d43c 4d7c c83d
000000c0: 3c3d 4b3e fd6c b23e 1cf0 f8bc a72b 36bd
000000d0: 77fc 9e3d 1c62 873e 3c35 4b3d 6fca 20bd
000000e0: da50 34be 7c37 9c3e 9092 133d 1681 11be
000000f0: 062d 2f3e 6cec a73e c785 86be bed4 8d3d
00000100: 8721 07bb 3f69 4dbd 60ca 18b8 31b0 4bbd
00000110: 137c 203c b6a5 d8bc c819 9bbd 407a 82bc
00000120: f5b9 393d ddbb ae3e a9ba 46bc aaf4 2d3e
00000130: 04fa 4f3e f1d5 ab3e 908f b53d 5e07 6b3e
00000140: fa4e 803e f3c3 d23d 17cc 323e caa3 863c
00000150: 8b18 0a3e b9c0 3fbe 1257 32bd 70d2 ca3d
00000160: a4bc 9d3d a412 ca3c 2a7e 3fbe 5c8a 70bc
00000170: fa6a 81bc c417 a53e fe6a 0ebe 2d6b 39be
00000180: 9d7d b83e 2e5e f9bc 88d1 1abe f3aa 1cbd
00000190: e7a1 adbe e4a3 943e 509d 4dbe 67de 6dbe
000001a0: 3748 c8be 7249 85be aa04 613d f66c 433e
000001b0: 6336 463e 9c55 61be 9e49 fbbd f336 473e
000001c0: a609 57ba 5008 7b38 fd1b 0fba 6708 222f
000001d0: cd9c 8db3 e571 2db9 805d eab1 fafd e8ba
000001e0: 2e35 b33e 1595 85be cb58 693c 86a4 a93e
000001f0: 4293 9cbe 6bb1 fe3d 3f4f 053c fc94 d639
00000200: f0c8 4d3d eab8 52be a0eb d03d e7d4 993d
00000210: 3e30 7a3e 8691 3a3d 07a2 193e abf2 20be
00000220: fbc5 dc3d 1bc5 ff3d 8a2f 093e 07cd a8bd
00000230: fcc2 5abe 3446 4e3e b8d2 4c3e 5490 213e
00000240: db25 95bd 0a2c a63e 52a5 8cbd 1745 dd3d
00000250: 63f6 00be a487 373e 4078 20be e4e8 bcbd
00000260: d116 b8bc 2a05 f53c 878b 193d 4c59 363d
00000270: 85b7 e33c d4a6 58bd f84a 983d 39ee 393d
00000280: 6d22 dbbd 37d0 f83d e7c4 04be 361d babc
00000290: 09bb 9abe b7d0 5b3d a131 713d 9801 41be
000002a0: 03c8 942a 25d2 7a33 e0db 2fac bbce d0ba
000002b0: 44ff 1a2c f50c afb9 30e2 4c3a 0809 1dba
000002c0: 4969 533e 18ef 5abd 22f5 cebd 0d37 75be
000002d0: f2b6 c5be e5aa af3e 6866 2cbe fcb5 babd
000002e0: 260c cabd f4de b73b 42a0 122e 1adb 773e
000002f0: ccfb b1be 6af7 ebbd 03d4 03be d211 bbab
00000300: 9b0a edbd 601c 2d3e 98a3 30bd a679 a53e
00000310: f470 bb3e 9f47 b5bd f2bd b53e 5f8d 523e
00000320: 795b 8cbe e9b3 41be 60f2 963d 6484 0b3e
00000330: 7c1b 643e f9ea e9bd c443 c4bd 24a6 453d
00000340: 56ff afbc d4d0 9b3c 42c6 2d3d c96a 1f3c
00000350: 4d8d 1e3e ca62 bbbb 0cfb 153d 3627 bc3d
00000360: f560 5a3e ca14 98be 5327 8d3d 2260 8c3d
00000370: 2db6 8dbd 1484 bc3d aeee cebe 1ded 323d
00000380: b443 fd39 f9ab 6c3d 85b4 803d 95dd a63c
00000390: 49a7 633d 4e18 97bc 96f4 6d3d d432 963d
000003a0: 269c b5be 69c4 9cbe f650 87bd 2b4c 823e
000003b0: b315 ee3d e05f 953e 1684 62be 4507 09be
000003c0: 9c29 1ebe eec0 063e df2e 8a3c bf0a a13e
000003d0: 73cd 613e f9b2 ed3d a03f 0fbe d97a 203e
000003e0: 5506 53be fb9b 573e f12b 25bd 263a f83d
000003f0: d38d b8bd c807 2d3e 2f85 a73e 498b ea3d
-0.4476203 -0.043519303 0.13796483 0.3108386 0.061980393 -0.41846344 -0.18191944 0.08930956
-0.027701173 0.0130196065 0.02205331 0.015622364 0.02546785 -0.0007587985 0.021940995 0.07896111
-0.08470013 -0.011005746 0.10127211 0.080483615 0.18000813 -0.020322867 0.08801752 0.10675948
0.064663954 -0.34633252 0.041594535 -0.12223663 0.3021148 -0.3070407 -0.33983195 0.04880928
0.02051521 0.00052267406 -0.024679502 -0.0070866756 -0.031997453 0.0114271175 -0.002619661 -0.018174881
0.17552 0.16290657 -0.029206268 -0.20093077 -0.19999148 0.34234887 0.025924275 0.097893335
0.19847578 0.34848776 -0.03038793 -0.044475224 0.077629976 0.2644204 0.049611315 -0.039255556
-0.17608967 0.3051108 0.036028445 -0.14209399 0.17107019 0.32797563 -0.2627394 0.06925343
-0.002061935 -0.0501492 -3.64281e-05 -0.049728576 0.009795207 -0.026446205 -0.07573277 -0.015927434
0.045343358 0.34127703 -0.012129464 0.16987863 0.20310217 0.33561662 0.08865273 0.22952029
0.25060254 0.102912806 0.17460667 0.016435523 0.13485925 -0.18725862 -0.043540068 0.09903419
0.07701996 0.024667092 -0.18700472 -0.014681425 -0.01579808 0.32244694 -0.13908002 -0.1810729
0.36033335 -0.030440416 -0.15118992 -0.038248967 -0.33912584 0.2903129 -0.20079541 -0.23229371
-0.39117596 -0.26032597 0.05493609 0.19084534 0.19356684 -0.22005314 -0.12269901 0.19454555
-0.0008203037 5.9850805e-05 -0.00054591877 1.4736799e-10 -6.594346e-08 -0.00016540995 -6.820926e-09 -0.0017775886
0.3500151 -0.26090303 0.014242361 0.33133334 -0.305811 0.124361835 0.0081365695 0.00040928263
0.050240457 -0.20578352 0.10201192 0.07511311 0.24432465 0.04554894 0.15003215 -0.1571757
0.10779949 0.12488767 0.13397041 -0.08242231 -0.21363443 0.20143968 0.20002258 0.15777713
-0.07282611 0.32455474 -0.0686747 0.108041935 -0.12593989 0.17922837 -0.15670872 -0.09224108
-0.022471817 0.029909689 0.03748658 0.044518754 0.02779747 -0.052893475 0.07436174 0.045393202
-0.106999256 0.12149089 -0.12965737 -0.022719007 -0.30220821 0.053665843 0.05888522 -0.18848264
2.6428867e-13 5.8398786e-08 -2.499105e-12 -0.0015930751 2.2026417e-12 -0.00033388255 0.0007815687 -0.00059904205
0.20645632 -0.053450674 -0.10105349 -0.23946781 -0.3861614 0.3431007 -0.1683594 -0.09116742
-0.098655984 0.005611295 3.3338894e-11 0.24204674 -0.34762418 -0.115218 -0.12873845 -1.3292095e-12
-0.115742885 0.16905355 -0.043124765 0.32319373 0.36609614 -0.08851551 0.3549648 0.20561741
-0.27413538 -0.18916287 0.07370448 0.13624722 0.2227611 -0.114217706 -0.09583238 0.048254147
-0.021484058 0.019020475 0.0424254 0.009730049 0.1548359 -0.0057185637 0.03661637 0.091871664
0.21326049 -0.2970336 0.06892266 0.068542734 -0.06919513 0.092048794 -0.40416473 0.04368316
0.00048306363 0.057781193 0.06284431 0.02036933 0.055579457 -0.018444207 0.058094583 0.073339134
-0.35470694 -0.306186 -0.06607239 0.25448737 0.116252325 0.2917471 -0.221207 -0.1338168
-0.1544556 0.13159534 0.016868053 0.3145351 0.22051029 0.11606402 -0.13989115 0.15671863
-0.20607884 0.21055596 -0.04032511 0.12120466 -0.09011426 0.168975 0.327188 0.11452348

bias f4 [32]
00000000: 646f eebe 1875 ed3d 6289 c93c 4b81 253f
00000010: 0ad8 f2bd a4bb 923d 7dea 723e 4a6d 37bf
00000020: a1d9 c93d 4d41 553e 850a 59be 7836 d43e
00000030: 00d4 09be 7c83 783e 4c80 23ba 127c 043e
00000040: 2c9d 0abe 3e9f 8bbe ca6f 59be 0d75 24ba
00000050: 6608 983d b663 38b7 4969 053e 921f fdbd
00000060: 4af3 04be 0dd3 453e 6713 513c 1ec0 523e
00000070: 4ba1 4d3d 1fbe 0bbe c927 583d bc37 c83e
-0.4656936 0.115945995 0.024601642 0.6465041 -0.118576124 0.07164696 0.23722263 -0.71651137
0.098559625 0.20825692 -0.21195419 0.41447806 -0.13459778 0.24268907 -0.0006237074 0.12937954
-0.13536519 -0.2726993 -0.2123405 -0.00062735454 0.07423477 -1.099047e-05 0.13028444 -0.12359537
-0.12983432 0.1931879 0.012760974 0.205811 0.05020265 -0.13646744 0.052772317 0.39105022

weight f4 [64, 32]
00000000: 2522 c73c e770 eebc 00a0 f0bc 7f2f 593c
00000010: 3494 312b 5f9e f2bc b171 f5bc b092 dabc
00000020: 255b 00ad c817 eabc 83ae dfbc eb96 5ebc
00000030: 344b 37bc 9a6d d73c d944 4aaf 48d8 8dbc
00000040: cfd8 edbc 4c27 f4bc a7c6 a0bc 72ab efbc
00000050: 4510 bab7 f464 d9ab 3ed7 20b9 dc8e 9cab
00000060: 0ea0 e1bc 91ab 13ba 8a7a e3bc 00a7 9eab
00000070: 1418 eabc 7647 b72f cd7a e3bc 894b f1bc
00000080: b50e 043d 1584 ab3c 4dcc 573d 945d 03be
00000090: 7e72 91bc ef39 6cbd 843b 4a3e 6fd9 21bc
000000a0: 96a2 80bb ed4e b83d 9b0f a33c 965f 6f3d
000000b0: 0dfe 0b3e 8abb 29be fe11 35ad 0bc2 e5bc
000000c0: d487 343e e8f5 d8bb c1b8 ab3d ba2a 443d
000000d0: cda4 073a 7400 582c f186 103e fa4d a7bd
000000e0: 184b 7d3d fc5c 04be a2f2 943c 8929 aabc
000000f0: 6eb7 823d 36a2 2abd 4b23 8b3d 1ef9 253e
00000100: 9d75 a1bd 98d5 b23c 5d6f 893d 48c5 91bd
00000110: 37ff 153c ed3f 003e 0a3b ce3d f16b 533e
00000120: fa31 ff3a e07f 143e 79d8 d3bc 51c6 ba3d
00000130: 503b e63d 7b1e dbbe 565a 832f 36bf 13be
00000140: d19c cbbd 8b89 1dbe c925 8abd afc6 183d
00000150: aed3 ca3d 589c b4ac 110c 7a3d 727b 4abd
00000160: 3ffd c7bc fefd 55be b507 333d 3e1c 873e
00000170: 2971 263d b1f1 68ad 2f53 7ebd 6cd2 46bd
00000180: 461d 6131 81be 84b0 a538 c3ac f496 6e2f
00000190: 0284 70ac 87eb c1bc 5a6c c7bc eda0 aa2e
000001a0: 6fbd 102f 5560 c8bc 30d0 a0ae f255 c4bc
000001b0: d418 b4bc 3a97 feb0 6ae4 92ae 2f95 c6bc
000001c0: 0a61 b4bc be88 c4bc 0b2e 0ebc cb5c 5a2c
000001d0: 21a1 eebc 730c 42ae 8b00 a83b ccc5 022f
000001e0: 45e1 cdbc 05d9 b72f 696e 282b fe6d 632f
000001f0: 6cd8 eb2b 3433 50af 5e84 cbbc bbfd 05bd
00000200: f5db 223e 45d1 613c 4e57 4d3d 81e2 88be
00000210: e90d 2ebc dd49 083e f799 8c3d 2f89 dfbd
00000220: 294b 8439 c3ae a03d 47ee 093c 1a1e 48bd
00000230: 1806 ac3d 395b 19be 40d2 53ad fdd8 d33c
00000240: 95ec 0abe 9e0d a63d e0bd aabd 86a6 5b3d
00000250: 0d9e d2bd 2f93 f62d f244 13bc 9fba 2b3e
00000260: 6a71 bf3d b503 96bd 1f19 e53c 3c8e 7abe
00000270: 730b 863d 430b d43d 524d 113e af81 263e
00000280: fa22 81af bf77 4ead aedd 282f 34b9 7b2d
00000290: cf07 3cae 3af2 a8bc 9dca 62bd 2ced 372e
000002a0: 0ed7 ab2a 2de9 c63d e733 522d 9322 adbd
000002b0: 2506 c6bc 92a6 b32d c98f b330 f38c e4bd
000002c0: cb37 e6bd 0d34 1dbd cf4d 103d 4dba 03af
000002d0: a77b b4bc 6456 13b0 53f3 703c 97d1 1e2c
000002e0: 1fec 68bc 157e 012c e267 a2ac 137e 552c
000002f0: 12d7 14ab 352f c9af 7ddf 82bc 9f60 12bd
00000300: 2a4f 9fbc a971 8ebc c1a0 8dbc 0469 65bc
00000310: 4ca7 9dae 645a c3bc 5ace c3bc ff5e 96bc
00000320: cc7f 14ac 85c3 b4bc e168 94bc e63c 98bc
00000330: cc83 b9bc d114 9cbc 1018 9529 0805 31bc
00000340: 59c4 97bc a635 bebc c485 62bc 24b8 8bbc
00000350: cc9e a7bc b6f2 aab0 4c29 bbbc 0659 d22c
00000360: 94d4 98bc 19b4 aabc 2beb 8ebc 6648 83ae
00000370: 713f 96bc 2c8d d92b a1ea 92bc 2a45 afbc
00000380: 8bd6 1fbe 0088 f93c b55d b13d 8177 ffbc
00000390: 9297 5b3c f3c2 6fbd c5fa b4bc c1c5 d3bd
000003a0: bd00 dbbd 04b0 1ebc 8214 ef3c 572f 97bd
000003b0: 84b5 8dbd 2cd7 87bc d0d1 f72c e4cd adbd
000003c0: a8e2 4ebd 35e0 31bd a59e febd c08e 1c3d
000003d0: 9564 90bd 5f9a 9230 49e8 00be e141 a12b
000003e0: 6bc7 1b3c 2f56 993c 7ac6 803d 54ae 67be
000003f0: 4792 5b3d fa71 0a3d 0bf7 533c a241 873b
0.024308274 -0.02910657 -0.029373169 0.013255953 6.3088705e-13 -0.029616533 -0.029961439 -0.026681274
-7.296196e-12 -0.028575793 -0.027304893 -0.013585786 -0.011187363 0.02629738 -1.8396253e-10 -0.017315045
-0.029034046 -0.029803894 -0.019625975 -0.029256556 -2.2180504e-05 -1.5446797e-12 -0.00015338973 -1.1124118e-12
-0.02754214 -0.00056331704 -0.027768392 -1.1272927e-12 -0.028575934 3.3338282e-10 -0.027768517 -0.029454963
0.03224059 0.020937005 0.05268507 -0.12828666 -0.01775479 -0.057672437 0.19749266 -0.0098785
-0.0039256318 0.08999429 0.019904902 0.058440767 0.13671131 -0.16575447 -1.0292654e-11 -0.028046628
0.1762994 -0.006621111 0.083848484 0.04789231 0.00051743985 3.0695698e-12 0.14113976 -0.0816917
0.061839193 -0.12926096 0.018182103 -0.020771759 0.06382643 -0.041658603 0.06793841 0.16208312
-0.07883761 0.021830365 0.06710694 -0.071177065 0.009155086 0.12524386 0.100698546 0.20646645
0.001946985 0.14501905 -0.025860058 0.09119857 0.11241782 -0.42796692 2.389295e-10 -0.1442841
-0.0994202 -0.153845 -0.06745488 0.037298854 0.09903656 -5.1332653e-12 0.061046664 -0.049434133
-0.02441275 -0.20897672 0.043708522 0.26388735 0.04063526 -1.32413394e-11 -0.06209105 -0.048540518
3.275845e-09 -9.658409e-10 -5.548522e-12 2.1699603e-10 -3.417933e-12 -0.023671879 -0.024343658 7.759291e-11
1.3164024e-10 -0.024459997 -7.312939e-11 -0.023966763 -0.021984495 -1.8523914e-09 -6.679886e-11 -0.024241058
-0.022018928 -0.023990985 -0.00867797 3.1031174e-12 -0.029129567 -4.412155e-11 0.005127018 1.1893703e-10
-0.025131831 3.3441708e-10 5.9838815e-13 2.0684607e-10 1.6757823e-12 -1.8935681e-10 -0.024843391 -0.03271268
0.1590422 0.013782804 0.05013209 -0.2673531 -0.010623434 0.13309427 0.06865304 -0.109148376
0.00025233 0.07845833 0.008418626 -0.048856832 0.083996 -0.14976205 -1.2040646e-11 0.025860304
-0.13566811 0.08108066 -0.08336997 0.053625606 -0.10284052 2.8032325e-11 -0.008988606 0.16770409
0.09347804 -0.07324926 0.02796608 -0.2446832 0.065451525 0.103537105 0.14189652 0.16260408
-2.3489816e-10 -1.1736333e-11 1.5358267e-10 1.43088215e-11 -4.2753186e-11 -0.020623315 -0.05536901 4.1820034e-11
3.0524926e-13 0.097124435 1.1948643e-11 -0.0845386 -0.024172852 2.0423916e-11 1.306483e-09 -0.111596964
-0.112411104 -0.038379718 0.035230454 -1.1980568e-10 -0.022031618 -5.3601057e-10 0.0147064505 2.2569496e-12
-0.014216452 1.8401992e-12 -4.6158502e-12 3.0339106e-12 -5.287863e-13 -3.659523e-10 -0.015975708 -0.035736676
-0.019446928 -0.017388182 -0.017288567 -0.014002088 -7.169251e-11 -0.023846813 -0.023902107 -0.018355845
-2.1103006e-12 -0.022065887 -0.018116416 -0.018583726 -0.022645853 -0.019052895 6.6211034e-14 -0.010804422
-0.018526243 -0.023218941 -0.0138258375 -0.017055579 -0.020461462 -1.243811e-09 -0.02284684 5.9784426e-12
-0.018656053 -0.02083783 -0.017446121 -5.970051e-11 -0.018340798 1.545796e-12 -0.017934145 -0.021395285
-0.15609185 0.030460358 0.08660451 -0.031184914 0.013402836 -0.058535527 -0.022092232 -0.10340453
-0.106935 -0.00968552 0.029184584 -0.07382076 -0.06919387 -0.016582094 7.043456e-12 -0.08486536
-0.050509125 -0.04342671 -0.12432603 0.038222075 -0.070504345 1.0666773e-09 -0.1258861 1.1458023e-12
0.009507994 0.018717853 0.062878564 -0.22625095 0.053606298 0.033800103 0.012937318 0.004127697

bias f4 [64]
00000000: fc74 e9bc 4469 2b3e 9672 23be 8bf8 edbc
00000010: 248e 493e dfcd a8bd b9c7 42bc 6eae bf3e
00000020: 6527 e73c 16a2 ff3c 61af e9bd d0ac 8fbc
00000030: 728f 223f 697c a0be 1615 b43d 9c1f 77b1
00000040: 60d1 113f 783a 03be 5210 40be d5c0 fc3e
00000050: 0dd4 dabe e808 95bd 4f93 0fbe c30c 7b3e
00000060: c4ac 443e e1b0 cfbb 651b 35be e933 e3bb
00000070: b266 30bd fe41 133e 1cd1 463d a47b 663d
00000080: da4e 54bc 2e74 893e cbec a13e 553c 5bbe
00000090: c1cb 8bbd 56c2 bf3b 8cf3 363f b09d 32bd
000000a0: 97e9 f6bc 8f9a f7be ee3e b23d b3f9 193e
000000b0: 9235 883d 1390 3a3d 27e7 b23e 1f53 fe3e
000000c0: 3ebf ab3e 5765 223e 94ab ac3d bec5 853e
000000d0: 0126 d9bc d1fc 06be 27ad a53d 646f b53c
000000e0: e200 80bc 6027 a9bc 235e bb3e bcfe 08be
000000f0: bdc2 14bd 7974 353e a9a6 a2bc b71d 4eb6
-0.028498165 0.16739374 -0.1596168 -0.029049179 0.19683129 -0.08242392 -0.011888438 0.37437767
0.028217027 0.031205218 -0.11410404 -0.017538458 0.6350013 -0.31344917 0.08793084 -3.5961198e-09
0.56960106 -0.12815273 -0.18756226 0.4936587 -0.42739907 -0.07277089 -0.14021038 0.24516587
0.1920653 -0.0063382243 -0.17686231 -0.0069336784 -0.043066688 0.14380643 0.048539266 0.056270257
-0.012958253 0.2684645 0.3162597 -0.21409734 -0.06825972 0.005852024 0.71465373 -0.043607414
-0.030140681 -0.48360106 0.08703409 0.15036659 0.06650843 0.045547556 0.3494198 0.4967279
0.33544344 0.1585897 0.084311634 0.26127428 -0.02650738 -0.1318238 0.08089667 0.022147842
-0.015625421 -0.020648658 0.36595258 -0.13378423 -0.03631853 0.17720212 -0.01985486 -3.0713688e-06
