model/1300.3840140402317047.pt (torch_old, 168315 bytes, 19 tensors)

weight f4 [256, 2]
000000 d1 7c 6d bf b2 05 ed be f4 df 88 3e 31 fb d9 bd
       -0.9276858 -0.46293408 0.26733363 -0.10643614
000010 06 17 3b 3f 78 4c 86 be 82 9b 3e 3f 32 f8 5f be
       0.73082006 -0.26230216 0.74456036 -0.21872023
000020 7c f4 8a 3e a1 81 5e be 1d ec f3 be 7c 8e 06 3f
       0.27139652 -0.21729137 -0.47641078 0.52561164
000030 e0 a2 17 3f 78 fa 03 3f d8 11 4b be 32 b3 90 3e
       0.592329 0.5155406 -0.19831026 0.28261715
000040 50 93 b8 3b 09 95 ad 3c 65 ce 17 3e 69 90 12 3f
       0.0056327954 0.02118923 0.14824827 0.572516
000050 22 7f 52 3e 9f 82 ac 3e 4b 25 67 3d 93 05 bc 3e
       0.2055631 0.33693406 0.05643205 0.36723003
000060 7b b0 04 bf 7f bf 0a 3f 61 a4 6b be d9 8c 1a bf
       -0.5183179 0.5419845 -0.23011924 -0.60371166
000070 b2 0f 01 3f 4d eb d1 be 1d ef 3e 3f 2f 5f c9 be
       0.50414574 -0.40999833 0.7458361 -0.39330432
000080 3a 50 ba 3e 54 6f fd 3e 32 1d ff 3e 35 31 d0 be
       0.36389333 0.49499 0.49826962 -0.40662542
000090 6a c7 ed be b6 65 12 bd ba 0b a5 3e 40 2e f5 3e
       -0.46441203 -0.03574153 0.3223551 0.47886848
0000a0 4a 59 bd be cc 3d 1b 3f fd 92 4a 3c c6 19 8e be
       -0.36982185 0.6064117 0.012364146 -0.2775404
0000b0 56 4f 31 be 4b 71 dd 3e 40 35 31 bf 77 0a 2d 3f
       -0.1731542 0.43250498 -0.6922188 0.67594093
0000c0 ac 06 72 bd 4b 5f 18 bf a9 8d bc 3e d3 c1 5f bd
       -0.059088394 -0.59520406 0.36826828 -0.054628205
0000d0 ea 34 10 be d9 fa 6b 3e d0 63 12 3f 36 79 1a be
       -0.14082685 0.2304491 0.5718355 -0.15085301
0000e0 79 ef d7 bd 26 61 70 3e c5 11 c2 3e ae aa 19 bd
       -0.10543723 0.23474559 0.37904182 -0.03751629
0000f0 7f ef 42 3f 96 81 7a be f6 af da 3e e1 90 23 3f
       0.7614669 -0.24463496 0.42712373 0.6389294
000100 5a b7 c8 be 51 a5 f8 3e da a6 c8 3e e1 39 f8 3e
       -0.39202386 0.48563626 0.39189798 0.48481658
000110 1e 8f 0e 3f bf 6b 8f be 44 9c b0 3e 58 49 5c be
       0.5568713 -0.2801189 0.3449422 -0.21512353
000120 79 e9 4a be 80 7d 07 3f a7 73 a0 be e1 99 d1 3e
       -0.19815625 0.5292587 -0.31338236 0.40937713
000130 7e 26 98 3e 87 56 a4 3c 97 1b d9 3e 6d 1d 6e be
       0.29716867 0.02006079 0.42403862 -0.23253413
000140 a6 a0 bf be 50 dc 32 3f 3d 26 3c bf 54 d6 93 bd
       -0.37427253 0.6986742 -0.73495847 -0.07218614
000150 06 93 ca 3e d0 b1 9f be 2b 61 5e 3d 20 7d 35 3e
       0.39565295 -0.31190348 0.054291885 0.17723513
000160 54 1b 14 3f 59 91 79 3e d8 13 9e 3e ab 19 ec bd
       0.578542 0.24371852 0.30874515 -0.11528333
000170 56 22 c3 be 21 a3 dd 3e 93 a7 3c 3f e5 73 2b 3d
       -0.38112134 0.4328852 0.736932 0.041858573
000180 e9 5e 80 be b7 1a 0d 3f 53 f3 a5 3e 4f 15 6d 3d
       -0.2507241 0.5511889 0.32412204 0.05788165
000190 9d 0c b7 3e 9d a9 91 be e2 b9 52 bc ee 27 c6 ba
       0.3575181 -0.28449717 -0.012861701 -0.0015118101
0001a0 2a 35 60 bd 41 2e 24 bf df f5 cf 3e d0 ba d4 bd
       -0.0547382 -0.6413308 0.40617272 -0.10387194
0001b0 9c 9f 57 3f ae fd 1b bf a7 ec 7c 3e 9c ad af 3d
       0.8422792 -0.6093396 0.2469965 0.08578035
0001c0 f0 c5 dd 3e e8 1b a3 3d 57 1e 3c be ef 61 5c 3e
       0.43315077 0.07964307 -0.18370949 0.21521734
0001d0 a7 49 84 bc 99 9e 47 bf 3a 2e f2 be 62 dc 4f bf
       -0.016148401 -0.77976376 -0.47300893 -0.8119565
0001e0 73 0e 2e be 56 26 43 3e dc 7a 55 bf 63 b0 86 be
       -0.169977 0.19057593 -0.83390594 -0.26306447
0001f0 88 7e 0d 3f 07 66 e2 be 08 d9 68 bf be 69 9d 3d
       0.55271196 -0.44218466 -0.90956163 0.07686184
000200 f3 39 69 be 55 3c a6 3e 75 34 43 bf b1 c7 6d be
       -0.22776012 0.32467905 -0.7625192 -0.23220707
000210 0c 8d 16 3f db a1 0e 3f 2c ed 14 3f f6 a1 01 3d
       0.5880897 0.5571572 0.58174396 0.0316486
000220 41 47 e0 3e 5b 55 1c 3e ee 0b 17 be 7c ac 90 3e
       0.43804362 0.15266936 -0.14750645 0.28256595
000230 dc d2 4d 3f de 0f 20 bf 9e 34 e5 3e 9b 8f c2 be
       0.8039987 -0.6252421 0.44766706 -0.38000187
000240 95 f1 37 3f 57 88 bf be ec 63 60 bf 8e ef f3 bd
       0.71853 -0.37408707 -0.8765247 -0.11910926
000250 8c 99 c8 3e 2b b7 1a 3f d6 c7 37 be 43 aa f2 3e
       0.39179647 0.6043574 -0.17947325 0.47395524
000260 3d ac 78 3e 28 cc 31 be 99 5e a1 be f1 2d ff 3e
       0.24284454 -0.17363036 -0.31517485 0.49839738
000270 4e a8 c4 3e 63 c1 2f 3a 8d d0 ab be c8 37 ad 3e
       0.38409656 0.0006704537 -0.3355755 0.3383162
000280 56 e1 0a 3f 20 ee 4f 3e cb 3a 14 be ae 8b 8d 3e
       0.54250085 0.20305681 -0.14475553 0.2764563
000290 02 71 87 bf b3 10 1c be 2e 95 4c 3f 15 2f 11 bf
       -1.0581362 -0.15240745 0.7991513 -0.56712466
0002a0 6d 1c 36 3f 33 85 b3 be d1 44 bf 3e b4 ae 44 be
       0.71137124 -0.3506256 0.3735719 -0.19207269
0002b0 db f8 3b bf f8 7f 39 3f 12 43 fa be 0f 55 04 3f
       -0.734266 0.7246089 -0.48879296 0.5169229
0002c0 24 0b c9 be 8a 22 e5 3e 4d 5a 4d bf ea b4 32 3d
       -0.39266312 0.44752914 -0.80215913 0.043629564
0002d0 bd c0 f0 3e a6 5f 0a 3f c6 11 fa 3e aa 28 f9 be
       0.47022048 0.540522 0.48841685 -0.48663837
0002e0 f7 b8 b9 be 4d 96 b8 3e e3 6b 5f bf 17 e1 87 3e
       -0.3627393 0.3605217 -0.87274 0.26538917
0002f0 b6 3a e2 3e a8 c6 02 bf 7f 85 03 3f e6 92 01 be
       0.44185418 -0.51084375 0.51375574 -0.12653694
000300 95 43 b8 3e 54 9c ad be 48 19 b9 be 10 06 cb 3e
       0.3598906 -0.3390833 -0.361521 0.39653063
000310 0c e4 42 3f 48 95 17 3e 54 70 6f bf eb 5d 91 3e
       0.7612922 0.1480304 -0.93530774 0.28391966
000320 f6 bc 00 be e1 96 42 3e 2b 79 c3 3e 3a 04 be be
       -0.12572083 0.19002868 0.3817838 -0.371126
000330 0f 45 d6 3d 35 d0 d8 3e 29 42 09 3f f6 ba 09 3f
       0.10462391 0.4234635 0.5361658 0.53800905
000340 b5 26 2e 3f 81 1c 4f be f7 4c 0c bf 9d d1 71 3c
       0.6802781 -0.20225717 -0.5480494 0.014759448
000350 82 ab bd be eb e9 bf 3e cf 48 03 3f 56 f2 af be
       -0.37044913 0.37483153 0.5128297 -0.34364575
000360 4e a6 7c bc b9 93 52 bf 52 11 29 3f 3a 1d 94 3e
       -0.0154205095 -0.82256657 0.66042054 0.28928548
000370 46 22 f3 3e e1 71 ea 3e 44 08 e1 be 0e 4d c0 3e
       0.47487086 0.45790008 -0.4395162 0.37558788
000380 18 6f 00 bf 1e 8c 13 3f fa 37 e6 3e 7e 95 bd be
       -0.50169516 0.57635677 0.44964582 -0.37028116
000390 63 19 ae 3e 35 e9 87 be 8d f3 4e bd d3 4b fd 3e
       0.34003744 -0.2654511 -0.050525237 0.49471912
0003a0 bb 1e b4 3e 7d 61 08 be c6 48 e3 be 38 55 f6 3e
       0.35179695 -0.13318439 -0.4439146 0.48111892
0003b0 2e 1b f8 be e1 ab fa 3e a3 7d 8e 3c cb ad 5d bf
       -0.48458236 0.48959258 0.017393893 -0.8659331
0003c0 96 a0 dd 3e 6e 74 a6 be a2 ed f5 bb 08 89 6d bf
       0.4328658 -0.32510704 -0.0075051347 -0.9278722
0003d0 ae 06 5c 3d 3e ec 60 bf aa 22 02 bf e3 59 24 be
       0.053717308 -0.87860477 -0.50834143 -0.16049914
0003e0 35 f2 33 3f 4b 6a fb be 6d 3c bc 3e 47 15 4c be
       0.70291454 -0.49104533 0.3676485 -0.19929992
0003f0 74 83 17 bf 6c dc ed 3e 1a 2a 2b bf 8d 96 b8 3e
       -0.59184957 0.4645723 -0.66861117 0.3605236

bias f4 [256]
000000 0c b1 0c bf 5c d7 3c 3d d6 cd 36 3e 13 01 80 3f
       -0.5495765 0.04610382 0.17851958 1.0000328
000010 cb e0 f2 3e 3d 46 aa 3e 99 02 26 3f 0a 3f f2 be
       0.47437128 0.33256713 0.64847714 -0.4731372
000020 bf ab 37 bf 5f 8f 3f 3e b9 59 e1 be 0d b7 5d bf
       -0.7174644 0.18707035 -0.44013765 -0.8660744
000030 8d dc 6b 3e 70 8a 56 3f 5d 07 5d 3f a9 2f 40 3f
       0.23033352 0.8380499 0.8633936 0.75072724
000040 b5 ad 27 bd 42 36 d6 3e 66 bc 0b 3f 21 51 1e 3f
       -0.040937144 0.4183827 0.5458435 0.6184254
000050 93 ad f2 be 64 14 2d 3f ff c8 58 bf 70 41 09 3e
       -0.47398052 0.6760924 -0.84681696 0.13403869
000060 56 89 44 3f 93 32 6d 3f 40 15 17 bf fc 24 1d 3f
       0.7677206 0.92655295 -0.590168 0.6138456
000070 d6 24 a1 be c0 95 18 be ee d0 f6 bd a7 bd 0e 3f
       -0.31473416 -0.14900875 -0.12051569 0.55758137
000080 d9 10 bc be ae 26 cd be f6 de 32 3e 84 3b 40 3e
       -0.36731604 -0.40068573 0.17467865 0.18772703
000090 64 0d 56 bf f2 cb 18 bf 01 8f 1f bf 07 3b 77 3e
       -0.8361418 -0.59686196 -0.6232758 0.24143611
0000a0 6c 42 9b 3e 47 13 d0 3e 7f b1 28 3f 22 49 86 3f
       0.30324113 0.40639707 0.6589584 1.0491068
0000b0 0e b8 9c 3d 2d a1 72 be 67 27 90 be 15 40 2a 3f
       0.07652293 -0.23694296 -0.28155062 0.6650403
0000c0 4a 89 2e 3e e3 c8 2a bf a4 d8 03 3f 18 c5 fe bd
       0.17044559 -0.6671278 0.5150244 -0.124399364
0000d0 1a 77 35 3f f8 14 e2 be d6 cb 4b 3e 81 57 76 3f
       0.7088486 -0.44156623 0.19901976 0.9622727
0000e0 0d 6e 66 3f 5b d4 d9 be f4 68 12 3e e4 0d 7f bf
       0.90011674 -0.42544827 0.14297849 -0.9963057
0000f0 d0 26 84 be 3c e7 8e be e9 2a 56 3f 5a 0a 3c be
       -0.25810862 -0.27910793 0.83659226 -0.18363324
000100 f0 e1 04 bf 25 8d 02 be de bb 24 bf 02 bf 84 be
       -0.51907253 -0.12749155 -0.6434916 -0.25926977
000110 86 52 64 3e 11 d8 5b bf f2 ed 67 3e 6f 5e 09 3f
       0.22297105 -0.85876566 0.22649363 0.5365972
000120 12 85 47 3f c3 61 26 3f 71 bd 19 3e db 9d 31 bf
       0.77937424 0.6499292 0.15013672 -0.69381493
000130 ec 4a 36 3e f1 c5 28 bf 10 da 82 bd b6 ce 25 3d
       0.17802018 -0.65927035 -0.06389248 0.040480338
000140 21 20 2d bf eb 7f 2e bf 3a 14 1a 3f 46 4d 50 be
       -0.6762715 -0.6816394 0.60187113 -0.20341977
000150 51 56 0c 3f d1 5c 50 bf 94 bb 4f bf 3c a3 6e 3e
       0.5481921 -0.81391627 -0.81145597 0.23304456
000160 9b df c3 3e 1d 66 71 bd c7 c4 40 3f 3c 97 7b be
       0.38256535 -0.058935273 0.7530026 -0.2456941
000170 c9 3b 19 bf e0 af 46 3f 31 bc de be 29 06 33 3f
       -0.5985685 0.77612114 -0.43502954 0.69931275
000180 44 fa ae be 67 73 fa 3d c8 f9 1b 3e 79 38 3d 3f
       -0.34175313 0.122290425 0.15232003 0.73914295
000190 85 c5 68 be 15 c3 04 bf 97 e4 d6 3e 5f 9d e6 be
       -0.22731598 -0.5186017 0.41971275 -0.4504194
0001a0 2b d1 5f 3f 9e e6 98 be 05 01 5a 3e b4 f7 a8 3d
       0.8742854 -0.29863447 0.21289451 0.082503706
0001b0 e4 8c c8 3c be 2d a1 bd ca 0e 09 bf 91 ae 06 3f
       0.024481244 -0.07870053 -0.5353819 0.5261012
0001c0 1f 4b 03 bc c5 64 41 3f 60 c3 74 3e 15 93 41 3e
       -0.008013516 0.7554439 0.23902655 0.18903764
0001d0 5d 94 78 bc 9d eb 34 3e e4 58 a2 3e d2 8c a6 be
       -0.015172091 0.17668004 0.31708443 -0.32529312
0001e0 16 19 8e 3d 9b 0d 18 bd 18 9d 3f bf 4d e1 f5 bd
       0.069383785 -0.03712235 -0.7484908 -0.12005863
0001f0 cb af 75 be 31 e5 4d bf da 1e af 3e 7c f2 22 bf
       -0.23992841 -0.80427843 0.34203225 -0.6365125
000200 1f 47 8f 3e d7 8b d3 be 45 b1 b8 be db df 8f be
       0.2798395 -0.41317627 -0.36072746 -0.28100476
000210 84 77 18 3f 9b 2b 1f bf b4 62 5e 3f e8 04 fd 3e
       0.59557366 -0.6217591 0.8686936 0.49417806
000220 e5 19 3a 3f 07 ea 7c 3c 4c eb d0 3e a1 e4 7e 3e
       0.7269576 0.015436656 0.40804517 0.24891903
000230 80 7f 22 3e 1f f7 e9 3e 8a 67 bf be b1 6d 8f 3f
       0.1586895 0.4569635 -0.37383682 1.120535
000240 9a 7f 3a bf 67 1b c9 3d dd 4d 5f 3f 46 3c f0 3c
       -0.72850955 0.0981968 0.87228185 0.029325616
000250 7e 29 96 bd 9f 37 24 3f 6b c4 d3 3e 59 3f c8 be
       -0.07332133 0.6414737 0.41360793 -0.3911083
000260 a5 b5 e0 bd da 1b e8 be 7a 52 ff bd 2c 8d 22 3f
       -0.10972146 -0.4533375 -0.12466903 0.6349666
000270 fd 68 91 be 58 3d 58 be 29 b0 11 3f 7f d3 07 3f
       -0.28400412 -0.21117151 0.56909424 0.5305709
000280 fd 9a 4c be 12 6d de be d5 22 c1 3c e7 10 08 3e
       -0.19980998 -0.4344259 0.02357618 0.13287698
000290 d2 90 17 3f 8f 67 13 3f cd 66 af be 35 46 19 3f
       0.59205353 0.5757989 -0.34258118 0.5987275
0002a0 44 1e 07 3f 69 7b 67 bf 50 a8 7f 3f 28 9a be bc
       0.52780557 -0.90422684 0.998662 -0.023266867
0002b0 e6 c2 e5 3e e4 21 36 3f e6 ef 5d bf 49 51 31 be
       0.44875258 0.71145463 -0.8669418 -0.17316164
0002c0 de d5 18 3f 47 9b 35 be 1f 8b 4d bf 77 8a b7 3e
       0.59701335 -0.17735015 -0.80290407 0.35847828
0002d0 b7 57 06 be d8 00 b2 be 00 12 b6 be 66 e4 6f 3f
       -0.13119398 -0.3476627 -0.35560608 0.93707883
0002e0 5b 87 5a be 20 27 2d 3f 57 1f 14 bf 38 c0 e1 bd
       -0.21340697 0.67637825 -0.5786032 -0.11022991
0002f0 c0 f8 82 be e2 52 65 bf 93 9d 2f bf 28 aa 41 3d
       -0.25580406 -0.89579594 -0.68599814 0.047281414
000300 c1 15 b3 3e 10 85 1c 3f d1 32 10 be 33 fe 7d 3d
       0.34977534 0.6114054 -0.14081885 0.06201
000310 c0 ca 3e 3f b7 7f 7e 3f 81 8a bc be 0c 76 4c 3f
       0.7452812 0.9941363 -0.3682442 0.79867625
000320 de bf 63 bf 62 62 29 3f 0b 3b f0 3e 0f 7f 4c be
       -0.8896464 0.66165745 0.46920046 -0.19970344
000330 b8 3b a1 3d 9c 18 35 3f cd e4 15 bf af 13 2d 3e
       0.078727186 0.70740676 -0.5855225 0.1690204
000340 62 a5 b2 be f5 81 7d 3f a1 88 36 be 1b 23 b7 be
       -0.34891802 0.99026424 -0.17825557 -0.3576897
000350 da ff 9f 3e 96 91 53 bf d1 1d 1e bf f9 ea 28 be
       0.31249887 -0.8264402 -0.61764246 -0.16495885
000360 f8 29 27 3f ba e0 35 3f 4b 69 c9 3d cb 96 9e 3e
       0.65298414 0.7104603 0.09834536 0.3097442
000370 a0 ec ed be 30 c5 dd be ca ee 81 3f a8 6f b1 be
       -0.46469593 -0.43314505 1.0150998 -0.346555
000380 e9 e2 54 bf 9e d0 ce bd f4 29 0f 3d de 07 59 bf
       -0.8315874 -0.10098384 0.03495212 -0.8477763
000390 16 e3 ed 3e 99 6a 80 3e 5c d4 29 3f 42 a5 bd be
       0.46462315 0.25081328 0.6633966 -0.37040144
0003a0 6c d8 53 3f d6 95 f8 3e ee c4 0a be d5 4a 63 3f
       0.8275211 0.48551816 -0.13551685 0.8878606
0003b0 b6 ee 75 be 4e 23 cb be db 61 f3 be fc 23 89 3d
       -0.24016842 -0.39675373 -0.47535595 0.066963166
0003c0 12 a6 e8 3e d8 f3 86 be ff ec 67 3f 1f 4b 2b 3e
       0.45439202 -0.26357913 0.90596 0.16727875
0003d0 22 db 6d be 77 47 20 3f c6 5a 62 3e 26 9a 32 bf
       -0.23228124 0.62609047 0.2210494 -0.6976646
0003e0 42 55 30 be 5a c4 16 bf fa 27 f4 be db a4 10 bf
       -0.17220023 -0.5889336 -0.4768675 -0.5650155
0003f0 3c 11 2f bf 21 bb 30 3f 60 19 08 bf d6 a5 90 be
       -0.6838567 0.69035536 -0.5316372 -0.28251523

weight f4 [64, 256]
000000 bd a6 d2 bd 7a d1 bf 3d 00 a4 f3 3d 7c 66 39 3e
       -0.10285709 0.09366126 0.11896515 0.18105501
000010 48 52 0e 3e 5a c9 de bd d5 7e db 3c c8 e1 52 bd
       0.13898575 -0.108782485 0.026793877 -0.051484853
000020 2b c2 18 bd ec 28 86 3d 70 b7 72 3d 39 6a 83 3d
       -0.037294548 0.06550774 0.05925697 0.06416745
000030 14 79 62 bd 0c 7d 4e 3e 67 17 4d 3d af 93 f1 3d
       -0.05529125 0.20164889 0.050071146 0.117957465
000040 8a fb c7 3d cd 28 42 3d b9 89 73 bb 6c 32 41 3d
       0.09764774 0.047402192 -0.0037160947 0.047167227
000050 74 69 96 bd ca b5 cf 3d 3e 2f 9e bc 13 df ef bd
       -0.07344332 0.101420954 -0.019309636 -0.1171247
000060 11 9b 03 3e f5 44 65 3e 92 ba e3 bb 3f 2f 3b 3e
       0.12852122 0.22389586 -0.006949731 0.18279742
000070 6f a2 5c bc 6b 5a 2a 3d cb f6 a6 3d 11 be 64 3d
       -0.013466462 0.041590136 0.08152541 0.055845324
000080 b5 c7 89 bd 5a 6b a6 3c 7d f1 01 3e d5 5a 10 3e
       -0.06727544 0.020314861 0.12689777 0.1409715
000090 15 ff 8f bc 0a 8b e8 bd a4 d1 a0 3c 80 a2 26 3d
       -0.017577687 -0.113546446 0.019631214 0.040682316
0000a0 a2 92 f2 3b 92 68 3b be a5 81 09 3e 9c 11 8b 3d
       0.007402734 -0.18301609 0.13428362 0.06790468
0000b0 38 de 12 3e 3d 46 b0 3d 91 ea 8f bd 61 44 36 3e
       0.14342582 0.08607147 -0.07027162 0.17799522
0000c0 41 70 26 bd 97 ac 52 3d 37 a3 dd 3d 34 84 e5 bc
       -0.040634397 0.051434126 0.108221464 -0.02801714
0000d0 4e e6 13 3e 8f 87 ed 3c 60 d7 b7 3d 78 0a 2e 3e
       0.14443323 0.028995303 0.089766264 0.16996181
0000e0 72 28 11 3e e8 0a aa bd 54 2c 6e 3d 0a 3c aa bd
       0.14175585 -0.083028615 0.058147743 -0.08312233
0000f0 4b bf 93 bd 6b 16 fa bd 50 60 75 3d d9 b2 4e be
       -0.072142206 -0.12211307 0.059906304 -0.20185412
000100 d2 04 eb bc 43 8e 30 be ed 85 a5 3d f9 43 9c 3d
       -0.028688822 -0.17241769 0.08082185 0.07630152
000110 69 1f 0d 3e f4 6c f1 bc fc 3a e6 3d 23 dd ec 3d
       0.13781513 -0.029470898 0.11241719 0.11565616
000120 fa 2e 06 3e 3c a3 67 bd 10 de 30 3d 18 5e 00 bd
       0.13103858 -0.056552157 0.043180525 -0.031339735
000130 a5 de b2 3d 9e f3 7a bc 0e ec b7 3d a7 2c e3 bd
       0.08733872 -0.015316872 0.08980571 -0.11092501
000140 b2 4c 91 3d a5 7f 27 bd 3b 38 1c be 9d 72 c6 ba
       0.070947066 -0.040893216 -0.15255825 -0.0015140359
000150 c2 34 0a 3e 6d c6 a8 bd 80 80 ea bd ff 42 0e be
       0.13496688 -0.08240972 -0.11450291 -0.13892744
000160 f8 2e 18 bd ee 2a 21 be 69 32 9f 3d 2d 27 01 3d
       -0.037154168 -0.15739033 0.07773287 0.0315315
000170 37 b9 90 bd b4 8a 22 be 06 23 d6 bc 8a 20 6d 3e
       -0.07066577 -0.15873224 -0.026139747 0.23156944
000180 71 05 ae 3c 75 1a 82 bd 51 a1 02 3e 51 5e 8d bd
       0.021242829 -0.063527025 0.1275685 -0.06902755
000190 62 5e 6b bd 5e cd d3 bd a9 64 12 bc 47 ad d4 3d
       -0.057463057 -0.10341905 -0.008935132 0.103846125
0001a0 b2 2b 28 3e f8 91 2f be 15 80 2a be db d9 45 3d
       0.16422918 -0.17145526 -0.16650422 0.048303466
0001b0 b5 78 8e bb 4a b3 88 3d 98 26 02 3e fd c5 17 be
       -0.0043478855 0.06674822 0.12710035 -0.1482162
0001c0 71 62 0e be 65 21 2b 3e 37 8a 76 3c 93 1a 11 3d
       -0.1390474 0.16711958 0.015047601 0.035425734
0001d0 d7 3f 9c 3d 65 d3 39 bd 15 2a 2e be 1e 44 0c 3c
       0.07629364 -0.045367617 -0.1700824 0.008561162
0001e0 58 b7 b2 3d f5 ca 50 3c 55 81 e1 bd 2e 9f 04 be
       0.08726376 0.012743701 -0.11010996 -0.12951347
0001f0 9f 64 7b 3d b8 e7 a4 be d6 52 40 be c3 c1 3c be
       0.061375257 -0.32208037 -0.187816 -0.18433289
000200 d0 b6 34 3e 5e 3d 50 bd 60 f8 57 bb 54 8a 0a be
       0.17647862 -0.050839774 -0.003295444 -0.1352933
000210 6b d2 d3 bc 6d 15 04 be 77 c8 1c 3e 7b 5b 1e be
       -0.025857171 -0.12898798 0.15310846 -0.15464585
000220 73 da ad 3d f5 55 fc 3b 6c 07 0d be ca b0 ef 3c
       0.084889315 0.0077006766 -0.13772362 0.029259104
000230 b8 6c a6 3b 73 82 19 be ad c2 e0 bd 54 6e 16 3e
       0.0050788783 -0.14991169 -0.109746315 0.14690524
000240 d3 7f fa bd cb 0f 90 bd 26 f1 15 3e 2c 23 02 bc
       -0.12231412 -0.07034262 0.14642772 -0.007942956
000250 7e 14 8f bd e7 4e bd 3d 3b 3d b9 3d 7f ad 18 be
       -0.069863304 0.09243565 0.09044882 -0.14909934
000260 df cb e2 bc 04 86 b5 bd d9 91 a8 3d f0 b6 72 3e
       -0.027685104 -0.08863452 0.08230943 0.23702598
000270 8a 6e b1 3d 27 c5 0e bc 59 8e 46 3e 7e e7 cf 3d
       0.08663662 -0.008713997 0.19390239 0.101515755
000280 f5 1f a4 3d cd a1 5d bd 61 94 c4 3d 0b f5 c4 3d
       0.08013908 -0.054109383 0.095986135 0.09617051
000290 fd 12 00 be a7 3b ec bd 2e 97 83 3d d9 1a f4 3d
       -0.12507243 -0.11534815 0.064253196 0.11919183
0002a0 c0 62 17 3e ca 50 e0 bd ca 63 05 3e 4f d1 bb bc
       0.14783764 -0.10952909 0.13026348 -0.022926955
0002b0 b5 60 34 bd 2a 50 81 3d a1 34 f3 bb 04 a3 17 bb
       -0.04403754 0.06314118 -0.0074220453 -0.0023137936
0002c0 1b 6d 94 3d ca 0e d3 3c 87 86 c5 3d 9f 08 b2 3c
       0.07247373 0.025763888 0.096448 0.021732626
0002d0 f8 d8 c6 bd c4 41 64 bd d6 e7 c0 bc ef 68 82 3e
       -0.09709352 -0.05572678 -0.023548048 0.25470683
0002e0 6f b0 ac bd 4e 4a a4 3d b4 d2 f7 bd 30 ab 24 be
       -0.084320895 0.08021985 -0.12100735 -0.16080928
0002f0 5d 2a a5 3c b5 b5 6a be 82 e2 a5 3d 92 b9 da 3d
       0.020161802 -0.22920878 0.080998436 0.10679926
000300 62 6b 9f 3d 14 67 4f 3e a8 ed 5c be 43 c0 3c 3d
       0.077841535 0.20254165 -0.21575034 0.046081793
000310 59 7f 84 3e 03 a8 6e 3e 06 e1 84 3d 2d df b4 3d
       0.2587841 0.23306279 0.06488232 0.0883163
000320 e3 72 45 bd 9b fb 11 3e 1f 0e 72 3d da e9 2b be
       -0.048205268 0.14256136 0.0590955 -0.16788426
000330 e4 3e f0 3d 7d 02 00 3e 27 e4 10 be d0 59 20 3c
       0.117307454 0.12500949 -0.14149533 0.009787038
000340 e8 06 e0 bd 35 94 29 3e c1 ad fb bb 03 67 1b be
       -0.10938817 0.16560443 -0.007680625 -0.15176015
000350 5d b5 01 3e 7d 5d 2d bc a6 be 12 be 4f 86 ef bd
       0.12666841 -0.010581371 -0.14330539 -0.11695539
000360 67 c4 a2 3d 16 33 ee 3d 98 0f e1 bd 22 06 22 3d
       0.07947617 0.116308376 -0.109893024 0.03955663
000370 e2 bf 49 bd 45 64 51 3d 79 48 01 3e 80 72 9a 3d
       -0.04925526 0.051121015 0.12625302 0.075413704
000380 b6 6e 82 3c 9b 0e 73 bd 29 b1 55 3d 20 ce ae 3d
       0.015921932 -0.0593401 0.052170906 0.08535409
000390 b0 67 25 3e 9b be ad bd 71 e9 54 3d 54 fb 5c bc
       0.16152835 -0.08483621 0.05198044 -0.013487656
0003a0 07 c5 15 3e 98 18 19 be 06 d3 73 be f3 3e 43 3e
       0.14625941 -0.14950788 -0.23810968 0.19066982
0003b0 3d a1 a8 bd 3a 7f 2e 3d 41 94 9f bd 2c 2f 4b bb
       -0.08233879 0.0426018 -0.07791949 -0.0031003458
0003c0 1f 4a 14 3e 18 32 0c be a4 dc 6e 3d 37 e4 15 3d
       0.144814 -0.13690984 0.058315888 0.036594596
0003d0 d4 f9 40 3c 34 0b 5c 3e 5d 48 c0 3d a8 91 ce bd
       0.011778314 0.21488649 0.09388802 -0.100863755
0003e0 0a e4 a5 3d 21 4f 0a bc 37 a3 0b 3d 7c e3 0e bc
       0.081001356 -0.008441717 0.0340912 -0.008721229
0003f0 ff 27 22 bd 57 af 16 3e 40 58 35 3c 4f 8d 9e bd
       -0.039588924 0.14715324 0.011068404 -0.07741796

bias f4 [64]
000000 4e a4 77 3e f5 39 f7 19 f6 33 ee be 26 0c 51 3e
       0.24183771 2.556261e-23 -0.46524018 0.2041479
000010 45 6c 9b 3d 8c ed 96 3e b4 d4 95 3e 12 63 c1 3e
       0.0758901 0.2947811 0.29263842 0.37770897
000020 87 e4 90 02 36 d1 9c b9 35 30 d6 bb a6 94 89 bd
       2.1290067e-37 -0.00029910513 -0.0065365084 -0.067178056
000030 6b 57 90 3d ac e6 b6 3d 78 01 c3 bc f9 fc 78 b6
       0.07047924 0.08930716 -0.023804411 -3.710213e-06
000040 56 be 92 3d 87 1e 79 bf 38 d6 5d 3e b8 ba 66 b8
       0.0716521 -0.97312206 0.21663749 -5.501017e-05
000050 a4 86 17 bd 91 dc fa be ec 1d 3e 3e 80 a0 17 80
       -0.036993638 -0.48996404 0.18566102 -2.169793e-39
000060 d5 e3 c7 3e e4 00 5c 3d cc b7 05 bd 85 47 76 be
       0.3904101 0.053711787 -0.032645985 -0.2405072
000070 03 98 fa bc 3a 46 6c bc eb 5f 26 3e 15 f7 e5 3e
       -0.030590063 -0.01442104 0.16247527 0.4491507
000080 f2 d5 d0 bb 66 b8 54 bd 4d 36 3f 3e 24 ae ab 3e
       -0.0063731605 -0.05193367 0.18673058 0.33531296
000090 1d de c9 3e 9e 80 64 b5 a0 26 09 bf 5b b6 89 3c
       0.3942727 -8.512378e-07 -0.5357456 0.016810587
0000a0 55 77 7f bb 4d bf a6 3e a7 aa 56 3e e8 b0 0e 3d
       -0.003898104 0.32567826 0.20963536 0.03483668
0000b0 39 74 93 bc 9c d7 22 3d 3e 55 b0 3d d2 ac 70 ba
       -0.017999755 0.039756402 0.08610009 -0.00091810257
0000c0 20 f3 1f bd a8 cd 42 34 46 3b 17 bd 25 95 15 bd
       -0.03905022 1.8142475e-07 -0.036921762 -0.03651919
0000d0 96 f2 51 3e 9d 8e 80 bc e7 54 8a bd e3 0f 15 3b
       0.20502695 -0.015693003 -0.06754475 0.0022745065
0000e0 f1 d0 c3 3d fa ee 86 3d c0 77 c6 b8 48 35 65 b4
       0.09561337 0.0658855 -9.463681e-05 -2.134667e-07
0000f0 9c 27 8f 3e 4a 3b 4a bd e2 2c 84 3e 26 35 f7 3e
       0.27959907 -0.04937295 0.25815493 0.48282737

weight f4 [32, 64]
000000 97 b4 c8 be 06 63 01 80 97 42 fd 3c e3 d2 18 3e
       -0.3920028 -1.27358e-40 0.030915542 0.14924197
000010 03 fc 65 be 24 4f 65 be 15 46 36 be 43 73 6f bd
       -0.22459416 -0.22393471 -0.17800172 -0.05845953
000020 43 07 52 b9 e7 d7 55 bc 20 2f bb af cc a2 a7 3b
       -0.00020029866 -0.013051963 -3.4048586e-10 0.0051158424
000030 3f 3e 9a 3c 8e ab 0e 3e 2d aa 32 be 39 ba 03 00
       0.01882851 0.1393263 -0.1744773 3.4231e-40
000040 8f 9f bb be 65 82 85 bd d8 fe 63 bd 42 02 b2 bc
       -0.3664517 -0.065190114 -0.05566296 -0.021729592
000050 43 95 23 bc 02 b4 0b be ab 76 a7 be 58 e4 2a b6
       -0.009984317 -0.13642886 -0.32707724 -2.5464888e-06
000060 ac 34 d3 be 6e 2a b6 3d d8 9f af 3d d7 a4 3b 3d
       -0.41251123 0.088948116 0.0857541 0.0458115
000070 02 95 51 3e 63 b1 fc be 2d 53 12 be 13 a6 e2 be
       0.20466998 -0.49354085 -0.14289542 -0.4426733
000080 16 b9 ea b7 6b 9c f1 3d f4 22 36 bd 25 9d 8e 3d
       -2.7981161e-05 0.117974125 -0.044466928 0.06963567
000090 e6 d1 74 be 43 0f 5c b6 67 d6 a6 be 35 5c ae 3d
       -0.23908195 -3.2791438e-06 -0.3258545 0.08513681
0000a0 fd 3d 04 30 f8 90 a3 be fd 51 86 be ce 32 b8 3d
       4.810941e-10 -0.3194654 -0.26234427 0.08994065
0000b0 10 0d 82 3d 6c a7 1c 3e ae 45 87 3c d6 f6 85 ba
       0.06350148 0.15298241 0.016512718 -0.0010220658
0000c0 e9 27 af 3d 90 ae bb 3d 7a 6c a7 30 aa 04 15 00
       0.08552534 0.091641545 1.218168e-09 1.930219e-39
0000d0 9e 8d 7c be 87 e0 88 bd 81 ec 0e 13 e8 cb e1 3a
       -0.24663398 -0.0668345 1.8039525e-27 0.0017226906
0000e0 45 0b 26 3e 5f bd a5 be 91 66 d9 38 95 f6 32 1e
       0.16215236 -0.3237104 0.00010366471 9.4742335e-21
0000f0 b2 ed 0c bf d2 22 14 bd 39 5c 80 bd 42 aa 53 bd
       -0.55050194 -0.03616602 -0.0626759 -0.051676042
000100 4e df 5d 3d 6a 27 15 3b 74 a9 db bc f4 95 4e bd
       0.054168038 0.0022759088 -0.0268142 -0.050435975
000110 b2 06 be 3d b1 c9 13 bc ab c7 13 3d 27 90 e7 bd
       0.09278621 -0.009020255 0.03607909 -0.11306792
000120 e9 45 af bb b4 c0 25 3c 18 8c c2 3a 50 fe ac 3d
       -0.00534891 0.010116745 0.0014842777 0.08446944
000130 64 a2 28 bd 48 d6 90 bd ed 0e 40 3e 09 73 e2 3c
       -0.041170493 -0.07072121 0.18755694 0.027642744
000140 be d9 03 3e 8f d3 39 bd a3 fc 15 3e 18 ad 9a bc
       0.12876031 -0.045367774 0.14647155 -0.018881366
000150 94 19 93 3d 74 95 d0 3d 42 62 a7 bb a8 8f 15 00
       0.07182613 0.10184756 -0.005108149 1.98008e-39
000160 dc 4b 0a 3d 3d 05 67 be b2 f0 fc bc 5a 24 08 3e
       0.03376375 -0.22560592 -0.030876491 0.13295117
000170 a4 16 c8 bb ba 4a 09 3e 49 e8 0d be 54 37 ec 3d
       -0.0061062146 0.13407412 -0.13858141 0.115339905
000180 28 24 24 bb b1 b8 88 3d f3 04 1c 3c 49 24 cb bc
       -0.0025045965 0.06675852 0.009522664 -0.024797576
000190 c0 ea a0 3d b0 8d 20 91 a3 5f 49 3e ea ca 2f bc
       0.07857275 -1.2665435e-28 0.19665389 -0.010729531
0001a0 0a c3 3b 3d fc d4 07 3e 05 ea af 3c b3 b1 d3 bd
       0.0458403 0.13264841 0.021473894 -0.10336628
0001b0 bc d9 7c 3b 31 5a cc 3d ae d7 52 3e 32 8b ed 3c
       0.0038581928 0.0997814 0.20590088 0.028997038
0001c0 1f c6 b1 3c e5 54 3f 3c fa 1b 84 3d 8c 38 61 3d
       0.021700917 0.011677955 0.064506486 0.054985568
0001d0 25 18 51 be 9a 29 45 3d 1d b5 fb bc 6f bd 2d bd
       -0.20419367 0.048135377 -0.03072601 -0.042416986
0001e0 65 cf 8f 3d d6 09 02 3e 0e 12 3e 3d bf dc 01 80
       0.07021979 0.12699065 0.046403937 -1.71024e-40
0001f0 77 9a 8f 3d be 72 b9 bc 8a 73 23 ba 6c 09 87 bd
       0.07011884 -0.022637721 -0.0006235173 -0.06593594
000200 db 49 74 be fa af 52 36 19 63 8f 3b 29 ba 62 bd
       -0.23856299 3.139487e-06 0.004375827 -0.055353317
000210 6a bd 16 be 8c 6b c9 be 99 44 73 be 3e e1 7b bc
       -0.14720693 -0.39339864 -0.23756637 -0.015373526
000220 1a 95 7b bc b0 58 05 3d 83 38 15 3c f6 3b b9 3d
       -0.015355373 0.032555282 0.009107712 0.0904464
000230 74 4c 86 bb 2c 13 dc 3d 74 31 7b be 86 5f 26 3c
       -0.0040984694 0.10745844 -0.24530584 0.0101546105
000240 16 83 ae be 25 29 3f bd 04 8e c2 3d 4d 12 4e bc
       -0.34084386 -0.046670098 0.094997436 -0.012577605
000250 f1 b0 1f 3d de 44 8d 3d be 81 23 bf 76 71 6b b7
       0.038987104 0.06897901 -0.63869846 -1.4033509e-05
000260 4c 91 c2 be c4 88 8f 3d 55 9e 57 3d eb eb 0b 3e
       -0.38001478 0.07008508 0.05264123 0.13664214
000270 7c 93 1d 3e d5 ec ee be bc a8 55 be e0 ae 1c bf
       0.15388292 -0.46665064 -0.20865148 -0.6120434
000280 16 76 9a 37 64 99 da 3d 27 24 8b be fa 92 24 3c
       1.8413219e-05 0.10673788 -0.2717602 0.010044808
000290 d9 ca ac be 1f b9 0a bd 06 99 8e be 1d 63 f0 3d
       -0.3374851 -0.03386795 -0.27851123 0.11737654
0002a0 6f 79 dd 24 d5 d6 cd be 49 7f 57 be 1b 6a ab 3c
       9.604919e-17 -0.40202966 -0.21044649 0.020924618
0002b0 13 07 c6 3c 5a c8 bd 3d 0a eb d3 3c cd e7 c5 bb
       0.024173295 0.0926673 0.025868911 -0.0060395957
0002c0 c9 45 94 3d 2f 47 22 3d a7 39 08 00 b1 31 62 3d
       0.07239873 0.039618667 7.55366e-40 0.05522317
0002d0 36 d7 87 be e2 f6 12 3d 69 56 e7 23 58 85 03 3e
       -0.2653138 0.035879977 2.5081666e-17 0.12843835
0002e0 f7 f5 c2 bd 14 73 72 be 44 84 9e 3c 92 18 87 ba
       -0.0951957 -0.23676711 0.019350179 -0.0010307005
0002f0 a3 8a 08 bf 3f f1 fe 3c 37 87 15 be fe d5 78 be
       -0.5333654 0.031120894 -0.14602362 -0.24300382
000300 10 09 5e bd f1 c2 0b 00 fc 6d 15 be 5e 34 df 3b
       -0.05420786 1.080122e-39 -0.14592737 0.0068116626
000310 91 c2 6c 3d 3e b9 42 bb 73 69 90 bd 2a 9d 04 3e
       0.05780274 -0.0029712464 -0.07051363 0.12950578
000320 c3 88 0e 80 fd d4 b4 3c d6 9e 77 bd bf fb f3 3c
       -1.334758e-39 0.022074217 -0.060454212 0.029783128
000330 d5 14 3d bd 4b 0c 24 3c dd d8 13 be 11 e9 57 b2
       -0.046162445 0.0100126965 -0.14438196 -1.256764e-08
000340 16 0b 98 3d 8a ab 8c be 91 ff 08 bd fe 50 0d 3c
       0.074239895 -0.27474624 -0.033446852 0.008625267
000350 67 eb a6 bc 18 bf 8b be 8d 26 d7 bd ae b8 27 25
       -0.02037592 -0.2729423 -0.105054 1.4547513e-16
000360 7f 34 a4 3c 8f d2 b9 3d b8 5d c9 bd 5d 0b 49 be
       0.020044563 0.09073364 -0.098323286 -0.19633241
000370 3a fd f0 bc 50 c1 a8 3d 60 e3 02 bd eb 74 a6 3d
       -0.029417623 0.082399964 -0.031955123 0.08127769
000380 cd 82 f3 35 e1 de 25 be 57 87 a0 bd be 39 1b be
       1.8142979e-06 -0.16198303 -0.07838314 -0.15158746
000390 9f ff 07 3d a5 57 86 bc c6 6a 3c be 56 37 31 3c
       0.033202764 -0.016399214 -0.18400106 0.010816416
0003a0 4d 4b 85 a8 0b fa 0d bd e1 8a 53 bd 89 3c 89 bd
       -1.4798623e-14 -0.034662288 -0.051646117 -0.06700999
0003b0 26 e9 9e 3d 50 55 fc bb 74 dd 86 3d a4 7b 11 bc
       0.07759313 -0.0077005997 0.065852076 -0.008879576
0003c0 13 f2 2b be 89 f4 3e bd 8e 9d a3 a6 33 59 86 05
       -0.16791563 -0.046619926 -1.1353102e-15 1.2634066e-35
0003d0 b7 ba 82 3d 9a 00 8f bd df 20 12 00 9c 1f bc bd
       0.06383269 -0.069825366 1.664831e-39 -0.091857165
0003e0 7c bd 2e 3e 09 40 0f be 94 f3 a2 33 65 8b 8a 3c
       0.1706447 -0.13989271 7.5880195e-08 0.016912172
0003f0 8f bb dd 3d 98 ea 90 bd 08 c5 83 bc 4c 08 d1 bd
       0.108267896 -0.07075995 -0.016085163 -0.10206661

bias f4 [32]
000000 28 43 81 3e 34 c5 32 be c4 e1 57 3d 9e f3 c0 3e
       0.2524655 -0.1745804 0.05270554 0.37685865
000010 41 c9 00 bd c5 fd 33 bb 4c 7b 74 3c bc 4f be bd
       -0.03144193 -0.002746449 0.014921974 -0.09292552
000020 a8 cd 00 3f a4 cb 8d be e3 8d 4b 3e ce 34 94 3d
       0.50313807 -0.27694428 0.19878344 0.07236634
000030 bd 5b fb 3d a1 b0 20 3e a0 67 2e 3e 07 15 14 3d
       0.12273357 0.15692379 0.17031717 0.036152866
000040 27 f8 b8 3e 29 76 b0 98 e1 0c e8 3e 14 5e 00 3d
       0.36126825 -4.5614245e-24 0.45322326 0.03133972
000050 6e 2b d9 be 72 ee 91 3e 78 2b df 3e e5 f3 5c bc
       -0.42415947 0.28502232 0.43587852 -0.013485883
000060 4a d5 aa b8 14 8b 95 3e db 19 8e 3e c9 89 97 3e
       -8.14596e-05 0.2920767 0.277541 0.2959731
000070 a5 27 e6 3e 65 5b c1 3e c3 0f 8b be a0 f2 1c be
       0.4495212 0.3776504 -0.27160463 -0.15326929

weight f4 [8, 32]
000000 b4 4a 36 3c 46 a2 04 3e a9 25 3b 3e aa 34 f8 3d
       0.011126209 0.12952527 0.18276085 0.1211942
000010 99 3d d6 bb 08 aa da 3c 48 0c 8a 3d 3e 2d 17 bd
       -0.0065381047 0.026692405 0.06740624 -0.03690838
000020 a9 dd cd 3d fe 29 05 3e 0f f4 12 3e e8 a4 09 3e
       0.10052044 0.130043 0.14350913 0.13441813
000030 74 56 3e bd 97 3d b4 bc 90 71 6d 3d d0 c4 58 be
       -0.046469167 -0.022002025 0.05796963 -0.21168828
000040 3a 50 c9 3b a9 c2 c7 b7 d7 a5 00 be 93 4a 60 bd
       0.006143597 -2.3813294e-05 -0.12563263 -0.05475862
000050 48 ba 19 3e d3 d7 10 3e 96 7c ca 3d 71 f4 6f 3d
       0.15012467 0.1414483 0.09887044 0.058582727
000060 c3 07 87 bc 95 44 97 3d bd 83 d9 3c 67 1a 3b 3e
       -0.016483193 0.07386128 0.026552076 0.1827179
000070 25 d3 34 3e fc e5 6f bd 66 56 28 3e 68 1b b6 bd
       0.1765867 -0.05856894 0.16439208 -0.08891946
000080 ed 73 48 3d a4 a0 b8 3d 4e dd 5d be f4 81 e6 be
       0.04893868 0.09015015 -0.21666452 -0.4502102
000090 f9 e5 1f be df f1 00 3d 4b e6 9f bc 51 09 7f 3d
       -0.15615071 0.031480666 -0.019518992 0.062264744
0000a0 29 51 63 be fa 52 fd 3d 8f 3d 38 3d 2d 45 4f bd
       -0.22198929 0.12369342 0.04498058 -0.05060308
0000b0 21 8d 18 bb c1 44 02 bd 35 7e 46 3d cf 4d 8b bd
       -0.0023277479 -0.03180385 0.048460204 -0.0680195
0000c0 7e 0f 57 3c 0b 84 32 2e 81 ef 9c be 66 22 cf be
       0.013126252 4.0589792e-11 -0.30651477 -0.4045593
0000d0 3f 98 56 3e bf aa 72 be a8 52 4b 3d 0d 32 69 38
       0.20956515 -0.23697947 0.049639374 5.5598142e-05
0000e0 d7 7d 1e 3c c9 63 89 3c 19 d4 11 3f 72 34 26 3f
       0.009673557 0.016771214 0.5696426 0.64923775
0000f0 4c ca 23 3d 76 d0 0d bf 8d a8 10 3e 36 df 5e bc
       0.039987847 -0.5539621 0.14126797 -0.013603022
000100 4c 20 3b 3e 28 f9 17 be a5 54 a7 bd 3f f9 ac be
       0.18274039 -0.1484114 -0.081704415 -0.3378391
000110 8a a9 10 3d 7d 78 4d 3d 49 12 38 3e 4e c6 27 38
       0.035317935 0.050163735 0.17975725 4.000059e-05
000120 85 80 f0 be 58 85 e1 bd 00 25 47 be b6 9f 01 be
       -0.46973053 -0.110117614 -0.19447708 -0.12658581
000130 2d b7 42 bd a0 8e 46 bd 72 de 2c 3e 2a 9e 93 be
       -0.04753797 -0.04847586 0.16881731 -0.28831607
000140 38 e5 05 bf e7 20 e5 b8 b0 f8 48 be 93 45 3e be
       -0.52302885 -0.000109256995 -0.19626117 -0.18581228
000150 c8 0f a0 be ab bb d3 be 2f 2c 4d 3e 0d ed 95 bc
       -0.3126204 -0.41354117 0.20036386 -0.018301511
000160 ce 82 1e 9e d7 d0 9d be 92 b6 78 3e ed f2 30 3d
       -8.3915e-21 -0.30823395 0.24288395 0.043200422
000170 93 8d d7 3d 46 b6 e8 bd 2f 1d 9f bd 48 b0 79 be
       0.1052505 -0.11362891 -0.07769238 -0.24383652
000180 49 a9 ba 3d 21 12 b7 bd fd f1 11 be 4f 1b 1e 20
       0.0911432 -0.08939005 -0.14252467 1.3392156e-19
000190 2c 76 b4 bd 2e b8 ae bc 93 d6 21 3d 33 17 18 80
       -0.08811602 -0.021328058 0.039511275 -2.212374e-39
0001a0 f9 75 81 bd 98 20 62 be 43 b4 c2 bd 76 37 c6 bc
       -0.063213296 -0.22082746 -0.095070384 -0.024196368
0001b0 1b de 8f bd 82 39 3a bd 82 b2 ee 3c 07 02 03 80
       -0.07024785 -0.045465 0.029137854 -2.76234e-40
0001c0 ac 63 81 bd 29 e0 15 00 8d 68 03 00 06 20 7a 0a
       -0.06317839 2.008959e-39 3.13012e-40 1.2043085e-32
0001d0 16 07 5a bd 68 78 81 bd 95 ba 14 be 44 6e 10 80
       -0.053229414 -0.06321794 -0.145243 -1.508924e-39
0001e0 08 11 0d 80 df f2 ab 36 c5 79 1b be c1 76 dd bc
       -1.199971e-39 5.124471e-06 -0.1518317 -0.027034165
0001f0 ec c0 9c 3a fb a7 00 bd a4 27 06 be ef 36 5a bc
       0.0011959351 -0.0314102 -0.13101059 -0.013318761
000200 ca 5e 00 80 74 46 9d bc 60 72 12 be eb bb cb bd
       -3.4004e-41 -0.019198634 -0.14301443 -0.09947952
000210 29 99 ea bc 36 c2 25 bd e7 19 1f 80 c2 de 10 80
       -0.028637486 -0.040468417 -2.856192e-39 -1.549278e-39
000220 3e 60 2e bd 34 5f c1 bc 5f 01 b5 bc ac 52 31 bd
       -0.042572252 -0.023604967 -0.02209538 -0.043291733
000230 0f 45 13 bd c4 c7 15 be a1 68 1c bc ee e7 96 3c
       -0.03595453 -0.14626986 -0.00954643 0.01842114
000240 6a b2 53 3c 40 f4 02 29 4b 54 da bc 8c c4 5b 3c
       0.012920955 2.9077652e-14 -0.026651522 0.01341356
000250 bd 24 2c 3d 82 3d 32 bd bd e8 21 bd d2 09 1c 00
       0.042027224 -0.04351569 -0.039528597 2.574917e-39
000260 af 5b 0b 80 1d fb a6 bd 9b fd b2 bc 8c 0d 20 bc
       -1.04308e-39 -0.08153365 -0.021849444 -0.009768855
000270 5a de 89 ba 2b de 02 80 ed 0d 22 be a6 e8 35 bd
       -0.0010518536 -2.6337e-40 -0.15825625 -0.044411324
000280 ea 3d ec be d9 5a a4 be b5 84 e7 be dd 3a 2f 3e
       -0.46140987 -0.3210056 -0.45218435 0.17112298
000290 22 0d d1 bd 6d d1 18 00 d1 e3 c1 be bc 85 4f 3d
       -0.10207583 2.27918e-39 -0.37869123 0.05066465
0002a0 a9 6d 85 bd be 20 18 bf 34 ac 91 3e 08 82 ac be
       -0.06515057 -0.5942496 0.28451693 -0.33692956
0002b0 c6 c0 e7 3c 6f 98 8c be 00 1b a5 be fb ff 1a 3e
       0.028290164 -0.27460048 -0.32247162 0.15136711
0002c0 01 6f b0 bc 2f 21 65 b8 91 a4 7e 3e b1 2e fa 3d
       -0.021537306 -5.462876e-05 0.24867465 0.12215937
0002d0 65 72 c7 3d 1f 60 a4 bc 18 ba e1 3e 99 93 25 80
       0.09738616 -0.020065365 0.4408729 -3.450861e-39
0002e0 5a 6b 5c 95 93 1d 46 3e 8d 0e b0 3e 61 e3 bc 3e
       -4.4513332e-26 0.19347219 0.343861 0.36892226
0002f0 e1 d5 86 3e 6d 2c 13 bd c2 80 8d be a9 47 0c bf
       0.26335052 -0.03593104 -0.27637297 -0.54796845
000300 1d 0e 67 3d aa b3 89 bd a8 de bd 3d 59 4e 75 be
       0.056409944 -0.06723721 0.09270984 -0.23955669
000310 02 2a 3d bb ad f3 ef 3c 7e 87 07 3e b3 d8 cc 3c
       -0.002886415 0.029290998 0.1323528 0.025005674
000320 f0 f8 ab be 48 95 33 bd 85 2e 14 3e ac 2b ef 3b
       -0.33588362 -0.043843538 0.14470871 0.0072989073
000330 8d 22 9f be 8d bf e9 bd 8f f3 d8 3d cd 27 3c be
       -0.31081048 -0.114134885 0.1059333 -0.18374558
000340 3f 65 58 be 12 47 b4 39 8f b0 9d be e4 c9 da bd
       -0.21132372 0.00034385227 -0.30798766 -0.10683039
000350 43 70 2c bf 94 02 0a bf 72 de 27 3e 3e 45 c5 bd
       -0.673588 -0.53910184 0.1639345 -0.096323475
000360 fb a4 1f ab 7d 1a e4 be f6 56 3d 3e 74 32 48 3e
       -5.6717104e-13 -0.4455146 0.18490204 0.19550496
000370 b8 24 32 3e d1 b8 c6 bd d3 cf db 3c f3 c3 40 be
       0.1739682 -0.0970322 0.026832497 -0.18824749
000380 93 fa e9 be c6 bd 09 bc 4c 31 04 bf db 4b 0d 3d
       -0.45698985 -0.008407062 -0.5163772 0.03449617
000390 13 b3 29 bc cf 0d 98 3b f4 c9 ef be 9b d5 7b 3d
       -0.010357636 0.004640318 -0.46833766 0.061483007
0003a0 0e d9 1a 3e 05 e2 09 be 53 c5 fa be bb eb e7 be
       0.15121862 -0.13465126 -0.4897867 -0.45297036
0003b0 a3 9b 05 3d 37 47 2b bd 5a 2a 03 bf 41 88 62 3e
       0.03261913 -0.041815963 -0.512365 0.22122289
0003c0 53 4f 16 3e 59 e3 54 bb ba b7 49 3e a4 5e 17 3e
       0.14678697 -0.0032484143 0.19698992 0.14782196
0003d0 4d f6 d8 3c b6 e4 de 3d 37 da ad be 22 87 f5 39
       0.026484633 0.10883467 -0.33955547 0.00046830723
0003e0 9a 5d 9c 35 bb f0 a4 bd 6f 21 07 3e a9 89 7f 3e
       1.1650147e-06 -0.08053728 0.13196348 0.24954857
0003f0 6a 4e 19 3e da c0 4a bf e0 a2 82 be 0b 3a 37 bf
       0.14971319 -0.7920052 -0.2551489 -0.7157294

bias f4 [8]
000000 29 62 79 bd 5f e6 d1 be 53 49 94 3e 6a 42 61 3e
       -0.06088463 -0.40996072 0.28962192 0.21997991
000010 da dc e9 bd a0 cb 7e ba e0 9c 81 3c f7 69 c4 3e
       -0.11419077 -0.00097196735 0.015821874 0.38362095

weight f4 [1, 8]
000000 1d e6 b8 bd ba 10 3c 3e c8 77 ab be 50 ba df bd
       -0.090282656 0.18365756 -0.33489823 -0.10924208
000010 8b 2e 54 bd e6 45 cc 3f 47 f4 91 be 7f c8 b7 3e
       -0.0518022 1.5958831 -0.2850668 0.35895154

weight f4 [8, 1]
000000 fb f6 75 bf ae 52 99 3e 0f cf aa 3e 60 db 4c bf
       -0.9607999 0.29945892 0.33361098 -0.8002224
000010 da 07 a2 be 44 52 8b bf 80 42 29 bf 89 6d 39 3f
       -0.31646615 -1.088448 -0.66117096 0.7243276

bias f4 [8]
000000 0a 2c 5d be 00 89 42 bd e0 c1 ce 3d f9 fe 45 3d
       -0.21598831 -0.047493935 0.100955725 0.048338864
000010 e9 b7 9c be d8 c7 16 3f eb b6 09 3e 6f 02 cd be
       -0.30609062 0.5889869 0.13448684 -0.4004092

weight f4 [32, 8]
000000 8b 8b 66 be 89 67 cb be 0b 7f c3 3d 9a e1 77 be
       -0.22514169 -0.3972743 0.09545716 -0.24207154
000010 0c 61 58 bf c3 f2 b6 3d b8 52 64 3d 51 2b d4 bc
       -0.8452308 0.08933022 0.05574295 -0.025899561
000020 5f 84 55 3c cd 34 3c bd 61 6c 70 bd 48 3f 6a bc
       0.013032048 -0.045948792 -0.05869711 -0.014297314
000030 3d f2 83 35 b5 12 30 bd f8 f7 e9 bc 57 40 74 bd
       9.830761e-07 -0.04298659 -0.028560624 -0.05963167
000040 61 d1 82 3c ab 5c f6 be 9b 4d 2f be 6a be 21 be
       0.01596898 -0.48117575 -0.17119448 -0.15795293
000050 a7 f3 93 be ea 90 c3 3d b7 1b 34 bb bb ca 4d be
       -0.2889683 0.095491245 -0.002748234 -0.20096867
000060 d0 a2 22 00 57 1a 25 3e 97 44 67 3e 6e a1 22 80
       3.180813e-39 0.16123329 0.22584759 -3.180317e-39
000070 78 25 05 00 56 5e 09 bf 76 c1 19 80 eb e7 4b 3e
       4.72619e-40 -0.5365957 -2.365288e-39 0.19912688
000080 24 7e d5 be 46 d6 57 be 81 83 9e 3e 2d 5f 3a bf
       -0.416978 -0.21077833 0.30959705 -0.72801477
000090 cd 23 5e bb 9b 18 8a be b7 f0 f2 be 19 50 ec 3b
       -0.003389585 -0.26971897 -0.47449276 0.007211697
0000a0 bd c7 06 3e db 48 96 3e 78 da bc 3e 21 be ad 3d
       0.13162132 0.2935246 0.36885428 0.0848353
0000b0 35 29 e5 3e 0b ce a4 3e 88 9f 2f 3e 4a 36 04 3e
       0.44758 0.32188448 0.171507 0.12911335
0000c0 7f 49 a4 3d 1b 84 79 bd 36 5e 8b be a6 1e 1f 3e
       0.08021831 -0.060917 -0.27220315 0.15539035
0000d0 84 75 35 be 41 90 76 3e 60 71 24 3d 57 5a 1e 00
       -0.1772061 0.24078466 0.040147185 2.787473e-39
0000e0 de 27 c1 bc 7e fd a0 3e 34 1b f1 bc d3 5a 4b be
       -0.02357858 0.314434 -0.029431917 -0.19858865
0000f0 54 4d 15 bd 6a 9b 0d bd 23 ec 75 be 85 91 97 3e
       -0.0364507 -0.034572043 -0.2401586 0.2960321
000100 00 1d b2 95 16 66 2b bc 44 69 70 bc 1c ad 58 a8
       -7.193938e-26 -0.010461351 -0.014673535 -1.2027946e-14
000110 96 e4 0e 00 b1 fb 74 b7 ea 02 47 a9 79 f6 f0 bc
       1.367698e-39 -1.4602135e-05 -4.4189404e-14 -0.029414402
000120 03 5e 75 be db 48 5c 3e ff 49 aa bd 72 e9 6b 3e
       -0.23961644 0.21512167 -0.08314895 0.23038271
000130 30 c1 b8 bd cf da 74 3c ab b0 45 bd 3a a4 1f be
       -0.090212226 0.014944746 -0.048264187 -0.15589991
000140 95 e0 80 3e e2 98 b1 bd 10 91 72 3d ce 0f 67 3e
       0.25171342 -0.08671738 0.059220374 0.22564623
000150 7c 8c 79 3e e4 c0 7b 3e c9 d5 bb bd fe ee 86 bd
       0.24369997 0.245853 -0.09171636 -0.06588553
000160 1a a6 4b bd a9 54 a7 be 7d f7 80 be 7c c9 1d be
       -0.049718954 -0.32681778 -0.2518882 -0.15408891
000170 78 a2 90 be 57 df c2 3e 0c 8d 90 be 49 7b b9 bf
       -0.28248954 0.3806102 -0.2823261 -1.4490749
000180 6c ae 1a bd 8f 98 a4 3e fd b3 e3 3d 8e c6 bc 3e
       -0.037763998 0.32147643 0.111183144 0.36870235
000190 6a aa 23 be 88 5a 7c bd 5a 5b b1 3e ca 39 03 3e
       -0.15982977 -0.061609775 0.34640008 0.12815014
0001a0 19 77 23 be c2 8a e3 3d 00 f0 0e 3e 7b 4e e2 bd
       -0.15963401 0.1111045 0.1395874 -0.11050125
0001b0 fc 33 4a be 6b 68 a2 3d c4 24 c9 bd 85 c5 0c be
       -0.19746393 0.079300724 -0.098214656 -0.13747223
0001c0 cb a6 c1 bd 88 3e 36 be 03 5b 21 3e a7 52 f8 be
       -0.09455641 -0.17797291 0.15757374 -0.4850056
0001d0 4d e5 99 be a6 84 64 be 74 66 f1 be 63 17 77 bd
       -0.30057755 -0.22316226 -0.47148478 -0.060325038
0001e0 0d 81 d3 be 8d a0 21 3d 73 92 a3 3e db ba e3 be
       -0.41309395 0.039459754 0.3194767 -0.44478497
0001f0 ed af aa ba 82 e5 81 be 42 f0 c2 be 3f 7a 38 be
       -0.0013022401 -0.25370413 -0.38073927 -0.18015383
000200 9b 22 01 3d 87 28 72 be eb 9f 06 bd 68 00 9f be
       0.031527143 -0.23648272 -0.032867353 -0.31054997
000210 93 d2 3f 3e 78 b0 87 3e 3a e6 94 3e 95 a2 20 3e
       0.18732671 0.26501822 0.290819 0.1568702
000220 dc 45 92 3e ac b9 1d 01 aa 73 25 bf eb d2 72 3e
       0.28568923 2.896956e-38 -0.64629614 0.23713271
000230 e7 d0 10 3e c5 a1 36 3e be 66 c6 3d 4c 31 00 00
       0.1414219 0.17835148 0.09687565 1.7684e-41
000240 56 ac 94 be 14 c1 cc be 19 38 4d bf 5b dc 93 3e
       -0.29037732 -0.39991057 -0.80163723 0.28879055
000250 90 f5 f8 be b1 1e 9d 3d 10 5b 84 3e b5 fc d0 3c
       -0.4862485 0.076718695 0.25850725 0.025511125
000260 8b c4 94 b8 57 ff 28 bc 02 8b b9 3b 02 e7 3d ba
       -7.093799e-05 -0.010314784 0.005662323 -0.00072442007
000270 44 04 b9 97 65 e6 6a 3c 75 94 57 b9 b3 48 34 bc
       -1.1956422e-24 0.014337157 -0.00020559302 -0.011003661
000280 f1 96 e1 bc 8e e5 9c 3d d8 12 6f bd a6 57 fd bb
       -0.027537795 0.076609716 -0.05836758 -0.007731396
000290 1c e6 0d be 44 55 ca bd 88 f0 0b 3e c8 8a f7 be
       -0.13857311 -0.098795444 0.13665974 -0.4834807
0002a0 75 b1 4c bd 0b 0a 85 3e 74 0b a4 b8 c2 88 8f be
       -0.049973924 0.25984225 -7.822263e-05 -0.28034025
0002b0 4b 16 00 00 d7 5d b7 be 54 29 cb be a9 15 d4 bd
       7.997e-42 -0.35813782 -0.39679968 -0.10355694
0002c0 d2 c7 50 3e 0b dc 90 3b 6f 60 44 bc 45 b2 25 3e
       0.20388725 0.0044207624 -0.011985882 0.16181286
0002d0 bb f7 e5 3e 46 c9 99 3d 53 7f 95 3e 7d 94 54 3e
       0.44915566 0.07509093 0.29198703 0.20759769
0002e0 85 ae b1 bd 8c d2 c6 bc 43 2d 32 3e 3e e6 dd be
       -0.08675865 -0.024270318 0.17400078 -0.43339723
0002f0 ee 0d 20 a8 fa de 02 bd e1 13 e6 be a7 fb 82 3e
       -8.884805e-15 -0.03195093 -0.4493704 0.2558262
000300 b4 06 5c bd c5 a3 05 be 84 d4 93 3e e9 f0 7d be
       -0.05371733 -0.13050754 0.28873074 -0.24798931
000310 89 89 de be 1d c8 90 3e 99 e9 bf bd c4 82 4b be
       -0.43464306 0.28277674 -0.09370727 -0.19874102
000320 03 65 ec bd 49 9f d6 be 95 71 67 3e da 92 96 3d
       -0.11542704 -0.419184 0.22601922 0.073522285
000330 aa 3b 99 3e 3f 86 54 3e c0 31 94 bd 97 eb 4a 3e
       0.29928333 0.20754336 -0.072360516 0.19816433
000340 13 0b 1a be 92 aa f6 bc fb 37 b6 3c ec 46 30 3d
       -0.15043287 -0.030110631 0.02224349 0.043036386
000350 6f 8f f8 bd 42 7c c5 bc ac b0 a0 3d 79 bb eb bc
       -0.12136733 -0.024107102 0.078461975 -0.028775917
000360 c6 10 29 ad 0c 7f 22 b4 51 66 18 bc 75 ff 35 35
       -9.610262e-12 -1.5133645e-07 -0.009301738 6.7799493e-07
000370 4a cf 00 00 22 ab ba ba 40 97 b6 b5 f8 19 06 b0
       7.4361e-41 -0.0014241675 -1.3604076e-06 -4.878582e-10
000380 58 75 04 3f ff 89 08 80 56 ef 99 01 74 69 be 3e
       0.5174155 -7.84188e-40 5.6546754e-38 0.3718983
000390 b4 ca 6a 3f 9a 4d 4f be 26 eb 24 3d 90 48 1e 80
       0.9171555 -0.20244446 0.040263318 -2.781095e-39
0003a0 63 aa 05 00 2d 17 ec bd 86 65 64 bb 06 97 07 80
       5.20301e-40 -0.11527858 -0.0034850552 -6.97025e-40
0003b0 f1 1d 17 80 87 fb 35 c0 34 7e 00 80 b7 18 4a bf
       -2.122957e-39 -2.843477 -4.5273e-41 -0.7894396
0003c0 0c 71 19 3e 8b b5 22 00 55 3a 00 bf 81 0a 3f bd
       0.1498453 3.187532e-39 -0.5008901 -0.046640877
0003d0 86 ca 23 3e 6d 9e 8c 3d 17 c8 5d 3d 6b e3 1a 80
       0.15995225 0.06866155 0.0541459 -2.469305e-39
0003e0 c3 24 65 3e c7 56 5f 3e e7 b2 b0 be e9 86 40 3e
       0.22377305 0.21810447 -0.34511492 0.18801464
0003f0 98 84 8c 3d e9 5d 74 3e 2d ae a7 3e bc a7 85 be
       0.06861228 0.23863949 0.32750073 -0.26104534

bias f4 [32]
000000 f1 ed da 3e 33 33 81 bd df 94 c5 3e 01 45 b8 bd
       0.4275966 -0.063085936 0.38590142 -0.089975365
000010 9d 5e f0 3e f3 23 8a be d8 fe 94 bd d4 c9 98 3d
       0.46947184 -0.26980552 -0.0727517 0.07460371
000020 75 ea 5f bb ee 52 eb 3e c5 12 46 be 0a fe 7f 3e
       -0.0034166847 0.45961708 -0.19343098 0.24999252
000030 ad 9b 2e be 2f 83 0e 3f ce d6 26 3f f7 f0 a6 3e
       -0.17051573 0.5566892 0.65171516 0.32605717
000040 2a 0a fb 3e 66 97 ec bd 34 a7 1c 3e 3e 0d f9 bd
       0.49031192 -0.115523145 0.15298158 -0.12160729
000050 de 87 d3 3e 76 8e c7 3e 8b 2e 0d bf 66 4b 01 3e
       0.41314596 0.38975877 -0.55149144 0.12626418
000060 1e 94 22 3f 90 7e 7e 3d 43 0a ff 3e 1c 3c 23 bc
       0.6350726 0.06213242 0.49812517 -0.009963062
000070 15 a9 50 bf f9 7c 83 3e 2e 11 a2 bc 69 cb 84 3e
       -0.81508 0.25681284 -0.019783583 0.2593644
