model/1401.5935128927230835.pt (torch_old, 168315 bytes, 19 tensors)

weight f4 [256, 2]
000000 2d 1c 57 be c6 4e 27 3f 6f 77 e9 3e 34 7b 19 3e
       -0.21006842 0.65354574 0.45598933 0.14988405
000010 13 42 cd be 3d 15 56 3a c2 f8 34 3f 71 6e ff be
       -0.40089473 0.0008166617 0.70692074 -0.49888948
000020 77 87 f0 be 2d cb 5a be ac 5b b8 be 3e 5f 09 3f
       -0.4697835 -0.21366568 -0.3600744 0.53660953
000030 28 bc 2a 3e 56 9d 17 3f 74 26 e2 3d b6 32 d0 be
       0.16673338 0.5922445 0.110424906 -0.4066369
000040 da 65 9b 3e 00 0d 98 3d 4a f9 c6 3e fa f2 71 be
       0.30351144 0.074243546 0.38862067 -0.23627844
000050 05 cf 8e be 75 db eb 3e b0 ca 13 bd ad 70 d7 be
       -0.27892318 0.4606587 -0.03608197 -0.42078152
000060 da f1 d5 be 8e f8 29 bf ca 00 b8 3e 74 2e 0d bd
       -0.4178608 -0.6639489 0.35938102 -0.03446813
000070 34 c2 c0 be e8 9b 2f 3f 73 5a a6 3e 80 bf 7d be
       -0.37648165 0.6859727 0.32490882 -0.24780083
000080 23 9b bd bd 0a fa 97 3e 56 93 1e 3f ab 7c 9f 3e
       -0.092581056 0.29682952 0.61943567 0.31149802
000090 e7 fb 2a bf 19 3b 84 3d ca 18 b3 3e 78 b4 d1 bd
       -0.6679062 0.064565845 0.3497985 -0.102395
0000a0 fb 8f db 3e f1 ad 0a bf d5 78 99 3e 12 f9 2a 3f
       0.42883286 -0.54171664 0.29975 0.667863
0000b0 13 b5 c4 3e ad b4 a8 3d 1b e7 3a bf 9e 5b 20 be
       0.384194 0.08237586 -0.7300889 -0.15659949
0000c0 96 c4 dd be e8 6d 40 bf c4 10 92 3e c2 69 bb be
       -0.43314046 -0.75167704 0.28528416 -0.36604124
0000d0 cf 0a 38 3d 68 56 2b 3f cd 53 29 3d 6b 5c 22 3d
       0.044932183 0.6692872 0.041339684 0.039638918
0000e0 b3 26 af be ae 66 13 3f f4 c5 cb be 7e d3 1f 3f
       -0.34209213 0.5757855 -0.39799464 0.62432086
0000f0 ab 93 e9 be 0f c1 01 bf c7 82 31 3f c9 13 1c 3e
       -0.45620474 -0.5068521 0.69340175 0.15241922
000100 0c 79 15 3f 58 77 d6 3e 0b 88 86 be ab 73 16 3f
       0.5838783 0.41887927 -0.26275668 0.58770245
000110 cb c0 3d bf 61 1c 33 be 45 6a ad bd bd 05 8f 3e
       -0.74122304 -0.17491294 -0.08467535 0.27934065
000120 ad 08 46 3f b0 32 62 3c 37 cd c9 be 23 0f db 3e
       0.7735699 0.01380603 -0.3941438 0.42784986
000130 09 97 d3 3e 47 4e 02 bf a4 2d 36 bf a5 7c d7 bd
       0.41326168 -0.5090069 -0.7116339 -0.10521821
000140 1d 55 fd be b5 a6 0a 3f 6a a1 89 3e 23 47 ee 3e
       -0.49479 0.54160625 0.26880962 0.46538648
000150 56 d2 67 be b7 15 a6 bd 85 d6 a3 be f5 f3 ad be
       -0.2263883 -0.081096105 -0.31999603 -0.33975187
000160 79 02 39 3f 25 4c 0b 3e 4a 46 1a bf ee 4f 3c be
       0.722694 0.13603266 -0.602635 -0.18389866
000170 77 93 c4 be 52 d9 0b 3f cf 57 29 3f fe 67 36 bf
       -0.38393757 0.5462848 0.6614961 -0.7125243
000180 46 d1 e2 3e 57 9c e6 be 5d 13 dd bd d2 55 70 3e
       0.44300288 -0.45041153 -0.10794709 0.23470238
000190 d6 fb 62 be a9 78 f1 3e ed c5 e0 3e c7 21 ee 3e
       -0.2216638 0.4716237 0.43901005 0.46510145
0001a0 1e 1e 37 3f 0b 65 d3 3d 65 04 b3 3e 5e bb 39 be
       0.7153033 0.10322007 0.3496429 -0.18137881
0001b0 6e 70 ce be 16 22 0d 3f 81 cd 1a bf 68 e1 0e 3f
       -0.40320152 0.55130136 -0.60469824 0.5581269
0001c0 a0 64 ae 3e 0b 2b a3 3e 9c bb 23 bf 1b e0 76 3e
       0.34061146 0.31868777 -0.63958144 0.24108927
0001d0 8c 3d 0b be 62 40 f3 3e b6 c0 1a bf 0c dc 1c bf
       -0.13597697 0.47510058 -0.60450304 -0.61273265
0001e0 ac 69 ad bd 73 87 2a 3e 29 7e 93 3e c3 7c 0c 3f
       -0.08467421 0.16653232 0.2880719 0.5487787
0001f0 7c f2 a2 3e 4c 99 cb 3e d7 ea 9a be 65 0e b2 3e
       0.31825626 0.39765394 -0.30257294 0.34776607
000200 cf 09 22 be 2c f0 8a 3e 24 d3 c3 be f4 6f 67 be
       -0.15824054 0.27136362 -0.38247025 -0.226013
000210 d1 f4 08 3f 15 4e ff be 6f 00 44 bf 01 e4 c4 bd
       0.5349856 -0.4986426 -0.7656316 -0.09613801
000220 1f 41 e0 be c1 40 f3 3e 84 a5 b8 be 8e 52 0b 3d
       -0.43799683 0.4751034 -0.36063778 0.034014277
000230 e0 c2 2e bf e8 cf 23 3d 17 78 14 3f 5f 76 26 bf
       -0.68266106 0.039993197 0.5799574 -0.6502437
000240 ac ec 15 3f 08 40 54 be 5b a3 23 3e 7f c6 91 3e
       0.5856426 -0.20727551 0.15980284 0.28471753
000250 9b c3 db be ea 97 13 3f 7f 7f d8 be 17 29 96 3e
       -0.42922673 0.5765368 -0.42284772 0.29328224
000260 d1 d8 f5 bd d4 09 c7 3d bb e5 ec 3d df 1d 36 bf
       -0.12004245 0.097186714 0.11567255 -0.7113933
000270 49 bb 22 bf bc 80 09 3d f3 31 8a be 46 1d 86 3e
       -0.63567024 0.033570036 -0.26991233 0.2619421
000280 50 dd dc 3e aa 4f c6 be 10 cf 02 bf bb a6 db be
       0.43137598 -0.38732654 -0.510972 -0.42900643
000290 03 fd 8b 3e 18 58 46 3d 79 ec 08 3f 70 02 f6 3e
       0.2734147 0.048423856 0.5348583 0.48048735
0002a0 37 be aa 3e fb 97 a5 be 30 94 08 3f 65 2d 03 bf
       0.33348247 -0.32342514 0.53351116 -0.5124114
0002b0 ef 5e 2b 3f d1 ad 1e 3e bf 77 9d be 8e f4 f1 be
       0.6694173 0.15495993 -0.30755422 -0.47256893
0002c0 ed d1 d1 be cb e7 04 3f a0 0e 2c be 54 85 2d 3f
       -0.40980473 0.5191619 -0.16802454 0.6778157
0002d0 c2 0c 67 3e 4c e1 6d 3e 8e 34 6c 3e 3c d0 17 be
       0.2256346 0.23230475 0.23066923 -0.14825529
0002e0 f6 27 30 3f fe d2 21 3f dd 64 fb be f2 2e d9 3e
       0.68810976 0.63212574 -0.4910039 0.4241863
0002f0 e4 95 d6 3e 65 a7 04 be 9a 4b c2 3e 45 f4 31 3f
       0.41911232 -0.12954481 0.37948304 0.6951335
000300 a5 fb 97 bd 82 8e 33 3f b6 08 e8 3e fd f6 ea be
       -0.07421044 0.70139325 0.45319146 -0.45891562
000310 e3 06 a4 bd 79 e6 b7 be 39 4f 86 be 40 42 3c 3e
       -0.08009126 -0.35918024 -0.26232317 0.18384647
000320 e3 d4 48 3f 5a fe 51 bd 48 05 f9 3e 8e 18 0b bf
       0.7844984 -0.05126796 0.48636842 -0.5433434
000330 dd 4f 11 3f ec 72 a3 3e 2a 01 34 bf 9f e7 08 bf
       0.56762487 0.31923616 -0.70314276 -0.53478426
000340 3b 1a 4b 3e a4 cd 19 3f d7 a3 e9 be 6c 03 06 3f
       0.19834225 0.6007941 -0.45632812 0.5234897
000350 04 1b 06 bf a4 cc 96 be c1 2a 01 bf 34 4e 27 3f
       -0.5238497 -0.29453003 -0.5045586 0.65353703
000360 1b 89 19 bf 11 16 fb be 13 9c c0 3d 63 de 09 bf
       -0.5997483 -0.49040273 0.09404769 -0.5385496
000370 20 86 5f be bb 85 00 3f 2b 9c 1f bf b0 96 76 be
       -0.21828508 0.50204057 -0.6234767 -0.2408092
000380 f8 62 07 3f e7 6a 04 3f 5b 25 9f be 6b 8c ca bd
       0.5288539 0.5172562 -0.31083187 -0.09890064
000390 3a 4c 54 be 05 ae 66 3e 57 ba d0 be ef a5 18 bf
       -0.20732203 0.2252732 -0.40767166 -0.59628195
0003a0 66 f9 20 be 2c d2 79 3e 20 78 d3 be 74 8a 1f 3f
       -0.15720138 0.2439658 -0.41302586 0.6232064
0003b0 9c e6 84 be ba 90 bc 3e f5 41 c0 be b2 f2 08 bf
       -0.2595719 0.36829168 -0.3755032 -0.53495324
0003c0 96 28 8f be 0d 24 bd bc 8c ae 24 3f b6 4e d3 be
       -0.27960652 -0.02308848 0.6432884 -0.4127099
0003d0 9e 1c df 3e b6 85 1e 3f 99 95 30 3f 6a fc 12 be
       0.4357652 0.61922777 0.6897827 -0.14354101
0003e0 8a 4d 35 3f 0b 43 d1 be 12 dd b1 3d 71 a9 14 3e
       0.7082144 -0.40871462 0.08684744 0.14517762
0003f0 72 a6 16 bf 9a 92 32 3f 92 6a f6 3b bb 3a 0a 3f
       -0.58847725 0.69754946 0.0075200284 0.53995866

bias f4 [256]
000000 cb 39 94 3d eb 16 6a 3e 1d 4b 55 3f b9 a2 58 3e
       0.07237586 0.22860305 0.8331774 0.21155824
000010 d4 ec 3f 3e 3f 4f 38 3e 69 6c 9c be ee f0 ea bd
       0.18742687 0.1799898 -0.3055146 -0.11471735
000020 b6 50 23 3d 3a 8e 8a 3e 3c af e9 be a2 51 af 3e
       0.039871894 0.27061635 -0.45641506 0.34241968
000030 de 03 01 3e c3 38 20 bf 82 b9 08 3f b8 d7 c9 3a
       0.12599131 -0.6258661 0.5340806 0.0015399372
000040 b3 89 09 bf 12 61 4e 3f 83 29 f0 3e 0c e4 fd be
       -0.5372574 0.8061687 0.4690667 -0.49588048
000050 2b 10 51 be 4a 43 3c 3e 5d c3 6e be dd fa d9 bd
       -0.20416324 0.18385044 -0.23316713 -0.106435515
000060 43 fd a4 bc 5d 95 44 3f cf 5f 02 3f a6 a5 a0 3e
       -0.020140296 0.7679041 0.5092744 0.3137638
000070 de 0b 0b bf 4f 60 d8 be 21 d4 7c bd ac fd 48 3f
       -0.5431498 -0.42260978 -0.06172574 0.7851207
000080 61 2a 26 3e b8 be 75 be 13 d3 de 3c 3c 24 01 3e
       0.16227104 -0.23998535 0.027200257 0.12611479
000090 cc 7b f5 3d ae 9a 07 3f 92 c6 20 3f ad c4 ee be
       0.11986503 0.529704 0.62802994 -0.46634427
0000a0 ae 90 e1 be c7 ec 14 3f f7 3c c7 be a4 8a 0b bf
       -0.44055694 0.58173794 -0.389137 -0.54508424
0000b0 c7 72 29 bf 2b c8 af 3e 2c a0 13 bf b5 b3 09 3f
       -0.6619076 0.34332404 -0.5766628 0.53789836
0000c0 c1 4d 15 3e 12 20 48 bf be fc 9d be 14 f7 70 be
       0.14580442 -0.78173935 -0.3085689 -0.23531753
0000d0 99 97 59 bd f3 2c 6d be 44 e0 be be 44 e7 11 3f
       -0.05312309 -0.23161678 -0.37280476 0.5699351
0000e0 08 24 19 3f 2b f7 b9 be e6 c2 f0 be 51 49 29 bf
       0.59820604 -0.36321387 -0.47023696 -0.66127497
0000f0 2c d7 1c bd b4 d3 9a be ba 3d 5e be 43 e4 39 3f
       -0.03829114 -0.30239642 -0.21703234 0.72613925
000100 f5 f0 00 3f 98 4f 22 3e 47 25 f9 be fe 7e 1f bf
       0.5036767 0.15850675 -0.48661253 -0.6230315
000110 4b c7 df 3e 4e 4d 6a 3f 74 7a 51 3e ec af 96 3e
       0.43706736 0.9152421 0.20456868 0.29431093
000120 15 3f 1e be c3 1d 5d 3e a2 62 b0 3e 10 92 06 3f
       -0.15453751 0.21593384 0.3445025 0.52566624
000130 07 66 f1 3e 22 e9 be 3e 9a 73 63 3f 79 cc f2 3e
       0.47148153 0.3728724 0.8884827 0.47421625
000140 31 e9 bf be 56 4f 7c be fc 49 e1 3e 9f 9d 5d be
       -0.37482598 -0.2463964 0.44001758 -0.21642159
000150 86 7a 04 3e 21 8b 37 be 6d 84 44 3f ab f2 54 3e
       0.12937364 -0.17924167 0.76764566 0.20795695
000160 5a b4 78 be d6 b2 11 bf 85 f8 f8 be 84 62 7b be
       -0.24287549 -0.56913507 -0.48627105 -0.245493
000170 a1 2c 3c be 7d b0 37 3f 78 86 61 3c 7d 6a c5 be
       -0.183764 0.71753675 0.01376497 -0.38557807
000180 c0 f1 70 bc 5c 37 fe 3d 0b 90 9c bd 88 f6 24 bf
       -0.014706075 0.12412903 -0.076446615 -0.64438677
000190 88 3b 19 bf 3a 55 ab 3e 28 52 74 be e5 0e 00 3e
       -0.5985646 0.3346346 -0.23859465 0.12505682
0001a0 b9 12 29 bc 91 2d 35 3f 8e 2f 8f 3e eb 61 0e 3e
       -0.010319405 0.70772654 0.2796597 0.1390454
0001b0 ec 47 42 be c4 72 d2 3e 04 2e fb bb 66 ab 7c bc
       -0.18972749 0.41103184 -0.0076653976 -0.015421724
0001c0 90 ef 06 3e 35 9c 52 3e 7d 91 6e be cf 7f 12 bf
       0.13177323 0.20567401 -0.23297687 -0.5722627
0001d0 c9 77 a4 ba 02 23 87 3e aa 36 43 bf ed cd 6b be
       -0.0012547906 0.26393896 -0.76255286 -0.23027773
0001e0 da 7f 45 3f 8c 1b 5e bd 5a fa 9f be e5 9e a4 be
       0.7714821 -0.05422549 -0.3124569 -0.32152477
0001f0 8f 22 09 bf e0 a2 08 3f bd 22 ef bd e1 a8 3f 3f
       -0.5356836 0.5337353 -0.11676548 0.74867064
000200 6a 6c 10 3f 25 8a e7 be 39 f4 d1 bd 29 13 5d 3d
       0.56415427 -0.45222583 -0.1025166 0.05397335
000210 fd 84 c0 be 2c 83 0b 3f 7c 2a fc 3e e8 b5 66 be
       -0.37601462 0.5449703 0.49251163 -0.22530329
000220 1c e7 e5 3e 23 5e fa be c5 f6 14 3d 24 87 0c 3f
       0.44902885 -0.48899946 0.03636815 0.5489371
000230 9d 94 2b be 39 6c 74 3c b7 83 54 3e 27 c3 2e 3f
       -0.1675591 0.01491838 0.2075337 0.6826653
000240 c0 48 ad 3e d6 c2 e5 3d b4 87 83 be 43 79 96 3e
       0.33844566 0.11218803 -0.2568947 0.2938939
000250 cf de 34 be 80 c8 ae be 7e 38 ce 3e cc b3 f7 3e
       -0.1766312 -0.34137344 0.40277475 0.48379362
000260 95 52 2f 3d 1f 1c ca be 14 f1 0b 3f 7f d0 0e bf
       0.042803366 -0.3947458 0.5466473 -0.5578689
000270 05 1a 62 be dd 34 8b bd 7b ce 17 3f 09 96 35 3f
       -0.22080238 -0.06797192 0.5929944 0.7093206
000280 e9 1e f5 be 16 d2 fe bd e7 31 84 3e fd 09 00 3f
       -0.47875145 -0.124424145 0.25819322 0.5001524
000290 81 fb ea be 23 25 a3 be af 75 38 be 75 bd 41 be
       -0.45895007 -0.3186427 -0.18013643 -0.18919928
0002a0 66 e6 10 3f e6 ea 85 3e 25 bd 15 3f f6 56 d1 3d
       0.5660156 0.26155776 0.58491737 0.102216646
0002b0 27 20 df 3e ad 82 12 3f 78 7f 28 bf f0 fe 5a be
       0.43579218 0.57230645 -0.658195 -0.21386313
0002c0 01 a2 23 3f 82 28 0a 3f d7 da dd be ab 28 c7 be
       0.63919073 0.5396806 -0.43331024 -0.38898215
0002d0 6c db 2d 3f e4 ad 6c be b0 fc b5 bd 64 90 dd be
       0.67912936 -0.23113209 -0.08886087 -0.43274224
0002e0 65 37 d2 3e f7 85 9a 3e b3 14 1d bf 5e cc 8c be
       0.41057888 0.30180332 -0.6135971 -0.2749967
0002f0 9f e8 98 be 27 a7 bb 3e 29 7e 02 3e ed 06 1a 3e
       -0.29864976 0.36650965 0.12743439 0.15041704
000300 03 97 e9 be 98 66 b9 3e c2 97 a1 3e f0 e0 a5 be
       -0.45623025 0.36211085 0.31561095 -0.32398176
000310 57 93 be be 09 dd c9 be 2a d6 14 bf c9 16 83 3e
       -0.37221786 -0.3942645 -0.5813929 0.2560332
000320 61 f9 0b bf 14 1a 26 bf bc 2c fb be 6a f2 36 3d
       -0.54677397 -0.6488354 -0.49057567 0.044664778
000330 83 8c a3 be 02 78 07 3f 0e cd 93 3e d6 4c be be
       -0.3194314 0.5291749 0.28867382 -0.37167996
000340 4b 5a 93 be d8 a0 1a bd 40 73 37 be 83 ee bc 3d
       -0.28779826 -0.03775105 -0.17915058 0.0922518
000350 3f f9 aa 3e af 1c ef be 26 35 eb be d0 fa f7 3e
       0.33393285 -0.4670157 -0.45938987 0.48433542
000360 80 ab 0c 3f 59 da 50 bd a3 e1 00 bf 2a 85 87 3e
       0.5494919 -0.050989483 -0.50344294 0.26468784
000370 3a 8e 20 3f ad 18 c5 3d 31 18 7e 3e 62 4d 92 3e
       0.6271702 0.09623847 0.24813916 0.28574663
000380 3e 83 12 3f 30 dd 71 3d b4 af 4a 3f 23 8e 12 bf
       0.5723151 0.05904883 0.7917435 -0.57248133
000390 a4 0b bb 3e eb 8a 89 3e 86 c9 ef be a4 ae 01 3f
       0.3653232 0.26863798 -0.46833438 0.50657105
0003a0 2d f1 7a be a2 08 02 3f 1b 5d d3 3e 8e 6f 1d 3f
       -0.24506064 0.5079442 0.4128197 0.61498344
0003b0 39 b6 b9 bd 4e 4c 36 3f 43 1f bc be 64 ed 5c 3f
       -0.09067959 0.7121018 -0.367426 0.8629973
0003c0 64 2f a4 3e 0e 3a 1a 3f 4f 9b 63 3f 2f da 1d 3f
       0.32067406 0.60244834 0.8890886 0.61661047
0003d0 9a 87 ff 3e b9 c3 3a 3e 59 5e 27 bd 15 3d 0a be
       0.49908143 0.18238725 -0.04086146 -0.13499863
0003e0 14 6e 07 3f 74 c5 10 3f f4 d4 06 bf be 70 f1 be
       0.5290234 0.5655129 -0.5266869 -0.47156328
0003f0 73 99 09 3f c9 1f 8d 3d 37 82 3f 3d e8 1f f1 3e
       0.5374977 0.06890828 0.046755042 0.47094655

weight f4 [64, 256]
000000 63 2b 90 3c f4 d4 00 3d 6e 3d 2e 3d df c1 ed 3d
       0.017598813 0.031453088 0.042539053 0.116092436
000010 40 88 97 3b 7c ff b6 3c 84 ec 4c 3d 44 0a 03 3c
       0.0046243966 0.022338621 0.050030246 0.007998053
000020 2f 27 dd 3d d3 84 e9 3d 82 e1 ef 3c 2b 4a 71 bc
       0.10798489 0.11402287 0.029282335 -0.014727156
000030 72 c9 24 3d de 8e 61 3d 29 eb a2 3b d9 02 27 3d
       0.040231176 0.05506789 0.004971881 0.0407742
000040 2c ce 05 3c f4 d6 9d 3d 1c c0 56 bd a7 eb 7f 3d
       0.008166831 0.07707015 -0.052429304 0.062480595
000050 36 2c 5e bd ec e2 b2 b9 67 1d c4 3d 8e 8e ff 3c
       -0.05424138 -0.00034119876 0.095759206 0.031195905
000060 49 21 da bc 66 73 0e 3d c2 96 6d 3d b6 b9 a9 3d
       -0.0266272 0.03477802 0.058005102 0.08287375
000070 e5 7f cd bc a7 49 91 3d b8 f4 7d 3c 64 7f 98 3d
       -0.025085399 0.07094126 0.01550024 0.07446173
000080 e4 c1 31 3d e5 e7 d9 ba 6b a5 75 bc 55 e8 14 3d
       0.0433978 -0.0016624896 -0.014993052 0.03635438
000090 e0 e2 b8 3d 43 1b 73 3d 8e d8 c1 3c d2 bd f9 3c
       0.09027648 0.05935217 0.023662832 0.030486021
0000a0 d9 02 2e 3d 59 8e a6 3d 60 34 57 bc 1c a7 d3 3c
       0.042483184 0.081326194 -0.013135046 0.02583652
0000b0 62 4b 8e 3c 7f ce f6 3b a2 22 bd 3d 7d d9 31 3c
       0.01736993 0.0075319405 0.09235121 0.010855076
0000c0 b8 2b 97 3b 07 90 02 3e 7a 3e c5 bc 04 f1 a7 3d
       0.004613366 0.12750255 -0.024077643 0.08200267
0000d0 44 c0 6a 3d 25 57 14 3d 0b ab 6f bb d5 80 90 3d
       0.057312265 0.03621592 -0.0036570455 0.07055823
0000e0 6c 85 92 bb 84 32 51 bc ae 7b a7 3b 57 71 21 bb
       -0.0044714715 -0.0127683915 0.0051111793 -0.0024634206
0000f0 85 92 79 3b 70 b3 1a 3d 80 46 f5 3c 44 49 3b 3a
       0.0038081717 0.03776878 0.029940844 0.00071444013
000100 e7 5f 6e bd 97 95 c0 bc db c3 ac 3d d7 8e 98 3c
       -0.05819693 -0.02350883 0.08435794 0.018622799
000110 e7 de 5f 3d ac ab e7 bc a8 be 80 3b 42 da 86 3d
       0.054655936 -0.028280102 0.003928978 0.06584598
000120 5a c3 1a 3d 36 7f 9a 3d 45 d0 da bc 29 f9 c1 38
       0.037783958 0.07543795 -0.026710639 9.249367e-05
000130 44 c9 f5 3c 14 3e 24 bc a4 a3 34 3d 5c e2 96 3c
       0.030003197 -0.010024566 0.044101372 0.018418483
000140 2f 43 9a 3d 9e 35 3e bd 6a c0 73 3d c3 6d 40 3d
       0.075323455 -0.046437852 0.059509672 0.046979677
000150 3f 79 da 3c 4e 1f 8b bc 8b 47 c1 3d 6d 3d 74 3c
       0.026669143 -0.0169827 0.09437474 0.014907223
000160 86 84 58 bc 2e e3 2c bd b7 cf 61 3d bc f4 65 3d
       -0.01321519 -0.042208843 0.055129733 0.0561416
000170 15 e5 98 bc f3 5d 16 3d 02 5a e5 3c 60 60 04 3d
       -0.018663922 0.03671069 0.02799702 0.032318473
000180 c3 46 13 bd 32 da 2c 3d cf 97 e9 3c e5 41 11 3d
       -0.035956156 0.042200275 0.02851477 0.035463233
000190 75 7a 74 3d 93 00 51 3d 86 8b 0e 3c 48 00 2f bd
       0.059687097 0.05102594 0.008700257 -0.042724878
0001a0 1c e7 ac bc 23 8b b8 bc 03 77 fe bb 8e 7a 2d bd
       -0.021106295 -0.022527283 -0.007765652 -0.042353205
0001b0 d8 8a d3 3a 7e b3 f0 bc 06 06 73 3b 85 7c fb bb
       0.0016139401 -0.029382464 0.0037082448 -0.007674756
0001c0 22 24 8e 3d fc 1b 57 39 07 8a 99 3d 89 a5 ee bb
       0.069404855 0.00020514423 0.0749703 -0.007282917
0001d0 eb 56 2c bd ce 6f 74 bd 62 9c be 3c 8d 61 4b bb
       -0.04207508 -0.059676938 0.023267929 -0.0031033487
0001e0 7d b6 b8 bc 47 09 e8 3d 42 85 e0 3c e5 29 c6 3b
       -0.022547955 0.113298945 0.027407292 0.0060474747
0001f0 ef 81 42 3d eb e9 be bc d1 f9 bb b9 8f 9b 83 3d
       0.047487196 -0.0233049 -0.00035853547 0.06426155
000200 93 d1 60 bc 82 8d 32 3d b1 d0 28 3d 93 a1 dc 3c
       -0.013721841 0.043591984 0.04121465 0.026932513
000210 f2 d8 90 bd cf 6e c3 3b bd c5 a4 3d 9e 94 01 3d
       -0.07072629 0.005964137 0.08045528 0.031635873
000220 85 0e c2 3c 9e 32 96 3d 54 c1 ba 3c f5 29 18 bc
       0.023688564 0.07333873 0.022797264 -0.009287347
000230 21 b3 f7 3c 57 a3 72 3b 70 ce 09 bd b9 95 99 bc
       0.030236783 0.0037023628 -0.03364414 -0.018748151
000240 8e f6 f8 3c 06 9f 08 bc 1a 46 74 bb 51 88 30 3a
       0.030391004 -0.008338695 -0.003727323 0.000673418
000250 41 4a 44 bc 5a 8b 25 3d 79 57 54 3d 3a 04 86 bc
       -0.011980594 0.0404161 0.051841233 -0.016359437
000260 96 15 32 3b ac 7a 6e 3d 30 a6 0f bd d0 0d 38 3d
       0.002717351 0.058222458 -0.035070598 0.044935048
000270 35 96 18 3d db ac b7 3d 10 14 ed bc c5 55 82 ba
       0.037252624 0.089685164 -0.02894023 -0.0009943774
000280 b3 ec a2 3c a0 9b 7e bd 1f 40 3d bd f2 da f6 3c
       0.019888258 -0.062160134 -0.04620373 0.030133698
000290 4a a3 ba bb bf cc 04 3c ae 53 c7 3a 96 80 b4 3d
       -0.005695735 0.008105456 0.0015207434 0.08813588
0002a0 bc c0 c9 3c e3 d0 7e 3c 96 6c c8 bc 48 81 54 bd
       0.024628036 0.015552732 -0.02446584 -0.051881105
0002b0 89 23 51 3d dd c6 75 3c d7 46 2e bc 1c 27 8f 3d
       0.05105928 0.015001026 -0.010637007 0.069898814
0002c0 00 02 6a 3c 8f 68 36 bc 3a 7f 9f 3b 11 27 9d 3c
       0.014282703 -0.011133327 0.0048674615 0.019183667
0002d0 84 74 05 3c 63 55 a2 3d 45 3b 25 bd 6c 58 2a bd
       0.008145455 0.079264425 -0.040339727 -0.041588232
0002e0 1e 1c 75 bc f1 15 44 3d 12 6f 08 3d 3a 7e 3b 3d
       -0.014960317 0.047872487 0.03330905 0.045774676
0002f0 7b 61 83 3d ab f4 de bb 35 bc ca 3c e6 b6 17 3d
       0.06415077 -0.006804069 0.024747947 0.03703966
000300 8e b0 90 3c 2d 3f f0 3d a2 ad ae bc 70 17 ac 3d
       0.017662313 0.117308 -0.021323029 0.08402908
000310 6c 2e af 3d f7 9d 31 bd d6 ed 25 3c 7d 98 c2 bb
       0.08553776 -0.043363538 0.010127505 -0.005938588
000320 a2 ee 6f 3c 49 f2 17 3d e3 ac b7 3d 67 4f 23 bd
       0.014644297 0.037096296 0.089685224 -0.039870646
000330 28 de e7 bc 9a 71 64 bd 82 e0 b5 3d 96 21 f0 bc
       -0.028304175 -0.0557724 0.08880712 -0.02931289
000340 2c 3e 00 3d 16 b1 4e 3d b9 2a 1f 3c 9f f9 73 3d
       0.03130929 0.05046185 0.009714776 0.05956423
000350 76 e4 5f 3c 54 b7 a0 bd 67 b1 bb 3d f2 ac a5 3d
       0.013665309 -0.07847467 0.09164696 0.08089627
000360 6c 0d 80 3d 44 db fd 3c 7c f6 09 bd 83 29 64 bd
       0.0625256 0.030988343 -0.03368233 -0.05570365
000370 ea a0 5d bb 0e fb 8a bb bf b3 11 3d 4d de 99 bc
       -0.0033817836 -0.004241354 0.03557181 -0.01878276
000380 58 0f f7 39 1a e1 3e 3d 43 eb 82 bd d1 f2 ed bc
       0.00047122943 0.046601392 -0.06392529 -0.029046448
000390 96 b2 75 3b 78 f8 25 bd 03 5b 6b 3c 92 27 9e 3d
       0.0037490479 -0.04052016 0.014364961 0.07722391
0003a0 e5 5b c3 3c ad 45 3b bc 12 c6 39 3c 0f 02 d2 3b
       0.02384753 -0.011430186 0.011338728 0.006408937
0003b0 41 5b 09 3c 85 98 0e 3d 8b 2f 6c bd ca db c9 3c
       0.008383573 0.034813423 -0.057662528 0.024640936
0003c0 4c 0c bd bd ed 02 50 3b 42 8b 6c 3d 60 58 b0 ba
       -0.09230861 0.0031740025 0.057749994 -0.0013454072
0003d0 74 12 75 3d bf bf 56 3d 9b 54 a1 3c 75 7a 39 3d
       0.05983205 0.052428957 0.019693663 0.0452828
0003e0 b7 2c de 3d 85 95 b7 bc a1 d4 99 bc c4 8c 9d 3c
       0.108483724 -0.022410164 -0.018778147 0.019232161
0003f0 0a 6f 83 3d 85 ad a9 3a 7c 1c c0 bb bd a4 c1 bc
       0.064176634 0.001294539 -0.0058627706 -0.023638124

bias f4 [64]
000000 a7 fd 1e bc 4d 70 5a 3d 2e 71 17 b9 78 02 c8 b5
       -0.00970403 0.053329755 -0.00014442645 -1.490188e-06
000010 c2 28 8a 3d 21 4b 17 af d6 ef 14 3d 57 10 37 3b
       0.06746055 -1.3760061e-10 0.036361538 0.0027933323
000020 e7 f9 19 3e 89 14 b3 3d 3b 48 9d bc d6 72 69 3d
       0.15036736 0.08744151 -0.019199481 0.05699428
000030 c0 ba 9b 3d 85 fa b8 bd 48 74 5b 3d 10 c7 56 3d
       0.07603979 -0.09032158 0.05357769 0.052435935
000040 a1 64 5d be 40 07 89 3d 59 6c a4 3d 89 f6 4b 3c
       -0.21620418 0.06690836 0.08028478 0.012448915
000050 e8 40 8d b8 8e d1 72 3d 9e 04 43 be 95 44 81 3d
       -6.735494e-05 0.05928188 -0.1904473 0.06311909
000060 e4 de 94 3c 6f bf e9 3c f4 fd 55 27 34 30 bf 3c
       0.018172689 0.028533665 2.9697356e-15 0.023338415
000070 a0 b6 85 bd 30 d9 ec bb b0 48 6b 3e 72 d6 58 be
       -0.065289736 -0.007228039 0.22976947 -0.21175554
000080 64 fc 1c 3e 71 bb 25 3e 73 c9 16 bd f4 87 bb b7
       0.15330654 0.16184784 -0.03681321 -2.2355445e-05
000090 42 07 99 3e b5 11 01 be 70 8f 2f bb a5 f2 a7 3d
       0.2988835 -0.12604411 -0.0026788376 0.08200578
0000a0 d6 7b 64 3d a8 9a d4 3d 39 c0 6d 3e be 93 8a 3e
       0.05578216 0.10381061 0.23217858 0.27065843
0000b0 ec 03 ad bd 3c c5 14 3c ad cf 7d 3d 10 6c 4d bc
       -0.08448014 0.009080227 0.061965633 -0.012537971
0000c0 72 1b 72 3d 1c 7c 2f be 9d 3c 96 3d 90 cf 9a 3e
       0.059108205 -0.17137188 0.0733578 0.30236483
0000d0 7d 84 5b 3d 9d 4d c5 b1 05 16 82 3e 8c a6 5c 3c
       0.053593148 -5.742278e-09 0.25407425 0.013467442
0000e0 bd ff 1f 3d c5 cb 92 3d 2a 34 21 bc e4 91 48 bc
       0.03906225 0.07167772 -0.009839097 -0.012241814
0000f0 f9 9a 3a 3e 99 71 00 bc 60 09 e7 bd 0b 69 12 3e
       0.1822318 -0.007839584 -0.11281085 0.14297883

weight f4 [32, 64]
000000 ef d2 1b 3d 33 28 b1 3d bb 36 d7 3a fd 40 bc b1
       0.03804296 0.086502455 0.0016419509 -5.4789084e-09
000010 a3 4c 85 3d 6f bc ba ba 39 ae 2c 3d 75 89 11 3e
       0.06508758 -0.0014246831 0.04215834 0.14212592
000020 2d d8 54 3d 76 30 07 3d b2 e4 1e bb 65 92 14 3e
       0.051963974 0.0330052 -0.00242452 0.1450897
000030 36 23 86 be 41 1e 6a 3c 5d f4 ef 3d a2 62 a9 be
       -0.2619874 0.01428944 0.117165305 -0.33083063
000040 d3 c6 7b bd 38 c3 5c 3c 5e 68 ba 3d 51 f7 03 be
       -0.06146891 0.013474278 0.09101938 -0.12887312
000050 88 c3 68 3b de ff ba 3c e8 72 b8 bd 9a c9 35 bd
       0.0035516936 0.022827085 -0.09006292 -0.044381715
000060 53 03 c7 bd 2d f1 34 3c 77 74 9e 1a 2e 8d d3 bd
       -0.09717431 0.011043829 6.553543e-23 -0.10329662
000070 d7 9d 14 bd f8 91 35 bd 28 47 b4 bd fc 72 2e bb
       -0.03628334 -0.04432866 -0.088026345 -0.002661883
000080 0c 2d 06 3d 22 0e 93 3d f4 0e 96 be 61 4d 05 ba
       0.032757804 0.0718043 -0.29308283 -0.0005085078
000090 47 66 54 bd dd b4 48 bd 24 c4 cc bd a6 28 69 3d
       -0.05185535 -0.04900061 -0.09998348 0.05692353
0000a0 53 38 fb 3d 68 43 4a 3d 5d 6e ad 3d 81 d8 38 3c
       0.12266602 0.04938069 0.08468316 0.011282087
0000b0 9e 1e 0f 3e c2 82 11 bc 5b bb 38 bc 24 80 b7 3d
       0.13976523 -0.008881273 -0.011275138 0.08959988
0000c0 e9 8a 18 bd 9f e0 46 bd a1 dd a8 bd 32 17 80 bd
       -0.03724185 -0.04855406 -0.08245397 -0.06254424
0000d0 61 e0 01 3e 53 1d b2 37 59 37 13 3d b0 6a 87 bc
       0.1268325 2.1232909e-05 0.035941456 -0.016530365
0000e0 de da cd bd d9 8a 87 3d 98 1c 66 be 09 7a b9 3d
       -0.10051511 0.0661828 -0.22471845 0.090564795
0000f0 5c bf b8 3c 05 04 51 bd a0 d3 9f bc 24 e4 ed bb
       0.022552185 -0.051029224 -0.01951009 -0.0072598625
000100 07 27 28 3d 51 ed 40 3c 31 30 15 38 d1 53 8d b2
       0.041052844 0.011775331 3.556925e-05 -1.6452676e-08
000110 56 80 2a bd 45 bc 24 bb 34 e9 cc 3c 5f bd 6a 3c
       -0.041626297 -0.0025136631 0.025013544 0.014327376
000120 23 a6 88 3c 4f 5f 26 3d 2c ae 96 be 40 2c ce 3d
       0.016680783 0.040618237 -0.29429758 0.10067034
000130 72 bc 23 be 0b ea 53 be 9b fd d8 3d c3 53 90 be
       -0.15989855 -0.20694749 0.105952464 -0.28188905
000140 41 5d 07 3b 6e 99 c1 b8 b6 5e 82 bd f3 25 3f be
       0.002065495 -9.231536e-05 -0.06365721 -0.1866682
000150 f7 3d 35 3b bb 46 20 bc 7f b9 dd bc a8 20 b3 bc
       0.0027655342 -0.009782488 -0.02706599 -0.021866158
000160 8d 36 51 3d 25 bc f5 3d 9f da 97 27 1d ed c2 bd
       0.051077414 0.11998776 4.214795e-15 -0.09517882
000170 10 8c 20 be 3c e3 06 3e b8 a5 8e 3d f6 42 18 be
       -0.1567843 0.1317262 0.06965202 -0.14869294
000180 75 0c a1 3d 89 33 3f bc 1a 7b 3b be 4f 14 3b b7
       0.07863704 -0.011670002 -0.18308678 -1.1150797e-05
000190 bd da ce bd 0d d0 1f be d8 c6 bc be b2 fd 9a 3d
       -0.10100315 -0.15606709 -0.36870456 0.0756792
0001a0 06 94 da 3d d7 5b 81 3d 0c f9 05 bd 40 db 14 3e
       0.106727645 0.06316345 -0.032708213 0.14536762
0001b0 46 7d 68 bd 63 5e 11 3d 15 b6 5e 3d 0f 26 0c 3d
       -0.056760095 0.035490405 0.054372866 0.034215983
0001c0 e9 36 08 3e fe 32 e3 bd 86 a0 18 3e 85 5d 3a 3d
       0.13302197 -0.1109371 0.14904985 0.045499343
0001d0 6f 60 96 3c 77 4b ba 38 45 60 4c 3d f0 bd 6d bd
       0.01835653 8.8832276e-05 0.049896497 -0.058042467
0001e0 a6 84 ea 3d 87 c3 60 bd e1 f0 7d be 46 8f ab be
       0.11451082 -0.05487397 -0.2479892 -0.33507746
0001f0 04 cf 7f bc 3d e3 bc 3d ac a1 d0 bd 27 4b b5 3d
       -0.015613321 0.0922303 -0.101870865 0.08852225
000200 61 6d 82 3d 9e 34 19 be eb 96 69 bb 51 70 26 b7
       0.063685186 -0.14961478 -0.0035642933 -9.920522e-06
000210 81 f9 cb bd 34 6d 8f 34 8e 06 9b be ce 71 3a 3d
       -0.099596985 2.671528e-07 -0.30278438 0.04551869
000220 04 a0 a4 3d 0a d1 bc 3d be a3 84 bb 3c bf 37 bc
       0.08038333 0.092195585 -0.00404784 -0.011215027
000230 b3 f6 3c 3e 3f c6 ea 3d d1 70 5a be 94 76 67 3e
       0.18453483 0.11463594 -0.21332099 0.22603828
000240 d9 e0 e5 bd 0a 7c 8a bc e5 a3 5f 3d da 67 1d 3e
       -0.11224527 -0.01690485 0.05459966 0.15371647
000250 d7 13 fd ba bc 5a 9a 3b 7b eb a1 be c8 68 3c be
       -0.0019308281 0.0047105234 -0.3162497 -0.18399346
000260 08 ab 36 be 84 77 6c be d6 2a a5 99 57 05 bb 3d
       -0.1783868 -0.23092467 -1.7077901e-23 0.09131878
000270 5f 9b 1b be 4e e9 85 bd 35 e2 1b 3d 68 05 16 bd
       -0.15195988 -0.0653864 0.038057525 -0.03662625
000280 06 9e 71 bd 24 99 e5 3d d0 b4 3b 3e 70 5b 2a 3a
       -0.058988594 0.1121085 0.18330693 0.00064986106
000290 7d 7d 01 3d 8b 8f 87 be 19 e8 8e 3d 35 28 d2 bd
       0.031613816 -0.26476702 0.06977863 -0.10261575
0002a0 a0 88 41 be d4 0a 0b 38 d7 86 29 bd 26 24 4d 3d
       -0.18899775 3.3150267e-05 -0.04138836 0.050083302
0002b0 95 7e 17 be e7 3c 70 be d3 df 81 bc f4 67 34 bd
       -0.14794381 -0.23460732 -0.015853798 -0.04404445
0002c0 04 a0 05 bd 51 fc 23 be 7c 3a 93 bc 16 21 91 3d
       -0.032623306 -0.1601422 -0.017972223 0.07086389
0002d0 bd d1 2c 3d da 48 bd ba 3c 0f 3c 3d 96 9f 89 be
       0.04219221 -0.0014441267 0.045912966 -0.26879567
0002e0 37 a2 4d 3e 27 4f 64 be d8 49 a5 3d ee 0a ff 3d
       0.20081411 -0.22295819 0.08070725 0.124532565
0002f0 82 7b 71 bd 20 eb 94 be 77 70 1a bc 3c e9 ff 3d
       -0.058955677 -0.29085636 -0.009426228 0.12495658
000300 8e 8c 3d 3c 8c 84 71 ba 20 e1 50 80 57 48 f4 00
       0.011569155 -0.00092131714 -7.4276e-39 2.2433812e-38
000310 c8 88 09 3b e0 86 36 00 fa a7 8b bd 8c 0f 3e 38
       0.002098607 5.007501e-39 -0.06819148 4.531401e-05
000320 32 07 d2 3b ab a9 2b 3c b3 10 f4 3b af 14 89 bc
       0.006409549 0.010477464 0.0074482798 -0.016733496
000330 4e af 7a 3c d7 e5 ad bb 33 7d 80 bc c0 df e6 3c
       0.015300585 -0.00530694 -0.0156847 0.028182864
000340 e3 4c 1c 3d 3d ee 17 bc 14 60 84 3c 63 2a a4 3c
       0.038159262 -0.009273109 0.016159095 0.020039743
000350 87 82 20 80 fb b3 94 bc c3 37 d6 bd fe 69 da bc
       -2.98556e-39 -0.018152228 -0.104598545 -0.02666187
000360 45 6f 5f bc 1c a3 84 bc 31 51 6d 80 0a 82 c1 3a
       -0.013637369 -0.016191058 -1.0039195e-38 0.0014763486
000370 8c c0 d5 bd 09 b6 2b bc 97 7f 29 bd 77 c8 13 3a
       -0.10437116 -0.010480412 -0.041381445 0.00056374766
000380 72 ee a1 bc 2f c4 c5 3c 59 e6 67 3d e4 7a f0 80
       -0.01976702 0.0241414 0.05661616 -2.2084604e-38
000390 cb 89 bd bd 82 9a 1a bd a7 12 d0 3b f8 0c 72 bc
       -0.092547975 -0.037745006 0.00634988 -0.0147736
0003a0 7e 7a b7 bc 05 39 f0 3b b2 96 71 bb 31 ed b0 bb
       -0.022397276 0.007331016 -0.0036863503 -0.005399369
0003b0 c9 a4 1c bb cc 29 de bc 4c 56 2c bc 78 f8 46 bb
       -0.002390193 -0.02711954 -0.010518622 -0.0030360501
0003c0 8a 28 0a 3d 24 ab 7b 3c 9e 08 10 bc 6d 60 fc bb
       0.033730067 0.015360627 -0.008791117 -0.0077019245
0003d0 db 36 a3 3b 70 d7 8a 80 e1 92 43 3d ba 43 43 bc
       0.0049809045 -1.2750583e-38 0.047747497 -0.011918003
0003e0 99 8a 2d 3d e1 0c 99 bc 56 66 d2 3c a8 94 bd 3a
       0.042368505 -0.018682899 0.025683563 0.0014463859
0003f0 a8 dd ca 3c 97 0f 6c bc d8 1f 2f bb 82 64 6f 3c
       0.024763897 -0.014408014 -0.0026721861 0.014611365

bias f4 [32]
000000 dd ce 26 3e 39 0e d3 3d 97 2c 32 3d 62 b1 8c bd
       0.1628985 0.10305447 0.043499555 -0.068697706
000010 16 ff 0a 3e 00 bd 18 3e 2a 0a 88 3d 61 ea 81 bd
       0.1357387 0.14915848 0.06642564 -0.06343532
000020 95 de 30 bd f6 27 63 3d 5e b6 10 3d 15 06 82 3d
       -0.04318102 0.05545803 0.03533017 0.06348816
000030 b2 da c0 3d eb 8f 91 b8 75 15 0b 3e a0 6d ca bd
       0.09416713 -6.9409456e-05 0.13582404 -0.098841906
000040 86 6e dc 3c ba 04 71 3e 6f 80 e6 bd ce 55 b7 b6
       0.02690817 0.2353696 -0.112549655 -5.463814e-06
000050 b6 38 73 3d 23 4b ff 3d 54 ec 0d be aa 28 b0 bc
       0.059380256 0.12465503 -0.13859683 -0.021503765
000060 87 3e 1b bb f9 d1 8b bd 2e b9 ac ba 66 f7 0f 3d
       -0.0023688392 -0.068271585 -0.0013177746 0.035148047
000070 bf a7 9e b4 0c ee 02 be d8 61 8b bd e1 4f aa 3d
       -2.9551845e-07 -0.1278612 -0.068057716 0.08316017

weight f4 [8, 32]
000000 0d 25 b7 bd 0a b6 4c be f7 89 9b 3e 98 9f f4 bd
       -0.08942614 -0.19991317 0.30378696 -0.119445026
000010 d5 85 ad 3d 7b 72 c6 be bc ea 9e 3e 95 35 e4 ba
       0.08472792 -0.38759217 0.31038463 -0.0017410988
000020 11 6f 6b 3e 4a 5a 0c 0c 75 33 cf bd 92 33 11 bb
       0.22991587 1.0812378e-31 -0.101172365 -0.0022155982
000030 f5 58 8d bd ec 96 b1 b6 a8 80 a8 bd 3e dd 17 bd
       -0.06901733 -5.2925807e-06 -0.08227664 -0.037076227
000040 16 3b ce bd 0d ab a3 bd 13 82 06 bb 22 fe 03 b8
       -0.100698635 -0.0799161 -0.0020524308 -3.1469513e-05
000050 85 60 9b 3e 74 66 30 bb c0 cc 7a bd 10 f3 60 be
       0.30347076 -0.0026916536 -0.06123042 -0.21967721
000060 de 9f 87 3d d5 67 e5 3c c0 0e 9a 3e ea 3e 84 bd
       0.06622289 0.028003613 0.30089378 -0.064573124
000070 c4 10 97 07 77 40 a5 bd 7f 69 9f 3e 93 0f 9c 3e
       2.2729809e-34 -0.08068936 0.31135175 0.30480632
000080 f0 48 68 3d a5 0c 90 bd 7b 6c 80 be b2 89 45 bc
       0.056710184 -0.07033662 -0.25082764 -0.012056755
000090 7c 00 df 3d 32 a2 0b 3e c1 7f a2 be 6d bb 48 3c
       0.10888764 0.13636091 -0.31738093 0.012251717
0000a0 5a 1d 98 be 7d c6 65 3c fc 51 23 3e 08 6f 09 be
       -0.29709893 0.014024374 0.15949243 -0.13421261
0000b0 74 5f 88 3d 8f cf 59 bb f3 f7 1b 3e 36 c8 19 3e
       0.06658831 -0.0033235287 0.15231304 0.1501778
0000c0 10 9e 8a 3b 8b f6 04 3e 3c 8d 10 be 2b 6c 5c 00
       0.0042302683 0.12984674 -0.14116377 8.487669e-39
0000d0 f4 7b 95 be 9e 35 cd bd 0d de d4 bc 7d 5e 07 3e
       -0.2919613 -0.10019992 -0.025984788 0.13219638
0000e0 3f 05 d7 bd 14 4b b2 3d 39 66 54 be 56 08 cf bd
       -0.104990475 0.08705726 -0.2074212 -0.10109012
0000f0 d9 3c c2 2a 32 a9 75 bd e7 99 c8 be 48 67 79 be
       3.4503544e-13 -0.05997581 -0.39179918 -0.24355805
000100 3f 3d 1b 3e eb 1f 41 bd fd 94 de be 95 f2 45 bc
       0.15160082 -0.04714958 -0.43473044 -0.012081762
000110 fc b1 b6 3d 86 e7 0d 3e b1 3b af be 07 c1 1f 3e
       0.089206666 0.1385785 -0.34225228 0.15600978
000120 e9 60 d1 be fc db 0c bd ed 17 9e 3d ab 77 e6 bd
       -0.4089425 -0.03438948 0.07719407 -0.112532936
000130 32 9e ca 3d ea 65 81 bb d2 50 7e 3e 89 fe 19 3e
       0.098934546 -0.0039489167 0.24835518 0.15038504
000140 90 f3 8c bc 01 60 ac bb 79 28 39 be b7 4a 86 00
       -0.017205983 -0.005260468 -0.18081845 1.2332759e-38
000150 fa 3b 3d be 8a af a6 3d 8a e3 ef 3a fc 3a 0c 3e
       -0.1847991 0.0813895 0.0018302065 0.13694376
000160 59 11 da 3a e6 fa 7b 3d a4 52 dd be f7 3c 90 bd
       0.001663725 0.061518572 -0.43227112 -0.07042878
000170 68 f7 02 32 c8 49 4d be d2 da 10 be 65 9d cb be
       7.62325e-09 -0.20047677 -0.14145973 -0.3976852
000180 d3 66 f7 bd ae 43 b1 3c 7d 3e be 3e 43 81 e1 3c
       -0.12080159 0.021638718 0.3715705 0.027527457
000190 b7 6a 00 3d ed e4 53 bd 76 56 ac 3e 99 a7 10 3e
       0.03135177 -0.051731993 0.33659714 0.14126433
0001a0 37 6f 2f 3e 5a 3f 74 bc 38 63 c1 bc fd 73 07 3e
       0.17132269 -0.014907682 -0.023606881 0.1322784
0001b0 0e 4c f5 3d c4 c9 9b 3b f1 2b 86 be bd e3 28 be
       0.11977397 0.004754277 -0.262054 -0.16493125
0001c0 07 12 40 bd 2d fb 58 be a3 23 09 bd 66 3e 7e b4
       -0.046892192 -0.21189566 -0.03348125 -2.3678294e-07
0001d0 03 9d bc 3e a3 9c 40 3d a6 9a dc b9 19 56 b9 3d
       0.3683854 0.04702438 -0.00042076892 0.09049625
0001e0 24 50 8f 3d 70 44 15 3e b1 c0 0d 3e 1a b5 bd bb
       0.069977075 0.14576888 0.13843037 -0.0057894113
0001f0 1d d4 96 b5 33 81 eb 3d 92 56 be 3e b4 73 6a 3e
       -1.1237604e-06 0.11499252 0.37175423 0.228957
000200 21 81 91 3c 6f 79 58 3d de bc 63 b8 5d b3 95 80
       0.017761769 0.052850183 -5.4296914e-05 -1.3747832e-38
000210 26 ce 15 be 06 9a 13 3d 22 b1 86 3c 3c b7 89 3d
       -0.1462942 0.03603556 0.016441885 0.06724402
000220 2c 77 77 34 8a 5b 6c 84 31 0e 13 3d 98 39 ea bd
       2.3047022e-07 -2.77837e-36 0.035902206 -0.114367664
000230 fd bb bc bd 98 8f 48 8a c7 23 e2 3d 6e 32 30 30
       -0.092155434 -9.656657e-33 0.1104198 6.410009e-10
000240 25 f0 24 07 67 78 f7 3c 1a 56 a8 39 aa 09 d9 80
       1.2408561e-34 0.03020878 0.00032107608 -1.993177e-38
000250 11 4a d4 bb 48 0e 96 b9 e7 3f 60 08 63 b1 e4 a9
       -0.006478556 -0.0002862087 6.7482665e-34 -1.0156006e-13
000260 02 cb a9 b8 ee 36 13 be cc 53 14 b4 15 2b e5 3d
       -8.096361e-05 -0.14376423 -1.3814059e-07 0.11189858
000270 56 f1 91 1d fc e8 c1 3d 7f 89 ce 36 c0 a5 a8 3b
       3.8630716e-21 0.09468266 6.155285e-06 0.005146712
000280 54 5d 19 3e 16 09 34 be fb c6 96 3d b3 3a 05 3d
       0.14977008 -0.17581591 0.07362171 0.032526683
000290 c2 e7 17 3e f1 cd 2f be de be 92 3e 08 5a eb 3d
       0.14834502 -0.17168404 0.28661245 0.114917815
0002a0 4c a9 c2 3e bd 1d 58 bd 37 ea 13 3e d9 af 0f bd
       0.38019788 -0.052762736 0.14444815 -0.03507981
0002b0 b0 fc 9a ba 9c ed 2c 3b 0d db 84 be c1 12 3f be
       -0.0011824574 0.0026386743 -0.25948372 -0.18659498
0002c0 a4 f7 9b 3c 31 fe 8b be 8d ec 64 bd c4 3d 64 37
       0.019038983 -0.2734237 -0.055889655 1.360424e-05
0002d0 a4 7d 7f 3e 28 e2 0b 3e f6 5a 9e 3c 75 02 9d bd
       0.24950272 0.1366049 0.019330483 -0.07666484
0002e0 cb 19 82 3e 8b 1b 3c 3e 85 bb e5 3e 77 1a 3c be
       0.25410303 0.18369882 0.4486963 -0.1836947
0002f0 27 10 81 b4 51 db 1a bd fe 3d aa 3e 42 a6 82 3e
       -2.4039875e-07 -0.037806813 0.3325042 0.2551747
000300 f7 bf 25 3e 7d b0 2a 3e d5 cf e5 be 5e 39 b2 bc
       0.1618651 0.16668887 -0.44885126 -0.02175587
000310 86 d5 ed 3d b3 79 36 3c be ae 8d be 24 b8 20 3e
       0.11612992 0.011137414 -0.2767238 0.15695244
000320 bb 0d ba be de 19 a7 bd 61 c8 55 3e 0e ff ed 3d
       -0.363386 -0.08159231 0.2087722 0.116209134
000330 88 c2 fc 3d d8 9d 77 bb b5 bd 26 3e a3 4c 7f bd
       0.123417914 -0.0037783291 0.16283305 -0.062328946
000340 e7 f4 51 bd 7d 7b e7 3d 68 bb 1e be 37 16 09 88
       -0.051258948 0.113028504 -0.15501177 -4.125305e-34
000350 d2 59 ce be 0b 85 07 be 45 1d 86 3b a4 dd 48 3e
       -0.40302902 -0.13234346 0.0040928447 0.19615799
000360 8e 72 74 be ac 86 f5 3c 68 19 a3 be b6 89 11 3e
       -0.23871824 0.029971443 -0.3185532 0.14212689
000370 92 82 ef 34 33 ff ed bd 37 cd b9 be 97 4d d6 be
       4.4612221e-07 -0.11620941 -0.3628938 -0.4185607
000380 eb b4 d6 bd c7 eb 3b 3d 76 a8 8d be d2 e6 d5 bb
       -0.10483726 0.04587915 -0.27667588 -0.00652776
000390 4f 4e e4 bc 7b 6c 9d bc 81 21 bc bd aa 06 18 bd
       -0.027869372 -0.019216767 -0.09186078 -0.03711573
0003a0 0a 36 ab bd a2 85 01 bc f9 33 0c 3e de 49 32 be
       -0.083599165 -0.007905396 0.13691701 -0.1741099
0003b0 24 0b 22 3e b0 40 cc ba ca 3f 33 3e 04 7f 57 3e
       0.15824562 -0.0015583243 0.17504802 0.21044546
0003c0 e6 e3 26 3b 2b d6 8d 3e d1 19 15 bd 56 ed 28 01
       0.0025465428 0.2770246 -0.036401574 3.1027007e-38
0003d0 9b 0f ce be 89 91 50 bd 8b ec c2 bd 9d d6 14 bd
       -0.4024628 -0.050920043 -0.09517773 -0.036337484
0003e0 09 35 b8 be f6 0a 02 3d 1f 71 74 be 80 fe a0 bc
       -0.35977963 0.031748734 -0.23871277 -0.019652605
0003f0 b3 22 4c b5 6f 79 31 be 65 76 c0 be 02 34 0d be
       -7.6046416e-07 -0.1733148 -0.37590328 -0.1378937

bias f4 [8]
000000 4e e6 19 3f c6 bf ef 3d 86 4a 22 3e 64 fc 1a be
       0.6011704 0.117065 0.15848741 -0.15135342
000010 e0 2a b4 bd 1a 91 3b 3d ab 59 fa 3c 21 32 e8 3d
       -0.0879724 0.045792677 0.030560335 0.11337686

weight f4 [1, 8]
000000 b9 11 f6 3e 4e b2 05 3e 26 f8 32 3e ac e6 90 be
       0.48060396 0.13056299 0.17477474 -0.2830099
000010 90 f6 c0 3b 6f 55 5d be b6 52 71 3e 79 9c 97 3e
       0.0058887675 -0.21614622 0.23566708 0.29611567

weight f4 [8, 1]
000000 a0 62 7b 3f f7 27 dc 3e 72 9f cb be 1f 08 56 3f
       0.98197365 0.4299924 -0.39770085 0.8360614
000010 78 eb 69 3f 3e cf 81 3f 29 89 b2 3e fd 31 21 bb
       0.9137492 1.014137 0.3487027 -0.0024596446

bias f4 [8]
000000 0f 11 1b 3f 9c d5 60 be 6e d8 23 bf 7e 6a 4e be
       0.60572904 -0.21956486 -0.6400212 -0.20157811
000010 4d 1f 75 3f ca e8 51 bf 23 b6 fe be 4a a6 14 3f
       0.95750886 -0.8199583 -0.49748334 0.58066237

weight f4 [32, 8]
000000 cb b3 e6 3e b1 f3 6b 3e 48 81 c0 bd 02 0b d5 bd
       0.45059046 0.2304218 -0.093996584 -0.1040249
000010 a0 47 aa 3e 1c 81 86 3e 0b 55 11 3e d3 8e 70 3e
       0.3325777 0.26270378 0.14192598 0.23491983
000020 f8 43 4b ba 8b 98 0e 00 5c 7b 93 ba f7 3f 92 02
       -0.00077539636 1.340419e-39 -0.0011251974 2.1489486e-37
000030 be 51 98 ba cb d3 32 2e 6c ea 11 30 f1 37 b3 ba
       -0.0011621041 4.0660624e-11 5.3083826e-10 -0.0013673288
000040 cc 34 ce 3e f3 81 46 be a6 60 6e be c5 3a fd 3d
       0.40274656 -0.19385509 -0.23279056 0.12364725
000050 3b 88 86 bd d8 43 83 bd c7 c0 5b bd 69 a3 57 3e
       -0.06568953 -0.064094245 -0.053650644 0.2105843
000060 18 04 00 3e f4 44 14 3c 73 00 35 3d 60 23 23 be
       0.12501562 0.009049643 0.04418988 -0.15931463
000070 c1 56 14 be 84 69 26 be d0 56 b9 00 95 57 5d be
       -0.14486219 -0.16251189 1.7020709e-38 -0.21615441
000080 d4 1a 4c 3e d6 0e 63 3e 38 59 79 3e bf 49 9c 3e
       0.19932109 0.22173628 0.2435044 0.30525014
000090 db 6d 86 be 81 20 98 3d ce 06 bf 3e 62 cf 13 3e
       -0.26255688 0.07428075 0.3730988 0.14434579
0000a0 bc c9 4a be 57 25 f6 be a5 ab ad 3d a8 fd d8 bd
       -0.19803518 -0.48075363 0.08480004 -0.10595256
0000b0 0b 01 e8 3d 13 ce cf be 3e 54 09 be a7 11 4c 3e
       0.11328324 -0.4058691 -0.13411042 0.19928609
0000c0 e7 e9 ac 3e 18 d6 cf 3e 53 66 5e b0 d5 1b 15 3e
       0.33772203 0.40593028 -8.090854e-10 0.14561398
0000d0 06 d6 ba 3c f2 42 48 3e 1e 96 09 3e e3 1c 48 bd
       0.022807132 0.19556788 0.13436171 -0.048855674
0000e0 dc f1 ef bc 1b 78 c1 bd 57 dc f8 be d7 f5 1a be
       -0.029290132 -0.094467364 -0.48605606 -0.15132843
0000f0 a7 52 4d bd 1b 1d 5f be c1 1e b2 b3 da 24 b1 3e
       -0.05012765 -0.21788447 -8.294365e-08 0.34598428
000100 54 55 88 be 62 b9 ae be 79 d9 a7 be 67 9f 1a be
       -0.266276 -0.3412581 -0.32783106 -0.1509987
000110 c5 91 9e 3e 1e 33 bb bd 5d 97 84 be 3a 0b f2 bc
       0.30970588 -0.09140609 -0.2589673 -0.029546369
000120 1d 8f 1a bf d5 36 12 21 9b ee e2 3e 65 f1 08 00
       -0.60374624 4.9539294e-19 0.44322667 8.2128e-40
000130 00 6c 5f be 4a c4 76 80 45 4a 42 ab 32 cc 38 3e
       -0.21818542 -1.0907004e-38 -6.9025715e-13 0.18046644
000140 f5 35 04 3e cd e8 c2 bd 14 f9 eb bd f5 5d 78 be
       0.12911208 -0.095170595 -0.11522117 -0.24254592
000150 62 05 26 3e 3a 79 fb bd a9 43 f6 bd 05 42 d9 3e
       0.16212991 -0.122789815 -0.12024624 0.4243318
000160 b0 8c 8e be 89 f6 d1 be 43 7d 18 3e eb 25 cd be
       -0.2784171 -0.41008404 0.14891534 -0.40067992
000170 f9 68 b3 3e 25 3f ca be dc e9 82 be 1c 06 a2 3e
       0.35041025 -0.395013 -0.25569046 0.31645286
000180 d9 49 94 3c 01 d1 58 3e 56 9d ac be 21 db 0f 3e
       0.01810162 0.21173479 -0.33713788 0.14048435
000190 37 22 c5 3e 7a 49 d1 bc 26 a8 26 3e 29 7b b1 bd
       0.38502666 -0.025547732 0.16275081 -0.08666069
0001a0 ff ec 81 bb 5c 5e 00 bb 5a c7 93 3e 89 de f3 3d
       -0.0039650197 -0.0019587493 0.2886303 0.119076796
0001b0 ae b0 6b bd 3d a4 8b bd ac 5f 80 3c 24 6a 9e be
       -0.05754154 -0.06818435 0.01567062 -0.30940354
0001c0 80 1f 44 be a2 8c d0 3c b0 87 a2 3e c1 0e aa bc
       -0.19152641 0.025457684 0.31744146 -0.020758988
0001d0 b0 1f cc bd 25 06 86 be 71 e4 b1 1a b2 e1 67 3e
       -0.099669814 -0.26176563 7.357455e-23 0.2264469
0001e0 8c ff 63 3e d9 b6 0b 3d 75 aa b7 be 4f f8 25 3e
       0.22265452 0.034109924 -0.35872236 0.16208003
0001f0 75 7c 14 3d 12 dc f7 3b b5 75 95 be d2 dc b0 bd
       0.036251504 0.007564076 -0.29191366 -0.08635868
000200 73 ec 57 bd 73 c9 da be fb 91 c3 bc e0 ec 10 3e
       -0.05271573 -0.4273182 -0.02387332 0.1415286
000210 21 f1 dd bd d9 7a 88 be 24 5f b0 be 20 9b a4 3e
       -0.10837007 -0.26656225 -0.34447587 0.321496
000220 4e 20 31 be a1 56 69 3e 34 0b 9a be 45 d4 e1 3c
       -0.1729748 0.22786953 -0.30086672 0.027567038
000230 69 2f bf 3e 55 ae 84 bd cc 95 8a be 1f 0c 49 3e
       0.3734086 -0.06478564 -0.2706741 0.1963353
000240 74 db 0b a3 e5 50 58 80 e4 9f 15 b2 db 0e f8 b1
       -7.581676e-18 -8.110543e-39 -8.709296e-09 -7.219439e-09
000250 aa 93 ad a6 19 74 21 00 2d 71 72 13 6e cc 92 a7
       -1.2044311e-15 3.07222e-39 3.0600494e-27 -4.0744784e-15
000260 4a 5d 6a 3e 9f ce 8c be de 31 8f bd 2d 6a 6b 3c
       0.2288715 -0.2750139 -0.06991933 0.014368576
000270 87 01 83 3e da 4f ea bc 32 49 ca be 49 46 02 3c
       0.25587103 -0.02860253 -0.3950897 0.007951328
000280 0e 33 b9 3e 09 cf 7c be 80 73 21 be 0b c2 10 be
       0.36171764 -0.24688353 -0.15766716 -0.14136522
000290 68 7b 0d 3e e4 3d 7e be 76 1e 0f 3e 7a 3c a5 3d
       0.13816607 -0.24828297 0.13976464 0.080681756
0002a0 8b a0 ce 3e 7f 55 de 3e 3e 88 5e 80 3a e3 e2 3e
       0.4035686 0.43424603 -8.681411e-39 0.44313985
0002b0 ae 19 33 bd be f8 e0 3e 26 fa 93 3e ef 8c a3 3d
       -0.043725662 0.43939775 0.28901786 0.07985865
0002c0 18 1f dd 3c c2 41 95 bd 94 19 b7 3d 93 a3 ea bd
       0.026992366 -0.07287933 0.089404255 -0.114569806
0002d0 4a 50 db 3e 56 68 9c 3e dc e0 cf 3e 1f 45 81 be
       0.42834693 0.30548352 0.40601242 -0.25248048
0002e0 83 01 24 be a5 d5 82 be 10 48 94 3e 25 4a 0e be
       -0.16016202 -0.25553623 0.2896123 -0.13895471
0002f0 12 4e f1 3d 61 78 c0 be bc 01 40 22 18 40 c8 3e
       0.11782469 -0.37591842 2.602177e-18 0.391114
000300 c4 72 87 3e fa 1f 6d 3e 54 71 20 aa 30 5d a2 3c
       0.26454747 0.2315673 -1.4250173e-13 0.019819826
000310 d8 b2 66 3e bc 6d d4 3d fe e1 7f 3e 55 81 02 be
       0.22529161 0.10372493 0.24988553 -0.12744649
000320 4c 50 83 be 23 73 b5 be 5d 83 4e bd ed e0 ca be
       -0.256472 -0.35439405 -0.050418247 -0.3962473
000330 e4 a7 b2 3e a1 84 aa be 33 59 b5 be 22 6b 04 3f
       0.34893715 -0.33304313 -0.35419616 0.5172597
000340 92 9c 14 bf b5 1c a1 00 4e e9 84 3e 07 bc c0 19
       -0.5805141 1.4795813e-38 0.25959247 1.9928278e-23
000350 e6 8b 40 bd f5 16 80 00 18 48 6f 00 1a 79 18 3e
       -0.047008418 1.1763179e-38 1.0219602e-38 0.14889947
000360 bc b0 1e b1 13 9c db 00 1c 54 22 b9 9c 97 8d ad
       -2.3092488e-09 2.0167963e-38 -0.00015480857 -1.6097172e-11
000370 1a 07 93 92 87 10 12 a6 0a c1 d0 00 73 a0 18 3d
       -9.278755e-28 -5.0676324e-16 1.9171033e-38 0.03726239
000380 ab da a1 3c b4 2e 83 be a2 94 41 3d d4 62 a2 be
       0.01975759 -0.2562157 0.047260888 -0.31716025
000390 74 7c dd be d3 9a 6d 3e e9 b5 1a 3e 30 ca 4f 3e
       -0.43259013 0.23203592 0.15108456 0.20291972
0003a0 d2 fa 33 bf 51 5e 57 80 cf 6f 75 3e ae 44 07 9c
       -0.70304596 -8.023523e-39 0.23968433 -4.475652e-22
0003b0 0a cc bd bd de 48 45 00 15 93 82 21 e5 ff 5d 3e
       -0.09267433 6.362789e-39 8.848075e-19 0.21679647
0003c0 02 3c 42 3e 9c c9 c5 3e 05 d4 7b 1e d3 bc 32 bc
       0.18968204 0.38630378 1.3331674e-20 -0.010909277
0003d0 16 56 d4 bd e3 78 cd 3e 74 2d 1b 3e 16 6a 87 be
       -0.10367982 0.40131292 0.15154058 -0.26448125
0003e0 bc 9c 07 be b0 1b 59 8b 3a 15 89 3d 93 55 8d b1
       -0.13243383 -4.181351e-32 0.06693502 -4.1133688e-09
0003f0 bc 57 2a bf eb ef 39 00 23 fc 92 80 90 dd 79 3e
       -0.6654012 5.32069e-39 -1.3498432e-38 0.24400926

bias f4 [32]
000000 93 2a 85 be d5 ed 0a bb 62 24 d7 bd 89 44 9a 3e
       -0.26009044 -0.0021198888 -0.10504986 0.30130413
000010 ff 9f 1f be 28 bf b0 3e 73 ed aa be 1c f8 9e 3d
       -0.15588377 0.3452084 -0.33384284 0.07762167
000020 f5 fa 59 3e 99 74 88 3d 26 15 e3 3e 21 54 16 3e
       0.21287139 0.06662864 0.44352072 0.1468053
000030 ef 9d ab bb 92 cc 36 be 17 a8 c6 3e 6b 50 ff 3e
       -0.005237333 -0.17851475 0.38800117 0.49866042
000040 51 53 fb 3e ce 8a cd bd 04 a6 13 a9 7e 94 40 3e
       0.49087003 -0.100362405 -3.2784553e-14 0.18806645
000050 7d fd 67 3e b5 d5 b4 be 4c 3d 7e be d4 c9 d6 bd
       0.22655292 -0.35319296 -0.2482807 -0.104877144
000060 b1 ad 5e bc 0d c7 d7 3e 73 4c eb 3c d6 28 0e bd
       -0.013591216 0.4214405 0.028722977 -0.034706913
000070 2b fd b0 3d de a6 3e 3c 44 6e a7 bd c1 3c 26 3e
       0.08642038 0.011636464 -0.081753284 0.16234113
