model/1901.3956557512283325.pt (torch_old, 168315 bytes, 19 tensors)

weight f4 [256, 2]
00000000: 0f43 cb3e d965 4a3c 5744 a43d f897 393d
00000010: 1ff0 0ebe fe44 11bf 7715 8e3d 8d47 0abf
00000020: b03a f8be cee5 0d3f ffcc 02be 62df 203e
00000030: 5634 453e b702 063f 7ed3 c43d 1f48 363f
00000040: a0bc b53e b507 713e 935d 7c3e 99f2 d93e
00000050: 10a3 5ebe 8c8b 4b3f 3e0f d6be aa57 ff3e
00000060: cc22 c13e 4a62 123e 3870 8b3d 7cee 43be
00000070: 8bfa 083f cc65 9abe bcc3 8abe dc66 993e
00000080: f22c 073f bcbb 4cbe 4609 033f 4a43 073f
00000090: d3df 093f 4058 77be 5b51 f73d ee57 97bd
000000a0: 32d4 123f 9eb3 f8be e188 dcbe d898 313f
000000b0: d4d7 b53e c7c7 003e 070f 5f3e c74e 583d
000000c0: fcac 2d3f 37e0 1dbf 93cb 1a3f fab8 00bf
000000d0: cddf 00bf 8cce 33be c0d7 063f 793d fbbc
000000e0: 6740 253f 27c0 48be 4208 dfbe f142 2dbf
000000f0: 7b22 2d3e ab73 153f 5d9c 09bf e7bb bb3e
00000100: a33a 8abe 51e3 133f 52b2 983e 0afa 413f
00000110: cb01 ebbe 7118 0c3f edd7 223f 1bc7 ec3d
00000120: 4071 0cbf 5bd5 c1be 9a1c 253f c125 7d3e
00000130: d40c 053f d4f4 4ebe 0239 ebbe bf77 1d3f
00000140: 2dd9 17be 22a9 f53e cbcc 6fbd 2ead 30bf
00000150: 84aa a43e a15e 353f 4cc1 923e caed bdbe
00000160: 92b4 503e 4c2e 01bf d4a3 8bbd 9385 11bf
00000170: 13ae 693c a109 9d3e c181 b43e 1fc5 aebd
00000180: bbac 163f 91b1 9bbe 9859 fabd a974 173f
00000190: 78b8 1dbf 1e34 033e a3e1 7bbe 8a3e f0be
000001a0: 7e3d c83e 8a9d c53d 40db e9be 52f2 453f
000001b0: d23e fc3e bc89 1e3d 7a42 eabe 5a47 373e
000001c0: b984 303f 8100 2a3f 29e0 9c3e 1ef3 59be
000001d0: 41fc 9fbc 66a5 333d 59aa d93e 813f 97be
000001e0: f3a8 55bf 5c39 86be ae11 9c3e dc39 e63e
000001f0: 302b f03b 8fdb 083f 4720 6a3b 8f73 873e
00000200: 2830 cabe 4f2a c4be cd87 1b3f f750 5fbe
00000210: 07bd 3a3f 8b3c 90be b854 f4be 1277 033f
00000220: 050e d53e c54f 893e 6f26 bd3e 3607 2f3f
00000230: e262 893e 3c91 32bf 6d67 c03e df13 1e3f
00000240: 88ba 8a3e c2de 35be 6295 a3bd 4d38 81be
00000250: a808 e43e b2c5 2e3f c6fa 26be 01b5 463e
00000260: 780a 41be 4db8 d7be 868c 0dbe 8df2 123f
00000270: b394 a63e 431e 14bf 6b48 04bf 3dfd 61be
00000280: 8fdb 00bf 3cb1 a8bd e9f4 9a3e 64cd 2bbf
00000290: 6a51 70be a1cf c2be 95ee 67bd d1da a43e
000002a0: 1541 933e 5417 27bf feaf e9be 4e0e 1c3f
000002b0: 1d89 1abf 07b2 69be 998e ba3e 6bce c8be
000002c0: 5788 3a3f d0b4 88bd 7d35 03be 638d 343f
000002d0: 2c88 d73d f507 053f 4928 143f 546a 663d
000002e0: d667 553d a111 343e b062 96bd fe35 dc3d
000002f0: 5dc5 05bd 0f2a ca3e 329a 1b3f aa7b 0bbf
00000300: 1c1a c73e 3749 23bf 956c 063e abda 0fbf
00000310: 8c8c 12bf f889 aabe fe8e f7be a597 72be
00000320: 511b 8f3e 3e79 0fbf 03b2 523e 8335 923e
00000330: 1a5c 843e a0ac 663c a620 eebe 630c e0bd
00000340: 00d6 c23d 0275 0d3f 0b92 fabd 6b5b 20bf
00000350: 33a3 58be b134 48be 12ea 1abf c4ce 0abf
00000360: 7e3e 0ebf 49cf 2f3f bc31 a1be bc15 893e
00000370: c40f df3e 80ea cfbe 01ff eb3e 7ff2 fbbd
00000380: b70b ec3d f82c f9be 9b8b 17bf ea6d 503e
00000390: c7e5 c23e ded4 2c3f f325 adbe 7554 473f
000003a0: efd0 11bf ffbe cfbe e7bc 233f dfa1 a63e
000003b0: e1e5 e0be 5887 2fbd b11f 1abf 0d83 263f
000003c0: c16c 16bf 82fe 89be 1f99 5ebe efc2 723e
000003d0: 5d57 d53d b530 693e 0aa0 94be 8ee7 a43e
000003e0: c87d 2abf e679 6c3e af2b a43d 91e9 243f
000003f0: fade 6ebd 6e35 19bf 5927 00bf f873 203f
0.396996 0.012353384 0.08020847 0.045310944 -0.13958786 -0.567459 0.06937688 -0.5401543
-0.48482275 0.5542878 -0.12773512 0.15710214 0.19258246 0.5234789 0.096106514 0.712038
0.35495472 0.23538096 0.2464507 0.425679 -0.21741891 0.79509807 -0.41808504 0.4987157
0.3772186 0.14295307 0.068085134 -0.19133943 0.535073 -0.3015579 -0.27102458 0.29961288
0.52802956 -0.1999349 0.51186025 0.5283705 0.53857154 -0.24154758 0.12076064 -0.07389818
0.57355034 -0.48574537 -0.4307318 0.69373846 0.35516226 0.12576209 0.21783076 0.052809503
0.6784208 -0.6167025 0.6046688 -0.5028225 -0.5034149 -0.1755926 0.5267296 -0.03066896
0.64551395 -0.1960455 -0.43560988 -0.6768027 0.16907685 0.5837962 -0.53754216 0.36666796
-0.2699786 0.5776873 0.29823548 0.75772154 -0.45899805 0.54724795 0.63610727 0.11561414
-0.54860306 -0.3785809 0.6449677 0.24721433 0.519727 -0.20210582 -0.4594193 0.61510843
-0.1482894 0.479806 -0.058544915 -0.6901425 0.32161343 0.7084752 0.286631 -0.3709548
0.20381382 -0.5046127 -0.06818357 -0.56844443 0.014262694 0.3067141 0.35255244 -0.085336916
0.58857316 -0.3040891 -0.1222412 0.59162384 -0.616096 0.1281285 -0.24597792 -0.46922714
0.39109415 0.09649189 -0.45675087 0.77322876 0.49266678 0.038705572 -0.45753843 0.17898312
0.6895252 0.6640702 0.3063977 -0.21284148 -0.019529464 0.043858908 0.42512777 -0.29540637
-0.8346092 -0.26215637 0.3048224 0.44966018 0.007329367 0.5346002 0.0035724805 0.26455352
-0.39489865 -0.3831353 0.6075409 -0.2180823 0.7294468 -0.2817119 -0.47720885 0.5135356
0.4161226 0.26818672 0.36943385 0.6837038 0.26833254 -0.6975286 0.37578908 0.6174907
0.27095437 -0.17760757 -0.07987477 -0.25238267 0.44537854 0.6827041 -0.163066 0.19404985
-0.1885165 -0.42132798 -0.13823137 0.57401353 0.32535324 -0.57858676 -0.51673 -0.22069259
-0.5033502 -0.0823693 0.30264977 -0.67110276 -0.23468557 -0.38049033 -0.056624014 0.32198194
0.2876059 -0.6526997 -0.45642084 0.6095933 -0.6036547 -0.22821818 0.36436918 -0.39219984
0.7286429 -0.06675112 -0.12813373 0.7052824 0.105240196 0.51965266 0.5787397 0.056253746
0.05210098 0.1758485 -0.07343042 0.10752486 -0.032658923 0.39485213 0.6078216 -0.5448557
0.38887107 -0.6378359 0.13127358 -0.56193036 -0.5724571 -0.33308387 -0.48351282 -0.2369066
0.27950528 -0.56044376 0.20575719 0.2855645 0.25851518 0.014079243 -0.46509284 -0.109398626
0.095134735 0.55256665 -0.12234887 -0.6263949 -0.21156006 -0.1955135 -0.6051341 -0.5422175
-0.55564106 0.6867567 -0.31483257 0.26774395 0.43566716 -0.40608597 0.4609299 -0.12302112
0.11525672 -0.4866712 -0.59197396 0.20354429 0.3806593 0.6751231 -0.33818015 0.77863246
-0.5695943 -0.40575406 0.6396012 0.32545373 -0.43925384 -0.042853683 -0.6020461 0.6504372
-0.58759695 -0.26951987 -0.21738099 0.23707174 0.10417054 0.22772487 -0.2902835 0.32207912
-0.66598177 0.23093376 0.080161445 0.64418894 -0.058318116 -0.5984715 -0.5006004 0.62676954

bias f4 [256]
00000000: f11f 10bf a5a6 363f 8842 a73b f437 57be
00000010: a18a ff3c c0fd 273f 227f 333f 0a7a 03bf
00000020: c677 25bf 392c e3bd a3cd cb3e d94e ab3b
00000030: d4f9 943e 3df7 4a3f 5113 7cbe 24eb aa3e
00000040: 4ba1 d0be 5af9 d4be e4c4 d13e eaaa 683e
00000050: 376c 5ebe 5e26 04be 051f 7bbe 7074 1ebf
00000060: 61d7 1b3f e5b1 36bf 170b 953e fc9d aabe
00000070: 6034 96bd 0dfb 33bf 9fbd 0a3f 6c10 8fbd
00000080: a51c a83e 166b 4f3c adf3 d43e 3c87 463f
00000090: 046c 0cbf 31cc 403e 48d6 0d3f 629c a93d
000000a0: 747f 923e 5faf c63e 1c66 e2be a9e7 a93e
000000b0: 3080 b5be 45f2 cbbe 3fd2 b33e 559f f73e
000000c0: 82ad fd3e c856 153f 9f01 42bf 959e 55be
000000d0: ab33 a43d 67b5 15bf 4fe7 a3be 53a6 a33e
000000e0: e409 ae3e 1bc0 1ebf 58f7 3c3f 031f 21bf
000000f0: 3306 883e 446c 433f 9312 e0be 2585 443d
00000100: 1ec3 0e3f 28ee 0d3e e736 79be 87d8 3e3e
00000110: 2732 54be e088 aebe 9747 003f 74d5 df3e
00000120: 9d9f 03bf cef9 91be 42bb 3f3f 7e40 153f
00000130: 19fc 283f e5ba 00bf b6ac 14bf 1fbd 1a3f
00000140: 1e19 e0be a486 1ebf 6613 aa3c 5e49 0dbf
00000150: e82b 4a3d 9711 0bbf 6d31 f23e 0bb9 1f3f
00000160: e55d 30bf 08a5 2bbe d712 193f cd34 293f
00000170: dff2 043f fe8c f6be cb80 2e3f 6a9d 873c
00000180: 9b5e c8be edec 943e cc43 fc3e 0046 27be
00000190: 12a4 2d3f 9530 4bbc a34b 603e be43 21be
000001a0: 7c4a 9f3e 57e1 1abf 2fa0 4e3e b244 0fbf
000001b0: 7463 ac3e c678 213f 8324 c83c ed17 113f
000001c0: 3ffb 583c 0793 143f 6aae 98bd 1be0 e4be
000001d0: 982a 1a3f 8395 ee3e 06ef 14bf ba5a 2d3f
000001e0: 699e ecbc 21dc a33e 9406 bb3e b453 ab3e
000001f0: 4c13 51be 2c86 1b3f b5f6 a0be 31b3 1b3f
00000200: 7c00 c6be a950 09be 11c4 debd 2e66 22be
00000210: ffd7 0a3f 82ee ff3e 6410 b6be 619a 23bf
00000220: d4d2 12bf f256 84be 6a06 59be 655f 3a3e
00000230: 11df 87be f923 ecbe a0a3 af3e 10a4 203f
00000240: 81c9 23bf 3fd2 45be f03a 71bc bbc8 a1be
00000250: d794 213f 8789 9c3d 452e f73d e289 c03e
00000260: 8b1f 30bd ef83 02bf 48fc 4e3f 8ea8 28bf
00000270: 3d26 5abe 872c fb3d 72d5 0ebf 7f39 143f
00000280: 2487 12bf 85e7 97be 82be 0f3e 8a1d fd3e
00000290: 28ee 24bf e82a a43e 54ee e2be 0e2e b13d
000002a0: 9421 42bd 343a c6be b33e ba3e f975 383f
000002b0: 9669 373f 6b5f 3e3e c6d7 dfbe 14d0 863e
000002c0: 2fe1 213f 8b11 02bf 8924 0ebf 5ceb 0c3e
000002d0: 1877 c3be 8b54 c63e 8c4e 06bf 7847 07be
000002e0: 5b36 cebe 2ff6 883e 4e55 1fbf d1db 12bf
000002f0: 459a 38bf 8fa3 1b3e 606e 14be 09f0 013f
00000300: 072e f73e 0d18 323f c648 dbbe e223 3a3e
00000310: e186 a5be cfe8 303e 1c21 0c3f 7c78 53be
00000320: 65b1 dbbe 616c e53e 1c3d bebe aa0f 90bb
00000330: b46b 93be b295 113f e474 e83c eb53 24bf
00000340: 8fcc c43e ec22 b03e 2442 05be b095 4c3e
00000350: 7455 163e e0b5 2abd 4f69 c23e 64f8 fe3e
00000360: 7d61 203f 48cd d03e 1d4f 083f 772c 683d
00000370: 9c53 803d 3886 5d3e f475 c1bc 7b3d c83e
00000380: ec57 013e 1946 d0be 491f aa3e bd59 c8be
00000390: f871 c53d dec4 843d 43a1 0fbe 8fab 483e
000003a0: 9321 84be b2f8 4c3f 2198 683b 8780 2c3f
000003b0: 16b6 ccbe c4de 21bf 5a6d e43e af8f e3be
000003c0: 83b0 3e3f e75d d03e ebc0 dabe 9d49 69bd
000003d0: 3899 f43e 746a d33e 39c3 b93e 85c2 a63e
000003e0: 1482 2f3f 7622 063f cfc6 c5be 9f9a 03bf
000003f0: 665f aa3e d459 2c3f 402c 6abe ecd4 c1be
-0.5629874 0.7134803 0.0051043667 -0.21017438 0.031194033 0.65621567 0.70115864 -0.5135809
-0.64635885 -0.11092419 0.39805326 0.005227905 0.29096854 0.79283506 -0.24616744 0.33382523
-0.40748057 -0.4159649 0.40970528 0.22721449 -0.21720968 -0.12905261 -0.24523552 -0.6189642
0.6087552 -0.71365196 0.29110023 -0.33323658 -0.073342085 -0.7030495 0.5419559 -0.06985554
0.32834354 0.012659809 0.4159216 0.775501 -0.5485232 0.18827893 0.5540509 0.08281781
0.28612864 0.38805673 -0.44218528 0.33184555 -0.35449362 -0.39833274 0.35121343 0.48363748
0.49546438 0.5833554 -0.75783724 -0.20861275 0.080176674 -0.58479923 -0.32012412 0.31962833
0.3399192 -0.6201188 0.73814917 -0.62937945 0.2656723 0.76337075 -0.4376417 0.04797854
0.55766475 0.1386038 -0.2433735 0.18637286 -0.20722257 -0.34088802 0.5010924 0.4371754
-0.51415426 -0.28510898 0.7489511 0.5830153 0.6600967 -0.5028518 -0.58076036 0.60444826
-0.43769163 -0.61924195 0.020761203 -0.55190074 0.04935828 -0.54323715 0.47303334 0.6239173
-0.6889327 -0.16762173 0.5979437 0.6609619 0.5193309 -0.48154444 0.6816527 0.016554553
-0.39134678 0.2908701 0.49270475 -0.16335297 0.67828476 -0.01240172 0.21903853 -0.15748498
0.31111515 -0.6050009 0.20178293 -0.55964196 0.33669627 0.6307491 0.024431473 0.5667713
0.0132434955 0.58036846 -0.07455142 -0.4470223 0.6022124 0.46598443 -0.5817722 0.6771656
-0.02888413 0.32003883 0.36528456 0.33462298 -0.20417517 0.60751605 -0.31438223 0.608203
-0.38672245 -0.13409676 -0.108772404 -0.15859291 0.54235834 0.49986655 -0.3555938 -0.6390744
-0.5735295 -0.25847584 -0.21193853 0.18200453 -0.26537374 -0.46121195 0.34304523 0.6275034
-0.63979346 -0.19318484 -0.014723524 -0.31598458 0.63117737 0.07643419 0.12069372 0.37605196
-0.04299883 -0.50982565 0.808537 -0.65882194 -0.21303649 0.12264352 -0.5579444 0.5790023
-0.5723746 -0.29668823 0.14037517 0.494366 -0.644259 0.32063985 -0.44322455 0.08651362
-0.047395304 -0.3871628 0.3637596 0.7205501 0.71645486 0.18591087 -0.4371931 0.26330626
0.6323423 -0.5080802 -0.555245 0.13761657 -0.381768 0.38736376 -0.52463603 -0.13210857
-0.40275845 0.26750323 -0.6223954 -0.57366663 -0.72110397 0.15199111 -0.1449523 0.5075689
0.48277304 0.6956795 -0.4282896 0.1817775 -0.32329467 0.1727631 0.5473802 -0.2065143
-0.4290878 0.4480925 -0.37155998 -0.0043963986 -0.28793108 0.5686904 0.02837605 -0.6419055
0.38437316 0.34401643 -0.13013512 0.19978976 0.14681035 -0.041677356 0.3797097 0.49798882
0.62648755 0.40781617 0.5324572 0.05668303 0.06265947 0.21633232 -0.023615815 0.39109406
0.12631196 -0.4067848 0.33226994 -0.39130965 0.096408784 0.06482862 -0.1402636 0.19596694
-0.25806865 0.8006698 0.0035491067 0.6738362 -0.3998267 -0.6323054 0.4461468 -0.4444556
0.74488086 0.40696642 -0.4272531 -0.05695497 0.47773147 0.41292155 0.36281756 0.32570282
0.6855786 0.52396333 -0.3862824 -0.5140781 0.33275908 0.67324567 -0.22868443 -0.3785776

weight f4 [64, 256]
00000000: 2602 1cbc 1f66 033e f4ec 863c 6c20 abbd
00000010: 6be5 903c 1113 773d 9982 7a3d 99fe a13d
00000020: f1aa ddbc 7de0 cf3c 25bd 173e ad82 883c
00000030: dd12 073d ed4d 20bd a766 32bd f088 e63d
00000040: 543b a2bd 728d 083d 0599 11bd d0b4 133d
00000050: c28d 7dbd 8d2d df3d 5441 6cbc 53fb 1fbd
00000060: cc52 d3ba 0404 8ebd 7d06 0c3c 5bd0 c43c
00000070: 6461 d33c edf5 4abb 27a2 de3d eccb 8e3d
00000080: ab30 fb3c 0eab 843d c2de f93d e345 dd3c
00000090: f85c ad3c 476c 2a3d beb7 203d 0556 8b3d
000000a0: 915e 0e3e bece 2d3c 9c1b 8b3d f489 aebc
000000b0: cc62 4f39 3c7c f73c 49ae 083e a480 eabc
000000c0: eb93 a03b 9768 d33d 8fde b43c 7b16 acbc
000000d0: c335 04bd 8a8d f33d 60d3 c13c 9bdd ac3d
000000e0: 8453 a93c 7d57 d6bc 3f2a 253e efa6 dcbd
000000f0: e239 e23c efa7 6d3d c567 a63c 2b83 b73d
00000100: 669e 573c cb90 e7bc dd9d 023d f9e2 533d
00000110: d7ee 423c f029 5f3d 0a5b bc3c 2ef9 1abb
00000120: 23e8 b0bd b70c 783c bb70 ba3d 462b 423d
00000130: d4b3 e6bb 5dcf a33d 43f4 87bd 482e 73bd
00000140: 3620 b2bd c17e 9bbd 99fe 92bd a314 123d
00000150: 6b8e fa3c 7047 cd3d 0317 52bd 7026 21bd
00000160: 7a8f b0bd 6de2 ab3c 35e2 e23d 464c b439
00000170: 3d34 973d 232c c13d db00 613d bb15 193d
00000180: 2d23 9ebc f8bc b6bd be67 6fbd 0259 8cbd
00000190: 173c 48bd c671 8b3d 0a90 743d 25ce d4bc
000001a0: 6458 023e e1ab 98bd 79e4 df3c b034 193d
000001b0: 4b05 083e 46bb 913d e04d 26bd 82a5 04bb
000001c0: 5032 ebbb 7375 013d 4d64 ac3d 60df 043e
000001d0: d1ab ccbc 4a55 7b3d 62e0 a0bd f757 b43d
000001e0: 0f33 1f3b a822 e43c 308e 843d 7643 ac3d
000001f0: 37fc ac3c 712d 003e f20d ef3c 327a 143d
00000200: ba8b e13c 8148 17bd c358 633c 889d a93d
00000210: cbad 6b3d 6ea6 bb3d 3e66 053e c81b 033d
00000220: 0c81 af3c 5243 0fbb 033c 83bd a63d e53d
00000230: d043 51bd 3246 8a3d e62e ddbc e073 cc3d
00000240: 8b5e 073d d61c 3e3d c466 0a3e b150 1b3d
00000250: 0e50 ea3d bf4d f7bb 7875 683d e7d7 3b3d
00000260: 4fe3 743d 6ef5 913d da6a 693c a04d a83d
00000270: 3037 60bc 77d6 7fbd d5fb c53d 4424 983d
00000280: 78c5 9ebc 1975 97bd a7b9 bdbc a992 843d
00000290: 4c4a 873b 0fd0 dd3c 6436 d9bb 2da5 96bc
000002a0: d1b8 64ba 6f01 a33c 8673 8c3d 6269 a53d
000002b0: bba2 1c3d 4f35 c93d f4c2 9e3d 7630 0f3c
000002c0: fa7b e23b 02e9 6dbd b0db 50bd 8e42 a03d
000002d0: 5808 2fbd 6af2 e1bc dddb 81bb 72eb d13c
000002e0: 61b6 953d ad3f 3b3d b1fe a7bd 0b11 f13d
000002f0: 8bea 143c b557 cbbc 6334 02bd 0ad9 87bd
00000300: 0e26 a93b 9411 4d3c 7519 bf3d 6bf7 983c
00000310: 92df 003b 9bf6 9d3c c07f 8dbb ab41 cf3d
00000320: 9472 953d 428b 033e 787a a2bd 3554 80bc
00000330: 9121 c0bd 5931 063c c914 87bd 8204 ffbc
00000340: 67dc a53d 796a 42bc b0e9 82bd 4c0c 5b3c
00000350: b85e 7f3d cee8 243d 9c8d 0b3c 3da1 d03c
00000360: 51df af3c c761 efbb b31d 8e3c c231 fd3c
00000370: 50b0 48bc f626 1f3d 33e2 713c 2e9e 103e
00000380: 0d2d 75bd e013 0abd c0ac c93d 1df5 59bd
00000390: 11fa abbd de37 f13c b81a 653c 1610 3c3d
000003a0: 343a 30bd 11d5 0d3d 6337 3c3d c57f 143e
000003b0: d83f f33d 5ba5 9abc d3b2 0e3e 9b07 6a3c
000003c0: 17ea a03d 6980 c43d e2f2 173d be21 933d
000003d0: 4749 2b3b 25b5 0abd 5f70 d53a d184 1d3c
000003e0: c459 0d3e c7d3 aa3c 1699 653d 7620 4c3d
000003f0: be28 11bc 11ac cfbc c9a0 0a3d 9d2e 8dba
-0.009521997 0.12831925 0.01647041 -0.08355793 0.01768752 0.060320918 0.061159704 0.07909889
-0.02705905 0.025375599 0.14818247 0.016663874 0.032976974 -0.039136816 -0.04355493 0.112565875
-0.07921472 0.033338018 -0.03554632 0.036061108 -0.06190277 0.1089736 -0.014419872 -0.03905804
-0.0016122698 -0.0693436 0.008546469 0.024025133 0.025803275 -0.0030969337 0.10870772 0.06972489
0.030662855 0.064779386 0.12200691 0.027010864 0.021162495 0.041607168 0.03923773 0.06803516
0.13903262 0.010608373 0.067923754 -0.021306016 0.00019777863 0.030210607 0.13347735 -0.028625794
0.0049004457 0.10322683 0.02207878 -0.021006813 -0.032277834 0.11892231 0.023660362 0.084407054
0.020669706 -0.026164765 0.16129397 -0.107740276 0.027615491 0.058021482 0.020313153 0.08960565
0.013160324 -0.028267285 0.03188883 0.05173013 0.011897764 0.054483354 0.02299263 -0.0023647058
-0.086380266 0.01513975 0.09103533 0.04740455 -0.00704048 0.07998536 -0.06638386 -0.05937031
-0.0869755 -0.07592536 -0.07177467 0.035664212 0.030585488 0.10023391 -0.051291477 -0.039343297
-0.08621116 0.020981992 0.11078302 0.00034389104 0.073830105 0.094322465 0.054932456 0.03737424
-0.019303882 -0.08922762 -0.058448546 -0.068529144 -0.04888543 0.0680881 0.05970768 -0.025977204
0.12729031 -0.07454658 0.027330624 0.037403762 0.13283269 0.07115798 -0.04060161 -0.0020240252
-0.0071776286 0.03160615 0.08417568 0.12975836 -0.024984272 0.061360635 -0.078552976 0.088058405
0.0024291908 0.027848557 0.064724326 0.08411305 0.02111636 0.12517335 0.029181454 0.036249347
0.027532447 -0.03693438 0.013876143 0.08282 0.05753879 0.09162603 0.13027284 0.032008916
0.021423839 -0.0021860194 -0.06407931 0.11193399 -0.05109006 0.0675167 -0.026999902 0.09983039
0.033049148 0.04641422 0.13515764 0.03791875 0.114410505 -0.00754711 0.056752652 0.045860197
0.05978709 0.0712689 0.014246667 0.08217931 -0.013685033 -0.06246039 0.09667174 0.07428792
-0.01938127 -0.073953815 -0.023159815 0.06473286 0.00412873 0.02707675 -0.0066287983 -0.018389309
-0.00087250496 0.019898145 0.06857972 0.08076741 0.03824113 0.09824621 0.07752028 0.008739581
0.006911752 -0.05808354 -0.05099076 0.07825194 -0.042732567 -0.027581412 -0.0039629773 0.025624964
0.07310177 0.045715023 -0.082028754 0.11770829 0.0090891225 -0.024822095 -0.03178824 -0.06633194
0.005162007 0.012516398 0.093310274 0.018672666 0.0019664508 0.01928263 -0.0043182075 0.10119947
0.07297245 0.12846091 -0.07933515 -0.015665153 -0.09381402 0.008190476 -0.06595761 -0.03113008
0.08098679 -0.011866205 -0.063922286 0.013369631 0.06234619 0.040261082 0.008517649 0.02546751
0.02146879 -0.007305357 0.017348146 0.030907515 -0.012249067 0.038855515 0.014763403 0.14122841
-0.059857417 -0.03371036 0.098474026 -0.053212274 -0.08397306 0.029445585 0.013983421 0.04591378
-0.043024257 0.034627024 0.04595126 0.14501865 0.118774116 -0.018877676 0.13935404 0.01428404
0.07857149 0.09594805 0.037096865 0.0718417 0.0026136206 -0.03386416 0.00162841 0.009614185
0.13803774 0.020852936 0.056054197 0.049835645 -0.008859811 -0.025350602 0.033844743 -0.0010771338

bias f4 [64]
00000000: 0ec5 1d3e 4e1a 253e 1111 b7bc ec31 d1bb
00000010: d350 3c37 6319 b03d 40a6 2a3e 1d02 2f3e
00000020: a59b 4f3e ca18 cbb9 5596 593d 2a36 63bb
00000030: 6b5b bd3d 9783 32bc 89d1 883b c83f 26bb
00000040: 1b06 a93d a56c 5b3d 2e67 123d ae14 e23d
00000050: d405 98bc 8c39 273d 4c03 8e3d b464 203d
00000060: c9fb 153e 115c cbbb e168 603e a213 b33d
00000070: 5103 aeb8 dfee 403d 2327 f33c 296e ec3c
00000080: 9db0 f93d 2af2 ccab e958 113e 08a3 1fbe
00000090: c18d 2e3d 7c2c 57bc 3651 30b9 2888 6b80
000000a0: da55 adbb b91d 123e c6f3 1ebd ba3e 0fb8
000000b0: 7e59 f43d adba 55b6 83c5 d4ba 7fba ec3d
000000c0: b06c d5ba 54f2 25bc a58a 2f3e 5a3a 433d
000000d0: 6633 bd3d 0212 413d 2341 833e ea08 7f3e
000000e0: 5a12 3f3e 161f 12be 854f 2d3e f9e0 cebb
000000f0: 48bf 963c 1f13 dc3d 9dd2 9d3c e3db 293d
0.15407202 0.16123316 -0.022347005 -0.006384125 1.1224492e-05 0.08598592 0.16664982 0.1709065
0.20274217 -0.00038737647 0.053121883 -0.0034669735 0.09245952 -0.010895631 0.004175369 -0.0025367606
0.08253118 0.05357041 0.03574293 0.110391006 -0.018557467 0.040826365 0.069342226 0.039158538
0.1464683 -0.0062060435 0.21915008 0.08743979 -8.297584e-05 0.047102805 0.029681748 0.028861122
0.121918894 -1.4562286e-12 0.14194073 -0.15589535 0.042615656 -0.0131331645 -0.00016814921 -9.875242e-39
-0.0052897753 0.14269151 -0.0388067 -3.4152275e-05 0.11931132 -3.1848133e-06 -0.001623318 0.11559009
-0.0016283002 -0.010128576 0.17142732 0.04766307 0.09238319 0.047136314 0.25635633 0.24905744
0.18659344 -0.14269671 0.16924866 -0.00631344 0.018401757 0.107458346 0.019265467 0.041469466

weight f4 [32, 64]
00000000: 0344 e63d 300a 073e e3b6 9cbd 3db2 89bd
00000010: b145 7836 9d2a 8bbd fa9c ad3c 6e7b 1f3d
00000020: 9bd8 22bc ef04 063b 1c4c 983c b7c3 9bbd
00000030: 37f3 03be f926 453e d077 ad3d b991 f53c
00000040: 543e 6d3e 32da f73d 2751 b63d e260 0e3e
00000050: 746e a7bd f799 f2bb c2b7 e23d 39a7 6b3e
00000060: a054 133e 4309 fbbc 6c49 073e d275 ac3d
00000070: ef21 833a f77a 1cbe 88c4 e1bc 7651 143c
00000080: 5acc 193e 2b51 e2a7 8fa1 1a3d 1640 ba3c
00000090: d71b 0ebe 5d2f 21be 473e 4838 cb1f 9894
000000a0: a5ae 84bc f66d 1e3e f146 25be e4b9 91aa
000000b0: 6885 ab3d 49f3 1133 f4c8 093b b4b8 e33d
000000c0: 6c5f 2e3c 5756 253e 5168 00bd 6895 373e
000000d0: e412 e53d 7dbb cebb 3713 c03d 5b01 223d
000000e0: 0234 8dbd 5869 7ebd 23e2 843c 219b 31bc
000000f0: 6f0b 0c3e d0bd 173e 5528 60be 51f9 a83d
00000100: cb22 c0bc 31a4 823d 9238 5bbd a8c2 023c
00000110: 8bd1 fa37 7d60 103d 003a d03d 61d5 c83c
00000120: d255 8ebd 2101 e43b a835 c93b 560b 3abd
00000130: 6cb4 933d 7995 f1bc 8a08 24bd 3b42 413d
00000140: 367f 57ba 2777 c13d 3cfc 003e 0b12 2a3d
00000150: b457 b9bc 3b4f d53d 267b 333d 59b6 dd3c
00000160: 7b70 a1bc d5cb 8b3d e450 b8ba 92c0 d43d
00000170: 67a0 f83a 9836 92bc 88db b6bd 04e6 c8bc
00000180: cf6f 3d3d db9d 9793 0935 e33d 2314 7cbd
00000190: 16a2 e1bc c25f 013e 5ba8 1626 a4c8 e1b7
000001a0: 5b83 0d3b 3e13 00bd fd40 353d 6eb2 3cac
000001b0: 433c 103e c4a5 e800 5cad 8e39 3af6 a23d
000001c0: 65c6 103c 246e e13d 4e2e 333e 30a2 66bd
000001d0: b96c b33d 6504 0cbc e585 c6bd 17d6 8d3e
000001e0: c557 9c3d 537b c7bd 5f29 0a3e 0802 27bc
000001f0: f646 ee3d b23b b6bd f876 e63c 2de3 333c
00000200: d9c2 c33d 0886 9bbd b8d2 94bd d36e 623d
00000210: 44cc e7bb bbfe 933d 22cf d1bc 7f22 f53d
00000220: 687f 68bc 152e 1bbc 3fa7 fb3b cab8 073d
00000230: 57e9 b3bd 8476 65be 6394 8fbe 6ee0 873b
00000240: b0ed b7bd 5bb6 bbbd cd9f 5bbe 85a9 50be
00000250: f3d2 b13d 2e18 0abe 1a2a 0cbe 8469 f9bd
00000260: 0e3a 1d3d 7c33 e33c 40e1 2b3b c6cb 923d
00000270: 773e 6000 7677 0c3e 241d 5abd d84d 9fbe
00000280: 84e3 18be 3978 15b9 8e36 dabc 6ed1 a2bd
00000290: df26 b4bc 50bd 6f3d a1a6 25b9 8d33 a419
000002a0: bc92 d639 2124 bcbd 29ac bcbd 4bc2 f630
000002b0: 1617 a43d 7076 9eb0 5151 c535 9d7e 32be
000002c0: 88ee 743b b8e0 dcbd 5bb1 af3d f1d2 babe
000002d0: 24eb 913c 4a7f 5b3d 03e6 42bd 2e48 adbd
000002e0: 835a c53d 4183 72bd 89c3 a13d 454c a33a
000002f0: a5cc 1dbe 66d1 dd3d b9f1 b53c 24ec 5b3d
00000300: 2112 013e 355f 003e d874 6cbd 7fae 113e
00000310: 2403 ee3a 162f c83d b323 2b3e 3a7d 243e
00000320: 6d48 023e cbf8 9dbb 0e26 b2bd 4f76 fd3d
00000330: 1e50 b63d 4ed6 c2bd 4d70 b83d 098b 09bd
00000340: c57d f23c 9381 7f3d b433 113d 6464 e33d
00000350: d3fd 58bd f344 ce3d 03b1 c43d 77e7 9c3d
00000360: 489e 55bd b137 143e b25e 12bc 5de7 ee3d
00000370: 24bd 053b 2377 133d 61f1 dd3d 6afa 143e
00000380: fdfd d03d c1dc 0eb4 60c9 e03d 6e42 b9bd
00000390: b74f 943c 0ba4 67bd 6a1d 14b7 b95c 95ba
000003a0: 087b 2fbd dd79 033e 4268 f13d 5300 77b5
000003b0: a79b f83d 9cbb 129f d3c0 07bc bed4 ca3b
000003c0: bdaa 2cbb 2af0 9a3c 0078 083e a706 c6bd
000003d0: f8f0 203e 3a3e 8b3d dc18 cbbd 4875 af3e
000003e0: 4e80 7cbb fe71 1abd 5ed3 303e 877e c1bb
000003f0: 7fd7 cbbd 4a7c b4bd 9ac2 c4bd fe3e 0b3e
0.11243441 0.1318748 -0.076520704 -0.067234494 3.6995445e-06 -0.06795237 0.021193016 0.03893607
-0.009939338 0.0020449718 0.01859098 -0.07605689 -0.12885748 0.19253148 0.08470118 0.029976713
0.23168308 0.12102164 0.08902197 0.13904145 -0.08175364 -0.007403608 0.11070205 0.23013009
0.1438775 -0.030644065 0.13211602 0.0842091 0.001000462 -0.15281282 -0.027559534 0.009052625
0.1501936 -6.2815603e-15 0.03775173 0.022735637 -0.13877808 -0.15740724 4.7741716e-05 -1.5360618e-26
-0.016196558 0.15471634 -0.16140343 -2.5886162e-13 0.083750546 3.398171e-08 0.0021024318 0.11119214
0.010642868 0.16146217 -0.031349484 0.17928088 0.11185244 -0.0063089714 0.09378665 0.039552074
-0.06894685 -0.062112182 0.016221112 -0.010840208 0.13676237 0.14818501 -0.21890385 0.08250678
-0.02345409 0.06378973 -0.053520747 0.00798098 2.9899898e-05 0.03524827 0.101673126 0.02451581
-0.06949963 0.0069581424 0.0061404295 -0.045420967 0.07212147 -0.02949022 -0.040047206 0.047182303
-0.0008220555 0.09446555 0.1259622 0.041521113 -0.022624828 0.10415503 0.043818615 0.02706449
-0.019706955 0.06825987 -0.0014062193 0.10388292 0.0018968702 -0.017848298 -0.08928591 -0.024523742
0.046249207 -3.8273416e-27 0.110941 -0.06154264 -0.027543109 0.12634185 5.226987e-16 -2.691552e-05
0.0021593187 -0.03126835 0.04425143 -2.6815455e-12 0.14085488 2.13653e-38 0.00027213513 0.0795712
0.008836363 0.11007336 0.17498133 -0.056307018 0.087609716 -0.00854597 -0.09693507 0.277024
0.07633928 -0.09740319 0.13492344 -0.010193355 0.116346285 -0.08898105 0.0281329 0.010979456
0.095586486 -0.07593924 -0.07266754 0.05528147 -0.007073911 0.0722632 -0.025611464 0.1196947
-0.014190532 -0.009471436 0.0076798494 0.033135213 -0.087847404 -0.22408491 -0.28042898 0.004146627
-0.08980882 -0.09165641 -0.21447678 -0.20377167 0.086828135 -0.13485786 -0.13687935 -0.12178329
0.038385443 0.02773451 0.0026226789 0.07167773 8.838616e-39 0.13717446 -0.053250447 -0.31114078
-0.1493054 -0.00014254534 -0.026637342 -0.07950102 -0.021991191 0.05853015 -0.000157977 1.6978024e-23
0.00040926586 -0.091865785 -0.092125244 1.7954077e-09 0.08012216 -1.1529675e-09 1.470131e-06 -0.17431112
0.003737362 -0.10785049 0.0857875 -0.3648906 0.01781232 0.05358819 -0.047582638 -0.08461033
0.09636404 -0.059207205 0.078986235 0.0012458643 -0.15410097 0.10830955 0.022209989 0.053691998
0.12604572 0.12536319 -0.05772862 0.14226721 0.0018158895 0.09774606 0.16712837 0.16063395
0.1272294 -0.004820918 -0.086986646 0.12376081 0.08902 -0.095135316 0.09005795 -0.03357986
0.029600987 0.06237943 0.0354497 0.11103132 -0.05297644 0.10071745 0.09604075 0.07661336
-0.052152902 0.1447437 -0.00893371 0.11665223 0.0020406926 0.03600229 0.10837055 0.1454865
0.102046944 -1.330509e-07 0.10975909 -0.090458736 0.018104417 -0.056552928 -8.828336e-06 -0.0011395431
-0.04284194 0.12839456 0.11787464 -9.201514e-07 0.12139063 -3.107189e-20 -0.008285719 0.0061899116
-0.0026346885 0.018913347 0.13327026 -0.096692376 0.15716922 0.06798978 -0.09916851 0.34269166
-0.0038528624 -0.037706368 0.1726813 -0.005904976 -0.09953212 -0.08812769 -0.0960743 0.13598248

bias f4 [32]
00000000: 5413 ab3d 4610 1d3e 539e 2b3c 9427 af3d
00000010: 39fc 503e 4c84 b380 3f96 103e b61d 09ba
00000020: d5b1 c93d b73d 9b3d eaf4 a9bd ea4a 453c
00000030: e901 4190 2b38 e6bc 6eda 1bb2 9df9 e5bc
00000040: 59e3 fcba 0e4b 79bc 7838 773c 574d 63bd
00000050: 70c4 f5b9 28d1 33be c64d ce3c e7f3 9bba
00000060: 0a8d f23c 682c 03bd 85bc 103e fa20 b23c
00000070: 283b 923d 1028 863e 3c0c 883d f015 99bd
0.08353296 0.15338239 0.010474759 0.08552471 0.20408715 -1.6486013e-38 0.14119814 -0.00052305625
0.09848372 0.075801305 -0.08298667 0.012041787 -3.806401e-29 -0.028102955 -9.071853e-09 -0.028073126
-0.0019293829 -0.015215648 0.015089147 -0.05549368 -0.000468764 -0.17560256 0.02518357 -0.001189825
0.029608268 -0.03202477 0.14134414 0.02174424 0.071401894 0.2620244 0.066429585 -0.07474887

weight f4 [8, 32]
00000000: 1a9f 7abe 2a51 1b3d e7c3 9d3d ac2e 183e
00000010: 2aa5 183d 60b1 2901 799b f2bd 8629 cabd
00000020: 7032 0bbd e527 98bc 3e08 8a3d 0009 b8bd
00000030: 6a5e 7100 3425 86be 5d4a 2da4 0633 afbd
00000040: fe1e 09be 7b05 0d3e 7102 acbc 8430 a7ba
00000050: 3583 4c3a ab51 0c3d 0da0 85bd 830b 4480
00000060: c2ee 42bd 9128 97bd cd69 1fbe e0fc c5bc
00000070: 2afe 643e d895 c93c 0c3c 92bd 6b6a 79bd
00000080: e453 423e c5f4 333d 3aa5 b5bc d40f 303e
00000090: 21d7 073e e63a 4c00 9e1e 1cbc e3b7 4d3e
000000a0: e7b8 173c 7bc9 113e 0427 d6bd 4961 13be
000000b0: 23ae acba 4b9c 92be 530d 25b0 53a5 e7bc
000000c0: 5817 80be e9ba 653e 9cea 603c 1707 49be
000000d0: a6f0 e5bb 7d47 2e3e bd23 753e 15a0 e838
000000e0: 4cf2 4dbe c2e6 cc3d 23a4 e23d 4d3c e03d
000000f0: 755e 163e 763f 783d 0808 513e 1afc 733e
00000100: ed94 723d a91b 053e 709b 39bc f644 533e
00000110: 3423 c13d a951 1900 7b7e 02bf 18a3 533d
00000120: 8e03 0c3e 5859 183d ae37 13be c43d 82bd
00000130: 231d 4cba 4543 e3be d053 7624 8332 77be
00000140: 6ee4 fcbe 01cf 1cbd 41d2 963c 3ac8 99bd
00000150: 4027 9ebb 6a56 06be 9f3a 133e 7d80 6aaf
00000160: 4152 14bf 7197 d5bc 83c8 c43d 2fef 9b3d
00000170: be16 343d c3aa 433e 6558 4e3d e13e a9bd
00000180: 060d afbb 67b0 aabb 020d d4ba e8ea adbb
00000190: 5116 8dbb 6880 e180 0f46 1ebb fcc0 aebb
000001a0: 194b afbb 4e79 a1bb 5fbb aebb 98d3 aebb
000001b0: f310 6600 0346 2ab8 5816 2500 c91c 70bb
000001c0: 1633 b8b6 20b8 aebb 65fc 88ad 7c70 aebb
000001d0: 2a27 4b00 2856 50bb 67dc 94bb 593a f800
000001e0: cd74 8531 5e56 afbb 7b89 a4bb 2639 afbb
000001f0: a4cc aebb ea95 adbb fb50 a2bb 2d5c afbb
00000200: 7d8e 583e 800c 0a3d 007e 68be bb73 c6bc
00000210: f172 00be 9d71 fd80 286f 7a00 fa74 30bc
00000220: 0754 ea3d 22eb 9fbc 4173 253e 1098 4e3e
00000230: ed16 b53a 9fc9 38be 4da5 4880 22a6 9ebe
00000240: 969c 37bd f368 8a3d 50d0 8f3d f5a7 8a3d
00000250: 5e09 b33b f10a 9e3d f8b8 1bbe 6816 6800
00000260: 09bc b5b4 520f 073e 702d b5bd 2c0b c53d
00000270: dbff 233d 447e 98bc d743 0cbe 061b 183e
00000280: b009 65be 87c5 a53d 9521 283e be8b f43d
00000290: 799e b33d 2d59 c700 30ba 993d 6c97 54be
000002a0: 2093 01bf 51ae fbb9 3757 0ebf d9ea 263e
000002b0: 5d62 6680 a4e7 113e 5f9b 84b3 acdf 183e
000002c0: c4ef 4f3e 0082 0bbf 732c 5bbd 6dab 483d
000002d0: 2ed3 593b 1248 88be 5e4e 953d e815 e9ba
000002e0: 746c b73d cf7e f5be 4fd3 e53d c203 fbbe
000002f0: c0b3 c3be 439b 78bc f82d a23e 4671 e9be
00000300: 747c 27be 494a 53be 5e50 babd cf78 ba3d
00000310: cbd3 60bd da38 e780 8592 1c3e afb5 c7bd
00000320: 8e7b 0cbf cce8 1e3e 13bd 02bf c781 31be
00000330: a726 0581 79fe c73d 39fc 7e00 38bf 423e
00000340: 7e65 7b3e 1219 c6be 25d0 b3bd fd54 74bd
00000350: 984b 543b b658 d4bd 9a94 4280 374b 7233
00000360: ac4d 3b3e 5981 f0be 5c50 0fbe 2d48 9cbe
00000370: add5 26be df76 533d fa27 533e d8a0 b5be
00000380: 50ab 2abf 8c70 2abc 73b8 4f3d 82db 80ba
00000390: 4278 e53d 2db4 4380 b63d c33d 2799 2fbf
000003a0: 32f1 cfbe 78c0 ba3d acd1 2fbe bb75 e9bb
000003b0: bef8 6780 c932 5b3e 902d 28a3 174e 153e
000003c0: 2928 25bd b891 31be 6392 193d 6d26 bf3b
000003d0: a67d 62bb efd5 b03d 3c3c f13d c26f db2e
000003e0: 93f4 6d3e 16c7 27be c234 cdbd 2981 24be
000003f0: 1a4f 81be ef4f aebd 7ec9 3abe dfda c1be
-0.24474755 0.0379192 0.07703381 0.14861554 0.037266888 3.1167658e-38 -0.1184606 -0.09871201
-0.033983648 -0.01857371 0.06739853 -0.089860916 1.041128e-38 -0.2620026 -3.7576383e-17 -0.08554654
-0.13390729 0.13771622 -0.020997258 -0.0012755548 0.0007801534 0.034257572 -0.06524668 -6.248943e-39
-0.04759098 -0.07380784 -0.15567704 -0.024168432 0.22362581 0.024607584 -0.07140359 -0.060892504
0.18977314 0.043934602 -0.022173513 0.17193538 0.13265659 7.000626e-39 -0.009528784 0.20089678
0.009260393 0.14237015 -0.104566604 -0.1439258 -0.0013174455 -0.28634867 -6.0045585e-10 -0.028277075
-0.2501781 0.22434582 0.01372781 -0.19631611 -0.007017213 0.17019458 0.23939414 0.0001109244
-0.2011196 0.10004951 0.11066463 0.109490015 0.1468447 0.060607396 0.2041322 0.23826638
0.059224058 0.12998833 -0.011328563 0.20631775 0.094305426 2.325182e-39 -0.50974244 0.05166921
0.13673231 0.03719458 -0.14376709 -0.06359437 -0.0007786324 -0.4438726 5.341374e-17 -0.24140362
-0.49393028 -0.03828335 0.018410804 -0.07508893 -0.0048264563 -0.13118902 0.14377831 -2.1327824e-10
-0.5793801 -0.02607319 0.09608557 0.0761398 0.043967 0.19108109 0.05037727 -0.08263946
-0.0053421287 -0.005209017 -0.0016178193 -0.005307544 -0.004305639 -2.070905e-38 -0.0024150645 -0.005333064
-0.0053495285 -0.0049277907 -0.005332395 -0.0053352825 9.373301e-39 -4.0596362e-05 3.405929e-39 -0.003663825
-5.4895745e-06 -0.005332008 -1.5573496e-11 -0.005323468 6.901712e-39 -0.0031789634 -0.0045428756 2.2796134e-38
3.884088e-09 -0.005350872 -0.0050212718 -0.005347389 -0.0053344537 -0.005297412 -0.0049535013 -0.0053515644
0.21148105 0.033703327 -0.22704315 -0.024225106 -0.12543847 -2.3275137e-38 1.1243806e-38 -0.010770077
0.11441808 -0.0195213 0.16157247 0.20175195 0.0013816037 -0.18045662 -6.671454e-39 -0.30986124
-0.044827066 0.06758299 0.07022154 0.067703165 0.005463763 0.07716931 -0.15207279 9.55893e-39
-3.385069e-07 0.13189438 -0.08846557 0.096212715 0.040038925 -0.018614896 -0.13697754 0.14854059
-0.22366977 0.08094316 0.1641906 0.11940716 0.08770461 1.8307254e-38 0.075062156 -0.20760888
-0.5061512 -0.00048004327 -0.5560183 0.16300525 -9.402507e-39 0.1424852 -6.174991e-08 0.14929074
0.20306307 -0.5449524 -0.053509187 0.04899161 0.0033237445 -0.26617485 0.07290338 -0.0017783018
0.08956233 -0.4794831 0.112219445 -0.49026304 -0.38223076 -0.015173736 0.31675696 -0.45594233
-0.16356069 -0.20633806 -0.0909736 0.09105074 -0.05488948 -2.1234394e-38 0.15290268 -0.0975145
-0.5487603 0.15518492 -0.51069754 -0.17334662 -2.4455974e-38 0.09765334 1.1661753e-38 0.19018257
0.24550435 -0.38691002 -0.08779935 -0.059651364 0.003239369 -0.10368483 -6.114451e-39 5.6413423e-08
0.18291348 -0.46973684 -0.13995498 -0.30523816 -0.16292448 0.051627036 0.20620719 -0.35474277
-0.6666765 -0.01040281 0.050713014 -0.0009831043 0.11204578 -6.217613e-39 0.09533255 -0.68593067
-0.40613705 0.09118742 -0.17169827 -0.0071246303 -9.548288e-39 0.21406092 -9.1169465e-18 0.1458057
-0.040321503 -0.17340744 0.03749312 0.005833438 -0.0034559756 0.086345546 0.11779067 9.978819e-11
0.23237829 -0.16384539 -0.100198284 -0.16064896 -0.25255662 -0.0851134 -0.18240926 -0.37862298

bias f4 [8]
00000000: 314b c73d 5f4e a73d 634a b53c 253f 31bb
00000010: 28de 4bbe 45ce 903d 501d a8bd 32d6 bd3a
0.097311385 0.08169245 0.022130197 -0.0027045694 -0.19908965 0.07070593 -0.08208716 0.0014483391

weight f4 [1, 8]
00000000: ad5f ff3d 3263 71be 44c3 1fbe f7e8 b93b
00000010: a693 713e f44b fc3e 7f41 583e 5f9f 9fbe
0.124694206 -0.23572996 -0.15601832 0.0056735235 0.2359148 0.49276698 0.21118735 -0.31176278

weight f4 [8, 1]
00000000: 4b27 3e3e 0d79 4d3f 4aad 763f 3d7e 953d
00000010: 7ce8 423f 3e17 87bf 724b 2b81 8895 ca3e
0.18569677 0.80262834 0.9635817 0.07299469 0.76135993 -1.0553968 -3.146187e-38 0.39567208

bias f4 [8]
00000000: 71e7 92bd 978a 8c3f c445 a03e e9d9 d33e
00000010: 63a8 58be 6a27 49be 756e a1ba 9fdc 35be
-0.0717305 1.0979794 0.31303227 0.4137719 -0.21157984 -0.19643942 -0.0012316244 -0.17759942

weight f4 [32, 8]
00000000: 1bbe 0581 55a2 af00 6306 6b00 9d90 3f80
00000010: 7acb 6899 84a4 1681 b800 6200 fcc6 b700
00000020: afe4 213d ea71 1abe ba20 47be 959d 1abd
00000030: c7c3 4abe 7396 1f3e 2788 9100 7465 23bc
00000040: 57ba 433e b83b 1eba a09c 2d3e cbc3 6d3e
00000050: 5f1d a93e 81d5 d73d 0977 8611 e8a7 c73e
00000060: 694a 3a3d 9231 b23e 558d 97bd 927e cd3e
00000070: 5af2 923e c9ce 223e 15be 5580 e15b 443e
00000080: ed69 74be 6641 983e ab50 b93d 818d eebd
00000090: 9e44 f1bd 5391 b8be 84e7 669a a9c7 8dbb
000000a0: 81f4 09be a976 803e 0df3 00bd c0ae 313d
000000b0: 80b1 453e bdaa d83e be4c 0f81 75e8 e03c
000000c0: af3d 1480 ca58 6200 0b5f 4f88 364c 0f81
000000d0: d51b 3a80 8c74 f1af d299 3800 38b5 2901
000000e0: f86e bd3b f8b0 cd3e d81f aa3e 5cf4 733e
000000f0: a0f0 363e 44d0 23bf 57d2 5800 fdaa 11be
00000100: e817 093d 13aa e1bd a924 c33e 6512 9a3c
00000110: 6f09 423e 8fd4 8a3e cfcc 2380 d46e 1cbd
00000120: 553d 6b3e ac41 b03e f1ab dc3e d07a 973a
00000130: 208c ce3e 06d8 1abe c412 b580 7ba7 df3e
00000140: fe3c 9bbd eff6 b83e 9f25 29bd c20e f13e
00000150: 2382 5a3c b39b cdbd e9fd 458e e74c 65be
00000160: fe1a 993e e45a 1dbc e547 c93e d478 233e
00000170: 0318 02be 5d5b 4780 6fa0 4a80 f530 903e
00000180: b0cd a63b a7e1 e53e b286 d53e 90bf b53e
00000190: c6cf ee3d 7d20 d3be 7a82 7900 d3b6 a03d
000001a0: 701f 77bd 834e ddbd f2c6 d83e 8f15 74be
000001b0: 9786 803e 087b e43e 90f1 3280 1228 df3d
000001c0: 3c8a 97be 400d 313e e507 90be 1744 823e
000001d0: 62ef cfbc a70c a1bd d977 2c80 24ce 7dbe
000001e0: 02f1 173e e114 66bc d950 d33e 4752 0c3e
000001f0: 6284 e33e 405c b0be 8316 8b8e 3652 9c3d
00000200: 7ec7 1181 34f2 2e80 5884 2100 2890 019c
00000210: 941f 6d80 4a78 cb9c ff33 7a80 12fa 6a00
00000220: 7bab 2e3e 9816 e73e 5cb6 923e 2bec 513e
00000230: ebd6 67be 89c6 84be 858f 4b00 335e 39be
00000240: d78a 4600 3582 03bd 7dda 0abf f404 d13d
00000250: ee9e 66b4 d1a1 873e 8f7e 6200 e88e 9597
00000260: dccf 7a80 0315 86bd 2451 81be 0797 ed3d
00000270: 740b 4392 6dd8 003f 4dea 0180 a9fa 9900
00000280: de4b 483a 1daa 2abe 6ed2 d03e 0463 fe3d
00000290: 2bd3 b73e 34b2 ec00 08ac 6a00 8599 e83d
000002a0: 26a0 933d 9560 b0bb 9d6e 1b3e f902 863e
000002b0: 3f21 853d f919 b2be a0ed 220e d4f1 2bbe
000002c0: 547f 5bbe 0a72 d33e ea12 483e e0f9 c53e
000002d0: 8904 32be 5b27 16bf 8d0d 3f80 8c00 9e3c
000002e0: c628 85bd b575 9d3d 15d4 cb3d 90ec d53b
000002f0: 93fe 13be 9f73 a1be 6d5f a100 9b45 7abc
00000300: 4a10 813e 8b32 a73e 6778 adbe 5121 b13e
00000310: 81c8 f13d ff37 833e b82b 7000 0895 8abe
00000320: 03ec 97be b764 c33e 465f 24be 7f2f ea3e
00000330: b2f1 a8be f90c 88be 7ff3 5300 d9e3 143e
00000340: d83f 3680 75a2 5980 9b42 1680 bc41 9814
00000350: 4aac 2201 e804 0781 2487 2200 ef73 ea00
00000360: 5202 6abe f3e6 283e 8fc8 0c3e 7947 c03d
00000370: ac97 7dbe 3fab 5a3e b343 3800 fbe2 8abe
00000380: bb15 3700 69f9 9bbd 01bf eabe fe3d c73e
00000390: 4ea0 c1be c4fb 563e be48 1281 1ace 821c
000003a0: 7717 b4bd 8ecf a43e 32ba 103e 791c 1c3e
000003b0: fa95 8fbe 6de7 87bd 594d 8580 fe5b b0be
000003c0: 3020 e3be 4b1b 32be ccb4 44be de19 d13e
000003d0: 42b6 2dbf 1703 883b 31a0 da90 de25 d5be
000003e0: f063 d0bd 29d7 d73e b5e5 923e 8acd a1be
000003f0: 6416 03be 4549 72bf e5e8 4380 bd8c 733e
-2.4564636e-38 1.6129446e-38 9.828689e-39 -5.837514e-39 -1.2035211e-23 -2.7668683e-38 9.000136e-39 1.6877278e-38
0.03952473 -0.15082517 -0.19446078 -0.03774794 -0.19801246 0.15584736 1.3364989e-38 -0.009972919
0.19114052 -0.00060361205 0.16954279 0.2321922 0.3303022 0.105387695 2.1214833e-28 0.3899529
0.04548112 0.34803444 -0.07400004 0.40135628 0.28700525 0.15899195 -7.874206e-39 0.19175674
-0.23868532 0.29737395 0.09048589 -0.116480835 -0.11780666 -0.36048374 -4.7749902e-23 -0.00432678
-0.13472177 0.2509053 -0.03148179 0.043379545 0.19305992 0.42317763 -2.6320012e-38 0.027454594
-1.858838e-39 9.03173e-39 -6.240352e-34 -2.631963e-38 -5.336443e-39 -4.3920456e-10 5.197968e-39 3.1170416e-38
0.005781051 0.4017408 0.3322742 0.23823684 0.17865229 -0.63989663 8.15698e-39 -0.14225383
0.033470064 -0.11018767 0.38113907 0.0188076 0.18948911 0.27115294 -3.287714e-39 -0.03819163
0.22972615 0.34425104 0.4309993 0.0011556987 0.40341282 -0.15121469 -1.6628957e-38 0.43682465
-0.07579993 0.36125895 -0.041295644 0.47081572 0.013336691 -0.10039463 -2.4404378e-30 -0.22392617
0.29903406 -0.00960419 0.39312664 0.15964061 -0.12704472 -6.553095e-39 -6.85338e-39 0.2816235
0.005090438 0.44898722 0.41704327 0.35497713 0.116607234 -0.41235724 1.1158901e-38 0.07847371
-0.060332716 -0.108059905 0.42339283 -0.23836349 0.25102684 0.44625115 -4.678431e-39 0.10896315
-0.29597652 0.1729021 -0.28131023 0.25442573 -0.025382701 -0.07863741 -4.083755e-39 -0.24785668
0.14838031 -0.014043064 0.4127262 0.13703261 0.44436938 -0.3444538 -3.4287824e-30 0.07632868
-2.6775423e-38 -4.311319e-39 3.078047e-39 -4.2868837e-22 -1.0021397e-38 -1.3464507e-21 -1.1222583e-38 9.824271e-39
0.17057602 0.45134425 0.28654754 0.20500247 -0.22640578 -0.2593272 6.939147e-39 -0.1810234
6.478291e-39 -0.032106597 -0.54239637 0.10206023 -2.1478237e-07 0.26490644 9.045279e-39 -9.664974e-25
-1.1278496e-38 -0.065469764 -0.25257218 0.11601072 -6.154527e-28 0.5033024 -1.75887e-40 1.4140751e-38
0.00076406996 -0.16666456 0.40785545 0.124212295 0.35903296 2.1737104e-38 9.796276e-39 0.113574065
0.0720828 -0.005382607 0.15178914 0.26174143 0.06500482 -0.3478544 2.0082454e-30 -0.16791469
-0.2143529 0.41297942 0.19538465 0.38667202 -0.17384543 -0.586538 -5.790497e-39 0.01928737
-0.065019175 0.076884665 0.09952561 0.0065284446 -0.14452581 -0.31533524 1.4819747e-38 -0.015275384
0.2520774 0.3265575 -0.33880922 0.3459573 0.11805821 0.2562866 1.0301259e-38 -0.27066827
-0.2967225 0.38162777 -0.16051969 0.45739362 -0.329969 -0.26572397 7.709696e-39 0.14540042
-4.98202e-39 -8.231638e-39 -2.044274e-39 1.5374005e-26 2.9878312e-38 -2.4799104e-38 3.170886e-39 2.1531095e-38
-0.22852448 0.1649435 0.13748382 0.09388632 -0.2476489 0.21354388 5.167074e-39 -0.27126297
5.058748e-39 -0.076159306 -0.4584885 0.38914484 -0.37817615 0.20994478 -2.6868155e-38 8.655954e-22
-0.08793538 0.32189602 0.14133528 0.15245236 -0.2804411 -0.06635938 -1.2241868e-38 -0.34445184
-0.44360495 -0.17393224 -0.19209594 0.40840048 -0.6785623 0.004150759 -8.623265e-29 -0.41630453
-0.101753116 0.42156342 0.28690878 -0.31602126 -0.1280151 -0.9464305 -6.236525e-39 0.23784156

bias f4 [32]
00000000: 5d39 1392 12bc c73e 891a 14bd 4388 bf3e
00000010: 8024 953e b4a4 d13e fe8f d3aa bc78 93be
00000020: a88c 283d 71ae adbe 829e d23e 774c 38be
00000030: 83de c53d 773f ea3d e198 b73e f940 643e
00000040: 1591 7480 d750 363d 9fbb 51ba 01bc 3bbd
00000050: 10ca 3bbe 31c6 f73e e1a7 a93e 6f91 ce3e
00000060: 1756 d83e a807 413e f0dc 5394 fbe6 dfbc
00000070: aa96 633e 2059 833e 3084 bd3e 7f98 18be
-4.6455727e-28 0.39010674 -0.03615812 0.37408647 0.2912941 0.4094597 -3.7581044e-13 -0.2880305
0.041149765 -0.3392215 0.41136557 -0.17997919 0.09661581 0.11437886 0.35858825 0.2229041
-1.0704963e-38 0.04451069 -0.0008000675 -0.04583359 -0.183388 0.48393396 0.33135894 0.40345332
0.4225318 0.18850577 -1.069635e-26 -0.02733182 0.22225443 0.25653934 0.37014914 -0.14901923

weight f4 [64, 32]
00000000: e37e 1d81 4b2a ccbd 6cbf e23d 692d 2f3d
00000010: f100 cd3d 4afc 47be d023 3300 7fda d8bc
00000020: 0480 2bbc 291c 2dbd f6a2 0a3a 911e 76ba
00000030: f32c 0b3e 954d 77bd 675a b63c 0403 323e
00000040: da47 e780 dea8 703e 0aad d0be 0c01 bbbe
00000050: 664c c4bd 698b 7c3d 8c84 843e 25d6 ce3d
00000060: 749b 29bd 9192 123e 159d 1e00 421f 023e
00000070: 5382 1cbe e4b2 5f3e 595e 68be cebf eb3d
00000080: 1397 1701 be33 6c05 90ad cda6 c96c 0ab3
00000090: 4068 7fa4 8243 f7b1 7f21 cb00 8cff fead
000000a0: be78 f0a3 01fd 04b0 d1c6 d1ae ab21 aa84
000000b0: dcbc 6fb2 2f8e 5cab 95dc 2400 5da4 59ac
000000c0: 058b 6400 b0e3 e8ac 65d6 8c00 f9e5 2199
000000d0: e348 9280 42e2 8da3 835a 1fb0 720a a38c
000000e0: 50a3 82ae f97b 909c ea48 1d01 927f a793
000000f0: 3aef 0292 ef6b dda7 5f4c f900 cce5 90a8
00000100: 6fe1 7e80 b4c8 ca3d 0af0 3a3e e66c 433e
00000110: 5297 14be d3d8 bd3d 528a 4a00 f27d 7bbe
00000120: 1b73 7f3e e6be 88bd 84c0 103d 695f 90bd
00000130: 9707 69be 0775 983e 7582 f83d 7da4 eabd
00000140: 7643 f700 6042 46be 6984 683e 47f3 713e
00000150: c0d6 83bc df8b 3abe a7e0 c9bd afb7 1abb
00000160: d77d 4a3e a026 09be a1c1 1001 4f68 443d
00000170: 3f0d 453d 8205 363c d593 953d d7ab 56bd
00000180: cb66 c300 f08c 793e f0ff 54bd 1920 8bbd
00000190: ac1a 2fbe 0956 75bd 2311 029f 2d1e fbbd
000001a0: b1f7 b73d 095c f03d 8408 0bbe c799 d53d
000001b0: dbdc 6dbc 1bf6 b13d 86e1 9e3e d683 86bb
000001c0: 0458 1b00 d527 ac3d 6791 f1bd 6b76 a0bd
000001d0: 882a 153e c9fc 513e 316a d43d b650 6d3d
000001e0: a222 73bd b5f1 5cbe d895 9000 0a34 36be
000001f0: 15b8 083e 168e e0bb ccd1 7a3e 003a 9cbc
00000200: 01e7 ca80 6d93 f2bd 86a0 f43d 9acc 9b3c
00000210: af39 7e3e 6dbe 0b3e 8c43 2500 b36e bebd
00000220: 8926 45be 6290 303c 517e 3b3d dd72 03be
00000230: 4d83 023e 40e9 80be 43e1 1d3e 659b 0dbd
00000240: af1f 7600 c842 c3bd 5b32 4cbe 0159 94be
00000250: 70b8 e83d ea8e 0f3e bd1e 3e3d aeb6 4d3e
00000260: 5144 223e 0390 ae3e d17d a700 0b6d 67bc
00000270: f680 96be 2979 883d 9e57 0c3e 148d b13d
00000280: 87a7 4d80 f901 8bb7 b33c e4b9 8570 07bb
00000290: b409 2dba 3251 f2ba 56fe 5900 5b23 8bba
000002a0: 5ea4 b7b9 3aad a7ba 020b d7ba c2b5 3fb8
000002b0: 3e10 05bb bc5f 36ba aaf1 adb8 3245 8bba
000002c0: 53a2 1f80 6556 b3ba 10af c0b5 3367 8db8
000002d0: 04bc 33b6 151e 3aba 5c8b dfba 530d a1b9
000002e0: 105a c3ba 7dcf 16ba 566d 3d81 a48a 14b9
000002f0: e45f d4b7 7778 80ba 73c0 b5b6 2875 35ba
00000300: a699 da80 7e31 10be 0b40 6bbd efd6 2dbe
00000310: 71e0 6e3e 939d 18bc 2f18 9800 f536 863d
00000320: 7dc9 81bd b348 ce3d e854 fc3d fd15 c6bd
00000330: da65 96bd af66 35be a52c 283e 3950 8d3d
00000340: bf5b 7100 cbb7 10bd a387 84be 5ddd a3be
00000350: 31db 3dbc 78b5 513e 372a 533c ca38 ca3c
00000360: c8fb 20bd 387f 923c 2e05 e380 038b 73bd
00000370: 34c5 56be 69a5 f53a 1cf7 843d 5f95 993d
00000380: 46f3 6f80 4974 09bc 96a3 3fbb 0c68 b8bb
00000390: db90 87bb 2816 e9bb 9b32 0d81 7da3 eeba
000003a0: d014 95bb 3c89 9aba ce62 bebb ace9 74ba
000003b0: 3011 2fbb 053b aebb 91b5 28bc 7e39 05bb
000003c0: 2839 2601 4083 48bb f091 a8bb 6563 ebbb
000003d0: f8e1 73b9 5815 9ebb 3871 89bb d2b9 aabb
000003e0: dbc4 07bc cdc1 bebb 47a9 7200 6aae e3bb
000003f0: a983 0fbc 7b0b b5bb 08f4 06bc 1f4c e5ba
-2.8927383e-38 -0.09969004 0.11071667 0.042767916 0.10009945 -0.19529834 4.696457e-39 -0.026471375
-0.010467533 -0.042263184 0.00052885653 -0.000938871 0.13591366 -0.060376722 0.022259904 0.17383963
-2.1239775e-38 0.23501918 -0.40757018 -0.36524236 -0.09584884 0.06165639 0.25882375 0.100994386
-0.041408017 0.14313723 2.811415e-39 0.12707236 -0.1528409 0.21845585 -0.22692241 0.11511193
2.784271e-38 1.110617e-35 -1.4271777e-15 -3.222957e-08 -5.5382614e-17 -7.196321e-09 1.8654622e-38 -2.8989942e-11
-2.6071988e-17 -4.838086e-10 -9.5395365e-11 -3.9997727e-36 -1.3954573e-08 -7.835702e-13 3.385208e-39 -3.0928795e-12
9.23342e-39 -6.619115e-12 1.293388e-38 -8.3699475e-24 -1.3434129e-38 -1.5383075e-17 -5.797249e-10 -2.5120413e-31
-5.940726e-11 -9.561167e-22 2.888866e-38 -4.228252e-27 -4.1315637e-28 -6.1456844e-15 2.2894435e-38 -1.608687e-14
-1.1652143e-38 0.09901562 0.1825563 0.1908451 -0.14510849 0.092698716 6.845447e-39 -0.24559763
0.24946253 -0.06677036 0.035339847 -0.07049448 -0.22756802 0.29776785 0.12134258 -0.11457155
2.2707568e-38 -0.19361258 0.2270676 0.23627959 -0.016093612 -0.18217419 -0.09857302 -0.002360802
0.19774567 -0.1339364 2.6587545e-38 0.04795104 0.048108336 0.011109712 0.07303587 -0.052409973
1.7944797e-38 0.2437017 -0.052001894 -0.067932315 -0.17100018 -0.059896503 -2.7542746e-20 -0.12261615
0.0898279 0.11736304 -0.13577467 0.10429721 -0.014517988 0.08689519 0.31031436 -0.0041050715
2.511132e-39 0.08406035 -0.117953114 -0.078350864 0.14567006 0.20506586 0.10371817 0.0579383
-0.0593592 -0.21576579 1.3278065e-38 -0.17793289 0.13351472 -0.0068528755 0.24494094 -0.019070625
-1.8633639e-38 -0.118445255 0.1194468 0.01901846 0.24826692 0.1364686 3.422145e-39 -0.09298458
-0.19252981 0.010776611 0.04577476 -0.12836786 0.127454 -0.25177956 0.15417962 -0.034572024
1.0847954e-38 -0.09534222 -0.19941084 -0.28974155 0.11363304 0.14019361 0.046416033 0.20089218
0.15846373 0.34094247 1.5381662e-38 -0.014125119 -0.29395264 0.066637345 0.13705298 0.08669487
-7.13143e-39 -1.657101e-05 -0.00043532773 -0.0020666432 -0.0006600872 -0.0018487333 8.264598e-39 -0.0010615395
-0.00035026943 -0.0012792714 -0.0016406479 -4.5707224e-05 -0.002030387 -0.00069570146 -8.294296e-05 -0.001062548
-2.905131e-39 -0.0013682364 -1.4356065e-06 -6.742626e-05 -2.6782518e-06 -0.00070998195 -0.0017055082 -0.0003071824
-0.001490416 -0.0005752964 -3.4792262e-38 -0.00014166028 -2.5317022e-05 -0.0009801526 -5.4166244e-06 -0.00069220597
-2.0075257e-38 -0.1408138 -0.057434123 -0.16976522 0.23327805 -0.009314912 1.3967671e-38 0.06553451
-0.06337259 0.1007246 0.12320882 -0.09672163 -0.073436454 -0.17714952 0.1642328 0.06900067
1.0410323e-38 -0.03533153 -0.25884733 -0.32004824 -0.011587904 0.20479381 0.012888483 0.024685282
-0.039302617 0.017882928 -2.0848516e-38 -0.059458744 -0.20973665 0.0018741313 0.06492445 0.074991934
-1.028101e-38 -0.008389541 -0.0029241792 -0.0056276377 -0.004137141 -0.007113237 -2.5933918e-38 -0.0018206682
-0.0045496 -0.0011790167 -0.0058101183 -0.0009342681 -0.0026713125 -0.0053170943 -0.010297195 -0.0020328457
3.0530392e-38 -0.003059581 -0.00514435 -0.0071834796 -0.00023258466 -0.0048243217 -0.004194405 -0.00521014
-0.00828668 -0.0058214427 1.0529972e-38 -0.006948282 -0.008759418 -0.00552505 -0.0082368925 -0.0017493999

bias f4 [64]
00000000: c0c9 553c 59a8 a8b0 5d2e 233d 18ac 9d3e
00000010: 67e0 bdbc 4615 f1ba 1bb0 123e 5ef8 02bc
00000020: 2b74 553e debf 00bd 19e2 193e 5780 7d3e
00000030: 4068 703d bcc9 893d c8d5 293e 9067 b3bd
00000040: 8225 a53a 896f ed3d 33e6 51bd e773 313e
00000050: 922c 9c3d 2db0 4c3e 26a2 a23d 62a4 3e3d
00000060: d15b 55be b41d 66bb 8df7 81ba 3fbf 013e
00000070: 202a 873d e3ea e03c 4aea 283e 55ab df3d
00000080: 5fe8 603e 7783 86bd 7c50 b8bd ea54 793e
00000090: 3beb 06bd 2fe9 71be a735 aa3d 08b1 913d
000000a0: 2271 e480 eed5 64be 0cae d13d 898d 9a3d
000000b0: 1d68 513e f2da 1f3b 2a19 e6bd 6787 86bc
000000c0: 0107 00bc 6f0a 903e 0497 213d 89ca 603e
000000d0: d67c fa3c 4827 a23c 4c1d 953c 4d30 7c3e
000000e0: 84cb 00ba c1ae 2c3e 12b5 40bb 81ab 183e
000000f0: 2673 c33d 537a ff3d 35c7 d33d 6c17 89a0
0.013048589 -1.2271456e-09 0.039839137 0.3079536 -0.023178292 -0.0018393181 0.14324991 -0.007993786
0.20845096 -0.03143298 0.15027656 0.24755989 0.05869317 0.06727931 0.16585457 -0.08759987
0.0012599679 0.11593539 -0.051244926 0.1732937 0.076256886 0.1998908 0.079410836 0.046543486
-0.20835806 -0.003511292 -0.0009915695 0.12670611 0.065998316 0.027455753 0.16495624 0.10921351
0.21963643 -0.06568044 -0.08999726 0.24348798 -0.032939177 -0.23624109 0.083110146 0.07113844
-2.0979078e-38 -0.22347233 0.10238275 0.07546527 0.20449872 0.0024391976 -0.112352684 -0.016421987
-0.00781417 0.2813296 0.03945066 0.21952261 0.030577105 0.019794121 0.018202446 0.246278
-0.00049131387 0.16863538 -0.0029404801 0.14909174 0.09543447 0.12474503 0.1034073 -2.3224202e-19
