model/2000.06496177613735199.pt (torch_old, 168315 bytes, 19 tensors)

weight f4 [256, 2]
-0.91855884 -0.5026314 0.22590166 -0.18723623 0.67449605 -0.3322439 0.6740656 -0.30827007
0.19478005 -0.29890636 -0.3392728 0.648698 0.51843625 0.44087425 -0.14815927 0.3555046
0.0053652804 0.020095764 0.11099349 0.5787275 0.12860556 0.29775918 0.00059846934 0.32295144
-0.3560087 0.6780851 -0.25968784 -0.607366 0.42732912 -0.48903227 0.6921061 -0.45012698
0.2805298 0.44591188 0.44207332 -0.46309638 -0.4699314 -0.03074002 0.26730892 0.45648593
-0.3218843 0.69046617 -0.10041826 -0.5237592 -0.14862725 0.47601938 -0.5139024 0.82465047
-0.20564267 -0.70788306 0.25788313 -0.13502006 -0.07056069 0.31842327 0.49425647 -0.23693973
-0.10229986 0.27093688 0.34869677 -0.102878034 0.7165045 -0.31920052 0.37107733 0.61374146
-0.26952827 0.6019848 0.30151418 0.4366422 0.5016927 -0.35072476 0.30133355 -0.27576658
-0.18723913 0.5762139 -0.20371176 0.51367986 0.25870666 -0.047562502 0.37584862 -0.30435038
-0.3480875 0.76292783 -0.7462014 -0.055122703 0.33369792 -0.37702605 0.043459002 0.21740542
0.4305755 0.15865083 0.28041038 -0.1909737 -0.2529087 0.55172986 0.6489381 -0.033196077
-0.22279724 0.61971146 0.25688532 -0.0228394 0.2902321 -0.3622259 -0.009565587 -0.0011603669
-0.20613346 -0.7488676 0.38520208 -0.1725804 0.779596 -0.7235274 0.21043625 0.079430796
0.30961663 0.016262451 -0.12714884 0.2916388 -0.18816027 -0.83298284 -0.50088805 -0.8139309
-0.11914148 0.2602955 -0.8384529 -0.25692034 0.48260435 -0.5153863 -0.9225536 0.074605644
-0.17300677 0.40723136 -0.7651761 -0.23030663 0.48856008 0.46775672 0.5337697 -0.052414197
0.29053068 0.0732891 -0.06763615 0.37756982 0.75148803 -0.71644866 0.38635477 -0.42276016
0.6563624 -0.44765446 -0.88511306 -0.1182801 0.32989478 0.5751376 -0.1719771 0.5146799
0.20272094 -0.24774954 -0.21504398 0.6141595 0.32272738 -0.08025402 -0.24451688 0.4298223
0.46337175 0.15859117 -0.08554069 0.3618256 -1.0503018 -0.17581543 0.7638797 -0.65409607
0.6434015 -0.43386182 0.35054877 -0.2918555 -0.58830076 0.8262847 -0.34034586 0.64225745
-0.31932962 0.53325516 -0.81588787 0.045394514 0.42144257 0.50968426 0.4859015 -0.5701605
-0.37350252 0.36674237 -0.7249083 0.40876374 0.47762302 -0.5671446 0.43050495 -0.21619315
0.3589085 -0.4305111 -0.27825975 0.48776868 0.6550723 0.0912889 -0.75927365 0.45745248
-0.108180836 0.24384096 0.38695833 -0.47052085 0.07305691 0.44895354 0.44411013 0.4566331
0.6135379 -0.2920919 -0.5580312 0.016680557 -0.24662845 0.4876632 0.478477 -0.39424592
-0.18313791 -0.82612145 0.5378797 0.20988438 0.38849878 0.37050447 -0.33895797 0.47599235
-0.39223576 0.67842907 0.37507793 -0.42489943 0.26050282 -0.3413434 -0.062045857 0.53728586
0.30912566 -0.2209319 -0.3094861 0.6013359 -0.37144145 0.5968381 -0.17192437 -0.9070128
0.4132675 -0.35782218 -0.18641995 -0.96804 -0.11331716 -0.932204 -0.50885856 -0.16572624
0.6588022 -0.5829685 0.35633615 -0.29621834 -0.6050481 0.46778184 -0.60357314 0.43069878
00000000: ac26 6bbf 74ac 00bf c452 673e dbba 3fbe
00000010: c6ab 2c3f df1b aabe 908f 2c3f 93d5 9dbe
00000020: 6c74 473e 410a 99be 2ab5 adbe 1211 263f
00000030: 3db8 043f 45ba e13e 10b7 17be b304 b63e
00000040: 3ccf af3b df9f a43c 8e50 e33d 7c27 143f
00000050: 2db1 033e e473 983e 99e2 1c3a e459 a53e
00000060: c646 b6be fc96 2d3f cef5 84be 577c 1bbf
00000070: e2ca da3e 7062 fabe de2d 313f 0b77 e6be
00000080: 9aa1 8f3e 904e e43e 6f57 e23e f81a edbe
00000090: d99a f0be 7fd2 fbbc b7dc 883e 86b8 e93e
000000a0: 05ce a4be 64c2 303f 17a8 cdbd 1515 06bf
000000b0: be31 18be d0b8 f33e 1c8f 03bf 4b1c 533f
000000c0: fe93 52be d337 35bf 4209 843e b342 0abe
000000d0: 1f82 90bd 6008 a33e 2f0f fd3e 54a0 72be
000000e0: 9782 d1bd 3db8 8a3e 6288 b23e b8b1 d2bd
000000f0: d76c 373f 406e a3be d9fd bd3e 291e 1d3f
00000100: 9cff 89be ad1b 1a3f 1160 9a3e 918f df3e
00000110: ef6e 003f 3292 b3be 6448 9a3e 4731 8dbe
00000120: 9dbb 3fbe c182 133f d199 50be 8680 033f
00000130: 3375 843e e6d0 42bd 3b6f c03e d0d3 9bbe
00000140: 8638 b2be 3d4f 433f 0e07 3fbf 58c8 61bd
00000150: 74da aa3e 8f09 c1be 1102 323d 879f 5e3e
00000160: 6474 dc3e 5d75 223e f391 8f3e 9c8e 43be
00000170: 407d 81be 2b3e 0d3f cf20 263f 9cf8 07bd
00000180: f624 64be 69a5 1e3f 7986 833e b219 bbbc
00000190: 4d99 943e ac75 b9be fbb8 1cbc 7417 98ba
000001a0: a614 53be c9b5 3fbf 3539 c53e ebb8 30be
000001b0: 9a93 473f 1739 39bf 9a7c 573e 9dac a23d
000001c0: 1286 9e3e d538 853c 4e33 02be ae51 953e
000001d0: 16ad 40be 5d3e 55bf 333a 00bf c75d 50bf
000001e0: 7300 f4bd 7445 853e d9a4 56bf 108b 83be
000001f0: eb17 f73e 5bf0 03bf 792c 6cbf d8ca 983d
00000200: b028 31be a180 d03e 95e2 43bf 80d5 6bbe
00000210: 8c24 fa3e cf7d ef3e 22a5 083f 45b0 56bd
00000220: 70c0 943e 9818 963d d284 8abd d550 c13e
00000230: 8561 403f 2e69 37bf 4bd0 c53e 0574 d8be
00000240: 5e07 283f f732 e5be c596 62bf d63c f2bd
00000250: f8e7 a83e 383c 133f c41a 30be 10c2 033f
00000260: 1496 4f3e 0eb2 7dbe 7d34 5cbe 8f39 1d3f
00000270: 863c a53e 385c a4bd a262 7abe ab11 dc3e
00000280: 103f ed3e b965 223e f52f afbd 3441 b93e
00000290: 4a70 86bf f608 34be 9f8d 433f d772 27bf
000002a0: f6b5 243f 2323 debe 217b b33e 166e 95be
000002b0: e19a 16bf 6587 533f d041 aebe fc6a 243f
000002c0: 2c7f a3be 6983 083f 07de 50bf 99ef 393d
000002d0: 52c7 d73e ab7a 023f 15c8 f83e 0af6 11bf
000002e0: b93b bfbe a8c5 bb3e 9793 39bf 7b49 d13e
000002f0: 018b f43e 6330 11bf 256b dc3e bd61 5dbe
00000300: dbc2 b73e f36b dcbe 1078 8ebe d1bc f93e
00000310: d1b2 273f adf5 ba3d c25f 42bf 3637 ea3e
00000320: ea8d ddbd 72b1 793e 671f c63e 1ce8 f0be
00000330: dc9e 953d 3ddd e53e 6762 e33e d0cb e93e
00000340: d210 1d3f 128d 95be 22db 0ebf aaa5 883c
00000350: 2b8c 7cbe feae f93e f0fa f43e 9ada c9be
00000360: 8188 3bbe b27c 53bf 7cb2 093f eeeb 563e
00000370: 50e9 c63e c3b2 bd3e e68b adbe 45b5 f33e
00000380: 20d3 c8be 87ad 2d3f 370a c03e 6b8c d9be
00000390: a060 853e 90c4 aebe cc23 7ebd 918b 093f
000003a0: b845 9e3e f93b 62be f674 9ebe 26f1 193f
000003b0: 932d bebe 62ca 183f f10c 30be fe31 68bf
000003c0: cc97 d33e 7834 b7be dfe4 3ebe 78d1 77bf
000003d0: d412 e8bd eca4 6ebf 8e44 02bf 24b4 29be
000003e0: 43a7 283f 6c3d 15bf b171 b63e eea9 97be
000003f0: 6fe4 1abf 1a81 ef3e c583 1abf 8d84 dc3e

bias f4 [256]
-0.49344987 -0.01579588 0.1112127 0.90711254 0.44197187 0.45700863 0.5061376 -0.43539855
-0.45303616 0.095981546 -0.57100344 -1.0116674 0.36482486 0.8214402 0.8209812 0.7001908
-0.18996151 0.41152728 0.53757936 0.4985886 -0.40813363 0.8286305 -0.8308157 0.30495575
0.24919622 0.8219559 -0.51145476 0.5097898 -0.34728557 -0.18711509 -0.17501123 0.43071604
-0.26886898 -0.54749495 0.12672582 0.14756736 -0.8417311 -0.5224802 -0.6846099 0.19668533
0.32797658 0.43084753 0.6240934 1.0299157 -0.07711517 -0.2788951 -0.15870824 0.569786
0.1889294 -0.7713837 0.49130145 -0.09378183 0.17143059 -0.47176704 0.13769965 0.88434976
0.76890355 -0.3755706 -0.16871709 -1.0274466 -0.21373181 -0.2679086 0.80164045 -0.17150271
-0.46762457 -0.117375486 -0.78973305 -0.3335419 0.07685191 -0.7707484 0.18238968 0.5497058
0.71655923 0.65084606 0.029651688 -0.7115095 0.15576138 -0.54474777 -0.143935 0.11901375
-0.75040853 -0.61852556 0.5711218 -0.2397096 0.48513854 -0.8363654 -0.6943094 0.35098797
0.45703447 -0.04390443 0.6541917 -0.23899305 -0.58797073 0.92711186 -0.32033885 0.59760976
-0.33486897 0.20295511 0.06509746 0.9123113 -0.22823572 -0.5194004 0.3501395 -0.60302687
0.7799889 -0.28314337 0.3257977 0.06350709 -0.2207978 -0.21854731 -0.67593235 0.6120416
0.08007943 0.72551745 0.22865213 0.15115866 -0.07228832 0.2965954 0.43429714 -0.4980907
0.06978602 -0.29847318 -0.84972906 -0.12072764 -0.28675538 -0.8128732 0.34576833 -0.5486466
0.19844775 -0.26010835 -0.39045036 -0.12990616 0.64930516 -0.6143278 0.8198382 0.58873266
0.6832377 0.09828507 0.47634676 0.21902573 0.024737122 0.5480432 -0.35693127 1.0709136
-0.4751912 0.13422555 0.873117 0.10092482 -0.02730485 0.5989879 0.37761074 -0.37078255
-0.02132524 -0.30028665 -0.26023063 0.54847735 -0.34652635 -0.23043424 0.4496022 0.40487716
-0.25549462 -0.3531425 -0.013298564 0.06437441 0.6753789 0.69798326 -0.4075764 0.5098916
0.5228571 -0.74355114 0.8386016 0.007128773 0.41655102 0.68962026 -0.9499204 -0.22240765
0.54154164 -0.25073272 -0.87288326 0.36541882 -0.11489737 -0.25369287 -0.29786345 0.83799857
-0.057456233 0.66604567 -0.4468137 -0.08914659 -0.2974556 -0.9162814 -0.7322649 -0.027882552
-0.24427402 0.4942448 -0.06212849 0.014056132 0.6445658 0.868937 -0.40867093 0.33530924
-0.746162 0.5617303 0.4513759 -0.18745595 0.018879272 0.687047 -0.42634228 -0.020507503
-0.32127318 0.8485022 0.0009303779 -0.33359593 0.26007083 -0.90646964 -0.470961 -0.08414641
0.20347157 0.53590083 0.22062016 0.22492485 -0.35634395 -0.45744622 1.0093324 -0.48872966
-0.8437912 -0.028051764 -0.106898464 -0.8653032 0.36898735 0.3515067 0.6116262 -0.37197745
0.73120993 0.48983517 -0.119676374 0.8306176 -0.12976366 -0.5332907 -0.39094323 0.08933967
0.3712389 -0.14886993 0.85889655 0.040767513 -0.27840108 0.6119592 0.20402443 -0.7549606
-0.2467482 -0.48251647 -0.6180324 -0.57804036 -0.6881083 0.56749505 -0.53123516 -0.18197593
00000000: 76a5 fcbe 5d66 81bc 7cc3 e33d 8738 683f
00000010: 234a e23e 09fd e93e 3c92 013f 8fec debe
00000020: 5bf4 e7be f991 c43d 482d 12bf 517e 81bf
00000030: 53ca ba3e e849 523f d32b 523f b43f 333f
00000040: 4585 42be b4b3 d23e cd9e 093f 0147 ff3e
00000050: e4f6 d0be 2121 543f 56b0 54bf 2923 9c3e
00000060: 4b2d 7f3e b46b 523f b3ee 02bf 9681 023f
00000070: 6acf b1be 199b 3fbe 2536 33be d086 dc3e
00000080: 32a9 89be a128 0cbf 6ac4 013e e61b 173e
00000090: b07b 57bf 43c1 05bf 9842 2fbf e167 493e
000000a0: 8cec a73e 0c98 dc3e 96c4 1f3f 47d4 833f
000000b0: 8fee 9dbd 57cb 8ebe 6a84 22be 7fdd 113f
000000c0: b576 413e 6779 45bf dd8b fb3e b010 c0bd
000000d0: 808b 2f3e 738b f1be 2301 0d3e bf64 623f
000000e0: ddd6 443f ca4a c0be 2cc4 2cbe 5f83 83bf
000000f0: 83dc 5abe 512b 89be 4f38 4d3f 689e 2fbe
00000100: 7d6c efbe 8f62 f0bd f22b 4abf 01c6 aabe
00000110: 8964 9d3d c44f 45bf 5cc4 3a3e 85b9 0c3f
00000120: 6d70 373f d99d 263f 19e8 f23c 7d25 36bf
00000130: e97f 1f3e 9774 0bbf b263 13be 7bbd f33d
00000140: c61a 40bf b157 1ebf 0a35 123f 6f76 75be
00000150: 1464 f83e 0b1c 56bf 43be 31bf b2b4 b33e
00000160: 6c00 ea3e 22d5 33bd 1b79 273f 98ba 74be
00000170: 4085 16bf 3457 6d3f 7403 a4be f4fc 183f
00000180: f273 abbe 77d3 4f3e d151 853d 3c8d 693f
00000190: a0b6 69be 6df7 04bf 7c45 b33e f85f 1abf
000001a0: 5aad 473f 2bf8 90be f5ce a63e 0110 823d
000001b0: d218 62be deca 5fbe e709 2dbf c2ae 1c3f
000001c0: af00 a43d 83bb 393f c923 6a3e 56c9 1a3e
000001d0: e60b 94bd 5adb 973e 325c de3e bf05 ffbe
000001e0: f9eb 8e3d 7ad1 98be d887 59bf 0e40 f7bd
000001f0: 9ad1 92be 7518 50bf 8c08 b13e 1b74 0cbf
00000200: e335 4b3e ec2c 85be 1ce9 c7be 1f06 05be
00000210: dd38 263f 9644 1dbf ebe0 513f 2fb7 163f
00000220: aae8 2e3f af49 c93d b9e3 f33e 4848 603e
00000230: 81a5 ca3c 8f4c 0c3f b2bf b6be b213 893f
00000240: 434c f3be 6c72 093e 9984 5f3f acb1 ce3d
00000250: 6cae dfbc 4557 193f 3256 c13e 36d7 bdbe
00000260: 45b2 aebc 2cbf 99be f33c 85be 0369 0c3f
00000270: e76b b1be f4f6 6bbe 4232 e63e 0f4c cf3e
00000280: 31d0 82be 18cf b4be 38e2 59bc bbd6 833d
00000290: a2e5 2c3f 08af 323f dbad d0be 4288 023f
000002a0: f7d9 053f 5e59 3ebf 98ae 563f 7b98 e93b
000002b0: 2d46 d53e f48a 303f fc2d 73bf d5be 63be
000002c0: 79a2 0a3f 0a60 80be 4775 5fbf 2d18 bb3e
000002d0: 504f ebbd 08e4 81be 8f81 98be 1387 563f
000002e0: 3a57 6bbd f881 2a3f c4c4 e4be 7d92 b6bd
000002f0: 1a4c 98be 6b91 6abf b675 3bbf f369 e4bc
00000300: f822 7abe a80d fd3e 727a 7ebd b14b 663c
00000310: 4402 253f a872 5e3f 513d d1be a7ad ab3e
00000320: 7904 3fbf 8fcd 0f3f be1a e73e 74f4 3fbe
00000330: b4a8 9a3c 50e2 2f3f 8949 dabe 5aff a7bc
00000340: eb7d a4be 7137 593f 9be4 733a 16cd aabe
00000350: 0128 853e 650e 68bf cd21 f1be f454 acbd
00000360: da5a 503e cc30 093f 40ea 613e b352 663e
00000370: b772 b6be 6436 eabe ce31 813f c63a fabe
00000380: b302 58bf d0cc e5bc 95ed dabd 8384 5dbf
00000390: e9eb bc3e b0f8 b33e 8993 1c3f d473 bebe
000003a0: 9330 3b3f adcb fa3e e318 f5bd 5ba3 543f
000003b0: c4e0 04be bd85 08bf b629 c8be b8f7 b63d
000003c0: 0613 be3e 5c71 18be a5e0 5b3f d6fb 263d
000003d0: 968a 8ebe 5ca9 1c3f c8eb 503e 1945 41bf
000003e0: 8fab 7cbe 660c f7be 5f37 1ebf 74fa 13bf
000003f0: de27 30bf 5b47 113f 07ff 07bf e657 3abe

weight f4 [64, 256]
-0.32567918 0.09483725 0.12677088 0.18152425 0.14995606 -0.22479461 -0.030913824 -0.15448973
-0.011731592 -0.0066176425 -0.00057493494 0.0044884663 -0.16356666 0.1652738 0.07537859 0.1321552
0.036610365 0.07152445 -0.044213243 -0.014327359 -0.1798388 0.10311074 -0.09397605 -0.20972955
0.09367561 0.21185784 -0.08906367 0.18079259 -0.058547113 0.019585941 0.08758447 -0.008017389
-0.1787573 -0.04014855 0.14200397 0.1551822 -0.09775687 -0.23053652 -0.022769487 0.054409966
-0.09326955 -0.20990108 0.15207872 0.018061144 0.09765954 0.09006713 -0.16110773 0.15201572
-0.13045205 0.0056989556 0.12629908 -0.025730548 0.10752027 0.025471406 0.12920871 0.1487036
0.12095603 -0.17119958 0.019494591 -0.19386488 -0.15192948 -0.24173921 0.08483788 -0.20771116
-0.10610029 -0.27481776 0.01881604 0.047418118 0.09686243 -0.11831525 0.15118371 0.13371065
0.14698994 -0.09623879 -0.020675365 -0.10662483 0.09852795 -0.10913555 0.06275015 -0.21160989
0.015925953 -0.115009084 -0.2207415 0.034596574 0.15133871 -0.07314527 -0.15800248 -0.24684928
-0.14822772 -0.16517994 0.01633818 0.06827367 -0.087274976 -0.20664139 0.009370627 0.22667931
0.04261585 -0.17177714 0.09115849 -0.114860095 -0.09775859 -0.07972067 -0.07723406 0.042996496
0.16493294 -0.17804426 -0.28230324 0.0671868 -0.042531088 0.016764801 0.06531144 -0.23701605
-0.2690165 0.18698685 0.03066171 -0.04355221 0.082065634 -0.15453966 -0.27653247 -0.035313107
0.10612204 -0.026371695 -0.15463582 -0.23359005 0.09701089 -0.30905458 -0.21988748 -0.20315118
0.14725733 -0.14663157 -0.00062502467 -0.2375322 -0.13674293 -0.15012418 0.18741046 -0.28316778
0.12076105 0.029150313 -0.24962758 -0.055913452 -0.027840583 -0.2801177 -0.11695129 0.106980674
-0.14083438 -0.1644965 0.10856792 -0.12194869 -0.17726694 0.11464957 0.10153996 -0.197977
-0.12428128 -0.10263234 0.023289377 0.23525998 0.05211773 0.011310408 0.16191433 0.0915067
0.117232025 -0.16216479 0.1335795 0.08315082 -0.2482002 -0.22911209 0.016978133 0.101185195
-1.2663702e-05 -0.19260517 0.099624775 -0.11559206 -0.11825772 0.08202716 -0.077465445 0.0045394166
0.11128477 -0.12679483 0.053648412 -0.063634016 -0.111430444 -0.1634538 -0.2767147 0.25542212
-0.18038508 0.10685901 -0.21474555 -0.29075122 0.05993915 -0.21504222 0.068458244 0.09460945
0.035695918 0.17238422 -0.33809784 0.07801465 0.25108927 0.21325457 0.07525718 0.054832283
-0.15116446 0.13483207 0.079719156 -0.26532063 0.12932308 0.15226436 -0.20104915 -0.025122188
-0.13778707 0.1420601 0.026754644 -0.16038416 0.16559978 -0.07666677 -0.19237754 -0.23205571
0.045159224 0.08869284 -0.20176461 -0.028630324 -0.15110847 0.082747534 0.072353065 0.015017849
0.011037633 -0.17447904 -0.008854865 0.086515345 0.13086382 -0.20697811 0.05280887 -0.09105292
0.11948771 -0.16528758 -0.33557028 0.21366271 -0.19071911 -0.017388726 -0.042743523 -0.08729022
0.14309701 -0.21957414 0.09291166 -0.0191587 0.048711725 0.17747648 0.046598613 -0.14491734
0.0706517 -0.089775 -0.028120663 -0.08183887 -0.033500288 0.11940035 0.049524747 -0.19965352
00000000: 6cbf a6be 083a c23d 3ad0 013e 7ee1 393e
00000010: 158e 193e 8f30 66be fd3e fdbc 8e32 1ebe
00000020: dd35 40bc cfd8 d8bb 3bb7 16ba fc13 933b
00000030: 057e 27be 893d 293e 1760 9a3d b153 073e
00000040: c0f4 153d 697b 923d f218 35bd 4dbd 6abc
00000050: aa27 38be b92b d33d 8476 c0bd 58c3 56be
00000060: 00d9 bf3d 43f1 583e 0367 b6bd b121 393e
00000070: 19cf 6fbd b272 a03c 7d5f b33d 5e5b 03bc
00000080: 270c 37be ce72 24bd 7d69 113e 15e8 1e3e
00000090: c134 c8bd c411 6cbe 1387 babc fcdc 5e3d
000000a0: 1b04 bfbd 4ff0 56be 86ba 1b3e f7f4 933c
000000b0: ba01 c83d 1e75 b83d 6df9 24be 02aa 1b3e
000000c0: 3995 05be 4ebe ba3b 8c54 013e dfc8 d2bc
000000d0: 9633 dc3d 69a9 d03c 4a4f 043e c245 183e
000000e0: ccb7 f73d f14e 2fbe 1fb3 9f3c 8484 46be
000000f0: 6793 1bbe 7c8a 77be 7cbf ad3d 3cb2 54be
00000100: 1c4b d9bd eab4 8cbe 1924 9a3c 8039 423d
00000110: cf5f c63d 444f f2bd e7cf 1a3e 72eb 083e
00000120: 8884 163e d818 c5bd 625f a9bc 1e5e dabd
00000130: 06c9 c93d 7682 dfbd 2783 803d 43b0 58be
00000140: 2577 823c e289 ebbd 0f0a 62be 23b5 0d3d
00000150: 89f8 1a3e 30cd 95bd 67cb 21be 0fc6 7cbe
00000160: 02c9 17be ee24 29be a6d7 853c 11d3 8b3d
00000170: 39bd b2bd cd99 53be 4287 193c 9f1e 683e
00000180: f58d 2e3d 59e6 2fbe 4db1 ba3d c53b ebbd
00000190: a835 c8bd 9744 a3bd e42c 9ebd 181d 303d
000001a0: 2ee4 283e 3c51 36be 0d8a 90be 3c99 893d
000001b0: 1435 2ebd 5656 893c 01c2 853d 56b4 72be
000001c0: 88bc 89be 7b79 3f3e 442e fb3c cd63 32bd
000001d0: 0712 a83d a53f 1ebe aa95 8dbe 7aa4 10bd
000001e0: 8356 d93d 7409 d8bc da58 1ebe 3b32 6fbe
000001f0: a5ad c63d 673c 9ebe 2f2a 61be dd06 50be
00000200: a0ca 163e 9626 16be b2d8 23ba a43b 73be
00000210: 5706 0cbe 27ba 19be 87e8 3f3e 5efb 90be
00000220: 9251 f73d a3cc ee3c 5f9e 7fbe 8105 65bd
00000230: ef11 e4bc 966b 8fbe 2884 efbd af18 db3d
00000240: e336 10be c571 28be dc58 de3d 3cc0 f9bd
00000250: 7785 35be 65cd ea3d 2ff4 cf3d 7cba 4abe
00000260: 2f87 febd e730 d2bd 5dc9 be3c fee7 703e
00000270: 6779 553d 4a4f 393c dfcc 253e dd67 bb3d
00000280: 5817 f03d 870e 26be 10c9 083e fa4a aa3d
00000290: 3128 7ebe 5c9c 6abe ba15 8b3c 2f3a cf3d
000002a0: 3076 54b7 4a3a 45be 1308 cc3d 88bb ecbd
000002b0: 1a31 f2bd dbfd a73d 34a6 9ebd 63bf 943b
000002c0: 45e9 e33d 81d6 01be 70be 5b3d 8d52 82bd
000002d0: a535 e4bd 6f60 27be 8dad 8dbe b0c6 823e
000002e0: deb6 38be e6d8 da3d 42e6 5bbe 58dd 94be
000002f0: c182 753d 0734 5cbe d633 8c3d 99c2 c13d
00000300: e235 123d 7d85 303e 291b adbe 25c6 9f3d
00000310: c68e 803e 685f 5a3e 7020 9a3d d197 603d
00000320: dbca 1abe 6b11 0a3e cc43 a33d 1bd8 87be
00000330: 456d 043e 30eb 1b3e d4df 4dbe 0ccd cdbc
00000340: 0e18 0dbe 3478 113e 8e2c db3c bf3b 24be
00000350: fd92 293e 7803 9dbd 9efe 44be 03a0 6dbe
00000360: e1f8 383d 97a4 b53d 629b 4ebe 248a eabc
00000370: 2ebc 1abe 8a77 a93d d82d 943d 6d0d 763c
00000380: 30d7 343c a2aa 32be ff13 11bc f52e b13d
00000390: 2a01 063e 12f2 53be 1d4e 583d f479 babd
000003a0: f9b5 f43d 2641 29be decf abbe 66ca 5a3e
000003b0: df4b 43be cd72 8ebc d513 2fbd 37c5 b2bd
000003c0: 0688 123e 0bd8 60be 7848 be3d b5f2 9cbc
000003d0: f285 473d 65bc 353e 30de 3e3d 3665 14be
000003e0: d7b1 903d f5db b7bd 4e5d e6bc 239b a7bd
000003f0: 9937 09bd 2c88 f43d 76da 4a3d f971 4cbe

bias f4 [64]
0.21271199 -0.075384684 -0.47197855 0.15107714 -0.024510114 0.2678854 0.2964672 0.3791996
-0.010690142 -1.2195413e-12 -1.6864124e-05 -0.041177448 0.022564331 0.04435761 0.04105106 -4.3622533e-24
0.04011817 -0.9754382 0.22811197 -4.3521293e-12 -0.0011295265 -0.4947865 0.1578512 -4.2829844e-15
0.35211062 0.07350999 -0.020337943 -0.23731764 -0.030018587 -0.054086883 0.13746491 0.40418643
6.0082936e-30 -0.0503699 0.15610023 0.36473334 0.3741247 -2.4370313e-23 -0.5332385 0.009546118
9.4499156e-36 0.30642837 0.18762875 0.01738887 -0.03886284 0.023554632 -0.15863203 -1.7410137e-09
-0.00031056278 -8.531269e-20 -0.021709964 -0.0053542852 0.16549645 -0.010993978 -0.02354156 0.0020565072
-0.031779926 0.035494383 -3.2462665e-16 -2.1131424e-28 0.22038564 -0.030554464 0.1818986 0.38977554
00000000: 2cd1 593e 4963 9abd 2ca7 f1be f7b3 1a3e
00000010: 6fc9 c8bc 4628 893e 8dca 973e 7326 c23e
00000020: b525 2fbc 9ba2 abab 6e77 8db7 afa9 28bd
00000030: d5d8 b83c 53b0 353d 2825 283d aac1 a898
00000040: f352 243d 51b6 79bf 2f96 693e 7f20 99ac
00000050: 9f0c 94ba a854 fdbe bfa3 213e 8f4f 9aa7
00000060: d847 b43e 688c 963d c29b a6bc 6503 73be
00000070: 8ae9 f5bc 358a 5dbd 9ac3 0c3e 86f1 ce3e
00000080: b0b9 f30e ab50 4ebd bdd8 1f3e 54be ba3e
00000090: 468d bf3e f9b1 eb99 5182 08bf 5267 1c3c
000000a0: 3cfa 4805 2ee4 9c3e c021 403e 1a73 8e3c
000000b0: a42e 1fbd a5f5 c03c 6f70 22be 7948 efb0
000000c0: 08d3 a2b9 5b70 c99f 18d9 b1bc 0073 afbb
000000d0: e777 293e 1620 34bc 3bda c0bc 77c6 063b
000000e0: ab2b 02bd 8f62 113d 7022 bba5 b2ef 8591
000000f0: c6ac 613e 5b4d fabc a043 3a3e a990 c73e

weight f4 [32, 64]
-0.38905853 -1.27358e-40 0.025852187 0.14620934 -0.220019 -0.20497599 -0.17512718 -0.05777994
-5.2059117e-12 -0.0015650524 -1.662338e-39 0.0049309563 0.017953414 0.12351949 -0.17257139 3.4231e-40
-0.36313486 -0.029752988 -0.05539018 -0.0017171524 -0.0001750166 -0.13601819 -0.32286128 -2.1276928e-23
-0.40893096 0.0887793 0.08134424 0.045672704 0.204017 -0.48184478 -0.14071418 -0.42540616
-4.2843836e-17 0.11752739 -0.04405979 0.06943677 -0.23330322 -5.336078e-24 -0.29663047 0.08025716
-1.51122e-40 -0.31049165 -0.25429362 0.08281523 0.06331275 0.14584048 0.016382327 -3.2896383e-09
0.036056973 0.06311398 9.4013e-41 1.930219e-39 -0.24436678 -0.06651826 -3.33561e-40 0.0017049338
0.16173351 -0.31942427 2.7402223e-16 -2.739155e-39 -0.5414224 -0.034910016 -0.06202556 -0.05106197
0.04163831 0.060778424 -0.033330463 -0.045148212 0.06125785 -0.045763046 0.060016207 -0.15294123
-0.006200862 0.0009804841 0.0014078321 0.05251628 -0.03394061 -0.03997287 0.24395384 0.00021417697
0.11382772 -0.021789521 -0.026318094 -0.00014868997 0.041455552 0.11447982 0.03815416 0.056349203
0.048686992 -0.2301063 -0.02440805 0.13248 -0.006081243 0.15605386 -0.16052178 0.14722711
-9.85564e-40 0.06632623 0.00092069706 -0.009407113 0.10877664 2.34042e-39 0.21565287 -0.008338614
0.003094338 0.14078203 0.021408936 -0.06955324 0.0442105 0.08260521 0.32402927 0.01631765
0.020245913 0.0029129556 0.06011611 0.05199093 -0.22500066 0.046939578 -0.0040547093 -0.041111324
0.14389057 0.1273859 0.014342728 -1.71024e-40 0.11341627 -0.019845743 -0.0051777894 -0.028066749
-0.23667459 1.8025044e-23 0.0043410514 -0.05410322 -0.14352669 -0.35050794 -0.23662417 -0.015214989
-0.00041397513 0.0173272 5.273862e-05 0.08588044 -0.0038468074 0.092349075 -0.24226026 8.942204e-06
-0.3371354 -0.03883878 0.09443116 -0.004627811 0.032182176 0.06896058 -0.63808745 -1.4733645e-19
-0.37761658 0.070047975 0.048121262 0.1365865 0.15380675 -0.4540708 -0.20483905 -0.60708
1.1528558e-17 0.106615916 -0.2688265 0.010040587 -0.33606565 -0.00039150586 -0.24517678 0.10724261
7.03911e-40 -0.39989972 -0.20152777 0.018555634 0.024137564 0.08629115 0.025627045 -0.00012506761
0.07051009 0.027825281 7.55366e-40 0.053274155 -0.2624493 0.035870153 -1.042866e-39 0.12793793
-0.09491904 -0.2334947 1.5681688e-05 -5.971032e-09 -0.5308114 0.029558329 -0.14428432 -0.24287443
-0.053952087 1.080122e-39 -0.14527352 0.006554527 0.05752038 -0.0029547545 -0.070248276 0.1273824
-1.334758e-39 0.00067527563 -0.054119036 0.020722514 -0.041853756 0.0068799844 -0.14382376 1.96898e-40
0.07391426 -0.27353764 -0.03318661 3.1038533e-05 -0.0015630529 -0.27055097 -0.10475447 -1.877968e-39
0.01998314 0.090506434 -0.06381871 -0.19459619 -0.029174214 0.082082555 -0.031727877 0.08101055
1.5498846e-25 -0.16049609 -0.07785586 -0.15119655 0.033084884 -0.0014634345 -0.18159266 0.007529207
4.58351e-40 -0.03454528 -0.051096834 -0.04611009 0.07716901 -0.005402301 0.06492076 -3.7266724e-05
-0.027742978 -0.024474276 -1.086036e-39 2.988258e-39 0.06356214 -0.06797583 1.664831e-39 -0.08891102
0.16978945 -0.13924535 -1.4528706e-35 0.000816229 0.1078989 -0.048578545 -0.01599068 -0.10171629
00000000: ae32 c7be 0663 0180 f7c7 d33c e7b7 153e
00000010: a94c 61be 3ae5 51be 8a54 33be a9aa 6cbd
00000020: af2a b7ac 7222 cdba ec19 1280 dc93 a13b
00000030: 0a13 933c c9f7 fc3d 8eb6 30be 39ba 0300
00000040: d0ec b9be 8abc f3bc d0e0 62bd 1312 e1ba
00000050: a984 37b9 5a48 0bbe 134e a5be 1fc7 cd99
00000060: 665f d1be ecd1 b53d cf97 a63d 4d13 3b3d
00000070: d5e9 503e 5cb4 f6be 6117 10be d6ce d9be
00000080: 1395 45a4 33b2 f03d 0a78 34bd de34 8e3d
00000090: 0ae7 6ebe f56d ce98 f3df 97be de5d a43d
000000a0: 44a5 0180 c3f8 9ebe c632 82be 089b a93d
000000b0: 1daa 813d 3557 153e 3b34 863c ee0f 62b1
000000c0: 7ab0 133d e741 813d 1206 0100 aa04 1500
000000d0: 493b 7abe ba3a 88bd d5a1 0380 1678 df3a
000000e0: 789d 253e 948b a3be 8bf6 9d25 a6d3 1d80
000000f0: a99a 0abf cefd 0ebd 830e 7ebd 5b26 51bd
00000100: ef8c 2a3d ccf2 783d 8685 08bd 55ed 38bd
00000110: 83e9 7a3d 0872 3bbd 8ed3 753d a09c 1cbe
00000120: 9a30 cbbb 9683 803a 0287 b83a 501b 573d
00000130: 4f05 0bbd 98ba 23bd 09cf 793e b194 6039
00000140: 821e e93d f07f b2bc 0b99 d7bc a9e9 1bb9
00000150: 4ccd 293d 6574 ea3d 8947 1c3d 6cce 663d
00000160: 036c 473d fca0 6bbe 64f3 c7bc d6a8 073e
00000170: 2a45 c7bb 95cc 1f3e d25f 24be b4c2 163e
00000180: 5abb 0a80 0cd6 873d ef5a 713a 4b20 1abc
00000190: 49c6 de3d 247c 1900 1bd4 5c3e af9e 08bc
000001a0: 61ca 4a3b 2a29 103e cb61 af3c ee71 8ebd
000001b0: 1216 353d ec2c a93d 2ae7 a53e 98ac 853c
000001c0: c2da a53c 49e7 3e3b 4f3c 763d 71f4 543d
000001d0: 9366 66be b743 403d 5edd 84bb 5964 28bd
000001e0: 0d58 133e 7371 023e c3fd 6a3c bfdc 0180
000001f0: ca46 e83d 8a93 a2bc 72aa a9bb 3dec e5bc
00000200: d35a 72be d953 ae19 613f 8e3b 579b 5dbd
00000210: a9f8 12be c775 b3be 9b4d 72be 4a48 79bc
00000220: cd0a d9b9 c6f1 8d3c a933 5d38 16e2 af3d
00000230: b81a 7cbb 8321 bd3d 1313 78be 7906 1637
00000240: 039d acbe 6a15 1fbd 2065 c13d e4a4 97bb
00000250: 75d1 033d 343b 8d3d b359 23bf b6f1 2da0
00000260: f656 c1be 5075 8f3d cd1a 453d 55dd 0b3e
00000270: 847f 1d3e f87b e8be 54c1 51be 9869 1bbf
00000280: 13aa 5423 7259 da3d a1a3 89be 4681 243c
00000290: cc10 acbe 0743 cdb9 9f0f 7bbe 03a2 db3d
000002a0: 38aa 0700 a8bf ccbe 4c5d 4ebe fc01 983c
000002b0: 24bc c53c 6ab9 b03d cfef d13c 9524 03b9
000002c0: 9867 903d d8f1 e33c a739 0800 0036 5a3d
000002d0: c15f 86be 95ec 123d 165b 0b80 2902 033e
000002e0: ea64 c2bd 3c19 6fbe 2b8c 8337 c129 cdb1
000002f0: 42e3 07bf 4f24 f23c 45bf 13be 13b4 78be
00000300: ddfc 5cbd f1c2 0b00 95c2 14be 5cc7 d63b
00000310: 7d9a 6b3d 8ea4 41bb 54de 8fbd 8870 023e
00000320: c388 0e80 fb04 313a ecab 5dbd 43c2 a93c
00000330: d86e 2bbd 7e71 e13b 8946 13be df24 0200
00000340: 5c60 973d 200d 8cbe afee 07bd 5f2f 0238
00000350: 5adf ccba a885 8abe 8389 d6bd 0373 1480
00000360: afb3 a33c 705b b93d 62b3 82bd 3944 47be
00000370: c3fe eebc e61a a83d 17f5 01bd dce8 a53d
00000380: cedd 3f16 1659 24be e572 9fbd 45d3 1abe
00000390: 0484 073d b7d0 bfba 6df3 39be 91b7 f63b
000003a0: b2fd 0400 5a7f 0dbd ea4a 51bd efdd 3cbd
000003b0: c90a 9e3d c905 b1bb 2df5 843d d74e 1cb8
000003c0: 3e45 e3bc 477e c8bc 6dd3 0b80 0c8a 2000
000003d0: de2c 823d e936 8bbd df20 1200 fb16 b6bd
000003e0: 49dd 2d3e 5596 0ebe e67e 9a85 33f8 553a
000003f0: 19fa dc3d 4cfa 46bd e3fe 82bc a150 d0bd

bias f4 [32]
0.2420691 -0.20239682 0.052279472 0.34726056 -0.08127329 -0.0004310905 0.014707811 -0.02256209
0.47021657 -0.25647274 0.1850291 0.06871067 0.115879074 0.16550621 0.16306955 0.033565987
0.3436949 -1.0644765e-19 0.39872268 0.028674362 -0.4265638 0.38278314 0.4268644 -2.8980116e-05
2.315604e-39 0.28588992 0.27249837 0.2909878 0.44325876 0.4390031 -0.26661894 -0.15456286
00000000: f6e0 773e 1d41 4fbe 0023 563d 23cc b13e
00000010: 9c72 a6bd fd03 e2b9 08f9 703c 22d4 b8bc
00000020: 3ac0 f03e 6550 83be 4578 3d3e 2eb8 8c3d
00000030: 0252 ed3d 767a 293e b4fb 263e 7d7c 093d
00000040: c7f8 af3e a857 fb9f 6125 cc3e 7fe6 ea3c
00000050: 9266 dabe 27fc c33e f88d da3e 531a f3b7
00000060: f636 1900 2a60 923e e884 8b3e 5afc 943e
00000070: d0f2 e23e 04c5 e03e 4782 88be ba45 1ebe

weight f4 [8, 32]
0.011108415 0.14451304 0.18263632 0.120195925 -0.0691858 0.024467038 0.067318484 -0.036577597
0.11452775 0.12048995 0.09504054 0.13141367 -0.041318152 0.058083467 0.057894446 -0.19369934
0.012375868 -1.45196e-11 -0.10439988 -0.0521585 0.22312488 0.14063697 0.060274757 0.010561366
-0.0001058295 0.073179856 0.026062936 0.17883432 0.17617236 -0.069348924 0.16423173 -0.083770834
0.048813056 0.11047305 -0.21640165 -0.43787992 -0.09487023 0.027328141 -0.019470295 0.06161091
-0.22389852 0.1247505 0.044592783 -0.050539754 -0.0061679953 -0.055458482 0.048331123 -0.011610193
0.005576456 4.14536e-40 -0.36107004 -0.17102252 0.18298921 -0.31709617 0.048851892 -1.690511e-39
7.1180743e-06 0.016488852 0.53056276 0.6081371 0.03983746 -1.1258284 0.14102866 -0.020104373
0.18201104 -0.14599307 -0.08147386 -0.32173163 0.034938473 0.03544015 0.17915444 8.356269e-16
-0.44665658 -0.10977909 -0.19182687 -0.12612171 -0.047018 -0.048214603 0.16818853 -0.27389193
-0.4997762 -3.1026834e-11 -0.19034328 -0.18098646 -0.30971992 -0.39428446 0.19941899 -0.00380434
1.305391e-39 -0.29320848 0.24055132 0.042715717 0.10489251 -0.09970981 -0.07731122 -0.24298644
0.089126706 -0.0831815 -0.14055182 -3.156842e-39 -0.05992492 -0.0064860513 0.03897106 -2.212374e-39
-0.05279732 -0.17668445 -0.0007581547 -0.023536071 -0.059661675 -0.044487286 0.028673612 -2.76234e-40
-0.050302505 2.008959e-39 3.13012e-40 -7.21014e-40 -0.049836554 -0.053143907 -0.10193505 -1.508924e-39
-1.199971e-39 1.0899891e-27 -0.11018828 -0.0057960367 0.0010813203 -0.028386386 -0.12884372 -0.013154806
-3.4004e-41 -0.015290837 -0.09262013 -0.0192404 -0.005427683 -0.011092397 -2.856192e-39 -1.549278e-39
-0.03592867 -0.01962713 -0.011390369 -0.027750917 -0.029451719 -0.08178871 -0.00023054938 0.0038753422
0.010164782 4.71126e-40 -0.016915519 0.006051567 0.0381101 -0.033935476 -0.017998798 2.574917e-39
-1.04308e-39 -0.017471842 -0.0051372154 -5.2124295e-07 -7.3649725e-10 -2.6337e-40 -0.09665213 -0.031675074
-0.4567635 -0.38296297 -0.4518753 0.17041095 -0.100021355 2.27918e-39 -0.37685674 0.01772761
-0.119633354 -0.6373569 0.23001322 -0.33642164 -0.027614009 -0.2727399 -0.31916338 0.14830248
-0.06313848 -6.0227605e-16 0.212408 0.12097131 0.079773515 -0.054911394 0.38502267 -3.450861e-39
2.98736e-39 0.19328023 0.34269723 0.3675982 0.26326895 -0.09779561 -0.27530015 -0.54678965
0.056324404 -0.06703607 0.09266055 -0.22776088 -0.002691748 0.01390708 0.13223276 0.01470796
-0.32326907 -0.041304525 0.1425564 0.007292928 -0.29697973 -0.11398398 0.10584443 -0.17462857
-0.20225531 1.7773356e-10 -0.29938343 -0.103913255 -0.6657134 -0.5165748 0.16307636 -0.029937169
-3.49042e-40 -0.4242587 0.18298455 0.19315837 0.17326665 -0.031282432 0.026810497 -0.18812893
-0.44905943 -0.02151646 -0.51132476 0.034400962 -0.017787771 0.0044914787 -0.46254557 0.061296053
0.14828737 -0.11992669 -0.5947476 -0.44745097 0.032247104 -0.054327127 -0.5038217 0.215608
0.13971142 -1.5321999e-07 0.19577426 0.14558257 0.052351635 0.05684496 -0.4371006 -1.821963e-39
6.681991e-27 -0.08015648 0.13099806 0.24755175 0.14945444 -1.1883494 -0.2505852 -0.70096445
00000000: 1200 363c 3afb 133e 0405 3b3e 4829 f63d
00000010: 49b1 8dbd 196f c83c 46de 893d 64d2 15bd
00000020: 868d ea3d 6fc3 f63d 9da4 c23d 4e91 063e
00000030: 393d 29bd eee8 6d3d ba22 6d3d 1f59 46be
00000040: 27c4 4a3c 776e 7fad 9bcf d5bd 27a4 55bd
00000050: d97a 643e 2303 103e aae2 763d 9409 2d3c
00000060: c8f0 ddb8 52df 953d f081 d53c 5820 373e
00000070: 8766 343e cf06 8ebd 5d2c 283e 0b90 abbd
00000080: 33f0 473d b23f e23d 6598 5dbe cc31 e0be
00000090: 534b c2bd 44df df3c 2b80 9fbc b95b 7c3d
000000a0: a745 65be 317d ff3d eca6 363d c602 4fbd
000000b0: e51c cabb 6f28 63bd dbf6 453d ae38 3ebc
000000c0: b4ba b63b 8f83 0400 2cde b8be 8720 2fbe
000000d0: 8661 3b3e 6e5a a2be ec18 483d 7568 1280
000000e0: cbd7 ee36 a113 873c f6d2 073f dfae 1b3f
000000f0: 9b2c 233d 251b 90bf d169 103e edb1 a4bc
00000100: 1a61 3a3e 357f 15be c4db a6bd 02ba a4be
00000110: a51b 0f3d b129 113d 4374 373e 62da 7026
00000120: 2cb0 e4be dcd3 e0bd 436e 44be 0d26 01be
00000130: f295 40bd ad7c 45bd 9d39 2c3e 903b 8cbe
00000140: abe2 ffbe 1c75 08ae 59e9 42be 8454 39be
00000150: 9c93 9ebe a7df c9be 7e34 4c3e 3c52 79bb
00000160: e636 0e00 6c1f 96be 1653 763e adf6 2e3d
00000170: e2d1 d63d a834 ccbd 5855 9ebd 70d1 78be
00000180: 1088 b63d 105b aabd d1ec 0fbe fe5f 2280
00000190: d573 75bd f188 d4bb 1ea0 1f3d 3317 1880
000001a0: 0142 58bd c5ec 34be e7be 46ba b8ce c0bc
000001b0: cd5f 74bd 4d38 36bd ece4 ea3c 0702 0380
000001c0: 000a 4ebd 29e0 1500 8d68 0300 e5d9 0780
000001d0: 6a21 4cbd 6dad 59bd 53c3 d0bd 446e 1080
000001e0: 0811 0d80 36b7 ac12 65aa e1bd aeec bdbb
000001f0: 17bb 8d3a 918a e8bc 9cef 03be 4187 57bc
00000200: ca5e 0080 6b86 7abc 9faf bdbd 0b9e 9dbc
00000210: b4da b1bb e3bc 35bc e719 1f80 c2de 1080
00000220: f129 13bd 13c9 a0bc ac9e 3abc e455 e3bc
00000230: bb44 f1bc d780 a7bd a1bf 71b9 74f9 7d3b
00000240: 308a 263c 4f21 0500 6a92 8abc 394c c63b
00000250: 5619 1c3d edff 0abd 3772 93bc d209 1c00
00000260: af5b 0b80 1c21 8fbc 1656 a8bb 8beb 0bb5
00000270: 6372 4ab0 2bde 0280 8df1 c5bd b9bd 01bd
00000280: e8dc e9be b913 c4be 335c e7be 3580 2e3e
00000290: ffd7 ccbd 6dd1 1800 5ef3 c0be 7e39 913c
000002a0: 5502 f5bd d229 23bf 9688 6b3e 753f acbe
000002b0: c636 e2bc 90a4 8bbe 6269 a3be 9bdc 173e
000002c0: bf4e 81bd 2198 2da6 7c81 593e cebf f73d
000002d0: 4c60 a33d c5ea 60bd b121 c53e 9993 2580
000002e0: 8b87 2000 41eb 453e 0376 af3e d535 bc3e
000002f0: 30cb 863e 1149 c8bd 24f4 8cbe 68fa 0bbf
00000300: 6bb4 663d 354a 89bd d0c4 bd3d 263a 69be
00000310: 0a68 30bb 85da 633c 0668 073e a8f9 703c
00000320: 8683 a5be ef2e 29bd 4efa 113e 84f9 ee3b
00000330: ba0d 98be 6f70 e9bd f7c4 d83d d5d1 32be
00000340: 041c 4fbe 8d6b 432f c948 99be 79d0 d4bd
00000350: 326c 2abf 3f3e 04bf 7dfd 263e cb3e f5bc
00000360: fdcc 0380 7038 d9be 4d60 3b3e 4fcb 453e
00000370: d06c 313e 0222 00bd b0a1 db3c dfa4 40be
00000380: 1eeb e5be 4a43 b0bc 2ee6 02bf 06e8 0c3d
00000390: a9b7 91bc 412d 933b c6d2 ecbe 9211 7b3d
000003a0: a5d8 173e 209c f5bd 6141 18bf 4b18 e5be
000003b0: 8a15 043d 1f86 5ebd 75fa 00bf 58c8 5c3e
000003c0: 8310 0f3e ca84 24b4 0c79 483e 9913 153e
000003d0: ab6e 563d 43d6 683d a6cb dfbe e4d6 1380
000003e0: b859 0414 1529 a4bd 5b24 063e 357e 7d3e
000003f0: 960a 193e d51b 98bf b44c 80be 6872 33bf

bias f4 [8]
-0.047814175 -0.42801705 0.2850112 0.20188019 -0.01150906 -0.019150043 0.015586012 0.36157286
00000000: ccd8 43bd 0d25 dbbe fdec 913e aeb9 4e3e
00000010: 7f90 3cbc 8de0 9cbc 795c 7f3c 1420 b93e

weight f4 [1, 8]
-0.07459367 0.2558115 -0.33374768 -0.09722924 -0.03098475 1.591258 -0.2845768 0.39162847
00000000: 91c4 98bd baf9 823e fae0 aabe 2020 c7bd
00000010: bbd3 fdbc 58ae cb3f 0db4 91be 8783 c83e

weight f4 [8, 1]
-0.9929091 0.5209317 0.34144393 -0.83791643 -0.37970006 -1.0001684 -0.69530606 0.71866214
00000000: 4a2f 7ebf c85b 053f bdd1 ae3e b181 56bf
00000010: 0c68 c2be 8505 80bf 94ff 31bf 3efa 373f

bias f4 [8]
-0.21276408 -0.097953334 0.07294587 0.039785247 -0.25569654 0.6352177 0.13178328 -0.42527965
00000000: d4de 59be c29b c8bd a564 953d dbf5 223d
00000010: a8ea 82be a19d 223f 32f2 063e 41be d9be

weight f4 [32, 8]
-0.28377545 -0.55393475 0.020034488 -0.27896518 -1.2913312 0.090740204 -0.030522248 -0.08540615
0.0005073264 -0.00624387 -0.029977413 -0.0019743305 2.350745e-39 -0.028668456 -0.0063912235 -0.0076292274
0.007351612 -0.33939162 -0.11068812 -0.16081801 -0.31133577 0.08075116 -0.0013950764 -0.099676564
3.180813e-39 0.13081706 0.16886507 -3.180317e-39 4.72619e-40 -0.43438143 -2.365288e-39 0.23092805
-0.3397894 -0.22399066 0.3214458 -0.78279597 -6.044717e-10 -0.25797108 -0.54870695 0.0003940022
0.14337961 0.31182727 0.3605343 0.097155415 0.47555014 0.33383918 0.18292673 0.2002431
0.107965335 -0.00025852703 -0.43675664 0.18953016 -0.16133426 0.2341098 0.059188683 2.787473e-39
-0.017015798 0.23411167 -0.020109398 -0.16786906 -0.005182259 -0.04021631 -1.0261043 0.28330737
2.435204e-39 -4.8617123e-05 -0.00037972315 4.29005e-40 1.367698e-39 -2.8971989e-18 3.67422e-40 -0.0023988767
-0.25408876 0.32228425 -0.05628178 0.22022197 -0.1242444 -0.007867883 -0.041292895 -0.14499053
0.26330712 -0.024564158 -0.107100554 0.23418249 0.27644992 0.24782053 -0.08601348 -0.037469734
-0.05690226 -0.28024566 -0.38510442 -0.15311947 -0.30538338 0.36717883 -0.26670265 -1.6160268
-0.037160538 0.34695235 0.112858385 0.36424348 -0.14194284 -0.07081117 0.33917695 0.20626338
-0.18115143 0.14208776 0.14452574 -0.13192922 -0.22950613 0.05685604 -0.10413328 -0.13938123
-0.17223287 -0.19650358 0.1470451 -0.5944513 -0.09675544 -0.25709027 -0.5271723 -0.079818785
-0.17201947 0.009360817 0.33085632 -0.46665698 -1.4590702e-11 -0.22789705 -0.5186301 -0.19295906
0.009098368 -0.021790061 0.013626114 -0.34576598 0.1480338 0.2285479 0.38302782 0.21336453
0.30203062 1.6447577e-37 -0.8613914 0.2537286 0.16747019 0.1830833 0.10837343 1.7684e-41
-0.30852357 -3.4521024 -0.61667633 0.2878821 -0.5590613 0.13486615 0.17681627 8.4993466e-05
-6.262807e-17 -0.0066332887 0.0041041044 -1.8943741e-13 1.138008e-39 6.7346214e-06 -4.445816e-14 -0.008957675
-0.04380516 0.40738684 0.05008706 -0.02767196 -0.1699349 -0.13902251 0.18376875 -0.37251288
-0.00014723321 0.2574611 0.018112747 -0.30822593 7.997e-42 -0.34735098 -0.47257188 -0.10728767
0.2538962 0.015878052 0.00048419944 0.20317374 0.54715043 0.10578823 0.32849064 0.21796633
-0.0034660625 -0.033377353 0.198934 -0.4673565 3.530307e-39 -0.024636135 -0.65972656 0.2628593
-0.07930224 -0.012626233 0.3052978 -0.2743956 -0.47043213 0.24722433 -0.08057024 -0.18193766
-0.12284055 -0.32028082 0.23951338 0.051898483 0.36343446 0.200149 0.024027007 0.23959918
-0.16883312 0.0429246 0.033801295 0.02856128 -0.16017373 -0.04518691 0.09038194 -0.018438004
1.5807e-40 -6.1029444e-33 -4.0517475e-06 7.786247e-27 7.4361e-41 -8.346685e-10 -4.5022624e-25 -4.11283e-40
0.5786417 -7.84188e-40 6.6124517e-38 0.42578322 1.0419477 -0.15823726 0.09054855 -2.781095e-39
5.20301e-40 -0.11085874 0.0057872273 -6.97025e-40 -2.122957e-39 -2.7709987 -4.5273e-41 -0.7820668
0.16219266 3.187532e-39 -0.6504856 -0.032641377 0.17949194 0.07248456 0.06374503 -2.469305e-39
0.22643065 0.5965767 -0.3422249 0.1923824 0.07088734 0.24636388 0.4060655 -0.091355436
00000000: 044b 91be abce 0dbf 5e1f a43c 86d4 8ebe
00000010: 574a a5bf 00d6 b93d cb09 fabc 6be9 aebd
00000020: 19fe 043a 6199 ccbb 3193 f5bc c563 01bb
00000030: ec98 1900 1cda eabc 786d d1bb 99fe f9bb
00000040: cbe5 f03b bdc4 adbe 74b0 e2bd 7aad 24be
00000050: 6767 9fbe dd60 a53d ffda b6ba 3a23 ccbd
00000060: d0a2 2200 e8f4 053e f7ea 2c3e 6ea1 2280
00000070: 7825 0500 3e67 debe 76c1 1980 6778 6c3e
00000080: e0f8 adbe cf5d 65be 8b94 a43e 5165 48bf
00000090: ea27 26b0 c914 84be 0f78 0cbf 1592 ce39
000000a0: 1bd2 123e d3a7 9f3e f497 b83e 6bf9 c63d
000000b0: 4f7b f33e f8ec aa3e 2551 3b3e 870c 4d3e
000000c0: ee1c dd3d e98a 87b9 919e dfbe 3214 423e
000000d0: cf34 25be 7bba 6f3e d56f 723d 575a 1e00
000000e0: b764 8bbc f8ba 6f3e 77bc a4bc dee5 2bbe
000000f0: f0cf a9bb dcb9 24bd 6357 83bf aa0d 913e
00000100: 5c84 1a00 3dea 4bb8 9415 c7b9 e4ab 0400
00000110: 96e4 0e00 8ac6 55a2 3900 0400 7936 1dbb
00000120: ec17 82be 7102 a53e b987 66bd de81 613e
00000130: d973 febd 4be8 00bc bd22 29bd 6678 14be
00000140: 31d0 863e c63a c9bc 8957 dbbd 89cd 6f3e
00000150: d88a 8d3e aac4 7d3e d627 b0bd dd79 19bd
00000160: 5812 69bd 5c7c 8fbe 682c c5be 5acb 1cbe
00000170: 365b 9cbe ddfe bb3e 408d 88be f7d9 cebf
00000180: a635 18bd bda3 b13e 4c22 e73d 1f7e ba3e
00000190: 7759 11be 7205 91bd 9aa8 ad3e b536 533e
000001a0: c37f 39be 747f 113e 8efe 133e 7418 07be
000001b0: a803 6bbe e1e1 683d d443 d5bd f4b9 0ebe
000001c0: d05d 30be 3c38 49be fe92 163e f62d 18bf
000001d0: b727 c6bd 56a1 83be c4f4 06bf 0878 a3bd
000001e0: df25 30be 1d5e 193c 0066 a93e aaed eebe
000001f0: 5757 80ad d85d 69be f1c4 04bf 0f97 45be
00000200: 5211 153c 1281 b2bc 1140 5f3c 3d08 b1be
00000210: 2c96 173e 7608 6a3e 391c c43e 3b7c 5a3e
00000220: c2a3 9a3e 71df 5f02 2684 5cbf b7e8 813e
00000230: 4e7d 2b3e 307a 3b3e e4f2 dd3d 4c31 0000
00000240: cdf6 9dbe 3fef 5cc0 80de 1dbf 4865 933e
00000250: a41e 0fbf 5a1a 0a3e 530f 353e 853e b238
00000260: 1669 90a4 0f5c d9bb b97b 863b 9e49 55aa
00000270: 4e64 0c00 f5f9 e136 c538 48a9 36c3 12bc
00000280: 0a6d 33bd 0295 d03e 1728 4d3d 4eb0 e2bc
00000290: 6a03 2ebe eb5b 0ebe e02d 3c3e 02ba bebe
000002a0: 9d62 1ab9 f1d1 833e 2f61 943c cacf 9dbe
000002b0: 4b16 0000 fdd7 b1be f1f4 f1be a3b9 dbbd
000002c0: affe 813e b012 823c 26dc fd39 c70c 503e
000002d0: 0d12 0c3f 80a7 d83d ed2f a83e 9132 5f3e
000002e0: e126 63bb b1b6 08bd 5bb5 4b3e 5a49 efbe
000002f0: 0f71 2600 b8d1 c9bc d7e3 28bf 7f95 863e
00000300: 3669 a2bd 42de 4ebc fe4f 9c3e 957d 8cbe
00000310: 7bdc f0be 6028 7d3e 0302 a5bd de4d 3abe
00000320: d493 fbbd d9fb a3be ff42 753e 8193 543d
00000330: 1514 ba3e dcf3 4c3e 49d4 c43c 7d59 753e
00000340: 97e2 2cbe b5d1 2f3d 3a73 0a3d 58f9 e93c
00000350: 9504 24be e915 39bd 2b1a b93d 4c0b 97bc
00000360: a3b8 0100 a381 fd89 3ff4 87b6 f638 1a14
00000370: 4acf 0000 936e 65b0 9956 0b97 7d7a 0480
00000380: dd21 143f ff89 0880 1002 b401 4200 da3e
00000390: 8b5e 853f f308 22be 8571 b93d 9048 1e80
000003a0: 63aa 0500 e809 e3bd c8a2 bd3b 0697 0780
000003b0: f11d 1780 0b58 31c0 347e 0080 8835 48bf
000003c0: d515 263e 8bb5 2200 3986 26bf f7b2 05bd
000003d0: bccc 373e c972 943d c18c 823d 6be3 1a80
000003e0: 70dd 673e 40b9 183f 1a38 afbe e4ff 443e
000003f0: 622d 913d d046 7c3e d1e7 cf3e 8f18 bbbd

bias f4 [32]
0.4344915 -0.054031167 0.39979002 -0.30315915 0.492039 -0.34499857 -0.13186905 0.0747221
-4.4611747e-06 0.46634108 -0.20838854 0.1733955 -0.29292208 0.55460685 0.6459773 0.35541514
0.48950517 -0.13809903 0.2809002 -0.041761138 0.44661942 0.41335747 -0.53636354 0.14801058
0.62192214 0.03932471 0.49808428 -0.0014370333 -0.797179 0.27310356 -0.04088127 0.2406246
00000000: ab75 de3e c94f 5dbd 47b1 cc3e ad37 9bbe
00000010: 89ec fb3e a7a3 b0be ae08 07be e607 993d
00000020: 33b1 95b6 42c4 ee3e ce63 55be 978e 313e
00000030: e2f9 95be b7fa 0d3f c55e 253f f9f8 b53e
00000040: 6ca0 fa3e d569 0dbe 27d2 8f3e ba0d 2bbd
00000050: 4dab e43e 97a3 d33e 1f4f 09bf 1690 173e
00000060: 4a36 1f3f f212 213d e704 ff3e d65a bcba
00000070: ec13 4cbf 3bd4 8b3e 1e73 27bd 4c66 763e

weight f4 [64, 32]
-0.09372927 0.00040195498 0.13668725 0.08138947 0.20828785 0.29193 -0.24298885 0.09089158
4.897767e-38 0.20234457 -0.19370395 0.109399274 0.1983984 0.40899545 0.21151242 -0.02953964
0.14844811 -0.34784964 -0.49233228 0.00022356623 0.58483636 0.20773117 0.24282515 0.18107118
0.37063214 0.16728634 0.39394128 -5.43866e-40 -2.9930618 -1.3043416 -0.25973666 0.1686814
-7.191095e-08 -1.297195e-39 -1.3915663e-10 -0.0008223655 -0.0011116078 -0.0042780405 -0.00016947159 -0.0026592787
2.234826e-39 -1.4098895e-08 -7.254099e-05 -2.7670117e-12 -0.00033680745 -5.6518143e-08 -1.2007081e-05 -0.00018937893
-0.0010444329 -0.0003645885 -1.5480728e-05 1.356841e-39 -1.3782407e-12 -4.3720287e-05 -0.00042205516 -0.0008566658
-0.00014812074 -0.0008988281 -4.7156487e-07 -2.24002e-40 -2.5889765e-05 1.625918e-39 -4.2295737e-06 -0.0024832569
-1.1564182 6.518568e-22 0.06653686 -0.10856176 -0.043488722 0.24252194 0.048458137 0.001271877
-2.464929e-39 -0.15236157 0.026143756 0.1384496 -0.062152028 -0.41884506 -0.16412582 -0.043714777
0.13927495 0.02103835 0.05475432 2.338762e-39 -0.06826786 -0.034573868 0.250753 -0.03653229
-0.106437035 0.029715238 -0.063315056 3.549577e-39 -0.050624385 -3.496691e-39 0.2327275 0.07683782
-7.843758e-07 3.24793e-39 -1.3412766e-05 2.907128e-39 1.84868e-40 -2.714612e-06 -0.00010023317 1.712401e-39
-2.9414746e-38 -3.3934978e-27 -6.2554823e-06 -1.009207e-39 -9.3138e-14 -2.398118e-39 1.3452929e-08 1.980564e-39
-0.005128383 6.7652494e-05 -0.0006354918 -1.108856e-39 -1.833e-39 6.36331e-40 2.6425178e-06 1.147422e-39
0.0031180447 -0.0002590064 7.05707e-40 2.432056e-39 2.3550266e-09 1.031536e-39 -1.3428542e-20 0.0069747777
0.2547221 -1.0062498e-06 0.15260747 -1.5000429e-05 -0.5099758 -0.1309774 0.18651031 -0.15235439
-1.27842e-40 0.34202385 -0.08525015 0.39424068 0.013255554 -0.085514836 -0.561104 -0.44860688
0.031452928 0.016473856 0.085795105 -7.2067e-41 0.107186034 -0.47380823 -0.05632013 -0.36312252
0.015623201 0.16184975 0.20128918 3.057867e-39 -0.099525265 3.88245e-40 0.07981159 0.12405925
0.29994267 -1.161335e-39 -0.30510473 -0.0668344 -0.045200184 -0.116692334 -0.13069351 -0.035571735
7.26771e-40 -0.25310475 -0.14344423 -0.636176 -0.07331984 0.3925711 0.16958094 0.13538253
0.11676815 -0.23805816 -0.21078877 -0.000277229 -0.2594893 -0.05833839 -0.09917621 -0.06428345
0.020784466 0.0694205 0.10405957 1.545065e-39 -0.07244801 -0.33714655 -0.03672786 -0.1356252
0.025197554 -6.6089246e-15 0.10119752 -0.46234423 0.016958524 -0.49914685 0.17753606 0.019397356
2.87437e-40 0.2892192 0.21569324 0.29377544 -0.7175511 0.10267008 -0.1847563 -0.1747858
0.22542119 0.05586243 -0.51769793 1.40564e-40 0.23852183 -0.16369969 0.19359972 -0.2986436
0.053921927 -0.25226313 0.2802788 1.737121e-39 0.09462716 -1.2323582 -0.06502172 -0.003215143
-0.09118566 -0.0010848511 0.09308376 0.08794053 -0.3095925 0.046923548 0.1482592 -0.40536004
-1.956358e-39 0.18327789 0.055033356 0.05825892 0.008053834 -0.030830642 -0.24881363 -0.28082746
0.027995208 0.11512185 0.26877227 3.20155e-40 0.17823969 -0.18937416 -0.047259342 -0.38117507
0.018015942 -0.0030176959 0.0748871 -2.932623e-39 -0.2927887 1.7192715 0.0821855 0.12157607
00000000: 22f5 bfbd 7cbd d239 bef7 0b3e 86af a63d
00000010: 6949 553e d977 953e 12d2 78be 5d25 ba3d
00000020: 7454 8501 6a33 4f3e 545a 46be ba0c e03d
00000030: f328 4b3e da67 d13e b696 583e 1dfd f1bc
00000040: c802 183e 5919 b2be fa12 fcbe 1a6d 6a39
00000050: d6b7 153f 7bb7 543e 28a7 783e b96a 393e
00000060: 7fc3 bd3e 1c4d 2b3e acb2 c93e 14ec 0580
00000070: 538e 3fc0 aaf4 a6bf 34fc 84be d1ba 2c3e
00000080: 766d 9ab3 0d20 0e80 1c01 19af 0494 57ba
00000090: 5eb3 91ba ce2e 8cbb 2fb4 31b9 4b47 2ebb
000000a0: c955 1800 9937 72b2 2621 98b8 0db6 42ac
000000b0: 8895 b0b9 5bbe 72b3 0572 49b7 0594 46b9
000000c0: 5ae5 88ba 3d26 bfb9 9cdc 81b7 52c6 0e00
000000d0: 5bf8 c1ab 4d60 37b8 4947 ddb9 de91 60ba
000000e0: dc50 1bb9 559f 6bba 622b fdb4 6d70 0280
000000f0: d92d d9b7 66b4 1100 c3eb 8db6 23be 22bb
00000100: 8305 94bf fa02 451c 7a44 883d a155 debd
00000110: 3b21 32bd ac57 783e 0a7c 463d 1cb5 a63a
00000120: 38d7 1a80 ac04 1cbe 6e2b d63c bbc5 0d3e
00000130: 2093 7ebd dc72 d6be 9910 28be 440e 33bd
00000140: 189e 0e3e 9e58 ac3c 1146 603d 8477 1900
00000150: 05d0 8bbd 549d 0dbd b262 803e e2a2 15bd
00000160: a9fb d9bd 5f6d f33c 53ab 81bd c7a6 2600
00000170: 845b 4fbd 5a13 2680 1e50 6e3e 265d 9d3d
00000180: e58d 52b5 e85d 2300 6407 61b7 e4a7 1f00
00000190: 5603 0200 ae2c 36b6 4634 d2b8 7aa5 1200
000001a0: 2c26 2081 286e 8693 2fe6 d1b6 42fd 0a80
000001b0: 67ba d1a9 fa1c 1a80 9c1e 6732 0291 1500
000001c0: ff0b a8bb a8e0 8d38 2297 26ba 0a13 0c80
000001d0: a9f5 1380 d5ed 0600 1c56 3136 8c7e 0c00
000001e0: 1c58 4c3b 40cb 87b9 39af 0700 957b 1a00
000001f0: 11d6 2131 813b 0b00 72a8 7d9e ad8c e43b
00000200: ef6a 823e 7b0e 87b5 2245 1c3e 5aaa 7bb7
00000210: c68d 02bf f11e 06be 8ffc 3e3e ca02 1cbe
00000220: 5f64 0180 c01d af3e a197 aebd ead9 c93e
00000230: d32d 593c 6722 afbd 83a4 0fbf cdaf e5be
00000240: c9d4 003d 2ef4 863c 58b5 af3d e5c8 0080
00000250: 5a84 db3d fe96 f2be f0af 66bd 32eb b9be
00000260: 74f8 7f3c f1bb 253e c01e 4e3e 174c 2100
00000270: e7d3 cbbd 453a 0400 4274 a33d c712 fe3d
00000280: 1692 993e 54a5 0c80 b036 9cbe 79e0 88bd
00000290: d423 39bd 64fc eebd 85d4 05be abb3 11bd
000002a0: f1e9 0700 f296 81be 0be3 12be 6edc 22bf
000002b0: b628 96bd 14ff c83e a0a6 2d3e b8a1 0a3e
000002c0: 2424 ef3d 85c5 73be 03d9 57be 0c59 91b9
000002d0: c8db 84be 3cf4 6ebd e61c cbbd 0ba7 83bd
000002e0: 2f44 aa3c 562c 8e3d 2f1d d53d 03d3 1000
000002f0: 9f5f 94bd 799e acbe f46f 16bd 55e1 0abe
00000300: 1a6b ce3c 921c eea7 a540 cf3d 62b8 ecbe
00000310: 9aec 8a3c 2d90 ffbe 03cc 353e 34e7 9e3c
00000320: 4221 0300 8a14 943e b0de 5c3e bc69 963e
00000330: 6eb1 37bf b144 d23d c130 3dbe 0cfb 32be
00000340: d0d4 663e 01d0 643d da87 04bf d687 0100
00000350: 113f 743e e4a0 27be 013f 463e d0e7 98be
00000360: 3ddd 5c3d a228 81be b480 8f3e 63ea 1200
00000370: e2cb c13d eabd 9dbf 1c2a 85bd 26b5 52bb
00000380: 8cbf babd 9031 8eba b3a2 be3d 2a1a b43d
00000390: e882 9ebe e832 403d 42d1 173e 5a8b cfbe
000003a0: 884d 1580 33ad 3b3e a86a 613d e8a0 6e3d
000003b0: 3af4 033c 8b90 fcbc 00c9 7ebe 9ec8 8fbe
000003c0: 3556 e53c 01c5 eb3d 859c 893e 767c 0300
000003d0: 7784 363e 4deb 41be 0393 41bd 6129 c3be
000003e0: 2b96 933c 89c4 45bb 685e 993d f6ee 1f80
000003f0: 67e8 95be 1711 dc3f df50 a83d e0fc f83d

bias f4 [64]
0.34599876 -0.0016602093 -0.070776135 -0.010451696 -0.012771682 0.37885448 0.24284056 0.028778933
-0.04175838 0.24478383 0.17908275 -0.0069841873 0.09504042 0.12214168 -0.013054662 0.33276117
0.28118518 0.27926555 0.21976851 -0.48210716 0.13558486 -0.04924763 -0.00013807575 0.3488191
-0.02056625 -2.8168418e-21 0.44701964 0.009649324 0.2352266 0.095136344 0.2647147 0.2661976
0.26997763 0.37209466 0.14868905 0.22465336 0.24538834 0.31329367 0.2590824 0.32443002
0.022781791 0.34143046 -0.017614577 -0.0003890229 0.18467273 -0.017279757 0.4417887 -0.33245322
0.074517384 0.06842554 0.011881234 0.10342132 0.04859298 -0.22589564 0.31108844 0.15927896
0.1943052 0.26116154 -3.1492202e-17 0.07279465 0.22676817 -1.8681693e-15 0.1491515 -0.018564537
00000000: c026 b13e 619b d9ba 14f3 90bd 973d 2bbc
00000010: 5140 51bc 37f9 c13e 32ab 783e ccc1 eb3c
00000020: d60a 2bbd 9da8 7a3e 7861 373e 9cdb e4bb
00000030: 8da4 c23d 6b25 fa3d 39e3 55bc ac5f aa3e
00000040: 81f7 8f3e e5fb 8e3e ff0a 613e c0d6 f6be
00000050: c2d6 0a3e e2b7 49bd 6dc8 10b9 6b98 b23e
00000060: 8d7a a8bc a5d5 549d c2df e43e 3318 1e3c
00000070: 3edf 703e d8d6 c23d af88 873e 0d4b 883e
00000080: 823a 8a3e 3183 be3e f141 183e 880b 663e
00000090: 1547 7b3e 0768 a03e 73a6 843e b11b a63e
000000a0: e1a0 ba3c f9cf ae3e 724c 90bc c5f5 cbb9
000000b0: d91a 3d3e 478e 8dbc 2132 e23e 4f37 aabe
000000c0: 929c 983d b122 8c3d 82a9 423c 8fce d33d
000000d0: 6f09 473d 3051 67be fc46 9f3e 061a 233e
000000e0: f1f7 463e f7b6 853e 6e3b 11a4 5d15 953d
000000f0: ea35 683e a49d 06a7 2cbb 183e a814 98bc
