model/202.254403591156006.pt (torch_old, 168315 bytes, 19 tensors)

weight f4 [256, 2]
000000 1d d0 04 bf 21 52 f3 be 64 9a 73 3e d4 46 cc bd
       -0.51880056 -0.47523597 0.23789364 -0.09974447
000010 7f 6e 31 3f 85 cd ab be 5d 17 37 3f 39 d4 92 be
       0.6930923 -0.33555236 0.71520025 -0.28677538
000020 f5 a7 4f 3e 72 92 7f be 68 d3 b4 be cd b6 00 3f
       0.20278914 -0.24958208 -0.3531754 0.5027893
000030 68 6b 12 3f 31 22 e5 3e 4e 63 42 bd 00 26 02 3e
       0.5719514 0.44752648 -0.047457986 0.12709808
000040 17 24 bb 3b 07 36 b0 3c fe 90 66 3e a5 23 10 3f
       0.0057110894 0.021510137 0.22516248 0.5630439
000050 85 e6 8d 3e 93 38 b9 3e ed 8d 25 3e ec 7f 02 3f
       0.27714935 0.36175975 0.16167422 0.50976443
000060 ae c9 bf be 08 8b 09 3f 3c ea f0 be 5d 23 d7 be
       -0.37458557 0.5372777 -0.47053707 -0.42019168
000070 db c5 d7 3e c8 80 f7 be fc 56 3b 3f e9 fe e3 be
       0.4214314 -0.4834044 0.731796 -0.4453042
000080 46 a4 c2 3e 87 7b f4 3e b2 96 de 3e 2d d9 e7 be
       0.38015956 0.47750494 0.43474346 -0.4528288
000090 67 00 d9 be dd 79 dc bd 23 40 bd 3e 0d b7 dc 3e
       -0.4238312 -0.10765431 0.36962995 0.43108407
0000a0 be 72 67 be b5 33 2d 3f f5 b0 44 be f8 4b 91 be
       -0.22602364 0.67657024 -0.19208129 -0.28378272
0000b0 8e 8a e4 bc fa 74 0a 3f bc a5 25 bf ab 84 1a 3f
       -0.0278981 0.5408474 -0.64706016 0.60358685
0000c0 de 81 64 be b3 15 01 bf 14 8b b6 3e 17 95 e3 bd
       -0.22315165 -0.50423735 0.35652983 -0.11112421
0000d0 62 7a 06 be 5e 26 3e 3e 6e 12 0d 3f 6a 04 5a be
       -0.13132623 0.18569323 0.55106246 -0.21290746
0000e0 4a 3e d2 3c 12 fa a6 3e 71 26 81 3e dc 86 12 be
       0.025664467 0.32612664 0.2522464 -0.14309257
0000f0 35 08 3d 3f 6e 6f 92 be 5e 8c e9 3e c3 db 18 3f
       0.7384065 -0.2860064 0.45614904 0.5971033
000100 0b f5 93 be 98 c8 f5 3e 1b f0 e4 3e 69 da f4 3e
       -0.2889789 0.48004603 0.44714436 0.47822884
000110 87 2e 05 3f 8b c2 ae be 08 2c ab 3e bd 8a 61 be
       0.5202412 -0.341328 0.3343203 -0.2202558
000120 27 94 16 bd ee 9b 28 3f 04 36 97 be fd de a8 3e
       -0.036762383 0.6586293 -0.29533398 0.32982627
000130 8a 66 49 3e 0c 99 90 3d 17 2c d0 3e 46 31 83 be
       0.19668022 0.070604414 0.40658638 -0.2562353
000140 09 3f 5d be a9 00 35 3f 11 41 23 bf 3f d7 54 3d
       -0.21606077 0.7070413 -0.6377116 0.051963087
000150 e1 5a 99 3e d7 4b c4 be f7 9b 5e 3c 41 f8 c7 3c
       0.29952148 -0.3833911 0.01358699 0.024410369
000160 ba 04 0c 3f 77 eb 92 3e f1 fc 7e 3e 83 2e 03 be
       0.5469471 0.2869527 0.24901177 -0.12810712
000170 59 8f a7 be 48 bb f9 3e 9c ef 3a 3f 1f 56 90 bc
       -0.32726553 0.48775697 0.73021865 -0.01761919
000180 89 c9 d3 bd 9c 82 16 3f 89 bb 98 3e 09 0c 2d 3e
       -0.10341174 0.58793044 0.29830578 0.16899122
000190 39 d5 8e 3e 2a 1f af be ff 41 26 3d bc 91 88 3d
       0.2789705 -0.34203464 0.040590283 0.066684216
0001a0 2a c8 56 be 0d da da be a1 3d 99 3e 7b 7e 04 be
       -0.20974794 -0.42744485 0.29929832 -0.12938873
0001b0 6c c6 3b 3f fb c7 37 bf cc 3a 2c 3e ac d2 2e 3d
       0.7334964 -0.7178952 0.16819304 0.04268138
0001c0 88 72 e2 3e 13 93 01 3d c5 a8 25 be 4b 05 4e 3e
       0.44228005 0.0316344 -0.16177662 0.20119207
0001d0 39 c3 6b 3d 6a 45 02 bf e3 d1 93 be 73 d1 29 bf
       0.057559226 -0.5088717 -0.28871068 -0.6633522
0001e0 9e 71 aa bd c0 e0 ec 3d 61 26 26 bf 36 af d0 be
       -0.08322452 0.11566305 -0.6490231 -0.40758675
0001f0 a0 3d eb 3e 36 2a 0d bf 13 e2 44 bf be b9 0b 3e
       0.45945454 -0.55142534 -0.7690746 0.13645074
000200 e8 b0 3e bd 34 82 ca 3e b6 46 28 bf 71 2b 8e be
       -0.04655543 0.39552462 -0.65732896 -0.27767518
000210 e0 2c 1d 3f 91 63 06 3f 42 11 0b 3f b1 af ed bb
       0.613966 0.52495676 0.5432321 -0.00725361
000220 25 22 ca 3e f1 da 30 3e ba c0 18 be 79 e2 6b 3e
       0.39479175 0.1727102 -0.1491727 0.23035611
000230 06 ce 3d 3f 00 74 31 bf 0a 48 c7 3e c2 b6 de be
       0.7414249 -0.69317627 0.3892215 -0.43498808
000240 84 15 2d 3f 5d af e8 be 9a d9 4a bf f8 7d 32 be
       0.67610955 -0.45446292 -0.79238284 -0.17430866
000250 4d df e4 3e 3a fc 15 3f f3 18 05 bc e3 19 1a 3f
       0.44701615 0.5858799 -0.008123624 0.6019575
000260 34 3c 4a 3e b6 33 4b be fd c9 4a be 8c fc 0c 3f
       0.19749528 -0.19843945 -0.19803615 0.55072856
000270 7a d7 af 3e 73 8c 82 bc c7 c1 c4 be 0f ea 9a 3e
       0.34344083 -0.015936112 -0.3842909 0.30256698
000280 1c 8f 01 3f 17 26 5c 3e a9 1f db bc 60 46 44 3e
       0.5060899 0.21498905 -0.026748495 0.19167471
000290 f3 f3 09 bf 13 8d 0f bf dc d0 37 3f 51 a7 21 bf
       -0.5388786 -0.5607464 0.7180307 -0.6314593
0002a0 dc a4 2d 3f ea 69 d5 be 51 2f aa 3e fa e5 36 be
       0.6782968 -0.4168237 0.33239225 -0.17861167
0002b0 6d 32 38 bf f7 fe 28 3f a7 da ac be d6 76 f8 3e
       -0.71951944 0.66014045 -0.33760568 0.48528165
0002c0 19 c9 6b be 8b e2 e9 3e 86 10 32 bf 8d 02 dd 3d
       -0.23025931 0.4568065 -0.6955646 0.10791502
0002d0 85 a4 fa 3e 63 ff f3 3e a0 ba f1 3e 7a 5d e6 be
       0.48953643 0.47655782 0.47212696 -0.44993192
0002e0 0b cd ba be e1 fe b7 3e 55 c7 93 be c1 7c ab be
       -0.3648456 0.35936645 -0.28863016 -0.33493617
0002f0 85 6b 19 3e a0 9a fd be 7d 77 fa 3e e4 be 48 be
       0.14982422 -0.49532032 0.48919287 -0.19604069
000300 51 3b 46 3e 8d e5 98 be 36 0f a1 be 54 30 cd 3e
       0.19358565 -0.29862633 -0.31456918 0.40075934
000310 69 93 31 3f 3a 6f 38 3e 5f b9 94 be 97 c0 c3 be
       0.69365555 0.1801118 -0.29047677 -0.38232872
000320 50 fe 10 bc 33 df 80 3e 61 f8 8c 3d 8a e6 b2 be
       -0.008849695 0.25170287 0.06883312 -0.34941512
000330 ef cd 44 3e be 56 dc 3e ee 13 0d 3f da 1b 00 3f
       0.19219182 0.4303493 0.55108535 0.500425
000340 d6 0f 27 3f f8 ab 85 be a6 30 d9 be 2f 1c b9 3d
       0.6525854 -0.26107764 -0.42419928 0.09038579
000350 52 e1 d7 be ef 09 a0 3e c3 bd cf 3e 34 c2 ce be
       -0.42164093 0.3125758 0.40574464 -0.4038254
000360 fa 80 6b 3e db 52 0f bf 8b dc 19 3f 12 fb a7 3e
       0.2299842 -0.559858 0.60102147 0.3280874
000370 86 db 05 3f f1 49 c2 3e 77 95 fa be db 7e ac 3e
       0.5228809 0.37947038 -0.48942158 0.33690533
000380 0e d4 fe be 43 1b e7 3e 86 b8 c0 3e a6 d2 e2 be
       -0.4977116 0.45137987 0.3764078 -0.44301337
000390 45 60 92 3e 59 58 9d be b0 c7 db 3d dc fe 03 3f
       0.28589073 -0.30731466 0.10731447 0.5156076
0003a0 11 57 86 3e b2 6a 68 be 68 70 b4 be 92 69 00 3f
       0.262383 -0.22696951 -0.3524201 0.5016109
0003b0 bc 73 fd be 29 17 c6 3e d4 1c de 3c 52 18 0d bf
       -0.4950236 0.38689545 0.027113356 -0.55115235
0003c0 3f 61 b8 3e 60 ff b3 be 01 ad b1 bd e1 e2 14 bf
       0.36011693 -0.35155773 -0.08675576 -0.5815869
0003d0 1d 72 4a bd 7c 7f 20 bf 10 e3 d8 be c4 36 79 be
       -0.049425233 -0.62694526 -0.42360735 -0.24337298
0003e0 11 38 19 3f f0 eb 12 bf f1 57 34 3e 8e 88 f9 bd
       0.59851176 -0.5739126 0.17611672 -0.12184249
0003f0 33 04 25 bf 74 9b cd 3e 3f 80 1f bf cf 14 a2 3e
       -0.6445953 0.40157664 -0.62305063 0.316565

bias f4 [256]
000000 9a 16 36 bf c7 df 28 3d 0e cf 09 3e 8c 85 61 3f
       -0.7112824 0.041229036 0.13457891 0.880944
000010 08 4d e1 3e 0f d3 b3 3e dc d0 1e 3f b4 fc d8 be
       0.44004083 0.35121962 0.62037444 -0.42380297
000020 50 46 51 bf 12 c9 88 3e 75 2b bd be 28 9d 32 bf
       -0.81747913 0.26715904 -0.36947218 -0.6977105
000030 49 d5 6b 3e 49 59 19 3f 9f be 4e 3f 5a 01 1f 3f
       0.2303058 0.59901863 0.80759615 0.6211144
000040 31 aa f8 3c 88 52 a4 3e 46 f1 ae 3e 6d aa 2c 3f
       0.030354591 0.32094216 0.34168452 0.6744755
000050 ad fb cd be 6a 2e 34 3f 60 b3 38 bf 04 57 e8 3c
       -0.40231076 0.7038332 -0.72148705 0.028361805
000060 07 37 10 3f 52 76 50 3f ef 0a f4 be 33 68 02 3f
       0.56333965 0.8143054 -0.47664592 0.50940245
000070 c8 17 51 be 96 b1 85 be e3 d0 01 be ba 36 1b 3f
       -0.20419228 -0.2611205 -0.1267734 0.6063038
000080 16 26 b3 be e0 d9 ad be 00 87 17 3e 04 f1 32 3e
       -0.34989995 -0.33955288 0.14797592 0.17474753
000090 7d 36 2e bf d8 1d 30 bf 7e 86 0c bf 59 0f 6b 3e
       -0.6805189 -0.6879554 -0.5489272 0.22955073
0000a0 7f 06 b7 3e 4e 9a 06 3f 31 60 24 3f 1c b6 4f 3f
       0.35747144 0.525792 0.64209276 0.8113725
0000b0 c8 e1 41 3e a4 39 58 be 84 f5 3d be 4c 52 18 3f
       0.18933785 -0.21115738 -0.18550688 0.59500575
0000c0 8b 22 6c 3e fa ab ec be 9c ce fa 3e 4b fa 30 bd
       0.23060052 -0.46224958 0.48985755 -0.043207448
0000d0 4b 2f e4 3e d2 b4 01 bf fb 17 05 3e 9b 4f 60 3f
       0.44567332 -0.50666535 0.12997429 0.8762147
0000e0 72 8c 55 3f 03 f7 cf be 2e f1 ea 3d 52 55 68 bf
       0.8341743 -0.40618142 0.114717826 -0.9075519
0000f0 9c 8d 3d be 21 69 fe be f5 54 42 3f 68 55 10 be
       -0.18511051 -0.49689582 0.75910884 -0.1409508
000100 f5 76 e8 be 3e cf 84 be fe 71 1d bf 50 63 97 be
       -0.45403257 -0.25939363 -0.61502063 -0.29567957
000110 5a db 92 3e f7 fd 44 bf 75 72 22 3e c1 62 e8 3e
       0.28682977 -0.7695002 0.15863974 0.45387843
000120 ce ca 22 3f db b1 fc 3e 9a c5 51 3e 34 0a 09 bf
       0.63590705 0.49354443 0.20485535 -0.53531194
000130 cd 95 1a 3e a2 7d 13 bf b5 44 b4 bd 17 20 6e 3d
       0.15096207 -0.57613575 -0.08802167 0.058136072
000140 94 d3 22 bf 7d 05 16 bf f4 1d 3a bd 5c 9b 39 be
       -0.6360409 -0.58602124 -0.04543872 -0.18125671
000150 9b e1 e7 3e 6e 6e f9 be 97 7d 53 bf 2b 8d 7a 3e
       0.4528931 -0.48717064 -0.8261351 0.24467914
000160 61 50 e0 3e c6 ca 76 3c 91 85 45 3f 96 fb 44 be
       0.43811324 0.015062993 0.7715693 -0.19236597
000170 c8 b5 13 bf db b1 c2 3b 77 d6 b6 be 65 c6 15 3f
       -0.5769925 0.005941612 -0.357105 0.5850585
000180 bd bb 37 be 11 1a 80 3e dd 28 22 3e 30 e9 7c 3b
       -0.1794271 0.25019887 0.158359 0.003859114
000190 bb d0 0b be 57 16 27 bf 25 a3 01 3f 4d f9 d8 be
       -0.13653843 -0.6526846 0.50639564 -0.423777
0001a0 f9 cc 45 3f 83 8b 58 be 47 0d 5a 3e 37 c1 c1 3b
       0.7726589 -0.2114697 0.21294127 0.0059129256
0001b0 93 2c 5a bd d2 9b 00 3d c2 2e 17 bf 38 4f 01 3f
       -0.053265166 0.0313986 -0.5905572 0.50511503
0001c0 53 5d c7 bd 25 8e 31 3f 20 e9 21 3e f7 cd 82 3e
       -0.09734597 0.6935752 0.15811586 0.25547764
0001d0 53 e0 8d bd 87 9f 7a 3e 36 d0 95 3e e8 6e 0d bf
       -0.06927552 0.24474917 0.29260415 -0.55247355
0001e0 8d 35 0e 3d fb f4 43 be eb 03 63 bf 20 9c 58 be
       0.03471904 -0.19136421 -0.88677853 -0.21153307
0001f0 88 c3 9b be 42 46 22 bf a3 b6 a7 3e aa 9d 10 bf
       -0.30422616 -0.63388455 0.32756528 -0.56490576
000200 4a 0d 62 3e 5f 34 d1 be db c3 79 be f6 0d 8a be
       0.22075382 -0.40860268 -0.24391119 -0.26963776
000210 3e 2e 29 3f 38 87 16 bf 74 08 57 3f 53 8f e6 3e
       0.66086185 -0.5880008 0.83997273 0.45031223
000220 e4 f8 1f 3f b8 76 fc bc 41 cb e7 3e a5 74 a3 3e
       0.6248915 -0.030818328 0.45272258 0.3192493
000230 db cc 69 3d 6b 43 e1 3e cb 4a 98 be 51 14 73 3f
       0.05708013 0.43996748 -0.29744563 0.94952875
000240 a9 ab 3f bf a2 dd 13 3e af d8 1c 3f b8 51 c1 3d
       -0.7487131 0.14440015 0.6126813 0.09439415
000250 da c5 4b bc 95 cd 18 3f 0a f4 c5 3e 9b ec 03 bf
       -0.012437308 0.59688693 0.3866275 -0.51532906
000260 80 53 b9 bc de 67 e5 be 3c 9a aa bd 4a fd 06 3f
       -0.022622824 -0.44805807 -0.08330199 0.5273024
000270 e8 88 94 be e4 81 12 be d6 58 0a 3f 2b aa ff 3e
       -0.290107 -0.14307362 0.540418 0.49934515
000280 73 50 7e be 49 f0 ca be 3c 03 20 bd d1 37 e7 3d
       -0.24835376 -0.39636448 -0.039065585 0.11289943
000290 19 e0 23 3f ac 6a 1b 3f 18 a7 96 be 77 35 dd 3e
       0.6401382 0.60709643 -0.29424357 0.43204853
0002a0 f6 40 0f 3e b6 cc 7e bf fa b9 7a 3f 9c c8 97 3d
       0.13989624 -0.99531114 0.9794003 0.0741131
0002b0 16 9f 05 3f a6 23 27 3f 57 a4 35 bf 55 2d 0f be
       0.5219587 0.6528877 -0.7095389 -0.13982137
0002c0 61 4e 00 3f 01 11 27 be d0 95 23 bf 88 a8 d0 3e
       0.50119597 -0.1631508 -0.6390047 0.4075358
0002d0 36 04 71 bd 61 61 9a be b5 66 ea be ac e7 54 3f
       -0.058841906 -0.3015242 -0.45781484 0.83166003
0002e0 b3 85 05 be 55 55 12 3f 64 a7 1c bf 4a 11 b7 be
       -0.13039283 0.57161456 -0.6119292 -0.35755378
0002f0 2a bd 89 be 0e cb 36 bf 0d 2b 47 bf 16 8b ea 3c
       -0.26902133 -0.71403587 -0.77800065 0.028630774
000300 bd dd 2a bd 7f 1b 07 3f 0e 07 b5 be 39 fb f6 bc
       -0.041715372 0.5277633 -0.35356945 -0.03014909
000310 d6 77 23 3f 22 41 68 3f 32 9b bc be f7 9f 05 3f
       0.6385473 0.90724385 -0.36837155 0.5219721
000320 88 92 63 bf 03 e5 1b 3f 82 f1 c3 3e 20 07 a7 be
       -0.88895464 0.6089632 0.38270193 -0.32622623
000330 44 c6 3e 3c 69 d9 1a 3f 66 03 0a bf 37 08 d5 3d
       0.01164395 0.6048799 -0.53911436 0.104019575
000340 cc 26 10 bf 7c ef 6c 3f 54 7a 73 be 8d f1 89 be
       -0.563092 0.92552924 -0.23777133 -0.269421
000350 e5 ff 47 3e 53 fe 36 bf de 39 2e bf c2 13 1e be
       0.1953121 -0.7148182 -0.6805705 -0.15437225
000360 51 11 05 3f 9e 36 2b 3f 3c 47 15 3e ec bd cf 3e
       0.5197955 0.66880214 0.14577955 0.40574586
000370 a5 5d c7 be a8 44 b5 be 87 b3 13 3f 12 b5 9c be
       -0.38938633 -0.35403943 0.5769581 -0.30606896
000380 76 5f 2a bf b2 5e fb bd 94 99 bd 3d 75 ec 41 bf
       -0.6655191 -0.12273921 0.09257808 -0.7575143
000390 60 b3 d1 3e 1c 1a 46 3e 00 db 11 3f 73 f6 7e be
       0.40957165 0.19345897 0.5697479 -0.248987
0003a0 4a 24 3c 3f df c8 0e 3f e8 5f 6c be 3e a8 43 3f
       0.7349287 0.55775255 -0.2308346 0.7642859
0003b0 a2 21 2e be 86 24 a6 be ec b1 d7 be aa af f9 3d
       -0.17005017 -0.3244974 -0.4212793 0.121917084
0003c0 5c a1 bc 3e 3c 79 77 be 48 3b 53 3f 6c db 82 3e
       0.36841857 -0.24167341 0.8251233 0.2555803
0003d0 27 8a 89 be bf 1b 07 3f 96 dc d2 bd 75 d9 62 bf
       -0.26863214 0.5277671 -0.1029598 -0.88613063
0003e0 ca 82 66 be ca aa 09 bf 7a c9 e6 be 49 00 dd be
       -0.2251083 -0.5377623 -0.4507559 -0.4316428
0003f0 a8 26 db be 90 21 1e 3f aa 2e e4 be 81 95 da be
       -0.4280293 0.6176996 -0.44566852 -0.42692187

weight f4 [64, 256]
000000 7e c0 81 bc f7 66 7e 3d 26 51 9d 3d 48 81 c8 3d
       -0.015838858 0.062109914 0.076814935 0.097902834
000010 ee 11 f4 3d 1b 00 d5 bd 07 b3 1a bd 26 03 19 3b
       0.11917482 -0.10400411 -0.03776839 0.0023347824
000020 8f d8 53 bd bd 30 89 3c fe 30 6b 3a 2d f7 bc 3b
       -0.0517202 0.016746873 0.0008971839 0.0057667703
000030 99 e8 45 bd 11 c6 a0 3c cd 1c 74 3c 44 8e 94 3d
       -0.048317526 0.019625695 0.014899445 0.072536975
000040 8a 55 1e 3d 03 33 08 3d 9c 27 ec 3c 3b bc 35 bb
       0.038655795 0.033251774 0.028827481 -0.0027730602
000050 36 4f bc bd d9 35 4d 3c 49 b5 61 bd f6 5e dc bd
       -0.09194796 0.012525045 -0.055104528 -0.107603
000060 54 fb 8f 3d 35 ff fb 3d 09 0c 96 bd 0b c5 da 3d
       0.07030359 0.12304536 -0.07326514 0.10682114
000070 9a d6 25 bd 8c fb 15 3c ba 57 27 3d a0 ba f5 38
       -0.040487863 0.009154212 0.040855147 0.00011717272
000080 18 0e 9b bd 53 f4 3d bd 66 14 de 3d 42 44 02 3e
       -0.075710475 -0.046375584 0.108437344 0.12721351
000090 48 c1 7a bd 3f 7f 1a be 7c 18 44 bd 52 b4 a2 3c
       -0.061219484 -0.15087603 -0.047874913 0.019861374
0000a0 bd bc 8f bc 2b ad dd bd d1 74 d8 3d 47 b1 31 3c
       -0.017546052 -0.10824045 0.10569156 0.010845489
0000b0 af 92 84 3d af 9c d5 3d e8 d6 b1 bd f2 8b b7 3d
       0.0647329 0.10430276 -0.08683568 0.08962239
0000c0 07 d4 95 bd 90 e8 d8 bc 1f 50 b0 3d 1b 9c 37 bd
       -0.07315832 -0.026478082 0.08609032 -0.04482661
0000d0 36 d2 93 3d 73 b3 3c 3d ac 41 9c 3d ae 97 81 3d
       0.07217829 0.046069574 0.076297134 0.06327759
0000e0 60 73 2b 3d f3 ba 02 be a8 14 11 3d 4f 4b bc bc
       0.041858077 -0.12766628 0.03542009 -0.022985129
0000f0 aa 9a 4d bd 96 78 5b 3d 08 ed da 3c 8d ef 0a be
       -0.050196327 0.053581797 0.026724353 -0.13567944
000100 6d 8a 6c bd cb 09 bf 3c 1d 82 a3 3b 60 b5 c5 3c
       -0.0577492 0.0233201 0.004989876 0.024134338
000110 b6 1d 87 3d fd b4 10 be ce ad d2 3d 61 0b c1 3d
       0.06597464 -0.14131542 0.10287057 0.094259985
000120 5c 14 b7 3d ad ef ed 3c 24 5d 6e bc ce 60 a1 bd
       0.0893943 0.02904495 -0.014548574 -0.07879792
000130 42 f7 ca 3d aa 84 1e bd 91 f2 0d 3d d3 5b ee bd
       0.09910442 -0.038700737 0.034655157 -0.11638608
000140 51 79 68 bc 0f be d0 bd 70 96 81 bc e2 9c 5a 3a
       -0.01418908 -0.10192501 -0.015818805 0.00083394174
000150 64 b6 c6 3d 6c 86 8b 3c 17 39 de bd d0 eb 05 be
       0.09702757 0.01703187 -0.10850733 -0.13078237
000160 f9 78 26 bd fa ef bb bd 59 26 b4 3c 6a 34 60 3d
       -0.040642712 -0.09176631 0.021990942 0.054737486
000170 71 fc dd bd ac f0 b8 bc 67 b1 a4 3c b0 0f 1c 3e
       -0.10839165 -0.022575699 0.020104123 0.1524036
000180 18 91 8a 3d d1 b0 88 bd 8c a5 3d 3d 6d f0 5b 3d
       0.06765956 -0.0667435 0.046300456 0.053696085
000190 6a 93 88 bd 61 20 59 bd 72 b7 4a bd 7e 44 00 3d
       -0.06668742 -0.053009395 -0.049491353 0.03131532
0001a0 76 8e a9 3d 3d 7c 08 be b2 5a 1b be ef 3e 40 3d
       0.082791254 -0.13328643 -0.15171316 0.04693502
0001b0 b1 73 74 bc 92 30 80 bc f3 15 62 3d c1 df 04 be
       -0.014920161 -0.01564816 0.055196714 -0.1297598
0001c0 5b ba f4 bd 4f ff 0b 3e b9 cf 67 3c c8 cb ad bb
       -0.11949607 0.13671611 0.014148646 -0.0053038336
0001d0 d5 24 b4 3d d4 12 33 bd 1e 73 1e be 7a f8 d4 3c
       0.08796088 -0.043719128 -0.15473601 0.02599739
0001e0 bc f5 b5 3d 12 5b 80 bb 4a 93 70 bd e9 9b 0c 3d
       0.08884761 -0.0039171064 -0.058734216 0.034328375
0001f0 63 6b 90 3d a2 20 07 be 9d 34 2a be 00 83 0b be
       0.070517324 -0.13196042 -0.16621633 -0.13624191
000200 85 64 c3 3d 90 73 73 bd 90 91 37 3d 1d 1d 09 be
       0.09540657 -0.05943638 0.044816554 -0.13390012
000210 db 39 fd bc e8 1d f4 bd b7 b2 ee 3d 88 45 1d be
       -0.030911377 -0.11919767 0.11655181 -0.15358555
000220 50 ff 62 3d 11 bf ab 3c c9 2b d7 bd a6 44 10 bc
       0.055419266 0.020965131 -0.10506398 -0.00880543
000230 5e 2e 5b bc 62 a8 00 be 10 9e 70 bd 23 d9 82 3d
       -0.013377754 -0.12564233 -0.05874449 0.06389072
000240 24 cf c9 bd a4 ce b9 bd 5a 5e 27 3c 83 6b 95 bc
       -0.09853962 -0.09072617 0.010215366 -0.018239742
000250 a4 ea a6 bd b4 81 87 3d 85 06 9e 3d d0 e3 14 bd
       -0.08150223 0.06616536 0.07716087 -0.03635007
000260 9b 73 1b bd 04 ca 23 bd 3c 93 00 3d 71 3c 26 3e
       -0.037952047 -0.03998758 0.031390414 0.16233994
000270 d5 ae 83 3c 38 07 e6 3b 8d fa d4 3d 2c da f4 3b
       0.016074577 0.0070199035 0.10399351 0.007472297
000280 7e 57 b5 3d 91 06 88 bd a3 51 c7 3d 29 49 f8 3c
       0.088545784 -0.066418774 0.09732368 0.030308323
000290 3d dc dc bd b8 93 e1 bd c8 a3 75 bc 5a 48 6a 3d
       -0.107841946 -0.11014503 -0.014992662 0.057197906
0002a0 13 fc 32 3d 90 a5 05 be e6 52 35 3d a7 16 0b bd
       0.043697428 -0.13051438 0.04426851 -0.03395715
0002b0 c3 d8 8e bd 78 f9 11 3d d7 e3 8e bd 6f 47 de 3b
       -0.06974938 0.035638303 -0.06977051 0.006783418
0002c0 21 96 4a 3d 6e d8 6f 3c fa 7b 4e 3c c5 e1 a0 3a
       0.04945958 0.014639003 0.0126028005 0.0012274316
0002d0 3e 86 40 bd 3c c9 89 bd 48 ef 39 bd 65 e2 2e 3e
       -0.047003023 -0.067278355 -0.045394212 0.1707855
0002e0 39 43 b9 bd f0 05 5f 3d d5 95 36 be a0 3a a1 bc
       -0.09046025 0.05444902 -0.17830594 -0.019681275
0002f0 cf 03 19 3d 9f bb 03 bd 61 29 85 3d be 5d 27 3d
       0.037357148 -0.03216135 0.06502033 0.040860884
000300 17 02 5e 3d 75 12 e4 3d b3 16 0f be e5 11 4c 3d
       0.05420121 0.11136333 -0.13973503 0.049821753
000310 9c 39 21 3e 40 ed 03 3e c7 33 65 3d e0 80 c9 3c
       0.15744632 0.12883472 0.05595758 0.024597585
000320 e7 f1 86 bd 81 95 72 3d 2b 84 26 3d 20 6f a0 3c
       -0.06589108 0.05922461 0.04065339 0.019584239
000330 b9 c2 eb 3d 8c 9a cd 3d 7d 52 05 be 06 81 09 bc
       0.1151175 0.10039243 -0.13019748 -0.008392578
000340 3a c0 03 3d 29 58 8b 3d 27 f3 95 3c 15 63 e2 bd
       0.032165743 0.068039246 0.01830442 -0.11054055
000350 94 4e e4 3d 65 e4 3a bd 69 80 36 be d0 df ff bd
       0.111478 -0.04562797 -0.17822422 -0.12493861
000360 cc 3d 4b 3a 84 fb f8 3c 0f c6 df bd ac 41 89 ba
       0.0007753044 0.03039337 -0.109264486 -0.0010471842
000370 2f bc 91 bd 52 31 b4 3d 72 0a dc bb 6d d7 b3 3b
       -0.07115971 0.087984696 -0.0067151124 0.0054883272
000380 bb 94 9d bc bb 46 65 bd 58 34 57 bc 87 40 c7 3d
       -0.01923596 -0.055975657 -0.013135038 0.097291045
000390 fc ba 95 3d 2b 63 8e bd 28 a4 5e 3c a1 90 57 bd
       0.07311055 -0.069525085 0.013588943 -0.052628163
0003a0 fe 15 5e 3d d9 e2 9b bd ed d7 31 bd dc b1 0e 3e
       0.054220192 -0.07611627 -0.043418813 0.13935035
0003b0 14 43 bd bd 9f d6 8d bc d6 bb e1 bc b9 52 d3 bc
       -0.0924131 -0.017314253 -0.027555387 -0.025796281
0003c0 d9 07 9a 3d 71 f2 11 be ff f4 c3 3c 97 e9 bc bb
       0.07521028 -0.1425264 0.023920534 -0.0057651508
0003d0 7a 71 b6 3c 48 67 83 3d fc 34 70 bc 50 5e da bc
       0.022270907 0.06416184 -0.01466107 -0.0266563
0003e0 da 18 16 3d 51 61 12 bd 2e 98 1e bd ea d2 4f bd
       0.036644794 -0.03573734 -0.03871935 -0.050738253
0003f0 f1 66 2f 3d 1e 42 c7 3d b7 8e 26 3d 1c e6 b0 bd
       0.042822782 0.09729408 0.040663447 -0.0863764

bias f4 [64]
000000 a0 b9 01 3e 4f ce 13 ba 94 aa a9 be 67 18 1c 3e
       0.12668467 -0.00056383474 -0.33137953 0.15243684
000010 42 7d c3 3d 0d 58 ff 3d 5a 4c 8e 3d bb 43 56 3e
       0.095453754 0.12467966 0.06948157 0.20924275
000020 92 04 87 bc cf 2d 51 bd f5 cc 0c bd 55 e9 a0 bd
       -0.016481671 -0.051069077 -0.03437515 -0.078570046
000030 be 2f c7 3d 69 fb de 3d 09 ad 3e 3c e5 47 4b 9e
       0.09725903 0.108877964 0.0116379345 -1.0761598e-20
000040 fd 09 b8 3d 18 90 d1 be da a4 83 3e 3d 43 64 b9
       0.0898628 -0.40930247 0.2571171 -0.00021768823
000050 88 61 49 36 4c d1 79 be 8a dc cb 3c ab 74 ba bc
       3.0008105e-06 -0.24396247 0.024885435 -0.02276071
000060 a6 19 fb 3d 29 38 c3 3d 95 e7 18 bd bf b1 df bd
       0.122607514 0.09532196 -0.03733023 -0.10922574
000070 6d 2d db 3d 27 a9 2f bc 76 db 10 3e 62 52 2b 3e
       0.10702024 -0.010721481 0.14146218 0.16730645
000080 d2 0f 34 bd 9c 5f 94 3d 15 f1 20 3e 94 f7 96 3e
       -0.0439604 0.072447985 0.15716965 0.29485762
000090 99 9c 02 3e d0 91 25 bc 01 23 94 be 13 a7 a1 3c
       0.1275505 -0.010105565 -0.28932956 0.019732988
0000a0 2e 65 13 3a 82 9e f1 3d 97 ee d3 3d 0f b7 2d 3d
       0.0005622682 0.11797811 0.10348242 0.042410906
0000b0 fc bb 26 3d 21 df 3c 3d 5a c4 72 3e 8e 4a 07 bd
       0.04070662 0.04611123 0.23707715 -0.033030085
0000c0 9c 9e c7 b4 97 e2 3b 3c f8 f7 b0 b8 08 7b 19 35
       -3.7182042e-07 0.011467597 -8.438522e-05 5.7175976e-07
0000d0 b5 76 1e 3e 50 51 7c 3d e5 bf 5b bc 5e 2c c2 3d
       0.1547497 0.061600983 -0.01341245 0.094811186
0000e0 8a ab bc 3e 9c f9 10 3d 4b 47 d5 bb 52 85 8c bc
       0.36849624 0.035394296 -0.006508743 -0.017153416
0000f0 77 7f fb 3d 54 af 67 bd 7f 44 4a 3e 9e d0 9a 3e
       0.12280171 -0.05656369 0.19752692 0.30237287

weight f4 [32, 64]
000000 6c 29 bc be 23 97 a1 ba 09 38 05 3d 4b c0 27 3e
       -0.36750352 -0.0012328367 0.032524142 0.16381948
000010 0f 94 18 be 13 cf 28 be f2 6c 2a be 59 a1 ae 3c
       -0.1490023 -0.16485243 -0.16643122 0.021317171
000020 b6 f8 bc 3a f8 6a c2 bc 05 65 2d bb 56 65 a9 3b
       0.0014417383 -0.023732647 -0.0026457917 0.005169551
000030 01 57 9c 3c 92 a0 13 3e 4a 0c e1 bd 63 56 00 9e
       0.019084455 0.14416721 -0.10988672 -6.794128e-21
000040 e4 d5 62 be 6e b3 a6 bd 18 b0 f0 bc e9 d0 23 bb
       -0.22151905 -0.08139692 -0.029380843 -0.0024996346
000050 7d ab 21 29 35 07 ba bd ce 67 5d bd f6 86 1e bd
       3.5897924e-14 -0.09083406 -0.054054074 -0.038702928
000060 e2 c1 81 be d2 94 f4 3d 52 46 b2 3d 9c 20 32 3d
       -0.25343233 0.11942448 0.08704819 0.04348813
000070 59 31 45 3e f6 1c d5 be 33 9d ec bd 85 9d 9a be
       0.19257106 -0.41623658 -0.11553421 -0.30198303
000080 24 aa 00 bd 47 74 e0 3d 5f 16 4a 3d 71 4f fa 3d
       -0.03141226 0.10959678 0.04933774 0.122221835
000090 92 70 4c be 03 c1 8c bd e6 06 b8 be e7 4d b1 3d
       -0.19964817 -0.068727516 -0.35942763 0.08657437
0000a0 40 d1 94 3d 22 18 55 be 68 cf 86 be df 8f bc 3d
       0.07266474 -0.20809987 -0.26330113 0.09207129
0000b0 74 72 96 3d 0d cb 1e 3e ab 2d 57 3d 17 3f 03 bd
       0.07346049 0.15507145 0.052533787 -0.03204259
0000c0 a9 6f 43 36 1a 9b d0 3d d4 08 92 3d 62 1f 1b 1e
       2.912226e-06 0.10185833 0.0713059 8.2121215e-21
0000d0 09 37 4a be ca 09 f7 bd 96 95 bf 3a ef 90 57 3c
       -0.19747557 -0.12062414 0.0014616724 0.013157113
0000e0 04 b2 39 3e 46 f6 6a be ff 31 e8 3c b5 c1 9a 3c
       0.18134314 -0.22945508 0.028344152 0.018891195
0000f0 a1 47 87 be 02 a1 15 bd b0 27 3f bd c8 83 93 3d
       -0.26421836 -0.036530502 -0.04666871 0.0720287
000100 86 21 88 3d 28 8b ab 1c c2 9b 38 bc 79 81 e0 bc
       0.06647019 1.1351802e-21 -0.011267604 -0.027405487
000110 bf d7 f7 3d 05 bd b2 3c 86 14 f3 bb 68 40 d5 bd
       0.12101697 0.021818647 -0.007418218 -0.10412675
000120 20 70 ee bc 46 f2 9f 3c d8 7c c5 3a 8a e1 bd 3d
       -0.0291062 0.019524705 0.0015067114 0.09271534
000130 61 20 32 bd bb 3d aa bd 42 32 51 3e 6a d9 ad 9d
       -0.04348791 -0.083125554 0.20429328 -4.601752e-21
000140 f6 fb ce 3d 78 0e ca bc 36 5a 02 3c d7 1d a2 bb
       0.101066515 -0.024665102 0.007956078 -0.004947405
000150 7d ff 1b 9f 8e 0a f4 3c 78 f0 1a bc c0 72 9f 3c
       -3.3033862e-20 0.02979019 -0.009456746 0.019463897
000160 72 a7 c9 3c c3 60 0f be ea 2f 07 bd c3 b4 db 3d
       0.024615977 -0.14001755 -0.03300468 0.10727837
000170 85 b5 99 bc 97 d6 26 3e 55 cc 04 be 1f 84 be 3d
       -0.018763313 0.16292797 -0.12968571 0.09302544
000180 ef a7 16 bd 2c 63 26 3d 67 7f 92 3c 01 c8 ea 3c
       -0.036781248 0.04062192 0.017883016 0.028659822
000190 ed 79 c7 3c a3 33 6b bb b3 a1 55 3e 45 d1 3c bc
       0.02435013 -0.0035888932 0.20862465 -0.011524503
0001a0 39 a0 6f b7 1f c3 00 3e 05 7a e6 3c 43 d9 ec bd
       -1.4282815e-05 0.12574433 0.028134355 -0.11564877
0001b0 3b 69 83 bc 1b 99 d7 3d 67 e5 e6 3d 19 c7 0b 3d
       -0.016041389 0.105272494 0.11274224 0.03412542
0001c0 84 af b4 32 79 9c 8d 3c 83 d9 4a 1f f5 15 2a a0
       2.1034573e-08 0.017286526 4.2955085e-20 -1.4406825e-19
0001d0 1e e4 44 be 16 44 5f 3c 5f b1 2d bb 3c f2 0a bd
       -0.19227645 0.013627073 -0.0026503426 -0.03392242
0001e0 33 91 61 3d 16 24 12 3e cb 69 cb 3a 10 78 8a 3b
       0.055070113 0.14271578 0.00155192 0.0042257383
0001f0 fe 7b 71 3d a6 80 c0 bc 91 78 69 bb 4b ab d2 bd
       0.05895614 -0.023498844 -0.0035624842 -0.10286578
000200 80 8a 03 be b6 4c 63 a3 c5 b0 ff bc 81 b9 28 bd
       -0.12845802 -1.2321939e-17 -0.03121222 -0.041192535
000210 69 96 77 bd bd f1 aa be 43 a1 17 be bb 0a b3 3d
       -0.060446177 -0.33387557 -0.1480761 0.08742281
000220 4c 1b d4 bc df 6b 1f 3d ba 36 1d 3d 23 f4 bc 3d
       -0.025891922 0.038921233 0.03838227 0.09226253
000230 18 bc 88 bb 0e bd e5 3d 7d f0 04 be 64 a9 db 1b
       -0.004172813 0.112177 -0.12982364 3.6339977e-22
000240 09 41 2a be 16 20 27 be 97 d5 08 3e 78 b2 94 bb
       -0.16626371 -0.16320834 0.13362728 -0.0045378767
000250 6a f5 22 22 bf 17 67 3d 9e b3 9f be b1 19 45 bd
       2.2085015e-18 0.05641913 -0.31191725 -0.048120204
000260 5a 65 d3 bd 81 d2 24 3e 07 2e 5d 3d 04 50 24 3e
       -0.10322066 0.16095926 0.053998973 0.16046149
000270 49 73 32 3e f8 b1 b6 be e9 86 36 be 86 c4 cb be
       0.1742679 -0.35682654 -0.17824902 -0.39798373
000280 56 d0 cf 3c 10 95 ed 3d 88 be 1c be 6b 23 df 3d
       0.025367897 0.11600697 -0.15307057 0.10895427
000290 71 07 34 be 8b b3 f1 bd 14 01 a2 be 9d 9f f6 3d
       -0.17580964 -0.11801823 -0.31641448 0.120421626
0002a0 05 78 99 3b fe 51 35 be 01 40 59 be 59 5b b1 3c
       0.004683497 -0.17707059 -0.21215822 0.021650003
0002b0 ee 84 73 3d da a8 c1 3d a4 7c bd 3d df b7 92 bc
       0.059452944 0.09456034 0.09252289 -0.017909942
0002c0 54 61 f2 9a 4b 5f 33 3d 8e 97 87 bb 00 a1 0c bd
       -1.00246096e-22 0.04379205 -0.00413794 -0.03433323
0002d0 69 d0 4e be 3a 76 bb 3d e6 1b 96 3c 0b cb ea 3d
       -0.2019669 0.09153409 0.01832385 0.114645086
0002e0 ee 64 9f bc d1 b1 22 bd 72 61 36 3d a0 08 e3 bc
       -0.019457307 -0.03972036 0.044526525 -0.027714074
0002f0 d2 f4 44 be fd 58 01 3d d2 78 e7 bd cf 96 1d bd
       -0.19234017 0.031579006 -0.113023415 -0.0384739
000300 73 74 48 bc 0e ea 85 bb e2 14 b3 bd 32 78 47 bc
       -0.012234795 -0.0040867394 -0.087442175 -0.012174653
000310 24 ca ca 3d 3b 75 0d 3d 60 e4 6a 3c 80 35 f7 3d
       0.099018365 0.034535628 0.014336675 0.12070751
000320 0b 54 77 b9 07 a1 70 3d db 84 7f bd 3f 33 07 3d
       -0.00023587064 0.058747318 -0.06238256 0.033007856
000330 03 69 42 bd 98 74 36 3c 47 ed b4 bd 07 36 89 9c
       -0.04746343 0.011136197 -0.088343196 -9.079865e-22
000340 55 b5 c3 3d 7f f0 45 be 74 56 1a bd ce 47 fd bb
       0.09556071 -0.19330023 -0.037680104 -0.007729507
000350 4c 15 2c 9e 0c 60 6b be 5a 1d de bc c2 83 23 3d
       -9.110008e-21 -0.22985858 -0.027113605 0.039920576
000360 92 34 af 3d b3 55 af 3d 3b 9a e3 bd 3a d0 56 be
       0.08554949 0.08561268 -0.111134015 -0.2097787
000370 49 5e 4c bd 0f 16 00 3e 90 2b 22 3c 46 44 1d 3e
       -0.049894605 0.12508415 0.009898081 0.15358075
000380 f0 04 88 3d f0 bc 37 be ad 5b 57 bd a1 2d 0f be
       0.06641567 -0.17943168 -0.052577663 -0.1398225
000390 a5 74 ef 3d bd a9 04 bd e8 62 18 bd 0a 61 44 3c
       0.1169217 -0.032388438 -0.0372037 0.011986027
0003a0 d5 3b fb bc 75 5d 24 3d ac 62 3f bd ef 92 98 bd
       -0.030668179 0.04012819 -0.04672496 -0.074499
0003b0 ca 44 50 3d 3f 80 0b bc 9b f9 d6 3c 8e 6d 27 bd
       0.050846852 -0.008514463 0.026242068 -0.040875964
0003c0 ee 0e bf b6 da 2e 65 bd 2b 02 20 bb 97 c6 b1 ba
       -5.6939816e-06 -0.055952884 -0.0024415355 -0.0013563213
0003d0 40 39 a7 3d 6f 6a 45 bd 40 f5 84 b9 f8 dc e7 bd
       0.081652164 -0.048197206 -0.00025359727 -0.11321443
0003e0 17 63 03 3e 6c 33 cc bd b5 72 7d 3d 8b 67 22 3d
       0.12830769 -0.099707454 0.06187697 0.039649528
0003f0 15 d1 19 3e 83 37 a1 bd 5b ef 38 3c 90 a0 d7 bc
       0.15021165 -0.07871916 0.011287536 -0.02632168

bias f4 [32]
000000 59 8c a5 3e 93 ac c6 bd 5e 81 be 3d 3a c1 ae 3e
       0.3233364 -0.09700885 0.093020186 0.34131795
000010 f6 45 da 3c bf be 97 bb 15 93 d4 3d 38 b2 17 be
       0.026644688 -0.004630893 0.10379616 -0.14814079
000020 c7 6d 8f 3e d4 a5 5f be c9 f6 1f 3e 6e 5a 28 3e
       0.2801344 -0.21840602 0.15621485 0.16440746
000030 4a 32 58 3c dd 57 b7 3d fc a3 81 3e be 33 4c 3d
       0.013195584 0.089523055 0.25320423 0.049854033
000040 31 7b 69 3e 89 cf 17 bd 7f c9 44 3e f2 c5 b8 3c
       0.228009 -0.037063155 0.1921749 0.022555325
000050 a5 ae 66 be 3e f5 11 3d 41 2e 8f 3e 17 ff 36 bd
       -0.22527559 0.03563427 0.27964976 -0.044676866
000060 96 f9 f9 bc 2f e9 8d 3e 62 7a 48 3e 93 0f 4e 3e
       -0.03051452 0.27716967 0.19577935 0.20123129
000070 2a 6a 90 3e f9 d1 21 bd 19 2c 0c be d7 33 82 be
       0.28205997 -0.039506886 -0.13688697 -0.25430176

weight f4 [8, 32]
000000 06 e1 31 bd b3 49 12 3e 64 9b 12 3e 5f d2 39 3d
       -0.04342749 0.14285927 0.1431709 0.04536664
000010 c9 88 cf bd 88 21 e0 3c 33 99 47 3c 42 ba df 3c
       -0.101335116 0.027359739 0.012182522 0.027310494
000020 a0 5e 9d 3d 5e 9d 21 3e 7d 08 9b 3d 53 97 b3 3d
       0.07684064 0.15782687 0.075699784 0.08769097
000030 f5 db a8 bd ce 5e e1 bd 30 02 45 3c 78 eb 92 be
       -0.082450785 -0.11004411 0.012024447 -0.28695273
000040 63 99 01 bd 04 39 29 bc 9d 6c 30 be a5 2b 38 be
       -0.03164042 -0.010328535 -0.17228933 -0.17985399
000050 5c 5b 08 3e 97 d8 bf 3d 6e 5a 79 bc b0 d2 c2 3d
       0.13316101 0.09367483 -0.015219314 0.09512842
000060 67 ab 9f 3c f5 64 02 be b0 d2 bb 3d 30 c7 5c 3e
       0.01949091 -0.12733825 0.09171045 0.21560359
000070 01 4a bc 3d 3b 0d 0d 3d 38 f5 12 3e e0 b7 16 be
       0.091938026 0.034436446 0.14351356 -0.1471858
000080 1f fb 49 3d d0 b2 26 3d b3 b3 92 be c3 b4 4a be
       0.049311753 0.040697873 -0.28652725 -0.19795518
000090 9b 0d 84 bd 21 39 06 3d db 85 3c 3b d6 a1 3c 3d
       -0.064479075 0.032769326 0.0028766308 0.046052776
0000a0 cd 0e 5b be 02 64 b2 3d 23 f5 c9 3d 7a b3 7c bd
       -0.21392365 0.08710481 0.09861209 -0.0616946
0000b0 6f 53 39 3d b4 be 5f 3d 05 e4 1d 3d 03 6c e2 bc
       0.045245584 0.054625228 0.038547534 -0.027639395
0000c0 07 d9 2a 3d 77 58 c7 3c 00 a0 c1 3b 8b 00 06 be
       0.04171088 0.024334176 0.005908966 -0.13086145
0000d0 41 25 44 3e 77 c9 4f be 1a b6 3f be 7a 90 d1 bd
       0.19154836 -0.20291696 -0.1872181 -0.10232635
0000e0 cb 8a a6 b1 07 ad 56 bc ce 18 c9 bd c3 73 60 bd
       -4.847015e-09 -0.013102776 -0.09819184 -0.0547979
0000f0 3d 65 28 bb 1e 45 05 bd 69 76 23 3d ed 06 12 be
       -0.0025695108 -0.03253662 0.039907847 -0.14260454
000100 9a 4f 37 3e 06 23 6d bd 7c e4 94 bd 29 41 6c be
       0.1790146 -0.05789473 -0.072701424 -0.23071732
000110 79 0b 89 3d 2f bc 62 3d 13 f1 33 3e 4d 1c c8 3c
       0.06691641 0.055355247 0.17572431 0.024427557
000120 b3 6a 99 be 50 3e 41 3d 75 f1 03 be 22 5b f5 bd
       -0.29964218 0.047178566 -0.12885077 -0.11980273
000130 ad 01 9f bd 4c 00 51 b8 9c 07 33 3e ed 94 80 be
       -0.077639915 -4.982976e-05 0.17483371 -0.2511362
000140 1e f7 d6 be 60 21 d2 bb 60 54 93 bc 06 91 28 be
       -0.4198541 -0.00641267 -0.01798457 -0.16461572
000150 a9 87 35 be 69 c0 90 be 80 0e 66 3e bd 9f e9 bc
       -0.17727531 -0.28271797 0.22466469 -0.028518552
000160 9a 1e 78 bd b8 e7 38 be 85 7a 85 3e 52 2e ac 3c
       -0.06057606 -0.18057144 0.26070037 0.021018181
000170 88 e9 da 3d 88 bb 8a bd 9a 38 10 bd 9f b7 4d be
       0.10689074 -0.0677405 -0.03521023 -0.20089577
000180 36 94 f9 3d 57 b1 4b bd 3c e5 f0 bd 24 78 eb 3c
       0.12186472 -0.04972967 -0.11762473 0.028743811
000190 57 b1 84 bd ce 9e f4 bc e6 93 71 3d 82 cb 1f ba
       -0.064791374 -0.02986088 0.058978938 -0.00060956937
0001a0 86 38 31 b9 a7 c5 fc bd dc 2e 43 3d 4a 00 b9 3c
       -0.00016901092 -0.12342387 0.04765211 0.022583146
0001b0 83 ad e1 bd 8f 38 9e bc d1 d9 50 3d dd ce 0c 39
       -0.11019423 -0.019314079 0.050988976 0.00013428503
0001c0 7a 6b 0e b7 e3 bb 2a a0 c6 0e 97 3b 27 c0 30 b8
       -8.488883e-06 -1.4461727e-19 0.0046099154 -4.2140626e-05
0001d0 95 51 2b be da dd 6d b7 31 a4 6c bd 2a e1 48 bb
       -0.1673034 -1.4177955e-05 -0.057773773 -0.0030651786
0001e0 00 a4 17 bb e3 a8 c9 1e 34 a0 a2 bd 9b 3c 33 bd
       -0.0023138523 2.1351553e-20 -0.079407126 -0.04375897
0001f0 56 ce 2c bd dc d0 6d bd 61 19 e4 bd db 4f 00 3c
       -0.042188965 -0.058060512 -0.11137653 0.007831539
000200 af 0e e8 1d 93 25 32 bc 78 e3 14 be ba 00 22 be
       6.142507e-21 -0.010873216 -0.14539897 -0.1582059
000210 86 96 3b bd de f6 6e bd 71 79 92 a2 7c 0b 87 1b
       -0.045797847 -0.0583409 -3.970196e-18 2.2341298e-22
000220 a0 f8 36 bd 13 38 c4 bb 22 07 d6 bc 1b a4 9c b9
       -0.0446707 -0.00598813 -0.026126448 -0.00029876907
000230 5d d7 1b bd 34 09 01 be 45 3c de bc 42 5c ea 3c
       -0.038047183 -0.12601167 -0.027128348 0.028608445
000240 48 99 62 3c eb 6a 21 3c f1 a1 f6 bc 80 a6 89 3c
       0.01383049 0.009852151 -0.030106517 0.016803026
000250 90 2f b6 3d 93 42 3f bd 81 94 48 bd 17 e2 eb 9d
       0.088957906 -0.04669435 -0.04896975 -6.2437753e-21
000260 1e fa 16 21 28 00 01 be f6 b5 06 bd 6c c4 15 be
       5.1153004e-19 -0.12597716 -0.032888375 -0.1462571
000270 4b aa 77 bb ae 93 82 1c 9f 6b 0b be dd 3b 9e 1c
       -0.0037790712 8.640853e-22 -0.13615273 1.0471037e-21
000280 0f fb bd be 82 ea 49 be 4d 19 9a be 40 fe 1b 3e
       -0.37105605 -0.19718364 -0.30097428 0.15233707
000290 70 b6 ae b7 b8 c7 5a 21 43 cb 95 be c8 2d 25 37
       -2.082737e-05 7.41256e-19 -0.2925664 9.845426e-06
0002a0 34 bd 46 3d 1f b8 b7 be a2 9b af 3d a3 97 6e be
       0.048520282 -0.3588266 0.085746065 -0.23300032
0002b0 bd 68 06 3e 43 88 3c 3d 72 40 39 be 19 8e 34 3e
       0.13125892 0.046028387 -0.1809099 0.17632331
0002c0 e5 64 04 3e 4e d1 1e bd 5b 39 3f 3e a3 7f 1a 3e
       0.12929113 -0.038773827 0.18674223 0.15087752
0002d0 45 fd 95 bc 24 03 05 3e 1c 79 21 3e 7e 21 87 37
       -0.018309245 0.1298948 0.15768856 1.610885e-05
0002e0 85 6d d8 b8 45 c1 fb 3d 46 82 5e 3d dd e1 aa 3d
       -0.00010320082 0.122927226 0.054323457 0.08343861
0002f0 99 2e 1a 3d 85 70 86 3d 8f 84 7b be 99 bc 81 be
       0.037642095 0.0656443 -0.24562286 -0.253392
000300 81 fd 97 3d c3 44 65 bd 73 6e b9 3d 77 b4 37 be
       0.07421399 -0.05597378 0.0905427 -0.17939936
000310 2b 38 ff ba 05 24 14 3d e4 8f 0b 3e 32 14 ee 3c
       -0.0019471695 0.036167163 0.13629109 0.029062364
000320 ac dc 6b be 55 2a c1 3a 8b 4e 28 3e 36 2b 23 3c
       -0.23033398 0.0014737347 0.16436212 0.009959033
000330 5e 4f 88 be 0b 30 01 be ee 71 de 3d cf 2d 2f be
       -0.26623052 -0.12615983 0.10861574 -0.17107318
000340 2b 91 02 be 45 c9 8d 3c 06 d2 80 be 04 54 e5 bd
       -0.1275069 0.017307887 -0.25160235 -0.11197665
000350 2d 62 cb be 7b 6d e8 be 1b 76 35 3e 77 42 09 be
       -0.3972334 -0.45396027 0.17720835 -0.1340426
000360 7b b3 86 bc 42 78 c2 be 3f 51 5b 3e 52 dc 52 3e
       -0.016443005 -0.37982374 0.21417712 0.20591858
000370 e3 83 10 3e 46 1a b3 bd 3e 62 e6 3c bd 33 4b be
       0.14112811 -0.08745246 0.028123017 -0.19843955
000380 67 b7 b6 be b8 0a 0d bd b3 93 a2 be bf 33 e4 3d
       -0.356868 -0.03443405 -0.3175331 0.11142682
000390 13 29 4d 3d 93 77 99 3b 6e bf c1 be 0c e7 2a bd
       0.050088 0.004683444 -0.37841362 -0.04172425
0003a0 ea 2f 29 3e 02 f7 1c be 2e 38 1a 3e 9e e0 98 be
       0.16522184 -0.15328601 0.15060493 -0.2985887
0003b0 5d 01 61 3d bd 9f c4 3c bc 72 cf be 4a e0 86 3e
       0.05493294 0.02400195 -0.40517223 0.26342994
0003c0 da 5a 37 3e 54 c2 4d bd 1e 7a 57 3e 3d fb 64 3e
       0.17905751 -0.050234154 0.21042678 0.22361465
0003d0 80 0b 4e 3c a9 eb 08 3e 50 b2 17 3e c9 83 c0 bb
       0.012575984 0.13371147 0.14814115 -0.005875085
0003e0 09 47 a2 3d 53 d1 1c 3e ca ae 1b bb 95 ac e4 3d
       0.07923705 0.15314226 -0.0023755305 0.1116573
0003f0 6c ed 80 3e f0 fb 06 be 0e 3d 42 be a4 51 a0 be
       0.2518114 -0.13182044 -0.18968603 -0.31312287

bias f4 [8]
000000 22 8d 83 3c 80 9b e0 bd b0 39 9b 3e 08 86 86 3e
       0.016058508 -0.10967159 0.3031745 0.26274133
000010 11 8a 36 be e4 27 9b bd 2e 17 c6 3d a4 55 90 3e
       -0.17826106 -0.07575968 0.0967239 0.2819034

weight f4 [1, 8]
000000 cb 29 ff bd a8 ad cf 3d b8 29 92 be a0 35 67 be
       -0.12459143 0.10140544 -0.28547454 -0.2257905
000010 36 00 a0 bd fd 1d 21 3f 02 0c 8e be 47 28 c3 3e
       -0.0781254 0.62936383 -0.27743536 0.38116667

weight f4 [8, 1]
000000 29 1c 70 bf 1a 8f 9d 3e e5 43 c8 3e 86 fb 43 bf
       -0.9379297 0.3077324 0.391143 -0.7655567
000010 ef 25 64 be e2 4d 7a bf 98 84 33 bf d0 ac 2c 3f
       -0.22280096 -0.9777509 -0.70124197 0.6745119

bias f4 [8]
000000 90 e0 a1 bd 86 c1 94 bd 14 da eb 3d 9f 94 f2 3d
       -0.0790416 -0.07263474 0.115162045 0.118447535
000010 1a e3 3f bd cd eb 1c 3f 9d 89 0e 3e e0 60 03 bf
       -0.04684744 0.61297303 0.13919683 -0.51319695

weight f4 [32, 8]
000000 5c 49 1f be bb 6d b0 be be 46 16 3e dd 9f 56 be
       -0.15555328 -0.34458718 0.14675424 -0.2095942
000010 7d 51 ab be 65 f6 d2 3d 60 a9 a0 3d 6c be 30 3d
       -0.33460608 0.10300902 0.07844806 0.04315035
000020 68 35 13 9e 43 49 64 a3 7a 0a 03 34 89 fc c8 2c
       -7.793159e-21 -1.23754185e-17 1.2204137e-07 5.712379e-12
000030 12 c7 e2 ac f8 54 60 1d ca a1 01 9f be 7c ae a7
       -6.4454076e-12 2.969008e-21 -2.745064e-20 -4.8429947e-15
000040 42 eb 18 3d 86 55 f9 be fa 6b 21 be ff 96 1c be
       0.037333734 -0.48698062 -0.15763846 -0.15291975
000050 81 05 5d be 53 27 de 3d 65 fe f9 bb 1a b9 99 be
       -0.21584131 0.10847344 -0.007629203 -0.30024034
000060 96 ec cf 1d dd 11 1e 3e 1b ec 6f 3e f3 97 84 a6
       5.5037068e-21 0.15436502 0.23429911 -9.200526e-16
000070 e6 37 1d 9e 6e 15 9e be 0c f9 09 a0 6e 1d 30 3e
       -8.32307e-21 -0.30875725 -1.1686754e-19 0.17198727
000080 52 c3 ea be 06 75 e0 bd 91 2f bc 3e a7 10 d3 be
       -0.45852143 -0.109598204 0.3675504 -0.41223642
000090 99 9a 66 be ba a8 82 be 49 80 66 be ee 92 e7 3d
       -0.22519912 -0.25519353 -0.22509874 0.113073215
0000a0 d0 87 df 3d df 00 89 3e 72 79 b1 3e fc 40 96 3d
       0.10914576 0.26758477 0.34662968 0.073366135
0000b0 f8 9a b2 3e 9d d4 ad 3e 96 03 2d 3e 9e 2d a8 3d
       0.34883857 0.33951274 0.16895899 0.08211826
0000c0 c1 73 22 3e a4 36 43 be 2b e2 2d be 5a b4 42 3e
       0.15864469 -0.19063812 -0.16980807 0.19014111
0000d0 cf 44 02 bd d6 1b 88 3e d3 92 93 3d c9 30 41 20
       -0.031803902 0.26583737 0.07205739 1.6363878e-19
0000e0 9f 15 b5 bc 1d 74 be 3e c8 7d 75 bb b5 75 d7 3d
       -0.022105036 0.37197962 -0.0037459005 0.10520498
0000f0 5c 6a 81 bd 20 7f f5 bd 06 6a e4 bc 92 30 b0 3e
       -0.063191146 -0.11987138 -0.027882587 0.34412056
000100 bf 5e 31 bc e4 d0 3f bd d3 8d 27 bd 8a b4 db bc
       -0.010825812 -0.046830073 -0.04090674 -0.026819486
000110 25 59 a9 b5 26 d0 d5 bc 0a de fe bc 1a 04 74 bd
       -1.2617426e-06 -0.02610023 -0.031111736 -0.059574224
000120 62 39 5e be 9d 62 01 3e 40 b3 19 be 03 a8 72 3e
       -0.21701577 0.12635274 -0.15009785 0.23696904
000130 f6 b7 88 3a 4b fd a6 3c fc b7 4c bd 34 9e 5a be
       0.0010430801 0.020384451 -0.04998015 -0.21349412
000140 c4 ff 7f 3e b9 ae fd bd 63 07 19 3d 25 0b 5d 3e
       0.2499991 -0.12386841 0.03736056 0.21586283
000150 14 a5 07 3e 30 1a 6c 3e c4 d7 d2 bd f6 52 9e bd
       0.13246566 0.23056865 -0.1029506 -0.07730667
000160 e1 b1 e8 bc 37 38 a2 be 82 4c 72 be c1 fc 1f be
       -0.028405132 -0.31683514 -0.23661998 -0.15623762
000170 05 b3 47 be a3 e0 c1 3e 9f d8 97 be 4e 76 5c be
       -0.19501884 0.37866697 -0.29657456 -0.21529505
000180 fa fe 08 bd 48 0e 91 3e 19 70 85 3d 3b 35 c0 3e
       -0.03344629 0.28331208 0.065155216 0.37540612
000190 1a 31 61 be 96 30 65 bd fb ea b5 3e d4 8e a1 3d
       -0.21991387 -0.05595454 0.35530838 0.078885704
0001a0 58 4f 0a be d9 76 c4 3d b2 f9 f1 3d c2 78 b3 bd
       -0.1350683 0.09592981 0.11815204 -0.08763267
0001b0 a8 db d6 bd 6e 7c 4b 3d f6 0a a6 bd 47 45 1a be
       -0.10491115 0.049679212 -0.081075594 -0.1506549
0001c0 70 49 12 be f2 4f 12 be c2 8e 2e 3e eb f2 b2 be
       -0.14285827 -0.14288309 0.17046645 -0.34950957
0001d0 29 ed ca be 4f 51 80 be 21 b2 b8 be 2b bd b6 bc
       -0.39634064 -0.25062034 -0.36073402 -0.022307
0001e0 1c 90 ec be 51 5f 02 3e 07 9d bb 3e 89 81 e0 bd
       -0.46203697 0.12731673 0.3664324 -0.10962207
0001f0 81 44 31 be 14 c2 81 be 33 88 d7 bd 84 57 b7 bd
       -0.17311288 -0.25343382 -0.10524025 -0.08952239
000200 26 8e 9c 3d 63 d4 84 be a5 17 26 bd e6 dc 80 be
       0.076443 -0.25943288 -0.040549893 -0.25168532
000210 9a 99 87 3e d2 65 a2 3e 30 67 ba 3e 45 0c e9 3d
       0.26484376 0.31718308 0.3640685 0.11379293
000220 3c 48 95 3e b6 de 3a 9c f2 1a e4 be 65 18 70 3e
       0.29156673 -6.1830085e-22 -0.44551808 0.23446806
000230 48 ff b0 3d 7c b1 3c 3e 98 b4 c7 3d 69 d2 c7 2c
       0.08642441 0.1842708 0.097512424 5.6792804e-12
000240 93 cf 37 be a8 63 cf be b5 49 2e bf 4f 09 a9 3e
       -0.17950277 -0.4050572 -0.6808122 0.33014914
000250 41 96 2a be 40 9c b8 3d 8a 5d 93 3e 79 23 00 3e
       -0.1665888 0.09014177 0.28782302 0.12513532
000260 d1 18 b9 bd 75 84 3f bc 22 44 cb 3b d4 3c 78 be
       -0.090379365 -0.011689295 0.0062031904 -0.24241954
000270 d6 f3 28 bd 17 56 f5 3d fb 46 93 bd fd 1c 3f bc
       -0.041248165 0.11979311 -0.07191273 -0.011664626
000280 67 c2 8b bc 87 7e fc 3d 7c cd 96 bd 32 1c ae 3a
       -0.017060472 0.12328821 -0.07363412 0.0013283549
000290 95 ec a0 bd 48 1b b4 bd 51 e5 14 3e 61 83 ac be
       -0.078576244 -0.08794266 0.14540602 -0.33693984
0002a0 7f d1 d5 bd d4 42 ab 3e ad 88 1c 3d fb fa 13 3d
       -0.10440349 0.33449423 0.03821628 0.036128026
0002b0 03 f1 19 ba 0f 99 dc be 5e 5e 38 be 73 01 06 bd
       -0.00058724004 -0.43085524 -0.18004748 -0.032716226
0002c0 f4 97 3d 3e b5 49 1a bd 67 9a 2f bd 61 f3 2d 3e
       0.18514997 -0.03766795 -0.04287186 0.16987373
0002d0 d5 e4 90 3e bc 9a ed 3d 47 8f 9f 3e 67 4e 14 3e
       0.28299585 0.11601779 0.31164 0.14483033
0002e0 d3 d3 3c be aa 35 e4 b9 5f 4c 30 3e 65 56 69 bc
       -0.1844018 -0.00043527532 0.17216633 -0.0142417895
0002f0 c2 a4 cd bd 25 54 b6 bd 08 16 58 be 9f 4d 88 3e
       -0.10041191 -0.08902768 -0.21102154 0.2662172
000300 64 6c 30 bc 71 af dc bd ca 32 9e 3e b6 7c 47 be
       -0.01076803 -0.1077565 0.30898124 -0.19481167
000310 f3 b8 ba be 2b b7 a1 3e d5 3c 2b bd 54 20 3a be
       -0.3646923 0.3158506 -0.04180606 -0.18176395
000320 c1 0c a3 bd ee 3b c8 be 4a 72 7f 3e 10 42 2c 3e
       -0.07961417 -0.39108223 0.24945942 0.16822076
000330 01 14 48 3e 9e 0b 93 3e b2 c7 21 3d 56 7e 5e 3e
       0.19538881 0.287198 0.039497085 0.21727881
000340 5f 9d fa bd b5 87 81 bd 02 88 0b 39 b5 4c 74 3d
       -0.122370474 -0.06324712 0.0001330674 0.059643466
000350 33 e1 03 bd af d7 88 bc 04 11 b5 3d 85 b3 6b bd
       -0.03219719 -0.016704408 0.08841136 -0.05754425
000360 fd 1d 39 bd 6a bd 48 bd b5 6b a2 bd c9 25 12 3d
       -0.045194615 -0.049008764 -0.079307 0.035680566
000370 30 64 b2 ba 6d 28 8e bd 65 65 1e bd a5 66 22 bd
       -0.001361018 -0.06941304 -0.038670916 -0.03964867
000380 1a 3c bc 3e 01 16 e2 af 59 f1 b4 1b d9 31 a6 3e
       0.36764604 -4.1124795e-10 2.993447e-22 0.32459906
000390 85 12 b4 3e 48 ef ee bd fc bc 98 3c 54 d8 59 a6
       0.3517038 -0.11666733 0.018644802 -7.558018e-16
0003a0 ee b8 5b bb 13 e4 cd bc 53 06 c4 3a f3 71 db bb
       -0.0033526975 -0.025133168 0.0014955498 -0.0066969334
0003b0 da e7 aa 2f ed a6 48 be b2 6c 7b bc 69 90 64 bd
       3.108756e-10 -0.19594927 -0.015345739 -0.055801783
0003c0 7a 5d 5e 3e 99 4d 00 2d 83 54 c3 be f0 a0 83 bc
       0.21715346 7.293188e-12 -0.38150415 -0.016067952
0003d0 b4 0b 69 3e 11 48 a2 3d 42 76 a5 3d cd 8e 4d af
       0.2275837 0.07923902 0.080791965 -1.8695374e-10
0003e0 37 4c 8a 3e 39 73 33 3e fc f8 ab be fe a0 57 3e
       0.27011272 0.17524423 -0.33588398 0.21057507
0003f0 f6 d7 18 3e 57 4e 96 3e 7f a5 b4 3e 82 70 1a be
       0.14926133 0.29356644 0.35282513 -0.15081981

bias f4 [32]
000000 ea 93 bd 3e 27 20 00 bb 48 7b b3 3e 77 f4 9f 3c
       0.37026912 -0.0019550414 0.35054994 0.01952575
000010 d3 c6 df 3e 2e d6 4b be d9 5d 61 bd 48 27 8c 3d
       0.43706378 -0.19905922 -0.05502114 0.0684343
000020 8a 38 b1 bc 55 2e bf 3e 0b 6c 56 be 52 2c 40 3e
       -0.021633405 0.37340036 -0.20939653 0.18766907
000030 eb 2c 25 be e6 22 c8 3e 3a c3 12 3f ab 4f 99 3e
       -0.16130416 0.39089125 0.5732914 0.29943594
000040 a3 b6 fa 3e 42 c4 96 bd 99 9f 1e 3e 4d 7c 28 be
       0.48967466 -0.07361652 0.15490569 -0.16453667
000050 dd 03 94 3e f4 37 b3 3e 37 b6 73 be 0b 80 e2 3d
       0.28909197 0.35003626 -0.23799978 0.110595785
000060 5e 20 0d 3f 57 74 ec 3d 03 3a d9 3e 96 eb 8c bc
       0.55127513 0.115456276 0.42427072 -0.01720218
000070 cb d3 ac be 4f ab 1e 3d a4 8a c2 bc b1 e9 8f 3e
       -0.33755335 0.03873759 -0.02374775 0.2810798
