model/205.389798641204834.pt (torch_old, 168315 bytes, 19 tensors)

weight f4 [256, 2]
-0.18602203 0.67083836 0.443091 0.14832455 -0.35614282 -0.039000515 0.6858093 -0.5115937
-0.4640654 -0.25084192 -0.33259687 0.55563146 0.1928788 0.61080897 0.05926645 -0.33202398
0.2896731 0.046844885 0.36832482 -0.24862447 -0.24900901 0.47986412 -0.037720498 -0.40560806
-0.43159145 -0.67347383 0.34064487 -0.04658976 -0.35178614 0.70397997 0.3011217 -0.2629888
-0.068100415 0.31365734 0.61996055 0.30668038 -0.6687068 -0.018054921 0.32980323 -0.115749866
0.31783637 -0.53867286 0.32947767 0.6869489 0.37409532 0.069981046 -0.7082977 -0.19166024
-0.44677562 -0.7672886 0.2513313 -0.3925169 0.074920535 0.6922437 0.067333594 0.050647005
-0.3130119 0.59529567 -0.36786225 0.6433646 -0.4661028 -0.52220404 0.6836992 0.14155032
0.6139053 0.44942322 -0.23791546 0.6050791 -0.70562637 -0.060726576 -0.05838046 0.2976491
0.7564135 0.0033911178 -0.4201171 0.4052281 0.3782932 -0.5374104 -0.6470663 -0.09188824
-0.6848003 0.44117886 0.29374966 0.48342028 -0.19779308 -0.1375035 -0.32151708 -0.3448894
0.7056029 0.106940664 -0.5904844 -0.14104624 -0.46536073 0.4751914 0.6297409 -0.7376453
0.3962797 -0.49279913 -0.20871343 0.12533496 -0.19493753 0.49058938 0.4662672 0.48387125
0.69832927 0.08979557 0.32948214 -0.19258249 -0.44102532 0.5136844 -0.661443 0.49836802
0.37125006 0.31978887 -0.67665 0.22866757 -0.11265494 0.49210894 -0.614496 -0.617008
-0.060430165 0.18404616 0.3127858 0.56692773 0.34993404 0.4210879 -0.27583078 0.36588997
-0.13401073 0.28868458 -0.3774073 -0.25232762 0.49450442 -0.53445417 -0.68938065 -0.049366422
-0.4799326 0.43355203 -0.3321765 0.034831893 -0.68642056 0.009431426 0.5360037 -0.690395
0.5642215 -0.22022279 0.18362466 0.30279306 -0.39918843 0.5963301 -0.40518245 0.30446514
-0.094394125 0.115409546 0.02149425 -0.6807025 -0.55977476 -0.07401501 -0.30898926 0.22658202
0.39438677 -0.419832 -0.520397 -0.4401848 0.26496005 0.041466534 0.51865923 0.46838832
0.2912782 -0.36087093 0.48031557 -0.5628534 0.6577693 0.15878743 -0.31628186 -0.48405576
-0.50276285 0.46296635 -0.1438242 0.6959996 0.25694552 0.25942522 0.19361076 -0.17878473
0.7116311 0.64304274 -0.51756257 0.3978458 0.39905858 -0.14138004 0.40639833 0.71489954
-0.05175458 0.7194618 0.40592104 -0.5030891 -0.19317786 -0.35034075 -0.30535957 0.14541954
0.766638 -0.054759305 0.4430487 -0.58302546 0.57047445 0.35741982 -0.70106196 -0.54590106
0.22005042 0.6227166 -0.44909674 0.52242 -0.5241823 -0.32865357 -0.50700754 0.64237535
-0.61028033 -0.49546722 0.02085163 -0.48057842 -0.19370116 0.5200049 -0.61583865 -0.28205952
0.5630348 0.5347142 -0.24600853 -0.15223615 -0.2846291 0.18074286 -0.42089412 -0.5830146
-0.13155939 0.26108825 -0.3856343 0.6423854 -0.36322773 0.2985016 -0.37638402 -0.5408296
-0.28030723 -0.097133584 0.6238187 -0.42257985 0.45893648 0.6354515 0.6717035 -0.15323214
0.6883874 -0.42032352 0.10530808 0.16609062 -0.66723037 0.6472916 0.03403946 0.5565058
00000000: 8f7c 3ebe 10bc 2b3f d3dc e23e 64e2 173e
00000010: 5a58 b6be 01bf 1fbd 3391 2f3f cef7 02bf
00000020: fb99 edbe 5a6e 80be 234a aabe dd3d 0e3f
00000030: 0582 453e fa5d 1c3f 61c1 723d 0cff a9be
00000040: 0850 943e 6ce0 3f3d 1295 bc3e 6a97 7ebe
00000050: 38fc 7ebe c0b0 f53e cf80 1abd dcab cfbe
00000060: 8ef9 dcbe c868 2cbf 0169 ae3e e7d4 3ebd
00000070: 501d b4be 0838 343f a02c 9a3e 78a6 86be
00000080: 3b78 8bbd b297 a03e bcb5 1e3f 3605 9d3e
00000090: 5e30 2bbf eae7 93bc f8db a83e 440e edbd
000000a0: 73bb a23e 77e6 09bf 4cb1 a83e e2db 2f3f
000000b0: 6c89 bf3e 3952 8f3d 0053 35bf 9542 44be
000000c0: c6bf e4be 076d 44bf 7fae 803e faf7 c8be
000000d0: f06f 993d e236 313f 32e6 893d 3c73 4f3d
000000e0: 1943 a0be 4c65 183f 7158 bcbe 8bb3 243f
000000f0: 07a5 eebe 2aaf 05bf e906 2f3f 91f2 103e
00000100: e628 1d3f cd1a e63e 1ca0 73be 77e6 1a3f
00000110: eea3 34bf 6ebc 78bd 5920 6fbd 7665 983e
00000120: 51a4 413f 843d 5e3b 9719 d7be 0f7a cf3e
00000130: a5af c13e ba93 09bf 23a6 25bf e72f bcbd
00000140: 134f 2fbf 32e2 e13e 5b66 963e dd82 f73e
00000150: 458a 4abe b8cd 0cbe e39d a4be 5895 b0be
00000160: 64a2 343f b503 db3d fc29 17bf 6d6e 10be
00000170: c343 eebe 4a4c f33e b336 213f 53d6 3cbf
00000180: 2ce5 ca3e 2b50 fcbe f9b8 55be cf57 003e
00000190: b49d 47be 882e fb3e 93ba ee3e f9bd f73e
000001a0: b5c5 323f bde6 b73d e2b1 a83e 5834 45be
000001b0: 12ce e1be d280 033f 5454 29bf 182a ff3e
000001c0: 7d14 be3e 5ebb a33e ef38 2dbf d527 6a3e
000001d0: a2b7 e6bd b4f5 fb3e 9c4f 1dbf 3cf4 1dbf
000001e0: 9f85 77bd 9976 3c3e 7625 a03e 2d22 113f
000001f0: 8e2a b33e d598 d73e b139 8dbe ee55 bb3e
00000200: 1c3a 09be 77ce 933e 883b c1be 1631 81be
00000210: af2f fd3e fdd1 08bf 407b 30bf 7234 4abd
00000220: bab9 f5be 88fa dd3e 0a13 aabe e3ab 0e3d
00000230: 42b9 2fbf 4586 1a3c 8a37 093f babd 30bf
00000240: d270 103f 1582 61be 1a08 3c3e b107 9b3e
00000250: 6d62 ccbe 17a9 183f 1374 cfbe dbe2 9b3e
00000260: b551 c1bd d75b ec3d b614 b03c 8542 2ebf
00000270: 664d 0fbf 2e95 97bd d733 9ebe 1e05 683e
00000280: 10ed c93e 38f4 d6be bd38 05bf e75f e1be
00000290: d8a8 873e d0d8 293d dac6 043f 98d0 ef3e
000002a0: 6b22 953e 13c4 b8be eceb f53e 2917 10bf
000002b0: 9263 283f 2c99 223e b2ef a1be 28d6 f7be
000002c0: 11b5 00bf ed09 ed3e a746 13be 082d 323f
000002d0: 5d8e 833e 62d3 843e e641 463e 5813 37be
000002e0: 752d 363f 739e 243f fb7e 04bf 72b2 cb3e
000002f0: 6851 cc3e eec5 10be 7113 d03e a803 373f
00000300: 9cfc 53bd a62e 383f e2d4 cf3e 72ca 00bf
00000310: 6bd0 45be dd5f b3be 1758 9cbe dce8 143e
00000320: 6342 443f 4b4b 60bd 47d7 e23e 2841 15bf
00000330: 9d0a 123f bbff b63e cc78 33bf 2cc0 0bbf
00000340: e654 613e 5b6a 1f3f 02f0 e5be 51bd 053f
00000350: d030 06bf 4845 a8be 3fcb 01bf b672 243f
00000360: 553b 1cbf e1ad fdbe 0ad1 aa3c 600e f6be
00000370: 9959 46be 0b1f 053f 9aa7 1dbf 1b6a 90be
00000380: 0c23 103f 08e3 083f a9e9 7bbe cbe3 1bbe
00000390: e8ba 91be a814 393e 6f7f d7be 7240 15bf
000003a0: 81b7 06be 5cad 853e dc71 c5be 5f73 243f
000003b0: fcf8 b9be 34d5 983e 68b5 c0be cf73 0abf
000003c0: 6e84 8fbe f9ed c6bd 95b2 1f3f 635c d8be
000003d0: b9f9 ea3e f3ac 223f c3f4 2b3f e3e8 1cbe
000003e0: 283a 303f a534 d7be c3ab d73d a913 2a3e
000003f0: 9ccf 2abf e7b4 253f f66c 0b3d 2a77 0e3f

bias f4 [256]
0.089488626 0.15478836 0.6253963 0.19174178 0.14826529 0.21069929 -0.29390106 0.061706655
-0.036266442 0.24960628 -0.40437248 0.4181568 0.112693824 -0.6501379 0.55546397 -0.021868972
-0.4965579 0.6475109 0.34024122 -0.5185866 -0.18332481 0.15695457 -0.2980827 -0.13556121
-0.020216381 0.7388297 0.50149673 0.124320455 -0.49790087 -0.37124005 -0.07331066 0.70324624
0.011071416 -0.21475603 0.10146559 0.15833867 0.08208475 0.5632826 0.598925 -0.48006487
-0.17839368 0.56748617 -0.41252705 -0.55823207 -0.7077043 0.35857993 -0.3473261 0.50618124
0.09771142 -0.54541796 -0.27715057 -0.2550768 -0.103798814 -0.25083283 -0.22622795 0.67075807
0.4300844 -0.1514303 -0.43828383 -0.6591705 -0.013153406 -0.31624615 -0.2686992 0.7491582
0.51801777 0.111611605 -0.5277262 -0.52786714 0.4985515 0.7328994 0.19025092 0.24980567
-0.1752604 0.21138941 0.38398114 0.44964844 0.4737625 0.49668393 0.64972496 0.50666684
-0.4137277 -0.27643692 0.34170628 -0.25225967 0.0818068 -0.23556565 0.7066383 0.20090751
-0.06964232 -0.5446358 -0.48891985 -0.29262355 -0.2930735 0.71149224 -0.009966792 -0.4079105
-0.0049368185 0.0727897 -0.118786484 -0.36068234 -0.625418 0.29002348 -0.34261864 0.1320238
-0.010312768 0.72495055 0.2543163 0.16269019 -0.20048308 0.5685676 0.011969364 -0.07717367
0.033014126 0.1789614 -0.0015706472 -0.5848376 0.02982832 0.2915999 -0.5019512 -0.22834763
0.6385072 -0.07166644 -0.3827473 -0.34426102 -0.5554902 0.49472937 0.10623107 0.7353179
0.5276583 -0.51792204 0.13120785 0.07229346 -0.3787818 0.6023545 0.46946186 -0.24427433
0.47967255 -0.5311978 0.0384379 0.5413439 -0.18799463 -0.044904783 0.20077299 0.7000459
0.35710207 0.040467467 -0.22269167 0.16514884 -0.2160178 -0.10203332 0.38335094 0.50009143
0.06635868 -0.41786927 0.41029403 -0.54239595 -0.09646791 -0.21845336 0.61474407 0.7108045
-0.4935622 -0.089941435 0.2477816 0.48995012 -0.17696925 -0.26369676 -0.16770732 -0.21871534
0.54394984 0.24189326 0.54902136 0.15448059 0.3890426 0.6084461 -0.5155763 -0.22546466
0.61821866 0.52811825 -0.45155236 -0.24944225 0.4902374 -0.2693628 -0.08602023 -0.4523007
0.43065453 0.3013674 -0.59413505 -0.23871818 -0.2602691 0.39655867 0.13796401 0.12726654
-0.23333035 0.33885127 0.30255795 -0.32885307 -0.40246654 -0.3941012 -0.56857336 0.23441996
-0.517114 -0.2845247 -0.56119317 0.20954746 -0.30522478 0.50209665 0.26637718 -0.15963392
-0.37247276 -0.118511416 -0.22171134 0.16251859 0.35106722 -0.34596258 -0.29481566 0.44173315
0.5246589 -0.09547171 -0.48347902 0.2803155 0.59477895 0.120899014 0.2852778 0.30110162
0.59204936 -0.026927244 0.6455981 -0.5482469 0.33611286 0.2346334 -0.45068875 0.4853661
-0.22485507 0.51994985 0.41107038 0.75068074 -0.07130199 0.66279894 -0.3566548 0.66329354
0.30230564 0.6550481 0.72362065 0.4078633 0.47816837 0.18357003 -0.040831715 -0.18062103
0.5023451 0.6822786 -0.51955557 -0.49283874 0.51989 0.01970472 0.04597205 0.42234546
00000000: d045 b73d d780 1e3e f919 203f f557 443e
00000010: dbd2 173e 8ec1 573e 337a 96be 1ec0 7c3d
00000020: 1f8c 14bd ca98 7f3e e909 cfbe a618 d63e
00000030: 05cc e63d 706f 26bf e332 0e3f 8f26 b3bc
00000040: d63c febe 46c3 253f 1934 ae3e 17c2 04bf
00000050: 80b9 3bbe b3b8 203e 4c9e 98be 8fd0 0abe
00000060: d39c a5bc f123 3d3f 1762 003f b99b fe3d
00000070: ddec febe 2d13 bebe e623 96bd f207 343f
00000080: e264 353c 01e9 5bbe 31cd cf3d 8823 223e
00000090: 0d1c a83d 4a33 103f 2653 193f 10cb f5be
000000a0: d5ac 36be c646 113f bf36 d3be 4ce8 0ebf
000000b0: 1c2c 35bf ca97 b73e bad4 b1be 1895 013f
000000c0: ed1c c83d 83a0 0bbf aee6 8dbe 6d99 82be
000000d0: 7994 d4bd 296d 80be 4da8 67be cdb6 2b3f
000000e0: 0634 dc3e 8b10 1bbe bd66 e0be 66bf 28bf
000000f0: 6281 57bc 04eb a1be f192 89be d5c8 3f3f
00000100: d09c 043f a094 e43d 1019 07bf 4d22 07bf
00000110: 2442 ff3e 4c9f 3b3f 23d1 423e 0fcd 7f3e
00000120: 7677 33be 7776 583e 2d99 c43e 5238 e63e
00000130: 0091 f23e 5b4d fe3e 6054 263f ebb4 013f
00000140: 1ed4 d3be 2489 8dbe 20f4 ae3e 2e28 81be
00000150: 538a a73d 1f38 71be 3fe6 343f b3ba 4d3e
00000160: a2a0 8ebd 406d 0bbf b453 fabe c1d2 95be
00000170: bb0d 96be 5b24 363f c14b 23bc a5d9 d0be
00000180: 09c5 a1bb c412 953d 5446 f3bd 5bab b8be
00000190: 651b 20bf f57d 943e b66b afbe 3f31 073e
000001a0: e2f6 28bc 5c96 393f bf35 823e 4298 263e
000001b0: 704b 4dbe a58d 113f 271b 443c 3b0d 9ebd
000001c0: d239 073d a841 373e 2dde cdba ebb7 15bf
000001d0: 855a f43c 954c 953e e07f 00bf f6d3 69be
000001e0: 3575 233f dbc5 92bd 74f7 c3be fb42 b0be
000001f0: 9b34 0ebf 2b4d fd3e ad8f d93d cb3d 3c3f
00000200: 9d14 073f 8a96 04bf 5a5b 063e 980e 943d
00000210: b0ef c1be e833 1a3f 4e5d f03e 0d23 7abe
00000220: a497 f53e 94fc 07bf 0f71 1d3d 8495 0a3f
00000230: aa81 40be 14ee 37bd 6f97 4d3e 3536 333f
00000240: 15d6 b63e 37c1 253d 4909 64be c71c 293e
00000250: c533 5dbe d8f6 d0bd 9346 c43e fe05 003f
00000260: 0fe7 873d f6f2 d5be 0f12 d23e 76da 0abf
00000270: f890 c5bd 3db2 5fbe de5f 1d3f 49f7 353f
00000280: 2fb4 fcbe 3733 b8bd 76ba 7d3e beda fa3e
00000290: 6d37 35be 4303 87be 78bb 2bbe eaf6 5fbe
000002a0: 4c40 0b3f deb2 773e aa8c 0c3f 2930 1e3e
000002b0: 9730 c73e 20c3 1b3f cffc 03bf 35e0 66be
000002c0: 9443 1e3f c232 073f df31 e7be ca6d 7fbe
000002d0: 6600 fb3e ece9 89be 602b b0bd f593 e7be
000002e0: c07e dc3e d44c 9a3e 3c19 18bf 8a72 74be
000002f0: fe41 85be bd09 cb3e 7046 0d3e 2952 023e
00000300: 27ee 6ebe ea7d ad3e e0e8 9a3e 6e5f a8be
00000310: 1810 cebe a2c7 c9be 068e 11bf c90b 703e
00000320: 9561 04bf 39ad 91be 5baa 0fbf 9c93 563e
00000330: 6c46 9cbe 6889 003f 9762 883e 1377 23be
00000340: c0b4 bebe 1db6 f2bd 4c08 63be 466b 263e
00000350: 15bf b33e 0222 b1be 14f2 96be d92a e23e
00000360: 0c50 063f ac86 c3bd 908a f7be 8385 8f3e
00000370: 6f43 183f e799 f73d ef0f 923e fe29 9a3e
00000380: 8c90 173f 8696 dcbc eb45 253f e959 0cbf
00000390: fc16 ac3e bd43 703e adc0 e6be e881 f83e
000003a0: 6840 66be 6f1b 053f d177 d23e 9d2c 403f
000003b0: c706 92bd 31ad 293f 759b b6be 9bcd 293f
000003c0: cec7 9a3e 3bb1 273f 343f 393f 75d3 d03e
000003d0: 7cd2 f43e c8f9 3b3e 283f 27bd b8f4 38be
000003e0: b099 003f cfa9 2e3f 9801 05bf 5c55 fcbe
000003f0: 8317 053f cb6b a13c 304d 3c3d aa3d d83e

weight f4 [64, 256]
0.013191981 0.023684617 0.052151326 0.111910224 0.00066002965 0.02683143 0.040596526 0.020238336
0.098193265 0.10935382 0.026326029 -0.020087577 0.036130935 0.053535 0.0066932407 0.039449047
-0.0058388743 0.068048365 -0.052091774 0.06042101 -0.022634199 -0.0084242895 0.085237645 0.02158466
-0.029735133 0.038422126 0.050365683 0.0775016 -0.02800655 0.071041346 0.010578412 0.067010015
0.03490621 -0.0066106613 -0.027738398 0.03150838 0.08271736 0.06691326 0.029216891 0.016687075
0.034568466 0.07413309 -0.026716735 0.025247399 0.0074407975 -0.0034384807 0.07315031 0.014390023
0.011279519 0.08198072 -0.029927023 0.07270244 0.04730506 0.03403553 -0.0126091605 0.07061127
-0.011863652 -0.017229982 -0.004457727 -0.0053168572 -0.00092331483 0.02874788 0.02073019 0.014591377
-0.05534597 -0.029015422 0.09903275 0.0040142126 0.056765314 -0.015577973 0.0011308218 0.07436116
0.033547506 0.06776421 -0.017968874 0.00020816975 0.045650966 -0.01140994 0.048267677 0.026564265
0.08847502 -0.05241593 0.053286362 0.038028885 0.03247444 -0.006134339 0.0868988 0.009699738
-0.026142435 -0.05121742 0.0449509 0.062178474 -0.027690846 0.03999179 0.02369344 0.023289016
-0.043868035 0.049320683 0.025258692 0.019075109 0.05563219 0.05838077 2.465547e-05 -0.04849703
-0.029751914 -0.009855728 -0.01247892 -0.03976114 -0.004654994 -0.031486325 0.00021893166 -0.013420021
0.06095932 -0.0057578073 0.06912709 -0.0072903684 -0.042549517 -0.055041946 -0.0012170894 -0.0051118885
-0.018486649 0.10950433 0.018278169 0.0022971174 0.044681564 -0.029699782 -0.010331384 0.05743342
-0.021080507 0.03781954 0.035574216 0.02034225 -0.040480487 0.00045677426 0.08375797 0.029680068
0.03145996 0.060155522 0.014207135 -0.011729687 0.03803038 -0.0020500433 -0.03982914 -0.022817591
0.0242907 -0.008626456 -0.013268005 0.0003627455 -0.015077884 0.024941985 0.04814695 -0.024439305
-0.00891877 0.062381513 -0.032540884 0.03504208 0.033971157 0.08083572 -0.013906279 -0.008129192
0.017326834 -0.05789466 -0.023928909 0.022844983 -0.018998068 0.0013682505 -0.004277685 0.08282902
0.02214533 0.007606199 -0.019590681 -0.0573692 0.04564294 0.00904098 -0.009582434 0.07594651
0.0087580485 -0.013861797 0.0015789025 0.003492566 -0.0009682314 0.08160415 -0.045484383 -0.055813152
-0.021190627 0.0396882 0.03740863 0.047068335 0.04879638 0.005114239 0.01782381 0.0409524
0.0042884834 0.11314033 -0.028713167 0.075057186 0.07629991 -0.04437875 3.0957788e-05 -0.013748981
0.0046512852 0.023938213 0.079270266 -0.029472355 -0.030964397 -0.03775529 0.083612666 -0.038916048
0.022488236 0.041698854 -0.0015772312 0.06032546 0.014151538 -0.058880758 0.08164204 0.085021906
0.057809483 0.039192438 -0.043661803 -0.057685446 0.0025946423 -0.0047117947 0.029621314 -0.019180652
0.007925181 0.040260907 -0.05958515 -0.038113613 0.0029629658 -0.04371932 0.049605288 0.07065692
0.019413957 -0.010076558 0.0036820422 0.0010697478 -0.003913851 0.032544054 -0.030964106 0.015007839
-0.07349355 -0.006981673 0.051068265 0.007164837 0.052630432 0.044433367 0.016422091 0.035702046
0.11144162 -0.026789485 -0.028352933 0.02452266 0.05969774 -0.0015398512 -0.015164769 -0.03094281
00000000: 2e23 583c 3e06 c23c a19c 553d 3031 e53d
00000010: d705 2d3a 96cd db3c 8b48 263d deca a53c
00000020: 8d19 c93d e5f4 df3d afa9 d73c b48e a4bc
00000030: 08fe 133d 8447 5b3d f952 db3b 5395 213d
00000040: 0754 bfbb f15c 8b3d 2f5e 55bd 057c 773d
00000050: 5b6b b9bc 0806 0abc 1391 ae3d 50d2 b03c
00000060: 1897 f3bc 8560 1d3d 3f4c 4e3d 29b9 9e3d
00000070: fe6d e5bc 207e 913d 1351 2d3c 8c3c 893d
00000080: d0f9 0e3d 3f9e d8bb a33b e3bc ee0e 013d
00000090: b867 a93d d209 893d 4358 ef3c 55b3 883c
000000a0: aa97 0d3d 17d3 973d 0edd dabc a2d3 ce3c
000000b0: efd1 f33b 2258 61bb d4cf 953d 22c4 6b3c
000000c0: bbcd 383c 82e5 a73d 8429 f5bc 04e5 943d
000000d0: f3c2 413d d768 0b3d a796 4ebc a49c 903d
000000e0: c35f 42bc e425 8dbc 2012 92bb 0839 aebb
000000f0: 9c0a 72ba ad80 eb3c 5cd2 a93c ac10 6f3c
00000100: 75b2 62bd c0b1 edbc afd1 ca3d a889 833b
00000110: bf82 683d c13a 7fbc 1538 943a aa4a 983d
00000120: 1c69 093d f6c7 8a3d 7633 93bc 2448 5a39
00000130: 82fc 3a3d c2f0 3abc 54b4 453d 4d9d d93c
00000140: 6432 b53d 16b2 56bd cd42 5a3d 2dc4 1b3d
00000150: eb03 053d 9102 c9bb 00f8 b13d a6eb 1e3c
00000160: a928 d6bc 5bc9 51bd 6f1e 383d dbae 7e3d
00000170: ead7 e2bc 6ece 233d bf18 c23c 9bc8 be3c
00000180: f8ae 33bd 7c04 4a3d 51eb ce3c 6743 9c3c
00000190: 94de 633d ad20 6f3d 38d3 ce37 d2a4 46bd
000001a0: 49ba f3bc eb79 21bc 6274 4cbc 94dc 22bd
000001b0: eb88 98bb cef7 00bd 0591 6539 a6df 5bbc
000001c0: 7bb0 793d fdab bcbb 8192 8d3d 0be4 eebb
000001d0: 6748 2ebd aa73 61bd be86 9fba a181 a7bb
000001e0: 5071 97bc ce43 e03d 19bc 953c 3c8b 163b
000001f0: 0404 373d f54c f3bc f744 29bc 4e3f 6b3d
00000200: 07b1 acbc a9e8 1a3d 45b6 113d caa4 a63c
00000210: dece 25bd 347b ef39 4c89 ab3d 9d23 f33c
00000220: 29dc 003d a365 763d 0bc5 683c e02d 40bc
00000230: bec5 1b3d 055a 06bb e123 23bd f5eb babc
00000240: 4afd c63c fb55 0dbc 0c62 59bc e02e be39
00000250: 3b09 77bc 2253 cc3c bc35 453d f034 c8bc
00000260: 0820 12bc c283 7f3d 9749 05bd 4988 0f3d
00000270: 5725 0b3d 338d a53d 29d7 63bc 4d30 05bc
00000280: 01f1 8d3c f322 6dbd 8f06 c4bc 6725 bb3c
00000290: d6a1 9bbc de56 b33a d32b 8cbb 43a2 a93d
000002a0: 206a b53c 6c3d f93b a37c a0bc f7fb 6abd
000002b0: 17f4 3a3d 9e20 143c a4ff 1cbc d889 9b3d
000002c0: eb7d 0f3c 971c 63bc 2df3 ce3a 89e3 643b
000002d0: e9d0 7dba 1420 a73d d54d 3abd 559c 64bd
000002e0: f797 adbc 1890 223d cb39 193d baca 403d
000002f0: b7de 473d 5995 a73b 3d03 923c b4bd 273d
00000300: 6886 8c3b 1eb6 e73d e037 ebbc 95b7 993d
00000310: 2143 9c3d 7ec6 35bd acd8 0138 6843 61bc
00000320: cf69 983b 121a c43c 7358 a23d 0270 f1bc
00000330: 0ca9 fdbc 4aa5 1abd 1e3d ab3d 6f66 1fbd
00000340: 4039 b83c 6bcc 2a3d 19bb ceba d417 773d
00000350: dadb 673c f32c 71bd f133 a73d f71f ae3d
00000360: a3c9 6c3d 4088 203d b8d6 32bd 9347 6cbd
00000370: e00a 2a3b 6665 9abb 66a8 f23c be20 9dbc
00000380: 9ed8 013c 9fe8 243d 8f0f 74bd 051d 1cbd
00000390: 512e 423b 0813 33bd ea2e 4b3d 93b4 903d
000003a0: 050a 9f3c 2618 25bc 6b4e 713b c836 8c3a
000003b0: c33f 80bb ea4c 053d 70a8 fdbc 70e3 753c
000003c0: c983 96bd 85c6 e4bb f52c 513d 02c7 ea3b
000003d0: 0293 573d c3ff 353d 9f87 863c 4f3c 123d
000003e0: 813b e43d 9f75 dbbc 6944 e8bc bfe3 c83c
000003f0: 9e85 743d d5d4 c9ba a775 78bc c77b fdbc

bias f4 [64]
-0.0112046795 0.08395142 -1.12729166e-10 -0.03153498 0.114321634 -0.004641881 0.05757237 0.01888272
0.045900494 0.068725415 -0.048675224 0.083099954 0.042678636 -0.016603675 0.060523555 0.017651508
-0.06168434 0.054801926 0.020989154 -0.017201582 -6.6129724e-13 0.019615497 -0.041618988 0.05464003
0.03420893 0.034652963 -0.0012278213 0.0011391815 0.04841612 0.016742742 0.03713351 -0.025572611
0.09562833 0.10770974 -0.068963125 -0.009208805 -0.02573239 -0.022783967 -0.02705612 0.083599284
0.05216405 0.08119864 0.113170125 0.14322363 0.019600097 0.005968437 0.01370821 -0.0036286165
0.04960182 -0.04160007 0.07550687 0.0994106 0.08520829 -0.00014604509 0.10402222 0.032132838
0.0028042477 0.05839684 -0.045780394 -0.034484748 0.10673009 0.011529507 0.02159917 0.094606124
00000000: d593 37bc b9ee ab3d e1e4 f7ae d32a 01bd
00000010: 7621 ea3d ec1a 98bb 01d1 6b3d efaf 9a3c
00000020: 2802 3c3d e9bf 8c3d ac5f 47bd 4f30 aa3d
00000030: cbcf 2e3d 6e04 88bc 8ce7 773d e599 903c
00000040: b8a8 7cbd fc77 603d 72f1 ab3c 55ea 8cbc
00000050: 7d23 3aab aeb0 a03c ac78 2abd 39ce 5f3d
00000060: aa1e 0c3d 44f0 0d3d d9ee a0ba 9750 953a
00000070: fb4f 463d 1328 893c 4f19 183d a77d d1bc
00000080: c9d8 c33d ed96 dc3d 8a3c 8dbd 87e0 16bc
00000090: bccc d2bc 71a5 babc cca4 ddbc 1a36 ab3d
000000a0: f9a9 553d 794b a63d bdc5 e73d 37a9 123e
000000b0: 6290 a03c e192 c33b 6698 603c 15ce 6dbb
000000c0: 472b 4b3d d664 2abd 59a3 9a3d c997 cb3d
000000d0: af81 ae3d ae23 19b9 9a09 d53d b99d 033d
000000e0: 78c7 373b 8631 6f3d 3984 3bbd e13f 0dbd
000000f0: 4e95 da3d 42e6 3c3c bef0 b03c dbc0 c13d

weight f4 [32, 64]
0.04596038 0.0896524 4.1628216e-08 -0.024941918 0.06741456 -0.00081316766 0.04079813 0.14827408
0.06329606 0.043256685 0.00024457043 0.14967142 -0.1280561 0.019208686 0.122409746 -0.20746894
-0.055825714 0.004278721 0.09929446 -0.104911074 0.002508581 0.02981082 -0.09139819 -0.04525897
-0.091078155 0.011120226 -0.006314525 -0.0994673 -0.039304093 -0.036008492 -0.0786512 0.00067110226
0.03945521 0.09403649 -0.16823238 -0.0018260764 0.047218584 -0.04785295 -0.08934209 0.06080943
0.12508658 0.053942475 0.09339008 0.017837457 0.14303526 -0.010559941 -0.0058822036 0.09830322
-0.018290747 -0.019332403 -0.07507537 -0.055306412 0.13231014 -1.728733e-13 0.041563664 -0.01037676
-0.08938386 0.06809606 -0.11053057 0.094209276 0.040663417 -0.045383763 -0.014970094 0.00095685665
0.052589785 0.010922433 1.7711187e-12 -0.028225465 -0.03794603 2.2891911e-06 0.0081038065 0.019222002
0.026201192 0.0504361 -0.1747829 0.09806308 -0.03141328 -0.20150086 0.10460067 -0.16239022
0.00429925 -0.0033012102 -0.055624492 -0.07121101 2.622849e-19 -0.006677647 -0.02884454 -0.027762821
0.05164091 0.115115866 -4.228934e-06 -0.04033957 -0.15723766 0.13371627 0.07938584 -0.14200208
0.08209409 0.00407119 -0.058166772 -9.426905e-06 -0.022631118 -0.14903864 -0.23824857 0.0743889
0.10188878 0.06823971 -0.02663259 0.15030149 -0.052600875 0.029307796 0.056951072 0.037744105
0.14422776 -0.08296268 0.1538135 0.05243509 0.024099138 -2.6158232e-17 0.04805228 -0.057236694
0.1187123 -0.06040981 -0.13209327 -0.19687632 -0.0022244146 0.08898223 -0.090232305 0.095846385
0.057812896 -0.07464944 -9.868687e-10 -0.041760314 -0.10419341 -3.8089678e-07 -0.18026997 0.03846572
0.07033137 0.08540556 0.017131235 0.041210033 0.17822973 0.13492726 -0.17118631 0.21880578
-0.11166281 -0.014453079 0.043728974 0.1541963 0.0005707104 0.007192922 -0.20416486 -0.1547972
-0.14009245 -0.19725463 -0.046948947 0.119940005 -0.046184342 -0.012326291 0.03065905 -0.024050858
-0.06523146 0.10336667 0.16469872 0.03576878 0.023202283 -0.22104931 0.07695099 -0.08191113
-0.16511492 -0.005404868 -0.054049198 0.038624007 -0.12741184 -0.19473895 -0.022643771 -0.027568717
-0.038124163 -0.08543091 -0.02545673 0.05940546 0.033689946 2.1192413e-05 0.021335686 -0.22708909
0.18213204 -0.19451305 0.07612488 0.13471264 -0.06929369 -0.2452805 0.022369592 0.11652012
0.0023115815 0.058455773 -0.00291843 1.3247167e-07 -0.007219503 0.008217145 0.07960629 -0.018957425
-0.012908891 0.007203678 -0.0064148437 0.00013865196 -0.0010927839 0.041429933 0.033624817 -0.0017469312
-0.006225691 -0.0022283643 -0.0061969277 -0.010335751 -0.00056407345 -0.06418754 -0.048236962 -0.00042590054
-0.009352929 0.0574888 0.016169043 -0.012437885 -0.018535903 0.0005098577 -0.0112005165 -0.08740569
-0.006312692 -0.0026378233 -0.00968278 0.00014769357 -3.6697113e-08 0.0019741654 0.021200657 9.351855e-06
-0.04038204 -0.023395361 -0.00028777696 -0.00029587626 -0.017725682 -0.011821419 0.036854945 -0.031611316
-0.0022539021 2.1182122e-22 -0.0056578396 -0.004196632 -0.062282354 -6.569207e-17 -0.00010640674 -0.000117054115
-0.0020152393 -0.0053675952 -0.00052954885 -0.022098994 0.04720246 -0.011976107 -0.011084859 0.0059323423
00000000: f440 3c3d ad9b b73d b5ca 3233 fe52 ccbc
00000010: a510 8a3d c22a 55ba f11b 273d 29d5 173e
00000020: 5da1 813d ec2d 313d b039 8039 7743 193e
00000030: 2321 03be 895b 9d3c f6b1 fa3d bd72 54be
00000040: 81a9 64bd 8334 8c3b e55a cb3d 9edb d6bd
00000050: 0167 243b d235 f43c f92e bbbd 7861 39bd
00000060: 2f87 babd 9c31 363c 13ea cebb 83b5 cbbd
00000070: 54fd 20bd a47d 13bd e113 a1bd e9ec 2f3a
00000080: c99b 213d 3496 c03d 1c45 2cbe f558 efba
00000090: 4668 413d 7401 44bd fcf8 b6bd 4f13 793d
000000a0: b216 003e c9f2 5c3d 4c43 bf3d dc1f 923c
000000b0: d677 123e 9a03 2dbc 80bf c0bb 3353 c93d
000000c0: 7ad6 95bc fd5e 9ebc 1ec1 99bd fa88 62bd
000000d0: 4f7c 073e 56a3 42aa a93e 2a3d 4903 2abc
000000e0: e30e b7bd f275 8b3d da5d e2bd cbf0 c03d
000000f0: af8e 263d 53e4 39bd 2045 75bc 90d5 7a3a
00000100: 6368 573d 01f4 323c 4743 f92b 1739 e7bc
00000110: 4c6d 1bbd 01a0 1936 d4c5 043c 7677 9d3c
00000120: e2a3 d63c 1696 4e3d 4afa 32be 4cd5 c83d
00000130: 36ab 00bd 3e56 4ebe e038 d63d 9f49 26be
00000140: b9e0 8c3b 1e59 58bb 82d6 63bd 14d7 91bd
00000150: 60d3 9a20 2ad0 dabb 624b ecbc db6e e3bc
00000160: 6b85 533d dec1 eb3d 44e6 8db6 1b3b 25bd
00000170: e902 21be ebec 083e 0b95 a23d fe68 11be
00000180: f220 a83d 9e67 853b 4840 6ebd 4028 1eb7
00000190: e564 b9bc 969d 18be 6ff7 73be 3559 983d
000001a0: 11ab d03d 43c1 8b3d 972c dabc a2e8 193e
000001b0: 0474 57bd e716 f03c 8745 693d 9099 1a3d
000001c0: 71b0 133e 56e8 a9bd 4981 1d3e 2dc6 563d
000001d0: 8e6b c53c 6144 f1a3 78d2 443d 0671 6abd
000001e0: 6f1f f33d 4770 77bd 7543 07be f299 49be
000001f0: 7cc7 11bb 513c b63d b7cb b8bd 1c4b c43d
00000200: 37cd 6c3d cee1 98bd 5ba2 87b0 dd0c 2bbd
00000210: 5b63 d5bd 0e7e ccb4 b198 38be 3b8e 1d3d
00000220: e509 903d 1ce9 ae3d ce56 8c3c dacb 283d
00000230: db81 363e 5f2a 0a3e 774b 2fbe 9f0e 603e
00000240: 79af e4bd 9bcc 6cbc 271d 333d a3e5 1d3e
00000250: ba9b 153a 9ab2 eb3b 9810 51be 2883 1ebe
00000260: 6574 0fbe 1efd 49be 8a4d 40bd 1ba3 f53d
00000270: cb2b 3dbd 36f4 49bc b028 fb3c 4e06 c5bc
00000280: 1298 85bd e8b1 d33d c8a6 283e 4982 123d
00000290: b712 be3c c05a 62be 7b98 9d3d 06c1 a7bd
000002a0: e313 29be 521b b1bb b162 5dbd 3534 1e3d
000002b0: 4078 02be a669 47be 6e7f b9bc cad7 e1bc
000002c0: 1528 1cbd 67f6 aebd a28a d0bc 2453 733d
000002d0: 78fe 093d 5cc6 b137 2dc8 ae3c 0b8a 68be
000002e0: d280 3a3e 6e2e 47be 5ce7 9b3d 1cf2 093e
000002f0: dae9 8dbd d02a 7bbe 6f40 b73c 1aa2 ee3d
00000300: e77d 173b 526f 6f3d 2143 3fbb 893d 0e34
00000310: 9591 ecbb 34a1 063c 9f08 a33d 9a4c 9bbc
00000320: d07f 53bc d50c ec3b 9c33 d2bb 1a63 1139
00000330: be3b 8fba 6fb2 293d 2dba 093d 49f9 e4ba
00000340: e200 ccbb c009 12bb 990f cbbb 4857 29bc
00000350: 54de 13ba c274 83bd 1f94 45bd 674b dfb9
00000360: 073d 19bc 6079 6b3d f174 843c 45c8 4bbc
00000370: 9bd8 97bc f9a7 053a 5f82 37bc c101 b3bd
00000380: b3da cebb 55df 2cbb 86a4 1ebc 31de 1a39
00000390: e79c 1db3 0061 013b 00ad ad3c e9e5 1c37
000003a0: a367 25bd a1a7 bfbc c5e0 96b9 d71f 9bb9
000003b0: 7335 91bc a0ae 41bc 36f5 163d de7a 01bd
000003c0: 34b6 13bb bf09 801b 6665 b9bb e783 89bb
000003d0: c81b 7fbd c179 97a4 af26 dfb8 f37a f5b8
000003e0: 1b12 04bb a7e2 afbb 6cd1 0aba f308 b5bc
000003f0: 5e57 413d 6f37 44bc 459d 35bc 1864 c23b

bias f4 [32]
0.13186462 0.046863925 0.014488451 0.0075056627 0.09140098 0.09979437 0.043317642 -0.015468508
-0.07339106 0.100271925 -0.0004924761 0.10655739 0.06250649 -2.2409996e-22 0.0027085866 -0.09511464
0.04442461 0.08299162 -0.112880774 -0.0019202097 0.04029745 0.11350671 -0.052059468 -0.011326154
-0.0055299858 -0.031873748 -0.022271778 -0.003234621 -0.008970217 -0.07260671 -0.08466521 0.04964987
00000000: 8507 073e 63f4 3f3d f860 6d3c 10f2 f53b
00000010: 7030 bb3d fe60 cc3d d76d 313d a06f 7dbc
00000020: 0d4e 96bd 5e5b cd3d 8319 01ba c33a da3d
00000030: 6703 803d ca75 879b 8b82 313b 77cb c2bd
00000040: 94f6 353d 83f7 a93d 092e e7bd 8caf fbba
00000050: f00e 253d 3576 e83d 4f3c 55bd 5591 39bc
00000060: e234 b5bb 0c8e 02bd 4e73 b6bc effb 53bb
00000070: d1f7 12bc d4b2 94bd f464 adbd a95d 4b3d

weight f4 [8, 32]
-0.036843486 -1.9091006e-22 -8.822758e-19 -0.001579082 -0.008801743 -0.0048899273 -4.7514574e-22 3.6828038e-07
-6.573351e-20 0.043685686 -0.012769542 1.716045e-17 1.4224284e-07 -1.719462e-22 0.0076583307 -0.00071241346
0.010823426 -0.033763714 -1.3209868e-19 1.0765212e-22 -0.013548683 4.981143e-07 0.04742591 6.5926686e-10
0.008675077 -0.015672175 -0.00943382 -0.0029311026 -0.038911216 -0.0406679 0.013459172 -0.039346967
0.056930654 -0.06711319 -0.111324094 0.014312738 0.10813033 0.12712985 -0.1780443 0.0149742
-0.1823239 -0.012857675 0.15876195 -0.13717782 0.067278735 0.0028383594 0.0842226 0.13969071
-0.015188469 0.06252345 -0.14392896 -0.0008102002 -0.15234664 -0.09406486 -0.010176115 0.12645538
-0.11414759 0.08819186 -0.07348301 -0.09984246 0.003503404 -0.05485584 -0.2543616 -0.10434188
0.15154886 -0.04359645 -0.2857284 0.03890998 0.08943948 0.13043879 -0.19468455 0.15824173
-0.28961754 -0.0626846 0.076129824 -0.10722705 0.09917724 -0.027068127 0.18297534 0.14746797
-0.029640265 -0.06960364 -0.18356046 -0.016999776 -0.03730655 0.08750677 0.020614902 0.13952632
0.0121792 0.06420609 -0.29042003 -0.06942355 0.012506222 -0.19217882 0.003979776 -0.25004223
-0.12383049 0.013965652 0.3005937 -0.00034105664 0.032005627 -0.046075765 0.25431067 0.1388947
0.09316113 6.557716e-08 -0.026414316 0.13221861 0.11799636 0.011690804 -0.19605446 -0.15892112
-0.04217168 -0.1483449 -0.030732658 -0.040891673 0.28011712 0.041034024 -0.02163492 0.086327
0.06920623 0.14459781 0.05438487 -0.008150539 -0.009800757 0.110562876 0.28503308 0.15241666
0.018714823 0.054821115 -0.042814165 0.016671345 -0.15303771 0.038599912 0.034021683 0.07020712
0.10666025 -0.016029673 0.03680423 -0.17980006 -0.09447554 0.041440424 0.116040014 0.06535731
-0.038070988 0.03143009 0.093135886 0.031615507 -0.08927687 -0.14580296 -0.021575142 -0.09164099
-0.015487928 -0.15287177 -0.033668656 0.11871119 0.040312137 0.15718612 0.0035915077 0.11487111
0.14736143 -0.1808272 0.00025702541 0.020511013 0.14795426 -0.16333269 0.20184751 0.11315196
0.29990545 -0.059577 0.14256975 -0.03440587 -0.0015969106 0.000943505 -0.18907717 -0.17741467
0.026507402 -0.2051707 -0.05416243 -6.804307e-13 0.15886627 0.13469951 0.002536961 -0.07574861
0.24798901 0.18171093 0.36275557 -0.18586342 -0.05204682 -0.043394476 0.24328804 0.17634667
0.16382879 0.17458616 -0.31143308 -0.040716834 0.11921426 0.0063460604 -0.1366488 0.16033642
-0.24703106 -0.120692 0.21060213 0.12097847 0.12769017 -0.0010092175 0.10342757 -0.06803112
-0.056009337 0.05451922 -0.15772629 0.039199926 -0.26150715 -0.1351156 0.026685901 0.19407925
-0.19481158 0.035206147 -0.18233693 0.14310442 0.052330613 -0.10890539 -0.22185205 -0.2812015
-0.106903404 0.046777055 -0.149616 -8.228514e-22 -0.026683306 -0.026883835 0.03692275 -0.035539247
0.02016355 -0.04793305 0.13549705 -0.14484544 0.1577207 0.0012892826 0.10427055 0.1967727
-0.0040158685 0.20934165 -0.060196616 7.484165e-08 -0.27185035 -0.053462155 -0.084476925 -0.03615299
-0.24751355 0.036201004 -0.11441139 -0.020269 -0.03180352 -0.1545726 -0.24619555 -0.011327249
00000000: 32e9 16bd cdcb 669b 7033 82a1 33f9 ceba
00000010: 3035 10bc af3b a0bb 9f9a 0f9c 12b8 c534
00000020: 7835 9b9f c3ef 323d 5737 51bc f846 9e23
00000030: 6abb 1834 c5de 4f9b bcf2 fa3b 42c1 3aba
00000040: bd54 313c d24b 0abd 60f4 1ba0 b824 021b
00000050: 4cfb 5dbc 27b6 0535 ac41 423d c837 3530
00000060: e921 0e3c ef62 80bc 4f90 1abc be17 40bb
00000070: 5e61 1fbd 6293 26bd dc83 5c3c 492a 21bd
00000080: 1e30 693d a472 89bd e3fd e3bd f97f 6a3c
00000090: 6f73 dd3d 542e 023e 3f51 36be 5956 753c
000000a0: 1eb3 3abe ffa8 52bc 7e92 223e 5878 0cbe
000000b0: 6fc9 893d c503 3a3b e67c ac3d 150b 0f3e
000000c0: 0ed9 78bc 4b0c 803d 1d62 13be 9d63 54ba
000000d0: c200 1cbe 14a5 c0bd b8b9 26bc 857d 013e
000000e0: 36c6 e9bd ef9d b43d 437e 96bd 347a ccbd
000000f0: 5e99 653b 84b0 60bd af3b 82be 32b1 d5bd
00000100: a02f 1b3e 3192 32bd fe4a 92be 1260 1f3d
00000110: 0c2c b73d bf91 053e 635b 47be 1f0a 223e
00000120: c048 94be c960 80bd f4e9 9b3d db99 dbbd
00000130: 701d cb3d fabd ddbc e35d 3b3e d801 173e
00000140: 24d0 f2bc 5a8c 8ebd 46f7 3bbe 1d43 8bbc
00000150: c1ce 18bd c036 b33d 95e0 a83c fddf 0e3e
00000160: 448b 473c 7c7e 833d efb1 94be ef2d 8ebd
00000170: e6e6 4c3c 86ca 44be c868 823b 8905 80be
00000180: d79a fdbd 31d0 643c 6be7 993e d9cf b2b9
00000190: 5518 033d f1b9 3cbd 0235 823e 6a3a 0e3e
000001a0: 43cb be3d 6dd3 8c33 d662 d8bc 5164 073e
000001b0: 13a8 f13d c98a 3f3c 80c2 48be 38bc 22be
000001c0: 36bc 2cbd bae7 17be 0ec3 fbbc 077e 27bd
000001d0: 836b 8f3e 4b13 283d b73b b1bc 36cc b03d
000001e0: ffbb 8d3d 7311 143e abc2 5e3d d789 05bc
000001f0: 5b93 20bc ca6e e23d dbef 913e 1d13 1c3e
00000200: d44f 993c 1b8c 603d e85d 2fbd 5892 883c
00000210: ebb5 1cbe f11a 1e3d 525a 0b3d c0c8 8f3d
00000220: b070 da3d a950 83bc 08c0 163d 821d 38be
00000230: 647c c1bd 6fbd 293d 63a6 ed3d 0eda 853d
00000240: 53f0 1bbd d7bc 003d 07be be3d 437f 013d
00000250: cbd6 b6bd 5f4d 15be 5abe b0bc 45ae bbbd
00000260: 14c1 7dbc 6b8a 1cbe 25e8 09bd da1e f33d
00000270: 571e 253d 66f5 203e 805f 6b3b 8b41 eb3d
00000280: eae5 163e c42a 39be 5ec1 8639 b606 a83c
00000290: 5281 173e af40 27be 1db1 4e3e 37bc e73d
000002a0: 358d 993e 0307 74bd cefd 113e 2bed 0cbd
000002b0: 6e4f d1ba 8c55 773a 729d 41be 31ac 35be
000002c0: 0d26 d93c 4518 52be 6dd9 5dbd 3386 3fab
000002d0: d7ad 223e abee 093e 2543 263b 1622 9bbd
000002e0: d5f0 7d3e 6e12 3a3e 19bb b93e fb52 3ebe
000002f0: 0c2f 55bd 68be 31bd 8020 793e 3994 343e
00000300: bcc2 273e b7c6 323e 2874 9fbe b2c6 26bd
00000310: 9b26 f43d 9df2 cf3b aaed 0bbe 3b2f 243e
00000320: b6f5 7cbe 5e2d f7bd 16a8 573e 8fc3 f73d
00000330: 36c1 023e b847 84ba d5d1 d33d e653 8bbd
00000340: 0c6a 65bd 8c4f 5f3d 0083 21be 1a90 203d
00000350: 44e4 85be be5b 0abe 649c da3c b6bc 463e
00000360: b07c 47be 5234 103d 88b6 3abe f789 123e
00000370: a058 563d ca09 dfbd 2f2d 63be a5f9 8fbe
00000380: 2cf0 dabd 4c99 3f3d f034 19be 0bb1 789c
00000390: f396 dabc 7d3b dcbc 4f3c 173d 9a91 11bd
000003a0: 072e a53c 7255 44bd bdbf 0a3e 5d52 14be
000003b0: 8981 213e 25fd a83a cc8b d53d c87e 493e
000003c0: 8c97 83bb a85d 563e ba90 76bd a2b8 a033
000003d0: f82f 8bbe 22fb 5abd 3d02 adbd 2815 14bd
000003e0: 3174 7dbe 8147 143d 8550 eabd 2d0b a6bc
000003f0: 6844 02bd 4848 1ebe b01a 7cbe ed95 39bc

bias f4 [8]
-0.03540105 0.06421166 0.111066766 -0.09710157 -0.15173799 0.07724178 0.003302952 0.068602555
00000000: b100 11bd 6781 833d f976 e33d 30dd c6bd
00000010: 3461 1bbe f030 9e3d 5776 583b 7f7f 8c3d

weight f4 [1, 8]
0.10038147 0.09276064 0.14002448 -0.24409354 0.00589896 -0.17427719 0.20934936 0.18501432
00000000: cd94 cd3d 4af9 bd3d 9462 0f3e a8f3 79be
00000010: 104c c13b b875 32be ae5f 563e 6574 3d3e

weight f4 [8, 1]
0.9281122 0.37751594 -0.22636603 0.7877075 0.9162371 0.9574851 0.2840842 -0.04106031
00000000: c398 6d3f c549 c13e 7fcc 67be 33a7 493f
00000010: 848e 6a3f be1d 753f 7c73 913e db2e 28bd

bias f4 [8]
0.5813078 -0.2318119 -0.6171654 -0.12928921 0.9201324 -0.8616124 -0.60557723 0.53705835
00000000: 97d0 143f 1960 6dbe 8dfe 1dbf 6464 04be
00000010: cc8d 6b3f a192 5cbf 1c07 1bbf a87c 093f

weight f4 [32, 8]
0.40178978 0.1961432 -0.095133826 -0.14529422 0.29440698 0.23434544 0.10723627 0.30652857
-0.19942269 1.3906974e-05 -0.14971104 0.034540113 -0.056189112 0.1426551 0.15913406 0.00020354596
0.38980302 -0.19463164 -0.1928351 0.11716967 -0.077788405 -0.05954576 -0.03289129 0.2345417
0.146311 0.1499329 0.008201574 -0.063764125 -0.19796531 -0.023048604 1.3383427e-15 -0.214706
0.17593554 0.19874692 0.18499799 0.28270295 -0.28585026 0.052177466 0.34487814 0.23158363
-0.12495831 -0.29515967 0.015792083 0.030952541 0.14845541 -0.19251347 -0.046283595 0.22840643
0.29201192 0.3366019 -0.16215129 0.08544954 -0.01730669 0.12072474 0.03209432 -0.024779547
-0.0047773854 0.13750029 -0.2420284 7.896078e-22 -0.18688278 -0.027379448 -0.20325606 0.21999818
-0.23790175 -0.23436673 -0.07915107 -0.06417372 0.28758818 0.005129125 -0.21613248 -0.0009718419
-0.0075614313 0.077992894 0.38677967 2.6993094e-17 -0.22847074 -0.0034515595 -0.121818066 0.1291956
0.12922429 -0.073873825 -0.010527805 -0.22899903 0.15838404 -0.09601634 -0.067409016 0.34710568
-0.17691304 -0.22177485 0.07028132 -0.24727511 0.42101142 -0.1817017 -0.2027122 0.3576565
-0.014022178 0.18979985 -0.29696125 0.11520415 0.36173543 -0.046475817 0.15189795 -0.014954886
-0.005250453 -0.0044998005 0.09295303 0.17918845 -0.079231806 -0.09709522 0.05992439 -0.21524538
-0.15173988 0.18929009 0.25118327 0.092459194 -0.14676556 -0.099177994 0.06252888 0.2301152
0.21747828 0.06606631 -0.24264026 0.18340802 0.018176112 0.04550338 -0.2261421 -0.1359981
-0.052536186 -0.3375662 -0.07834575 0.1994899 -0.15312189 -0.15643193 -5.5024054e-07 0.30537027
-0.18501371 0.22421587 -0.25379312 0.021422185 0.36153296 -0.06729603 -0.2668834 0.23617694
-0.084170595 1.0348786e-05 -0.1812026 -0.17955844 -0.098072045 0.00018444794 0.050727915 -0.039629634
0.22700562 -0.26673934 -0.03490421 0.018533668 0.25692824 -0.01764754 -0.370276 -0.01707098
0.36084756 -0.23171614 -0.06907088 -0.13216992 0.13912918 -0.2284958 0.18192397 0.034908388
0.34504184 0.31644672 -1.7293287e-05 0.3472196 -0.09057528 0.3043677 0.105548136 0.11520475
-0.03268486 -0.10790166 0.15617944 -0.14646421 0.38924858 0.2680795 0.35546914 -0.17431758
-0.106892206 -0.067078345 0.20719233 -0.012559378 0.058535308 -0.19524351 0.081653826 0.37583315
0.2197992 0.1942588 -0.115087844 -0.023481078 0.18611749 0.07241531 0.22736369 -0.10325644
-0.2662505 -0.27005348 -0.108446196 -0.34779292 0.29123992 -0.22774725 0.109328575 0.49410808
-0.23127876 -7.8650344e-05 0.21621652 0.060699828 -0.09861186 -0.00094360474 -0.015046381 0.13128921
-0.17010678 0.0047443295 -0.19340861 -0.1374132 -0.049648553 -0.0954456 4.0676988e-22 0.040561963
0.04180494 -0.28109136 0.1549706 -0.330466 -0.04468736 0.2409779 0.18785487 0.09923232
-0.0688626 1.0577164e-05 0.2207013 -0.06523061 -0.20711565 1.1819003e-19 0.0792408 0.19802302
0.15957673 0.3475784 0.07091665 -0.04662807 -0.13124809 0.36038125 0.097868934 -0.25347853
0.10216026 -0.043392707 0.17608546 -0.17478208 -0.109042585 9.661902e-07 0.001660009 0.092664324
00000000: 64b7 cd3e c3d9 483e 86d5 c2bd 02c8 14be
00000010: 83bc 963e 40f8 6f3e b19e db3d 50f1 9c3e
00000020: 7635 4cbe 0052 6937 da4d 19be ef79 0d3d
00000030: 8e26 66bd 2e14 123e 0af4 223e f46e 5539
00000040: 4394 c73e 844d 47be 9176 45be a7f6 ef3d
00000050: 874f 9fbd 41e6 73bd 04b9 06bd b32b 703e
00000060: 8dd2 153e 0388 193e e55f 063c c496 82bd
00000070: 6bb7 4abe 6dd0 bcbc 21e0 c026 e4db 5bbe
00000080: 7228 343e 5084 4b3e 1d70 3d3e 71be 903e
00000090: f75a 92be 0ab8 553d de93 b03e 4224 6d3e
000000a0: 24ea ffbd 2b1f 97be 665e 813c 2f90 fd3c
000000b0: b204 183e 4022 45be de93 3dbd 60e3 693e
000000c0: 9682 953e 1657 ac3e fd0a 26be 2b00 af3d
000000d0: c2c6 8dbc 883e f73d 5575 033d 7afe cabc
000000e0: 9d8b 9cbb e0cc 0c3e 4bd6 77be f2a4 6e1c
000000f0: 335e 3fbe dd4a e0bc 5b22 50be 3447 613e
00000100: 849c 73be d5fd 6fbe f519 a2bd 836d 83bd
00000110: c23e 933e 3812 a83b d551 5dbe 35c3 7eba
00000120: e2c5 f7bb bdba 9f3d fc07 c63e a4f7 f823
00000130: 3cf4 69be 8f33 62bb c07b f9bd da4b 043e
00000140: 5f53 043e 294b 97bd d17c 2cbc b97e 6abe
00000150: 6d2f 223e 37a4 c4bd bd0d 8abd d6b7 b13e
00000160: b128 35be f218 63be a7ef 8f3d b035 7dbe
00000170: cf8e d73e 0310 3abe c993 4fbe c11e b73e
00000180: 47bd 65bc e45a 423e 4e0b 98be 27f0 eb3d
00000190: 6335 b93e 6d5d 3ebd 238b 1b3e 5705 75bc
000001a0: fe0b acbb 1073 93bb 285e be3d 2d7d 373e
000001b0: 4944 a2bd dcd9 c6bd 4773 753d 4969 5cbe
000001c0: b361 1bbe 43d5 413e 189b 803e 3f5b bd3d
000001d0: b649 16be d51d cbbd 240f 803d 52a3 6b3e
000001e0: a0b2 5e3e c64d 873d b076 78be 50cf 3b3e
000001f0: 12e6 943c c161 3a3d cb91 67be 1643 0bbe
00000200: 2f30 57bd 7ad5 acbe bd73 a0bd 1547 4c3e
00000210: fccb 1cbe b12f 20be 3eb4 13b5 7e59 9c3e
00000220: 3c74 3dbe d898 653e 2cf1 81be 947d af3c
00000230: d91a b93e 80d2 89bd f1a4 88be 5ed8 713e
00000240: a261 acbd b39f 2d37 2d8d 39be 2bde 37be
00000250: ffd9 c8bd 5e68 4139 13c8 4f3d af52 22bd
00000260: 2974 683e 0f92 88be b8f7 0ebd ebd3 973c
00000270: 198c 833e 9391 90bc d194 bdbe 71d8 8bbc
00000280: 03c1 b83e ff46 6dbe 0975 8dbd 8d57 07be
00000290: e177 0e3e cefa 69be 474a 3a3e 19fc 0e3d
000002a0: 53a9 b03e 4e05 a23e 0d11 91b7 c4c6 b13e
000002b0: 887f b9bd 15d6 9b3e 9f29 d83d 78f0 eb3d
000002c0: 8fe0 05bd 8cfb dcbd 81ed 1f3e b7fa 15be
000002d0: 974b c73e b741 893e 0d00 b63e 4f80 32be
000002e0: 4dea dabd 5f60 89bd 3a2a 543e d9c5 4dbc
000002f0: b8c2 6f3d eaed 47be 1f3a a73d 346d c03e
00000300: 0b13 613e c7eb 463e 2db3 ebbd 645b c0bc
00000310: 9595 3e3e 7a4e 943d 07d2 683e 1d78 d3bd
00000320: fc51 88be 7344 8abe 0a19 debd ea11 b2be
00000330: 661d 953e 9336 69be a9e7 df3d bcfb fc3e
00000340: 57d4 6cbe 15f1 a4b8 dd67 5d3e 62a0 783d
00000350: 04f5 c9bd 3e5c 77ba 1985 76bc ae70 063e
00000360: 7930 2ebe 5276 9b3b e80c 46be 0cb6 0cbe
00000370: 485c 4bbd fc78 c3bd 97e0 f51b 4d24 263d
00000380: a83b 2b3d 35eb 8fbe 9db0 1e3e d732 a9be
00000390: 180a 37bd e9c2 763e 075d 403e 513a cb3d
000003a0: d607 8dbd 9374 3137 86ff 613e a097 85bd
000003b0: 2016 54be bf88 0b20 0049 a23d 8cc6 4a3e
000003c0: 1568 233e ccf5 b13e c03c 913d 13fd 3ebd
000003d0: e665 06be e483 b83e 826f c83d f0c7 81be
000003e0: 6639 d13d 8dbc 31bd bf4f 343e 13fa 32be
000003f0: b851 dfbd 0bae 8135 a994 d93a cbc6 bd3d

bias f4 [32]
-0.2040921 -0.0009012513 -0.09109319 0.30139375 -0.09023069 0.37467325 -0.3232647 -0.07273302
0.22030224 -0.0037531774 0.38003203 0.18861623 0.051271256 -0.020349892 0.39198554 0.43792725
0.47315675 -0.080685645 5.812912e-08 0.16799857 0.1879156 -0.330953 -0.18287401 -0.13116534
-0.0003263959 0.39586434 0.0034870738 -0.036808703 -0.039068736 -0.018173387 -0.07990508 -0.024745397
00000000: 85fd 50be f341 6cba 118f babd 4850 9a3e
00000010: deca b8bd 2cd5 bf3e f382 a5be 0df5 94bd
00000020: e996 613e def7 75bb 8f93 c23e 9d24 413e
00000030: cf01 523d d1b4 a6bc 54b2 c83e 0038 e03e
00000040: 9a41 f23e 843e a5bd a5a9 7933 d107 2c3e
00000050: f26c 403e ac72 a9be 5343 3bbe 3550 06be
00000060: 1e20 abb9 bbae ca3e 6487 643b b9c4 16bd
00000070: 8a06 20bd 5be0 94bc 46a5 a3bd dcb6 cabc

weight f4 [64, 32]
0.13489477 -0.00027713028 -0.012468182 0.039482296 -0.14981323 -0.0997101 -0.023723226 -0.115003034
-0.08976241 0.02733628 0.25584072 0.004541332 0.19391748 -0.015742792 -0.16021429 0.09981636
-0.18731737 0.031820107 -0.00020889916 0.22799669 0.29159188 -0.04092464 0.014597263 -0.03888008
0.14461918 -0.008506792 0.08053673 1.2716971e-19 -0.06748284 0.018041419 -0.11857684 0.027028792
-0.16242714 -0.0060176007 0.04479141 -0.07986862 -0.11944224 0.24490413 0.12736252 0.07188318
0.085251816 -0.06842499 0.16736531 0.21598554 0.035051852 -0.022621626 0.13027275 -0.096575625
0.0043177153 -0.17800055 0.041342154 0.04895394 -0.15416396 0.06435854 -0.029811189 -0.094443694
0.14455679 0.13138595 -0.054943617 0.06703784 -0.109410875 0.0207693 -0.058311574 -0.134857
0.06090015 0.0006205983 0.16898759 -0.028385846 0.21497646 -0.27085984 0.20485172 0.023233209
-0.14577447 1.166572e-06 -0.098163344 -0.16033451 0.14230883 0.044418786 -0.038944893 0.08223758
-0.18671264 -0.030110314 0.0008941318 -0.06654067 0.052355487 -0.0813243 0.10728628 -0.026996845
0.12280657 -0.18351005 -0.04706005 -0.014341818 0.078365594 1.1652371e-08 0.07192574 0.01504147
-0.041782405 -0.02725383 0.20348704 -0.12846707 0.13042694 -0.08901352 -0.098999515 -0.044821087
0.10778514 0.034151413 -0.09412328 -0.07031063 0.14364797 -0.02230081 -0.17580622 -0.10297013
-0.21814553 0.12020569 0.024550179 -0.056334585 -0.047015946 0.19964465 0.16294771 0.008968502
0.025578257 -0.11498315 -0.021332396 -0.0078023635 -0.12294823 -1.9509549e-20 -0.027368885 -0.031187236
-0.038495027 0.017391482 0.0023362506 -0.00034212883 -0.0018030325 -0.015962059 -6.6585947e-18 -7.780958e-07
-0.00013838118 0.039768357 -0.008598863 -0.0023966501 9.247067e-15 -0.00012033027 -0.024028713 -3.438861e-08
-0.00010762198 3.1799141e-21 6.7413384e-06 0.024866588 5.535581e-19 0.0022928363 0.011177486 0.02361759
3.828199e-18 -0.0010259004 -0.004298777 0.0035340139 -0.0004428971 -0.0074713146 -0.00033687672 0.0033234665
-0.11040863 4.4220417e-22 -0.07773981 0.22224182 -0.0087820375 0.25625494 -0.25181377 0.122985676
0.07629957 -0.008603407 0.27114567 0.28962883 0.13154283 -0.04801609 0.039424654 0.020879418
0.035469387 0.0005302419 0.04146466 -0.065576866 0.17081125 -0.010857754 -0.100623846 -0.05796378
-0.0940974 0.100897335 0.046187736 0.094072424 -0.11370699 -0.006293854 -0.16121556 -0.08625707
-0.012393915 0.036227718 0.017894858 5.6206108e-18 -0.11200131 -0.024718573 0.14652143 -0.00025974886
-0.013488715 -1.5319916e-06 -0.12858707 -0.003343578 -0.010936105 0.002456317 -9.831604e-15 -0.1435681
-0.01175171 0.14770275 0.038350113 -0.16062121 0.0043325443 0.11884751 -0.1039738 -1.3416214e-09
0.036803547 0.0486491 -1.8255805e-16 -0.0003282157 0.008460017 1.850379e-12 -0.056645747 0.004188547
0.07706664 0.004597956 0.01209031 0.17294103 0.12476629 0.21992667 -0.012412749 0.04801675
0.11158087 0.011213174 0.20849794 0.30795366 -0.08618203 -0.02437923 0.14939906 0.02064469
0.042869583 -0.12868059 0.02213382 -0.08941852 0.20825261 -0.077322304 -0.10050882 0.042150047
0.08735758 0.02150945 -0.12924846 -0.05721112 -0.0067563774 -0.06369404 -8.275431e-05 -0.09086985
00000000: db21 0a3e cc4b 91b9 5847 4cbc 30b8 213d
00000010: a468 19be cf34 ccbd 3657 c2bc b686 ebbd
00000020: 5bd5 b7bd 56f0 df3c 8efd 823e 74cf 943b
00000030: 4e92 463e 07f7 80bc 370f 24be 856c cc3d
00000040: 20d0 3fbe cd55 023d f10b 5bb9 f777 693e
00000050: 884b 953e 98a0 27bd 5c29 6f3c b840 1fbd
00000060: 0d17 143e 1260 0bbc 71f0 a43d b022 1620
00000070: 7134 8abd 99cb 933c 6ad8 f2bd 7c6b dd3c
00000080: 4d53 26be 4b2f c5bb 3377 373d 2992 a3bd
00000090: 229e f4bd 26c8 7a3e 526b 023e 7d37 933d
000000a0: 8198 ae3d 6722 8cbd d061 2b3e 502b 5d3e
000000b0: 8892 0f3d fd50 b9bc 3866 053e 71c9 c5bd
000000c0: 9f7b 8d3b c745 36be 6456 293d ed83 483d
000000d0: 28dd 1dbe 69ce 833d 9836 f4bc b26b c1bd
000000e0: b206 143e 0a8a 063e 8f0c 61bd 234b 893d
000000f0: cf12 e0bd 6124 aa3c 1ed8 6ebd f417 0abe
00000100: 7072 793d a6af 223a 150b 2d3e 6f89 e8bc
00000110: ca22 5c3e 24ae 8abe a6c4 513e 9253 be3c
00000120: e745 15be 1c93 9c35 dd09 c9bd bb2e 24be
00000130: 68b9 113e 79f0 353d ae84 1fbd 2d6c a83d
00000140: 9931 3fbe e8a9 f6bc 2b64 6a3a 7a46 88bd
00000150: b572 563d 5b8d a6bd e9b8 db3d 7d28 ddbc
00000160: 0382 fb3d 0fea 3bbe 0ac2 40bd f2f9 6abc
00000170: 247e a03d ab2f 4832 cd4d 933d 7f70 763c
00000180: 0724 2bbd 6d43 dfbc e85e 503e df8c 03be
00000190: a48e 053e b84c b6bd 42c0 cabd 5196 37bd
000001a0: 75be dc3d 5ae2 0b3d b5c3 c0bd 05ff 8fbd
000001b0: 7418 133e 30b0 b6bc 8c06 34be 01e2 d2bd
000001c0: 8b61 5fbe 672e f63d 751d c93c 18bf 66bd
000001d0: cb93 40bd a66f 4c3e c4db 263e a0f0 123c
000001e0: 7e89 d13c 497c ebbd 47c1 aebc f8aa ffbb
000001f0: 48cc fbbd 3243 b89e b634 e0bc 607c ffbc
00000200: f6ac 1dbd 9578 8e3c c81b 193b c15f b3b9
00000210: bb53 ecba ddc2 82bc a6a8 f5a2 56de 50b5
00000220: 6a1a 11b9 25e4 223d 3fe2 0cbc 1e11 1dbb
00000230: 9294 2628 d259 fcb8 ddd7 c4bc adb2 13b3
00000240: 1cb3 e1b8 7c44 701d a833 e236 04b5 cb3c
00000250: ab61 2321 6943 163b c621 373c ad79 c13c
00000260: 513c 8d22 8177 86ba c1dc 8cbb ea9a 673b
00000270: a434 e8b9 eed1 f4bb d49e b0b9 84ce 593b
00000280: eb1d e2bd e4a5 051c 0d36 9fbd 5c93 633e
00000290: 89e2 0fbc d933 833e bced 80be eadf fb3d
000002a0: f342 9c3d 4ef5 0cbc 9bd3 8a3e 3b4a 943e
000002b0: 2ab3 063e 85ac 44bd bf7b 213d 500b ab3c
000002c0: 5948 113d eeff 0a3a d9d6 293d 2a4d 86bd
000002d0: 25e9 2e3e b9e4 31bc e013 cebd 6e6b 6dbd
000002e0: 23b6 c0bd 43a3 ce3d 5a2f 3d3d 0ba9 c03d
000002f0: 36df e8bd ad3c cebb b115 25be 8ca7 b0bd
00000300: d90f 4bbc 8463 143d 3d98 923c 2b5d cf22
00000310: f160 e5bd 9b7e cabc b709 163e e72e 88b9
00000320: c5ff 5cbc d59e cdb5 54ac 03be ee1f 5bbb
00000330: 592d 33bc 29fa 203b 451c 31a8 8403 13be
00000340: 3f8a 40bc 643f 173e 0215 1d3d e379 24be
00000350: 04f8 8d3b 5366 f33d 37f0 d4bd 1b64 b8b0
00000360: 51bf 163d 4744 473d a079 52a5 5e14 acb9
00000370: e29b 0a3c 7735 022c 5f05 68bd 1440 893b
00000380: 1dd5 9d3d 73aa 963b 7016 463c 7417 313e
00000390: 7885 ff3d 7534 613e d85e 4bbc 36ad 443d
000003a0: 8384 e43d 76b7 373c 7c80 553e 1aac 9d3e
000003b0: 3480 b0bd f3b6 c7bc 11fc 183e 0e1f a93c
000003c0: 0498 2f3d d8c4 03be fc51 b53c 0f21 b7bd
000003d0: 2c40 553e 285b 9ebd 91d7 cdbd 87a5 2c3d
000003e0: 88e8 b23d 9634 b03c b559 04be 3556 6abd
000003f0: 9a64 ddbb 0572 82bd 628c adb8 f919 babd

bias f4 [64]
0.23390469 0.15719281 -0.13346913 0.17290168 -0.021773802 0.09677538 -0.09111724 0.2776633
2.0626167e-07 0.03912638 0.1585771 0.19598246 0.20015143 -0.21776329 0.14402775 0.26860213
-0.14088339 -0.08287021 0.16352028 0.24688032 -0.0033725977 -0.038951457 -0.047275603 0.13365869
0.21557328 0.177496 0.15234224 0.19442378 0.060931657 0.20091632 -0.17487387 0.15999524
-0.103272125 0.1894045 -0.055613045 0.19898811 0.14079125 0.21970154 0.17031911 0.020102635
0.049223017 0.16482806 0.12169535 0.022879193 0.13563463 0.11070052 0.13052604 0.15337026
-0.057675023 0.17201596 0.22395109 0.20766148 0.1181737 -0.058706887 0.06795958 -0.07306747
-0.05227264 0.096803874 -0.09963623 0.1212001 0.031321693 0.07732269 0.19376266 -0.0003771299
00000000: b684 6f3e 27f7 203e 22ac 08be 230d 313e
00000010: f95e b2bc 2c32 c63d ad9b babd e229 8e3e
00000020: c778 5d34 fc42 203d 0962 223e a0af 483e
00000030: 7ff4 4c3e 57fd 5ebe 037c 133e 3886 893e
00000040: bc43 10be dbb7 a9bd dc71 273e 32ce 7c3e
00000050: cd06 5dbb 908b 1fbd 10a4 41bd d3dd 083e
00000060: 3ebf 5c3e 83c1 353e 9bff 1b3e 0717 473e
00000070: 7993 793d 02bd 4d3e 2312 33be cbd5 233e
00000080: 5680 d3bd 41f3 413e 81ca 63bd 8ac3 4b3e
00000090: 952b 103e 71f9 603e 2268 2e3e 48ae a43c
000000a0: 139e 493d b0c8 283e 693b f93d 256d bb3c
000000b0: cee3 0a3e f4b6 e23d 9ea8 053e 180d 1d3e
000000c0: a53c 6cbd f424 303e 6f53 653e 36a5 543e
000000d0: 0e05 f23d a276 70bd 642e 8b3d 66a4 95bd
000000e0: d61b 56bd 1c41 c63d 140e ccbd c237 f83d
000000f0: 2d4b 003d 5c5b 9e3d b869 463e 85b9 c5b9
