model/2500.3191123306751251.pt (torch_old, 168315 bytes, 19 tensors)

weight f4 [256, 2]
-0.1951481 0.67003 0.44345284 0.1245332 -0.41975725 0.058892347 0.6963046 -0.51086473
-0.4657925 -0.21320602 -0.34416327 0.5549157 0.18776734 0.58011025 0.08587034 -0.42886284
0.2901337 0.054990027 0.3773269 -0.24960554 -0.26255426 0.4802976 -0.035574958 -0.4368005
-0.41491178 -0.6960166 0.3467366 -0.048852 -0.36072874 0.7034193 0.31738123 -0.25584462
-0.07770459 0.31568626 0.6032839 0.29363257 -0.66727924 0.13033439 0.3354828 -0.120382
0.40491903 -0.5637019 0.30122182 0.6457999 0.37089825 0.07181896 -0.78461087 -0.16359428
-0.43347916 -0.8246569 0.26771653 -0.38041562 0.066613466 0.66509086 0.03244195 0.015757779
-0.32584572 0.5952132 -0.3815785 0.644185 -0.43421003 -0.5409745 0.6811184 0.13261114
0.57286507 0.40162528 -0.24762906 0.605632 -0.78377974 -0.18386702 -0.070758134 0.29549488
0.75886834 -0.0027781972 -0.37944198 0.44534793 0.39785334 -0.5178789 -0.76102185 -0.11385181
-0.46945667 0.57006747 0.27784368 0.45061806 -0.23380205 -0.070687994 -0.324886 -0.31935763
0.7083158 0.12393604 -0.65019953 -0.18862598 -0.37808633 0.5560317 0.65455025 -0.71598387
0.43154743 -0.4574877 -0.08821429 0.25104454 -0.20591894 0.49068692 0.4473061 0.4381827
0.7005112 0.08783113 0.33901823 -0.19300434 -0.3864811 0.5716932 -0.58292544 0.58261204
0.3262025 0.29399475 -0.6203823 0.296376 -0.120621614 0.4927736 -0.612302 -0.5790622
-0.06962435 0.1840025 0.28733802 0.5332414 0.3139089 0.38171026 -0.28824598 0.3644663
-0.14357816 0.28669998 -0.35745856 -0.3084972 0.53797835 -0.48791924 -0.82697684 -0.10859461
-0.42226538 0.49396747 -0.38721266 0.04641382 -0.6813058 0.10778128 0.5711851 -0.65254694
0.57073987 -0.22635618 0.1660644 0.2756421 -0.4135326 0.59485763 -0.40085652 0.3143729
-0.105842814 0.11219669 0.091855995 -0.733508 -0.67861015 0.10933925 -0.2558618 0.2784244
0.43142068 -0.38295427 -0.468515 -0.5008138 0.26162538 0.029381484 0.520718 0.46308786
0.31342626 -0.34166414 0.52938306 -0.5120001 0.6576506 0.12801816 -0.3069209 -0.505017
-0.39287972 0.5403814 -0.15403144 0.6947995 0.20263706 0.2155822 0.22246978 -0.15623966
0.68126756 0.6117931 -0.46931472 0.44752783 0.40292257 -0.15110424 0.37596494 0.67021304
-0.061508354 0.71334493 0.44181636 -0.4674285 -0.049136832 -0.40001765 -0.3026943 0.1873018
0.77130544 -0.07653842 0.47437155 -0.5509291 0.5541011 0.30181667 -0.6381932 -0.6141485
0.19475527 0.5843019 -0.44035769 0.54180825 -0.43478125 -0.3936392 -0.48935658 0.6723618
-0.57300603 -0.51934165 0.071260564 -0.5581094 -0.2032074 0.51977473 -0.6286889 -0.21618034
0.50959814 0.4972707 -0.3744959 -0.10675065 -0.18386458 0.2533955 -0.43456215 -0.6372679
-0.14132412 0.26211905 -0.3973819 0.6410331 -0.23150285 0.39987403 -0.38420907 -0.5495998
-0.24889039 0.0073826686 0.63360435 -0.42347774 0.4204898 0.59876525 0.6770959 -0.16075416
0.69880843 -0.41924652 0.089179516 0.12679133 -0.57468265 0.7172746 0.03354794 0.53242135
00000000: e7d4 47be 1687 2b3f 400c e33e 430b ff3d
00000010: 6cea d6be 1a39 713d 0541 323f 08c8 02bf
00000020: 5b7c eebe ae52 5abe 2b36 b0be f50e 0e3f
00000030: 1546 403e 1b82 143f cadc af3d e993 dbbe
00000040: 688c 943e 393d 613d fe30 c13e 9898 7fbe
00000050: 836d 86be 91e9 f53e 0cb7 11bd 51a4 dfbe
00000060: 516f d4be 252e 32bf 7687 b13e 0919 48bd
00000070: 70b1 b8be 4a13 343f cb7f a23e 11fe 82be
00000080: 9623 9fbd a1a1 a13e d070 1a3f 0257 963e
00000090: d0d2 2abf 6176 053e 67c4 ab3e d78a f6bd
000000a0: 8c51 cf3e c54e 10bf bf39 9a3e 2453 253f
000000b0: 60e6 bd3e d215 933d 42dc 48bf 4285 27be
000000c0: fbf0 ddbe b71c 53bf 2412 893e d6c5 c2be
000000d0: a46c 883d 6543 2a3f dae1 043d 7516 813c
000000e0: 40d5 a6be e45f 183f 425e c3be 4fe9 243f
000000f0: c750 debe 4e7d 0abf c75d 2e3f 37cb 073e
00000100: 49a7 123f d4a1 cd3e 7992 7dbe b30a 1b3f
00000110: caa5 48bf a347 3cbe a4e9 90bd 1b4b 973e
00000120: 3245 423f 6a12 36bb 3846 c2be a504 e43e
00000130: 6fb3 cb3e b693 04bf 54d2 42bf 232b e9bd
00000140: a05c f0be f1ef 113f 8741 8e3e 69b7 e63e
00000150: ce69 6fbe dec4 90bd 7557 a6be d882 a3be
00000160: 2f54 353f 2ed2 fd3d 7a73 26bf 2b27 41be
00000170: 8894 c1be 1858 0e3f 9b90 273f b84a 37bf
00000180: c9f3 dc3e d43b eabe b2a9 b4bd e988 803e
00000190: 6adc 52be 513b fb3e 4e05 e53e 7c59 e03e
000001a0: b454 333f cfe0 b33d cc93 ad3e eea2 45be
000001b0: dae0 c5be 7c5a 123f 9a3a 15bf 1026 153f
000001c0: 0404 a73e 7b86 963e 60d1 1ebf 98be 973e
000001d0: 7708 f7bd d24c fc3e d3bf 1cbf 6c3d 14bf
000001e0: 3697 8ebd 276b 3c3e f81d 933e 8282 083f
000001f0: abb8 a03e 876f c33e fa94 93be 549b ba3e
00000200: 2706 13be 57ca 923e cf04 b7be 58f3 9dbe
00000210: f3b8 093f 8dd0 f9be c1b4 53bf da66 debd
00000220: 2b33 d8be 4ee9 fc3e bd40 c6be 6b1c 3e3d
00000230: 0f6a 2ebf 6fbc dc3d 3039 123f 510d 27bf
00000240: 021c 123f eac9 67be c90c 2a3e f620 8d3e
00000250: 8cba d3be 9748 183f 113d cdbe 7cf5 a03e
00000260: 1ec4 d8bd 61c7 e53d ff1e bc3d 2ec7 3bbf
00000270: 65b9 2dbf 42ed df3d 5100 83be a58d 8e3e
00000280: 2ce3 dc3e 9512 c4be 33e1 efbe 5535 00bf
00000290: c3f3 853e 70b1 f03c c64d 053f da19 ed3e
000002a0: 6879 a03e 9aee aebe a685 073f 7012 03bf
000002b0: ca5b 283f 3117 033e bc24 9dbe cb48 01bf
000002c0: 8827 c9be 6f56 0a3f 6bba 1dbe 61de 313f
000002d0: 1780 4f3e 95c1 5c3e 1ecf 633e 4afd 1fbe
000002e0: 8d67 2e3f 799e 1c3f 054a f0be 5e22 e53e
000002f0: de4b ce3e 12bb 1abe 7a7e c03e 1593 2b3f
00000300: 2ff0 7bbd c69d 363f c135 e23e ca52 efbe
00000310: b443 49bd 1dcf ccbe bffa 9abe 0bcc 3f3e
00000320: 4674 453f 2dc0 9cbd d4e0 f23e b109 0dbf
00000330: 92d9 0d3f b787 9a3e a160 23bf d638 1dbf
00000340: ed6d 473e cf94 153f 9076 e1be f2b3 0a3f
00000350: a69b debe 148b c9be f28c fabe e71f 2c3f
00000360: 86b0 12bf 93f3 04bf 0ff1 913d 42e0 0ebf
00000370: 9a15 50be f50f 053f c1f1 20bf 615e 5dbe
00000380: 0675 023f 449a fe3e edbd bfbe 16a0 dabd
00000390: ff46 3cbe 0ebd 813e ee7e debe fd23 23bf
000003a0: 45b7 10be 7834 863e a475 cbbe bf1a 243f
000003b0: 150f 6dbe 4abc cc3e 0db7 c4be 93b2 0cbf
000003c0: 1fdd 7ebe 50ea f13b e533 223f 13d2 d8be
000003d0: 704a d73e ae48 193f 2856 2d3f bd9c 24be
000003e0: 1ce5 323f 7ba7 d6be c0a3 b63d 96d5 013e
000003f0: 671e 13bf 4f9f 373f 9169 093d c44c 083f

bias f4 [256]
0.08871132 0.2036169 0.9076641 0.19805971 0.20483506 0.19941126 -0.30186996 -0.17049368
0.02619403 0.25670582 -0.4283129 0.30654725 0.08756696 -0.64929575 0.55145717 -0.010468332
-0.5101258 0.7824274 0.5337751 -0.51534814 -0.2581775 0.15273173 -0.23639701 -0.104960546
-0.019522822 0.74804467 0.49964494 0.29278785 -0.51824987 -0.39496297 0.0034474286 0.76635355
0.14046176 -0.21939465 0.0332931 0.14593789 0.10283251 0.5498775 0.60685515 -0.4673362
-0.40114576 0.5784249 -0.44736013 -0.58532864 -0.6692516 0.34201154 -0.52704394 0.5288903
0.12765121 -0.7172691 -0.28434572 -0.2240294 -0.067428604 -0.24591123 -0.34152243 0.59734285
0.57289743 -0.35378477 -0.44872394 -0.70974946 -0.018704265 -0.30057058 -0.23416825 0.7426478
0.515106 0.22189482 -0.49204683 -0.6270928 0.4594376 0.9459649 0.24645165 0.27981424
-0.17286372 0.20649555 0.36606297 0.5511463 0.4815789 0.32049498 0.981296 0.49211305
-0.37859836 -0.15290928 0.4219734 -0.23225018 0.1034042 -0.19266957 0.746113 0.20560113
-0.20973188 -0.54875135 -0.51354235 -0.25551698 -0.20870408 0.74132496 -0.008233468 -0.40227312
-0.0075138346 0.10787048 -0.14466171 -0.6743542 -0.6286279 0.31628695 -0.25556463 0.21783027
-0.007428099 0.7287553 0.4831779 0.16317308 -0.1662864 0.36120406 0.012284203 0.00029130446
0.09977941 0.20789713 -0.19540218 -0.64804715 0.0210038 0.283503 -0.67866236 -0.25193444
0.9140012 -0.06786164 -0.33135593 -0.3407497 -0.5492127 0.5118695 -0.08296763 0.7560939
0.5493757 -0.4899784 -0.063612096 0.06809027 -0.42978296 0.5178029 0.47697127 -0.22871415
0.4722208 -0.49401632 0.041388545 0.7168053 -0.1887451 0.0993492 0.29321823 0.69685304
0.3503516 0.17195275 -0.23437983 0.32859412 -0.2200827 -0.29840532 0.39277667 0.5229021
0.049626704 -0.41128153 0.62733346 -0.5379405 -0.18037254 -0.08477262 0.61069787 0.7124778
-0.5457502 -0.10297787 0.20312795 0.5894716 -0.46016124 -0.2909387 -0.22740556 -0.20923524
0.7170586 0.2607283 0.5748602 0.019755729 0.44684282 0.57732105 -0.83789885 -0.22643398
0.62743855 0.7732449 -0.44790542 -0.38746423 0.6596368 -0.23674199 -0.08572428 -0.49571148
0.38463837 0.30402634 -0.64866877 -0.25147286 -0.2910999 0.387042 0.1944262 0.13538954
-0.41019318 0.35062906 0.32742593 -0.3177172 -0.38090283 -0.42651424 -0.5676047 0.24913849
-0.5179339 -0.6534441 -0.5102466 -0.008939768 -0.3543531 0.47312617 0.27516568 -0.33951643
-0.3089447 -0.062284548 -0.18199524 0.11673062 0.34789968 -0.5253705 -0.41868353 0.4642067
0.52708775 -0.06622988 -0.48653644 0.279806 0.6160448 0.11495849 0.24039604 0.3013589
0.5886321 0.07803249 0.8590637 -0.5527421 0.3615081 0.35134247 -0.5230083 0.5068649
-0.22575238 0.5206007 0.39045286 0.57044417 -0.09607435 0.8083663 -0.42150077 0.83417153
0.26512605 0.67895263 0.87200403 0.69271564 0.4947687 0.17819995 -0.0590384 -0.15026562
0.51147425 0.52589077 -0.5187894 -0.48682946 0.5260699 0.06107001 0.04651739 0.46079022
00000000: 48ae b53d f380 503e ad5c 683f 2ad0 4a3e
00000010: 48c0 513e 7732 4c3e b38e 9abe e595 2ebe
00000020: dd94 d63c f26e 833e d44b dbbe c3f3 9c3e
00000030: 4e56 b33d 3f38 26bf 4c2c 0d3f 5e83 2bbc
00000040: 9b97 02bf 294d 483f 7ca5 083f dbed 03bf
00000050: d72f 84be b565 1c3e 0f12 72be 8ef5 d6bd
00000060: 53ee 9fbc db7f 3f3f 76d1 ff3e 4ae8 953e
00000070: 06ac 04bf 9638 cabe 41ee 613b bf2f 443f
00000080: 35d5 0f3e fea8 60be 585e 083d be70 153e
00000090: da99 d23d c6c4 0c3f dc5a 1b3f b146 efbe
000000a0: fa62 cdbe a713 143f 630c e5be 19d8 15bf
000000b0: 1354 2bbf 231c af3e 5aec 06bf 5b65 073f
000000c0: 00b7 023e f39e 37bf c395 91be f767 65be
000000d0: 0218 8abd 27d0 7bbe 07dc aebe 76eb 183f
000000e0: 68a9 123f 4723 b5be 25bf e5be 24b2 35bf
000000f0: b039 99bc 63e4 99be cdc9 6fbe 2b1e 3e3f
00000100: fddd 033f 6538 633e 90ed fbbe 2789 20bf
00000110: 683b eb3e c12a 723f d25d 7c3e d043 8f3e
00000120: 3003 31be 9273 533e 9b6c bb3e ed17 0d3f
00000130: 8291 f63e eb17 a43e 3736 7b3f 3ef6 fb3e
00000140: a5d7 c1be 4094 1cbe e60c d83e fed2 6dbe
00000150: 95c5 d33d 2c4b 45be 4301 3f3f 1a89 523e
00000160: f4c3 56be f87a 0cbf 8377 03bf 1fd3 82be
00000170: 86b6 55be 79c7 3d3f abe5 06bc bef6 cdbe
00000180: 9d36 f6bb 33eb dc3d 3322 14be 7aa2 2cbf
00000190: c2ed 20bf 5df0 a13e 5ed9 82be e60e 5f3e
000001a0: 6967 f3bb b58f 3a3f 1863 f73e d816 273e
000001b0: fb46 2abe bdef b83e af43 493c 39ba 9839
000001c0: 2659 cc3d fce2 543e 8217 48be 6be6 25bf
000001d0: 2910 ac3c 4e27 913e d1bc 2dbf 8dfd 80be
000001e0: fcfb 693f 0bfb 8abd 7ca7 a9be bf76 aebe
000001f0: 3499 0cbf e109 033f efea a9bd 5f8f 413f
00000200: e3a3 0c3f 73de fabe 0f47 82bd e972 8b3d
00000210: 830c dcbe bb8e 043f 9435 f43e 0b34 6abe
00000220: edc6 f13e b5ef fcbe 0987 293d 8d80 373f
00000230: 6546 41be 9877 cb3d b320 963e f664 323f
00000240: 4961 b33e 6214 303e 4401 70be 7d3d a83e
00000250: 5c5d 61be 95c8 98be 061a c93e e9dc 053f
00000260: 5f45 4b3d 7e93 d2be ed98 203f 78b6 09bf
00000270: 94b3 38be 449d adbd b256 1c3f f264 363f
00000280: 49b6 0bbf 10e6 d2bd c600 503e 9ce7 163f
00000290: 419a ebbe ebf5 94be 01dd 68be c341 56be
000002a0: 2791 373f 2e7e 853e 0a2a 133f c4d6 a13c
000002b0: 95c8 e43e 50cb 133f 8a80 56bf 4fde 67be
000002c0: d09f 203f 61f3 453f dc53 e5be b661 c6be
000002d0: f5dd 283f 7e6c 72be 3690 afbd e5cd fdbe
000002e0: 52ef c43e 57a9 9b3e 280f 26bf 0dc1 80be
000002f0: 0c0b 95be 5e2a c63e a917 473e 8ea3 0a3e
00000300: d704 d2be a785 b33e 5fa4 a73e d4ab a2be
00000310: b205 c3be 1360 dabe 8b4e 11bf 291e 7f3e
00000320: 5197 04bf 1d48 27bf 859f 02bf 1b78 12bc
00000330: c56d b5be 983d f23e 84e2 8c3e 19d5 adbe
00000340: 002e 9ebe 151e 7fbd f65c 3abe 7710 ef3d
00000350: e81f b23e ae7e 06bf b05d d6be 80ac ed3e
00000360: 39ef 063f 88a3 87bd 4e1b f9be bb42 8f3e
00000370: 1db5 1d3f 5b6f eb3d 612a 763e b74b 9a3e
00000380: 98b0 163f 80cf 9f3d 99eb 5b3f 8280 0dbf
00000390: 9717 b93e 29e3 b33e dfe3 05bf e6c1 013f
000003a0: a22b 67be 1646 053f 70e9 c73e a108 123f
000003b0: a1c2 c4bd 18f1 4e3f f3ce d7be 448c 553f
000003c0: 9abe 873e d7cf 2d3f a83b 5f3f d055 313f
000003d0: 5352 fd3e 0c7a 363e 40d2 71bd 3bdf 19be
000003e0: faef 023f c7a0 063f 62cf 04bf b641 f9be
000003f0: 84ac 063f 8c24 7a3d 0589 3e3d b2ec eb3e

weight f4 [64, 256]
0.006277423 0.023080923 0.040271126 0.12415333 0.00573534 0.01359398 0.03780278 0.004312809
0.099364944 0.12012753 0.019573482 -0.017590431 0.03797983 0.043328885 -0.00448643 0.048577398
-0.0044527864 0.07040736 -0.05420088 0.060869787 -0.051350664 -0.011622696 0.08555274 0.032484878
-0.029379604 0.043415815 0.046191666 0.07551199 -0.034944367 0.061768908 0.014411863 0.06643619
0.03408513 -0.012677975 -0.013363101 0.025323119 0.08342973 0.053083513 0.032279324 0.03120174
0.037171002 0.070031725 -0.00043494458 0.025902705 0.0069250013 0.010240134 0.08431868 0.01913754
0.0121890055 0.11595667 -0.03512935 0.0724462 0.04839232 0.040278826 -0.011446051 0.0659944
-0.013668007 -0.008466766 -0.0070742834 -0.001038812 -0.0063297143 0.026334248 0.018440554 -0.005796297
-0.066760615 -0.02125082 0.0878991 0.019289603 0.048390634 -0.029984077 0.0038843553 0.07315357
0.038591005 0.06417312 -0.034594145 -0.001160078 0.026228791 -0.01121695 0.042022686 0.013031466
0.079409696 -0.043171745 0.05136237 0.037884377 0.03458527 -0.010876074 0.08641738 0.013487253
-0.020356087 -0.054469146 0.04220904 0.06252574 -0.027627297 0.03236526 0.02671844 0.02097932
-0.048091907 0.049689136 0.022363467 0.041216433 0.05130884 0.05871118 -0.00073643256 -0.03960884
-0.032872327 -0.029145354 -0.0052624657 -0.049932227 0.004195274 -0.029640859 -0.00707492 -0.006634727
0.060420074 0.00303051 0.06982146 -0.014768156 -0.05114817 -0.068465196 0.015485887 -0.008054648
-0.022492781 0.120108835 0.015906807 -0.0008207346 0.053428378 -0.031955753 -0.0069801817 0.05295675
-0.024987815 0.048101477 0.03526283 0.0151687795 -0.06871714 0.0034003512 0.08835372 0.039162617
0.016416563 0.06399497 0.011305764 -0.007667178 0.02108785 0.008156762 -0.029666519 -0.029722212
0.018744381 -0.011014531 -0.016578687 -0.0010023295 -0.0059703104 0.033286147 0.06005744 -0.012384275
0.0044184453 0.05827837 -0.03710143 0.032854818 0.035949938 0.08077344 -0.03517285 -0.012630114
0.012188211 -0.07079249 -0.040916152 0.029927664 -0.0049927975 -0.00016813423 0.0031423876 0.081180915
0.026706744 0.004380971 -0.015710115 -0.054853152 0.05408685 0.012342295 -0.018163476 0.07512453
0.02145201 -0.009083874 0.011082419 0.019428847 0.0015483844 0.08566445 -0.04078675 -0.03298756
-0.01619711 0.036166664 0.023181591 0.036828 0.0648387 -0.013761145 0.023472201 0.04467852
0.011246125 0.12563701 -0.01719926 0.07273097 0.07354545 -0.049626745 -0.0025503323 -0.0036242318
0.0015817997 0.037695106 0.081380054 -0.041523233 -0.035481468 -0.049965207 0.093120635 -0.035394218
0.021888388 0.04086181 7.156457e-05 0.05934821 0.0042884103 -0.08571579 0.08662609 0.08936245
0.057412513 0.037693992 -0.04676808 -0.06640459 0.0051190355 -0.013893155 0.032863423 -0.02864832
-0.0075821104 0.04856951 -0.06611899 -0.041390195 0.011020848 -0.039410964 0.015410423 0.066253915
0.012828122 -0.020940749 0.0003530682 0.0065658 0.009738003 0.036718383 -0.055483714 0.021669632
-0.08708103 0.0043980395 0.048857424 -0.003262979 0.04869254 0.041119087 0.016393613 0.036420625
0.11697972 -0.02557819 -0.030416237 0.024263343 0.07294656 0.0022101712 -0.0042591286 -0.034214124
00000000: d7b2 cd3b 3414 bd3c 56f3 243d 1a44 fe3d
00000010: 85ef bb3b 49b9 5e3c 16d7 1a3d 7752 8d3b
00000020: d97f cb3d 6c05 f63d 9158 a03c cf19 90bc
00000030: bd90 1b3d a179 313d e702 93bb 18f9 463d
00000040: aee8 91bb bc31 903d be01 5ebd 9952 793d
00000050: 1355 52bd 1f6d 3ebc 4636 af3d dd0e 053d
00000060: 7fad f0bc c8d4 313d 7933 3d3d 08a6 9a3d
00000070: d321 0fbd 6501 7d3d bc1f 6c3c b20f 883d
00000080: d99c 0b3d 48b7 4fbc e8f0 5abc 6e72 cf3c
00000090: 35dd aa3d 196e 593d 5337 043d cb9a ff3c
000000a0: 9f40 183d cb6c 8f3d 4609 e4b9 e931 d43c
000000b0: 1feb e23b 3cc6 273c 46af ac3d 55c6 9c3c
000000c0: 65b4 473c b17a ed3d cbe3 0fbd ac5e 943d
000000d0: 0637 463d 69fb 243d 3888 3bbc 1228 873d
000000e0: c7ef 5fbc 31b8 0abc 64cf e7bb bf28 88ba
000000f0: 7e69 cfbb ecba d73c a510 973c ddee bdbb
00000100: cab9 88bd 3316 aebc 7104 b43d 3b05 9e3c
00000110: 4235 463d 2ba1 f5bc ab90 7e3b 8ad1 953d
00000120: 9a11 1e3d 326d 833d 97b2 0dbd c20d 98ba
00000130: c3dd d63c 4cc7 37bc fb1f 2c3d ee81 553c
00000140: 8da1 a23d dbd4 30bd 5961 523d a62c 1b3d
00000150: 49a9 0d3d 9031 32bc 98fb b03d a4f9 5c3c
00000160: cfc1 a6bc 0a1b 5fbd 63e3 2c3d 7f0d 803d
00000170: a452 e2bc 6f91 043d a1e0 da3c d3dc ab3c
00000180: 05fc 44bd d686 4b3d 9733 b73c 90d2 283d
00000190: 3829 523d 227b 703d 270d 41ba e13c 22bd
000001a0: 22a5 06bd 3dc2 eebc c370 acbb bc85 4cbd
000001b0: 8278 893b 63d1 f2bc bbd4 e7bb 2068 d9bb
000001c0: 0a7b 773d 859b 463b 8efe 8e3d 23f6 71bc
000001d0: be80 51bd 7b37 8cbd 85b8 7d3c a4f7 03bc
000001e0: c842 b8bc 9ffb f53d fe4e 823c 9126 57ba
000001f0: b7d7 5a3d 09e4 02bd 02ba e4bb 2de9 583d
00000200: 3fb3 ccbc 0e06 453d c26f 103d 7986 783c
00000210: 92bb 8cbd 6dd8 5e3b ccf2 b43d fb68 203d
00000220: 077c 863c cb0f 833d d03b 393c f33c fbbb
00000230: 6dc0 ac3c f1a3 053c 3307 f3bc ff7b f3bc
00000240: d18d 993c 4b76 34bc 07d0 87bc 9960 83ba
00000250: 98a2 c3bb 0e57 083d cafe 753d 6ae7 4abc
00000260: 9bc8 903b 4db5 6e3d abf7 17bd c692 063d
00000270: 3e40 133d 8c6c a53d 6811 10bd 8aee 4ebc
00000280: 10b1 473c a7fb 90bd b297 27bd dc2a f53c
00000290: 9f9a a3bb 304d 30b9 84f0 4d3b 2e42 a63d
000002a0: 1ac8 da3c 408e 8f3b 80b2 80bc b3ad 60bd
000002b0: 2c8a 5d3d 5637 4a3c 92cb 94bc e4da 993d
000002c0: 20bc af3c 87d4 14bc 0993 353c 3f29 9f3c
000002d0: 29f3 ca3a d870 af3d 0210 27bd f71d 07bd
000002e0: cdaf 84bc 7f23 143d 52e7 bd3c f5d8 163d
000002f0: 27ca 843d 6d76 61bc c648 c03c d300 373d
00000300: ab41 383c fda6 003e 76e5 8cbc faf3 943d
00000310: ff9e 963d 6a45 4bbd 7a23 27bb 8584 6dbb
00000320: 6454 cf3a 2f66 1a3d 96aa a63d 4414 2abd
00000330: 0455 11bd 51a8 4cbd 08b6 be3d 87f9 10bd
00000340: 474f b33c b75e 273d f014 9638 1c17 733d
00000350: cb85 8c3b c38b afbd 0569 b13d a903 b73d
00000360: 6229 6b3d 0465 1a3d e38f 3fbd 21ff 87bd
00000370: 95bd a73b 1ea0 63bc cc9b 063d e2af eabc
00000380: 5a73 f8bb d3f0 463d 6569 87bd c488 29bd
00000390: c990 343c 646d 21bd 007c 7c3c 22b0 873d
000003a0: 0b2d 523c ef8b abbc 031c b939 ec25 d73b
000003b0: 258c 1f3c 0466 163d e442 63bd 8384 b13c
000003c0: 8a57 b2bd 6e1d 903b b91e 483d b4d7 55bb
000003d0: d471 473d 7d6c 283d e64b 863c cb2d 153d
000003e0: 1093 ef3d 5a89 d1bc 792b f9bc ebc3 c63c
000003f0: 0265 953d 85d8 103b 2990 8bbb 1c24 0cbd

bias f4 [64]
-0.00892355 0.0734985 -1.3933037e-20 0.015258109 0.03133417 1.3246991e-18 0.021122862 -0.00083462836
0.10523443 0.07086205 -0.036948424 0.073387995 0.052969452 -0.054510497 0.06399955 0.033809125
-0.1940856 0.0792293 0.0489769 -0.0052009816 -2.9688782e-21 0.052010734 -0.2392831 0.06750862
0.032993812 0.039686374 0.00032977865 0.028908122 -0.09477106 0.011484878 0.17416428 -0.16803682
0.13138837 0.13970153 -0.04482434 -8.222757e-24 0.5089613 -0.09929555 -0.019307982 0.088710405
0.060547136 0.09902963 0.16619377 0.23213607 -0.059308536 0.018353038 0.04317732 0.0015188159
0.061155178 -0.12966421 0.053696018 0.2104363 0.037584186 -0.0057197134 0.23408994 0.030353263
0.022192894 0.07454343 -0.03151388 -0.026870977 0.16323702 0.0069138515 -0.07549311 0.10540815
00000000: 1534 12bc 6286 963d 0498 839e 26fd 793c
00000010: 4258 003d b87d c321 da09 ad3c f6ca 5aba
00000020: 2685 d73d 1f20 913d 3b57 17bd 724c 963d
00000030: 7ff6 583d 6646 5fbd 3212 833d 707b 0a3d
00000040: 60be 46be f942 a23d 009c 483d ff6c aabb
00000050: 7552 609d 3509 553d a106 75be f641 8a3d
00000060: 8524 073d 2e8e 223d 24e6 ac39 bad0 ec3c
00000070: 5417 c2bd 122b 3c3c 1f58 323e d811 2cbe
00000080: ac8a 063e eb0d 0f3e ba99 37bd 1f0d 1f99
00000090: 4a4b 023f 775b cbbd c62b 9ebc cdad b53d
000000a0: 4600 783d 0cd0 ca3d b32e 2a3e 14b5 6d3e
000000b0: 82ed 72bd 1c59 963c b4da 303d 0113 c73a
000000c0: da7d 7a3d b2c6 04be 5bf0 5b3d 9d7c 573e
000000d0: e0f1 193d 6f6c bbbb 46b5 6f3e 68a7 f83c
000000e0: dfcd b53c 3aaa 983d b314 01bd 8620 dcbc
000000f0: 9b27 273e 978d e23b 229c 9abd 3ae0 d73d

weight f4 [32, 64]
0.03647167 0.085805826 0.00019085409 -0.008124098 0.064284794 2.0166693e-09 0.04056457 0.14107536
0.045565818 0.029255206 -0.0063073416 0.14376064 -0.2861392 0.01210789 0.115331925 -0.32296112
-0.06202125 0.014084511 0.08794726 -0.13423452 0.00051822833 0.019430414 -0.09231426 -0.047969412
-0.09932324 0.008591361 -0.0007803928 -0.10250265 -0.03895605 -0.04587028 -0.09737394 -0.0033486944
0.027439035 0.068287656 -0.25880918 4.152216e-11 -0.21039584 -0.050173648 -0.104744345 0.052128088
0.12056658 0.047342934 0.07865638 0.0064013265 0.13871317 -0.015164026 -0.012521927 0.08726935
-0.046202607 -0.051761534 -0.084998384 -0.06692522 0.12526338 0.00039102286 0.046268247 -0.020064784
-0.09168911 0.05876968 -0.23235331 0.08994589 0.016519746 -0.054099295 -0.020390447 -0.008903723
0.044696387 0.0126899015 2.6898088e-06 -0.004705239 -0.039808743 -8.940507e-07 0.025267832 0.015612577
0.013836151 0.042854298 -0.32718217 0.10096363 -0.17079887 -0.20429902 0.10595704 -0.26225233
0.0064289733 -2.8060216e-21 -0.064829394 -0.1866257 0.00018698999 -0.010876405 -0.03039549 -0.023131698
0.051421836 0.11886383 0.002006643 -0.0888525 -0.15971698 0.13204306 0.060644403 -0.14461677
0.07668361 -0.009572395 -0.13870527 -5.3781913e-31 -0.24969077 -0.15451273 -0.39052558 0.07436775
0.106135905 0.064871356 -0.034847215 0.14298326 -0.05495685 0.031270165 0.054995127 0.034290485
0.12967692 -0.11039525 0.14976437 0.04319682 0.019364322 0.002714278 0.069803365 -0.058433965
0.13137652 -0.059331268 -0.24323516 -0.37837866 -0.015533406 0.09145259 -0.09873534 0.08998902
0.054968383 -0.17345145 -0.0012475842 0.012600417 -0.10928529 -1.0660537e-17 -0.28209504 0.037477132
0.06493189 0.08228273 0.023386233 -0.044308133 0.21517389 0.10814283 -0.23784702 0.25190988
-0.12857181 -0.087815434 0.040939886 0.18120891 -9.547821e-09 -0.012724513 -0.29931238 -0.20737766
-0.19967347 -0.25287083 0.007334602 0.11290736 -0.13546129 -0.086664885 0.022620406 -0.043284677
-0.07489191 0.10207558 0.20435196 1.9425905e-05 0.021530546 -0.26649734 0.09800706 -0.12292776
-0.21144274 -0.010329321 -0.055703703 0.035473183 -0.16595091 -0.25868687 -0.03140285 -0.06334581
-0.048155997 -0.17903325 -0.0328903 0.055718146 0.0290471 0.006239321 0.051998667 -0.29013216
0.2039688 -0.24761143 0.10913114 0.15317354 -0.07025408 -0.31279224 -0.016591216 0.112911455
0.014444469 -0.03769319 -7.4276e-39 0.012777148 0.0005598468 5.007501e-39 -0.054430436 -0.009480017
-0.002280911 0.011935754 0.028793288 -0.06305394 0.031250488 0.0055230265 -0.0731799 0.04388673
0.083326876 0.01735385 0.013455604 0.03960286 -2.98556e-39 -0.05269093 -0.091087855 -0.09904607
-0.05840365 -0.07545568 0.003941121 0.02086349 -0.093353495 -0.04865214 -0.078870416 0.012222975
-0.03273454 0.025603361 0.07588274 2.7459015e-38 -0.15863754 -0.033158686 0.024294708 -0.069216266
-0.0842633 0.007897771 -0.0099188 -0.013895199 -0.007940245 -0.10648481 -0.020730756 -0.04161792
0.026886914 0.017479636 -0.011953578 -0.016986176 0.0015645081 -0.00669919 0.054939434 -0.053834
0.052763492 -0.08612778 0.04268692 0.017877722 0.023275806 -0.06391416 0.00684367 0.013835006
00000000: 5163 153d f7ba af3d 0120 4839 f01a 05bc
00000010: bfa7 833d 9f95 0a31 0927 263d 0f76 103e
00000020: 39a3 3a3d 9da8 ef3c d1ad cebb fd35 133e
00000030: d680 92be 2c60 463c 2533 ec3d 295b a5be
00000040: ff09 7ebd b9c2 663c b11d b43d c674 09be
00000050: b7d9 073a 882c 9f3c 420f bdbd 937b 44bd
00000060: fc69 cbbd c8c2 0c3c 4693 4cba e9ec d1bd
00000070: 6190 1fbd 7ae2 3bbd fd6b c7bd c575 5bbb
00000080: d4c7 e03c 66da 8b3d a382 84be cc9d 362e
00000090: 0272 57be e282 4dbd 3484 d6bd 4384 553d
000000a0: 9ceb f63d aaea 413d 9916 a13d 38c2 d13b
000000b0: d30a 0e3e 8972 78bc c528 4dbc 46ba b23d
000000c0: f23e 3dbd e703 54bd a213 aebd 1710 89bd
000000d0: 0b45 003e 3302 cd39 c683 3d3d e75e a4bc
000000e0: 80c7 bbbd 7ab8 703d 07ee 6dbe 8d35 b83d
000000f0: 6b54 873c 3997 5dbd de09 a7bc ece0 11bc
00000100: 8f13 373d 4ee9 4f3c 9082 3436 682e 9abb
00000110: 7e0e 23bd b2fe 6fb5 7cfe ce3c e5cb 7f3c
00000120: 06b1 623c fd87 2f3d 6c84 a7be 05c6 ce3d
00000130: e6e5 2ebe c333 51be 0100 d93d f045 86be
00000140: 23aa d23b 5a04 549d 46c5 84bd cf1a 3fbe
00000150: be12 4439 f332 32bc f6ff f8bc b07e bdbc
00000160: b49f 523d e16e f33d e281 033b 4df8 b5bd
00000170: d98c 23be 4c36 073e 4466 783d 6b16 14be
00000180: 4c0c 9d3d 89d5 1cbc c108 0ebe 4488 2e8d
00000190: f0ae 7fbe 9638 1ebe f8f2 c7be 1e4e 983d
000001a0: c85d d93d 46db 843d f4bb 0ebd 346a 123e
000001b0: 6f1a 61bd 2515 003d 9242 613d 2e74 0c3d
000001c0: 07ca 043e e816 e2bd d55b 193e 26ef 303d
000001d0: eda1 9e3c 07e2 313b 11f5 8e3d 7458 6fbd
000001e0: 9187 063e 5805 73bd a312 79be d9ba c1be
000001f0: d47f 7ebc 7f4b bb3d c135 cabd 2a4c b83d
00000200: 8726 613d 429d 31be fb85 a3ba fb71 4e3c
00000210: f7d0 dfbd f6a6 44a3 c36e 90be 9f81 193d
00000220: 03fb 843d d983 a83d 7c94 bf3c 727c 35bd
00000230: 8b56 5c3e fd79 dd3d 2b8e 73be 55fa 803e
00000240: 54a8 03be 94d8 b3bd 95b0 273d d48e 393e
00000250: c307 24b2 7a7a 50bc 793f 99be cf5a 54be
00000260: 3477 4cbe 4978 81be 1a57 f03b f93b e73d
00000270: 5db6 0abe 5c7d b1bd 6e4e b93c 464b 31bd
00000280: ee60 99bd 000d d13d a441 513e d0f4 a237
00000290: d460 b03c 5772 88be edb7 c83d 8dc1 fbbd
000002a0: 7284 58be 503c 29bc 9129 64bd 544c 113d
000002b0: 09ef 29be 9b72 84be 46a0 00bd 73bb 81bd
000002c0: 393f 45bd 7e54 37be fbb7 06bd b638 643d
000002d0: 2ff4 ed3c 3873 cc3b 8efc 543d 348c 94be
000002e0: 32dd 503e da8d 7dbe 2680 df3d 86d9 1c3e
000002f0: 5fe1 8fbd 4e26 a0be 4dea 87bc 1f3e e73d
00000300: 7ea8 6c3c 2d64 1abd 20e1 5080 3e57 513c
00000310: afc2 123a e086 3600 73f2 5ebd 1352 1bbc
00000320: 567b 15bb 2e8e 433c e7df eb3c 6d22 81bd
00000330: 8300 003d 81fa b43b 58df 95bd 92c2 333d
00000340: 48a7 aa3d a929 8e3c e574 5c3c 9c36 223d
00000350: 8782 2080 72d2 57bd 458c babd aad8 cabd
00000360: aa38 6fbd 8288 9abd 8524 813b e9e9 aa3c
00000370: 1e30 bfbd 7747 47bd d086 a1bd df42 483c
00000380: a714 06bd 24be d13c 6968 9b3d 4880 1501
00000390: e171 22be 67d1 07bd b205 c73c 42c1 8dbd
000003a0: 3d92 acbd a765 013c 7682 22bc b0a8 63bc
000003b0: cd17 02bc b514 dabd 8cd3 a9bc 8d77 2abd
000003c0: f241 dc3c 7431 8f3c f1d8 43bc 9826 8bbc
000003d0: 2e10 cd3a e184 dbbb 2c08 613d 0a81 5cbd
000003e0: 881e 583d c363 b0bd 7bd8 2e3d 4d74 923c
000003f0: e7ac be3c 6de5 82bd dd40 e03b 39ac 623c

bias f4 [32]
0.15563986 0.08141961 0.030931475 -0.124158375 0.11312334 0.13982031 0.05684418 -0.104165174
-0.050057538 0.010915468 0.017162627 0.070088014 0.07529076 -7.157269e-39 0.094862655 -0.10437659
0.03798002 0.1895202 -0.11571591 -8.036441e-39 0.05137963 0.1299187 -0.117501296 -0.03442832
0.0026141624 -0.06521843 -0.013675956 0.028696772 -3.8995073e-23 -0.113047384 -0.07494675 0.072625645
00000000: 0e60 1f3e 53bf a63d 0164 fd3c bf46 febd
00000010: 36ad e73d 0e2d 0f3e 71d5 683d 8d54 d5bd
00000020: 2209 4dbd cbd6 323c a398 8c3c 4e8a 8f3d
00000030: 0b32 9a3d 8eef 4d80 5a47 c23d 65c3 d5bd
00000040: f090 1b3d 9511 423e 77fc ecbd 5482 5780
00000050: 7273 523d 6809 053e 85a4 f0bd b604 0dbd
00000060: 5e52 2b3b 3d91 85bd 1e11 60bc 7e15 eb3c
00000070: 9091 3c9a 6385 e7bd af7d 99bd c1bc 943d

weight f4 [8, 32]
-0.102520384 -0.16083987 0.31820735 -0.17348543 0.098865405 -0.40937796 0.32507458 -0.057970054
0.23291461 -3.533198e-39 -0.061442647 0.009715842 -0.09230326 2.5184172e-38 0.0017557666 -0.019554518
-0.13674936 -0.040906534 -2.3934895e-08 -4.923653e-38 0.31288928 -0.03515196 -0.14352013 -0.20891304
0.07872702 0.013654426 0.31349334 -0.12147897 0.00023071346 -0.08596652 0.32183155 0.31559163
0.055390663 -0.077839956 -0.40163678 -0.040237382 0.11083232 0.1333699 -0.46308944 0.01160348
-0.40122357 0.009685193 0.15792206 -0.1360825 0.06598133 -9.354439e-09 0.22251081 0.15558918
0.0068646995 0.19487454 -0.13663918 8.487669e-39 -0.43884882 -0.10477688 -0.029136555 0.13447219
-0.10762119 0.085460514 -0.35078555 -0.10483954 6.385812e-39 -0.06129835 -0.5399143 -0.3819436
0.15048365 -0.05264277 -0.5891678 -0.034346074 0.09041469 0.1365334 -0.49227232 0.15553111
-0.51397365 -0.026408711 0.07628836 -0.119623706 0.09995218 -3.735793e-07 0.3228865 0.15098064
-0.0131497905 0.06153032 -0.17629929 1.2332759e-38 -0.33650625 0.076825455 -0.0012753888 0.13373594
-0.013218827 0.059304304 -0.5792411 -0.07410393 1.0128945e-38 -0.20369111 -0.29570842 -0.538428
-0.120083414 0.023194892 0.38356817 0.070201755 0.028411869 -0.050171 0.34729075 0.14153612
0.19195372 -0.012673438 -0.024055142 0.13482407 0.117482804 1.8709341e-05 -0.34485158 -0.16983101
-0.0507961 -0.28330958 -0.038023554 -5.181038e-39 0.38459173 0.051485687 0.0025902987 0.08936112
0.07360477 0.14660674 0.15140058 -0.0022710029 -4.5361983e-05 0.11650827 0.38630038 0.24336201
0.011080424 0.03798215 -1.5437909e-38 -1.3747832e-38 -0.097543985 0.019373288 2.1069465e-05 0.045575358
1.4812491e-38 1.052864e-39 0.028700782 -0.0021930505 -0.0736438 -6.238662e-39 0.07061127 1.5760858e-38
9.151543e-39 0.021124786 5.5196683e-32 -1.993177e-38 -7.349785e-14 7.15553e-36 1.335807e-39 -9.594784e-39
-1.04537386e-29 -0.08282399 -2.4859172e-38 0.06573885 6.608538e-39 0.0010766117 -6.15504e-39 3.8556508e-16
0.15047112 -0.17425281 0.08587966 0.075221434 0.14915925 -0.17012593 0.2974283 0.11372373
0.40108156 -0.042453654 0.14398772 -0.032805912 -0.0034788984 6.31443e-11 -0.34215957 -0.18665402
0.0148838 -0.34475136 -0.060359795 -2.6869237e-38 0.26589698 0.13303328 0.022325953 -0.07318223
0.27037278 0.18266928 0.46192235 -0.18018766 -1.0503329e-05 -0.038523477 0.3472715 0.2698532
0.16061251 0.15946716 -0.5289011 -0.04426398 0.114372 0.008242979 -0.35279864 0.15732956
-0.4229086 -0.067580394 0.20728649 0.117749095 0.12290819 -1.4641208e-07 0.231753 -0.05930511
-0.04874133 0.17673975 -0.1505193 -7.522186e-39 -0.48595724 -0.13057984 0.0010107352 0.19849636
-0.23089987 0.030197432 -0.39574966 0.13845596 3.2413676e-38 -0.1145791 -0.44644386 -0.49329847
-0.10485422 0.0412141 -0.3547248 -0.024393264 -0.028746868 -0.017989459 -0.1659736 -0.033782624
-0.14106058 -0.0065275845 0.13764343 -0.1765318 0.1607252 -3.3545755e-16 0.24997218 0.22237483
0.008591497 0.34456897 -0.0718414 3.1027007e-38 -0.48189303 -0.04828239 -0.09727383 -0.03836907
-0.4219589 0.034803882 -0.31347412 -0.022084441 -1.9684198e-38 -0.168977 -0.45717165 -0.21089269
00000000: 35f6 d1bd 35b3 24be 13ec a23e 2aa6 31be
00000010: f279 ca3d fd99 d1be 2d70 a63e 0272 6dbd
00000020: 2b81 6e3e 1e79 2680 49ab 7bbd 322f 1f3c
00000030: 7e09 bdbd 9d1d 0901 c021 e63a cc30 a0bc
00000040: 0608 0cbe 9c8d 27bd 6499 cdb2 da08 8681
00000050: 0633 a03e 80fb 0fbd f1f6 12be 4ded 55be
00000060: a23b a13d d0b6 5f3c 3382 a03e f7c9 f8bd
00000070: aceb 7139 370f b0bd 1bc7 a43e 3a95 a13e
00000080: 52e1 623d 8e6a 9fbd 56a3 cdbe f4cf 24bd
00000090: 0efc e23d 1e92 083e 0f1a edbe 861c 3e3c
000000a0: 2d6d cdbe a5ae 1e3c 52b6 213e 3659 0bbe
000000b0: 3821 873d 42b5 20b2 e0d9 633e c552 1f3e
000000c0: 46f1 e03b 318d 473e 24eb 0bbe 2b6c 5c00
000000d0: cbb0 e0be 4395 d6bd c9af eebc 14b3 093e
000000e0: 8068 dcbd ec05 af3d 2a9a b3be 1db6 d6bd
000000f0: 0c89 4500 fb13 7bbd d337 0abf 1d8e c3be
00000100: 6318 1a3e f29f 57bd b3d3 16bf 78ae 0cbd
00000110: 562b b93d 69cf 0b3e 1e0b fcbe 8c43 1f3e
00000120: c793 03bf 1557 d8bc 123d 9c3d 46fd f4bd
00000130: bbb3 cc3d 5990 c8b4 6151 a53e ab9a 1a3e
00000140: 3872 57bc 3807 7c3d cd87 34be b74a 8600
00000150: 8c4a acbe aa56 9d3d f22a a7ba 13f2 083e
00000160: c793 58bc 12e9 723d 2549 14bf cdc3 97bd
00000170: 614b 6e00 6794 50be 1867 97be 6bd6 09bf
00000180: 4bee f5bd 3703 be3c 0c63 c43e f0c5 8f3d
00000190: 02c0 e83c 1b80 4dbd 18d0 b13e d8ee 103e
000001a0: 848f 443e 40a4 4fbc 4a0f c5bc 520f 0a3e
000001b0: d39a f03d 01f2 9c37 6390 b0be 2ee8 2dbe
000001c0: 920f 50bd f40d 91be 96be 1bbd a06a 3880
000001d0: 35e9 c43e a8e2 523d 00c2 293b f602 b73d
000001e0: 19be 963d 1420 163e c108 1b3e 1bd5 14bb
000001f0: 0f43 3eb8 e39b ee3d 2ac9 c53e e433 793e
00000200: ab8a 353c 2c93 1b3d 9c1a a880 5db3 9580
00000210: 24c5 c7bd bbb4 9e3c 55be b037 3aad 3a3d
00000220: 334b a100 f576 0b00 e71d eb3c 48b9 0fbb
00000230: 90d2 96bd daee 4380 a49c 903d dc9e ab00
00000240: c7a6 6300 e30d ad3c 7d4c 8f0b aa09 d980
00000250: a080 a5a9 692e 1805 b08b 0e00 5b7a 6880
00000260: ea06 548f a09f a9bd a158 0781 17a2 863d
00000270: eaf5 4700 181d 8d3a bf05 4380 5d43 de25
00000280: 1a15 1a3e 546f 32be ade1 af3d b20d 9a3d
00000290: 34bd 183e 7e35 2ebe 8648 983e fde7 e83d
000002a0: 905a cd3e e2e3 2dbd 8471 133e 7e5f 06bd
000002b0: 3bfe 63bb 15db 8a2e 8a2f afbe 3b22 3fbe
000002c0: 2fdb 733c 4083 b0be d53b 77bd 404a 1281
000002d0: a623 883e e039 083e ebe4 b63c 91e0 95bd
000002e0: 4d6e 8a3e a80d 3b3e 1681 ec3e 1d83 38be
000002f0: 7437 30b7 cbca 1dbd 92cd b13e 332a 8a3e
00000300: 9b77 243e 5c4b 233e 1066 07bf 264e 35bd
00000310: de3b ea3d 8f0d 073c 06a2 b4be 001b 213e
00000320: 7a87 d8be 9767 8abd e942 543e 7026 f13d
00000330: 4ab7 fb3d 7235 1db4 a950 6d3e eae9 72bd
00000340: fda4 47bd 44fb 343e bb21 1abe cbe8 5180
00000350: 63cf f8be b9b6 05be a57a 843a a142 4b3e
00000360: 0471 6cbe 9b60 f73c b39f cabe 66c7 0d3e
00000370: 127a 3001 72a8 eabd 4a94 e4be 9e91 fcbe
00000380: cfbd d6bd 1ed0 283d 7d9e b5be 62d4 c7bc
00000390: 8d7e ebbc a15e 93bc fcf4 29be a65f 0abd
000003a0: 2f72 10be 59e5 d5bb 66f2 0c3e c1c4 34be
000003b0: 2695 243e cc60 c1a5 b5f8 7f3e 3ab6 633e
000003c0: 5ac3 0c3c 586b b03e 9521 93bd 56ed 2801
000003d0: afba f6be c1c3 45bd 8037 c7bd e328 1dbd
000003e0: ff0a d8be 848e 0e3d ae7f a0be 6eea b4bc
000003f0: 8957 d680 4f08 2dbe 6712 eabe 41f4 57be

bias f4 [8]
0.69997317 0.10111943 0.14183469 -0.14023861 -0.00070380344 0.05061124 0.018235505 0.09223075
00000000: 7131 333f b417 cf3d 1d3d 113e b69a 0fbe
00000010: 737f 38ba bb4d 4f3d a062 953c 7ae3 bc3d

weight f4 [1, 8]
0.49517152 0.1426405 0.18521227 -0.29142106 0.005797492 -0.22094044 0.237242 0.35736227
00000000: 1f87 fd3e 5a10 123e 49a8 3d3e 2435 95be
00000010: e3f8 bd3b 363e 62be 91ef 723e 30f8 b63e

weight f4 [8, 1]
1.0182768 0.4363966 -0.5321592 0.8525552 0.98933756 1.0272051 0.39083022 -0.023689793
00000000: e556 823f 606f df3e 963b 08bf 0f41 5a3f
00000010: 3a45 7d3f 757b 833f e61a c83e 1911 c2bc

bias f4 [8]
0.60426056 -0.23415583 -0.60747 -0.20413911 0.9381127 -0.8296909 -0.49618015 0.62028974
00000000: d2b0 1a3f 8cc6 6fbe 2783 1bbf d809 51be
00000010: 2728 703f 9f66 54bf 530b febe 4fcb 1e3f

weight f4 [32, 8]
0.4374503 0.24422011 -0.08433399 -0.073320396 0.32264698 0.2639198 0.15782405 0.23624957
-1.2600862e-18 1.340419e-39 -2.6472475e-14 -1.6291343e-38 -6.756177e-12 1.1452032e-38 1.1063272e-38 -2.5832594e-10
0.4140741 -0.18396634 -0.20775238 0.14118974 -0.05635134 -0.05882275 -0.046002816 0.22365527
0.13455531 -0.027482873 0.09023441 -0.20821753 -0.13590722 -0.18376309 1.7020709e-38 -0.20854466
0.20300722 0.23482041 0.3589206 0.315195 -0.2606871 0.09127266 0.40523288 0.18307358
-0.2120259 -0.49765545 0.107636325 -0.108389236 0.10485326 -0.44677302 -0.07611719 0.2183606
0.357969 0.4438625 -1.079483e-38 0.17050809 0.04203685 0.25411966 0.2659444 -0.034230676
-0.0533887 -0.13970791 -0.39447355 -0.20997241 -0.06766539 -0.20259322 -1.3620695e-38 0.3711562
-0.28521875 -0.34173733 -0.47307608 -0.14988382 0.29843673 -0.10091707 -0.49702135 -0.00054319674
-0.9081533 7.090056e-39 0.66476226 8.2128e-40 -0.14757772 -1.0907004e-38 -1.0469228e-38 0.21184872
0.15028682 -0.12361162 -0.116925195 -0.25107926 0.19022232 -0.17066905 -0.22533101 0.48905787
-0.2870973 -0.43643898 0.17992549 -0.40736958 0.3459996 -0.46227765 -0.21784256 0.334021
0.0016126557 0.24242352 -0.051563364 0.17063515 0.36708736 0.012362106 0.2501303 -0.10885115
-0.00020083382 -5.553676e-07 0.35131288 0.003386231 -0.0031251092 -0.0027796337 6.4282816e-08 -0.2552808
-0.20641968 -0.0018918789 0.3669724 -0.05863379 -0.10897173 -0.24382636 4.112798e-39 0.23275878
0.24638706 0.014081104 -0.59047073 0.15015672 0.06426562 -0.021635996 -0.33880955 -0.04375474
-0.0381029 -0.40865728 -0.022250144 0.15571827 -0.09234691 -0.24495684 -0.49843603 0.3443706
-0.1702925 0.23422082 -0.1674238 0.0350335 0.37552834 -0.05796586 -0.25883242 0.22871973
-0.0030244305 -9.893663e-05 -2.2663768e-05 -0.001300037 -0.0033547722 -0.00041873995 -7.916469e-10 -0.0007014329
0.23666635 -0.27990085 -0.13975774 0.018962428 0.26520047 -0.039126422 -0.41681215 0.030753078
0.37661812 -0.25670442 -0.20376518 -0.14167963 0.15569085 -0.2660451 0.10118007 0.12135861
0.4191239 0.4810103 -8.681411e-39 0.4741069 -0.030993948 0.51273626 0.42933333 0.08067485
0.15922791 -0.06356121 0.084453106 -0.11660534 0.5062816 0.32855377 0.47369957 -0.32176527
-0.1509285 -0.3171137 0.3690999 -0.21896766 0.1260972 -0.23638725 7.3665e-39 0.3949967
0.26291305 0.25869405 -9.522426e-39 0.0553824 0.22404432 0.12655364 0.28198355 -0.12643965
-0.23876454 -0.3379535 -0.02990148 -0.38575864 0.36722478 -0.3132026 -0.50124353 0.53855824
-0.88250464 1.4795813e-38 0.43742606 4.427143e-39 -0.024530452 1.1763179e-38 1.0219602e-38 0.17313834
-1.2193488e-38 2.0167963e-38 -1.8278928e-38 -1.1873507e-38 4.68925e-40 -7.776123e-39 1.9171033e-38 0.017320586
-0.052083917 -0.11399111 0.07017066 -0.22003652 -0.40658218 0.1653258 0.02241339 0.20895335
-1.0052483 -8.023523e-39 0.4377026 -4.543287e-39 -0.04576775 6.362789e-39 6.331406e-39 0.24507783
0.19032997 0.4074798 4.85016e-39 0.003208933 -0.10676806 0.4318964 0.20595995 -0.29454362
-0.11992649 4.135942e-39 0.07851206 -1.2529325e-38 -0.60141325 5.32069e-39 -1.3498432e-38 0.25574994
00000000: 7cf9 df3e d614 7a3e 4db7 acbd 0129 96bd
00000010: fc31 a53e 7f20 873e a19c 213e 68eb 713e
00000020: b6f4 b9a1 8b98 0e00 5f71 eea8 a365 b180
00000030: 3cb6 edac 9bb3 7c00 e777 7800 2504 8eaf
00000040: 8501 d43e ac61 3cbe 0abd 54be 0b94 103e
00000050: aad0 66bd 20f0 70bd 736d 3cbd e305 653e
00000060: dec8 093e c323 e1bc d1cc b83d fa36 55be
00000070: 432b 0bbe 642c 3cbe d056 b900 bb8c 55be
00000080: 20e1 4f3e c374 703e 71c4 b73e 3d61 a13e
00000090: c878 85be 29ed ba3d af7a cf3e a477 3b3e
000000a0: 511d 59be b2cc febe 6f70 dc3d 2dfb ddbd
000000b0: 4ebd d63d 6fbf e4be 54e3 9bbd ec99 5f3e
000000c0: b647 b73e f241 e33e 988b 7580 ac99 2e3e
000000d0: d52e 2c3d f91b 823e dd29 883e 7735 0cbd
000000e0: 1cae 5abd 970f 0fbe 70f8 c9be 0203 57be
000000f0: 2794 8abd 9974 4fbe f550 9480 2f08 be3e
00000100: 3108 92be 32f8 aebe 0737 f2be 257b 19be
00000110: b3cc 983e 9cad cebd 9579 febe 5165 0eba
00000120: bc7c 68bf 3134 4d00 dc2d 2a3f 65f1 0800
00000130: 9d1e 17be 4ac4 7680 f3ff 7180 dfee 583e
00000140: cae4 193e 1728 fdbd 7a76 efbd 768d 80be
00000150: a4c9 423e dec3 2ebe 2cbd 66be cb65 fa3e
00000160: 6bfe 92be ee74 dfbe 633e 383e bf92 d0be
00000170: dc26 b13e a8af ecbe 1f12 5fbe cd04 ab3e
00000180: bf5f d33a df3d 783e 1b34 53bd fbba 2e3e
00000190: e0f2 bb3e 6e8a 4a3c 1411 803e 5aed debd
000001a0: eb96 52b9 9214 15b5 48df b33e 87eb 5d3b
000001b0: a2ce 4cbb 842a 36bb da0b 8a33 2ab4 82be
000001c0: ae5f 53be ecf8 f7ba cee3 bb3e fc29 70bd
000001d0: 922c dfbd 9ead 79be cfc8 2c00 5158 6e3e
000001e0: e44c 7c3e 6eb4 663c 1729 17bf afc2 193e
000001f0: b29d 833d f93d b1bc 7278 adbe 2c38 33bd
00000200: c911 1cbd 873b d1be ef45 b6bc 9c74 1f3e
00000210: 6020 bdbd f7d5 7abe 0233 ffbe 5851 b03e
00000220: 2861 2ebe 95d7 6f3e 2571 2bbe 4a7f 0f3d
00000230: 4045 c03e 9c6d 6dbd af85 84be 8135 6a3e
00000240: 8635 46bb 337c cfb8 121e beb7 0166 aaba
00000250: bddb 5bbb 538a dbb9 339b 59b0 5de0 37ba
00000260: aa58 723e 2a4f 8fbe a71c 0fbe 1857 9b3c
00000270: 5bc8 873e 0743 20bd 6768 d5be e1ed fb3c
00000280: 17d4 c03e c36e 83be d2a7 50be 7714 11be
00000290: 6c6d 1f3e 1037 88be 7f37 cf3d dd8a f83d
000002a0: 6897 d63e fb46 f63e 3e88 5e80 24be f23e
000002b0: 05e7 fdbc af42 033f 94d1 db3e db38 a53d
000002c0: a40c 233e 612c 82bd c0f5 ac3d c8ce eebd
000002d0: ac9b 013f 3338 a83e c088 f23e 6bbe a4be
000002e0: 008d 1abe ba5c a2be a9fa bc3e 0f39 60be
000002f0: a01f 013e 800f 72be ce36 5000 023d ca3e
00000300: 8a9c 863e 8c73 843e a6b0 6780 a8d8 623d
00000310: e06b 653e 4797 013e 2660 903e 6579 01be
00000320: b17e 74be 3e08 adbe f3f3 f4bc 2882 c5be
00000330: e304 bc3e 175c a0be 7f51 00bf f4de 093f
00000340: d3eb 61bf b51c a100 4ff6 df3e 1335 3000
00000350: 16f4 c8bc f516 8000 1848 6f00 2d4b 313e
00000360: 7cc6 8480 139c db00 370a c780 824a 8180
00000370: 2c1b 0500 abac 5480 0ac1 d000 e7e3 8d3c
00000380: f255 55bd 2c74 e9bd a3b5 8f3d 4151 61be
00000390: 8a2b d0be 2b4b 293e 499c b73c def7 553e
000003a0: faab 80bf 515e 5780 8e1a e03e d678 3180
000003b0: f776 3bbd de48 4500 62f1 4400 aff5 7a3e
000003c0: dce5 423e 31a1 d03e 46d0 3400 f64c 523b
000003d0: 36a9 dabd 8621 dd3e 2ae7 523e 6cce 96be
000003e0: 059c f5bd 5309 2d00 eeca a03d a96e 8880
000003f0: 38f6 19bf ebef 3900 23fc 9280 a8f1 823e

bias f4 [32]
-0.2589913 -1.9502218e-07 -0.0926889 0.3083429 -0.120039515 0.36320537 -0.31926492 0.10197047
0.24118264 0.093093105 0.5066096 0.16355199 -0.027031977 -0.12553273 0.39350548 0.5451218
0.5131831 -0.06932989 -0.0013002628 0.21052904 0.2662831 -0.3519892 -0.31404406 -0.101626165
-0.012897726 0.44227257 0.04869117 -0.020413429 0.09208255 0.035535797 -0.11021771 0.17407778
00000000: 829a 84be 4a67 51b4 aed3 bdbd 1fdf 9d3e
00000010: 47d7 f5bd 0ef6 b93e b176 a3be e5d5 d03d
00000020: 95f8 763e 99a7 be3d 2bb1 013f 2c7a 273e
00000030: 2a72 ddbc a78b 00be 8d79 c93e 1a8d 0b3f
00000040: f85f 033f d4fc 8dbd 946d aaba ed94 573e
00000050: 4256 883e ee37 b4be 62ca a0be 6121 d0bd
00000060: fc50 53bc 8d71 e23e 6470 473d 103a a7bc
00000070: c795 bc3d fc8d 113d d3b9 e1bd 7241 323e

weight f4 [64, 32]
0.12935528 -1.5046836e-38 -0.006169964 0.06142268 -0.182705 -0.058646157 -0.03328164 -0.38598797
-0.20513704 0.006073476 0.2863765 0.017934505 0.18717036 0.10299422 -0.19037814 0.09800118
-0.15045784 0.02850888 9.6748806e-08 0.23865984 0.31159028 -0.050107628 -0.027760198 -0.13688968
0.13852619 -0.009992484 0.04085944 2.7008722e-38 0.013029376 -0.0019048053 -0.1379141 0.14594984
-0.23763865 -2.596568e-39 -0.017065916 -0.15075381 -0.20734315 0.35083157 0.16663381 0.3071399
0.32222608 -0.131793 0.15578945 0.2724535 -0.004574115 -0.9612822 0.21907488 -0.10388721
0.1050578 -0.18703875 -3.521489e-19 0.0058634887 -0.20144248 0.10313079 -0.030061722 -0.103139184
0.07688112 0.17877592 -0.12990011 2.7153044e-38 -0.16769971 -0.07080988 -0.124652214 -0.22174333
0.1339358 1.0293e-41 0.23649123 -0.073281266 0.31423488 -0.44336843 0.29006222 0.017284209
-0.16512115 1.1478736e-38 -0.04216404 -0.29354158 0.21565638 -3.193663e-39 -0.10257083 0.14207123
-0.41055584 0.034341156 2.2914141e-11 -0.00737182 0.1121718 0.004780017 0.19113606 -0.097355485
0.19877349 -0.44351208 9.7312e-41 1.0118674e-38 0.00044642418 -2.0907275e-38 0.16584362 -9.966363e-39
0.008862656 3.4884552e-38 0.24624155 -0.19552468 0.23289552 -0.22208484 -0.026057461 -0.19955564
0.055994578 -1.7188705e-38 -0.09042009 -0.18237913 0.19365153 1.8184188e-38 -0.22150843 -0.07192228
-0.37866333 0.15066445 2.8400207e-10 -0.031266265 -0.0245313 0.270545 0.23170546 -0.08799538
0.08175656 -0.27272433 1.5828576e-38 -6.47312e-39 -0.011644416 -1.5176425e-38 0.06626804 2.0575969e-38
-0.0039725206 5.345616e-39 -0.000100665115 -0.089714214 0.42874947 -0.008398627 -0.0004350656 -0.7103482
-0.28261095 0.3643105 -0.08795135 0.102490135 -0.0010532493 -1.1026008 0.12801062 -1.1266198
-0.112773724 -0.065373085 -9.052733e-07 -0.24084178 -0.47214937 -0.0011155343 0.007855807 0.30547595
-0.00045542436 -0.12525186 0.30321896 1.1556534e-38 0.21843415 0.28233808 -0.00028155546 0.19551003
-0.18150651 -1.7526941e-38 -0.15480365 0.19443399 0.057346575 0.27543488 -0.41234422 0.28637075
0.20652525 0.00079562375 0.25295994 0.3353914 0.102819495 -0.8911203 0.06993015 -0.0036271908
0.021479785 0.019001193 -3.1645875e-06 -0.0952262 0.1404975 -0.17144048 0.14272618 0.013293863
-0.18106875 0.10874161 0.05629608 2.235004e-38 -0.15818816 -0.016605392 -0.1353994 -0.17019758
0.032209326 -1.1466227e-38 0.038272034 -2.4189775e-38 -0.015475312 2.493938e-38 0.21733528 -1.0032261e-38
7.367229e-39 -2.7748563e-38 -0.488034 -9.15605e-39 0.027881663 1.94693e-39 3.006706e-39 -0.13860676
6.36296e-39 0.12934072 6.880486e-11 -0.18389867 -0.064551696 0.18808524 -0.036504038 -9.058649e-39
0.0860628 -1.801123e-39 9.69519e-40 -2.4608494e-38 1.4310369e-15 -1.100279e-39 0.035372935 1.3718357e-38
0.06913213 1.6682594e-38 0.08004623 0.20290141 -0.14563161 0.3182576 -0.12393119 -0.16919155
0.07153795 0.051365722 0.5031621 0.4382499 -0.08157361 0.7221935 0.13053912 0.12232102
0.011221868 0.0081037525 2.2104377e-06 0.06916918 0.41418144 -0.18638554 -0.23389533 0.017909689
0.06331462 -0.007028646 -0.098481074 -2.445426e-38 0.10362388 -0.025231196 -0.22668396 0.043049637
00000000: b675 043e 75d8 a380 692d cabb 5996 7b3d
00000010: 0517 3bbe f436 70bd 5452 08bd 37a0 c5be
00000020: 720f 52be 0204 c73b f19f 923e 62eb 923c
00000030: 96a9 3f3e a2ee d23d 7df2 42be d8b4 c83d
00000040: 9f11 1abe 748b e93c 38c4 cf33 3f63 743e
00000050: c388 9f3e a83d 4dbd 5b69 e3bc cf2c 0cbe
00000060: cfd9 0d3e 84b7 23bc 3a5c 273d aa0c 1301
00000070: 2a79 553c a9aa f9ba 5b39 0dbe e073 153e
00000080: 8c57 73be 2d46 1c80 d2cd 8bbc 355f 1abe
00000090: c351 54be 32a0 b33e 0ea2 2a3e 7141 9d3e
000000a0: d1fa a43e bff4 06be 4587 1f3e 067f 8b3e
000000b0: 75e2 95bb 9716 76bf 2a55 603e d1c2 d4bd
000000c0: 8b28 d73d 1687 3fbe 3ddf cfa0 8222 c03b
000000d0: f046 4ebe 3c36 d33d 0044 f6bc a33a d3bd
000000e0: d973 9d3d 0911 373e 8904 05be d2d5 1301
000000f0: 79b9 2bbe c504 91bd a949 ffbd af10 63be
00000100: 7726 093e b11c 0000 c22a 723e 7d14 96bd
00000110: 65e3 a03e 3001 e3be 0983 943e 9d97 8d3c
00000120: 8515 29be 0cfe 7c00 33b4 2cbd 154b 96be
00000130: 07d5 5c3e a2c6 2280 a810 d2bd 1f7b 113e
00000140: 6034 d2be 50a9 0c3d 0f8e c92d 4f8f f1bb
00000150: 54ba e53d b0a1 9c3b 2cb9 433e 5062 c7bd
00000160: 478b 4b3e 0414 e3be 440f 0100 bf2e 6e00
00000170: 0a0e ea39 faa8 e380 e9d2 293e 2a86 6c80
00000180: ac34 113c f8ed 3d01 bf26 7c3e 9f37 48be
00000190: 2a7c 6e3e 356a 63be 7576 d5bc 5058 4cbe
000001a0: 925a 653d 1e2b bb80 2b2e b9bd 98c1 3abe
000001b0: 964c 463e 1e02 c600 1bd3 62be fd4b 93bd
000001c0: 29e0 c1be c847 1a3e bd21 9c2f 0e11 00bd
000001d0: ddf5 c8bc e084 8a3e 3244 6d3e ec36 b4bd
000001e0: fc6f a73d 86a2 8bbe a15b ac00 6d7c 4680
000001f0: 38c8 3ebc b341 a580 8ab7 873d 6e0d e000
00000200: eb2b 82bb 6735 3a00 2c1c d3b8 16bc b7bd
00000210: 0d85 db3e 659a 09bc 8419 e4b9 61d9 35bf
00000220: 62b2 90be e886 ba3e d61f b4bd 59e6 d13d
00000230: 2f0d 8aba 0622 8dbf 3715 033e 1435 90bf
00000240: e9f5 e6bd 53e2 85bd e801 73b5 3a9f 76be
00000250: 90bd f1be 1f37 92ba a5b5 003c 5867 9c3e
00000260: 06c6 eeb9 0642 00be 843f 9b3e ead6 7d00
00000270: 34ad 5f3e 9e8e 903e bc9d 93b9 c833 483e
00000280: d8dc 39be fbd9 be80 d984 1ebe b419 473e
00000290: 3ee4 6a3d cd05 8d3e c81e d3be 309f 923e
000002a0: 5b7b 533e 6891 503a f783 813e 6cb8 ab3e
000002b0: 0793 d23d 7620 64bf 8a37 8f3d 2ab6 6dbb
000002c0: 60f6 af3c 64a8 9b3c 335f 54b6 f405 c3bd
000002d0: 94de 0f3e 188e 2fbe d026 123e 81ce 593c
000002e0: 166a 39be ecb3 de3d b896 663d d25e f300
000002f0: 14fc 21be 0808 88bc 24a6 0abe 4648 2ebe
00000300: eded 033d 2ddb 7c80 23c3 1c3d a0b3 0381
00000310: 2a8c 7dbc 6cc8 0701 248d 5e3e dd3d 6d80
00000320: d638 5000 da13 1781 98df f9be 58b3 6380
00000330: 1668 e43c 4033 1500 79bd 2000 eeee 0dbe
00000340: 5849 4500 e571 043e b14d 972e ef4f 3cbe
00000350: ae33 84bd 6b99 403e 4285 15bd d4a3 6280
00000360: b141 b03d cc9c 1380 a08e 0a00 3cfb 0581
00000370: f13b ce26 21fb 0b80 36e3 103d 3361 9500
00000380: 2595 8d3d 49a8 b500 47ef a33d 63c5 4f3e
00000390: 7420 15be a9f2 a23e a3cf fdbd 8d40 2dbe
000003a0: 7d82 923d dd64 523d 3bcf 003f 4a62 e03e
000003b0: 1110 a7bd ace1 383f 0cac 053e 7183 fa3d
000003c0: eddb 373c 9ac5 043c 0857 1436 92a8 8d3d
000003d0: 970f d43e dadb 3ebe 4282 6fbe 57b7 923c
000003e0: 18ab 813d 8e50 e6bb 72b0 c9bd 4424 0581
000003f0: c238 d43d a7b1 cebc d71f 68be d154 303d

bias f4 [64]
0.25657114 0.18428496 -0.07380056 0.18351707 -0.091957 0.078610174 -0.2565861 0.4732616
-3.9142937e-23 0.06310137 0.15586285 0.167676 0.2152553 -0.25433922 0.11903128 0.2759917
-0.07284098 -0.033863485 0.14897305 0.27333304 -0.002926817 -0.13395046 0.02143193 0.12039375
0.23847006 0.23729199 0.29303187 0.17061153 0.095244154 0.24145053 -0.11640525 0.18323946
-0.08856305 0.23179221 -0.15349878 0.21902174 0.1458372 0.19935198 0.23938529 0.11342471
0.13892706 0.18073088 0.15427724 0.116418846 0.18476367 0.12241202 0.10837186 0.19559227
-0.08708792 0.17588967 0.29848692 0.18502241 0.093735956 0.030475829 0.08069211 -0.071265236
-0.08065191 0.07433699 -0.096510835 0.1032447 0.05171569 0.11095577 0.19615744 -0.0016004747
00000000: 4b5d 833e 32b5 3c3e bf24 97bd e6eb 3b3e
00000010: f453 bcbd 5ffe a03d 415f 83be 584f f23e
00000020: 9c48 3d9a 4b3b 813d 839a 1f3e 42b3 2b3e
00000030: e36b 5c3e c038 82be acc6 f33d c94e 8d3e
00000040: a72d 95bd 70b4 0abd 648c 183e 4ff2 8b3e
00000050: d7cf 3fbb 4f2a 09be 0492 af3c 0091 f63d
00000060: 7f31 743e acfc 723e 4608 963e cab4 2e3e
00000070: 5e0f c33d cf3e 773e e065 eebd 20a3 3b3e
00000080: 8b60 b5bd f05a 6d3e c92e 1dbe 3c47 603e
00000090: 5956 153e ed22 4c3e 6b21 753e 374b e83d
000000a0: e542 0e3e 8411 393e dafa 1d3e 016d ee3d
000000b0: b032 3d3e 27b3 fa3d 11f2 dd3d 5749 483e
000000c0: 275b b2bd 6c1c 343e 47d3 983e 8476 3d3e
000000d0: a3f8 bf3d 72a8 f93c e841 a53d 82f3 91bd
000000e0: d42c a5bd fe3d 983d 79a7 c5bd f571 d33d
000000f0: d5d3 533d c73c e33d 7fdd 483e 05c7 d1ba
