model/2800.23662899434566498.pt (torch_old, 168315 bytes, 19 tensors)

weight f4 [256, 2]
0	0xbe4a5af0	-0.19761252
1	0x3f2b0c1c	0.6681535
2	0x3ee2edf3	0.44322166
3	0x3e003639	0.12520684
4	0xbedb0f5d	-0.4278516
5	0x3d7a88da	0.061165668
6	0x3f329178	0.6975322
7	0xbf028831	-0.5098906
8	0xbeed86c8	-0.46391892
9	0xbe605947	-0.21909057
10	0xbeb14bc3	-0.34628114
11	0x3f0dad5d	0.55342656
12	0x3e3e86d6	0.18606123
13	0x3f13ce15	0.5773633
14	0x3dbb86c5	0.091565646
15	0xbedf6d44	-0.4363805
16	0x3e9473f6	0.2899472
17	0x3d6403b3	0.05566759
18	0x3ec20731	0.37896112
19	0xbe7d82cc	-0.24756926
20	0xbe87a8a4	-0.2649585
21	0x3ef5148e	0.47867244
22	0xbcee86af	-0.029116957
23	0xbee1f291	-0.44130376
24	0xbedbd4ee	-0.4293589
25	0xbf314c0d	-0.6925667
26	0x3eb1c5fb	0.3472136
27	0xbd48d040	-0.049026728
28	0xbeb9c9e1	-0.36286834
29	0x3f33aafc	0.70182776
30	0x3ea3275e	0.31865972
31	0xbe828bb8	-0.25497222
32	0xbda43393	-0.080176495
33	0x3ea0ca7f	0.31404492
34	0x3f1a46b0	0.6026411
35	0x3e965316	0.29360265
36	0xbf2a6be8	-0.665709
37	0x3e0f4b38	0.13993537
38	0x3eac5902	0.33661658
39	0xbdf3fbf5	-0.11913291
40	0x3ed25c6d	0.4108614
41	0xbf11e73f	-0.5699348
42	0x3e9704f7	0.29495975
43	0x3f24d8b2	0.6439315
44	0x3ebd78a6	0.3700611
45	0x3d97a091	0.074036725
46	0xbf49f7eb	-0.7889392
47	0xbe296cd6	-0.16545424
48	0xbee55343	-0.44790086
49	0xbf522328	-0.82084894
50	0x3e8ce85e	0.27521032
51	0xbebf1c8d	-0.3732647
52	0x3d834bc7	0.06410938
53	0x3f297293	0.6619045
54	0x3cfd7f1b	0.030944398
55	0x3c85e225	0.016343186
56	0xbea8033b	-0.32814965
57	0x3f17fdf4	0.59371877
58	0xbec4a180	-0.38404465
59	0x3f247ba9	0.6425119
60	0xbee50f25	-0.44738117
61	0xbf0ac744	-0.54210305
62	0x3f2e5452	0.6809741
63	0x3e074977	0.13211618
64	0x3f116d25	0.56807166
65	0x3ecd1bdb	0.40060315
66	0xbe7fe952	-0.24991348
67	0x3f1aa32d	0.60405236
68	0xbf4a0115	-0.789079
69	0xbe3c23de	-0.18373057
70	0xbd95da01	-0.073169716
71	0x3e9662cc	0.2937225
72	0x3f426d8b	0.759484
73	0xba8b1c17	-0.001061323
74	0xbec383ca	-0.38186485
75	0x3ee31605	0.44352737
76	0x3ed229fa	0.4104765
77	0xbf0177e8	-0.5057359
78	0xbf440834	-0.76575017
79	0xbdec1e4d	-0.11529217
80	0xbeec471d	-0.46148005
81	0x3f13f096	0.5778898
82	0x3e8d2696	0.275685
83	0x3ee56b8a	0.44808608
84	0xbe71023d	-0.2353601
85	0xbd849c98	-0.064751804
86	0xbea47bfd	-0.32125846
87	0xbea428a9	-0.3206227
88	0x3f355735	0.7083619
89	0x3e0187fd	0.12649532
90	0xbf271350	-0.65263844
91	0xbe459488	-0.19294941
92	0xbec426a8	-0.38310742
93	0x3f0e05e9	0.5547777
94	0x3f27fcd6	0.6562017
95	0xbf36fd1e	-0.71479976
96	0x3edd203c	0.43188655
97	0xbeea73bc	-0.45791423
98	0xbdb90f26	-0.090360925
99	0x3e808ae6	0.2510597
100	0xbe5586a8	-0.20852149
101	0x3efa4b80	0.48885727
102	0x3ee1b93a	0.4408663
103	0x3edf0e8d	0.4356579
104	0x3f335db7	0.7006487
105	0x3db6bfca	0.089232996
106	0x3eae462e	0.34037918
107	0xbe448ebb	-0.19195072
108	0xbec716e9	-0.38884667
109	0x3f11f966	0.57021177
110	0xbf13e7d5	-0.5777562
111	0x3f168082	0.5878984
112	0x3ea5d895	0.323918
113	0x3e961566	0.293132
114	0xbf1dbdb5	-0.61617595
115	0x3e9bc1f4	0.30421412
116	0xbdfb95ab	-0.12284406
117	0x3efb7ea2	0.4912005
118	0xbf1c77ac	-0.61120105
119	0xbf14124e	-0.5784043
120	0xbd93ae33	-0.0721096
121	0x3e3a94a5	0.18220766
122	0x3e8e8778	0.2783773
123	0x3f074e53	0.5285389
124	0x3e9b69cf	0.30354163
125	0x3ec1c05e	0.37842077
126	0xbe94a6f0	-0.29033613
127	0x3eb9cedf	0.36290643
128	0xbe14f922	-0.14548162
129	0x3e920331	0.2851806
130	0xbeb4fc48	-0.35348725
131	0xbea2c289	-0.31789044
132	0x3f0a712d	0.5407894
133	0xbef8ca1f	-0.48591706
134	0xbf552057	-0.8325247
135	0xbddfc1aa	-0.1092561
136	0xbed97a9e	-0.42476362
137	0x3efbff2b	0.49218115
138	0xbec92a3c	-0.39290035
139	0x3d4ab741	0.04949117
140	0xbf2ed675	-0.68295985
141	0x3de1404c	0.10998592
142	0x3f13ac1c	0.57684493
143	0xbf25c421	-0.64752394
144	0x3f11f4d1	0.57014185
145	0xbe6c3ffa	-0.2307128
146	0x3e25b336	0.16181645
147	0x3e8bc975	0.27302137
148	0xbed4cf2d	-0.41564313
149	0x3f17e847	0.593388
150	0xbecf1e42	-0.40452772
151	0x3e9f0148	0.31055665
152	0xbddc31e0	-0.107517004
153	0x3de2f615	0.11082093
154	0x3dc7ae44	0.097500354
155	0xbf3d9ca8	-0.74067163
156	0xbf2ebcf8	-0.68257093
157	0x3decc52c	0.11561045
158	0xbe8438f7	-0.2582471
159	0x3e8daa37	0.27668926
160	0x3ede208b	0.43384203
161	0xbec32206	-0.38111895
162	0xbeecdef4	-0.4626385
163	0xbf01f66d	-0.5076664
164	0x3e8619fb	0.26191697
165	0x3ce1f57d	0.027582878
166	0x3f050789	0.5196462
167	0x3eed8e08	0.46397424
168	0x3ea0e27d	0.31422797
169	0xbeaee153	-0.34156284
170	0x3f07d8f3	0.53065413
171	0xbf02eea3	-0.5114538
172	0x3f282a42	0.6568948
173	0x3e0132cc	0.12617034
174	0xbea1fc7b	-0.3163794
175	0xbf00a8a4	-0.50257325
176	0xbeca7ad8	-0.39546847
177	0x3f09e361	0.5386258
178	0xbe207910	-0.15671182
179	0x3f315db6	0.69283617
180	0x3e3942f3	0.18091945
181	0x3e5bdd0e	0.21471044
182	0x3e64d347	0.22346221
183	0xbe1fc8bd	-0.1560392
184	0x3f2cb19d	0.67458516
185	0x3f1c5f4c	0.6108291
186	0xbeee693d	-0.46564665
187	0x3ee70eb2	0.451284
188	0x3ece807c	0.403324
189	0xbe1b5c8b	-0.15172021
190	0x3ebd8584	0.37015927
191	0x3f2afcba	0.6679188
192	0xbd826b5c	-0.063681334
193	0x3f361ee7	0.71140903
194	0x3ee24412	0.4419256
195	0xbeef9821	-0.46795753
196	0xbd2cd532	-0.042195506
197	0xbed1272a	-0.40850192
198	0xbe9c2f99	-0.30505064
199	0x3e4378d6	0.19089064
200	0x3f45abb5	0.7721513
201	0xbd99f303	-0.07517054
202	0x3ef66d20	0.4813013
203	0xbf0b6363	-0.5444853
204	0x3f0d5772	0.55211556
205	0x3e99c3bf	0.30032155
206	0xbf2124b0	-0.62946606
207	0xbf1fdd27	-0.62446827
208	0x3e4036bf	0.18770884
209	0x3f1475e1	0.5799237
210	0xbee2a9bf	-0.4427013
211	0x3f0a439b	0.5400941
212	0xbedd743d	-0.43252745
213	0xbecc03c6	-0.3984663
214	0xbefbba55	-0.49165598
215	0x3f2bba3f	0.67081064
216	0xbf132c31	-0.57489306
217	0xbf03a87e	-0.51428974
218	0x3d9d7204	0.076877624
219	0xbf108821	-0.56457716
220	0xbe52b588	-0.20577061
221	0x3f0496c4	0.5179255
222	0xbf2062b2	-0.626506
223	0xbe62146c	-0.22078103
224	0x3efefe0d	0.498032
225	0x3efd42b1	0.49464944
226	0xbec09dc1	-0.37620357
227	0xbde77932	-0.11302413
228	0xbe3f048d	-0.1865408
229	0x3e80ec0f	0.25180098
230	0xbee62900	-0.44953156
231	0xbf2208d1	-0.632947
232	0xbe12ff22	-0.14355138
233	0x3e8568de	0.2605657
234	0xbecc78a0	-0.3993578
235	0x3f23bfa9	0.63964325
236	0xbe6d6de9	-0.23186459
237	0x3ecd13f1	0.40054277
238	0xbecc2937	-0.39875194
239	0xbf0b665e	-0.54453075
240	0xbe8518b5	-0.25995412
241	0x3c2b0c54	0.010439951
242	0x3f2292ad	0.6350506
243	0xbed8472e	-0.42241806
244	0x3ed0a615	0.4075171
245	0x3f17ec98	0.5934539
246	0x3f2d7501	0.6775666
247	0xbe2462db	-0.16053335
248	0x3f333c01	0.70013434
249	0xbed611b1	-0.41810372
250	0x3dafab74	0.08577624
251	0x3dff31b8	0.12460655
252	0xbf13b777	-0.5770182
253	0x3f37415e	0.7158412
254	0x3d0329ff	0.032022472
255	0x3f07788b	0.5291831

bias f4 [256]
0	0x3dafb10d	0.08578692
1	0x3e4fcf5e	0.20293948
2	0x3f6891da	0.9084755
3	0x3e4c508d	0.19952603
4	0x3e535845	0.20639141
5	0x3e49f8ec	0.19723862
6	0xbe9ba8d3	-0.3040224
7	0xbe2abd4d	-0.16673775
8	0x3cdf055e	0.027224239
9	0x3e848b89	0.25887707
10	0xbedc29f4	-0.43000758
11	0x3e9cdda0	0.30637836
12	0x3db70ccd	0.089379884
13	0xbf26a1b7	-0.6509051
14	0x3f0c94e0	0.54914665
15	0xbc14632e	-0.009056849
16	0xbf02fa3a	-0.51163065
17	0x3f47802e	0.7792996
18	0x3f0a5fce	0.54052436
19	0xbf038ac1	-0.51383597
20	0xbe82481d	-0.25445643
21	0x3e15067a	0.14553252
22	0xbe6ead57	-0.23308311
23	0xbddd3439	-0.10800976
24	0xbc3e048d	-0.011597765
25	0x3f40f478	0.7537303
26	0x3efdc5be	0.49564928
27	0x3e9436b6	0.2894799
28	0xbf0523e4	-0.5200789
29	0xbecb12e9	-0.39662865
30	0xbb1b252e	-0.0023673284
31	0x3f43bcfe	0.76460254
32	0x3e0ac926	0.13553295
33	0xbe62e594	-0.2215789
34	0x3d0a0c9f	0.033703443
35	0x3e135f25	0.14391764
36	0x3dd53606	0.10410695
37	0x3f0c21e4	0.54739213
38	0x3f1d7e6f	0.6152105
39	0xbef028cb	-0.46906123
40	0xbec82fc7	-0.3909895
41	0x3f131d3f	0.574665
42	0xbee67638	-0.4501207
43	0xbf14fbc8	-0.5819669
44	0xbf2a8d42	-0.6662179
45	0x3eaca62d	0.33720532
46	0xbf06bca6	-0.52631605
47	0x3f07b542	0.5301095
48	0x3e024cb4	0.12724572
49	0xbf3696b3	-0.713237
50	0xbe92a82f	-0.2864394
51	0xbe690848	-0.22757065
52	0xbd869cef	-0.065729015
53	0xbe7a5507	-0.24446498
54	0xbeaf8321	-0.3427973
55	0x3f19caa1	0.6007481
56	0x3f114e9a	0.5676056
57	0xbeb30bcf	-0.34969947
58	0xbee6b51f	-0.4506006
59	0xbf34f32b	-0.70683545
60	0xbcac831b	-0.02105861
61	0xbe9d419a	-0.30714113
62	0xbe7819bd	-0.24228568
63	0x3f3d845c	0.7403009
64	0x3f0325a2	0.512293
65	0x3e6585b6	0.22414288
66	0xbefabcaf	-0.4897208
67	0xbf20d363	-0.6282255
68	0x3ee9ec2a	0.4568799
69	0x3f72515d	0.946554
70	0x3e7ec24c	0.24878806
71	0x3e912051	0.28344968
72	0xbe323096	-0.17401347
73	0x3e4e883c	0.20169157
74	0x3eba69ff	0.36408994
75	0x3f0bbe91	0.54587656
76	0x3ef55203	0.47914132
77	0x3ea57bdf	0.3232107
78	0x3f7c9ffb	0.9868161
79	0x3efa8f35	0.48937383
80	0xbec0f454	-0.37686408
81	0xbe1f13ab	-0.15534846
82	0x3ed6b39b	0.41933903
83	0xbe6d6c38	-0.23185813
84	0x3dd37fd7	0.10327118
85	0xbe452e49	-0.19255938
86	0x3f3e608b	0.7436606
87	0x3e59c8c7	0.21267997
88	0xbe58776f	-0.2113931
89	0xbf0d2748	-0.55138063
90	0xbf085d7a	-0.53267634
91	0xbe827495	-0.2547957
92	0xbe5a222a	-0.21302095
93	0x3f3e4043	0.74316806
94	0xbc024113	-0.007950085
95	0xbed073e6	-0.40713423
96	0xbc2a7384	-0.010403518
97	0x3ddbbd9e	0.10729526
98	0xbe0a0767	-0.13479386
99	0xbf2c75e1	-0.6736737
100	0xbf211232	-0.6291839
101	0x3ea44da0	0.32090473
102	0xbe83845d	-0.25686923
103	0x3e66505d	0.22491594
104	0xbc0e3842	-0.008680405
105	0x3f39ffe5	0.7265609
106	0x3ef4108f	0.47668883
107	0x3e2527a7	0.16128407
108	0xbe27659a	-0.16347352
109	0x3eba0db5	0.36338583
110	0x3c1f1299	0.009709024
111	0xb91b0787	-0.00014784756
112	0x3db8c02f	0.09021031
113	0x3e4e0c9b	0.20121996
114	0xbe4af424	-0.19819695
115	0xbf26b7dc	-0.651243
116	0x3c9abf7e	0.018890139
117	0x3e901b53	0.28145847
118	0xbf2cbc55	-0.6747487
119	0xbe839073	-0.25696144
120	0x3f68d828	0.9095483
121	0xbd87ca16	-0.06630342
122	0xbeaed58b	-0.34147295
123	0xbeae7d7c	-0.34080112
124	0xbf0c3958	-0.54775
125	0x3f021233	0.5080902
126	0xbdad93ab	-0.08475431
127	0x3f40e9a0	0.75356483
128	0x3f0b2622	0.5435506
129	0xbf024099	-0.5087982
130	0xbd85a293	-0.06525149
131	0x3d85c4cb	0.06531676
132	0xbeda10da	-0.42590982
133	0x3f046290	0.51712894
134	0x3ef4f5f9	0.47843912
135	0xbe68d1bb	-0.22736256
136	0x3ef0b7f2	0.4701534
137	0xbefa6e6c	-0.4891237
138	0x3d184a63	0.037180316
139	0x3f39ab84	0.7252734
140	0xbe3f5c55	-0.18687566
141	0x3dcc31ef	0.099704616
142	0x3e95bbe3	0.2924491
143	0x3f31b0df	0.6941051
144	0x3eb21056	0.34778088
145	0x3e35c797	0.17751919
146	0xbe727e70	-0.23681045
147	0x3eab9a34	0.33516085
148	0xbe6be303	-0.23035817
149	0xbe9990f7	-0.29993412
150	0x3ec9c8e4	0.3941108
151	0x3f04f250	0.5193224
152	0x3d452b7e	0.04813718
153	0xbed1bab9	-0.4096277
154	0x3f223ab9	0.63370854
155	0xbf0a6c2f	-0.54071325
156	0xbe2e9908	-0.17050564
157	0xbdb08b90	-0.086203694
158	0x3f1bb752	0.608266
159	0x3f354c87	0.70819896
160	0xbf0996da	-0.53745806
161	0xbdd6f21e	-0.10495399
162	0x3e53033f	0.20606707
163	0x3f13f3b5	0.5779374
164	0xbeeddbc7	-0.4645674
165	0xbe95c562	-0.29252154
166	0xbe668ba2	-0.22514203
167	0xbe558f84	-0.20855528
168	0x3f38a15c	0.72121215
169	0x3e831483	0.25601587
170	0x3f13734d	0.5759781
171	0x3d23599c	0.03988038
172	0x3ee168f6	0.4402539
173	0x3f139d52	0.57661927
174	0xbf56778f	-0.8377618
175	0xbe66ade5	-0.22527273
176	0x3f215fb8	0.6303668
177	0x3f46220e	0.77395713
178	0xbee48dd9	-0.4463947
179	0xbec94cfe	-0.39316553
180	0x3f27e4be	0.6558341
181	0xbe71118b	-0.23541848
182	0xbdbf392e	-0.09337078
183	0xbf0165fa	-0.5054623
184	0x3ec642a6	0.38722724
185	0x3e9a3547	0.30118772
186	0xbf210356	-0.62895715
187	0xbe81d544	-0.2535802
188	0xbe972b99	-0.2952545
189	0x3ec505c1	0.38480952
190	0x3e6118d2	0.21982124
191	0x3e0b372b	0.13595264
192	0xbecfc193	-0.40577373
193	0x3eb4411a	0.3520592
194	0x3ea8f322	0.32997996
195	0xbea48713	-0.32134303
196	0xbec6a9e3	-0.38801488
197	0xbedc81e6	-0.43067855
198	0xbf1240ac	-0.5712993
199	0x3e79d335	0.24396975
200	0xbf055c4b	-0.5209395
201	0xbf280f32	-0.65648186
202	0xbf033c4b	-0.51263875
203	0xbbb7b73f	-0.0056065614
204	0xbeb1478d	-0.346249
205	0x3ef36a4c	0.47542036
206	0x3e8e32c3	0.27773103
207	0xbead14fa	-0.33805066
208	0xbe9e2833	-0.30890045
209	0xbd909250	-0.07059157
210	0xbe360315	-0.17774613
211	0x3de358d5	0.11100928
212	0x3eb0d416	0.3453681
213	0xbf05727b	-0.5212781
214	0xbed08774	-0.40728343
215	0x3eee1764	0.4650222
216	0x3f06fa23	0.5272543
217	0xbd88595d	-0.0665767
218	0xbefafb23	-0.49019727
219	0x3e8ddd5b	0.27707943
220	0x3f1ebc6c	0.6200626
221	0x3de6acf1	0.11263455
222	0x3e757b86	0.23972902
223	0x3e98fefe	0.29882044
224	0x3f161acf	0.58634657
225	0x3d9859ff	0.074390404
226	0x3f5d72aa	0.8650309
227	0xbf0e3492	-0.55548966
228	0x3eb9ace6	0.36264724
229	0x3eb5ae04	0.35484326
230	0xbf04ec91	-0.5192347
231	0x3efe3fde	0.49658102
232	0xbe699aa2	-0.22812894
233	0x3f049c4c	0.5180099
234	0x3ec51d95	0.38499132
235	0x3f126600	0.5718689
236	0xbdce1579	-0.10062689
237	0x3f50632a	0.8140131
238	0xbed5ccc6	-0.41757792
239	0x3f5461f8	0.8296199
240	0x3e894fb0	0.2681861
241	0x3f2b7304	0.66972375
242	0x3f5e0ba7	0.8673653
243	0x3f312152	0.6919147
244	0x3efa717c	0.48914707
245	0x3e31b785	0.17355163
246	0xbd6adacc	-0.057337567
247	0xbe18d4bc	-0.14924902
248	0x3f033ec3	0.5126764
249	0x3f06de4d	0.52682954
250	0xbf05ee02	-0.52316296
251	0xbef88e97	-0.48546287
252	0x3f072061	0.5278378
253	0x3d574a34	0.052561
254	0x3d24c780	0.04022932
255	0x3ee9b73a	0.45647603

weight f4 [64, 256]
0	0x3bda0713	0.0066536753
1	0x3cbfbafc	0.02340459
2	0x3d24beff	0.04022121
3	0x3dfa0b95	0.1220924
4	0x3bc08b6b	0.005875995
5	0x3c5e4c45	0.013567989
6	0x3d1e96af	0.03871792
7	0x3b3eb044	0.0029096762
8	0x3dcb5883	0.09928992
9	0x3df34883	0.11879065
10	0x3c9cff3d	0.019164676
11	0xbc918ea8	-0.01776822
12	0x3d1e6cce	0.038677983
13	0x3d2ac031	0.041687194
14	0xbb8a59fa	-0.004222152
15	0x3d3c71f9	0.04600713
16	0xbb9579cd	-0.004561639
17	0x3d91c7a3	0.07118156
18	0xbd5d2a32	-0.05399532
19	0x3d732a86	0.059366725
20	0xbd610da1	-0.05494464
21	0xbc2ff9e4	-0.010740731
22	0x3dae3ab6	0.08507292
23	0x3d06a794	0.03287466
24	0xbcea8558	-0.028628036
25	0x3d281ef1	0.041045133
26	0x3d411e81	0.04714823
27	0x3d9c4fee	0.07632433
28	0xbd10d667	-0.03536072
29	0x3d7b9598	0.06142196
30	0x3c6cf2c2	0.014462175
31	0x3d88dfb0	0.0668329
32	0x3d0e54ce	0.034748845
33	0xbc4f843a	-0.012665803
34	0xbc5303a9	-0.012879291
35	0x3cd48021	0.025940003
36	0x3da9e828	0.082962334
37	0x3d58e7e2	0.052955516
38	0x3cf16b2d	0.02947005
39	0x3d008d42	0.031384714
40	0x3d15f6ec	0.036612436
41	0x3d913ca1	0.07091642
42	0x3a17d1fa	0.0005791482
43	0x3cdc07b3	0.02685914
44	0x3bcb8f5f	0.0062121595
45	0x3c32388a	0.010877738
46	0x3dab7bf0	0.083732486
47	0x3c8699a4	0.016430683
48	0x3c159cd6	0.009131631
49	0x3deb618c	0.11493215
50	0xbd1042f5	-0.035220105
51	0x3d95b6c6	0.07310252
52	0x3d447e7a	0.04797218
53	0x3d1b4b62	0.037913688
54	0xbc429653	-0.01187666
55	0x3d869bd8	0.065726936
56	0xbc535f5c	-0.012901153
57	0xbc03a136	-0.008034041
58	0xbbe26a6c	-0.006909659
59	0xb9a0ea7d	-0.00030692286
60	0xbbc4a705	-0.0060013556
61	0x3cde8b94	0.027166165
62	0x3c99f48f	0.018793372
63	0xbbb53393	-0.0055298298
64	0xbd878cd2	-0.06618656
65	0xbca814af	-0.020517675
66	0x3dac4ce8	0.08413106
67	0x3c9f5710	0.019450694
68	0x3d453a04	0.04815103
69	0xbcf609a5	-0.030033896
70	0x3b90cfbb	0.0044192947
71	0x3d8f9da4	0.070124894
72	0x3d1ad6e0	0.037802577
73	0x3d85467a	0.06507583
74	0xbd0de7c2	-0.03464485
75	0xba9532cd	-0.0011382938
76	0x3cdc132c	0.02686461
77	0xbc4611e9	-0.012089231
78	0x3d2cbec6	0.042174123
79	0x3c54d67a	0.012990588
80	0x3d9b05e9	0.07569487
81	0xbd2d1394	-0.042255
82	0x3d52e8dc	0.051491603
83	0x3d1d32cc	0.03837852
84	0x3d00de57	0.03146204
85	0xbc697ae1	-0.014250488
86	0x3db1cb7e	0.08681391
87	0x3c697846	0.014249867
88	0xbcaa5267	-0.020791246
89	0xbd5e29f5	-0.054239232
90	0x3d2dc5b9	0.04242489
91	0x3d718acf	0.05897027
92	0xbcddd2f1	-0.027078124
93	0x3d03a441	0.032139067
94	0x3cce903a	0.025215257
95	0x3cb26314	0.02177576
96	0xbd425aa5	-0.047449727
97	0x3d3eeafb	0.046610814
98	0x3cb6ebe7	0.022329284
99	0x3d2b8409	0.041873965
100	0x3d50e106	0.05099585
101	0x3d644ce9	0.05573741
102	0xba35b4f3	-0.00069315656
103	0xbd1edf8d	-0.038787413
104	0xbd02663f	-0.03183579
105	0xbceedb02	-0.029157165
106	0xbb9535c8	-0.0045535304
107	0xbd4d8dae	-0.050183944
108	0x3ba0a10d	0.0049020112
109	0xbcf9ec56	-0.030508202
110	0xbbe17249	-0.006880079
111	0xbbc89b3d	-0.0061220215
112	0x3d79f34f	0.061023053
113	0x3b6f0158	0.0036469307
114	0x3d8dff33	0.06933441
115	0xbc6d3e1b	-0.014480139
116	0xbd513c1e	-0.051082723
117	0xbd8c390f	-0.068468206
118	0x3c721378	0.0147751495
119	0xbbfdacb2	-0.007741534
120	0xbcb7e2dd	-0.022447044
121	0x3df17664	0.11790159
122	0x3c86fc00	0.016477585
123	0xbae653bf	-0.0017572566
124	0x3d5088ee	0.050911836
125	0xbcfaf833	-0.030635929
126	0xbbf41b5e	-0.0074495515
127	0x3d5d8cea	0.054089464
128	0xbcc4eb37	-0.02403794
129	0x3d48a53d	0.04898571
130	0x3d0e735d	0.034777988
131	0x3c811dd1	0.015761288
132	0xbd944ead	-0.07241569
133	0x3b548da8	0.0032433067
134	0x3db058a5	0.086106576
135	0x3d161547	0.036641385
136	0x3c84e065	0.01622028
137	0x3d830b0c	0.063985914
138	0x3c499df1	0.012305723
139	0xbbfe1918	-0.0077544563
140	0x3c841993	0.016125476
141	0x3c1281c9	0.008942076
142	0xbcec159b	-0.028818896
143	0xbcedc3bc	-0.029023997
144	0x3c9f0bf4	0.01941488
145	0xbc3bd55b	-0.011464442
146	0xbc834863	-0.016025728
147	0xba7585ac	-0.0009365927
148	0xbbae9747	-0.0053280923
149	0x3d0683d5	0.03284057
150	0x3d6dc7aa	0.058051743
151	0xbc3d0aad	-0.01153819
152	0x3ba0d92c	0.0049087014
153	0x3d5d96ce	0.054098897
154	0xbd1774d1	-0.03697664
155	0x3d0a2c91	0.033733908
156	0x3d13f96b	0.036126535
157	0x3da69652	0.0813414
158	0xbd0f7860	-0.035026908
159	0xbc3fb7c3	-0.011701527
160	0x3c443b51	0.011977033
161	0xbd917839	-0.07103009
162	0xbd340301	-0.043948177
163	0x3cface6d	0.03061601
164	0xbb9e1941	-0.004824788
165	0xba1286b0	-0.0005589528
166	0x3b84b6b1	0.004050099
167	0x3da56b33	0.08077087
168	0x3cdcd774	0.026958205
169	0x3bad1710	0.0052822903
170	0xbc94e15c	-0.018173866
171	0xbd5ce4e3	-0.05392922
172	0x3d603ef0	0.054747522
173	0x3c512950	0.012766197
174	0xbc8e0008	-0.017334
175	0x3d9254ff	0.07145118
176	0x3ca7d013	0.02048496
177	0xbc0ec7c3	-0.008714619
178	0x3c0cefb4	0.008602072
179	0x3c9f4e9a	0.01944666
180	0x3b17ea43	0.0023180402
181	0x3da98287	0.08276849
182	0xbd26a600	-0.040685654
183	0xbd040683	-0.032232773
184	0xbc7dea19	-0.015497708
185	0x3d185110	0.037186682
186	0x3cc1555e	0.023600277
187	0x3d15ace3	0.03654183
188	0x3d85229c	0.06500742
189	0xbc619d26	-0.013770377
190	0x3cc691e1	0.024239482
191	0x3d2a835e	0.041629188
192	0x3c2e8b26	0.010653293
193	0x3dfd40b9	0.123658605
194	0xbc85ebdb	-0.016347816
195	0x3d96a6b7	0.07356017
196	0x3d985cd0	0.074395776
197	0xbd4a34a9	-0.049366627
198	0xbae5ffe5	-0.0017547576
199	0xbb46f55d	-0.003035865
200	0x3b0f2ec5	0.0021847945
201	0x3d1af332	0.037829585
202	0x3da6f8c8	0.0815292
203	0xbd309ff5	-0.043121297
204	0xbd1204f7	-0.035649266
205	0xbd58254c	-0.052769944
206	0x3dbddbfd	0.09270475
207	0xbd135715	-0.03597172
208	0x3cb6d5bf	0.022318719
209	0x3d29b70f	0.041434344
210	0xb87f79e2	-6.091025e-05
211	0x3d72be3a	0.059263445
212	0x3b9c9bfb	0.0047793365
213	0xbdb38fa0	-0.08767629
214	0x3db058df	0.08610701
215	0x3db1d30b	0.086828314
216	0x3d6bb2da	0.057543613
217	0x3d0ca346	0.034335397
218	0xbd3c744e	-0.046009354
219	0xbd876093	-0.06610217
220	0x3b1f247b	0.0024283219
221	0xbc610cac	-0.013735931
222	0x3d08364a	0.0332549
223	0xbce82cc9	-0.028341668
224	0xbbf199a7	-0.007373053
225	0x3d490971	0.04908127
226	0xbd877fba	-0.06616159
227	0xbd284777	-0.04108378
228	0x3c135fc3	0.008994999
229	0xbd2181ad	-0.03943031
230	0x3c3e1ca0	0.011603504
231	0x3d89fdbf	0.06737851
232	0x3c521f93	0.012824911
233	0xbca9015b	-0.02063053
234	0x3a8a782a	0.0010564376
235	0x3bbc18f5	0.00574028
236	0x3c25f900	0.010130167
237	0x3d170e86	0.036879085
238	0xbd72d8e6	-0.05928888
239	0x3cb93827	0.022609783
240	0xbdb84b79	-0.0899877
241	0x3b8fcfc5	0.0043887817
242	0x3d4c82b5	0.04992934
243	0xbb5dd8d8	-0.0033851173
244	0x3d4b8590	0.049687922
245	0x3d2b62a8	0.041842133
246	0x3c8cc019	0.017181443
247	0x3d12ea4f	0.035867985
248	0x3dea4df5	0.114406504
249	0xbcd411fc	-0.025887482
250	0xbcf20854	-0.029544987
251	0x3caaa67e	0.020831343
252	0x3d91d8b9	0.07121415
253	0x3b077690	0.0020670034
254	0xbb791c43	-0.003801123
255	0xbd082030	-0.03323382

bias f4 [64]
0	0xbbe20057	-0.006897013
1	0x3d933ab8	0.07188934
2	0x004790a5	6.572209e-39
3	0x3cd0d26a	0.025490958
4	0x3d049594	0.03236921
5	0xbb9a0f97	-0.0047015655
6	0x3cbbedd9	0.022940563
7	0xb9ffa8c8	-0.00048763142
8	0x3dca1786	0.09867768
9	0x3d93d825	0.07218961
10	0xbd0e2827	-0.03470626
11	0x3d949d3e	0.07256554
12	0x3d5d1800	0.053977966
13	0xbd47f036	-0.048813067
14	0x3d7ba6b9	0.061438296
15	0x3d12e9ad	0.03586738
16	0xbe433660	-0.19063711
17	0x3daefcf3	0.0854434
18	0x3d35f479	0.0444226
19	0xbb262d78	-0.0025356691
20	0x00562fa9	7.91495e-39
21	0x3d43df77	0.047820535
22	0xbe73aaeb	-0.23795669
23	0x3d82b130	0.06381452
24	0x3cfc6bb7	0.030813081
25	0x3d16739b	0.036731344
26	0x381a590a	3.6799385e-05
27	0x3ceb6080	0.028732538
28	0xbdc04234	-0.09387627
29	0x3c15cc9a	0.009143019
30	0x3e2b9253	0.16755037
31	0xbe26b097	-0.16278301
32	0x3e01fbb9	0.12693681
33	0x3e0f62ae	0.14002487
34	0xbd421c7b	-0.047390442
35	0x805f84ae	-8.771969e-39
36	0x3f03dc38	0.515079
37	0xbdc72b22	-0.09725024
38	0xbc8cd6da	-0.017192293
39	0x3db0dcf2	0.08635892
40	0x3d67f82f	0.05663317
41	0x3dcd5a3c	0.100269765
42	0x3e2222a6	0.1583353
43	0x3e6b49da	0.22977391
44	0xbd64655e	-0.055760734
45	0x3c7ccc75	0.015429606
46	0x3d266633	0.04062481
47	0xba2c6743	-0.00065766665
48	0x3d7cb3b8	0.06169483
49	0xbe041458	-0.12898386
50	0x3d5124e5	0.051060576
51	0x3e4e4d5f	0.20146702
52	0x3d109734	0.03530045
53	0xbb835fe9	-0.004009236
54	0x3e6cf1f0	0.23139167
55	0x3ce6af28	0.028159693
56	0x3cca4bd9	0.02469437
57	0x3d92d6db	0.07169887
58	0xbcf39461	-0.029733839
59	0xbcd4f0f1	-0.025993796
60	0x3e2694fc	0.1626777
61	0x3b9f674e	0.00486461
62	0xbd93a189	-0.07208545
63	0x3dd3a722	0.103346124

weight f4 [32, 64]
0	0x3d1ad652	0.037802048
1	0x3dafdcbc	0.085870236
2	0x37d674cf	2.5565181e-05
3	0xbc13d199	-0.00902214
4	0x3d839b59	0.064261146
5	0xbb29270a	-0.0025810623
6	0x3d2535f6	0.040334664
7	0x3e10a955	0.14127095
8	0x3d39fa95	0.04540499
9	0x3cf14032	0.029449556
10	0xbbe5e1ff	-0.007015466
11	0x3e132371	0.14368989
12	0xbe95c425	-0.2925121
13	0x3c42a521	0.01188019
14	0x3dec3a2f	0.11534535
15	0xbea741c6	-0.3266737
16	0xbd7e0f4f	-0.06202632
17	0x3c5f6075	0.013633837
18	0x3db429dc	0.087970465
19	0xbe0ac798	-0.13552701
20	0x38b45c1a	8.600224e-05
21	0x3c9e40c4	0.019317992
22	0xbdbdb83b	-0.09263655
23	0xbd46cebe	-0.04853701
24	0xbdcbb47b	-0.09946533
25	0x3c0cdeb3	0.0085980175
26	0x3b84d705	0.0040539526
27	0xbdd0fddc	-0.1020467
28	0xbd210283	-0.039309036
29	0xbd3b56fa	-0.045737244
30	0xbdc9e491	-0.09858049
31	0xbb5da47d	-0.0033819966
32	0x3cde6daa	0.027151901
33	0x3d8d9534	0.06913224
34	0xbe8148a8	-0.25250745
35	0x201c9e90	1.3266178e-19
36	0xbe5eff59	-0.21777095
37	0xbd4dee5e	-0.050276153
38	0xbdd904b0	-0.10596597
39	0x3d53f402	0.051746376
40	0x3df6ea58	0.12056416
41	0x3d41fb14	0.047358587
42	0x3da14789	0.078749724
43	0x3bd0f962	0.006377385
44	0x3e0df60c	0.1386339
45	0xbc84ef41	-0.016227366
46	0xbc49ab0b	-0.012308846
47	0x3db279dd	0.0871465
48	0xbd3cd4eb	-0.046101492
49	0xbd573914	-0.05254467
50	0xbdae5bdc	-0.085136145
51	0xbd8a045b	-0.06739112
52	0x3e0034b4	0.12520105
53	0x39c93271	0.0003837529
54	0x3d553711	0.05205447
55	0xbca67936	-0.02032147
56	0xbdb403c9	-0.087897845
57	0x3d6c9255	0.05775674
58	0xbe746802	-0.23867801
59	0x3db7bd79	0.08971686
60	0x3c8928d0	0.016743094
61	0xbd5e1393	-0.054217886
62	0xbca62463	-0.020281022
63	0xbc089cfa	-0.008338207
64	0x3d37b720	0.044852376
65	0x3c566866	0.013086414
66	0x3480d919	2.3999817e-07
67	0xbc0d60ab	-0.0086290045
68	0xbd219aec	-0.039454386
69	0x38bba8fe	8.948332e-05
70	0x3cd0c624	0.025485106
71	0x3c85557b	0.016276112
72	0x3c5aed79	0.013362282
73	0x3d2fb523	0.042897355
74	0xbeaf51ed	-0.34242192
75	0x3dcf483d	0.101212
76	0xbe37b82a	-0.17941347
77	0xbe50b5c7	-0.20381843
78	0x3dd973d7	0.10617798
79	0xbe88b5a1	-0.26701072
80	0x3be4f76b	0.0069875023
81	0x005a2739	8.279265e-39
82	0xbd85454c	-0.06507358
83	0xbe4751ef	-0.19464849
84	0x377bbf97	1.5005374e-05
85	0xbc32c301	-0.01091075
86	0xbcf7d378	-0.030252203
87	0xbcbe2411	-0.023210557
88	0x3d5380f3	0.051636647
89	0x3df37b25	0.11888722
90	0x3b98d50f	0.0046640704
91	0xbdb2a506	-0.08722882
92	0xbe234c92	-0.15947178
93	0x3e077d63	0.13231425
94	0x3d7084e4	0.058720484
95	0xbe136d9e	-0.14397284
96	0x3d9cb01d	0.076507784
97	0xbc32af0a	-0.01090599
98	0xbe093ee8	-0.13402903
99	0x0054e4bd	7.796238e-39
100	0xbe8590e9	-0.2608712
101	0xbe1db415	-0.15400727
102	0xbece7f78	-0.40331626
103	0x3d986d2a	0.074426964
104	0x3dd989da	0.10621996
105	0x3d85513b	0.06509634
106	0xbd139138	-0.036027163
107	0x3e11cf3b	0.14239208
108	0xbd5f37fb	-0.054496747
109	0x3cfc3b19	0.030789899
110	0x3d6255ff	0.055257794
111	0x3d0cfaac	0.034418747
112	0x3e02729f	0.12739037
113	0xbde1b242	-0.11020328
114	0x3e1972b5	0.14985164
115	0x3d2cec69	0.042217646
116	0x3ca00ca8	0.019537285
117	0x3b0b60c2	0.002126739
118	0x3d96592e	0.073412284
119	0xbd6e9b8d	-0.058253814
120	0x3e069c59	0.1314558
121	0xbd74835d	-0.05969559
122	0xbe80828f	-0.25099608
123	0xbec87419	-0.39151075
124	0xbc84be56	-0.01620404
125	0x3dbb8486	0.09156136
126	0xbdc926ef	-0.09821879
127	0x3db848fd	0.089982964
128	0x3d5c3a9f	0.053766843
129	0xbe323124	-0.17401558
130	0xb9f68afa	-0.00047024322
131	0x3c383bf2	0.011244761
132	0xbddfffaa	-0.10937436
133	0xbaf69af6	-0.0018814493
134	0xbe948f8b	-0.29015765
135	0x3d1978a0	0.037468553
136	0x3d880c9f	0.06643032
137	0x3da7071d	0.081556536
138	0x3c84487d	0.016147846
139	0xbd2d9e43	-0.04238726
140	0x3e55a095	0.20862038
141	0x3dd6a940	0.104815006
142	0xbe751728	-0.23934615
143	0x3e7c0c82	0.24614146
144	0xbe00d78d	-0.12582226
145	0xbded2f37	-0.11581271
146	0x3d2d1f23	0.042266022
147	0x3e32b83a	0.1745309
148	0xa97d759c	-5.6279295e-14
149	0xbc48ad46	-0.012248343
150	0xbe9daf47	-0.30797789
151	0xbe55ba31	-0.20871808
152	0xbe4d3c75	-0.20042594
153	0xbe81cdea	-0.25352412
154	0x3b5d98ea	0.0033813068
155	0x3dd76c0d	0.10518656
156	0xbe13a10c	-0.14416903
157	0xbdb3d7d1	-0.08781398
158	0x3cc180dc	0.023621015
159	0xbd3bd790	-0.045859873
160	0xbd968808	-0.07350165
161	0x3dd18836	0.10231058
162	0x3e4cec98	0.20012128
163	0x33847a7f	6.169011e-08
164	0x3cacc5eb	0.021090468
165	0xbe8b01f7	-0.27149937
166	0x3dba7827	0.091049485
167	0xbdfc5563	-0.12320974
168	0xbe5a8c83	-0.21342663
169	0xbc3883ae	-0.011261864
170	0xbd6057af	-0.05477112
171	0x3d15bfa0	0.0365597
172	0xbe2a2dd3	-0.16619043
173	0xbe84fefb	-0.25975785
174	0xbcf9b850	-0.030483395
175	0xbd822e46	-0.06356482
176	0xbd41955e	-0.04726159
177	0xbe377ad5	-0.1791795
178	0xbd01bb70	-0.031672895
179	0x3d68f05b	0.056869846
180	0x3cfc6934	0.030811884
181	0x3bc839ce	0.0061104065
182	0x3d5cf21c	0.05394183
183	0xbe95290b	-0.29132876
184	0x3e52703d	0.20550628
185	0xbe7e9641	-0.24862005
186	0x3dd283e1	0.1027906
187	0x3e157468	0.14595187
188	0xbd8e7e4b	-0.06957682
189	0xbea0c30c	-0.3139881
190	0xbc98570b	-0.018596193
191	0x3de81643	0.11332371
192	0x3c806d06	0.015676986
193	0xbd18f6c7	-0.03734472
194	0x8050e120	-7.4276e-39
195	0x3c693075	0.014232744
196	0x3b62fc37	0.0034635195
197	0xbbe3211d	-0.0069314376
198	0xbd5a6d38	-0.053326815
199	0xbc1aa9aa	-0.009439865
200	0x39722c27	0.00023095366
201	0x3c5bfc34	0.013426829
202	0x3cef3fcb	0.029205224
203	0xbd7a013c	-0.061036333
204	0x3cfcf85d	0.030880148
205	0x3be588bb	0.007004825
206	0xbd981cfb	-0.074274026
207	0x3d32c261	0.043642405
208	0x3db44239	0.088016935
209	0x3c80fd14	0.015745677
210	0x3c85dfaa	0.016342003
211	0x3d22c2ba	0.039736487
212	0x80208287	-2.98556e-39
213	0xbd602d50	-0.054730713
214	0xbdb4baa2	-0.0882466
215	0xbdccae9a	-0.0999424
216	0xbd703299	-0.058642004
217	0xbd9a2ce9	-0.07528097
218	0x3b5e8a54	0.0033956962
219	0x3cad4bec	0.021154366
220	0xbdb91c36	-0.09038584
221	0xbd46cf0e	-0.048537306
222	0xbd9a02a9	-0.07520039
223	0x3c6777bb	0.014127667
224	0xbcfa79d4	-0.03057567
225	0x3cdccda6	0.02695353
226	0x3d9b2f0c	0.07577333
227	0x01158048	2.7459015e-38
228	0xbe2337a4	-0.15939194
229	0xbcf36342	-0.029710416
230	0x3cc965c7	0.024584664
231	0xbd8f4334	-0.0699524
232	0xbdafd7da	-0.08586092
233	0x3c19db76	0.0093907025
234	0xbc15a82b	-0.009134333
235	0xbc5ef4d7	-0.013608179
236	0xbb8409a4	-0.0040294696
237	0xbddb2ae4	-0.1070154
238	0xbc9ad965	-0.01890249
239	0xbd2836c8	-0.04106787
240	0x3ce7b27f	0.028283356
241	0x3c9e7f1e	0.019347724
242	0xbc1be3ad	-0.009514731
243	0xbc85fcd0	-0.016355902
244	0x3b91b084	0.004446091
245	0xbb1c256c	-0.0023826016
246	0x3d6463c9	0.055759225
247	0xbd5cc606	-0.053899787
248	0x3d5be4ee	0.05368512
249	0xbdb0a577	-0.0862531
250	0x3d2f6d4c	0.042828843
251	0x3c92b26e	0.017907348
252	0x3cc83122	0.02443749
253	0xbd8368b8	-0.06416458
254	0x3c109f03	0.008826974
255	0x3c7b2e77	0.015330902

bias f4 [32]
0	0x3e1f5839	0.15560998
1	0x3da44448	0.08020836
2	0x3cf4633b	0.029832473
3	0xbe037dbd	-0.12840934
4	0x3de6b56e	0.11265074
5	0x3e0ee52a	0.13954607
6	0x3d658d53	0.05604298
7	0xbdc288fe	-0.094987854
8	0xbd44d464	-0.048054114
9	0x3b29f1f8	0.0025931578
10	0x3c80ea3f	0.015736697
11	0x3d90d643	0.07072117
12	0x3d988702	0.07447626
13	0x804def8e	-7.157269e-39
14	0x3db920e8	0.090394795
15	0xbdd42a37	-0.10359614
16	0x3d305bf2	0.043056436
17	0x3e3c7ef3	0.18407802
18	0xbdf25ee7	-0.118345074
19	0x80578254	-8.036441e-39
20	0x3d5daa50	0.0541175
21	0x3e05a5f2	0.13051584
22	0xbdef192c	-0.11674723
23	0xbd0bba11	-0.034112994
24	0x3b7b8665	0.0038379666
25	0xbd846bf1	-0.06465901
26	0xbc65a68e	-0.0140167605
27	0x3ceaea37	0.028676135
28	0xbbc0c25f	-0.005882546
29	0xbde53403	-0.11191561
30	0xbd93f718	-0.07224864
31	0x3d939cac	0.07207617

weight f4 [8, 32]
0	0xbded6803	-0.11592104
1	0xbe2f7224	-0.17133385
2	0x3ea43eef	0.32079265
3	0xbe2fc39a	-0.1716446
4	0x3dc33e3a	0.09533353
5	0xbed74e6f	-0.42052028
6	0x3ea7c02b	0.327638
7	0xbd617b0d	-0.05504899
8	0x3e70e951	0.23526503
9	0x8026791e	-3.533198e-39
10	0xbd6a3524	-0.057179585
11	0x3c075d05	0.008261924
12	0xbdc1d28b	-0.09463986
13	0x01091d9d	2.5184172e-38
14	0xbc822d7f	-0.015890835
15	0xbcb73bf0	-0.022367448
16	0xbe0f5b1d	-0.139996
17	0xbdb4a692	-0.08820833
18	0xaac44e1e	-3.48708e-13
19	0x8186c1d0	-4.9501933e-38
20	0x3ea185b7	0.3154733
21	0xbb4501c1	-0.003006086
22	0xbe297653	-0.16549043
23	0xbe5888ad	-0.21145888
24	0x3d9ef4ef	0.07761561
25	0x3c41305e	0.011791317
26	0x3ea1c2fa	0.31594068
27	0xbdfe896a	-0.124285534
28	0x3ba81bd3	0.00513027
29	0xbdb3170a	-0.08744629
30	0x3ea61b50	0.32442713
31	0x3ea2e5a5	0.3181583
32	0x3d62df7a	0.055388905
33	0xbda19aa9	-0.07890827
34	0xbee31a05	-0.4435579
35	0xbd4ce01d	-0.05001842
36	0x3de3f324	0.1113036
37	0x3e07ee1a	0.13274422
38	0xbf008109	-0.5019689
39	0x3c3d8bad	0.011568946
40	0xbedd254b	-0.43192515
41	0x3be130f5	0.006872291
42	0x3e2181ca	0.15772167
43	0xbe0bd64e	-0.1365597
44	0x3d86f63f	0.065899365
45	0xa908339d	-3.0242834e-14
46	0x3e8011a1	0.2501345
47	0x3e1f9368	0.15583575
48	0x3bd99dad	0.006641111
49	0x3e64c62b	0.2234122
50	0xbe0b5ade	-0.13608882
51	0x005c6c2b	8.487669e-39
52	0xbef33e74	-0.47508585
53	0xbddcc58f	-0.10779869
54	0xbcf1c382	-0.02951217
55	0x3e092e7a	0.13396636
56	0xbdde23cf	-0.10846674
57	0x3daec876	0.08534329
58	0xbec7c008	-0.39013696
59	0xbdd7958b	-0.1052657
60	0x3bb8c676	0.0056388928
61	0xbd7b61b8	-0.06137249
62	0xbf136bd1	-0.5758639
63	0xbed8107b	-0.42200074
64	0x3e1a273b	0.15054028
65	0xbd59f066	-0.053207777
66	0xbf20c4c7	-0.6280026
67	0xbd20df66	-0.03927555
68	0x3db9fa06	0.09080891
69	0x3e0b8d86	0.13628206
70	0xbf07394c	-0.52821803
71	0x3e1f4753	0.15554552
72	0xbf0a7077	-0.5407786
73	0xbca96ac2	-0.020680789
74	0x3d9c3862	0.07627942
75	0xbdf7bf06	-0.12096982
76	0x3dcda46a	0.10041125
77	0xae504208	-4.7352372e-11
78	0x3eb4865e	0.35258764
79	0x3e1a1637	0.15047537
80	0xbc49d1aa	-0.012318054
81	0x3dbb73c2	0.091529384
82	0xbe33f6ea	-0.17574659
83	0x00864ab7	1.2332759e-38
84	0xbebd57c7	-0.3698103
85	0x3d97286e	0.07380758
86	0xbad72426	-0.0016413971
87	0x3e0793d7	0.1323999
88	0xbc8317c6	-0.016002547
89	0x3d728c2e	0.059215717
90	0xbf1d906f	-0.61548513
91	0xbd989dcc	-0.07451972
92	0x3bb9484f	0.005654372
93	0xbe50e90d	-0.20401402
94	0xbea8b2a8	-0.32948804
95	0xbf132abf	-0.574871
96	0xbdf5f604	-0.120098144
97	0x3cc6aaec	0.024251424
98	0x3ec4f213	0.38465938
99	0x3d8f4f46	0.06997542
100	0x3ce44f43	0.027869826
101	0xbd4b04c4	-0.04956509
102	0x3eb2503a	0.34826833
103	0x3e10f403	0.14155583
104	0x3e45fda5	0.19335039
105	0xbc32a677	-0.010903946
106	0xbcc3e560	-0.023913085
107	0x3e0a5e7b	0.13512604
108	0x3df0ae2d	0.117519714
109	0x33d14bef	9.746133e-08
110	0xbebe5b4d	-0.37179032
111	0xbe2e5294	-0.17023689
112	0xbd4ef643	-0.050527822
113	0xbe9f3cd8	-0.31101108
114	0xbd1e0cf7	-0.038586583
115	0x80386aa0	-5.181038e-39
116	0x3ec57446	0.38565272
117	0x3d5f1be5	0.05446996
118	0x3b40d2c5	0.0029422503
119	0x3db7bdf3	0.08971777
120	0x3d978bbd	0.073997
121	0x3e163180	0.1466732
122	0x3e1c2a19	0.15250434
123	0xbaf4e3e9	-0.0018683645
124	0xbbca04f8	-0.006165143
125	0x3dee9e46	0.11651282
126	0x3ec64412	0.3872381
127	0x3e7a717a	0.2445735
128	0x3bea72cd	0.0071547986
129	0x3ce52dcf	0.027975945
130	0x80a81a9c	-1.5437909e-38
131	0x8095b35d	-1.3747832e-38
132	0xbd89b608	-0.06724173
133	0x3c329214	0.010899086
134	0x331cc6e7	3.650248e-08
135	0x3d024543	0.031804334
136	0x00a14b33	1.4812491e-38
137	0x000b76f5	1.052864e-39
138	0x3cbf1a03	0.023327833
139	0xb8644065	-5.4419408e-05
140	0xbd752b0c	-0.059855506
141	0x8043eeda	-6.238662e-39
142	0x3d3f9515	0.046773035
143	0x00ab9edc	1.5760858e-38
144	0x0063a6c7	9.151543e-39
145	0x3c787ebf	0.015166937
146	0x01353566	3.328276e-38
147	0x80d909aa	-1.993177e-38
148	0x95963bd5	-6.0678916e-26
149	0x80f84031	-2.279823e-38
150	0x000e8bb0	1.335807e-39
151	0x80687a5b	-9.594784e-39
152	0x000a0872	9.21385e-40
153	0xbd4cc72c	-0.049994633
154	0x810758a1	-2.4859172e-38
155	0x3d250b62	0.04029406
156	0x0047f5ea	6.608538e-39
157	0x37867658	1.6029153e-05
158	0x804305bf	-6.15504e-39
159	0x0b714832	4.6469225e-32
160	0x3e1a1026	0.15045223
161	0xbe315a32	-0.17319563
162	0x3db26d2b	0.087122284
163	0x3d9997d5	0.07499663
164	0x3e19005a	0.1494154
165	0xbe2d9704	-0.16952139
166	0x3e98d195	0.29847398
167	0x3de8c18b	0.113650404
168	0x3ece14ee	0.40250343
169	0xbd0e31b9	-0.034715388
170	0x3e1395f0	0.14412665
171	0xbd06238b	-0.03274874
172	0xbb61ba25	-0.0034443226
173	0x21946cf8	1.0057714e-18
174	0xbebcf567	-0.36905977
175	0xbe3efa3d	-0.18650146
176	0x3c7832c9	0.015148827
177	0xbebead27	-0.3724148
178	0xbd797448	-0.06090191
179	0x81124a40	-2.6869237e-38
180	0x3e88b32a	0.2669919
181	0x3e094df8	0.13408649
182	0x3cb9c0f2	0.022675011
183	0xbd932a85	-0.07185844
184	0x3e8aae39	0.27086046
185	0x3e3b06c6	0.18264303
186	0x3eed203a	0.4631365
187	0xbe381a2f	-0.17978738
188	0xbbc9f742	-0.0061635086
189	0xbd1e8c06	-0.038707756
190	0x3eb2511a	0.348275
191	0x3e8ad70a	0.27117187
192	0x3e24763e	0.16060731
193	0x3e221fe3	0.15832476
194	0xbf0da6c3	-0.55332583
195	0xbd5cb0b0	-0.05387944
196	0x3de99d48	0.11406952
197	0x3bf81dc9	0.00757191
198	0xbebfd584	-0.37467587
199	0x3e2125b2	0.15737036
200	0xbee28f74	-0.4425007
201	0xbd688984	-0.05677177
202	0x3e540811	0.20706202
203	0x3df18c10	0.11794293
204	0x3dfb5f87	0.1227408
205	0xad02c3b9	-7.433104e-12
206	0x3e845362	0.25844866
207	0xbd72a77c	-0.059241757
208	0xbd4942d8	-0.049136013
209	0x3e517d45	0.20457943
210	0xbe199147	-0.14996825
211	0x8051e8cb	-7.522186e-39
212	0xbf0212a6	-0.50809705
213	0xbe061b69	-0.13096394
214	0x3a288d4c	0.0006429746
215	0x3e4ab478	0.19795406
216	0xbe6c0090	-0.2304709
217	0x3cf7b354	0.030236878
218	0xbed673de	-0.41885275
219	0x3e0d599b	0.13803713
220	0x3bb9231c	0.0056499373
221	0xbdea1b50	-0.11430991
222	0xbef0913c	-0.46985805
223	0xbf045deb	-0.5170581
224	0xbdd71c91	-0.105034955
225	0x3d24324e	0.040087037
226	0xbec31f47	-0.381098
227	0xbd0d743d	-0.03453468
228	0xbcef1d7e	-0.029188868
229	0xbc964877	-0.0183451
230	0xbe420999	-0.18948974
231	0xbd09b5b0	-0.033620536
232	0xbe26144c	-0.1621868
233	0xbbb329a9	-0.0054676128
234	0x3e0ca167	0.13733445
235	0xbe356f88	-0.17718327
236	0x3e246bd8	0.16056764
237	0x8cfbbf8d	-3.8787959e-31
238	0x3e8e65df	0.27812096
239	0x3e658275	0.22413047
240	0x3c05f5e6	0.008176303
241	0x3ebf3c2e	0.373506
242	0xbda02637	-0.07819789
243	0x0128ed56	3.1027007e-38
244	0xbf016727	-0.50548023
245	0xbd3a7374	-0.04552026
246	0xbdc8073c	-0.09767005
247	0xbd3283a0	-0.04358256
248	0xbee2d348	-0.4430182
249	0x3d0e6697	0.034765806
250	0xbead3c01	-0.33834842
251	0xbcb87fd5	-0.022521893
252	0x3bb7e992	0.0056125605
253	0xbe2cb82e	-0.16867134
254	0xbef6e48a	-0.48221236
255	0xbe724e74	-0.2366274

bias f4 [8]
0	0x3f3096f5	0.6898034
1	0x3dcd1c4b	0.10015162
2	0x3e10376c	0.14083642
3	0xbe0ee246	-0.13953504
4	0xb6f9bc7e	-7.4427217e-06
5	0x3d533aed	0.051569868
6	0x3c942aed	0.018086875
7	0x3db75ed5	0.08953635

weight f4 [1, 8]
0	0x3efecf31	0.4976745
1	0x3e14282c	0.1446845
2	0x3e3f1aa8	0.18662512
3	0xbe95d8c5	-0.29266945
4	0x3bbb3eff	0.005714297
5	0xbe631607	-0.22176372
6	0x3e733c7f	0.23753546
7	0x3ec02d82	0.3753472

weight f4 [8, 1]
0	0x3f82fdf7	1.0233754
1	0x3ee12b1d	0.43978205
2	0xbf0d2f98	-0.5515075
3	0x3f5b39e0	0.85635185
4	0x3f7f6c8a	0.9977499
5	0x3f83fe97	1.031207
6	0x3ecf4b60	0.40487194
7	0xbccf93f4	-0.025339104

bias f4 [8]
0	0x3f1b4d6b	0.60665005
1	0xbe7167f1	-0.23574807
2	0xbf17bc4e	-0.59271705
3	0xbe50745d	-0.20356889
4	0x3f704b79	0.9386516
5	0xbf557c98	-0.8339324
6	0xbefce66f	-0.49394557
7	0x3f20872c	0.62706256

weight f4 [32, 8]
0	0x3ee0b190	0.4388547
1	0x3e798f89	0.2437116
2	0xbd9c398b	-0.07628163
3	0xbd910c3b	-0.07082411
4	0x3ea5f62e	0.32414383
5	0x3e84fe8b	0.2597545
6	0x3e18cbba	0.14921466
7	0x3e7390dc	0.23785728
8	0x019a4143	5.666431e-38
9	0x000e988b	1.340419e-39
10	0x959abb87	-6.249597e-26
11	0x80b165a3	-1.6291343e-38
12	0x9ebebf8c	-2.0196254e-20
13	0x007cb39b	1.1452032e-38
14	0x007877e7	1.1063272e-38
15	0xa448943c	-4.3493646e-17
16	0x3ed4a285	0.41530243
17	0xbe3e3dd1	-0.18578269
18	0xbe825eb9	-0.25462893
19	0x3e0feccd	0.14055176
20	0xbd6361fb	-0.055513363
21	0xbd7d7ec5	-0.061888475
22	0xbd4df7b4	-0.050285056
23	0x3e68ef97	0.22747646
24	0x3e0a0594	0.1347869
25	0xbd04b61d	-0.03240024
26	0x3dcc1daf	0.09966599
27	0xbe5c9774	-0.2154215
28	0xbe09d533	-0.13460235
29	0xbe3e4ccb	-0.18583982
30	0x00b956d0	1.7020709e-38
31	0xbe550aca	-0.20804897
32	0x3e510b8d	0.20414563
33	0x3e7553cf	0.23957752
34	0x3ebad925	0.36493793
35	0x3ea32814	0.31866515
36	0xbe85353b	-0.26017174
37	0x3dc7d1cf	0.09756815
38	0x3ed49191	0.41517308
39	0x3e39b00b	0.18133561
40	0xbe5ad19a	-0.21369019
41	0xbeff9989	-0.49921826
42	0x3dd6660c	0.10468683
43	0xbddd1a61	-0.10796047
44	0x3dd4a9b5	0.103839315
45	0xbee74a93	-0.45174083
46	0xbd398004	-0.0452881
47	0x3e622f0a	0.22088256
48	0x3eb91b06	0.3615343
49	0x3ee84d5f	0.4537153
50	0x80758b98	-1.079483e-38
51	0x3e33aa1d	0.17545362
52	0x3d39e24d	0.045381833
53	0x3e8aca26	0.27107352
54	0x3e9b0e97	0.3028457
55	0xbd031e0f	-0.032011088
56	0xbd66ce4f	-0.056349095
57	0xbe12556c	-0.14290398
58	0xbed6bdb2	-0.419416
59	0xbe59a053	-0.21252565
60	0xbd8d1565	-0.06888846
61	0xbe4a63e2	-0.19764665
62	0x809450f5	-1.3620695e-38
63	0x3ebd638f	0.3699002
64	0xbe924ad2	-0.28572708
65	0xbeae457f	-0.34037396
66	0xbeffa386	-0.49929446
67	0xbe158463	-0.14601283
68	0x3e98fc40	0.2987995
69	0xbdd2ac6c	-0.10286793
70	0xbf1ec3f5	-0.62017757
71	0xba490a44	-0.0007669071
72	0xbf85a33b	-1.0440439
73	0x004d3431	7.090056e-39
74	0x3f2e14fb	0.68000764
75	0x0008f165	8.2128e-40
76	0xbdee645a	-0.11640234
77	0x8076c44a	-1.0907004e-38
78	0x8071fff3	-1.0469228e-38
79	0x3e6b648c	0.22987574
80	0x3e1bc328	0.15211165
81	0xbe0a1067	-0.1348282
82	0xbdf6820a	-0.12036522
83	0xbe83d577	-0.25748798
84	0x3e4633e1	0.19355728
85	0xbe405af5	-0.18784697
86	0xbe83db06	-0.2575304
87	0x3f004371	0.5010291
88	0xbe938ea0	-0.28819752
89	0xbee1e507	-0.44120046
90	0x3e36cf1d	0.17852445
91	0xbed1a405	-0.4094545
92	0x3eb0d521	0.34537604
93	0xbef24b32	-0.47322994
94	0xbe408b07	-0.18803035
95	0x3eab5e3e	0.3347034
96	0x3ae2839c	0.0017281654
97	0x3e7bffde	0.24609324
98	0xbc2ba835	-0.010477115
99	0x3e327464	0.17427212
100	0x3ebb7775	0.36614576
101	0x3c8f1248	0.017464772
102	0x3e85fe9d	0.26170817
103	0xbdebe167	-0.115176015
104	0xb74d881c	-1.2250643e-05
105	0xaf6b1c85	-2.1383258e-10
106	0x3eb6871b	0.35649952
107	0x3900abbd	0.00012271009
108	0xb956faf7	-0.00020502122
109	0xb911f915	-0.00013921068
110	0x2aaf0fd5	3.109723e-13
111	0xbe7db912	-0.2477763
112	0xbe54f0e8	-0.20795023
113	0xbb4d405d	-0.003131888
114	0x3ebcfc4c	0.36911237
115	0xbd764ccc	-0.060131833
116	0xbddeffa6	-0.10888605
117	0xbe6f7e57	-0.23388039
118	0x002cc8cf	4.112798e-39
119	0x3e70f824	0.23532158
120	0x3e7ee764	0.24892956
121	0x3b83c8cf	0.004021741
122	0xbf1e43f1	-0.6182242
123	0x3e136ce4	0.14397007
124	0x3d8c68dc	0.06855938
125	0xbd13973b	-0.036032896
126	0xbeb9e057	-0.3630397
127	0xbd376c2d	-0.0447809
128	0xbd1e3531	-0.038624946
129	0xbed38019	-0.41308668
130	0xbcd97f26	-0.026549887
131	0x3e1d2b49	0.15348543
132	0xbdbcbfe6	-0.09216289
133	0xbe830ca1	-0.25595573
134	0xbf141dfe	-0.57858264
135	0x3eb17c8c	0.34665334
136	0xbe2cf398	-0.16889799
137	0x3e6e0e51	0.23247649
138	0xbe2b2e83	-0.16716962
139	0x3d0d73ea	0.034534372
140	0x3ec130e0	0.377326
141	0xbd78b911	-0.060723368
142	0xbe86c934	-0.2632538
143	0x3e71cf7e	0.23614308
144	0xbadca474	-0.0016833679
145	0xb6079132	-2.0201082e-06
146	0xb40e1cdd	-1.3235281e-07
147	0xb9a685f7	-0.000317618
148	0xbb059a4b	-0.0020386155
149	0xb80d8f3d	-3.375042e-05
150	0xa4ac9318	-7.4842296e-17
151	0xb91b9b14	-0.00014839723
152	0x3e740442	0.23829749
153	0xbe91f5ea	-0.2850793
154	0xbe0b6663	-0.13613276
155	0x3c84a943	0.016193992
156	0x3e88d836	0.26727456
157	0xbd3f3750	-0.04668361
158	0xbedbadd5	-0.4290606
159	0x3d1d27fb	0.038368206
160	0x3ec1f63b	0.3788317
161	0xbe8643a4	-0.2622348
162	0xbe4d8999	-0.2007202
163	0xbe1459e1	-0.14487411
164	0x3e228073	0.15869312
165	0xbe8c5e73	-0.2741581
166	0x3db37c4b	0.087639414
167	0x3e059ec9	0.13048853
168	0x3ed7d014	0.4215094
169	0x3efb389e	0.49066633
170	0x805e883e	-8.681411e-39
171	0x3ef58b01	0.47957614
172	0xbcee6fb1	-0.029105993
173	0x3f0770ad	0.52906305
174	0x3eec57f1	0.46160844
175	0x3da43be5	0.080192365
176	0x3e2df8e7	0.1698948
177	0xbd714c6a	-0.058910765
178	0x3da4140d	0.08011637
179	0xbde37f92	-0.111083165
180	0x3f032f56	0.51244104
181	0x3eabddfe	0.33567804
182	0x3ef8cc96	0.48593587
183	0xbea8dc7d	-0.3298072
184	0xbe1a8832	-0.15091017
185	0xbea62050	-0.32446527
186	0x3ec011ad	0.37513486
187	0xbe6a6a04	-0.22892004
188	0x3e02adf5	0.12761672
189	0xbe2228cb	-0.15835874
190	0x005036ce	7.3665e-39
191	0x3ecac54d	0.39603654
192	0x3e8719b2	0.2638679
193	0x3e8579de	0.2606954
194	0x8067b0a6	-9.522426e-39
195	0x3d6ee211	0.058321062
196	0x3e66cd25	0.22539194
197	0x3e02d735	0.12777407
198	0x3e913262	0.28358752
199	0xbdfd2d3a	-0.12362142
200	0xbe752285	-0.2393895
201	0xbeb044e7	-0.34427568
202	0xbce3b2b0	-0.027795166
203	0xbec7878a	-0.38970596
204	0x3ebc20a7	0.36743662
205	0xbea7a60e	-0.32743877
206	0xbf16fd2e	-0.5898007
207	0x3f0a3af8	0.5399623
208	0xbf825f2d	-1.0185295
209	0x00a11cb5	1.4795813e-38
210	0x3ee88591	0.45414403
211	0x00303513	4.427143e-39
212	0x3c0d303f	0.00861746
213	0x008016f5	1.1763179e-38
214	0x006f4818	1.0219602e-38
215	0x3e437287	0.19086657
216	0x8084c67c	-1.2193488e-38
217	0x00db9c13	2.0167963e-38
218	0x80c70a37	-1.8278928e-38
219	0x80814a82	-1.1873507e-38
220	0x00051b2c	4.68925e-40
221	0x8054acab	-7.776123e-39
222	0x00d0c10a	1.9171033e-38
223	0x3c0b7875	0.008512606
224	0xbd9677eb	-0.07347091
225	0xbd64e95b	-0.055886608
226	0x3d8e6dd4	0.06954542
227	0xbe22ad2e	-0.15886375
228	0xbed21cd5	-0.41037622
229	0x3df8d370	0.121497035
230	0x3b804a35	0.003915096
231	0x3e58ae3b	0.21160214
232	0xbf922d11	-1.1420003
233	0x80575e51	-8.023523e-39
234	0x3eeb0d86	0.45908755
235	0x803178d6	-4.543287e-39
236	0xbc67f764	-0.014158104
237	0x004548de	6.362789e-39
238	0x0044f162	6.331406e-39
239	0x3e873d79	0.26414087
240	0x3e4094bc	0.18806738
241	0x3ed3d3df	0.41372582
242	0x0034d046	4.85016e-39
243	0x3bcf223c	0.0063212197
244	0xbde225cc	-0.110423654
245	0x3ee259fd	0.4420928
246	0x3e65ea7a	0.22452727
247	0xbe9e729b	-0.30946812
248	0xbe01af5c	-0.1266455
249	0x002d0953	4.135942e-39
250	0x3d9f4bf1	0.077781565
251	0x80886ea9	-1.2529325e-38
252	0xbf19bf49	-0.60057503
253	0x0039efeb	5.32069e-39
254	0x8092fc23	-1.3498432e-38
255	0x3e85048b	0.2598003

bias f4 [32]
0	0xbe83c224	-0.25734055
1	0xadd35333	-2.402487e-11
2	0xbdb6475b	-0.08900329
3	0x3e9e17e7	0.3087761
4	0xbdf9411f	-0.12170624
5	0x3ebb275e	0.36553472
6	0xbea24a7f	-0.3169746
7	0x3dceadaf	0.10091721
8	0x3e76ede0	0.2411418
9	0x3de38b37	0.111105375
10	0x3f049ddd	0.5180338
11	0x3e2824e8	0.16420329
12	0xbd06fbb6	-0.032954894
13	0xbdf1a3b7	-0.11798804
14	0x3ecab7b2	0.39593273
15	0x3f0b9466	0.54523313
16	0x3f03ed55	0.51534015
17	0xbd7fdca9	-0.062466297
18	0xba0b1477	-0.00053054787
19	0x3e5eead9	0.21769275
20	0x3e8cc8b5	0.27496877
21	0xbeb45fe6	-0.35229415
22	0xbea48afb	-0.32137284
23	0xbdce159f	-0.10062718
24	0xbc2706aa	-0.01019446
25	0x3ee3217a	0.44361478
26	0x3d87feb7	0.0664038
27	0xbc4c85be	-0.0124830585
28	0x3dc21b45	0.094778575
29	0x3d5f07cd	0.0544508
30	0xbdfddefb	-0.12396046
31	0x3e3681c0	0.17822933
