model/28011.098226547241211.pt (torch_old, 170367 bytes, 19 tensors)

weight f4 [256, 3]
-0.17709796 -0.008966866 -0.07171767 0.16723494 -0.6377167 0.09642018 0.29995552 0.79296273
0.15127394 -0.46330604 -0.09519494 0.020600703 0.09162497 -0.62203974 0.05465345 -0.027056351
-0.623494 -0.005146432 0.569892 -0.5288892 -0.31644726 0.09942557 -0.7265339 0.06330062
-0.0016280332 -0.15967616 -0.043237273 -0.05205428 0.6824387 0.0340222 0.10008853 -0.4138015
0.010336813 -0.639299 0.64815235 -0.57743204 0.32315728 0.61260706 0.1158331 0.2142926
-0.7443224 0.12651494 0.26109675 -0.4169548 0.16438606 0.10960998 -0.57207143 0.083120905
-0.04192762 0.6166993 0.20309405 -0.37420574 0.8986526 0.08424558 -0.49171677 0.0037302985
0.10928887 -0.020983126 -0.034626704 -0.06871187 -0.6607498 0.75112355 -0.2262771 -0.43982762
0.65603274 0.1708165 0.23554346 -0.96361506 -0.07512162 0.15245497 0.81363493 0.10005632
-0.24037997 0.9450585 0.008328995 -0.16470478 0.70881414 0.061900057 0.21891995 0.78257656
0.075330734 -0.07504165 0.2480556 -0.27955708 -0.49775627 -0.71266985 0.08850788 0.6721788
-0.36926284 -0.36761633 -0.22240861 0.979816 0.026937138 0.9142158 0.43350062 0.073928535
-0.047223866 -1.0246326 -0.02784665 -0.46042106 -1.0922738 -0.04977458 0.9420818 0.5754518
0.14261572 -0.34601435 0.006308074 -0.20803311 -0.5019918 0.80861956 0.04321918 -0.09334887
0.6716057 0.03529404 0.7656573 0.480717 0.046972875 0.33747095 0.38915318 -0.006998169
-0.10471432 0.6596067 0.014478526 0.20579416 -0.9195506 0.20623235 -0.16352564 -0.8201012
0.033071328 0.344141 0.48162162 -0.016377162 -0.47016713 0.42137265 0.17834447 0.67905396
-0.7239439 -0.4704552 0.37510076 0.30697244 -0.18221655 0.41808647 -0.91049486 0.30181882
0.7633385 0.5172257 0.048584286 0.15713309 -0.6641199 0.09035545 -0.46514535 0.73675287
-0.36750787 0.18889199 0.5669425 0.22284524 0.020978725 0.67617923 0.05748342 0.023485076
0.6626807 0.039603535 0.45279405 0.21434359 0.13619931 0.45154625 0.5135823 0.015913378
0.10662775 -0.70001197 0.0844158 0.019691294 -0.117675096 0.057293862 0.36019114 1.0903468
-0.04123243 -0.088691525 0.7573866 0.007356345 0.30869827 -1.1875286 -0.16939749 0.4715188
0.93992984 -0.0560636 -0.07085833 0.72246075 0.00942745 -0.3063564 0.44711858 0.1890226
-0.015444068 0.600109 0.13898998 -0.13770804 -0.29385114 0.0042040986 -0.33384398 -0.99042493
0.085707314 -0.12566666 0.73926866 0.042398293 -0.19618843 -0.7376795 0.1452317 -0.42416584
0.78200924 -0.28522938 0.62970024 -0.28530723 -0.24262002 0.5380595 -0.3977561 -0.32691127
-0.5520472 0.5036944 -0.39477602 0.12270389 -0.7450691 -0.16886604 -0.5348538 -0.8326833
0.022883108 0.039514497 0.8569188 0.10692596 0.31718257 -0.256328 -0.042468674 -0.4118362
0.43512923 -0.1993728 0.021005979 -0.20487276 0.04090779 0.036352735 -0.28016084 0.017053014
0.3782964 -0.76674294 0.13740474 0.3231659 0.8662035 0.08666642 0.47960722 -0.54617816
-0.23878236 0.95044357 0.48326933 0.116270885 0.48034516 0.74800855 0.11792848 0.12190688
00000000: 2b59 35be c3e9 12bc b7e0 92bd a33f 2b3e
00000010: 6741 23bf f177 c53d c593 993e 9bff 4a3f
00000020: 8ee7 1a3e 7336 edbe 91f5 c2bd cec2 a83c
00000030: dfa5 bb3d ff3d 1fbf 4cdc 5f3d 48a5 ddbc
00000040: 4e9d 1fbf 67a3 a8bb 71e4 113f 4865 07bf
00000050: 6005 a2be a29f cb3d 20fe 39bf c1a3 813d
00000060: bb63 d5ba 2682 23be 9119 31bd de36 55bd
00000070: 4db4 2e3f dd5a 0b3d 37fb cc3d cadd d3be
00000080: bc5b 293c 19a9 23bf 50ed 253f 96d2 13bf
00000090: df74 a53e d1d3 1c3f e839 ed3d 856f 5b3e
000000a0: ea8b 3ebf 228d 013e 79ae 853e 197b d5be
000000b0: d254 283e 327b e03d 4673 12bf 4b3b aa3d
000000c0: 4cbc 2bbd 01e0 1d3f e3f7 4f3e e597 bfbe
000000d0: 190e 663f f288 ac3d 4dc2 fbbe 0678 743b
000000e0: d8d2 df3d cee4 abbc bbd4 0dbd cfb8 8cbd
000000f0: e626 29bf a249 403f 2fb5 67be 1631 e1be
00000100: c3f1 273f 85ea 2e3e 4e32 713e 7aaf 76bf
00000110: 5dd9 99bd 281d 1c3e 614a 503f 54ea cc3d
00000120: 2b26 76be 5bef 713f 5676 083c 5fa8 28be
00000130: d874 353f ea8a 7d3d 8d2c 603e f056 483f
00000140: 0047 9a3d 70af 99bd 4a02 7e3e 1b22 8fbe
00000150: e9d9 febe 8871 36bf 9f43 b53d e913 2c3f
00000160: 0510 bdbe 3538 bcbe 15bf 63be 39d5 7a3f
00000170: 46ab dc3c 0c0a 6a3f cbf3 dd3e d867 973d
00000180: d06d 41bd 2927 83bf a81e e4bc 4fbc ebbe
00000190: a1cf 8bbf 6ee0 4bbd 462c 713f cf50 133f
000001a0: db09 123e cb28 b1be f6b3 ce3b a206 55be
000001b0: 8982 00bf b101 4f3f 9806 313d b12d bfbd
000001c0: 5aee 2b3f 7c90 103d 1e02 443f 8a20 f63e
000001d0: a166 403d fec8 ac3e 163f c73e e550 e5bb
000001e0: 7674 d6bd fcdb 283f 5737 6d3c b4bb 523e
000001f0: ab67 6bbf 932e 533e 4473 27be 27f2 51bf
00000200: cd75 073d 4033 b03e 1c97 f63e 6629 86bc
00000210: bfb9 f0be 28be d73e ef9f 363e 7bd6 2d3f
00000220: 6354 39bf 81df f0be 350d c03e 7e2b 9d3e
00000230: fa96 3abe 6e0f d63e 3116 69bf ff87 9a3e
00000240: 276a 433f e768 043f 5100 473d 7fe7 203e
00000250: c303 2abf 470c b93d 8827 eebe d69b 3c3f
00000260: fe29 bcbe e76c 413e 2523 113f 8b31 643e
00000270: 93db ab3c 151a 2d3f bc73 6b3d c663 c03c
00000280: 71a5 293f 5137 223d 9fd4 e73e e37c 5b3e
00000290: d577 0b3e 1231 e73e 217a 033f c65c 823c
000002a0: a65f da3d fc33 33bf 31e2 ac3d a34f a13c
000002b0: a4ff f0bd f8ac 6a3d f96a b83e 7c90 8b3f
000002c0: 56e3 28bd e7a3 b5bd 17e4 413f 7f0d f13b
000002d0: b30d 9e3e f000 98bf 8976 2dbe ea6a f13e
000002e0: 3e9f 703f f2a2 65bd 2c1e 91bd 30f3 383f
000002f0: 9775 1a3c bfda 9cbe baec e43e 248f 413e
00000300: 1e09 7dbc bea0 193f 6453 0e3e 5603 0dbe
00000310: a873 96be 89c2 893b 99ed aabe 7d8c 7dbf
00000320: 5187 af3d c3ae 00be b640 3d3f d5a9 2d3d
00000330: 9fe5 48be 90d8 3cbf 9eb7 143e 442c d9be
00000340: c231 483f 9609 92be 0934 213f ca13 92be
00000350: 6271 78be 44be 093f b0a6 cbbe ea60 a7be
00000360: f752 0dbf 1ef2 003f 1520 cabe 2d4c fb3d
00000370: d9bc 3ebf 38eb 2cbe 2eec 08bf bc2a 55bf
00000380: 5b75 bb3c f4d9 213d 085f 5b3f fffb da3d
00000390: c165 a23e 6c3d 83be a2f3 2dbd 32dc d2be
000003a0: 42c9 de3e 6228 4cbe bb14 ac3c 2aca 51be
000003b0: ed8e 273d 9be6 143d 3e71 8fbe c3b2 8b3c
000003c0: 11b0 c13e 4449 44bf d4b3 0c3e 0076 a53e
000003d0: 83bf 5d3f 2a7e b13d 148f f53e 55d2 0bbf
000003e0: 5d83 74be 4550 733f 146f f73e 6e1f ee3d
000003f0: cdef f53e 7d7d 3f3f 7d84 f13d 50aa f93d

bias f4 [256]
-0.4627789 1.0215089 -0.58632 -0.3352674 -0.28456807 -0.097523466 -0.09265906 0.20278324
-0.73567915 -0.055611808 -0.2840868 0.18425637 0.9727132 -0.1394925 -1.376048 -0.4773777
-0.9891066 -0.37902203 -0.23868419 -0.35906518 -0.50503284 -0.5243136 0.14499164 -0.12423423
0.6459381 -0.22724774 0.7254234 -0.7673113 0.20400637 -0.4835809 -0.13796449 1.59733
1.075302 0.302566 -0.2479102 0.1453486 0.044413123 -0.19185509 1.080849 0.59407914
0.7823999 -0.11956942 0.13302825 -0.9000636 -0.07378574 -0.019901257 -0.7172225 -0.8092073
0.8350679 -0.069342226 1.0121661 -1.1609845 -0.29623243 0.23198518 -0.72752184 0.13647251
0.33390936 -1.2644686 0.47017488 0.70875764 1.4640838 1.55492 1.3327358 -0.7579999
0.053348105 -1.4792984 0.805595 -0.55995876 -0.2507214 0.17216 1.0760896 0.72768784
0.1414975 -0.0522578 -0.038075127 -0.1084542 -1.1652019 1.476512 -0.764952 -0.715487
-0.73113805 0.97855425 2.178539 0.43315172 0.20034768 -0.65771055 -0.4115653 0.5244604
0.08770292 -0.49926734 0.79036427 0.90285814 -1.6138946 1.0470355 1.0677931 0.54842854
-0.38562724 -0.9556365 0.09333276 1.1320084 1.0017762 0.06914971 -1.7331437 0.14895694
0.07142691 -0.80201876 -0.24503435 -0.37402728 -0.37321743 0.66993594 -0.8673969 1.2592798
-0.23231053 0.7211354 -0.662717 -1.7644682 -0.2566756 -0.19544834 -0.96845907 -0.05564057
0.9806155 -0.4558625 0.47979048 0.21835637 -0.12406257 0.21834026 -0.3476326 -0.07314501
-0.3372977 -0.07687323 1.4419106 1.2226603 0.7807781 0.23685227 0.45882872 -0.9767349
-0.06007972 1.0116483 1.9128821 -0.31535217 0.23321846 -0.53377986 0.47025713 -0.0043002297
0.7603868 -0.27718464 -0.8661645 -0.9623239 0.7338163 -0.6977937 -1.4123636 -1.171584
0.5442935 0.24066283 -1.1468388 1.0799755 -0.17500582 1.273364 0.25289264 2.4626424
-0.2861776 0.052619725 -0.6750097 -0.7441593 -1.2392871 1.2268537 1.4232699 0.60132563
0.1386331 0.17630044 -0.27745417 -1.285731 -0.42930558 1.1134499 -0.29367396 1.636452
-0.4005673 -0.6435942 -0.29855934 -0.7266204 0.36437365 0.5375982 0.24859227 0.09550872
0.5130349 0.67204666 0.7257337 0.45767555 -1.2259914 -0.83644885 -0.4608452 0.648891
0.16302106 1.0811874 0.9088623 -1.2296436 0.2899457 0.0063391733 -0.72093576 -0.63606894
0.4890775 -0.07853882 1.9468845 1.0887544 -0.8679767 -1.6194474 -1.0679207 -1.3187205
-0.022082007 1.1035161 0.35639957 0.24889307 0.002886971 0.20760807 0.22439674 0.94796443
0.2616299 0.033739936 -1.4048696 0.94064635 -0.678296 0.40448567 -0.853598 1.813754
-0.20530653 -1.5053116 0.7871369 0.9658963 -0.22872822 -0.2895065 -0.25401264 -0.7239816
0.80107355 0.41054526 -0.83634937 -0.54661757 0.22210291 0.95699084 -1.3869092 0.11188744
-0.30365103 0.11148575 0.47796315 0.23133878 0.5562901 -1.2477635 -0.21114868 -0.09461563
0.39487773 -0.06444251 -0.31028596 -1.9532312 0.13482393 0.27060547 1.2177517 1.22496
00000000: 5bf1 ecbe cec0 823f 1119 16bf 2ba8 abbe
00000010: e8b2 91be 62ba c7bd 09c4 bdbd 69a6 4f3e
00000020: 7855 3cbf 35c9 63bd d373 91be b4ad 3c3e
00000030: bb03 793f 1fd7 0ebe 5722 b0bf da6a f4be
00000040: 1736 7dbf 2d0f c2be a169 74be 64d7 b7be
00000050: d549 01bf 6b39 06bf b078 143e 846e febd
00000060: 335c 253f a2b3 68be 59b5 393f 836e 44bf
00000070: 0ce7 503e ea97 f7be 9046 0dbe 4f75 cc3f
00000080: 7fa3 893f eee9 9a3e 2cdc 7dbe 43d6 143e
00000090: 89ea 353d a975 44be 4359 8a3f 9215 183f
000000a0: 5c4b 483f d0e0 f4bd 8f38 083e 916a 66bf
000000b0: fa1c 97bd f607 a3bc e59b 37bf 3628 4fbf
000000c0: 03c7 553f 4c03 8ebd a98e 813f 249b 94bf
000000d0: c7ab 97be 868d 6d3e df3e 3abf 73bf 0b3e
000000e0: 2bf6 aa3e 1bda a1bf c3ba f03e 2471 353f
000000f0: 1967 bb3f 9e07 c73f 1697 aa3f 480c 42bf
00000100: 8b83 5a3d a659 bdbf 793b 4e3f 7559 0fbf
00000110: 8e5e 80be b64a 303e 4ebd 893f c049 3a3f
00000120: b8e4 103e 460c 56bd aaf4 1bbd 3c1d debd
00000130: 5625 95bf 58fe bc3f e5d3 43bf 282a 37bf
00000140: dd2b 3bbf 8882 7a3f 2f6d 0b40 10c6 dd3e
00000150: f127 4d3e b85f 28bf b0b8 d2be 0943 063f
00000160: 979d b33d f89f ffbe 5055 4a3f b621 673f
00000170: 1994 cebf 4205 863f 72ad 883f d065 0c3f
00000180: ef70 c5be 98a4 74bf 3f25 bf3d a7e5 903f
00000190: 343a 803f 5d9e 8d3d a7d7 ddbf 2b88 183e
000001a0: 4648 923d 1a51 4dbf 49ea 7abe 8180 bfbe
000001b0: 5b16 bfbe ec80 2b3f b90d 5ebf 1530 a13f
000001c0: d0e2 6dbe 549c 383f d2a7 29bf 18da e1bf
000001d0: fc6a 83be 9c23 48be efec 77bf 5ee7 63bd
000001e0: 9e09 7b3f cf66 e9be 19a7 f53e d098 5f3e
000001f0: 8414 febd 9794 5f3e e6fc b1be 0dcd 95bd
00000200: 49b2 acbe b66f 9dbd 8790 b83f 2280 9c3f
00000210: 13e1 473f 6789 723e 99eb ea3e 4c0b 7abf
00000220: 2716 76bd b17d 813f 52d9 f43f d775 a1be
00000230: d2d0 6e3e cca5 08bf 8bc5 f03e f1e8 8cbb
00000240: b6a8 423f 25eb 8dbe f5bc 5dbf dc5a 76bf
00000250: 63db 3b3f 9ca2 32bf 55c8 b4bf 77f6 95bf
00000260: d256 0b3f 5170 763e 9dcb 92bf a33c 8a3f
00000270: ba34 33be 97fd a23f 257b 813e ef9b 1d40
00000280: df85 92be c887 573d 70cd 2cbf 3981 3ebf
00000290: f6a0 9ebf 8b09 9d3f b52d b63f 7af0 193f
000002a0: d6f5 0d3e 1a88 343e 790e 8ebe d592 a4bf
000002b0: f1cd dbbe 8785 8e3f 6f5c 96be 4277 d13f
000002c0: 2817 cdbe 97c2 24bf c5dc 98be cb03 3abf
000002d0: 2f8f ba3e 09a0 093f f98e 7e3e 139a c33d
000002e0: 4156 033f 400b 2c3f afc9 393f 7354 ea3e
000002f0: 49ed 9cbf 8321 56bf e7f3 ebbe b81d 263f
00000300: feee 263e 5964 8a3f 33ab 683f f664 9dbf
00000310: c373 943e d7b8 cf3b 3f8f 38bf 6ad5 22bf
00000320: 5e68 fa3e f6d8 a0bd 8333 f93f 4e5c 8b3f
00000330: b933 5ebf 0d4a cfbf a0b1 88bf d5cb a8bf
00000340: 53e5 b4bc 0440 8d3f 017a b63e d3dd 7e3e
00000350: 5633 3d3b 3697 543e 42c8 653e ccad 723f
00000360: 5bf4 853e e332 0a3d c4d2 b3bf 33ce 703f
00000370: cfa4 2dbf bf18 cf3e 6685 5abf 1729 e83f
00000380: e03b 52be 0dae c0bf ce81 493f fb44 773f
00000390: bb37 6abe 323a 94be f20d 82be dc56 39bf
000003a0: 2813 4d3f fd32 d23e fe1a 56bf 21ef 0bbf
000003b0: f26e 633e 5afd 743f 3e86 b1bf 3e25 e53d
000003c0: 2678 9bbe a452 e43d 96b7 f43e 13e4 6c3e
000003d0: 0769 0e3f b7b6 9fbf 5c37 58be d7c5 c1bd
000003e0: 6a2d ca3e 6ffa 83bd cddd 9ebe 7b03 fabf
000003f0: 490f 0a3e cd8c 8a3e 4adf 9b3f 7dcb 9c3f

weight f4 [64, 256]
-0.0023698302 -0.0137991 -0.002269008 -0.023440823 -0.004950108 -0.0096257925 1.356754e-39 -0.011597729
-0.0021035161 -1.4420634e-05 -8.9587575e-06 -5.1476115e-31 -6.76216e-07 -0.010353164 -0.011505041 -0.004019714
-0.0074099554 -0.0049703354 -0.00019687254 -0.000311447 -1.1619808e-05 -0.0112939 -9.9501485e-06 -0.0028689275
-6.358442e-05 -0.0013141934 -8.491866e-06 -4.0799187e-18 -0.01719247 1.067293e-39 -0.003995892 -1.9150936e-11
-0.0014275428 -0.014656027 -2.441511e-12 -0.00018509846 -0.003192406 -5.8586793e-06 -2.5365165e-11 -7.25185e-06
-9.336838e-08 -0.018589862 -0.019420804 -1.2339127e-36 -0.014396787 -3.7476715e-17 -1.4922296e-12 -0.018872023
-2.5415542e-13 -0.0051624733 -3.087957e-06 -0.009269023 -2.7927334e-07 -1.6232314e-06 -1.4144118e-12 -6.485022e-11
-0.011173307 -0.0034201767 -0.0005842607 -3.2199324e-07 -0.00030807572 -0.000151911 -1.7608426e-06 -0.0137120625
-0.0060227783 -0.0054018013 -0.020047765 -0.00012539908 -0.025137372 -1.8291338e-06 3.01284e-39 -1.234971e-39
-5.4943996e-12 -0.00016317511 -0.017332794 -0.0040284637 -8.119439e-31 -9.546616e-07 -0.011800473 -0.010897925
-0.004461093 -0.0007148307 -3.3055237e-08 -3.9656621e-16 -0.002280162 -0.019556558 -0.0003980961 -2.0967533e-12
-0.01359224 -0.011760815 -0.011689833 -8.3374236e-13 -0.011748135 -0.017825123 -0.0015918056 -0.0005833005
-0.01676595 -1.2780089e-11 -0.011265327 -9.9920906e-14 -8.324197e-08 -0.015393488 -0.0051275142 -0.021178897
-2.3149132e-08 -0.0016873103 -7.06087e-08 -0.031622462 -5.1253424e-05 -0.0064997757 -0.00021376851 -1.3555962e-05
-0.026764598 -0.0040442306 -0.0076655606 -3.085513e-39 -0.02718944 -0.0041503534 -1.2164263e-06 -0.018368673
-0.0019121004 -0.0056588557 -0.00034952455 -0.0042033894 -0.00859278 -0.003914202 -0.013667445 -0.009167172
-0.0011381727 -0.0005275799 -8.878589e-12 -8.640076e-10 -5.4301285e-07 -0.0013720042 -0.020462444 -0.020909457
-0.0009156908 -0.018721705 2.2398e-41 -0.011276506 -0.0009459217 -0.0048213154 -1.4397477e-05 -0.025070006
-0.01390744 -5.159966e-07 -0.0034395359 -0.011758121 -0.00860319 -0.027783789 -0.01607668 -8.0132304e-13
-6.769039e-07 -0.008902925 -4.39604e-40 -3.2670215e-08 -0.00026165938 -0.011307127 -0.000609996 -0.0014376243
-0.022680376 -0.00173072 -5.7294856e-05 -3.5104952e-10 -1.7017526e-05 -0.0032855817 -0.0175244 -0.000656717
-2.0212537e-05 -0.0043992167 -0.006574936 -0.006631466 -4.0121144e-08 -1.3622121e-10 -1.4188902e-08 -2.885892e-10
-0.011878631 -0.0016638578 -0.005868053 -0.004046987 -0.0056636655 -8.689107e-30 -0.0040020226 -0.008786642
-0.018975874 -0.001132743 -2.4115741e-05 -0.002623671 -6.698309e-11 -3.3756856e-05 -0.013511567 -2.2388373e-16
-0.00080987444 -0.0042364914 -2.3333798e-12 -0.00030075444 -0.0006078098 -5.241737e-06 -3.103729e-22 -0.00032062925
-0.0004872432 -0.019022064 -2.7430134e-09 -5.8809655e-09 -0.0030083733 -2.4593e-40 -0.013795327 -0.015737005
-0.00030518518 -0.0118781645 -0.00033664668 -0.009475432 -0.0054915156 -0.0027436859 -0.019750847 -1.4820924e-09
-0.00020784477 -0.019033197 -0.0050275717 -0.00047997138 -0.0011507878 -0.0020116249 -0.0051080915 -6.0078467e-13
-2.0690889e-36 -0.0063535 -0.008027405 -0.00050304265 -0.015357797 -0.00027272388 -0.004936796 -0.037676003
-0.0034104197 -0.014754924 -0.013990149 -0.00011031923 -0.017997455 -1.8743016e-08 -0.009210148 -0.00022684807
-0.00089308654 -0.013065723 -0.003955873 -0.0014847704 -0.0058683427 7.74063e-40 -0.030925428 -0.007543911
-0.0011820782 -2.0566912e-08 -0.0019248239 1.94719e-40 -0.00027819033 -0.0043612984 -9.263091e-07 -8.468772e-12
00000000: 274f 1bbb 9f15 62bc a3b3 14bb f806 c0bc
00000010: 8434 a2bb 80b5 1dbc 14c6 0e00 6704 3ebc
00000020: 25db 09bb 27f0 71b7 924d 16b7 af0c 278d
00000030: 3685 35b5 51a0 29bc a47f 3cbc ceb7 83bb
00000040: 36cf f2bb 32de a2bb 926f 4eb9 b549 a3b9
00000050: b2f2 42b7 0d0a 39bc 90ef 26b7 9e04 3cbb
00000060: a058 85b8 0341 acba 4978 0eb7 be85 96a2
00000070: 39d7 8cbc 2e9f 0b00 f9ef 82bb 1374 a8ad
00000080: 631c bbba d51f 70bc 5ace 2bac fd16 42b9
00000090: af37 51bb ac95 c4b6 461d dfad eb54 f3b6
000000a0: cf81 c8b3 c449 98bc 6118 9fbc 7af0 d183
000000b0: 80e0 6bbc b2d4 2ca4 3d03 d2ab 8099 9abc
000000c0: a813 8faa f729 a9bb b33a 4fb6 1add 17bc
000000d0: 09ef 95b4 cedd d9b5 8e0f c7ab 6e9b 8eae
000000e0: 3f10 37bc 0b25 60bb 1229 19ba 6ade acb4
000000f0: 3985 a1b9 4c4a 1fb9 1756 ecb5 8fa8 60bc
00000100: ba5a c5bb 9801 b1bb 363b a4bc 8f7d 03b9
00000110: e4ec cdbc 8f80 f5b5 92ce 2000 9972 0d80
00000120: 2751 c1ac fc19 2bb9 81fd 8dbc 3401 84bb
00000130: d5be 838d ec21 80b5 c556 41bc 368d 32bc
00000140: 5c2e 92bb 7a63 3bba 9ef8 0db3 d89a e4a5
00000150: c56e 15bb 1335 a0bc 8eb7 d0b9 c08b 13ac
00000160: fdb1 5ebc 6fb0 40bc b786 3fbc 78ad 6aab
00000170: 407b 40bc fe05 92bc 22a4 d0ba a2e8 18ba
00000180: bf58 89bc 67d4 60ad 3592 38bc 7b00 e1a9
00000190: c2c2 b2b3 f834 7cbc b504 a8bb 5e7f adbc
000001a0: 7bd9 c6b2 bd28 ddba 8ba1 97b3 8e86 01bd
000001b0: f2f8 56b8 12fc d4bb 0c27 60b9 6a6e 63b7
000001c0: 6e41 dbbc 7785 84bb 622f fbbb 2899 2180
000001d0: 63bc debc b0ff 87bb 1744 a3b5 e679 96bc
000001e0: 719f faba ec6d b9bb 6440 b7b9 96bc 89bb
000001f0: bbc8 0cbc b542 80bb 6bed 5fbc e831 16bc
00000200: bd2e 95ba 4a4d 0aba 9c31 1cad 217f 6db0
00000210: 8fc3 11b5 d2d4 b3ba dba0 a7bc 4f4a abbc
00000220: f80a 70ba 435e 99bc 703e 0000 18c1 38bc
00000230: bbf7 77ba 20fc 9dbb b18c 71b7 9d5f cdbc
00000240: 08dc 63bc 0483 0ab5 d669 61bb 22a5 40bc
00000250: 65f4 0cbc d49a e3bc 3eb3 83bc 698d 61ab
00000260: 7bb4 35b5 93dd 11bc 70c9 0480 4851 0cb3
00000270: 542f 89b9 8741 39bc 23e8 1fba ab6e bcba
00000280: 32cc b9bc 54d9 e2ba e24f 70b8 d4fd c0af
00000290: dcc0 8eb7 ea52 57bb 558f 8fbc 8827 2cba
000002a0: 188e a9b7 4e27 90bb 9072 d7bb c54c d9bb
000002b0: aa51 2cb3 ddc6 15af 73c3 73b2 52a7 9eaf
000002c0: 979e 42bc ce15 daba cc48 c0bb 969c 84bb
000002d0: 4596 b9bb 6c3c 308f 6623 83bb d9f5 0fbc
000002e0: 4b73 9bbc 8c78 94ba 294c cab7 e5f1 2bbb
000002f0: 214c 93ae 2696 0db8 9f5f 5dbc 680f 81a5
00000300: c14d 54ba 44d2 8abb 6f32 24ac 94ae 9db9
00000310: 6d55 1fba 2ee2 afb6 e19b bb9b 211a a8b9
00000320: ad74 ffb9 29d4 9bbc 9a7f 3cb1 8511 cab1
00000330: 2128 45bb 8ead 0280 cc05 62bc e4ea 80bc
00000340: 4301 a0b9 a29c 42bc f47f b0b9 d83e 1bbc
00000350: 2cf2 b3bb 69cf 33bb 87cc a1bc 7eb2 cbb0
00000360: e8f0 59b9 82eb 9bbc 54be a4bb aba4 fbb9
00000370: 08d6 96ba 77d5 03bb c761 a7bb 191b 29ab
00000380: c404 3084 0531 d0bb 6085 03bc 9fde 03ba
00000390: 459f 7bbc 61fc 8eb9 d9c4 a1bb 2752 1abd
000003a0: 5981 5fbb a3be 71bc f036 65bc 305b e7b8
000003b0: 666f 93bc 5400 a1b2 29e6 16bc 11de 6db9
000003c0: 061e 6aba 9d11 56bc 45a0 81bb a19c c2ba
000003d0: 3a4b c0bb c66d 0800 5357 fdbc ea32 f7bb
000003e0: f6ef 9aba 1eab b0b2 5f4a fcba cc1e 0200
000003f0: 13da 91b9 39e9 8ebb 7aa7 78b5 f5fb 14ad

bias f4 [64]
-3.9133727e-05 0.16068748 0.2511064 -0.060844038 -0.9137779 -0.13339654 -9.735347e-07 -0.29090607
-2.0885393e-13 0.18900737 -3.412973e-39 -0.040066928 0.0022085004 -1.6333909e-17 -0.03317728 -3.7813966e-06
-0.12881953 1.2032281 -1.882305e-39 -0.6209433 -0.9121851 -0.027745115 -0.0050792526 -0.6533666
-0.028862838 -0.02939126 -2.4801417e-05 0.29187545 -0.02928313 -0.07616659 -0.22261964 0.006940158
-5.4543046e-21 -0.38033527 -0.19154973 -0.041930765 -0.7380265 0.034272417 0.01995457 -1.4527827e-05
-0.0058940644 -0.8243556 -0.23907687 -6.592849e-15 -0.14682226 -0.6166772 -1.010171e-39 0.25877526
-1.166724e-39 -3.8116e-40 -0.039057314 -0.012448906 -5.8377587e-05 -0.39483 0.17358299 -0.029625958
0.2239268 -2.1801822e-07 0.30257097 -0.024476677 -9.16704e-40 -0.010475443 -3.4672274e-18 -0.026926646
00000000: 8523 24b8 428b 243e 0591 803e 9937 79bd
00000010: 59ed 69bf 1a99 08be 66aa 82b5 a4f1 94be
00000020: 0c26 6baa 268b 413e fb29 2580 381d 24bd
00000030: 7dbc 103b 5aa7 96a3 e6e4 07bd e6c3 7db6
00000040: 44e9 03be 6103 9a3f 1a7f 1480 24f6 1ebf
00000050: f684 69bf b949 e3bc dc6f a6bb 0943 27bf
00000060: c271 ecbc f1c5 f0bc a30c d0b7 b370 953e
00000070: 2de3 efbc 3bfd 9bbd 67f6 63be 446a e33b
00000080: cc0e ce9d 4ebb c2be 9d25 44be 98bf 2bbd
00000090: 4eef 3cbf 3c61 0c3d c477 a33c 8bbc 73b7
000000a0: ff22 c1bb f808 53bf 91d0 74be 4d88 eda7
000000b0: 9358 16be 8fde 1dbf f2ff 0a80 317e 843e
000000c0: 5ab4 0c80 8526 0480 90fa 1fbd 7ff6 4bbc
000000d0: 75da 74b8 2827 cabe bdbf 313e 23b2 f2bc
000000e0: 114d 653e 6418 6ab4 95ea 9a3e 5083 c8bc
000000f0: 66fb 0980 31a1 2bbc 13d6 7fa2 4595 dcbc

weight f4 [32, 64]
-8.8742e-40 -0.061974365 -0.06361626 -0.061897203 -0.05201774 -1.165056e-39 2.97176e-39 -8.98672e-40
-2.0671816e-37 -0.061027467 -4.9166e-41 -0.056931753 -0.062708594 1.78332e-40 6.495177e-17 8.44665e-40
1.7594922e-35 -0.09081481 4.6980906e-14 -3.1358238e-15 -0.05980758 -3.178631e-39 -1.63847e-40 -2.9996574e-12
-1.2485e-40 -1.114376e-39 4.08273e-40 -0.061818823 -8.7836e-41 -0.10824195 2.816596e-20 6.14024e-40
-3.817287e-27 -0.058731414 -7.4579417e-28 -3.86625e-40 -0.018034646 -0.06282181 -3.74618e-23 -2.19263e-40
4.74323e-40 -4.734227e-15 7.21788e-40 -2.668584e-39 -0.05781983 -0.052155703 -4.73186e-40 -0.06389028
-9.92596e-40 -1.478258e-39 3.7621955e-20 2.27546e-40 -5.56698e-40 -0.06313807 -0.06337457 -0.062384468
-0.056917638 -6.28173e-40 -0.06340497 3.88109e-40 -6.11133e-40 -0.0616574 -1.45454e-39 -0.06338013
0.036756743 -0.28064948 -0.35536677 0.023737092 0.05613034 0.05283975 0.059711184 -0.009208646
0.0012816649 0.08326338 -0.010484797 0.4916047 -0.2617173 -0.0011948164 0.053292472 -0.029342713
-0.056896526 -0.19868742 4.144562e-11 0.09721225 0.24325866 -0.031553194 0.060654797 0.14523622
0.08013875 0.040629875 0.055412464 -0.07635216 0.0031137494 -0.041957747 0.041648168 -0.016921835
9.75985e-18 0.15793553 -0.3343459 0.074389294 -0.12722515 -0.15926245 0.055017192 -0.005823187
0.007836595 0.027787142 -0.040313456 3.347057e-39 0.5222664 0.14564697 0.0076178582 0.20332824
-8.520305e-31 8.83248e-40 -0.008289036 -0.099925235 -0.0022721158 -0.15761083 -0.30006358 -0.014190699
0.19663282 -7.55544e-40 -0.3166026 -0.03939373 -1.9354462e-05 -0.59139925 0.0017703371 -0.48021466
-0.0053304383 -0.06759028 -0.06658945 0.042583786 0.18834104 0.020361563 0.008858079 0.09616305
-2.8573111e-05 -0.6211705 0.00067224837 -0.42970255 -0.01189551 -0.032050073 0.018169122 -0.0050557964
-0.027589582 -0.17250833 -1.9284776e-05 0.022853574 -0.09757775 -0.04167214 0.043282323 0.21054064
-0.044837877 0.11625726 -0.01451812 -0.04832189 -8.79964e-40 -0.020460524 0.0017820161 -0.055257484
2.4622415e-05 -0.037721694 -0.09690922 -1.045932e-39 0.25120345 -0.056574658 -0.010187839 -7.66881e-05
0.013044153 0.24733263 0.048056528 -0.027517302 -0.042949058 0.12605947 6.8322813e-15 -0.10573472
-7.4249474e-05 -3.2999007e-26 0.14309675 0.10718126 -0.05224154 0.049345583 -0.1577593 -0.049262073
-0.3227836 -0.002694697 0.04755461 -1.35709e-39 -9.701853e-10 -0.11851134 8.223413e-05 -0.15272908
-4.2618988e-11 -0.10968194 -0.029117271 7.93014e-40 0.02564319 0.06507654 0.004157547 0.012500893
2.363937e-39 -0.07366271 -9.55524e-40 -0.19102544 -0.10768445 3.19874e-05 -0.0034511636 -4.9448904e-06
0.0016210094 -0.03622564 -2.5953887e-28 -0.07293716 -0.113112286 0.0037032973 0.010962572 0.054757286
-0.04694096 -0.010757027 7.93173e-40 -0.16922522 2.810255e-39 -0.01758178 0.029853342 -0.07178021
9.23128e-25 -0.047969494 0.022054063 -3.23423e-39 0.010456192 0.040757716 -0.015059518 0.026452439
0.13945176 0.092615835 -0.035529546 0.009746652 -0.10508186 -0.106469974 3.503273e-39 -0.20514718
5.0641047e-10 -2.220023e-39 -0.011289598 0.047324866 -0.037867043 0.11435812 0.052662656 0.0014705205
-0.28302363 0.006953613 -0.034366325 -1.243546e-39 -5.674813e-07 -0.005404294 0.014267432 -0.10615351
00000000: c4a9 0980 d5d8 7dbd 3e49 82bd ec87 7dbd
00000010: 8e10 55bd b4af 0c80 0f5c 2000 22c9 0980
00000020: 62af 8c82 f0f7 79bd 0e89 0080 4531 69bd
00000030: 5d6d 80bd 1ef1 0100 c2c4 9524 9532 0900
00000040: ef19 bb05 1dfd b9bd 4c95 5329 bdf5 61a7
00000050: cbf8 74bd bb9c 2280 bdc8 0180 0615 53ac
00000060: 085c 0180 6d22 0c80 1972 0400 bc35 7dbd
00000070: daf4 0080 f5ad ddbd 8e02 051f a6af 0600
00000080: e437 9793 5a90 70bd 035a 6c92 c135 0480
00000090: 65bd 93bc b9a8 80bd 7627 359a 3763 0280
000000a0: 382a 0500 8991 aaa7 0ddc 0700 ed0e 1d80
000000b0: 7cd4 6cbd 38a1 55bd 0d27 0580 e8d8 82bd
000000c0: f4ce 0a80 c818 1080 27aa 311f 4e7a 0200
000000d0: d90f 0680 884e 81bd 87ca 81bd db86 7fbd
000000e0: 7822 69bd 17d7 0680 77da 81bd e439 0400
000000f0: 97a7 0680 788c 7cbd aad6 0f80 71cd 81bd
00000100: 3d8e 163d 4ab1 8fbe a2f2 b5be 4a74 c23c
00000110: ede8 653d 7e6e 583d b793 743d dcdf 16bc
00000120: 8afd a73a fe85 aa3d 6dc8 2bbc 9cb3 fb3e
00000130: cfff 85be 639b 9cba 3549 5a3d 2160 f0bc
00000140: 550c 69bd b774 4bbe 9f47 362e 3717 c73d
00000150: cc18 793e ec3d 01bd 2a71 783d ceb8 143e
00000160: c91f a43d 836b 263d 2ef8 623d 855e 9cbd
00000170: 0c10 4c3b e3db 2bbd 4597 2a3d a99f 8abc
00000180: 9709 3423 dab9 213e 632f abbe 6a59 983d
00000190: 4f47 02be b215 23be b559 613d 6fd0 bebb
000001a0: 1065 003c dca1 e33c b91f 25bd 3c72 2400
000001b0: 40b3 053f 7b24 153e 3a9f f93b 4735 503e
000001c0: f63f 8a8d 239e 0900 bdce 07bc 9aa5 ccbd
000001d0: c7e7 14bb bc64 21be efa1 99be 1b80 68bc
000001e0: 1d5a 493e 263a 0880 bc19 a2be 525b 21bd
000001f0: 645b a2b7 f165 17bf a80a e83a b2de f5be
00000200: f5aa aebb c66c 8abd 0d60 88bd 566c 2e3d
00000210: 79dc 403e 4bcd a63c 7a21 113c 22f1 c43d
00000220: 4ab0 efb7 0805 1fbf d339 303a f901 dcbe
00000230: 63e5 42bc f046 03bd 69d7 943c 18ab a5bb
00000240: 8c03 e2bc 06a6 30be bec5 a1b7 6b37 bb3c
00000250: d8d6 c7bd 68b0 2abd ce48 313d f797 573e
00000260: eca7 37bd 4918 ee3d 69dd 6dbc 2ded 45bd
00000270: fb94 0980 d49c a7bc 8a92 e93a ac55 62bd
00000280: 3c8c ce37 1082 1abd 5778 c6bd a263 0b80
00000290: bd9d 803e d4ba 67bd e5ea 26bc 9cd3 a0b8
000002a0: 25b7 553c c444 7d3e ecd6 443d f76b e1bc
000002b0: 5aeb 2fbd bc15 013e ac28 f627 728b d8bd
000002c0: 62b6 9bb8 3667 2395 f487 123e d981 db3d
000002d0: 3afb 55bd 981e 4a3d a78b 21be 07c7 49bd
000002e0: e443 a5be 8399 30bb 9fc8 423d 04c7 0e80
000002f0: 5c57 85b0 13b6 f2bd 1d75 ac38 0365 1cbe
00000300: b770 3bae eda0 e0bd 5887 eebc 9aa2 0800
00000310: ab11 d23c d946 853d 083c 883b 8cd0 4c3c
00000320: b2bd 1900 7adc 96bd 9d67 0a80 2c9c 43be
00000330: aa89 dcbd 362a 0638 eb2c 62bb 49ec a5b6
00000340: 0d78 d43a 5661 14bd 9780 a491 1460 95bd
00000350: 6aa7 e7bd 05b3 723b 5c9c 333c 2d49 603d
00000360: 2a45 40bd 3e3e 30bc 0ba3 0800 6049 2dbe
00000370: d999 1e00 aa07 90bc ff8e f43c 8101 93bd
00000380: ded8 8e17 a97b 44bd b9aa b43c b837 2380
00000390: 7350 2b3c 90f1 263d 32bc 76bc c9b2 d83c
000003a0: 71cc 0e3e 5fad bd3d 6e87 11bd 6cb0 1f3c
000003b0: 2935 d7bd ee0c dabd b325 2600 1a12 52be
000003c0: 7833 0b30 852c 1880 02f8 38bc b8d7 413d
000003d0: 791a 1bbd 9734 ea3d ccb4 573d 7bbe c03a
000003e0: 79e8 90be 22db e33b b4c3 0cbd 808a 0d80
000003f0: 0555 18b5 8116 b1bb f2c1 693c 0367 d9bd

bias f4 [32]
-0.087166294 -0.8288295 -0.06087538 -0.286474 -0.009894095 -0.41896328 0.75143546 -0.40777564
0.013364932 0.06652151 -0.052034322 1.0021462 0.13538218 0.19254258 -0.00095398776 0.30865467
0.061618093 -8.90426e-40 -0.844232 0.21188709 -0.1584139 -0.07193294 0.023370007 2.0806792
-0.018492894 -0.9373855 0.25269055 -0.58092946 -0.052014425 -0.3011299 -3.3025288e-16 -0.022143345
00000000: 3e84 b2bd 2c2e 54bf 7658 79bd b8ac 92be
00000010: d81a 22bc 5b82 d6be 135e 403f f8c7 d0be
00000020: 96f8 5a3c 6e3c 883d f121 55bd 5446 803f
00000030: a0a1 0a3e e229 453e 0915 7aba fc07 9e3e
00000040: 4163 7c3d 25b2 0980 971f 58bf eef8 583e
00000050: 4137 22be 9451 93bd 7572 bf3c d929 0540
00000060: 697e 97bc 7ff8 6fbf a860 813e cbb7 14bf
00000070: 140d 55bd b32d 9abe b960 bea5 f665 b5bc

weight f4 [8, 32]
0.00038478308 -0.5611679 0.11187448 -0.056148186 -0.0017747628 -0.02067901 -0.28682077 0.47495002
0.13945653 -0.05057138 -0.0567803 0.0039849407 0.10334361 -1.3363893 -0.08867634 -1.1066241
0.2622168 0.0003861419 0.19047706 -0.08002055 -1.0229772 -0.08581709 0.010509758 -0.038461138
-0.08117183 0.017460447 -0.08700888 -0.009512131 0.061821233 0.091129474 1.0649672e-11 0.013136533
0.0034501716 -0.7237528 0.12567605 0.06455534 1.15459e-39 -0.023401344 -0.4076503 0.44960302
0.12170861 -0.20976913 -0.0567681 -0.16738723 0.12414325 -1.1202068 0.05758492 -1.0277966
0.29427087 0.001133519 0.09020924 -0.22183828 -0.70437187 -0.017417839 0.038338613 -0.021623706
0.00055820943 0.14743808 -0.25350475 -0.010694863 0.064145684 0.048071917 3.3119631e-12 1.02006e-39
-0.058436308 -0.4671072 0.17837708 0.07303668 -4.424045e-05 0.054517258 0.010700968 0.057648752
0.106629096 -0.48396036 0.061276946 0.09644556 0.07220134 -0.8938763 0.079240784 -1.1081545
0.02936886 -3.63577e-08 -0.12989861 0.12490418 0.20667031 -0.14552946 0.12982655 0.060945265
-0.1493307 0.01621965 -0.04156508 0.11027469 -0.02506603 0.089908026 2.4236665e-20 -0.0010107756
0.06233255 -0.30222288 0.08713107 0.032778863 -0.0061608613 -0.07891954 0.10406395 -0.082298964
0.0754413 0.23978588 -0.046864416 0.12310733 -0.04485596 -1.8197405 -0.020627458 -2.245538
0.12106808 0.000364635 0.20729591 0.03943304 0.088279694 -0.0190671 0.003656055 0.18191049
-0.103518605 0.017256387 -0.023404801 0.07276595 0.040204637 0.28095084 -4.2587277e-11 0.009578031
0.03458367 -0.8713002 0.17291643 0.034043428 0.011348675 0.02514661 0.048433866 0.40795797
0.16221249 -0.106265716 -0.048063222 0.1621039 0.059121944 -1.4808419 0.102523565 -1.2346938
0.2554102 0.0013251645 0.15076913 -0.029913085 -1.3029728 0.121124715 0.15052679 0.020125166
0.106739484 0.02021351 -0.046223663 0.039912775 0.040132016 0.03697228 0.00096323364 -0.01818483
-0.03436836 -0.0832269 0.3362521 0.057350114 -0.043291 0.119211435 0.06782712 0.11624068
0.08498818 -0.0016955181 0.050014675 0.22625177 0.08090321 0.22047265 0.0799739 0.31286877
0.25005978 -0.015298325 0.63888156 -1.8361701 -0.41239715 0.10515085 0.16058658 -0.16322553
0.004774353 0.08880415 0.21068498 1.0082542 -0.06995107 -0.3397833 2.180467e-06 -0.009652575
-0.05763124 -0.21044959 0.025076132 -0.1172708 -0.057919282 -0.24877661 -0.120714344 -0.4248173
0.11009277 -0.66034174 0.03973862 -0.09027993 -0.03808973 0.12028165 0.021446696 0.0703368
0.26797652 -1.334556e-39 -0.28180003 -0.03976793 0.11653869 0.08677418 -0.014866085 0.3852402
-0.0010479473 -0.0810828 -0.22920597 0.27399355 -0.040673867 0.21358757 4.0962984e-09 0.03134003
-0.048963502 -0.36785945 0.14876215 0.18367752 1.42675e-40 0.19340195 -0.28035995 -0.07514877
-0.13984947 -0.047166664 0.06600927 -0.12725866 0.27591434 -0.0428228 8.953017e-19 -0.29571182
0.085447945 -2.152973e-39 0.08391574 -0.22834371 -0.49256924 -0.04117315 0.11205042 -0.4755013
-1.1293471e-09 0.26174667 -0.24712566 -0.16288623 -0.057110727 0.2910093 -2.00739e-40 2.223541e-39
00000000: b6bc c939 b3a8 0fbf 731e e53d a4fb 65bd
00000010: 289f e8ba 0767 a9bc 2cda 92be a62c f33e
00000020: b1cd 0e3e ef23 4fbd 7692 68bd 1b94 823b
00000030: d1a5 d33d ce0e abbf f19b b5bd dca5 8dbf
00000040: 4841 863e 1773 ca39 6b0c 433e d0e1 a3bd
00000050: ebf0 82bf dfc0 afbd 1f31 2c3c 6d89 1dbd
00000060: 6b3d a6bd 3609 8f3c b631 b2bd c5d8 1bbc
00000070: 4338 7d3d 17a2 ba3d dc59 3b2d 9d3a 573c
00000080: 461c 623b dd47 39bf 39b1 003e 9735 843d
00000090: 8792 0c00 2db4 bfbc 8ab7 d0be 5e32 e63e
000000a0: 5d42 f93d b8cd 56be ab85 68bd 8f67 2bbe
000000b0: d13e fe3d f062 8fbf 2ade 6b3d d78e 83bf
000000c0: acaa 963e 9692 943a 9fbf b83d 9329 63be
000000d0: b751 34bf dbaf 8ebc f308 1d3d 3324 b1bc
000000e0: cd54 123a 02fa 163e 60cb 81be 8239 2fbc
000000f0: d05e 833d 0fe7 443d 060f 692c 831b 0b00
00000100: e95a 6fbd ad28 efbe 7ba8 363e 4194 953d
00000110: d28e 39b8 7d4d 5f3d 1d53 2f3c 1921 6c3d
00000120: 5b60 da3d a7c9 f7be 89fd 7a3d 4085 c53d
00000130: 4cde 933d 14d5 64bf fe48 a23d 02d8 8dbf
00000140: f796 f03c b727 1cb3 2404 05be c3cd ff3d
00000150: 62a1 533e ad05 15be 40f1 043e bea1 793d
00000160: 26ea 18be 12df 843c 2540 2abd b2d7 e13d
00000170: 4657 cdbc b321 b83d a9e8 e41e 007c 84ba
00000180: 6a50 7f3d f5bc 9abe c671 b23d 2143 063d
00000190: 0de1 c9bb 91a0 a1bd 7b1f d53d 5c8c a8bd
000001a0: f880 9a3d 6e8a 753e e7f4 3fbd b21f fc3d
000001b0: e2ba 37bd 42ed e8bf eafa a8bc e5b6 0fc0
000001c0: 8bf2 f73d 7b2c bf39 6145 543e 8a84 213d
000001d0: fccb b43d 9b32 9cbc 6d9a 6f3b be46 3a3e
000001e0: 9001 d4bd 445d 8d3c 6dbb bfbc 5006 953d
000001f0: 9ead 243d cad8 8f3e 034d 3bae 2ced 1c3c
00000200: 9ba7 0d3d 880d 5fbf 0111 313e 1f71 0b3d
00000210: cbef 393c 4300 ce3c 9762 463d dedf d03e
00000220: 081b 263e d7a1 d9bd f1dd 44bd 91fe 253e
00000230: da29 723d 3a8c bdbf e0f7 d13d 720a 9ebf
00000240: 20c5 823e 24b1 ad3a 3963 1a3e 490c f5bc
00000250: d0c7 a6bf 3c10 f83d b223 1a3e 88dd a43c
00000260: 3b9a da3d ce96 a53c 0655 3dbd 947b 233d
00000270: 7861 243d 3f70 173d 8481 7c3a 5af8 94bc
00000280: d6c5 0cbd dd72 aabd 3c29 ac3e f4e7 6a3d
00000290: e751 31bd 2025 f43d f2e8 8a3d 980f ee3d
000002a0: 480e ae3d 263c deba 30dc 4c3d 8bae 673e
000002b0: 95b0 a53d 95c3 613e 5bc9 a33d 5630 a03e
000002c0: d607 803e d3a5 7abc be8d 233f 9f07 ebbf
000002d0: b825 d3be 5459 d73d cf70 243e 9824 27be
000002e0: 2d72 9c3b f3de b53d cebd 573e 790e 813f
000002f0: 8242 8fbd 14f8 adbe 2354 1236 d525 1ebc
00000300: bc0e 6cbd 1980 57be 766c cd3c ac2b f0bd
00000310: c53c 6dbd 4cbf 7ebe 1539 f7bd a781 d9be
00000320: 5178 e13d 280c 29bf f7c4 223d afe4 b8bd
00000330: fa03 1cbd 3a56 f63d fbb0 af3c bd0c 903d
00000340: 3834 893e 3388 0e80 1848 90be b2e3 22bd
00000350: d6ab ee3d a9b6 b13d e190 73bc 343e c53e
00000360: 475b 89ba bd0e a6bd f8b4 6abe e248 8c3e
00000370: a499 26bd b3b6 5a3e 6cbf 8c31 675e 003d
00000380: f48d 48bd 1358 bcbe 1b55 183e f615 3c3e
00000390: b88d 0100 290b 463e 578b 8fbe 99e7 99bd
000003a0: b334 0fbe d531 41bd de2f 873d 1850 02be
000003b0: a544 8d3e f666 2fbd 8b1f 8421 8a67 97be
000003c0: 55ff ae3d 9d71 1780 04dc ab3d efd2 69be
000003d0: 0932 fcbe 2da5 28bd b17a e53d e874 f3be
000003e0: 5e37 9bb0 a903 863e 820e 7dbe a6cb 26be
000003f0: f0ec 69bd 2cff 943e 942f 0280 5436 1800

bias f4 [8]
-0.09303634 -0.093001135 -0.3843199 0.39200813 0.99464107 0.2225019 0.79346925 0.24773483
00000000: d689 bebd 6177 bebd 94c5 c4be 4ab5 c83e
00000010: cca0 7e3f 8ad7 633e cd20 4b3f 33ae 7d3e

weight f4 [1, 8]
-0.7242976 -0.9441597 0.068691276 -0.22856952 -0.5120223 0.25050086 0.061472137 0.14922418
00000000: 916b 39bf 73b4 71bf 03ae 8c3d 210e 6abe
00000010: e513 03bf a641 803e 35ca 7b3d 39ce 183e

weight f4 [8, 1]
0.3503215 -0.92322475 0.48347363 0.11502908 -0.40076342 -0.020752141 0.9701439 0.86067414
00000000: 575d b33e 7558 6cbf db89 f73e 5e94 eb3d
00000010: dd30 cdbe 6500 aabc 5a5b 783f 2455 5c3f

bias f4 [8]
1.084754 0.25732738 -0.6737677 -1.1659467 -0.061650503 -0.13445091 0.11937236 0.35944033
00000000: 38d9 8a3f 6ac0 833e 0a7c 2cbf be3d 95bf
00000010: 3d85 7cbd 80ad 09be 7f79 f43d 9008 b83e

weight f4 [32, 8]
0.6116052 0.15095018 -0.5595336 3.4862553e-06 -0.31550536 -0.3227245 -0.5944877 -0.45928156
0.21865693 0.25247186 -1.377349e-39 -2.740705e-12 -0.22321475 0.18843108 -0.59824413 -0.8157668
0.2086965 0.12419788 -0.32612032 -1.4617617 -0.37418887 0.13440463 0.18399073 0.20111586
-0.0826194 0.18688822 -1.521428e-39 -3.2486253e-11 -0.23452456 0.20343408 -0.83349967 -0.55431396
0.16700786 -0.39530107 -0.18418022 -2.7393088 -1.161163 -0.5403841 -0.116673656 0.07175742
-0.11056656 0.20803863 1.274146e-39 -6.7251293e-19 -0.18444651 -0.12188309 -0.61406314 0.015767567
-0.06328091 -0.07870476 -0.06649203 -3.29399e-39 -0.07452235 -0.00029822506 -0.056553613 -0.05619387
5.40206e-40 -0.06589184 3.175787e-39 -1.056466e-39 0.045747492 0.012791887 4.1053045e-38 -1.558757e-39
0.5930035 -0.25758627 -0.6953499 4.31517e-40 -0.61585355 -0.13485655 -0.5806293 -0.3327699
-1.6983563e-17 -1.33549e-06 -1.104499e-39 -1.635687e-39 -1.1650803e-19 -1.118109e-39 -2.0849444e-13 -1.817384e-13
0.27848792 -0.88694733 -0.15066357 -0.5787359 -6.37254e-11 2.1405966e-31 0.31573838 0.39559197
1.838033e-39 -0.020494862 -1.911651e-39 -5.51159e-40 -0.002504061 0.13802508 1.743976e-39 9.3611e-40
0.31145293 -0.1547461 -0.65393865 7.3401824e-17 0.24286073 0.17833142 -0.33765337 -0.4567264
0.20223378 -0.76203954 -0.36696455 -1.2087027 -2.9094028 -0.004909091 0.2813691 0.25474104
0.25200367 -0.36855593 -0.06041519 -1.3192658 -0.5819294 -0.26799238 -0.12510034 0.2930786
0.40377346 -0.39201245 -0.08215862 -1.072731 -0.351158 -0.27402216 0.11792377 -0.044866133
-0.11981931 -0.4130598 -0.40738302 -0.85318536 -0.52843195 0.0005468177 0.31853694 0.08825309
0.26813135 0.08679902 -0.6118272 1.5158895e-05 -0.23747143 0.2511108 -0.5948952 -0.44553235
0.1209263 0.069754094 -2.244199e-39 -1.0186136e-13 -0.16378482 -0.36537692 -0.7634232 -0.39101475
0.35301968 0.22235522 -1.044594e-39 -2.6695225e-20 -0.22167408 -0.37246838 -0.75445545 -1.0053433
0.35229522 -0.14021042 -0.07759639 -1.9011642 -0.27658203 0.05343186 -0.011879188 -0.13771547
3.17999e-39 0.066159934 1.981269e-39 -5.0445836e-16 -0.27360657 0.2064859 2.226173e-39 -1.1407881e-38
-0.04089712 0.12339483 -0.029790575 -1.0741616 -0.01420098 -0.15039706 0.23880051 0.121584415
-6.07534e-40 -0.079906434 -3.087219e-39 -8.89258e-40 0.10529022 -0.016525177 1.06942e-39 -4.96061e-40
0.11054383 0.05498267 0.45500252 2.5250852 0.0064817853 -0.2723929 0.18509296 0.17823565
0.097595885 0.08982622 -1.3928346e-38 -7.017124e-11 -0.10306789 0.106912255 8.03086e-40 -2.7903485
0.3458185 0.04404528 -1.282171e-39 3.7201944e-16 -0.12696043 0.08076289 -0.49994057 -0.7148558
0.19497125 -0.48974976 -0.28304502 -1.0355242 -0.6549644 -0.6281505 -0.28047895 -0.34384328
-0.4944518 0.19863191 0.20020296 1.7428488 -0.045696266 0.10335563 -0.073827624 0.23608644
-0.12617248 0.24398644 3.28513e-39 -1.5486699e-12 -0.010804102 -0.015849574 -4.98066e-40 -2.812495
0.43069988 -0.5955552 -0.17570823 -0.6115425 -2.6201513 -0.0015863269 0.19651274 0.45862675
0.07929421 0.18034042 1.2969e-41 -4.0782414e-10 -0.099885985 -0.1306229 -0.13489056 -2.3175216
00000000: 2992 1c3f af92 1a3e 983d 0fbf 69f5 6936
00000010: eb89 a1be 253c a5be 5930 18bf f426 ebbe
00000020: 9ae7 5f3e fe43 813e 7dff 0e80 27dc 40ac
00000030: 6892 64be 14f4 403e 8726 19bf 18d6 50bf
00000040: 89b4 553e 755b fe3d 3ef9 a6be 021b bbbf
00000050: af95 bfbe 5ea1 093e 1168 3c3e 51f1 4d3e
00000060: 5c34 a9bd a05f 3f3e 1f91 1080 45e0 0eae
00000070: 3527 70be 0651 503e 3c60 55bf 85e7 0dbf
00000080: 1c04 2b3e e764 cabe bd99 3cbe d650 2fc0
00000090: fda0 94bf 9d56 0abf 99f2 eebd 8ef5 923d
000000a0: b870 e2bd 1408 553e cddf 0d00 a47d 46a1
000000b0: 8cdf 3cbe d79d f9bd 3e33 1dbf fc2a 813c
000000c0: 6c99 81bd f62f a1bd f92c 88bd 4ede 2380
000000d0: 2d9f 98bd 175b 9cb9 c3a4 67bd 8b2b 66bd
000000e0: e0e1 0500 4df2 86bd cd94 2200 ff80 0b80
000000f0: b961 3b3d 1095 513c 9883 5f01 2ef9 1080
00000100: 14cf 173f 59e2 83be 7302 32bf e5b2 0400
00000110: 94a8 1dbf d617 0abe 1fa4 14bf d160 aabe
00000120: 4ea5 9ca3 163f b3b5 e506 0c80 a1cf 1180
00000130: 648c 09a0 d52c 0c80 6ebe 6aaa 879e 4caa
00000140: f895 8e3e fb0e 63bf 8d47 1abe 0928 14bf
00000150: 3622 8cae c3ee 8a0c 76a8 a13e 088b ca3e
00000160: b003 1400 d7e4 a7bc e8d0 1480 6800 0680
00000170: 2c1b 24bb 7256 0d3e 7ffd 1200 7e31 0a00
00000180: c276 9f3e c375 1ebe 8668 27bf ca40 a924
00000190: 7cb0 783e 839c 363e e7e0 acbe 0bd8 e9be
000001a0: 5f16 4f3e 0615 43bf c7e2 bbbe c5b6 9abf
000001b0: a833 3ac0 71dc a0bb 9c0f 903e 6b6d 823e
000001c0: a006 813e 5db3 bcbe eb75 77bd b4dd a8bf
000001d0: 53f9 14bf 4c36 89be 4e1a 00be 660e 963e
000001e0: 65bb ce3e dbb5 c8be c742 a8bd 404f 89bf
000001f0: fbca b3be a24c 8cbe 0482 f13d 8dc5 37bd
00000200: d463 f5bd 937c d3be 8294 d0be 5b6a 5abf
00000210: 5147 07bf 5158 0f3a 4617 a33e 09be b43d
00000220: 8348 893e afc3 b13d b5a0 1cbf f552 7e37
00000230: b62b 73be 9891 803e 0d4b 18bf d11c e4be
00000240: 35a8 f73d 3cdb 8e3d ea6f 1880 145f e5a9
00000250: 35b7 27be af12 bbbe b46f 43bf 1633 c8be
00000260: ffbe b43e 16b1 633e e75f 0b80 1821 fc9e
00000270: 88fe 62be 2db4 bebe fe23 41bf 17af 80bf
00000280: 0a60 b43e 5293 0fbe dbea 9ebd 5959 f3bf
00000290: 299c 8dbe 5edb 5a3d eda0 42bc 4905 0dbe
000002a0: 85a0 2200 dc7e 873d f992 1500 7566 11a6
000002b0: 2916 8cbe 0a71 533e aa3d 1800 8838 7c80
000002c0: bd83 27bd 6eb6 fc3d 5d0b f4bc 217e 89bf
000002d0: 3aab 68bc b001 1abe 1f88 743e 4001 f93d
000002e0: 8f9d 0680 fca5 a3bd e99d 2180 e4ae 0980
000002f0: 66a2 d73d cf5f 87bc 1ca5 0b00 d166 0580
00000300: ce64 e23d 8235 613d 17f6 e83e ff9a 2140
00000310: 2865 d43b 1577 8bbe 0289 3d3e 6883 363e
00000320: 5ae0 c73d cff6 b73d 90aa 9780 e54e 9aae
00000330: 4215 d3bd d0f4 da3d adbe 0800 1295 32c0
00000340: 1f0f b13e d368 343d 2cf6 0d80 6174 d625
00000350: ea01 02be 0467 a53d 36f8 ffbe ca00 37bf
00000360: 8ba6 473e 7bc0 fabe 47eb 90be 0f8c 84bf
00000370: bfab 27bf 79ce 20bf f09a 8fbe 3a0c b0be
00000380: c928 fdbe 2a66 4b3e 0102 4d3e ab15 df3f
00000390: 022c 3bbd 1eac d33d f032 97bd a5c0 713e
000003a0: 5c33 01be 95d7 793e 9bc5 2300 b7f4 d9ab
000003b0: b003 31bc f7d6 81bc 686c 0580 ebff 33c0
000003c0: b284 dc3e 4e76 18bf dcec 33be 0d8e 1cbf
000003d0: 8fb0 27c0 4cec cfba a33a 493e 20d1 ea3e
000003e0: 0165 a23d 29ab 383e 2724 0000 2534 e0af
000003f0: 0691 ccbd 02c2 05be c020 0abe 4652 14c0

bias f4 [32]
0.83864784 0.38846922 -0.040801592 0.6708984 0.68763226 0.6147159 -0.07993891 -4.125869e-08
0.36462146 -9.7617485e-27 -0.12109165 -0.021189993 0.4971041 0.27275544 0.32726213 0.15817888
0.27407736 0.76167005 0.31561735 0.29769272 0.33368054 -0.19532496 0.32344925 -0.21258724
-0.5122329 0.18405631 0.681296 0.5202988 0.18537052 0.2845638 -0.06855493 0.0914119
00000000: a0b1 563f 70e5 c63e 921f 27bd ffbf 2b3f
00000010: ab08 303f 055e 1d3f 03b7 a3bd 6934 31b3
00000020: aaaf ba3e f259 4194 e6fe f7bd a396 adbc
00000030: 6e84 fe3e 9aa6 8b3e e78e a73e a5f9 213e
00000040: de53 8c3e cffc 423f 9998 a13e 2e6b 983e
00000050: 2dd8 aa3e 4403 48be 249b a53e 78b0 59be
00000060: b221 03bf 4279 3c3e 6a69 2e3f 4d32 053f
00000070: c5d1 3d3e 59b2 913e 8766 8cbd 2a36 bb3d

weight f4 [64, 32]
-1.072209e-39 -1.4837209e-05 -1.5888106e-06 -6.1682385e-07 5.4595e-41 -1.267521e-05 -3.099646e-39 -2.16473e-40
6.0191e-41 7.52594e-40 -7.52133e-40 8.88632e-40 -4.173777e-39 -6.14202e-40 1.441409e-39 1.21651e-40
3.30014e-40 -1.044821e-39 -3.9388657e-09 -2.07998e-05 -2.9240526e-15 -1.557496e-39 -9.461737e-07 -1.276922e-39
-3.7162111e-09 -6.7391404e-08 -7.207796e-23 1.649851e-39 -5.9405498e-05 -5.1355124e-05 -8.6199e-40 -1.0074728e-05
0.22085935 0.21163447 0.09731555 0.23054905 -0.6230969 0.30816185 -0.07859514 -1.8946437e-15
-1.1219381 9.77683e-40 0.16285346 -0.00038471987 0.2085851 0.01404438 0.11793593 0.24534614
-0.02709796 -0.17212655 0.210112 0.19396272 -0.119599454 0.08554445 0.2608451 -0.008795123
0.222451 0.18774053 0.06521788 0.04009836 0.23468095 0.21724214 0.08539998 0.17652021
0.20725204 -0.4027343 0.06897359 -0.53959465 -0.111439966 -0.22425285 -0.049162157 4.1982066e-20
-0.13298851 9.2723e-40 0.1214504 -3.9821765e-10 0.21931879 0.09465578 0.17524925 0.06292959
0.030680558 -0.20416464 -0.1972488 -0.13631172 -0.105353914 -0.023110418 0.073320724 0.0019598133
0.032230098 0.101003 -0.22330457 0.014818235 0.009644903 0.040293977 0.111778006 0.05337836
0.62014943 0.15553217 0.05281936 0.21790348 0.4682729 -0.054739915 0.030698579 1.093992e-39
1.271932 1.7106e-40 -0.3875556 1.7088491e-06 0.29771644 -0.2846078 0.055725645 0.2344226
-0.047958687 0.67689425 0.13523494 0.17254564 0.077746 -0.037799004 -0.11323766 -0.003459659
0.04550306 -0.1391917 0.0043499167 0.5199585 -0.15894063 -0.17030942 -0.40142667 -0.08801698
-0.105833635 -0.07289553 -0.13228881 0.11495143 0.84191394 -0.19685946 -0.023966063 -1.5668824e-33
0.09055421 9.62434e-40 -0.048452716 7.2527646e-06 0.009529278 -0.06683853 0.08757379 0.13997452
-0.042062156 0.4802989 0.025624052 -0.0360904 0.022920806 -0.03201471 -0.12753442 0.0071921
-0.08252043 -0.055080842 0.183296 0.27794516 -0.024751712 -0.07501675 -0.07317528 0.11888478
0.46664488 0.10450678 -0.09317887 0.29338202 -0.26605207 0.11386612 -0.055421464 -2.040321e-39
0.23089235 1.039203e-39 -0.12491116 -1.631756e-39 0.23422794 -0.056064602 0.02644846 0.037804
-0.122954644 0.20541154 0.053841412 -0.20361996 0.16841005 -0.008457083 0.05469038 -0.003149887
-0.061605394 0.013845907 0.28269133 0.043660287 -0.005927245 -0.17355809 -0.0890221 -0.14901738
0.35056716 -0.20091 0.07870211 0.075343706 -0.16890632 -0.16103691 0.08336853 2.69486e-39
0.0013164938 8.06241e-40 -0.6899417 -8.982879e-06 0.06590651 -0.86698556 -0.43353823 -0.3856023
-0.27044287 0.37883455 0.19263911 -0.13640624 0.075015984 -0.004207939 0.08489049 0.0011431647
-0.028594555 -0.13192005 0.27008998 -0.61238086 -0.14766282 -0.013489114 -0.90778893 -0.21597986
4.0349816e-23 -0.00020726235 -6.7873902e-06 -4.0536164e-05 1.402791e-39 -7.694006e-05 1.480497e-39 5.609642e-38
-2.852143e-39 -2.91044e-40 -9.21797e-38 5.23278e-40 -1.322115e-17 -2.545645e-39 1.82966e-39 -9.88058e-40
-8.1018537e-38 -1.597423e-39 3.6687106e-07 0.00013166739 -1.3973669e-13 7.9791e-41 -9.393614e-05 -3.234483e-39
8.169577e-11 3.0050945e-08 -1.07706065e-20 1.433572e-39 0.00013630955 -0.0003014762 3.1445687e-38 0.00012734605
00000000: e2ac 0b80 54ed 78b7 1e3f d5b5 d093 25b5
00000010: 3098 0000 9da7 54b7 8dc0 2180 705b 0280
00000020: caa7 0000 ed31 0800 a430 0880 25ad 0900
00000030: cb72 2d80 25b0 0680 10b2 0f00 1d53 0100
00000040: f297 0300 8960 0b80 a156 87b1 3b7b aeb7
00000050: 40b3 52a7 aaf5 1080 90fc 7db5 8ae7 0d80
00000060: 4760 7fb1 d1b8 90b3 1946 ae9a 1df7 1100
00000070: 2b2a 79b8 2566 57b8 e162 0980 a106 29b7
00000080: f428 623e b5b6 583e 604d c73d 0d15 6c3e
00000090: 4783 1fbf 64c7 9d3e 7df6 a0bd 0286 08a7
000000a0: ab9b 8fbf 62a5 0a00 0fc3 263e 3ab4 c9b9
000000b0: 5597 553e 661a 663c 6588 f13d 053c 7b3e
000000c0: 8afc ddbc f141 30be 9a27 573e 2a9e 463e
000000d0: 8ff0 f4bd ee31 af3d 7d8d 853e 6b19 10bc
000000e0: 32ca 633e 0e3f 403e f490 853d 2e3e 243d
000000f0: 3450 703e b974 5e3e 2fe6 ae3d b7c1 343e
00000100: e139 543e 3133 cebe 0742 8d3d e022 0abf
00000110: a33a e4bd 8aa2 65be 425e 49bd 3441 461f
00000120: 242e 08be bd18 0a00 fdba f83d 27ec daaf
00000130: 1b95 603e e4da c13d 8a74 333e 3be1 803d
00000140: cb55 fb3c 8910 51be 97fb 49be 4d95 0bbe
00000150: cbc3 d7bd 0f52 bdbc 2d29 963d 3670 003b
00000160: b503 043d a9da ce3d f4a9 64be 2fc8 723c
00000170: a805 1e3c 4c0b 253d deeb e43d 44a3 5a3d
00000180: 1dc2 1e3f d343 1f3e 1d59 583d 1722 5f3e
00000190: 77c1 ef3e f636 60bd 967b fb3c 9be9 0b00
000001a0: abce a23f d8dc 0100 b06d c6be 9c5b e535
000001b0: 4a6e 983e 1db8 91be 9340 643d 7a0c 703e
000001c0: 5470 44bd f148 2d3f 077b 0a3e ceaf 303e
000001d0: 4b39 9f3d 21d3 1abd 25e9 e7bd 72bb 62bb
000001e0: 6b61 3a3d 4588 0ebe bf89 8e3b 001c 053f
000001f0: 55c1 22be 9865 2ebe cc87 cdbe 3f42 b4bd
00000200: 4ebf d8bd 404a 95bd b876 07be a86b eb3d
00000210: ac87 573f 8795 49be 7a54 c4bc e72b 0289
00000220: 7c74 b93d e07a 0a00 5b76 46bd c65c f336
00000230: b020 1c3c a4e2 88bd e359 b33d 7b55 0f3e
00000240: 5e49 2cbd bde9 f53e 88e9 d13c 87d3 13bd
00000250: 6ac4 bb3c db21 03bd 6298 02be b5ab eb3b
00000260: 7900 a9bd 739c 61bd f2b1 3b3e d44e 8e3e
00000270: 1ac4 cabc 62a2 99bd ecdc 95bd dd79 f33d
00000280: 14ec ee3e a707 d63d 90d4 bebd 2b36 963e
00000290: fa37 88be a432 e93d 9e01 63bd 9637 1680
000002a0: 0b6f 6c3e e050 0b00 6cd1 ffbd acc4 1180
000002b0: 73d9 6f3e ffa3 65bd 71aa d83c 5ed8 1a3d
000002c0: a5cf fbbd 6757 523e d088 5c3d c081 50be
000002d0: af73 2c3e 948f 0abc 0503 603d 566e 4ebb
000002e0: f055 7cbd f1d9 623c ebbc 903e 21d5 323d
000002f0: 5639 c2bb 36b9 31be 3851 b6bd 0398 18be
00000300: 8a7d b33e 5abb 4dbe 922e a13d cd4d 9a3d
00000310: c7f5 2cbe dce6 24be 1fbd aa3d 2c58 1d00
00000320: 348e ac3a 79c7 0800 05a0 30bf 2cb5 16b7
00000330: fef9 863d c4f2 5dbf b9f8 ddbe aa6d c5be
00000340: 7d77 8abe 9af6 c13e 3043 453e 14ae 0bbe
00000350: fba1 993d c0e2 89bb 11db ad3d 3ed6 953a
00000360: 213f eabc 0d16 07be 3c49 8a3e fec4 1cbf
00000370: ec34 17be 7201 5dbc db64 68bf d329 5dbe
00000380: a71e 431a 9054 59b9 3dbf e3b6 6005 2ab8
00000390: 6946 0f00 e15a a1b8 061f 1000 80b5 9801
000003a0: 9d0e 1f80 502b 0380 e0ef fa81 b0b2 0500
000003b0: 1ee3 73a3 39b8 1b80 59ec 1300 4ec2 0a80
000003c0: ae8d dc81 f764 1180 60f6 c434 3210 0a39
000003d0: 5c54 1daa 6dde 0000 95ff c4b8 6c38 2380
000003e0: a1a6 b32e 5d11 0133 7573 4b9e 379c 0f00
000003f0: 51ee 0e39 730f 9eb9 e434 2b01 3288 0539

bias f4 [64]
-2.815764e-20 0.03294586 -0.13830632 0.43145022 0.11819572 0.22157161 -0.07041506 3.1664684e-05
0.25129458 0.31179094 0.07315255 0.12687019 0.054676227 0.27825907 0.42331505 0.7034927
0.06384344 0.9122348 0.004986964 0.22230145 -0.23769389 0.15152967 0.3642336 0.34220743
0.11999177 -1.8269136e-05 0.36348185 0.35850275 -0.048962176 0.061271653 0.050336882 -0.11031572
-5.0308468e-06 0.06638836 0.37976912 0.44393286 0.2664349 -0.11026765 -0.06120196 -0.16787587
0.13317469 0.21165338 0.081259355 -0.050101444 -0.017997865 -0.055215504 -0.32461137 -0.06001033
-0.015173053 0.16880251 -0.2314856 -0.1066458 0.10201659 -0.016520213 0.77562433 0.15236732
0.062084652 -0.07608058 -0.24679482 -0.08093587 0.32577989 -0.048345875 0.35408667 -0.15119493
00000000: 7ff8 049f 3df2 063d 2ca0 0dbe 0be7 dc3e
00000010: 9910 f23d abe3 623e c535 90bd b2cf 0438
00000020: afa9 803e 10a3 9f3e 01d1 953d 42ea 013e
00000030: 2ef4 5f3d f977 8e3e c0bc d83e 1918 343f
00000040: 59c0 823d 3888 693f b069 a33b fea2 633e
00000050: 0766 73be 982a 1b3e d47c ba3e d035 af3e
00000060: 3fbe f53d ac40 99b7 4b1a ba3e ac8d b73e
00000070: 908c 48bd fcf7 7a3d 0c2e 4e3d 35ed e1bd
00000080: a5ce a8b6 9ff6 873d 1971 c23e 2b4b e33e
00000090: 286a 883e 01d4 e1bd e8ae 7abd a7e7 2bbe
000000a0: f25e 083e aabb 583e 4e6b a63d 2c37 4dbd
000000b0: 4270 93bc a729 62bd 7633 a6be 64cd 75bd
000000c0: 6698 78bc 91da 2c3e 900a 6dbe 1d69 dabd
000000d0: 13ee d03d 6655 87bc 518f 463f 2e06 1c3e
000000e0: 7a4c 7e3d 23d0 9bbd c8b7 7cbe b5c1 a5bd
000000f0: 9fcc a63e 5306 46bd d94a b53e d8d2 1abe
