model/3000.14914090931415558.pt (torch_old, 168315 bytes, 19 tensors)

weight f4 [256, 2]
0	0xbe51ba9e	-0.20481345
1	0x3f292e76	0.6608652
2	0x3ee7a1b3	0.45240554
3	0x3e08c682	0.13356975
4	0xbedfa323	-0.4367915
5	0x3d7314d5	0.05934604
6	0x3f34812b	0.70509595
7	0xbf00969a	-0.502298
8	0xbeed0e9e	-0.46300215
9	0xbe61237a	-0.2198619
10	0xbeb50153	-0.35352573
11	0x3f0bd297	0.5461821
12	0x3e3a7305	0.18207939
13	0x3f120f98	0.57055044
14	0x3dadccd4	0.084863335
15	0xbee00f4d	-0.43761674
16	0x3e990183	0.29883966
17	0x3d8166fe	0.06318472
18	0x3ec6234f	0.38698813
19	0xbe753ff2	-0.23950174
20	0xbe8b7ac2	-0.27242094
21	0x3ef14b6b	0.47127852
22	0xbd10f28a	-0.035387553
23	0xbee27d2f	-0.44236133
24	0xbed1473f	-0.4087467
25	0xbf368ffc	-0.7131345
26	0x3eb665ad	0.35624447
27	0xbd2633aa	-0.040576614
28	0xbebd93a5	-0.37026706
29	0x3f31bc1b	0.6942765
30	0x3ea71a0f	0.3263707
31	0xbe7cfa96	-0.24704966
32	0xbdb34487	-0.08753305
33	0x3e9d208a	0.30688888
34	0x3f1cd7e1	0.61266905
35	0x3e99a3dc	0.30007827
36	0xbf2aabb2	-0.66668236
37	0x3e11b199	0.14227904
38	0x3eb05f02	0.34447485
39	0xbde434af	-0.11142861
40	0x3ecef799	0.40423277
41	0xbf123a85	-0.57120544
42	0x3e985318	0.29750896
43	0x3f22a248	0.6352887
44	0x3ec1593e	0.377634
45	0x3da694b1	0.081338294
46	0xbf4b49ee	-0.7940968
47	0xbe27a29a	-0.16370621
48	0xbedee7d5	-0.4353625
49	0xbf56a406	-0.8384403
50	0x3e9001ca	0.28126365
51	0xbebbc655	-0.36674753
52	0x3d727309	0.059191737
53	0x3f27ea5f	0.65591997
54	0x3d2b47e4	0.041816607
55	0x3ca7fa86	0.020505201
56	0xbeabeb96	-0.33578175
57	0x3f160e74	0.58615804
58	0xbec890b1	-0.3917289
59	0x3f22885e	0.6348933
60	0xbee507ff	-0.44732663
61	0xbf0c58d6	-0.5482305
62	0x3f30b18d	0.6902092
63	0x3e0ee6e2	0.13955262
64	0x3f13d0ad	0.5774029
65	0x3ecfc04d	0.405764
66	0xbe83b872	-0.25726658
67	0x3f18be4a	0.5966536
68	0xbf4b1c74	-0.7934029
69	0xbe3b03a7	-0.18263112
70	0xbda4c5bd	-0.08045528
71	0x3e929035	0.28625646
72	0x3f4484d5	0.76765186
73	0x3bd85125	0.00660147
74	0xbec743ac	-0.38918817
75	0x3edf51c0	0.43617058
76	0x3ed2ff73	0.41210517
77	0xbf00fef4	-0.5038903
78	0xbf4551e1	-0.7707806
79	0xbde85b73	-0.113455676
80	0xbef135ae	-0.47111267
81	0x3f119ec5	0.5688289
82	0x3e8b7834	0.27240145
83	0x3ee2dfb2	0.4431129
84	0xbe71e3dd	-0.23622079
85	0xbd7d785d	-0.061882365
86	0xbea4fcd2	-0.32224137
87	0xbea2bf48	-0.3178656
88	0x3f3763cd	0.7163666
89	0x3e09b019	0.13446082
90	0xbf287237	-0.6579928
91	0xbe42bda9	-0.19017662
92	0xbec7204f	-0.38891837
93	0x3f0d460f	0.55185026
94	0x3f290a31	0.66031176
95	0xbf35df62	-0.7104398
96	0x3ede429a	0.43410188
97	0xbee93c94	-0.4555403
98	0xbdba6408	-0.09101111
99	0x3e8072c0	0.25087547
100	0xbe5d6474	-0.21620351
101	0x3ef65fb0	0.4811988
102	0x3edfaa35	0.43684545
103	0x3edd5016	0.43225163
104	0x3f35625f	0.7085323
105	0x3dc6855c	0.09693405
106	0x3eb21dc3	0.3478833
107	0xbe3cac30	-0.1842506
108	0xbecaf403	-0.3963929
109	0x3f100ee2	0.5627271
110	0xbf15eaed	-0.58561593
111	0x3f148101	0.58009344
112	0x3eac79b2	0.33686596
113	0x3e998589	0.29984692
114	0xbf1f025d	-0.6211298
115	0x3e9bf36f	0.30459163
116	0xbe0528f6	-0.13003907
117	0x3ef7bae2	0.48384768
118	0xbf1cc580	-0.6123886
119	0xbf131538	-0.5745425
120	0xbda28fb4	-0.079375654
121	0x3e331010	0.17486596
122	0x3e90d772	0.28289372
123	0x3f0489df	0.51772875
124	0x3e9aee56	0.3025996
125	0x3ebed688	0.3727305
126	0xbe984757	-0.29741928
127	0x3eb6308a	0.35583907
128	0xbe1bd989	-0.15219702
129	0x3e8e8c72	0.27841526
130	0xbeb22591	-0.34794286
131	0xbea89b1a	-0.32930833
132	0x3f0c3fa6	0.5478462
133	0xbef4dcae	-0.47824615
134	0xbf566643	-0.8374979
135	0xbddcd2d0	-0.10782397
136	0xbedd5560	-0.43229198
137	0x3ef8258c	0.48466146
138	0xbecc649e	-0.39920515
139	0x3d463e0e	0.048399024
140	0xbf2f0a0d	-0.6837471
141	0x3de4eeaf	0.11178338
142	0x3f143e28	0.5790734
143	0xbf252388	-0.6450734
144	0x3f139a7d	0.57657605
145	0xbe671f1c	-0.22570461
146	0x3e2180c8	0.15771782
147	0x3e89a601	0.26884463
148	0xbed8810c	-0.42285955
149	0x3f160ebe	0.58616245
150	0xbecd5682	-0.40105063
151	0x3ea0203d	0.31274596
152	0xbdea22dd	-0.11432431
153	0x3dd55711	0.10416997
154	0x3db9eada	0.090779975
155	0xbf3dd575	-0.74153835
156	0xbf308cb6	-0.6896471
157	0x3dedac20	0.11605096
158	0xbe87f84e	-0.2655663
159	0x3e89eb1d	0.2693719
160	0x3ee1e439	0.44119433
161	0xbebf17e0	-0.37322903
162	0xbeeb9cb4	-0.46017992
163	0xbf02f7ab	-0.5115916
164	0x3e8aabd4	0.2708422
165	0x3d0aa9fa	0.03385351
166	0x3f073b3a	0.5282475
167	0x3ef1a43d	0.47195616
168	0x3ea3414f	0.31885764
169	0xbeac6655	-0.33671823
170	0x3f096151	0.5366412
171	0xbf014888	-0.505013
172	0x3f2aaee1	0.66673094
173	0x3e08506c	0.13311929
174	0xbe97ecfe	-0.29672998
175	0xbf072348	-0.5278821
176	0xbece58b2	-0.40302044
177	0x3f07fa70	0.5311651
178	0xbe27bdad	-0.1638095
179	0x3f2f8b7f	0.6857223
180	0x3e39ef6b	0.18157737
181	0x3e5dac07	0.21647654
182	0x3e6c195e	0.23056552
183	0xbe1837df	-0.14865063
184	0x3f2f1a3e	0.6839942
185	0x3f1df8a1	0.617075
186	0xbef23d58	-0.47312427
187	0x3ee34422	0.4438792
188	0x3ed251fe	0.4107818
189	0xbe144603	-0.14479832
190	0x3ebd7bd0	0.37008524
191	0x3f2916f9	0.6605068
192	0xbd8fe6c0	-0.07026434
193	0x3f346073	0.7045967
194	0x3ee367a0	0.44414997
195	0xbeee6881	-0.46564105
196	0xbd40390c	-0.046929404
197	0xbed45063	-0.4146758
198	0xbe9e86d9	-0.30962256
199	0x3e436710	0.19082284
200	0x3f47e3fa	0.7808224
201	0xbd8a75ea	-0.067607716
202	0x3ef96e2e	0.48716873
203	0xbf09c8b2	-0.5382186
204	0x3f0f72c5	0.560345
205	0x3e9ce22a	0.306413
206	0xbf1fa947	-0.6236767
207	0xbf21bf09	-0.6318212
208	0x3e40288a	0.18765464
209	0x3f12a9b3	0.5729019
210	0xbee68201	-0.4502106
211	0x3f084dca	0.53243697
212	0xbedc4cae	-0.43027252
213	0xbecdd44f	-0.4020104
214	0xbeff85e0	-0.49906826
215	0x3f29d790	0.6634455
216	0xbf11abf4	-0.56903005
217	0xbf0523f2	-0.52007973
218	0x3d9018c0	0.07035971
219	0xbf10dae4	-0.56584
220	0xbe5a48c2	-0.21316817
221	0x3f02b029	0.5105005
222	0xbf200d56	-0.6252035
223	0xbe63ee7f	-0.22258948
224	0x3f011755	0.50426227
225	0x3f0065e0	0.5015545
226	0xbec413c6	-0.38296336
227	0xbde0923a	-0.109653905
228	0xbe469315	-0.19392045
229	0x3e7a8d46	0.24467954
230	0xbee6147c	-0.44937503
231	0xbf22ffd9	-0.6367164
232	0xbe1a932f	-0.15095209
233	0x3e8195a6	0.25309485
234	0xbed02a0b	-0.40657076
235	0x3f21e285	0.63236266
236	0xbe74fb00	-0.23923874
237	0x3ecacf37	0.39611217
238	0xbeca2bc6	-0.3948652
239	0xbf0cda9c	-0.5502107
240	0xbe85b226	-0.2611248
241	0x3c163c4a	0.0091696475
242	0x3f2473eb	0.64239377
243	0xbed4639f	-0.41482255
244	0x3ed5047b	0.4160498
245	0x3f18975e	0.5960597
246	0x3f2f8100	0.68556213
247	0xbe1caf80	-0.15301323
248	0x3f35240b	0.7075812
249	0xbed23c47	-0.41061613
250	0x3db27311	0.087133534
251	0x3dfed8cc	0.124436945
252	0xbf15b50f	-0.584794
253	0x3f354338	0.7080569
254	0x3ce8a103	0.028397089
255	0x3f05d340	0.52275467

bias f4 [256]
0	0x3da49067	0.08035355
1	0x3e568a84	0.20951277
2	0x3f679b56	0.904714
3	0x3e51d5b8	0.20491683
4	0x3e51a62c	0.20473546
5	0x3e44b7d2	0.19210747
6	0xbe9db3e7	-0.30801317
7	0xbe331f8a	-0.174925
8	0x3d0c00dd	0.03418051
9	0x3e879614	0.26481688
10	0xbedeb4f5	-0.43497434
11	0x3e984a96	0.29744405
12	0x3ddf789d	0.10911677
13	0xbf253288	-0.6453023
14	0x3f0b2b83	0.5436327
15	0xbb5b9316	-0.0033504418
16	0xbf042a8f	-0.5162744
17	0x3f48dbb7	0.7846026
18	0x3f0abed3	0.54197425
19	0xbf021942	-0.5081979
20	0xbe8691ec	-0.26283205
21	0x3e1612f2	0.14655665
22	0xbe67b005	-0.2262574
23	0xbdda8dc8	-0.10671574
24	0x3b98c4dd	0.00466214
25	0x3f41e78e	0.7574395
26	0x3efbb1e0	0.49159145
27	0x3e965ac4	0.29366124
28	0xbf067f69	-0.5253816
29	0xbecdaa52	-0.40169007
30	0x3a7d9c1a	0.0009674445
31	0x3f454c6c	0.77069736
32	0x3e0f3b8c	0.13987559
33	0xbe68476e	-0.22683498
34	0x3d0f252b	0.034947556
35	0x3e0e2677	0.1388186
36	0x3de12610	0.10993588
37	0x3f0ad08e	0.5422448
38	0x3f1d4a4a	0.6144148
39	0xbeef3d79	-0.46726587
40	0xbecc23f5	-0.39871183
41	0x3f128440	0.5723305
42	0xbee5bd52	-0.44871002
43	0xbf15277c	-0.58263373
44	0xbf28c36d	-0.65923196
45	0x3eade540	0.33963966
46	0xbf06e3eb	-0.52691525
47	0x3f083280	0.53202057
48	0x3e028687	0.1274663
49	0xbf361262	-0.711218
50	0xbe95597a	-0.29169828
51	0xbe6a9883	-0.22909741
52	0xbd73dbc2	-0.05953575
53	0xbe74fd0b	-0.23924653
54	0xbeb1f761	-0.34759048
55	0x3f186bc4	0.5953944
56	0x3f12ee7f	0.57395166
57	0xbeb278b0	-0.34857702
58	0xbee95eb2	-0.4558006
59	0xbf35478d	-0.708123
60	0xbcd6f92b	-0.02624186
61	0xbe9b379f	-0.30315873
62	0xbe7aa2cc	-0.24476165
63	0x3f3c424c	0.7353866
64	0x3f01d4db	0.50715417
65	0x3e6a07b7	0.22854505
66	0xbef7ad52	-0.4837442
67	0xbf207abf	-0.62687296
68	0x3ee72f49	0.45153263
69	0x3f71751a	0.9431931
70	0x3e8039b2	0.25044018
71	0x3e91241f	0.2834787
72	0xbe2e582a	-0.1702582
73	0x3e4bb45e	0.19893023
74	0x3eb7d9b7	0.3590829
75	0x3f0ccfe9	0.55004746
76	0x3ef2da80	0.47432327
77	0x3ea10e73	0.31456336
78	0x3f7c9492	0.986642
79	0x3ef7ee67	0.48424074
80	0xbebddf05	-0.37084213
81	0xbe2094a1	-0.15681697
82	0x3ed96125	0.42456928
83	0xbe66cfc9	-0.22540201
84	0x3dd8233a	0.10553594
85	0xbe40f078	-0.18841732
86	0x3f403807	0.7508549
87	0x3e710144	0.23535639
88	0xbe5d6873	-0.21621875
89	0xbf0e7519	-0.55647427
90	0xbf08ad29	-0.5338922
91	0xbe800fd0	-0.25012064
92	0xbe54ca92	-0.207804
93	0x3f3cecaf	0.7379865
94	0xbb43353c	-0.0029786369
95	0xbed0981d	-0.40741053
96	0xbc7d27bf	-0.015451371
97	0x3ddc3cae	0.10753761
98	0xbe0e6b0d	-0.13908024
99	0xbf2c96b4	-0.67417455
100	0xbf1fd7ea	-0.62438834
101	0x3ea5fbee	0.3241877
102	0xbe80d4d9	-0.2516239
103	0x3e6bdf9c	0.23034519
104	0xbbf66cce	-0.0075202947
105	0x3f38ac57	0.7213797
106	0x3ef44645	0.4770986
107	0x3e201d24	0.15636116
108	0xbe1f8ec9	-0.15581812
109	0x3eb5bf75	0.35497633
110	0x3b8e693d	0.0043460415
111	0xba9cbd67	-0.0011958302
112	0x3dbd98f8	0.09257692
113	0x3e51027b	0.20411102
114	0xbe50726f	-0.20356153
115	0xbf2608fe	-0.6485747
116	0x3c61dc3b	0.013785417
117	0x3e8d80bd	0.27637282
118	0xbf2d3513	-0.6765911
119	0xbe8132e6	-0.25234145
120	0x3f68b2e2	0.90897954
121	0xbd7aa974	-0.06119676
122	0xbeab87fa	-0.3350218
123	0xbeabda50	-0.33564997
124	0xbf0ae2a9	-0.54252106
125	0x3f01c7ff	0.50695795
126	0xbdb8737d	-0.09006403
127	0x3f4031a2	0.75075734
128	0x3f0adf1a	0.54246676
129	0xbf03e449	-0.5152021
130	0xbd90703e	-0.070526585
131	0x3d762b5f	0.060099956
132	0xbede4cec	-0.43418062
133	0x3f01ce0a	0.50705016
134	0x3ef8b49b	0.4857529
135	0xbe634422	-0.2219396
136	0x3eee2302	0.46511084
137	0xbef6b911	-0.4818807
138	0x3d062b8a	0.032756366
139	0x3f3a2c90	0.72724247
140	0xbe39abf6	-0.18132004
141	0x3dcbd3b8	0.099524915
142	0x3e958794	0.29205
143	0x3f305770	0.6888342
144	0x3eaf559a	0.34244996
145	0x3e36413e	0.17798325
146	0xbe77a769	-0.24184956
147	0x3eac5b24	0.33663285
148	0xbe70cf84	-0.23516661
149	0xbe9bf67a	-0.30461484
150	0x3ecc9411	0.39956716
151	0x3f04fcd3	0.5194828
152	0x3d4e088e	0.050301127
153	0xbecf022f	-0.40431353
154	0x3f228415	0.6348279
155	0xbf0bea7a	-0.5465466
156	0xbe2b0c81	-0.16703989
157	0xbda43ca9	-0.080193825
158	0x3f1a621d	0.6030596
159	0x3f33e944	0.7027781
160	0xbf0b0320	-0.54301643
161	0xbde13695	-0.10996739
162	0x3e4a21c8	0.19739449
163	0x3f114252	0.5674182
164	0xbeece618	-0.46269298
165	0xbe9847c6	-0.2974226
166	0xbe671f4c	-0.22570533
167	0xbe500a54	-0.2031644
168	0x3f37de44	0.71823525
169	0x3e81d4de	0.25357717
170	0x3f143c54	0.57904553
171	0x3d1f29eb	0.038858335
172	0x3ee1c881	0.44098285
173	0x3f11796b	0.56825894
174	0xbf537b88	-0.8261037
175	0xbe613c9e	-0.2199578
176	0x3f22ed8a	0.63643706
177	0x3f45925e	0.77176464
178	0xbee1d2b8	-0.44106078
179	0xbec7ae87	-0.3900034
180	0x3f292f40	0.6608772
181	0xbe6bbad0	-0.23020482
182	0xbdbb272d	-0.091383316
183	0xbf0227af	-0.508418
184	0x3ecda657	0.4016597
185	0x3e9807da	0.2969349
186	0xbf20c86f	-0.6280584
187	0xbe846be9	-0.2586358
188	0xbe95ad88	-0.29233956
189	0x3ec26785	0.37969604
190	0x3e754725	0.2395292
191	0x3e0d33e6	0.13789329
192	0xbed1d4be	-0.40982622
193	0x3eb721d2	0.3576799
194	0x3eaa8e0a	0.33311492
195	0xbea5c526	-0.32376975
196	0xbec3f191	-0.38270238
197	0xbedb1edc	-0.4279698
198	0xbf139f7f	-0.57665247
199	0x3e7c1a44	0.24619395
200	0xbf06a431	-0.52594286
201	0xbf277f94	-0.65429044
202	0xbf021858	-0.50818396
203	0xbc653b54	-0.013991196
204	0xbeb36e82	-0.35045248
205	0x3eeebc5e	0.46628088
206	0x3e91385a	0.28363305
207	0xbeb092f9	-0.3448713
208	0xbe9a639c	-0.3015412
209	0xbd8781d0	-0.06616557
210	0xbe2ea2b7	-0.17054258
211	0x3ddfeadf	0.1093347
212	0x3eae1bca	0.34005576
213	0xbf0783a0	-0.5293522
214	0xbed3a852	-0.41339356
215	0x3eef9fc3	0.46801576
216	0x3f08561c	0.5325639
217	0xbd83b48b	-0.0643092
218	0xbefd9acd	-0.49532166
219	0x3e8b36f1	0.27190354
220	0x3f1f3157	0.6218466
221	0x3ddc1eb1	0.107480414
222	0x3e6bc293	0.23023443
223	0x3e965460	0.29361248
224	0x3f14c725	0.5811637
225	0x3d960cf8	0.07326692
226	0x3f5d3313	0.8640606
227	0xbf0f7928	-0.56044245
228	0x3ebc6fcd	0.36804047
229	0x3eb69983	0.35663995
230	0xbf06fa04	-0.52725244
231	0x3efd16bf	0.49431416
232	0xbe6ed687	-0.23324023
233	0x3f034c22	0.51288044
234	0x3ec365cb	0.381636
235	0x3f102cd3	0.56318396
236	0xbdc97045	-0.09835867
237	0x3f51aa01	0.8190003
238	0xbed9fbdd	-0.4257497
239	0x3f55c58a	0.83504546
240	0x3e84ced1	0.25939038
241	0x3f2a5bc4	0.66546273
242	0x3f5ed727	0.87047046
243	0x3f2fe0d0	0.6870241
244	0x3ef949d2	0.48689133
245	0x3e2d81f1	0.169441
246	0xbd2575d1	-0.04039556
247	0xbe12aade	-0.14322993
248	0x3f03c089	0.5146566
249	0x3f04829b	0.5176179
250	0xbf075045	-0.52856857
251	0xbef42f36	-0.4769227
252	0x3f0877c4	0.5330775
253	0x3d51c1a9	0.05121008
254	0x3d2b9851	0.041893307
255	0x3eeb77d6	0.45989865

weight f4 [64, 256]
0	0x3c1e67e8	0.009668328
1	0x3cfcc085	0.03085352
2	0x3d25838b	0.040408652
3	0x3e034548	0.12819397
4	0x3bbb9b41	0.005725295
5	0x3c71fa50	0.014769152
6	0x3d353394	0.04423864
7	0x3b056e8b	0.0020360078
8	0x3ddaa15e	0.106753096
9	0x3e00b186	0.1256772
10	0x3ca7d359	0.02048652
11	0xbc9ad612	-0.018900905
12	0x3d1dc832	0.038521
13	0x3d4c5a55	0.049890835
14	0xbb16f356	-0.0023033223
15	0x3d51e9ae	0.051248245
16	0xbab16ed7	-0.0013537061
17	0x3da0af60	0.0784595
18	0xbd5bc2db	-0.053652626
19	0x3d8b6ae9	0.06807501
20	0xbd5e0686	-0.05420544
21	0xbb972ee5	-0.0046137446
22	0x3dbd6ea4	0.09249619
23	0x3d06eae5	0.032938857
24	0xbcecd187	-0.028908504
25	0x3d2c97fe	0.04213714
26	0x3d541ac3	0.051783334
27	0x3da9d7bc	0.08293101
28	0xbd0b66ae	-0.03403347
29	0x3d802caa	0.06258519
30	0x3c6a6d03	0.014308217
31	0x3d980fb8	0.07424873
32	0x3d2bd1ae	0.041948013
33	0xbc2a6578	-0.010400169
34	0xbc517e94	-0.012786526
35	0x3cef4c78	0.029211268
36	0x3db92914	0.09041038
37	0x3d5a4b7f	0.053294655
38	0x3cfba2cc	0.030717276
39	0x3d00ad2b	0.031415146
40	0x3d15a382	0.036532886
41	0x3d9e7f94	0.07739177
42	0x39d0a70a	0.00039797305
43	0x3cdb9036	0.026802164
44	0x3c5e7a98	0.013579033
45	0x3c34a2e2	0.011025162
46	0x3dac8868	0.08424455
47	0x3c965a3d	0.018353576
48	0x3c3435e3	0.010999176
49	0x3df01a37	0.1172375
50	0xbd078f9e	-0.03309595
51	0x3da44894	0.08021656
52	0x3d62c9df	0.0553683
53	0x3d392062	0.0451969
54	0xbc370445	-0.0111704515
55	0x3d86220f	0.06549465
56	0xbbc4516b	-0.005991151
57	0xbbf540c2	-0.0074845264
58	0xbb6dae8e	-0.0036267373
59	0xb9c986e8	-0.0003843822
60	0xbb6add42	-0.0035837446
61	0x3d0922e1	0.03348053
62	0x3cd145e5	0.025546024
63	0xbb99df41	-0.0046958034
64	0xbd833eb5	-0.06408445
65	0xbca69b94	-0.020337857
66	0x3db1cc01	0.08681489
67	0x3c9fd180	0.019509077
68	0x3d4630a7	0.048386242
69	0xbcf500cb	-0.029907605
70	0x3b9cfb1c	0.0047906768
71	0x3d92c4d7	0.071664505
72	0x3d3bf083	0.045883667
73	0x3d9286bd	0.071546055
74	0xbd0a2549	-0.033726964
75	0xbab758f0	-0.0013988297
76	0x3ce1cada	0.027562547
77	0xbc4f2ba0	-0.012644678
78	0x3d2de5fc	0.04245566
79	0x3c579f31	0.013160513
80	0x3da1525d	0.07877038
81	0xbd2bef69	-0.041976366
82	0x3d70df23	0.05880655
83	0x3d3a7767	0.045524027
84	0x3d07dad6	0.033167683
85	0xbc429f26	-0.011878764
86	0x3dc0f3cd	0.09421501
87	0x3c66a66a	0.014077762
88	0xbca685d2	-0.020327482
89	0xbd5023ce	-0.050815396
90	0x3d49baf8	0.049250573
91	0x3d84bdb1	0.06481493
92	0xbca38026	-0.019958567
93	0x3d02aa03	0.031900417
94	0x3d0615f7	0.03273579
95	0x3ce6ec66	0.028188895
96	0xbd3190a6	-0.043350838
97	0x3d468c3e	0.04847359
98	0x3ca5a790	0.020221502
99	0x3d2e5cb1	0.042568866
100	0x3d7177e0	0.058952212
101	0x3d6a9f81	0.05728102
102	0x3bd75dae	0.006572447
103	0xbd1e3482	-0.038624294
104	0xbcd7e311	-0.02635339
105	0xbcea391c	-0.028591685
106	0xbb8e9b64	-0.00435202
107	0xbd4ac630	-0.049505413
108	0x3ba02cbd	0.0048881457
109	0xbcfd6e05	-0.03093625
110	0xbb91e139	-0.0044518975
111	0xbbc812d9	-0.0061057624
112	0x3d8b45c0	0.06800413
113	0x3b78997a	0.0037933276
114	0x3d8e7707	0.069562964
115	0xbc6f8200	-0.014618397
116	0xbd4af9a5	-0.049554486
117	0xbd89b512	-0.067239895
118	0x3c808ddd	0.015692646
119	0xbc00ac81	-0.007853628
120	0xbcb6c300	-0.02230978
121	0x3dfeec09	0.12447364
122	0x3cbd8ce0	0.023138463
123	0x3bce3ec9	0.0062941057
124	0x3d6d2b4a	0.05790261
125	0xbcc697f2	-0.024242375
126	0xbbef0b26	-0.00729503
127	0x3d701356	0.05861219
128	0xbc912b9a	-0.017720986
129	0x3d48f2b9	0.049059603
130	0x3d0e60ab	0.03476016
131	0x3c9f82eb	0.019471606
132	0xbd93060c	-0.07178888
133	0x3b109797	0.002206301
134	0x3db2f6be	0.087384686
135	0x3d2dc734	0.042426303
136	0x3c89ba44	0.016812451
137	0x3d92d192	0.071688786
138	0x3c92f26d	0.017937863
139	0xbbf60b39	-0.007508662
140	0x3cca4b9b	0.024694255
141	0x3c151318	0.009098791
142	0xbcea8f42	-0.028632764
143	0xbcd2cabf	-0.025731442
144	0x3cbd98c4	0.023144133
145	0xbc3a1078	-0.0113564655
146	0xbc3d5c7e	-0.011557696
147	0xba1d3e31	-0.0005998342
148	0xbbafab4d	-0.005360997
149	0x3d08fc53	0.03344376
150	0x3d821fd3	0.06353726
151	0xbc39803d	-0.011322078
152	0x3ba41a58	0.005008023
153	0x3d7eab46	0.062175058
154	0xbd162954	-0.036660507
155	0x3d22044c	0.03955488
156	0x3d15990f	0.03652292
157	0x3db51ca1	0.08843351
158	0xbd0cde15	-0.03439148
159	0xbbf43564	-0.0074526537
160	0x3c22c26e	0.009934051
161	0xbd8f609c	-0.07000849
162	0xbd3042e9	-0.04303256
163	0x3cf38ed5	0.029731194
164	0xbb9caeae	-0.0047815656
165	0x3a552e2d	0.0008132186
166	0x3b80f491	0.0039354046
167	0x3db53471	0.08847893
168	0x3cdf1c89	0.027235286
169	0x3c3be5ec	0.011468392
170	0xbc883e54	-0.016631283
171	0xbd6377bb	-0.055534106
172	0x3d60d574	0.054891065
173	0x3c3e091e	0.011598853
174	0xbc911a0d	-0.017712617
175	0x3d980a96	0.07423894
176	0x3ce0450a	0.02737667
177	0xbc0a8aeb	-0.008455972
178	0x3c7d90d1	0.015476421
179	0x3ca024ae	0.01954874
180	0x3c1cf7b1	0.009580539
181	0x3db504f8	0.08838838
182	0xbd273e0f	-0.040830668
183	0xbd04af39	-0.032393668
184	0xbc7f4c7f	-0.015582203
185	0x3d2d106f	0.042252
186	0x3cad1c1d	0.02113157
187	0x3d1a4e9f	0.037672635
188	0x3d852f0b	0.06503113
189	0xbc55fd7b	-0.013060923
190	0x3cc52e28	0.02406986
191	0x3d32978a	0.04360155
192	0x3c2fea08	0.01073695
193	0x3e04aede	0.12957332
194	0xbc84561d	-0.016154343
195	0x3da39829	0.079880066
196	0x3da4549c	0.080239505
197	0xbd4ac64f	-0.049505528
198	0x3b775002	0.0037736897
199	0xbb3df6f0	-0.0028986298
200	0x3be4625c	0.006969733
201	0x3d1b479d	0.037910093
202	0x3db680ad	0.08911262
203	0xbd32c531	-0.043645088
204	0xbd1a58ed	-0.037682462
205	0xbd548438	-0.051883906
206	0x3dce0957	0.10060375
207	0xbd1367a1	-0.0359875
208	0x3cf1d315	0.029519597
209	0x3d464bda	0.04841218
210	0x3bf5181e	0.0074796816
211	0x3d71c528	0.059025913
212	0x3be7dae7	0.0070756557
213	0xbdb68908	-0.089128554
214	0x3db00b2d	0.085958816
215	0x3db4d32c	0.0882934
216	0x3d85be7a	0.06530471
217	0x3d14f05d	0.03636204
218	0xbd27d382	-0.040973194
219	0xbd822e38	-0.06356472
220	0x3b7a3587	0.0038178877
221	0xbc42c4de	-0.011887757
222	0x3d037ee0	0.03210342
223	0xbcd63ae9	-0.026151137
224	0xbbc8f4df	-0.0061327065
225	0x3d48df40	0.049041033
226	0xbd871f72	-0.065977946
227	0xbd1975dc	-0.037465915
228	0x3c66a37f	0.014077066
229	0xbd21e227	-0.039522316
230	0x3c45f35c	0.012081947
231	0x3d95f51e	0.07322143
232	0x3c76878f	0.015046968
233	0xbc987610	-0.018610984
234	0x3bfdbea7	0.007743675
235	0x3baecf4f	0.0053347717
236	0x3c2721f4	0.010200966
237	0x3d18058f	0.037114676
238	0xbd6ff493	-0.058582854
239	0x3cf4f6ac	0.029902779
240	0xbdb69b9e	-0.089164004
241	0x3b8fd737	0.0043896693
242	0x3d67bb91	0.05657536
243	0xbb5771ac	-0.003287415
244	0x3d64aa9f	0.05582678
245	0x3d467358	0.048449844
246	0x3c8268b3	0.015919065
247	0x3d311cdd	0.043240417
248	0x3ded9a86	0.11601739
249	0xbcdd8be1	-0.027044239
250	0xbcc077d6	-0.023494642
251	0x3ccbd76a	0.02488299
252	0x3d9d4ce6	0.07680683
253	0x3b0c7c17	0.0021436268
254	0xbb72958f	-0.0037015413
255	0xbcd869a7	-0.026417566

bias f4 [64]
0	0xbb339a64	-0.0027405256
1	0x3d8a2d43	0.06746914
2	0x004790a5	6.572209e-39
3	0x3ceb3e96	0.028716367
4	0x3d04b0d2	0.03239519
5	0xbb8811fe	-0.0041525355
6	0x3c9f5e58	0.019454166
7	0xbb0e33ad	-0.0021698282
8	0x3dbf1922	0.093309656
9	0x3d9be5bd	0.076121785
10	0xbcdbb238	-0.02681838
11	0x3d8dfc03	0.06932833
12	0x3d7e3ab2	0.062067695
13	0xbd3cd6e5	-0.046103377
14	0x3d66a51f	0.056309815
15	0x3d37b35f	0.044848796
16	0xbe43a585	-0.1910611
17	0x3da0741f	0.07834648
18	0x3d276baf	0.04087418
19	0x3b7cfc4d	0.0038602531
20	0x00562fa9	7.91495e-39
21	0x3d2f182d	0.042747665
22	0xbe76c1eb	-0.24097411
23	0x3d71ed67	0.059064295
24	0x3cd7ae4b	0.026328227
25	0x3d040319	0.032229517
26	0x3b34cea5	0.002758899
27	0x3cf871ee	0.030327763
28	0xbdc6e776	-0.097121164
29	0x3b940eb7	0.0045183557
30	0x3e2821ed	0.16419192
31	0xbe24a114	-0.16077071
32	0x3dff1572	0.12455262
33	0x3e144d2a	0.14482561
34	0xbd267c5b	-0.04064594
35	0x805f84ae	-8.771969e-39
36	0x3f0595ff	0.52182
37	0xbdd18ff4	-0.10232535
38	0xbc1d7917	-0.00961139
39	0x3da8a0cb	0.08233794
40	0x3d539707	0.051657703
41	0x3dcf5293	0.10123172
42	0x3e202cfb	0.15642159
43	0x3e6ba030	0.23010325
44	0xbd745574	-0.059651807
45	0x3c2fcd7b	0.010730143
46	0x3d14ffd1	0.036376778
47	0xbbaeb5b2	-0.0053317184
48	0x3d70645b	0.058689456
49	0xbe06ad56	-0.1315206
50	0x3d3a5770	0.045493543
51	0x3e4d45e5	0.20046194
52	0x3d06fc06	0.032955192
53	0xbb323e5b	-0.0027197811
54	0x3e74d726	0.23910198
55	0x3cbee6ef	0.023303477
56	0x3cf7e1e4	0.03025908
57	0x3d8b420a	0.06799705
58	0xbcbea63a	-0.023272622
59	0xbca60650	-0.020266682
60	0x3e293206	0.16522989
61	0x39ec0f17	0.0004502467
62	0xbd910944	-0.070818454
63	0x3dd6554a	0.10465486

weight f4 [32, 64]
0	0x3d1d13d1	0.038348977
1	0x3db03020	0.08602929
2	0x363b83fd	2.7941999e-06
3	0xbc639620	-0.013890773
4	0x3d839d33	0.06426468
5	0xbb28a4d5	-0.0025733013
6	0x3d2471c7	0.04014757
7	0x3e10fe37	0.14159475
8	0x3d3bbd1a	0.04583464
9	0x3cf2bc49	0.029630797
10	0xbbb54303	-0.00553167
11	0x3e1330c7	0.14374076
12	0xbe9b5724	-0.3033992
13	0x3c45c093	0.012069839
14	0x3ded181e	0.115768656
15	0xbeaabcb9	-0.3334711
16	0xbd7d43e4	-0.061832324
17	0x3c6ce6eb	0.014459352
18	0x3db429bf	0.08797025
19	0xbe08e442	-0.13368323
20	0x37481938	1.1926801e-05
21	0x3ca3d843	0.020000583
22	0xbdbdcde7	-0.092677884
23	0xbd439899	-0.04775295
24	0xbdca5bfc	-0.09880826
25	0x3c1a3965	0.009413098
26	0xba2e806a	-0.00066567084
27	0xbdd08016	-0.101806805
28	0xbd20a1a4	-0.039216653
29	0xbd38216c	-0.04495375
30	0xbdcb3bd4	-0.09923521
31	0xbb57bae8	-0.0032917801
32	0x3ce1f86a	0.027584273
33	0x3d8a4325	0.06751088
34	0xbe832478	-0.2561376
35	0x0d29987c	5.226069e-31
36	0xbe6b0675	-0.22951682
37	0xbd4d52a1	-0.05012763
38	0xbdd78e88	-0.105252326
39	0x3d567c94	0.0523649
40	0x3df87a8b	0.12132748
41	0x3d423581	0.047414307
42	0x3d9fd9b1	0.07805193
43	0x3bd03db2	0.006355011
44	0x3e0e074a	0.13869968
45	0xbc807aa8	-0.015683487
46	0xbc4028aa	-0.011728445
47	0x3db38dde	0.087672934
48	0xbd41c834	-0.04731007
49	0xbd533186	-0.0515609
50	0xbdad5b52	-0.084646836
51	0xbd8ac805	-0.06776432
52	0x3e003ba8	0.12522757
53	0x39c51f19	0.00037597938
54	0x3d489ddb	0.048978668
55	0xbca0f296	-0.019646924
56	0xbdc6f8ed	-0.097154476
57	0x3d6f424a	0.058412828
58	0xbe7bdf12	-0.24596813
59	0x3db8b89f	0.09019589
60	0x3c83999c	0.016064458
61	0xbd5bcb56	-0.053660713
62	0xbca2d6c4	-0.019877799
63	0xbc020f50	-0.007938221
64	0x3d3050aa	0.043045677
65	0x3c6ebb82	0.0145710725
66	0x328f3a51	1.667391e-08
67	0xbc8d0e19	-0.017218636
68	0xbd1cb799	-0.03826103
69	0x35528c58	7.8435323e-07
70	0x3ce22db2	0.02760968
71	0x3c9101e2	0.017701093
72	0x3c56c50d	0.013108504
73	0x3d2d9c3a	0.042385317
74	0xbeba4c9d	-0.36386576
75	0x3dd214b6	0.102578565
76	0xbe47b215	-0.19501527
77	0xbe4f97e9	-0.20272793
78	0x3ddc321e	0.107517466
79	0xbe8d9b64	-0.27657616
80	0x3c082fa4	0.00831214
81	0x005a2739	8.279265e-39
82	0xbd84a602	-0.06476976
83	0xbe535aab	-0.20640056
84	0x35788c05	9.2590955e-07
85	0xbc21fa54	-0.009886343
86	0xbcedf6dd	-0.029048378
87	0xbcb77aaf	-0.022397367
88	0x3d588414	0.052860335
89	0x3df5cbe0	0.12001777
90	0xbb70c340	-0.0036737472
91	0xbdad288d	-0.08455
92	0xbe221a70	-0.15830398
93	0x3e08e79e	0.13369605
94	0x3d6ba912	0.057534285
95	0xbe1215d2	-0.14266136
96	0x3d9e2767	0.07722359
97	0xbc70a890	-0.014688626
98	0xbe0f53e1	-0.13996841
99	0x0054e4bd	7.796238e-39
100	0xbe8d779f	-0.27630326
101	0xbe1c4912	-0.15262249
102	0xbed8b72b	-0.42327246
103	0x3d9ac4f8	0.075571
104	0x3ddbedb7	0.107387
105	0x3d864c78	0.06557554
106	0xbd1d305f	-0.03837621
107	0x3e11203a	0.1417245
108	0xbd59239b	-0.05301247
109	0x3cfef067	0.031120492
110	0x3d676121	0.056489114
111	0x3d1231bf	0.035691973
112	0x3dfd3747	0.12364059
113	0xbddf13a1	-0.10892416
114	0x3e1a7663	0.15084223
115	0x3d26d447	0.040729787
116	0x3ca82b82	0.020528559
117	0x3ad5971d	0.0016295646
118	0x3d8bddb4	0.06829396
119	0xbd698d11	-0.057019297
120	0x3df207ec	0.11817917
121	0xbd709d47	-0.05874374
122	0xbe85ddd3	-0.261458
123	0xbed469f4	-0.41487086
124	0xbc9687a3	-0.018375224
125	0x3dbe26cd	0.092847444
126	0xbdc69bf3	-0.09697714
127	0x3db79cc8	0.089654505
128	0x3d8019be	0.0625491
129	0xbe2c0372	-0.1679819
130	0xb929541d	-0.0001614843
131	0x3cad430c	0.021150135
132	0xbdd1c152	-0.10241951
133	0xba7a7d09	-0.0009555375
134	0xbe91b0d2	-0.28455216
135	0x3d196e98	0.037458986
136	0x3d94cc49	0.07265527
137	0x3db827a6	0.08991937
138	0x3cb5f8ec	0.022213422
139	0xbd16b069	-0.03678933
140	0x3e5c583a	0.21518031
141	0x3de81848	0.11332756
142	0xbe6fec37	-0.23429953
143	0x3e81d60d	0.2535862
144	0xbdf367f4	-0.11885062
145	0xbdeec26f	-0.11658179
146	0x3d44f040	0.048080683
147	0x3e3956d3	0.18099527
148	0x9f2c81dc	-3.6529834e-20
149	0xbbce59aa	-0.00629731
150	0xbe9b3cf3	-0.30319938
151	0xbe502964	-0.2032829
152	0xbe46d28e	-0.19416258
153	0xbe7d698c	-0.24747294
154	0x3c21d8c7	0.009878344
155	0x3de21dcf	0.11040842
156	0xbe0ebdba	-0.13939562
157	0xbda6d92b	-0.0814689
158	0x3cd6ccd7	0.026220722
159	0xbd18d5f1	-0.037313405
160	0xbd89cd6f	-0.067286365
161	0x3de3389c	0.11094782
162	0x3e54f6c0	0.20797253
163	0x2ed1b143	9.5357076e-11
164	0x3cf49b1e	0.029859122
165	0xbe879528	-0.26480985
166	0x3dc75d44	0.09734586
167	0xbdefd417	-0.11710375
168	0xbe5579a6	-0.20847186
169	0xbb4eca08	-0.0031553525
170	0xbd44a733	-0.048011016
171	0x3d3112b7	0.04323074
172	0xbe23ffe5	-0.16015585
173	0xbe82581f	-0.25457856
174	0xbcc887a3	-0.02447874
175	0xbd6a9bed	-0.05727761
176	0xbd26d1d4	-0.04072745
177	0xbe2fbb3e	-0.17161271
178	0xbccfbbfa	-0.025358189
179	0x3d82534e	0.06363545
180	0x3d17e8fd	0.03708743
181	0x3bc3b806	0.005972865
182	0x3d768a44	0.060190454
183	0xbe91f9ef	-0.28510997
184	0x3e5be452	0.21473816
185	0xbe78f9d4	-0.24314052
186	0x3de01e64	0.109432966
187	0x3e1bb781	0.1520672
188	0xbd7aed91	-0.061261717
189	0xbe9db3b8	-0.30801177
190	0xbc24876b	-0.010042052
191	0x3df879c6	0.121326014
192	0x3c834534	0.01602421
193	0xbd21bd27	-0.03948703
194	0x8050e120	-7.4276e-39
195	0x3c65ea6a	0.014032939
196	0x3bc6efcb	0.006071066
197	0xbb9bc84c	-0.004754102
198	0xbd52f999	-0.051507566
199	0xbc19f2d6	-0.0093962755
200	0x3b16d6f2	0.00230163
201	0x3c64d9cd	0.013967943
202	0x3cec6190	0.028855115
203	0xbd82ef5c	-0.063933104
204	0x3cf27ac8	0.029599562
205	0x3c02b6f1	0.007978187
206	0xbd9e7528	-0.077371895
207	0x3d2b9967	0.041894343
208	0x3dbafef7	0.09130662
209	0x3c83ee5d	0.016104871
210	0x3c933d0e	0.01797345
211	0x3d1fe3d7	0.039035644
212	0x80208287	-2.98556e-39
213	0xbd61be6e	-0.05511325
214	0xbdb25a01	-0.08708573
215	0xbdd22a56	-0.10261981
216	0xbd77a84c	-0.060463235
217	0xbd9e81de	-0.07739614
218	0x3b907f5a	0.0044097127
219	0x3ca94f12	0.020667586
220	0xbdb35644	-0.08756688
221	0xbd4ad7c6	-0.049522184
222	0xbdab2831	-0.08357275
223	0x3c8158b5	0.01578937
224	0xbcfead8d	-0.031088615
225	0x3cdcbd8c	0.026945852
226	0x3d989aad	0.07451377
227	0x01158048	2.7459015e-38
228	0xbe273781	-0.16329767
229	0xbcdf7d8f	-0.02728155
230	0x3cc56079	0.024093853
231	0xbd9442b7	-0.07239287
232	0xbdb56ca9	-0.08858616
233	0x3c2541cb	0.010086487
234	0xbc0fc0d9	-0.008774006
235	0xbc5fe127	-0.01366452
236	0xbb72c2a1	-0.0037042277
237	0xbde1a08e	-0.110169515
238	0xbc568fb3	-0.013095784
239	0xbd2e22af	-0.042513546
240	0x3d023bdc	0.031795368
241	0x3c9fded1	0.019515427
242	0xbb272041	-0.0025501403
243	0xbc8749c1	-0.01651466
244	0x3be5231a	0.00699271
245	0xba49391e	-0.00076760526
246	0x3d5eeac0	0.054423094
247	0xbd61dcfb	-0.055142384
248	0x3d57af00	0.052657127
249	0xbdb5abcb	-0.088706575
250	0x3d2b1857	0.04177126
251	0x3c8d1e77	0.01722644
252	0x3cc6ace4	0.024252363
253	0xbd86eda6	-0.065882966
254	0x3c255430	0.010090873
255	0x3c818d0e	0.01581433

bias f4 [32]
0	0x3e1f3d29	0.15550674
1	0x3da3ff5f	0.080076925
2	0x3d109c6b	0.03530542
3	0xbe0904b4	-0.133807
4	0x3de8bb68	0.1136387
5	0x3e0e8d1a	0.13921013
6	0x3d7f8256	0.062380157
7	0xbdb9f920	-0.0908072
8	0xbd258d66	-0.04041805
9	0x3a0c5948	0.000535388
10	0x3c765acf	0.015036299
11	0x3d9062c7	0.0705009
12	0x3d95feee	0.073240146
13	0x804def8e	-7.157269e-39
14	0x3db238ae	0.08702217
15	0xbdd3b2b7	-0.103368215
16	0x3ccec219	0.025239037
17	0x3e38fb22	0.1806455
18	0xbdf11e31	-0.11773337
19	0xbbf04aea	-0.007333149
20	0x3d7dc344	0.061953798
21	0x3e050579	0.12990369
22	0xbdeef1c1	-0.11667205
23	0xbd074116	-0.033021055
24	0x3bae3778	0.005316671
25	0xbd849996	-0.06474607
26	0xbbe94a80	-0.007119477
27	0x3ce6dfcf	0.028182892
28	0xbb95ae69	-0.0045679105
29	0xbde4e39d	-0.11176226
30	0xbd84252a	-0.06452401
31	0x3d9fe1f2	0.078067675

weight f4 [8, 32]
0	0xbdbd2cc9	-0.09237058
1	0xbe1137ee	-0.14181492
2	0x3ea60674	0.32426798
3	0xbe30532a	-0.17219225
4	0x3dc81a6a	0.09770663
5	0xbecb380c	-0.39691198
6	0x3ea988e4	0.33112252
7	0xbd5cb665	-0.053884882
8	0x3e73a022	0.23791555
9	0x8026791e	-3.533198e-39
10	0xbd0ba35a	-0.03409133
11	0x3c34008a	0.010986457
12	0xbda9930b	-0.08279999
13	0x01091d9d	2.5184172e-38
14	0x3c7d3720	0.015455037
15	0xbca60267	-0.020264817
16	0xbe0ee9f0	-0.13956428
17	0xbd4bdd28	-0.049771458
18	0xa15ab5c9	-7.4101864e-19
19	0x3af41379	0.0018621526
20	0x3ea2e486	0.31814975
21	0x3dc44883	0.09584143
22	0xbdfb6ba7	-0.122763924
23	0xbe56b403	-0.20967107
24	0x3da36364	0.07977942
25	0x3c6d183b	0.014471109
26	0x3ea3758b	0.31925616
27	0xbe08e613	-0.13369016
28	0x3afdcfb8	0.0019364273
29	0xbdacadb7	-0.08431571
30	0x3ea7fedb	0.32811627
31	0x3ea4ac6b	0.32162794
32	0x3d632f02	0.055464752
33	0xbda0e344	-0.078558475
34	0xbef42b2d	-0.4768919
35	0xbd4818a4	-0.048851624
36	0x3de4ecbe	0.111779675
37	0x3e07f582	0.13277248
38	0xbf08fb08	-0.53508043
39	0x3c470d2d	0.012149137
40	0xbeeaccad	-0.4585928
41	0x3b9ad288	0.0047248043
42	0x3e21bd3e	0.15794846
43	0xbe0a9888	-0.13534749
44	0x3d874944	0.06605771
45	0x9e25ebbb	-8.783775e-21
46	0x3e867b9f	0.2626619
47	0x3e20d138	0.1570481
48	0x3bd41672	0.0064724023
49	0x3e726517	0.23671375
50	0xbe0b2f30	-0.1359222
51	0x3bc4ed97	0.006009768
52	0xbf018263	-0.5058958
53	0xbddf358d	-0.10898886
54	0xbcec1e20	-0.028822958
55	0x3e0a36ff	0.13497542
56	0xbdd8f634	-0.105938345
57	0x3daee874	0.08540431
58	0xbed8cace	-0.42342228
59	0xbdd73eca	-0.10510023
60	0x3bb67b73	0.0055689155
61	0xbd7936e5	-0.060843367
62	0xbf1b2945	-0.6060985
63	0xbee8b10e	-0.45447582
64	0x3e1a4772	0.15066317
65	0xbd56cbbf	-0.0524404
66	0xbf2a19b5	-0.66445476
67	0xbd1b9af8	-0.037989587
68	0x3dba6da0	0.091029406
69	0x3e0bdb98	0.13657987
70	0xbf103b42	-0.5634042
71	0x3e1fe354	0.15614063
72	0xbf1192dc	-0.56864715
73	0xbc81befb	-0.015838137
74	0x3d9d0152	0.076662675
75	0xbdf8d608	-0.12150198
76	0x3dcee5eb	0.10102447
77	0xa6dea063	-1.5447817e-15
78	0x3ebc13fe	0.36734003
79	0x3e19ce99	0.15020217
80	0xbc3c94db	-0.011510099
81	0x3ddae1a4	0.10687569
82	0xbe33ca91	-0.17557742
83	0x3bc4c183	0.0060045137
84	0xbece6d27	-0.40317652
85	0x3d943ba1	0.07237936
86	0xba71cb9e	-0.0009223762
87	0x3e06e820	0.13174486
88	0xbc8e60e0	-0.017380178
89	0x3d7259ab	0.059167545
90	0xbf26e4dd	-0.6519297
91	0xbd9842b8	-0.074346006
92	0x3bb77fc2	0.0055999467
93	0xbe50e588	-0.20400059
94	0xbeba82d6	-0.36427945
95	0xbf1bfe38	-0.6093478
96	0xbdf625ac	-0.12018904
97	0x3cc30a0d	0.023808504
98	0x3ec48ffe	0.38391107
99	0x3d901e13	0.07036986
100	0x3cdfb06a	0.0273058
101	0xbd4b3e8f	-0.049620207
102	0x3eb1fa22	0.3476115
103	0x3e1064f0	0.14101005
104	0x3e4649dd	0.19364114
105	0xbc179dc3	-0.009253922
106	0xbcc632ac	-0.024194084
107	0x3e092471	0.13392808
108	0x3df00edf	0.117215864
109	0x2f933ab9	2.678087e-10
110	0xbec51a92	-0.38496834
111	0xbe2f9a4c	-0.17148703
112	0xbd4dda9d	-0.050257314
113	0xbea686d8	-0.32524753
114	0xbd1ec744	-0.038764253
115	0xbbca259b	-0.0061690337
116	0x3ec58f52	0.38585907
117	0x3d63f7d1	0.055656258
118	0x3b11c4c8	0.0022242535
119	0x3db5b969	0.08873255
120	0x3d925758	0.07145566
121	0x3e161a42	0.14658454
122	0x3e1b8081	0.15185739
123	0xbb05fbf1	-0.0020444358
124	0xbbc8c7ce	-0.006127334
125	0x3ded84c6	0.1159759
126	0x3ec5da3b	0.3864306
127	0x3e79b87a	0.24386778
128	0x3b916368	0.004436899
129	0x3ca42e8a	0.020041723
130	0x80a81a9c	-1.5437909e-38
131	0x8095b35d	-1.3747832e-38
132	0xbd381c73	-0.044949006
133	0x3bbe7d6b	0.005813291
134	0x2df3f803	2.7736041e-11
135	0x3cb0035a	0.021485973
136	0x00a14b33	1.4812491e-38
137	0x000b76f5	1.052864e-39
138	0x3c986c46	0.018606316
139	0xb5703c57	-8.9494773e-07
140	0xbd439f2a	-0.047759213
141	0x8043eeda	-6.238662e-39
142	0x3cf4e6e0	0.029895246
143	0x00ab9edc	1.5760858e-38
144	0x0063a6c7	9.151543e-39
145	0x3c2d1373	0.010563719
146	0x01353566	3.328276e-38
147	0x80d909aa	-1.993177e-38
148	0x80e7c318	-2.1283986e-38
149	0x80f84031	-2.279823e-38
150	0x000e8bb0	1.335807e-39
151	0x80687a5b	-9.594784e-39
152	0x000a0872	9.21385e-40
153	0xbced1082	-0.028938536
154	0x810758a1	-2.4859172e-38
155	0x3cc1e831	0.023670288
156	0x0047f5ea	6.608538e-39
157	0x341e3c5a	1.4736852e-07
158	0x804305bf	-6.15504e-39
159	0x0119e9e8	2.826948e-38
160	0x3e19f7ea	0.15035978
161	0xbe31ce58	-0.1736387
162	0x3db124ed	0.08649621
163	0x3d9a646d	0.07538686
164	0x3e19115e	0.14948031
165	0xbe2da5cc	-0.16957778
166	0x3e98868e	0.29790157
167	0x3de7ac26	0.113121316
168	0x3ece4467	0.40286562
169	0xbce4598f	-0.027874736
170	0x3e134ba3	0.14384322
171	0xbd03a9f7	-0.032144513
172	0xbb75c22b	-0.0037499766
173	0x10e90466	9.190907e-29
174	0xbec3b3d8	-0.38223147
175	0xbe3e59fc	-0.18589014
176	0x3c7c974d	0.015416932
177	0xbec5f61b	-0.38664326
178	0xbd7a0e53	-0.061048817
179	0xbbcc22ae	-0.00622972
180	0x3e88d424	0.2672435
181	0x3e083b9e	0.13303992
182	0x3cb3da92	0.021954808
183	0xbd91167e	-0.07084368
184	0x3e8d3518	0.2757957
185	0x3e3afa24	0.18259484
186	0x3eecdbd2	0.4626146
187	0xbe3848d2	-0.17996529
188	0xbbc85549	-0.0061136824
189	0xbd1f48b5	-0.0388877
190	0x3eb1efea	0.34753352
191	0x3e8a8d78	0.27061057
192	0x3e248637	0.16066824
193	0x3e224c7b	0.15849487
194	0xbf1368cc	-0.5758178
195	0xbd5548a0	-0.052071214
196	0x3de97299	0.11398811
197	0x3bf5b95c	0.007498903
198	0xbecb2f8e	-0.3968472
199	0x3e21aa72	0.15787676
200	0xbeeca558	-0.46219897
201	0xbd4050df	-0.046952125
202	0x3e5432c0	0.20722485
203	0x3df357d9	0.1188199
204	0x3dfb4d97	0.122706585
205	0xa4b30260	-7.76329e-17
206	0x3e8a318d	0.2699093
207	0xbd70a53f	-0.05875134
208	0xbd4b9f1b	-0.04971228
209	0x3e5e23b6	0.2169331
210	0xbe1964a7	-0.14979802
211	0x3bc4a2dd	0.00600086
212	0xbf079ef5	-0.52976924
213	0xbe05aa46	-0.13053235
214	0x3aabd807	0.0013110646
215	0x3e4b4f34	0.19854432
216	0xbe689a22	-0.22715047
217	0x3cf8ab31	0.030355068
218	0xbee1e95b	-0.4412335
219	0x3e0d84a5	0.13820131
220	0x3bb7bc63	0.0056071742
221	0xbde8fd3f	-0.11376428
222	0xbefbd19e	-0.49183363
223	0xbf09e889	-0.53870445
224	0xbdd71b75	-0.10503284
225	0x3d24530b	0.04011826
226	0xbecf1a30	-0.40449667
227	0xbd059cf6	-0.032620393
228	0xbcf4eae4	-0.02989716
229	0xbc9185fe	-0.017764088
230	0xbe598c61	-0.21244957
231	0xbd093a25	-0.033502717
232	0xbe3b0568	-0.18263781
233	0xbb93a9c5	-0.004506322
234	0x3e0c4de1	0.13701583
235	0xbe3699e8	-0.17832148
236	0x3e23d7a0	0.16000223
237	0x8037a66b	-5.110652e-39
238	0x3e947edb	0.29003033
239	0x3e6476b1	0.22310902
240	0x3bf57314	0.007490525
241	0x3ec5b8df	0.38617608
242	0xbda2f6e9	-0.079572506
243	0x3bc6b8db	0.006064517
244	0xbf071deb	-0.52780026
245	0xbd30a994	-0.043130472
246	0xbdc76b35	-0.09737245
247	0xbd33311d	-0.04374801
248	0xbeeafc97	-0.45895836
249	0x3d0c3779	0.03423259
250	0xbeb9267d	-0.36162177
251	0xbcba78ba	-0.022762645
252	0x3bb6b9ed	0.0055763633
253	0xbe2ced3c	-0.16887373
254	0xbf013f16	-0.50486887
255	0xbe84af5a	-0.25915033

bias f4 [8]
0	0x3f2fd71c	0.68687606
1	0x3dccc006	0.09997563
2	0x3e0fbb24	0.14036232
3	0xbe0f13d0	-0.13972402
4	0xb346ac0c	-4.6256943e-08
5	0x3d54d529	0.051961098
6	0x3c9aedd2	0.01891223
7	0x3db4b38d	0.08823309

weight f4 [1, 8]
0	0x3f002909	0.50062615
1	0x3e15a30e	0.14612982
2	0x3e407783	0.1879559
3	0xbe95c9cd	-0.29255524
4	0x3bb8516d	0.005624941
5	0xbe630f1a	-0.2217373
6	0x3e73b68d	0.23800106
7	0x3ec4105f	0.3829374

weight f4 [8, 1]
0	0x3f8345f0	1.0255718
1	0x3ee220a9	0.44165543
2	0xbf1051c8	-0.5637479
3	0x3f5bc78f	0.8585138
4	0x3f8040f0	1.0019817
5	0x3f8452c6	1.033776
6	0x3ed30a3b	0.41218743
7	0xbcf26e0d	-0.029593492

bias f4 [8]
0	0x3f1bcb35	0.60856944
1	0xbe72355f	-0.23653172
2	0xbf171e18	-0.59030294
3	0xbe4f81f6	-0.2026442
4	0x3f70334c	0.9382827
5	0xbf560e0a	-0.8361517
6	0xbefc6f41	-0.4930363
7	0x3f218d74	0.63106465

weight f4 [32, 8]
0	0x3ee0c86a	0.43902904
1	0x3e77d976	0.24204049
2	0xbd8c09ef	-0.06837832
3	0xbd913245	-0.07089666
4	0x3ea60baa	0.32430774
5	0x3e834815	0.25640932
6	0x3e12dbe1	0.1434169
7	0x3e739a15	0.23789246
8	0x80158871	-1.977491e-39
9	0x000e988b	1.340419e-39
10	0x001cd166	2.646512e-39
11	0x80b165a3	-1.6291343e-38
12	0x8bb2398d	-6.86497e-32
13	0x007cb39b	1.1452032e-38
14	0x007877e7	1.1063272e-38
15	0x96671e0b	-1.8669511e-25
16	0x3ed48ed8	0.4151523
17	0xbe407d74	-0.18797857
18	0xbea9c36a	-0.33156902
19	0x3e0e4ed1	0.13897254
20	0xbd62bb38	-0.055354327
21	0xbd84410f	-0.064577214
22	0xbd5babda	-0.053630687
23	0x3e6c7f80	0.23095512
24	0x3e0b279f	0.13589333
25	0xbd0b27e6	-0.033973597
26	0x3ddfcb48	0.10927445
27	0xbe5f4993	-0.2180541
28	0xbe08c1d0	-0.13355184
29	0xbe3d8d7a	-0.18511
30	0x00b956d0	1.7020709e-38
31	0xbe55a039	-0.20861901
32	0x3e51cf60	0.20489264
33	0x3e78438a	0.24244514
34	0x3ebd3005	0.36950698
35	0x3ea43b98	0.32076716
36	0xbe850158	-0.25977588
37	0x3dcf8f7a	0.10134788
38	0x3ed765cd	0.42069855
39	0x3e3acef8	0.18243015
40	0xbe5c09f8	-0.21488178
41	0xbeff751f	-0.49894044
42	0x3de0c31c	0.10974714
43	0xbddb79e7	-0.107166104
44	0x3dd29d47	0.102839045
45	0xbee7ccfd	-0.4527358
46	0xbcd3451e	-0.025789794
47	0x3e65654d	0.22401924
48	0x3ebaa529	0.36454132
49	0x3eeb2467	0.4592621
50	0x80758b98	-1.079483e-38
51	0x3e36d025	0.17852838
52	0x3d46159f	0.048360463
53	0x3e8fd5b0	0.28092718
54	0x3ea541f8	0.32276893
55	0xbcefa50e	-0.029253509
56	0xbd6d3358	-0.057910293
57	0xbe118620	-0.14211321
58	0xbee07ac3	-0.4384366
59	0xbe59c0b4	-0.21264917
60	0xbd8ffd33	-0.07030716
61	0xbe467258	-0.19379556
62	0x809450f5	-1.3620695e-38
63	0x3ebec121	0.3725672
64	0xbe92fc51	-0.28708127
65	0xbead4131	-0.338388
66	0xbeffeaac	-0.49983728
67	0xbe137d52	-0.14403275
68	0x3e985139	0.29749468
69	0xbdd0e188	-0.10199267
70	0xbf2bb820	-0.6707783
71	0x3b53c00d	0.0032310516
72	0xbf8b1f6e	-1.0868967
73	0x004d3431	7.090056e-39
74	0x3f32dafc	0.69865394
75	0x0008f165	8.2128e-40
76	0xbe072094	-0.13196021
77	0x8076c44a	-1.0907004e-38
78	0x8071fff3	-1.0469228e-38
79	0x3e5446b3	0.20730095
80	0x3e1bbcc1	0.15208723
81	0xbe11e1f6	-0.14246354
82	0xbde86a1d	-0.113483645
83	0xbe864c2c	-0.2622999
84	0x3e474b4d	0.19462319
85	0xbe4be13a	-0.19910136
86	0xbe8df4ab	-0.2772573
87	0x3f0233d9	0.50860363
88	0xbe93d528	-0.28873563
89	0xbee2c2e0	-0.44289303
90	0x3e3d988f	0.18515228
91	0xbed1fc06	-0.4101259
92	0x3eb09ac2	0.3449307
93	0xbef49ede	-0.47777456
94	0xbe2443a0	-0.16041422
95	0x3eac9e1c	0.33714378
96	0xb98ca531	-0.00026825958
97	0x3e7b8ac5	0.24564655
98	0xbaf12a35	-0.001839942
99	0x3e31d770	0.17367339
100	0x3eba4ae1	0.36385253
101	0x3c92194e	0.017834332
102	0x3e87878b	0.264706
103	0xbdf352f2	-0.11881055
104	0xb51538cd	-5.558948e-07
105	0xa8f3b058	-2.7054896e-14
106	0x3eb79cc3	0.35861787
107	0x364feb71	3.0982449e-06
108	0xb729600f	-1.009555e-05
109	0xb6a9d74d	-5.061657e-06
110	0x20373115	1.5516943e-19
111	0xbe7fdd21	-0.24986698
112	0xbe572ee8	-0.21013987
113	0xbb8af31b	-0.004240406
114	0x3ebf0cfb	0.3731459
115	0xbd7ba958	-0.061440796
116	0xbde2fffb	-0.11083981
117	0xbe6fd8fb	-0.23422615
118	0x002cc8cf	4.112798e-39
119	0x3e71ef53	0.23626451
120	0x3e7e6c8f	0.248461
121	0xbb99136c	-0.0046715047
122	0xbf2431b9	-0.6413837
123	0x3e0d0e1f	0.13774918
124	0x3d8d4e10	0.06899655
125	0xbd4399e4	-0.047754183
126	0xbec36445	-0.38162437
127	0xbcfbfb54	-0.030759491
128	0xbd205a10	-0.03914839
129	0xbed4b252	-0.41542298
130	0xbc9979ec	-0.018734895
131	0x3e1c180c	0.15243548
132	0xbdbd606b	-0.09246906
133	0xbe869567	-0.2628586
134	0xbf1f714c	-0.6228225
135	0x3eb25a64	0.34834588
136	0xbe2d8810	-0.16946435
137	0x3e6bfd83	0.23045926
138	0xbe154827	-0.14578305
139	0x3d072e7a	0.033003308
140	0x3ec0f777	0.376888
141	0xbd817a6b	-0.063221775
142	0xbe888280	-0.26662064
143	0x3e7f30fa	0.24921027
144	0xba688a04	-0.00088706636
145	0xb2e4a82f	-2.6619174e-08
146	0xafe435c3	-4.1511158e-10
147	0xb88dc814	-6.7606714e-05
148	0xba9b0808	-0.0011827955
149	0xb60c728d	-2.0928303e-06
150	0x96236523	-1.3198948e-25
151	0xb7e1f6c9	-2.6937008e-05
152	0x3e7453f9	0.23860158
153	0xbe93a792	-0.28838784
154	0xbe18f490	-0.14937043
155	0x3c65cfa3	0.014026555
156	0x3e894a7b	0.26814637
157	0xbd51a454	-0.051182106
158	0xbedf20bd	-0.43579665
159	0x3d27d3f1	0.040973607
160	0x3ec1f9d6	0.37885922
161	0xbe8867da	-0.26641732
162	0xbe5abe2f	-0.21361612
163	0xbe176ff9	-0.14788808
164	0x3e233a11	0.1594012
165	0xbe8f2bfa	-0.2796324
166	0x3da2eabb	0.079549275
167	0x3e076f78	0.13226116
168	0x3ed8ce0d	0.42344704
169	0x3efdf8f2	0.49603993
170	0x805e883e	-8.681411e-39
171	0x3ef71a6b	0.48262343
172	0xbce00da0	-0.027350247
173	0x3f09ec81	0.538765
174	0x3ef5f2e1	0.48036864
175	0x3da5f1c4	0.08102754
176	0x3e34b453	0.17646913
177	0xbd64e4a9	-0.05588213
178	0x3d9ae9db	0.07564136
179	0xbdde7e0a	-0.10863884
180	0x3f048f3f	0.51781076
181	0x3eae0a0e	0.33992046
182	0x3efc1e5b	0.4924191
183	0xbea88b72	-0.32918888
184	0xbe18aeeb	-0.14910476
185	0xbea6b623	-0.32560834
186	0x3ec2f83d	0.38080016
187	0xbe6d7c03	-0.23191838
188	0x3e044e4b	0.12920491
189	0xbdd648ce	-0.10463105
190	0x005036ce	7.3665e-39
191	0x3ecab064	0.395877
192	0x3e871142	0.26380354
193	0x3e858460	0.26077557
194	0x8067b0a6	-9.522426e-39
195	0x3d71669d	0.05893575
196	0x3e66805a	0.225099
197	0x3e02c61a	0.12770882
198	0x3e9146a3	0.28374204
199	0xbdffacb8	-0.12484115
200	0xbe75393c	-0.23947614
201	0xbeb1b34c	-0.34707105
202	0xbc961e02	-0.018324856
203	0xbec85bad	-0.39132443
204	0x3ebc25e3	0.36747655
205	0xbeab8348	-0.33498597
206	0xbf2270a8	-0.6345315
207	0x3f0a7c46	0.54095876
208	0xbf86bdf7	-1.0526723
209	0x00a11cb5	1.4795813e-38
210	0x3ef17cb7	0.47165462
211	0x00303513	4.427143e-39
212	0xbbd375b1	-0.006453239
213	0x008016f5	1.1763179e-38
214	0x006f4818	1.0219602e-38
215	0x3e2c1905	0.16806419
216	0x8084c67c	-1.2193488e-38
217	0x00db9c13	2.0167963e-38
218	0x80c70a37	-1.8278928e-38
219	0x80814a82	-1.1873507e-38
220	0x00051b2c	4.68925e-40
221	0x8054acab	-7.776123e-39
222	0x00d0c10a	1.9171033e-38
223	0x3b8049f6	0.003915067
224	0xbda72699	-0.08161659
225	0xbcd5b5db	-0.026087692
226	0x3d93d2e4	0.072179586
227	0xbde6e792	-0.11274637
228	0xbeccf039	-0.40027025
229	0x3db2e9ef	0.087360255
230	0x3a1705c4	0.0005761052
231	0x3e581a34	0.21103746
232	0xbf970474	-1.1798234
233	0x80575e51	-8.023523e-39
234	0x3ef69e14	0.4816748
235	0x803178d6	-4.543287e-39
236	0xbcf1f21d	-0.029534394
237	0x004548de	6.362789e-39
238	0x0044f162	6.331406e-39
239	0x3e754d61	0.23955299
240	0x3e3f2285	0.18665512
241	0x3ed5b5ec	0.41740358
242	0x0034d046	4.85016e-39
243	0x3c0525db	0.008126701
244	0xbde6bc09	-0.112663336
245	0x3ee57070	0.44812346
246	0x3e70a248	0.23499405
247	0xbea33df5	-0.31883207
248	0xbe021005	-0.12701423
249	0x002d0953	4.135942e-39
250	0x3da1786f	0.07884299
251	0x80886ea9	-1.2529325e-38
252	0xbf163156	-0.5866903
253	0x0039efeb	5.32069e-39
254	0x8092fc23	-1.3498432e-38
255	0x3e8506ed	0.25981846

bias f4 [32]
0	0xbe83b780	-0.25725937
1	0xa65a1958	-7.566829e-16
2	0xbdaf5c37	-0.085625105
3	0x3e9dc8ea	0.30817348
4	0xbdf763b3	-0.12079563
5	0x3ebc93d4	0.36831534
6	0xbea0dfdb	-0.31420788
7	0x3dd3dad6	0.10344474
8	0x3e7aadb5	0.24480326
9	0x3db24246	0.08704047
10	0x3f06679b	0.5250184
11	0x3e2a5784	0.16634947
12	0xbd1571df	-0.03648555
13	0xbdf6d0ce	-0.12051545
14	0x3ecb128a	0.39662582
15	0x3f0f2e88	0.55930376
16	0x3f0450d5	0.5168584
17	0xbd524521	-0.051335458
18	0xb9507644	-0.00019880483
19	0x3e61c8e3	0.22049288
20	0x3e8dd91c	0.27704704
21	0xbeb3e90a	-0.35138732
22	0xbea418a0	-0.32050037
23	0xbdce8046	-0.1008306
24	0xbc3a0aaa	-0.011355082
25	0x3ee394f9	0.44449595
26	0x3d2bf9d3	0.041986298
27	0xbbef0966	-0.0072948216
28	0x3dc0e32f	0.09418332
29	0x3ce880ae	0.028381672
30	0xbe07b285	-0.13251694
31	0x3e369d8f	0.17833541
