model/302.5384416580200195.pt (torch_old, 170435 bytes, 20 tensors)

weight f4 [256, 3]
00000000: fe97 7abe ae35 babe e1fe d9be c9f2 933d
00000010: 4dc1 e0be ee8c a33d 058c dbbc 7cfb 523d
00000020: 5836 10be 777e a0be 9111 943e 3147 053f
00000030: f489 9f3e 8a83 0ebe 985a 573d c5c9 d7be
00000040: 6b41 e3be 788f 333b eff8 bbbe b2fc edbe
00000050: 658a e93e f22b c7be d088 1cbe 8ef5 d93e
00000060: 13c4 0bbe a15c 0b3f 0c9b 943e 19b9 f73c
00000070: 19ad a53b 33db 04be 7956 3cbf b599 f93e
00000080: 3681 92be 81e0 db3e 46a4 b93e 14a5 cabe
00000090: 9189 36bf 6f62 48bf f414 cf3a 3c15 e73d
000000a0: c79b f73d b346 8b3d bc8a 1c3f 4f3e 963e
000000b0: 5246 61be 8f3e 99be d6c0 08bf f6db 823e
000000c0: 3afb 40bf d456 6abe f940 76be f8fd 22bf
000000d0: ee8e 05bf 884e 6cbc e194 163f 4ffa 16bf
000000e0: 5e9b 45be 6176 a53e ee98 6b3e cfb7 753e
000000f0: 5ced 10bf 54f9 19bf e352 93bb 67c0 893e
00000100: a23f e4be b868 c0be 7d02 c13e 2162 9abe
00000110: 013f a83e 4885 8a3e e7ec ab3e 4104 c5bc
00000120: f8b4 793e 548a 9ebe 6a0d 33bd 2224 eabe
00000130: 2fd2 ff3e 6dbf 36be e3e3 21bf 5b94 ccbe
00000140: fb57 1e3e 85ff 8dbe 42fd 8e3e 873a e13e
00000150: 1528 5cbf dc15 84be e29e acbd 6115 af3e
00000160: bdc7 b5be 2f18 e03d 24c6 5a3e c8f9 b2bc
00000170: 3772 f7be 96c8 28bf c5f0 063f c112 00bf
00000180: 8ac9 b1be 4bc0 2a3d 45d9 013f cfb1 df3e
00000190: b983 d23e 66bc 2bbe cfa7 d6be 0bc1 e23d
000001a0: 8d4f 6cbe d84c dfbe 8d4c 14be a316 1f3e
000001b0: 826a 92be 882f d3bd 3be1 b93e 2572 03be
000001c0: 9f81 423e 654f e93e dfbd c7bc d9a5 ec3e
000001d0: 9875 e4be 7c1a cabe 634b 8f3e 780e ccbd
000001e0: 35b5 1cbf c626 c3bd 9ad6 48be f806 573e
000001f0: d28d 2abe 2ac5 563e 7168 0c3f 4fec edbe
00000200: c278 ec3e e658 12bd 18b8 07bf 4d8d c93d
00000210: 1ad7 ddbd 8a24 89be e974 033f fb42 073e
00000220: 7a4a e5be 1b2c ef3e 3f91 743e 517e c7be
00000230: aca5 a8be 4ef1 07bf 4ec0 ac3e 1651 0d3e
00000240: eb23 37bf 6041 ec3e f06f 86be 7e71 84be
00000250: 5b76 1f3f 1cbb 25be 2767 2cbf 64d0 3cbf
00000260: a1cc 853c 1bb1 f4be 7975 163e 15b1 4bbd
00000270: 6384 d63e 4dcb 073e d79d e73c 6508 abbe
00000280: e012 763e 4a35 1ebe 3429 cb3e 1561 d2be
00000290: bacd ef3e c884 d2be 978d 00bf 66bf 8c3b
000002a0: c947 5a3e df5a 6abd 3e0b d93d cf7e db3e
000002b0: 35cd 9e3b c67d cd3e 0229 f63e 40a8 0bbe
000002c0: 9953 133f 27b2 8d3e b393 2cbf 5904 d5bd
000002d0: 2b62 003e 077f f0be aced 093f ba8a 92be
000002e0: 94cc 1bbe 451e 203e 6b7d 053f c93a 6fbe
000002f0: 1ca9 ec3e cd87 85be 1226 ba3e c24b 753e
00000300: 787c e23e bc1a 753e 6e99 b6bd cf5f 0f3f
00000310: 45de 2abd 29e7 cfbd 6b02 bebe f9f2 eb3e
00000320: ad85 3d3e 8d4f 0ebe 6511 ea3d 71be c03e
00000330: 6092 8dbe 921b 53be 3ef6 e93e 2cb7 3fbe
00000340: 9552 52be e51e e63e e0a9 d03e b035 ffbd
00000350: e54d e8bc bd72 b03e d77a 133f 1125 dabe
00000360: c3f5 663a 34de b13e fb0a 0c3e 8612 10bf
00000370: ced1 12bf 4fba e4bb 119c 0fbf 498c 28bf
00000380: 2051 ae3c 1fb8 0abf 64a1 203e 2eb1 75bd
00000390: 8468 993e 5811 cabe 3032 43bd 0ebe dfbd
000003a0: 73ed 8a3e 1525 0f3f 5af0 74bd d00f e23e
000003b0: 1e7b 9d3e 49ab b1be 1ffb 1f3e b982 46be
000003c0: 0d92 953d e00d 1a3f 2414 da3c 71e2 cc3d
000003d0: 0e48 6f3e 5b46 e2bc 96cf c2be f488 ebbe
000003e0: e473 b03e a3ae 73be 8b57 3dbf 65c5 073e
000003f0: 313d a9be 86a4 e5bd 5493 cc3d f14b 1fbe
-0.24472043 -0.3636908 -0.4257727 0.07224042 -0.43897477 0.079858646 -0.026800165 0.051509365
-0.1408323 -0.31346485 0.28919652 0.52061754 0.31159937 -0.13917366 0.05257663 -0.42146125
-0.44385847 0.0027398746 -0.3671336 -0.46481854 0.456134 -0.38900715 -0.15286565 0.42570156
-0.13649015 0.54438215 0.2902454 0.030239629 0.0050560352 -0.12974243 -0.73569447 0.48750082
-0.28614205 0.4294472 0.36258143 -0.3957907 -0.7130366 -0.782752 0.0015799091 0.11283347
0.12090259 0.06800594 0.6114919 0.29344413 -0.21999481 -0.2993054 -0.53419244 0.25558442
-0.7538334 -0.22884685 -0.24048223 -0.63668776 -0.5217122 -0.01442302 0.5882092 -0.5897569
-0.19297549 0.32316878 0.23007557 0.23995899 -0.5661218 -0.6014607 -0.004495965 0.26904604
-0.44579798 -0.37579894 0.3769721 -0.3015299 0.32860568 0.2705481 0.3357918 -0.02404988
0.2438544 -0.3096491 -0.043713965 -0.45730692 0.49965045 -0.1784646 -0.6323835 -0.39956936
0.1546325 -0.27734008 0.27927595 0.43989965 -0.8599866 -0.25797927 -0.08428742 0.34195998
-0.3550395 0.10942113 0.21364647 -0.02184762 -0.48329327 -0.6593107 0.52711135 -0.50028616
-0.34724075 0.04168729 0.5072215 0.43690345 0.4111612 -0.16771087 -0.41924903 0.11071976
-0.23077221 -0.43613315 -0.14482327 0.15535979 -0.28596884 -0.103118 0.3630465 -0.12836511
0.18994759 0.45568386 -0.02438253 0.46220282 -0.44620967 -0.3947333 0.27987203 -0.09963697
-0.61214 -0.0952888 -0.19613114 0.20998752 -0.16655663 0.2097365 0.54846865 -0.46469352
0.4618588 -0.03572931 -0.5301528 0.09841404 -0.10832043 -0.2678569 0.51350266 0.13209145
-0.44783384 0.46713337 0.23883532 -0.3896356 -0.32938898 -0.53102577 0.33740467 0.13800463
-0.7153918 0.46143627 -0.26257277 -0.25867838 0.6228997 -0.16184658 -0.673449 -0.7375548
0.016332926 -0.4779137 0.1469325 -0.049729425 0.41897878 0.13261147 0.028273506 -0.33404842
0.24030638 -0.15450016 0.39679873 -0.41089693 0.46836644 -0.4111693 -0.5021605 0.0042952774
0.21316446 -0.057215568 0.105978474 0.42870185 0.00484624 0.4013502 0.4807816 -0.13638401
0.57549435 0.27674982 -0.6741287 -0.1040122 0.12537448 -0.46971914 0.53878284 -0.28621465
-0.15214759 0.15636547 0.521445 -0.23362269 0.4622277 -0.2608017 0.3635717 0.2395468
0.44235587 0.2393598 -0.08915983 0.5600557 -0.04171588 -0.10151512 -0.3711122 0.4608381
0.18508025 -0.13897534 0.11429099 0.37645295 -0.27650738 -0.20615986 0.4569568 -0.18722218
-0.20539315 0.44945446 0.40754604 -0.12461412 -0.028357456 0.34462538 0.57609314 -0.42606404
0.0008810425 0.3473984 0.13676064 -0.56278265 -0.57351387 -0.0069802175 -0.56097513 -0.6583906
0.021278918 -0.54187196 0.15686566 -0.059983425 0.29962552 -0.39466357 -0.047655284 -0.10924922
0.27134284 0.5591596 -0.05979953 0.4415269 0.30757993 -0.34700993 0.15623139 -0.19385804
0.073032476 0.6017742 0.026620932 0.10004128 0.2336733 -0.027621439 -0.38049 -0.46002924
0.34463418 -0.23797087 -0.73961705 0.13258894 -0.33054498 -0.11213021 0.09989038 -0.15556313

bias f4 [256]
00000000: c664 a83d ad5c 1d3d 61ee 613f fc93 cebe
00000010: 13a7 6e3e 1a81 35be 4b0e c9bc cfc1 9e3e
00000020: ba73 5d3e e8c3 afbe 7424 2abd 2c57 9a3e
00000030: 8e59 ef3e 7fa7 39be b2dd 1c3e 9815 c1be
00000040: 2556 203f eecc 2fbe 2322 f5bd 64fe c43b
00000050: d2c7 9e3e 60c0 ba3e 292a 0dbf 04f4 b33e
00000060: 64d8 1f3f bbb1 003e 3184 a43e 1556 6e3d
00000070: 8eac 063f 46f1 02bf 5677 193f 9184 13bf
00000080: 8e67 94be 8e89 b5be ff6c 613f 3db4 96be
00000090: 9e27 a73e b0e5 07bf dcb3 063f 3520 263f
000000a0: 16f4 e13d 69a5 873e 9685 0abf 075a a83e
000000b0: 5f44 83be 6949 22be 3a8d 763e 2c85 ecbe
000000c0: 3895 883d a85a 6c3f db21 95be 377d 663e
000000d0: 800f 8a3e 40c0 9f3d eada 383e 062b 693e
000000e0: 5d55 8dbe 3894 b63d 7bac 8d3d 97d7 3cbe
000000f0: c258 f43e 779f b73e f657 eabe e028 11bd
00000100: 502c 1f3f 58bf 64be 51c9 833d d48e 003f
00000110: 735b acbe 9a9d d13b fb80 e93e 3c6f 13bf
00000120: c6bd 4a3e fb1e 623e 6dfb a9be 8b00 e33e
00000130: f828 18be 3298 843d 3933 cebe a597 843f
00000140: 8626 3b3e c446 c0bd 1885 72be cd73 893d
00000150: e3be f2be e905 22be 3b11 b03e 8f91 9fbe
00000160: 890d b1be 8fc0 023f 4123 6e3c 4471 96be
00000170: 1912 063c 18e1 c5bd 8dd1 033f b806 c13e
00000180: a4cc 9abd 925f 55be b747 6fbc 098e 0f3f
00000190: 63a6 9c3d b37e 9cbe 8b9e edbe 0439 1ebe
000001a0: aa28 8a3d 8ca2 52be 7ade 9e3e efa7 423e
000001b0: 16ec e9be 73c2 883e cb3d 533e 6e89 833f
000001c0: 6c47 f8be c476 1fbe 9cc7 d43d fbdd 01bf
000001d0: b53d 55be 3cc6 fcbc e293 b9bd 4a93 0d3f
000001e0: b10d b9be 6c89 eb3e 66a4 943e a65b 4cbf
000001f0: b5a8 bcbc b695 ad3e 7ac3 283e 344c 313f
00000200: 7cf0 513e a26d 023f 4650 b4be 53e3 b0be
00000210: 2206 0b3f b859 17be 1f13 833e 0a77 823e
00000220: 510c 043f 4715 173e 16de b33d e9de 68be
00000230: 4c1f 263f 6108 0a3f 96b0 92be 35bf ffbe
00000240: 74e7 cebe a955 25bb 7c83 09bf 2506 f1bd
00000250: dad5 153e 7cfa c43e 5a93 aabe 1549 b3be
00000260: 065c 813e 785e b4be 34cf 773e d357 e9be
00000270: 6ce3 483e 7ea2 80be 0568 013e f3dc 62bb
00000280: 9f8b 1f3f 98d9 3c3f 34f4 a4be 1728 e8be
00000290: e787 f7be ba36 e9bb fb0b 3cbd 28c0 b2be
000002a0: 31be a53e a7f5 b23e 1222 8d3e 5c05 99be
000002b0: fb39 c9be 48c3 153e 2254 04bf 43fe dc3d
000002c0: 6f83 45be 063c e33e fee5 58bc ba95 03bf
000002d0: 5b24 063f 3f93 333f 8982 74be ef78 313e
000002e0: 7d32 133c efaf f53e cc72 f53e 8c2d 82be
000002f0: 6b55 2a3e 2c8c 843e ac33 283e d27c 113f
00000300: 5f44 b1be 3888 57be 5b7d b3be b42b 003e
00000310: a8cc e7be 0bda b1be 614b 87be 9012 07bf
00000320: 4e44 a63e d4d7 4cbd 9319 353f 9be9 dcbe
00000330: 65f9 7b3e 5b23 f63c f633 8fbe 2358 acbe
00000340: c4a9 0cbf 2907 51bd 2349 b9bd 7b46 63be
00000350: e88f 71bd 58bd 3c3e e4e4 823d 4380 133f
00000360: 29b9 0bbf f043 06bf 173d b7bd 2a0e 9f3e
00000370: 0688 453f e83e 15bf c674 933e fada 46be
00000380: 2d7c 01bf 6867 05bf b5e4 48be 9bb6 a6be
00000390: 3c08 0b3f 1eb1 b73e ed8f 923e 884b 27bf
000003a0: 5105 24be 8ce6 3e3f 681a d93e 5858 e4bd
000003b0: 15fe a03d e12a 203f 7ca4 133d db53 a1be
000003c0: 31e8 ec3e be9f 1fbe af30 983e 1ace afbe
000003d0: bd57 df3d 2888 083e 9642 b43e 1a89 863e
000003e0: 10c1 fcbe 7b22 1f3f 82f2 8e3e e0ad 8c3e
000003f0: 2548 713e c837 5ebe 4d0e a63f 9621 2abd
0.08222346 0.03841846 0.8825436 -0.40347278 0.23305921 -0.1772503 -0.024542948 0.3100724
0.21626177 -0.34329152 -0.04153867 0.30144632 0.46748012 -0.18130301 0.15318945 -0.37711787
0.62631446 -0.17168018 -0.11969402 0.006011771 0.31011826 0.36474895 -0.55142456 0.35147107
0.6243956 0.12567799 0.32132104 0.058187563 0.5260705 -0.51149404 0.5994772 -0.57624155
-0.28985256 -0.35456508 0.8805694 -0.29434386 0.32647413 -0.5308485 0.52618194 0.64892894
0.11032884 0.26493385 -0.54110086 0.32881185 -0.256381 -0.15848316 0.24077311 -0.46195352
0.06669086 0.9232583 -0.29127392 0.22508703 0.2696495 0.07800341 0.18052259 0.22770318
-0.2760419 0.08914989 0.06917664 -0.18441616 0.47723967 0.3586385 -0.45770234 -0.035439372
0.6217699 -0.22338617 0.064348824 0.5021794 -0.3366352 0.0063969614 0.45606217 -0.57591605
0.19798955 0.2208213 -0.33199635 0.44336352 -0.14859378 0.064743415 -0.40273455 1.0358778
0.18276414 -0.093884975 -0.23683584 0.0671154 -0.4741126 -0.15822567 0.34388146 -0.3116574
-0.3458064 0.5107507 0.014534772 -0.2938329 0.008183026 -0.09662074 0.51491624 0.37700438
-0.07558563 -0.20837238 -0.0146045005 0.56076103 0.07648923 -0.30565414 -0.4641002 -0.15451437
0.06746037 -0.20569819 0.3102911 0.19009374 -0.45687932 0.26710853 0.20629041 1.0276315
-0.4849199 -0.15572649 0.10389635 -0.5072934 -0.2082432 -0.030856244 -0.090614095 0.5530287
-0.36143258 0.46003282 0.29031676 -0.79827344 -0.023029665 0.33903283 0.16480818 0.692569
0.20501894 0.50948536 -0.35217494 -0.34548435 0.5430623 -0.14780319 0.25600526 0.25481445
0.51581293 0.1475421 0.08782594 -0.22741283 0.64891505 0.53919035 -0.2865035 -0.49950567
-0.4041096 -0.002522806 -0.53716254 -0.1176875 0.14632359 0.38472354 -0.33315545 -0.35016695
0.2526552 -0.35228324 0.24200135 -0.45574817 0.19618005 -0.25123972 0.12637337 -0.003461656
0.6232242 0.7376952 -0.32217562 -0.45343086 -0.48345873 -0.0071171196 -0.045909863 -0.3491223
0.32371667 0.34953043 0.27565056 -0.298869 -0.39302048 0.14625275 -0.51690876 0.10790684
-0.19288419 0.44381732 -0.013238428 -0.5140034 0.52399224 0.70146555 -0.2387792 0.17331289
0.008984205 0.4798579 0.47939146 -0.25425375 0.16634147 0.25888193 0.16425961 0.56831086
-0.34622476 -0.21048057 -0.35056576 0.12516671 -0.45273328 -0.34736666 -0.26424697 -0.527627
0.32473987 -0.050010517 0.7074215 -0.43146977 0.24606855 0.030046156 -0.2796933 -0.33660993
-0.5494654 -0.05103222 -0.09047153 -0.22194855 -0.05897513 0.18431604 0.06391314 0.57617587
-0.54579407 -0.52447414 -0.08947199 0.31065494 0.7716068 -0.5829911 0.2880003 -0.1941947
-0.505801 -0.5211091 -0.19618495 -0.32561192 0.5430944 0.35877317 0.28625432 -0.65349627
-0.16017653 0.74570537 0.4240296 -0.11149663 0.07860962 0.6256543 0.036045536 -0.3150929
0.46270898 -0.1558828 0.29724643 -0.3433693 0.109054066 0.1333319 0.3520705 0.26276475
-0.49366045 0.6216199 0.27919394 0.27476406 0.23562677 -0.21700966 1.2973114 -0.041535936

weight f4 [64, 256]
00000000: ac11 9ebb 8376 1fbd 6f05 4fbe 698a 16bd
00000010: c671 283c a41f 83be 42a9 d73b 0f18 9f3c
00000020: 3cc5 943d bb36 87bb ed64 41be 4ea5 0ebd
00000030: dc78 4bbe a3f4 0a3c 12cd 22bc 1415 323d
00000040: 7602 7abe c0bc 3fbe 4841 61bd 4a6f 3bbd
00000050: 0e4a fbbd 64c1 6dbd 8f4f 133d f93d 19bd
00000060: 7a7d 33bd 4dbb f33c 50dc 1d3c 2ce9 30bd
00000070: e757 2abe c011 303d a0b8 ac3d 6865 ff3c
00000080: 7bde 2f3c e421 5abd 4248 d0be f1f2 26bc
00000090: bdd4 2d3d 43f6 eb3c 526c a2bd 4fae bebc
000000a0: 16b2 96be d3e2 c7bc 32ae 2dbd 70e2 e8bc
000000b0: b5de 233d da6b 33bd 6b60 13be a856 923c
000000c0: cc70 b8bd 7b65 65bd 1ad9 f7bd 5b3a aebc
000000d0: a655 7ebd f7ec 8fbe f72e c03a 6045 28be
000000e0: 24d0 513c 82a9 f8bc 0a47 6f3c 11de 493c
000000f0: bce7 38bc 4980 023d 63a3 293c 55ee d33c
00000100: 5d82 043d fb5a c7bd 58be 7d3c 295b 633d
00000110: 6ab1 1a3d ed16 bc3b fee7 4fbc d60c febd
00000120: c25f 50bc 88cf 9bbe c290 4bbd 80c4 3fbd
00000130: 924f 2b3c 92a7 8bbc 59df 24bd d551 82be
00000140: 757d 6a3d 1958 e5bd 6083 893d 243f d43c
00000150: d948 3cbc 407a 3fbd f6f9 683d 60fc 923d
00000160: 16df 01be 1560 583d 7c8c 9bbe c7cc 0b3d
00000170: 31fd b9bd b12a 9cbe 532a 293c 12e8 74bd
00000180: f80a 16bd 8c47 cfbb 34de 7d3d bfe8 a53d
00000190: c9a7 01bd 1337 bcbc 1dc4 2fbd 77ea 6fbe
000001a0: c025 093d e871 663d 4b5d 143d 956b 9dbc
000001b0: 11f5 2cbd 8f46 1bbc 4851 f2bc 8abf 2e3d
000001c0: d525 8ebc cfb1 deba 2df0 debc f259 eebd
000001d0: 8a7c 85bd 5bc2 babb 9206 cd3c ecf3 bfbc
000001e0: 8380 5bbe 51f2 a4bc 7b58 8fbd dbee 33be
000001f0: 2956 883d ec6d c13c 5abb 10bd ba3c 76bd
00000200: 428c 35bd 0937 103d 132e c1bc e5b3 95bc
00000210: f07b 943d 69d9 06bc 953e b13c 211b 31bd
00000220: b9ca 613c 4a9c 4e3d 2c9a 933d b0aa 02be
00000230: 442d 62bd 2e43 1dbd 7f57 80bd d1d6 a23c
00000240: b7cd 52bc fa8a 16ba 8ed6 4bbd 8f98 73be
00000250: e001 9cbd 08c9 9b3d f137 9dbc 4867 793a
00000260: 24e9 2e3d 03e3 90ba 41e7 bdbd 04cb da3c
00000270: e267 a6bd 6d72 efbc 3be5 9bbd 7f5b cb3b
00000280: c777 acbd ea81 8f3d 6867 893d fa35 b7bb
00000290: 2b7d f8bc 7d0e 40bd 624a b4b9 3d4f 0bbd
000002a0: c8fb e9bd dbc1 26bc 8a8a 923d 6df8 e0bc
000002b0: 2c5d a4bd a1d8 82bd 3ad2 bf3c 8707 74bd
000002c0: 277f 84be 50b8 12bd 6680 d03d 1e04 51bd
000002d0: ed2a 9f3b d274 14bc d66a 093b c28b 54bd
000002e0: 0e99 67be d328 903d dfc0 b2bb 360e a33c
000002f0: 4a0f 9abd d755 6ebd 0fe2 e53c abc6 c93c
00000300: 9dfb 4f3d 50e3 9bbd 6937 d53c e9a3 83bd
00000310: 9e61 21be d222 223d 30e8 ec3b a397 113d
00000320: 783b 90bd c0ca 2dbd a6b0 273c 5a2c 2f3c
00000330: f1de 18bd 1791 933d 13f8 f93c 0ff6 0c3d
00000340: 86eb 02bd 8407 89bd 8a62 16bd 63a3 9cbc
00000350: 9504 fbbc 4ce9 bbbc 8d2c 0f3d 8a30 4cbe
00000360: c3ff 8b3d 9ffa 973c 0039 48bd cab2 97be
00000370: 993f c7bb d0ce 18bd c5c1 b23c e58e bd3b
00000380: 22ab 663c 2644 65bd 14d6 32bc df36 293a
00000390: d10b 3b3d 4f91 0a3e a748 74bd ac98 97bd
000003a0: e896 52be b44e 7ebd dea4 a2bc cb8a 8d3d
000003b0: 23ab 2fbc 3d38 1e3d e164 0d3d a89f 543d
000003c0: 4943 8e3d 0562 843c fedf 96ba c9d3 62be
000003d0: 49c9 6e3b 24d9 9c3c 95ff 693c d7d9 4ebd
000003e0: a6b6 153c f014 ef3c e465 89bd b29c 41bd
000003f0: 1e28 2c3d 02c0 4abd 866a f33d 7568 103e
-0.004823884 -0.03893138 -0.20216917 -0.036753092 0.010281032 -0.25610077 0.0065814564 0.019420652
0.07264182 -0.0041263974 -0.18886156 -0.034825616 -0.19870323 0.0084811775 -0.009936588 0.043477133
-0.24415001 -0.18724346 -0.054993898 -0.04576043 -0.12269984 -0.05804576 0.035964545 -0.037412617
-0.043820836 0.029752398 0.009635046 -0.04319112 -0.16635095 0.042985678 0.08433652 0.031176284
0.010734196 -0.053254977 -0.40680128 -0.010189758 0.04243921 0.02880395 -0.07930817 -0.023276476
-0.29432744 -0.02440015 -0.042402454 -0.028428286 0.04000731 -0.043804027 -0.1439225 0.017863587
-0.09005889 -0.056004982 -0.12101956 -0.02126806 -0.0620934 -0.28110477 0.0014662434 -0.16432714
0.012805972 -0.030354265 0.014604339 0.012321011 -0.0112857185 0.031860624 0.010353896 0.025870482
0.032350887 -0.0973415 0.015487276 0.05550686 0.03776685 0.0057400377 -0.012689589 -0.12404792
-0.012718143 -0.3043177 -0.0496986 -0.046818256 0.010455983 -0.017047677 -0.040252063 -0.25453058
0.05724855 -0.11198444 0.06714511 0.025909014 -0.011491978 -0.046747446 0.056879006 0.07177043
-0.12682757 0.052826006 -0.3038062 0.034130838 -0.090814956 -0.3050132 0.010325032 -0.059791632
-0.036631554 -0.0063256677 0.061979488 0.081010334 -0.031654153 -0.02297548 -0.042911638 -0.23429285
0.033483267 0.056260973 0.036221784 -0.019216338 -0.0422259 -0.009477272 -0.029579774 0.042663135
-0.017352024 -0.0016990247 -0.027214134 -0.116382495 -0.065178946 -0.0056994385 0.025027547 -0.02343174
-0.21435742 -0.020135077 -0.06999298 -0.17571585 0.06657059 0.023611985 -0.035334922 -0.060116507
-0.044323213 0.035208736 -0.02358154 -0.018274257 0.07250202 -0.008230546 0.021636287 -0.043238763
0.013781243 0.050442018 0.0720714 -0.12760425 -0.05521895 -0.038394146 -0.062666886 0.019877823
-0.012866429 -0.0005742755 -0.049765162 -0.23788665 -0.07617545 0.07606703 -0.019191714 0.00095139863
0.04270281 -0.0011053983 -0.09272624 0.026708134 -0.08125283 -0.029229367 -0.076120816 0.0062059755
-0.08421283 0.07007201 0.06709176 -0.0055911513 -0.030333122 -0.046888817 -0.00034387695 -0.034011114
-0.114249766 -0.010178055 0.071553305 -0.027462209 -0.080255836 -0.06388975 0.023415674 -0.05957749
-0.2587826 -0.035820305 0.1018074 -0.051029317 0.004857412 -0.009061055 0.002096822 -0.051891096
-0.2261698 0.070390366 -0.005455121 0.019904237 -0.075224474 -0.058187332 0.028061895 0.024630865
0.050777066 -0.07611716 0.026027398 -0.06427748 -0.15759894 0.03958399 0.0072298273 0.035545003
-0.07042593 -0.042429686 0.010234987 0.010691727 -0.03732199 0.07205408 0.030513799 0.034414347
-0.031962894 -0.066908866 -0.036715068 -0.019120878 -0.030641833 -0.022938393 0.034954596 -0.19940391
0.06835892 0.018552123 -0.048882484 -0.29628593 -0.0060805795 -0.037306607 0.021820912 0.0057848566
0.014078887 -0.055973195 -0.010915298 0.0006455015 0.045665566 0.13531993 -0.0596396 -0.07402167
-0.20565379 -0.062086776 -0.019854005 0.06911238 -0.0107219545 0.03862785 0.034520034 0.051910073
0.069464274 0.01616002 -0.0011510847 -0.22151102 0.0036435893 0.01914651 0.014282127 -0.050500717
0.009137785 0.029184788 -0.06708887 -0.047268577 0.042030446 -0.04949952 0.11885552 0.14102347

bias f4 [64]
00000000: 1b80 943d d3ec 833e 0dfd b23d e166 05b3
00000010: 976d b33a aba2 b0bb 532d a13b 19d1 16bc
00000020: a18b 8b3e f171 273d f0fe a43c 0a23 3c3e
00000030: 65bd 7d3d 9836 a0bc d2ac 0dbd c677 e9bc
00000040: 7396 b0bd 1a7a 82bd 0c1b 9cb3 d67b 6c3b
00000050: e227 dfbd dd2d 193b e4c7 8ab8 193f 10bd
00000060: e33c b93d 86cf 2a3e bd40 b0bb b6db 953e
00000070: 8cf9 133d 1f86 dfbd e7d4 b43c 9449 24a9
00000080: 7a05 8f3c ba54 3ab3 d369 b03e f34f ff3d
00000090: 72ed 6c3e 0858 1b3d 0e14 553d 90f9 38bc
000000a0: f0cf 9b3c e0c8 feba 7439 7b3d d8f4 d6ba
000000b0: a054 e03d 61c9 9bb9 50d0 f33d 68e7 893c
000000c0: 835e d0bc f544 24bd 597c 8e3d c368 52af
000000d0: 9c05 9ebb f11d 98bc 2dff 2ea8 21ca a53b
000000e0: cdf5 8b27 75b8 82bc 948d 9d3e 8b3a 6dbc
000000f0: c7c7 5ebe ccd0 9224 dbe1 b53d 79e3 1e3e
0.07250997 0.2576662 0.08739672 -3.1060043e-08 0.0013689277 -0.0053904853 0.004918733 -0.009205126
0.27254966 0.040880147 0.020141095 0.18372741 0.0619482 -0.019557282 -0.034588642 -0.028499495
-0.08622446 -0.06370945 -7.269236e-08 0.0036084554 -0.10896279 0.0023373284 -6.617585e-05 -0.035216425
0.09044816 0.16680726 -0.005378811 0.2926919 0.03612666 -0.109142534 0.022074176 -3.6479134e-14
0.017458666 -4.3383558e-08 0.34455737 0.12466421 0.23137453 0.03792575 0.05202108 -0.011289969
0.01902005 -0.0019438528 0.06133409 -0.0016399873 0.10953641 -0.00029713943 0.11904967 0.016833976
-0.025435692 -0.040104825 0.06957311 -1.9136608e-10 -0.004822446 -0.018568965 -9.714273e-15 0.005059496
3.8846748e-15 -0.015957097 0.30772078 -0.01447929 -0.21755897 6.367112e-17 0.08880969 0.15516461

weight f4 [32, 64]
00000000: 3c0f 82bc 63d2 9dbb 032b 683d e657 f60e
00000010: c416 bebc 2ed2 05be 53f3 39bd 8377 9a10
00000020: 0898 50ba eade c5bd 6257 9a3d 280d 253d
00000030: 2de7 023d a3a1 1f3b 65ec 5c3d e2a3 580e
00000040: af2a 62bd e308 9b3d f687 ae0f b667 84bc
00000050: 824a 06bc 4426 1695 b6f4 2592 b569 7dbd
00000060: 4cd2 853d 56c5 61bc 66cf e4bc 6f12 a1bc
00000070: fd25 5bbc 96ba 64bc 55ec 94bd 4623 6a8e
00000080: 498a 11be 5a5a e22f 6589 95bd f20f 2bbc
00000090: 84f7 c23c dde6 b43c 86f4 09bc 531c 49bb
000000a0: a9b9 88bc 6140 0abc d511 b13c f9fe 3e18
000000b0: 7e81 9d3c d494 f10e e549 493d a032 c13c
000000c0: b10e 6ebc db6e 7a3d ede1 cabd ada1 8b21
000000d0: 097f 56bc 4270 6abc d703 6e90 ef3a 883d
000000e0: 2dcc 92b1 8ed7 843a 2251 59ba d589 05be
000000f0: c9d9 0fbe 9a97 560f d325 d5bd 1eab 13be
00000100: 7116 653d fd72 bf3d 5d63 0abf 138e 2190
00000110: 5b9d 11be 7354 62b7 b22c cd0f a3ce debc
00000120: 78fb e0bb 80b6 35bd 2104 8bbd f7da 353e
00000130: 3975 cebd 92ec f320 bc42 6e3d 3dfd 19bd
00000140: 93fb b538 6b32 303d 4ec2 1e90 4b0f 163e
00000150: 21e0 14be cc0a f88d c733 b514 4461 c53d
00000160: 696d a93d bc3a a53d 2a3b 5219 cd69 7bbf
00000170: a289 e13d 58e2 8d3c dbdb ae3d 3e4c a78e
00000180: 9938 15be c975 9092 f857 b33c 62cc 77bd
00000190: 23cb dbbb ae4f 28bd 205b 05be 89e7 053e
000001a0: b0f9 f8bd d3b2 9b93 c032 923d 6fcc 0012
000001b0: aab0 44bd c09a c019 14a6 993d 7469 d13d
000001c0: 8094 8a8f 8717 f33c bbc0 30bd 5aae 4717
000001d0: 3001 2f3e 3e8b 8cbd cd44 3c0e ee96 cdbd
000001e0: ea99 148f a85d 5596 1b43 ca3d 7bea 6ebd
000001f0: 38f7 dabd 8053 880f 19f0 f83c c593 babd
00000200: 8333 8abd cda9 a63d 2060 113d 6102 fc35
00000210: e77e b3bd e344 ab3b 6e1e 2fbd de54 d210
00000220: 4c8f 14be e3ea a6bd 8aeb dfbc a43d 80bc
00000230: 136f 8e3d 442f ca3d 4cdf 81bd df4c b212
00000240: 70c7 643d 9294 5bbc a131 9ba5 01cf 1ebd
00000250: 129c 26bd a6aa 23bd 07ae 37ac 07dd 62bd
00000260: 34ba 2f3d 0991 03be 42bc b03c d487 7a3d
00000270: 5dff 1bbd 89f8 44bd a652 f1bd aeb6 af27
00000280: f023 dd3c 7712 ed19 16ea eabd 0c21 60bd
00000290: b340 93bc b6a2 90bc de97 6e3c dc41 08be
000002a0: 90b8 36bd 22ac d63d 9de3 a0bd 2b2f 56bd
000002b0: 9388 883c ff17 c8bb 77ab 803d 5e5f dc3d
000002c0: 6f3c cb3d f021 2d3d f849 e73b c5f9 222d
000002d0: 9361 21bd 8de6 bfbd 6ded 39b9 7093 e2bc
000002e0: 5190 2f3d 5f50 41bd a5e7 11be 362d 9b3d
000002f0: 1fa0 abbc 4ce1 5f29 f669 4f3b f752 62bd
00000300: 3bde bb3c 1090 50bd 439e 103e a9eb e41a
00000310: a36e 853d 93ac 293c 0805 70bd d5a3 003c
00000320: 06a1 c0bd 086d 30bd fe38 dd3d b84c 89bd
00000330: dec0 123d 584c 9cbc baa2 24be cbab 193d
00000340: 7518 0e3e 4817 6f3d a840 0ab6 7e95 6cbd
00000350: fa24 8abb 97d4 ad3b 685d 7a96 e5b9 c8bc
00000360: 9e4d 633d 37a4 fa3d 8743 03bd b620 b23d
00000370: c463 973c bd93 553d 8c72 7f3c 9bd0 ee11
00000380: a324 3fbd 2d09 5d38 ca9f 83bd e9d1 cabd
00000390: 396c aebd 6a0d 543c 6f72 003e f55d 64bd
000003a0: fb07 92bd bb6f 23bd 0cfc b03d 0237 ab8f
000003b0: f99d 0d3e bdff c893 a882 c6bd 9882 26bc
000003c0: 613a 7e3d 302f a9ba d4cd 063d edc8 692a
000003d0: 1ad8 1fbd 704e 033e f549 470e f3bb 93bc
000003e0: 1bef 253b 0033 85bc f5b3 2a3e 814d c93c
000003f0: 2696 51bd 3d7b 118f 5d61 393d 795b 193d
-0.015876405 -0.00481634 0.056681644 6.0728325e-30 -0.023204215 -0.13068458 -0.045398068 6.0926427e-29
-0.0007957225 -0.09661658 0.07536198 0.04029575 0.031958748 0.0024357818 0.05393638 2.6702962e-30
-0.055216487 0.075700544 1.7210095e-29 -0.016162734 -0.008196475 -3.0322445e-26 -5.236645e-28 -0.06186839
0.065342516 -0.013779959 -0.027930927 -0.01966211 -0.013375756 -0.013960501 -0.07271639 -2.885971e-30
-0.14212908 4.117336e-10 -0.073015966 -0.010440813 0.023799665 0.02208274 -0.008420115 -0.0030687049
-0.016690092 -0.008438201 0.021614948 2.4685653e-24 0.019226786 5.9554403e-30 0.049142737 0.02358371
-0.01452987 0.061140876 -0.09906373 9.461802e-19 -0.013091811 -0.014308991 -4.6940182e-29 0.06651866
-4.2723713e-09 0.0010135041 -0.0008289983 -0.1304086 -0.14047922 1.0580212e-29 -0.10407605 -0.14420745
0.055929605 0.09348104 -0.54057866 -3.18611e-29 -0.14220183 -1.3490312e-05 2.0231777e-29 -0.027198141
-0.006865915 -0.0443635 -0.06787897 0.1775931 -0.10080952 4.132235e-19 0.05816911 -0.037595022
8.677612e-05 0.043016832 -3.1309693e-29 0.14654271 -0.14538623 -1.5286779e-30 1.8296752e-26 0.096376926
0.082728215 0.08067843 1.0868694e-23 -0.98208314 0.110125795 0.017319843 0.08538028 -4.1242097e-30
-0.14572372 -9.116714e-28 0.021892533 -0.06049765 -0.0067075654 -0.041091613 -0.13023043 0.13076605
-0.12156999 -3.9303835e-27 0.07138586 4.064166e-28 -0.048020042 1.9914838e-23 0.0750238 0.10225192
-1.366505e-29 0.029674305 -0.043152552 6.452043e-25 0.17090297 -0.06862496 2.3205915e-30 -0.10038553
-7.326606e-30 -1.7235556e-25 0.098760806 -0.058329087 -0.106916845 1.3442798e-29 0.030387925 -0.09110216
-0.06748106 0.08137856 0.035492063 1.8776155e-06 -0.08764439 0.005226718 -0.04275363 8.2961154e-29
-0.14507788 -0.0815027 -0.027333993 -0.015654393 0.069547795 0.098722965 -0.063414186 1.1252329e-27
0.05585426 -0.013402121 -2.6921844e-16 -0.038771633 -0.040676184 -0.039957665 -2.6102469e-12 -0.05538657
0.042902187 -0.12848295 0.021574143 0.061164692 -0.03808533 -0.048088584 -0.11783342 4.877032e-15
0.026994675 2.4512684e-23 -0.114704296 -0.054719016 -0.017975187 -0.017655712 0.014562575 -0.13306373
-0.044609606 0.104820505 -0.07855914 -0.052291077 0.016666686 -0.006106376 0.06282704 0.10760377
0.09923636 0.042268693 0.0070583783 9.264094e-12 -0.039399695 -0.09370146 -0.00017731423 -0.027658194
0.04286224 -0.04719579 -0.14248522 0.07576983 -0.020950375 4.971136e-14 0.003164885 -0.055254903
0.022933116 -0.05091864 0.14122872 9.467932e-23 0.06515243 0.010356086 -0.05859855 0.007851561
-0.09405713 -0.04307273 0.10801886 -0.06704086 0.035828464 -0.019079372 -0.160777 0.03751735
0.13876517 0.058371812 -2.0601237e-06 -0.057759754 -0.0042158337 0.0053048837 -2.0224313e-25 -0.024502704
0.055493943 0.12238353 -0.03204682 0.08697645 0.01848019 0.052142847 0.015591275 3.7678342e-28
-0.0466658 5.269905e-05 -0.06426962 -0.099033184 -0.085167356 0.012942651 0.12543653 -0.055753667
-0.071304284 -0.039901476 0.08641824 -1.688309e-29 0.13829793 -5.0739275e-27 -0.096928895 -0.010162972
0.062067393 -0.001290774 0.032911137 2.0764267e-13 -0.03902445 0.1282289 2.4564253e-30 -0.018033957
0.002531952 -0.01625967 0.1667021 0.02457309 -0.051168583 -7.172787e-30 0.04525887 0.03744075

bias f4 [32]
00000000: 9066 e6bc e191 13be eb83 a1bd 4742 92bd
00000010: e38f 63be 78f9 053c 4fa1 7d3d f86d 113e
00000020: fcfc 6c3d 2765 723d 5469 e7bd 51ba c93c
00000030: 7a6a d13d b0fa 933d 5641 dbbd aa0d d0a0
00000040: 48bd 673d fcf8 d43d be78 ff3d dbab a93d
00000050: 0e1d 83bc a667 89bc 2dd6 16bc 7065 1c3b
00000060: 03fc 7abd 8c51 2cbb 1f60 b23d 9b96 98ba
00000070: 517a ccbd 1603 fbbc bf81 9c3e 1f0a 04bd
-0.028125077 -0.14411117 -0.078864895 -0.07141548 -0.22222857 0.008177154 0.061921414 0.14202106
0.057858452 0.059178498 -0.112993866 0.024624975 0.10225387 0.07225549 -0.10705821 -3.5245613e-19
0.056576997 0.103990525 0.124742016 0.08284732 -0.016005065 -0.016773056 -0.009206337 0.0023864172
-0.061275493 -0.0026293723 0.0870974 -0.0011641564 -0.099842675 -0.03064112 0.30567738 -0.032236215

weight f4 [8, 32]
00000000: 0ff8 8a3c 5672 b43e 7104 e53c a15c 15be
00000010: 7285 afbe b6ff e23d 5249 c03e d1c6 b93d
00000020: 2038 5f3e 6d94 b839 1653 2e3e cf70 f2bc
00000030: fe02 0e3d a686 263c 1b86 faba fd80 d7a4
00000040: b129 633e 42e1 d5bc 331e b9bc 4d44 c13d
00000050: ee5d 9f2f b8f5 333c 8015 583c 6c2e 1e15
00000060: a2d0 04bd 6772 56bc 18e0 563e 9e4b dd8f
00000070: c3ab c63c ba2c 113e 4ca2 bbbe f433 ec3c
00000080: 9807 448f bb67 c6bc c075 dc8c 0481 b7bc
00000090: 71bb 10bd e70d dfbc 0696 b2bc aa0c aebc
000000a0: 4c52 470f 967f 3310 3a83 cdbc baf7 c1bc
000000b0: cac5 d7bc 7091 bebc 2ce2 9812 7983 cc8c
000000c0: f1d7 d6bc d626 abbc c718 c2bc ef70 d4bc
000000d0: 4316 2e10 991c f58f fa91 a8bc 4be2 938f
000000e0: 943e 8213 8652 b4bc 2234 d6bc 0460 9110
000000f0: e1ba bcbc 8ef3 ebbc bd40 a73c c24e 0f8d
00000100: f25d e7bd 69d8 be3e 0008 39be 92e4 ce3c
00000110: 4a06 afbe abc8 2cbe 27a4 a83e 8280 3d3c
00000120: 320e 0cbe 5a06 14be 45b2 21bc 7fee 26be
00000130: a682 dc3d e75a 38bc c06d c83d 0680 bea2
00000140: 7820 153e 55b0 063e d100 c83d 0fb8 0abe
00000150: ef81 2fbb db1c 393c f486 cc3c 9d15 86bc
00000160: e1af dc3d e4f4 a83d 209c 263e dcac 1eba
00000170: 4035 393c 0cf5 073d 6ef2 a4be 1644 113d
00000180: 7f20 04be 4c33 86be 8c82 8cbd 6c6e 06be
00000190: e8bc 963e 99d0 153e ca9f 87be 0540 0e3e
000001a0: fb61 98bd 42e9 f8bd 8a37 a3bd 79d0 213e
000001b0: dca3 ba3c 9607 d83d 99ab 0cbe 6308 8824
000001c0: 4d7f 7f3c c48f 653c dab7 443e f29f d9bd
000001d0: 6526 bb3c f0dd 63bb 7a4f 0abe 2344 6ebc
000001e0: 8abc 043e 1b8b 26bb ccd3 6ebe c1b6 8dbd
000001f0: 3412 053e 9332 10be f093 2b3e 69b5 0ebe
00000200: 9db9 263e fd37 82be 0395 e4bd e053 e43d
00000210: 478b 133e ea9b 233e 7e83 6fbe bfad bd3b
00000220: b6ef 413d 31f0 c4bc dc32 abbd 91bf dbbb
00000230: 1678 d63d 2b1e cb3c aac1 19bc 8e5c 2224
00000240: 5be5 743d cdc8 a53d 855a 273e fd04 293e
00000250: 5ef5 6e3d 881d a43c 684a d93d 136c 1b3e
00000260: fc4b 943c 604c 453e 4e23 13bd 2d98 cb3d
00000270: 432d b53d d787 3a3d 9bd8 3b3e eb57 b7bb
00000280: 90f3 933b 87d9 ddbe c332 cc33 9cc7 31be
00000290: 049b 89bf a8bd a6bd 769f 453f 5f5a dd3c
000002a0: d396 abbe 3e9d 2cb8 ca3a 7dbb 6a2c 2d3e
000002b0: 67c3 3fbd 0d56 bebd 322d 91be fb7a 9e10
000002c0: 38f2 ccbe 0287 173d 7c83 a4bd 74bc 12be
000002d0: df12 bf0f 0abf 0610 5cc4 5d3e 098f 9d9c
000002e0: 1621 52bb 5423 2b3e 3a43 693c 36e8 8d3b
000002f0: a67b 46be 3e65 48bf c777 493e 4d28 de3b
00000300: ab37 a8bd 840b 553e a699 363e cc55 7ebc
00000310: cd01 aabe 7840 83bb dd5b d93c 60f1 46bc
00000320: b93a d33d f0f0 943d 56ee 943d 0b19 973d
00000330: c2a7 3b3e 7be8 583e 5439 26be aca8 c323
00000340: ee34 293e 60ae 11bd 7e5a da3d 453f 4a3e
00000350: 0610 93bd fb2c 8ab8 fb70 85bd 617e 4fbc
00000360: b5ab 033c a8f4 1ab9 e446 643e 34eb 35bd
00000370: 2f4f 4ebc 0a38 113e b51b 30be 0d47 aebd
00000380: ef0c b3bd ed08 9cbe 98d8 833d 82f8 353e
00000390: 5aa1 913e ad4f f2bd a736 76be 12e0 443e
000003a0: 9f8e 8cbc c234 cdbd 3416 2b3d 4b1e 083e
000003b0: b7a3 183e 7751 813d b1c3 06bc c090 0825
000003c0: fd0e 91bd c73d 6f3d 0577 4b3e 6225 2a3d
000003d0: f1b5 d1bd def8 3f3c 199d a03d 0cc2 babd
000003e0: fef4 693d 84c5 433e 9a90 8ebe f6aa 9b3c
000003f0: e708 c5bd 0132 4dbd 55d7 cb3d 0589 043c
0.016963987 0.3524348 0.02795622 -0.14586116 -0.34281498 0.11083929 0.3755594 0.09071124
0.21798754 0.000352058 0.17023882 -0.029594807 0.034670822 0.010163939 -0.0019113453 -9.34599e-17
0.22183873 -0.026108388 -0.022597408 0.094368555 2.8988673e-10 0.010983877 0.01318872 3.1944466e-26
-0.03242553 -0.013088799 0.20983922 -2.1821409e-29 0.024251824 0.14177218 -0.3664726 0.028833367
-9.6650086e-30 -0.024219384 -3.3967235e-31 -0.022400387 -0.035335008 -0.027228309 -0.021800052 -0.021246273
9.827307e-30 3.5399814e-29 -0.025086988 -0.023677696 -0.02633943 -0.02326271 9.648304e-28 -3.1510304e-31
-0.026226016 -0.020892542 -0.023693455 -0.025932757 3.43326e-29 -2.416988e-29 -0.02057742 -1.4582484e-29
3.287832e-27 -0.022012006 -0.026147906 5.734035e-29 -0.02303833 -0.02880266 0.020416612 -4.416008e-31
-0.112972155 0.37274483 -0.18069458 0.025255475 -0.34184486 -0.16873424 0.32937738 0.011566283
-0.1367729 -0.14455548 -0.009869163 -0.16301917 0.10767107 -0.011252142 0.09786558 -5.1635153e-18
0.14563167 0.13153203 0.09765781 -0.13546775 -0.0026780327 0.011298384 0.024966694 -0.016367728
0.10775734 0.08249834 0.16270494 -0.000605298 0.0113042 0.03319268 -0.3221621 0.035465322
-0.12903021 -0.2621101 -0.06860837 -0.1312806 0.29441 0.14630355 -0.26489097 0.13891609
-0.07440563 -0.121538654 -0.079695776 0.15802182 0.022783212 0.10548322 -0.13737334 5.8994806e-17
0.015594316 0.014011327 0.19210759 -0.1062621 0.022845456 -0.0034769736 -0.1350688 -0.014542612
0.12962547 -0.0025412503 -0.23322982 -0.06919623 0.12995225 -0.14081793 0.16755652 -0.1393639
0.16281743 -0.2543334 -0.11161234 0.111488104 0.14408599 0.15977445 -0.23390004 0.0057885344
0.047347747 -0.024040313 -0.0835931 -0.006706186 0.10472123 0.024794659 -0.009384552 3.5206547e-17
0.059789043 0.0809494 0.16343124 0.16505809 0.05833947 0.020033613 0.10609895 0.15177946
0.018102638 0.19267416 -0.03592234 0.099411346 0.088465236 0.045539703 0.18344347 -0.0055951974
0.004515119 -0.43330023 9.508724e-08 -0.17361301 -1.0750432 -0.08141643 0.77196443 0.027020631
-0.33513507 -4.115444e-05 -0.0038639777 0.16911474 -0.04681721 -0.09293757 -0.28354794 6.250949e-29
-0.40028548 0.036993988 -0.08032891 -0.14329702 1.8841323e-29 2.657401e-29 0.21656936 -1.0426362e-21
-0.0032063178 0.16712695 0.0142372195 0.00433066 -0.19383106 -0.78279483 0.19674598 0.0067797066
-0.08213743 0.20805174 0.1783205 -0.015523385 -0.332045 -0.004005488 0.026533062 -0.012142509
0.10313935 0.07272518 0.072720215 0.073778234 0.18325713 0.21182434 -0.16232806 2.1213378e-17
0.16524097 -0.035566688 0.10661791 0.19750698 -0.071807906 -6.588731e-05 -0.0651569 -0.012664408
0.008036544 -0.00014777726 0.22292668 -0.04441376 -0.012592121 0.14181533 -0.1719807 -0.085096456
-0.08742701 -0.3047556 0.06437796 0.1777058 0.28443414 -0.11831603 -0.24044286 0.19226101
-0.01715785 -0.100198284 0.04176922 0.13292806 0.14906202 0.06314366 -0.008225367 1.1845163e-16
-0.07082937 0.058408525 0.19869621 0.041539557 -0.10239781 0.011717049 0.07842464 -0.09119043
0.05711841 0.19118315 -0.27844697 0.019002419 -0.096208386 -0.050096516 0.09953181 0.008089309

bias f4 [8]
00000000: 9305 083e 7c10 87bc e146 18be 2711 183e
00000010: d4d4 aa3c e61e 433f 481c 323e 73cd c43d
0.13283376 -0.016487353 -0.14870788 0.14850293 0.020853437 0.7621902 0.17393601 0.09609499

weight f4 [2, 8]
00000000: 6307 18be e3bb f7bc ca4b f8bd 4b0c 1d3e
00000010: c617 a73e 0b6e 9cbe a75a ba3e 369e 953e
00000020: da8a 6a3e 067f 283d c1a9 893e 0ecf 85bd
00000030: 9add 7a3d 8fa1 67bf 6d88 923e 54a0 babd
-0.14846568 -0.030240959 -0.121238306 0.1533672 0.32635325 -0.30552706 0.36397287 0.29222268
0.2290453 0.041136764 0.26887324 -0.06533633 0.061246492 -0.90480894 0.2861971 -0.091126114

bias f4 [2]
00000000: 38f6 99be 145b b6be
-0.30070662 -0.35616362

weight f4 [8, 2]
00000000: f618 093f 29d3 32bf 0cc6 103f bd38 a6be
00000010: 1ec0 ed3c 5d4c 2b3f bab8 0c3f 85c2 4dbe
00000020: ad4d 2ebc a91c 143f c380 253f 9743 2bbf
00000030: a48d fd3e a719 efbd 6e1d c73d cdc4 143f
0.5355371 -0.69853455 0.56552196 -0.32465163 0.029022273 0.66913396 0.5496937 -0.20093735
-0.010638637 0.5785623 0.646496 -0.6690001 0.49522126 -0.11674815 0.0972241 0.58112794

bias f4 [8]
00000000: bf35 a3be 13ac 493e fec0 04bf e3c4 ea3e
00000010: 30a9 913e 9b74 753e d930 003e 4762 85be
-0.31876943 0.19694547 -0.5185698 0.45853338 0.28449392 0.23970263 0.12518634 -0.26051542

weight f4 [32, 8]
00000000: 55fb debe c230 48bd c850 2c3e d22e 9d3e
00000010: aa67 b23d a966 dcbe ea37 35be 4fa3 ed3d
00000020: fd2d b3bd 9dc9 413c bfde a73b fbf8 ba3c
00000030: c857 d63c 9aee 5ebc 2115 aa3c 9d93 893d
00000040: 4fee d8bd f17c f4bb 823b b23d 5f23 ae3d
00000050: 55c1 323e 2c00 aebc b942 b53d 02e8 c43d
00000060: eb85 0dbe aeaa 74be ee74 463d c172 a7bb
00000070: 21ff ad3e 08af 4ebd 209c 8bbe 4c35 833d
00000080: 5c6e 063e eb9e bb3c 51a4 81bc 535b 81ba
00000090: 6201 82bd 7bc3 683d 30b8 473c 3a2f 71bc
000000a0: 09bb 383e e7fe 2f3e 6102 c6bc fde6 42be
000000b0: 8fd4 42be 3fdb b33e 8bf9 0d3d 67a2 d63d
000000c0: 3301 4a3e 8f10 b43e 4e48 0abd 4247 22bd
000000d0: f0e5 a43d 25cf 883e 1688 563d a6ec 25bd
000000e0: 5905 04be fc49 a13e 4817 5f3d 5dfe 07be
000000f0: 51e3 413e df24 b43e 65ca 80be 1c04 b23d
00000100: 1daa 393d 7aed 1abe 27e4 43bc eb9c 3ebe
00000110: 0897 323d 45ec e8bc a010 48be 6762 9cbd
00000120: 3c68 403d 4889 b03e 8712 73bc 1dd9 303e
00000130: f8c5 4f3e 5b9a ad3e d6c4 ba3d f94d 6b3e
00000140: 49ae 893e 2f5f c63d 8ac7 2d3e 8892 ea3b
00000150: ff8b 013e 67df 3dbe 9495 4bbd a90c bf3d
00000160: 6b93 513d 2e56 9f3c 3dda 45be ab5f 42bc
00000170: 1916 9f3d 641e a13e 371e 13be d224 35be
00000180: d4bc b43e 4a0b 21bd 20a6 67be 6f53 3fbd
00000190: 194e c5be 245d 913e 2766 58be 10ed a3be
000001a0: bdbd d4be 119a 7fbe b7f2 8f3d 33c4 4f3e
000001b0: 22c5 583e 1e61 59be d7dc e1bd cbe9 563e
000001c0: acd3 3dbd cefc 46bd da55 4dbd 7ac9 4bbd
000001d0: 1e76 49bd 99c0 41bd 2cb3 4cbd 2307 4fbd
000001e0: ce43 c03e 1311 85be 08c8 c3bb 093d a83e
000001f0: a172 aabe d401 0b3e 6906 953b 9dfa a2bc
00000200: d3d7 533d 6237 55be c2e4 c03d 452b 943d
00000210: 6335 763e 843f 493d a179 163e 353f 28be
00000220: eb5f f63d 0bfe 013e 63db 093e 55ed a8bd
00000230: a31b 5fbe d37b 563e 6c8a 4e3e a843 223e
00000240: 2f63 44bd 364b ab3e 0f11 92bd 002e f03d
00000250: 0cfa 02be 9a38 483e f374 18be d438 bebd
00000260: 0539 93bd c2ca 073d 992a d03c 469c 5a3d
00000270: b089 013d 9548 6bbd e7ee 9c3d ed68 223d
00000280: 4e76 12be 1343 eb3d 7d2c 51be d9f5 8abc
00000290: 5028 6bbe 6866 323d d607 593d cd87 60be
000002a0: fe54 dabc 845e 00bd 3d44 abbb f577 01bd
000002b0: 8b4d 93bb be4e 04bd d9fc f7bc 5ff1 26bc
000002c0: 5899 563e 43ed 47bd e420 34be b919 6bbe
000002d0: 5195 bdbe 2969 b63e 15f3 2ebe da27 65be
000002e0: bee0 c9bd cebf b73b a09f d18d 12b2 773e
000002f0: 4096 b0be 43d3 ebbd 5ebb 03be 8138 720d
00000300: 3eb7 f9bd dcae 2b3e 1f8d 72bd 7061 a43e
00000310: 42b0 b53e da5d babd 3d42 b43e cd0f 463e
00000320: 7d68 9bbe 01e8 38be 90c1 ae3d 98fb 153e
00000330: 72db 733e 0392 e2bd 1fed afbd d363 763d
00000340: 62b3 49bd 25ec a03c ce85 d43c d476 3e3c
00000350: 2b2b 173e 7af4 20bc 97ed 0b3d c9af a13d
00000360: 37e8 1f3e 7aac 66be 5fbc ee3d 3c57 583d
00000370: 1062 c1b9 2262 f23c 50da e3be a826 993d
00000380: 1440 2abd 795d 863d 0aa8 583d 13ad 0f3d
00000390: 2cc6 7d3d 2db8 8abc a006 853d 4a89 8c3d
000003a0: 7dcc a6be b0da 98be 50af 6cbd aa0d 803e
000003b0: 03e9 d73d e09a 913e bacc 59be 0b3a e8bd
000003c0: 8873 2ebe a7c7 0c3e a2a0 943c 4dc8 a53e
000003d0: cc47 6d3e ee7a ed3d 9fbd 08be 6ffe 243e
000003e0: c1c4 5cbe 5b4d 5f3e 0e4e 1ebd 5912 073e
000003f0: b28f a4bd c7ff 2e3e 2fb6 ab3e 902a f63d
-0.43551126 -0.048874624 0.1682769 0.30699784 0.087111786 -0.43047073 -0.17697111 0.11603414
-0.08749006 0.0118278535 0.005122989 0.022823801 0.026164904 -0.013606692 0.020762028 0.06717608
-0.10592329 -0.0074611832 0.087027565 0.0850284 0.17456563 -0.021240316 0.08850617 0.096145645
-0.13820617 -0.23893234 0.048451357 -0.0051101153 0.3398371 -0.05045989 -0.2726755 0.0640665
0.13128036 0.022902926 -0.015825422 -0.0009869136 -0.0634792 0.05682705 0.01218991 -0.014720732
0.18040098 0.17187081 -0.024171056 -0.19033428 -0.19026397 0.3512821 0.03466181 0.104801945
0.1972702 0.35168883 -0.03376036 -0.039618738 0.080516696 0.2672054 0.052375875 -0.04050889
-0.12892665 0.31501758 0.054465562 -0.13280626 0.1893437 0.3518438 -0.25154415 0.0869219
0.04532825 -0.15129653 -0.011956251 -0.18614547 0.043601066 -0.028432975 -0.19537592 -0.07635956
0.046974406 0.34479737 -0.01483596 0.17270322 0.20290363 0.33906826 0.09119575 0.22978963
0.26890782 0.096861236 0.1697065 0.007158581 0.1265106 -0.18542252 -0.049703196 0.093285866
0.05116598 0.019450273 -0.19321533 -0.011863629 0.07767887 0.314685 -0.14366995 -0.17689827
0.35300314 -0.039317407 -0.22621965 -0.046710428 -0.38536146 0.28391373 -0.21132718 -0.32016802
-0.4155101 -0.24961115 0.07028716 0.20289688 0.2116895 -0.21228454 -0.1102845 0.20987622
-0.046344444 -0.048580937 -0.050130703 -0.04975269 -0.04918491 -0.047302816 -0.04997556 -0.050543915
0.3755173 -0.2598959 -0.0059747733 0.32859066 -0.3329058 0.13574916 0.0045478833 -0.019894892
0.051719498 -0.20821908 0.09418632 0.072348155 0.24043803 0.04913284 0.14694835 -0.16430362
0.12030014 0.12694566 0.13462596 -0.082483925 -0.21787886 0.20945673 0.20169991 0.15846121
-0.04794615 0.3345582 -0.0713216 0.11727524 -0.12790698 0.19552842 -0.14888363 -0.09288183
-0.0718861 0.03315235 0.025410937 0.05337169 0.03162545 -0.057442266 0.076627545 0.039650846
-0.14302942 0.11487403 -0.20427127 -0.016962932 -0.22964597 0.043554693 0.05298599 -0.21926804
-0.026651856 -0.031340137 -0.0052266405 -0.03160854 -0.004495328 -0.032301657 -0.030271934 -0.010189383
0.20956933 -0.048810255 -0.17590672 -0.22959031 -0.37027982 0.35627106 -0.17084916 -0.22378483
-0.09857319 0.0056075817 -1.2919048e-30 0.24189022 -0.34489632 -0.11514904 -0.12864444 7.464002e-31
-0.12193154 0.16765922 -0.059216615 0.3210559 0.35486037 -0.09099932 0.35206786 0.19341965
-0.30353156 -0.18057252 0.08533013 0.14646757 0.2381418 -0.11063006 -0.08590149 0.060153794
-0.04924334 0.019643852 0.02594271 0.0116250105 0.14762561 -0.009823913 0.03416213 0.078948565
0.15615927 -0.22526732 0.11657023 0.05281757 -0.0003688489 0.029587809 -0.44502497 0.07478076
-0.041565016 0.06560797 0.05289463 0.035077166 0.06195657 -0.016933525 0.06495404 0.06862123
-0.32577887 -0.29854345 -0.05778438 0.25010425 0.1054249 0.28438473 -0.21269503 -0.11339196
-0.17036259 0.13748036 0.018143002 0.3237938 0.2317192 0.115957126 -0.13353585 0.16112684
-0.2155943 0.21806853 -0.038648658 0.13190593 -0.0803522 0.17089759 0.33537433 0.12019837

bias f4 [32]
00000000: 456d 23bf e702 023f ab18 3d3e 20b9 933f
00000010: f9e6 30bf e7e1 223e 1687 a93e 3d99 44bf
00000020: 987a 0b3f 23dd 4d3e e9da a8be 64b1 5c3f
00000030: 3621 36bd d7a7 a13e 4040 1fbc a6c1 903d
00000040: c046 d8bd 049c c1be 2587 46be f967 8f3e
00000050: d862 eb3e 9f1a b9bb 2b36 2d3f 3810 fcbd
00000060: 11b1 febd e2f4 923e 150d 433e bbd2 fe3e
00000070: dfea ca3e f7aa 09be 1f24 5a3e 04e3 013f
-0.6383861 0.5078568 0.18466441 1.1540871 -0.69102436 0.15906487 0.33110875 -0.76796323
0.5448394 0.20103888 -0.32979515 0.86208177 -0.044465266 0.31573364 -0.009719908 0.070681855
-0.105603695 -0.37814343 -0.19387491 0.28009012 0.4597385 -0.0056489254 0.6766078 -0.12307781
-0.124361165 0.28702456 0.19047959 0.4977015 0.39632317 -0.13444124 0.21302842 0.50737023

weight f4 [64, 32]
00000000: 0418 2b3b d66f a0bc 11eb d1bc a1c8 b736
00000010: 84f5 d18e 5a35 abbc df6b d9bc aa3a 8bbc
00000020: 66d2 930e 7baa ddbc 7546 b7bc 28f0 07b7
00000030: 30e3 86b5 5c8a 9d3b d63a af11 f787 d6b8
00000040: 8833 a7bc 3233 d2bc e4ef bfb9 f8c0 a7bc
00000050: b016 6f99 3dfe 9c0d c27a 861a a03c d78d
00000060: c6bc d5bc 8c97 a39d f7ca b8bc ccbc 0690
00000070: c82a b5bc 0956 0511 c066 cebc f2c2 ddbc
00000080: 9393 8abb 8fce d33c 53e3 503d 960e 78be
00000090: 37a2 35be d711 71bd cf22 493e 6c00 1fbd
000000a0: 1572 2cbc 4e30 b53d ceab 053c e579 7c3d
000000b0: b79e 0a3e 6444 61be 33ee f339 05ea febc
000000c0: f06b 2f3e d863 2abc d232 a53d 6641 3b3d
000000d0: f274 383b e4bd 2038 31cd 0f3e 1ae5 a5bd
000000e0: 9a7b 743d fa80 32be a7cd 893c 6b17 c0bd
000000f0: 59ec 7b3d 37f2 07bd 439a 883d b8b7 253e
00000100: cf34 e2bd 2462 083d bec1 8b3d eeab d1be
00000110: 7baa babd f02b 023e 49f8 d43d d7e3 363e
00000120: bef8 923e 2f0b 163e e2e4 10bd d634 d13d
00000130: f23b de3d f6c2 e6be ad26 dcb3 39ef 0dbe
00000140: cf69 d4bd 0293 21be ecf3 84bd f5c1 1e3d
00000150: c254 d03d 607c 79a5 f120 753d 8e71 44bd
00000160: 0972 c5bc 86f4 7fbe 289c 3c3d b386 863e
00000170: 6a94 303d 208b 280f f0ac 74bd 9337 34bd
00000180: ffc5 7392 499e b391 165b 808e cd15 0a11
00000190: 6639 1c8e 6f44 b9bc 1091 c1bc 8d0b 930f
000001a0: e231 8d8f 75b6 c3bc 7bf0 2491 2148 b6bc
000001b0: 6a4a a9bc aa92 3992 8fa9 1b10 2d1c bdbc
000001c0: c6d5 5fbc a16b bbbc 36fd 01bc 5abe c90d
000001d0: bee2 9dbc a216 1010 8043 203a f88b 6490
000001e0: ecec c5bc 10ba 5911 c072 c10d f830 0d91
000001f0: 6116 048e 8421 f810 d091 bbbc d913 01bd
00000200: 792d 173e a517 9a3c 7500 613d da97 aebe
00000210: 922e f4bd 21b5 083e d037 8d3d 6b29 edbd
00000220: 8b42 1a3d fef1 a23d 38f6 183c a5ba 3dbd
00000230: d4b0 a83d cc65 38be b524 c838 5eae ba3c
00000240: ee0c 09be dc75 a43d 78d1 afbd bdeb 623d
00000250: 7618 cdbd 91fc ff36 009c 23bc 388b 293e
00000260: 219d c23d 4f0a cbbd e253 053d bc42 553c
00000270: 6544 8c3d d42e 703d f515 143e de0f 283e
00000280: 06d7 b911 f231 b010 29ba b310 c4cc 1f0f
00000290: d7f3 f10f 48f7 a7bc e0eb 61bd 1cf0 c58f
000002a0: beff 2b8d b64e c63d e809 738e f977 abbd
000002b0: 4e7d c4bc 708f eb8e dc7e 5b11 501e e3bd
000002c0: a373 dabd ee42 1cbd caa5 0e3d 1265 1f11
000002d0: 6d02 acbc 2ad1 f911 b537 583c 2e7b 178f
000002e0: e8c0 67bc 0bfb a70e a9a8 890e 1f1e 278d
000002f0: 9031 bd0a 12f4 6c91 7f85 81bc d8ab 11bd
00000300: 7260 83bb ffd3 3bbc a4e2 71bc 5913 34bb
00000310: 5c6b 2a90 643b 87bc efad a4bc 0a05 19bc
00000320: abde 8b8e 87c7 a7bc 7aea 71bc d25f 25bc
00000330: 6083 5dbc ad11 ddbb 58b0 0a0b 9f02 e1bb
00000340: b6f2 53bc 673d 9cbc 9532 dabb 0507 3ebc
00000350: 8c3d 37bb f9c8 2212 821c 01bc 71fd 128f
00000360: 1d9c 8ebc 24b0 5bbc 092a 63bc e42d 600e
00000370: 200a 61bc 7261 998d 10b1 81bc 20ba 9abc
00000380: 3771 5dbe 75e5 8f3d f8c2 b73d 3980 0b3c
00000390: 0f01 8cbc fc45 10be fd1d c6bb 1253 57be
000003a0: 4ce3 45bf 6c6b 6bbb 8649 16bc 413d 5bbc
000003b0: 30ce 60bd da3e 8b3c ccff a23c b9cc 51be
000003c0: cf6f 8cbd d133 acbd bf00 6cbe 3059 6f3d
000003d0: 056b 48be e7bd 9423 4780 8fbd 970c 288d
000003e0: 7b11 713c e2c5 813d 4896 843d 21c7 9abe
000003f0: 902a 8d3d f77a efbb 43bd d23c 75ab 143d
0.0026106844 -0.019584578 -0.025624784 5.4771813e-06 -5.17589e-30 -0.020899463 -0.026540695 -0.016995747
3.6440904e-30 -0.02705883 -0.022372464 -8.102543e-06 -1.0049898e-06 0.0048077535 2.7646392e-28 -0.000102296406
-0.020410314 -0.025659177 -0.0003660909 -0.020477757 -1.2360592e-23 9.675448e-31 5.561943e-23 -1.3264993e-30
-0.02609099 -4.3302437e-21 -0.022557719 -2.6572284e-29 -0.022115126 1.0518362e-28 -0.02519548 -0.027070496
-0.004229018 0.02585533 0.050998043 -0.24224314 -0.17737661 -0.058854904 0.19642185 -0.03881876
-0.010525246 0.08847104 0.008158637 0.061639685 0.13537107 -0.21998745 0.00046526044 -0.031117449
0.17131019 -0.010399781 0.08066334 0.045716666 0.0028145877 3.8323822e-05 0.14043118 -0.08100338
0.059688188 -0.17432013 0.016821695 -0.093794666 0.061504696 -0.03318998 0.06670048 0.16183364
-0.11045229 0.03329672 0.06824063 -0.40951484 -0.09114548 0.12712073 0.10398919 0.17860352
0.287054 0.14652704 -0.03537453 0.10215156 0.108512774 -0.45070618 -1.02515834e-07 -0.13860787
-0.10371744 -0.15778735 -0.06491837 0.03875919 0.10172416 -2.1639447e-16 0.05984587 -0.047959857
-0.024102228 -0.24995622 0.04604736 0.26274642 0.04311029 8.309834e-30 -0.05973524 -0.043998312
-7.692133e-28 -2.833877e-28 -3.164215e-30 1.0892998e-28 -1.925612e-30 -0.02261564 -0.023628742 1.4499768e-29
-1.3922888e-29 -0.023890713 -1.3011423e-28 -0.02225119 -0.020665366 -5.8556484e-28 3.0698983e-29 -0.023084724
-0.013661807 -0.02287847 -0.007933905 1.2433407e-30 -0.019273158 2.8416428e-29 0.0006113574 -4.50729e-29
-0.024160825 1.7175617e-28 1.1922168e-30 -1.1138028e-28 -1.6281031e-30 9.787039e-29 -0.022896677 -0.03151307
0.1476344 0.018810103 0.054932076 -0.3410023 -0.11922945 0.13350345 0.06895411 -0.115801655
0.037661117 0.079563126 0.009336047 -0.046320576 0.08236852 -0.18007582 9.5435804e-05 0.022788223
-0.13383839 0.080302924 -0.08584875 0.0554006 -0.10014431 7.628995e-06 -0.009985924 0.16557014
0.09502626 -0.099140756 0.0325507 0.013016399 0.06848983 0.05863841 0.14461501 0.16412303
2.9320372e-28 6.949671e-29 7.0889876e-29 7.878742e-30 2.3858358e-29 -0.020503655 -0.05515659 -1.9518187e-29
-5.300128e-31 0.09682982 -2.9956832e-30 -0.08372492 -0.023985531 -5.8070098e-30 1.7315145e-28 -0.11089766
-0.10666587 -0.038149767 0.034826078 1.2574033e-28 -0.02099725 3.941418e-28 0.013196875 -7.468598e-30
-0.0141451135 4.1410424e-30 3.393552e-30 -5.1497105e-31 1.8218681e-32 -1.8692327e-28 -0.015810726 -0.035564274
-0.0040093 -0.011464118 -0.014763508 -0.0027477352 -3.3609295e-29 -0.016507812 -0.02010247 -0.00933958
-3.4480567e-30 -0.020480884 -0.014765376 -0.010093646 -0.013520092 -0.006746492 2.67105e-32 -0.0068667675
-0.012936285 -0.019072248 -0.006658862 -0.011598353 -0.0027960269 5.1365905e-28 -0.007880332 -7.247167e-30
-0.017408425 -0.013408694 -0.013865002 2.7632227e-30 -0.013735324 -9.452812e-31 -0.0158315 -0.01888758
-0.2162522 0.07026187 0.08972734 0.008514457 -0.017090349 -0.14089197 -0.0060460554 -0.21027783
-0.7729995 -0.0035922183 -0.009172803 -0.013381303 -0.054884136 0.016997743 0.019897364 -0.20488252
-0.06857263 -0.08408321 -0.2304716 0.058434665 -0.19572075 1.6126619e-17 -0.07006889 -5.178415e-31
0.01471364 0.06336571 0.064739764 -0.30230048 0.06892884 -0.0073083597 0.025725013 0.036296327

bias f4 [64]
00000000: 21ae 6ebc 1a98 4b3e c230 91bd 7ca6 96bc
00000010: 454e 633e 79a0 9abd e206 8cbb fd57 533f
00000020: 49c8 0c3f 8dd8 263d a529 32bd e865 2fbb
00000030: 0feb 743f 46b4 bfbe 6436 033e 19fe c8bc
00000040: 4a0c 483f 7cfa b5bd c32c 31be 6ae2 1a3f
00000050: 5ec6 f9be b4c9 a8bd dfc0 42be c3ab 9e3e
00000060: bdcd 403e b1fa a5b9 c69a 46be 742a 7bbb
00000070: c5e6 eabc ad35 ea3e 5e07 c13d 9a66 0d3e
00000080: 6aed 543a 1b9a 693e ccc4 df3e b531 99be
00000090: ae46 8dbd c1e6 6abb 87fe 613f c618 a4bd
000000a0: 6deb a5ba 1fe7 1dbf 2ca1 803e 25ab 1f3e
000000b0: 1490 a53d b00a e93d 9550 4d3f 6e3f 413f
000000c0: ee00 003f 6211 8c3d bbda d13d 1fe4 de3e
000000d0: b049 31bc 54d1 0abe 1bb3 cd3d 6fab af3d
000000e0: 0868 4bbc 13a6 67bc f216 043f c6bc 2d3e
000000f0: c906 95bc d567 8e3e 06dd a53b 558d f397
-0.014567883 0.19882241 -0.07089378 -0.018389933 0.22197826 -0.07550139 -0.0042732814 0.82556134
0.5499311 0.040733863 -0.043496747 -0.0026763622 0.9567117 -0.37442225 0.12813717 -0.024535226
0.7814375 -0.08885667 -0.17302231 0.6050173 -0.48784155 -0.08241597 -0.19018887 0.3099042
0.18828483 -0.00031658032 -0.19394979 -0.0038324865 -0.028674493 0.45744076 0.09425233 0.1380867
0.00081225357 0.22812693 0.43704832 -0.29920736 -0.06898247 -0.0035843106 0.88279 -0.08012538
-0.0012658663 -0.6168079 0.25122964 0.1559263 0.08084121 0.113789916 0.80201083 0.7548741
0.5000142 0.06839253 0.10246798 0.43533418 -0.010820791 -0.13556415 0.10043927 0.0857762
-0.01241494 -0.014138716 0.5159751 0.16966543 -0.018191712 0.27813593 0.0050617484 -1.5739184e-24
