model/304.096211910247803.pt (torch_old, 168315 bytes, 19 tensors)

weight f4 [256, 2]
0	0xbe4506a9	-0.19240822
1	0x3f2aa93c	0.6666448
2	0x3ee4864b	0.44633707
3	0x3e17a0ab	0.14807384
4	0xbeb373b6	-0.35049218
5	0xbbfe7952	-0.0077659274
6	0x3f30aa52	0.6900989
7	0xbf02d235	-0.51102
8	0xbef1b732	-0.4721008
9	0xbe6ea248	-0.23304093
10	0xbeaf2767	-0.3420975
11	0x3f0ccf3e	0.55003726
12	0x3e3d963d	0.18514343
13	0x3f1b1498	0.605783
14	0x3db062db	0.08612605
15	0xbeac222b	-0.33619818
16	0x3e96c108	0.29444146
17	0x3d5176fc	0.051138863
18	0x3ebf1c24	0.37326157
19	0xbe7cb9bb	-0.24680226
20	0xbe840e65	-0.25792232
21	0x3ef3de03	0.4763032
22	0xbcf9e9f7	-0.030507071
23	0xbed4376a	-0.41448528
24	0xbed9a0ab	-0.42505392
25	0xbf2d3f76	-0.6767496
26	0x3eb0ffd3	0.34570178
27	0xbd3346de	-0.043768756
28	0xbeb80d79	-0.3594778
29	0x3f32f7b1	0.699092
30	0x3e9c790a	0.30561095
31	0xbe866102	-0.26245886
32	0xbd9c94b1	-0.07645548
33	0x3e9e3234	0.30897677
34	0x3f1f27f1	0.6217032
35	0x3e9b913b	0.3038424
36	0xbf29c0d9	-0.6630989
37	0xbc8a0c77	-0.016851647
38	0x3eaba7ac	0.3352636
39	0xbde63f5e	-0.11242555
40	0x3ecbb8ef	0.3978953
41	0xbf015d7f	-0.5053329
42	0x3ea531a2	0.3226443
43	0x3f2e2d5e	0.68037975
44	0x3ec08a07	0.37605307
45	0x3d938286	0.0720263
46	0xbf35bbbd	-0.7098959
47	0xbe3e3cea	-0.18577924
48	0xbee2b79f	-0.44280717
49	0xbf457c29	-0.7714258
50	0x3e88ff37	0.26757213
51	0xbec2620e	-0.37965435
52	0x3d8bc689	0.06824977
53	0x3f2f7562	0.68538487
54	0x3d63d9d2	0.05562765
55	0x3d3ecab5	0.046580035
56	0xbea43bcc	-0.3207687
57	0x3f1788b5	0.59192973
58	0xbec0a29b	-0.37624058
59	0x3f23fe8e	0.64060295
60	0xbef31afc	-0.47481525
61	0xbf036cc4	-0.5133784
62	0x3f2ff542	0.6873361
63	0x3e1295e1	0.14314987
64	0x3f1c1809	0.60974175
65	0x3edda30e	0.43288463
66	0xbe7beeef	-0.24602865
67	0x3f19a9ea	0.60024893
68	0xbf34edea	-0.7067553
69	0xbd693a35	-0.056940276
70	0xbd853bab	-0.065055214
71	0x3e9629d2	0.2932878
72	0x3f42d0af	0.76099676
73	0x3bc3b195	0.005972097
74	0xbecb4b7d	-0.3970603
75	0x3ed76747	0.42070982
76	0x3ecb431a	0.39699632
77	0xbf05730b	-0.52128667
78	0xbf26d54e	-0.6516923
79	0xbd98a75b	-0.074537955
80	0xbf253f32	-0.64549553
81	0x3ef4a102	0.4777909
82	0x3e9349bf	0.287672
83	0x3ef4acec	0.4778818
84	0xbe495c30	-0.19664073
85	0xbe0bdbb0	-0.13658023
86	0xbea460ad	-0.32105008
87	0xbeb1975d	-0.34685794
88	0x3f35b425	0.70978004
89	0x3ddf21a1	0.10895086
90	0xbf176ab8	-0.59147215
91	0xbe0f9ff9	-0.14025868
92	0xbedc37ae	-0.4301123
93	0x3f016751	0.50548273
94	0x3f22a3db	0.63531274
95	0xbf3c8d04	-0.7365267
96	0x3ed4e2ea	0.41579372
97	0xbef35540	-0.47525978
98	0xbe0f8376	-0.14014992
99	0x3e494338	0.19654548
100	0xbe510d56	-0.20415244
101	0x3ef8644b	0.48514017
102	0x3eeae6f5	0.4587933
103	0x3ef41ebe	0.47679704
104	0x3f33fc95	0.70307285
105	0x3dbeea7a	0.093220666
106	0x3eab5619	0.33464125
107	0xbe437b12	-0.19089916
108	0xbed09421	-0.40738013
109	0x3f0aa336	0.5415529
110	0xbf234bde	-0.6378764
111	0x3f039fc9	0.5141569
112	0x3eb8af92	0.3607145
113	0x3ea3115d	0.31849185
114	0xbf2d59be	-0.6771506
115	0x3e6c53ad	0.23078795
116	0xbdf52ec1	-0.11971808
117	0x3ef9c9d2	0.4878679
118	0xbf1c086e	-0.6095036
119	0xbf1ef082	-0.62085736
120	0xbd8a1ff2	-0.06744374
121	0x3e37ac90	0.17936921
122	0x3e9b8a7c	0.30379093
123	0x3f0f8477	0.560615
124	0x3eae579f	0.34051225
125	0x3ed3e14b	0.41382822
126	0xbe9217d9	-0.2853382
127	0x3eb8766d	0.36027852
128	0xbe103b01	-0.14085008
129	0x3e91810e	0.28418773
130	0xbec4ff93	-0.38476238
131	0xbe6d053b	-0.23146527
132	0x3f03ba6f	0.5145635
133	0xbf04105c	-0.5158746
134	0xbf321211	-0.6955882
135	0xbcc7a93f	-0.024372695
136	0xbee28a69	-0.44246224
137	0x3eee6737	0.46563122
138	0xbea01ae2	-0.3127051
139	0x3d8d89e7	0.069110684
140	0xbf2f3e7a	-0.68454707
141	0x3c1a30bf	0.009411036
142	0x3f0ee784	0.55822015
143	0xbf2b5945	-0.6693309
144	0x3f11f1e9	0.5700975
145	0xbe5e6d69	-0.21721424
146	0x3e3524fd	0.17689891
147	0x3e9814fe	0.29703516
148	0xbed210e3	-0.4102851
149	0x3f1734ef	0.59065145
150	0xbecc8fa0	-0.39953327
151	0x3e9cc5d9	0.30619696
152	0xbdcfb920	-0.10142732
153	0x3de1f6a0	0.11033368
154	0x3cd14aec	0.02554842
155	0xbf31a34a	-0.69389784
156	0xbf1009d6	-0.5626501
157	0xbd8dd6a1	-0.06925703
158	0xbe893078	-0.2679479
159	0x3e84a0fb	0.25904068
160	0x3ed23400	0.41055298
161	0xbecf9ecf	-0.4055085
162	0xbf05ca11	-0.52261454
163	0xbedd9b38	-0.43282485
164	0x3e899d65	0.26877895
165	0x3d3189ec	0.043344423
166	0x3f05f031	0.5231963
167	0x3ef0a117	0.46997902
168	0x3e9d832b	0.30764136
169	0xbeb19d52	-0.34690338
170	0x3f00afc9	0.50268227
171	0xbf0aa2d3	-0.541547
172	0x3f28de93	0.6596462
173	0x3e23a4f8	0.159809
174	0xbe9ffba5	-0.31246677
175	0xbef8d87c	-0.48602664
176	0xbeec0eb5	-0.4610497
177	0x3ef70fff	0.48254392
178	0xbe19d7d9	-0.15023746
179	0x3f30fc7b	0.69135255
180	0x3e7b0c9d	0.2451653
181	0x3e7cd04a	0.24688831
182	0x3e518bf2	0.20463541
183	0xbe2ef24d	-0.17084618
184	0x3f346d0c	0.7047889
185	0x3f21fa16	0.63272226
186	0xbef7a720	-0.48369694
187	0x3ed95542	0.4244786
188	0x3ecf1518	0.4044578
189	0xbe0e18fa	-0.13876715
190	0x3ecc52b5	0.3990685
191	0x3f356ba1	0.70867354
192	0xbd6a3658	-0.057180732
193	0x3f36fe12	0.7148143
194	0x3eda1b99	0.4259918
195	0xbef7fb95	-0.4843413
196	0xbe1ecc98	-0.15507734
197	0xbebb2e75	-0.3655888
198	0xbe8c3ce5	-0.2739021
199	0x3e36fa80	0.17868996
200	0x3f458855	0.7716115
201	0xbd5f5a96	-0.05452975
202	0x3eed9386	0.46401614
203	0xbf103cd7	-0.56342834
204	0x3f123118	0.5710616
205	0x3eaa749a	0.33292085
206	0xbf340ba3	-0.70330256
207	0xbf0b81bf	-0.5449485
208	0x3e59a90d	0.21255894
209	0x3f1d5bf2	0.6146842
210	0xbedfbead	-0.43700162
211	0x3f099aae	0.5375165
212	0xbf07c2a4	-0.53031373
213	0xbea1b740	-0.3158512
214	0xbef6e39c	-0.48220527
215	0x3f2b56f3	0.6692955
216	0xbf1bff89	-0.6093679
217	0xbefe31aa	-0.49647266
218	0x3cdadbdf	0.02671617
219	0xbefb8d5d	-0.4913129
220	0xbe4e426f	-0.2014253
221	0x3f03dfd4	0.5151341
222	0xbf1ed58c	-0.62044597
223	0xbe8ab15f	-0.27088448
224	0x3f0dbb9a	0.5536438
225	0x3f06a500	0.5259552
226	0xbe8424ca	-0.25809318
227	0xbe0555f4	-0.1302107
228	0xbe8792c6	-0.26479167
229	0x3e49fff9	0.19726552
230	0xbed640e9	-0.41846398
231	0xbf15720f	-0.58377165
232	0xbe0ff154	-0.14056903
233	0x3e832f47	0.25622007
234	0xbeca29fb	-0.39485154
235	0x3f22fe06	0.6366886
236	0xbe941187	-0.28919622
237	0x3eaf069d	0.34184733
238	0xbec40d71	-0.38291505
239	0xbf0975c3	-0.53695315
240	0xbe8dfdae	-0.27732605
241	0xbdd4d48a	-0.10392101
242	0x3f20e6a2	0.6285192
243	0xbed7e343	-0.42165574
244	0x3ee5e991	0.4490476
245	0x3f216c09	0.63055474
246	0x3f2d3bae	0.6766919
247	0xbe1a6ab6	-0.1507977
248	0x3f317b2b	0.69328564
249	0xbed653a0	-0.41860676
250	0x3dcbbc92	0.09948076
251	0x3e21c9ad	0.1579959
252	0xbf25a4d5	-0.6470464
253	0x3f28cb57	0.6593527
254	0x3ce2d19e	0.027687844
255	0x3f0d13e9	0.55108505

bias f4 [256]
0	0x3db37574	0.08762637
1	0x3e4537dd	0.19259591
2	0x3f36b5f8	0.7137141
3	0x3e461dfd	0.19347377
4	0x3e45eff5	0.19329818
5	0x3e4fb2bc	0.20283026
6	0xbe93e30d	-0.28884163
7	0x3cfe50c5	0.031044373
8	0xbc466b71	-0.012110577
9	0x3e81a917	0.25324318
10	0xbed6e7d9	-0.4197376
11	0x3ec5cbc7	0.38632032
12	0x3e012427	0.12611447
13	0xbf24c950	-0.6436968
14	0x3f0d3816	0.55163705
15	0xbc9fcfeb	-0.019508323
16	0xbf02533c	-0.50908256
17	0x3f3be7a6	0.7340034
18	0x3ece1527	0.40250513
19	0xbf035abc	-0.51310325
20	0xbe24ff41	-0.16112997
21	0x3e380bfb	0.1797332
22	0xbe89a3a6	-0.26882666
23	0xbdd1043b	-0.10205885
24	0xbc1d2d28	-0.009593286
25	0x3f3fee23	0.7497274
26	0x3f03cd70	0.5148535
27	0x3e5b76b5	0.21432002
28	0xbf02679e	-0.5093936
29	0xbec5c6fb	-0.38628373
30	0xbd78090d	-0.060555506
31	0x3f3bacd6	0.733106
32	0x3d98ba20	0.074573755
33	0xbe622dce	-0.22087786
34	0x3df18241	0.11792422
35	0x3e1ab622	0.1510854
36	0x3dc5df66	0.096617505
37	0x3f0a062a	0.53915656
38	0x3f1ce90f	0.6129312
39	0xbef95702	-0.48699194
40	0xbe8b46ce	-0.27202457
41	0x3f14ed6e	0.5817479
42	0xbecb25c4	-0.3967725
43	0xbf0cf48c	-0.5506065
44	0xbf325cbc	-0.6967275
45	0x3ecb3da2	0.3969546
46	0xbeea6c3f	-0.4578571
47	0x3f0252b2	0.50907433
48	0x3dec1856	0.11528079
49	0xbf25e48e	-0.6480187
50	0xbe92e199	-0.28687742
51	0xbe72690c	-0.23672885
52	0xbdada0c3	-0.084779285
53	0xbe7e1199	-0.248114
54	0xbead2e28	-0.33824277
55	0x3f2191c6	0.6311306
56	0x3f030ebf	0.51194376
57	0xbe449858	-0.1919874
58	0xbee3ef8a	-0.4451869
59	0xbf27bf4a	-0.6552626
60	0xbc909a66	-0.017651748
61	0xbe9af428	-0.302644
62	0xbe6bd1ca	-0.23029247
63	0x3f3e2143	0.74269503
64	0x3f049d9d	0.51803
65	0x3e13bf86	0.14428529
66	0xbf01f3db	-0.5076272
67	0xbefd7344	-0.49502003
68	0x3ee52e1f	0.4476175
69	0x3f58573b	0.84508103
70	0x3e660c61	0.2246566
71	0x3e8aa1b9	0.2707651
72	0xbe2ffee0	-0.17187071
73	0x3e67fd86	0.22655305
74	0x3ebd0cfe	0.36923975
75	0x3ef057eb	0.46942076
76	0x3ef519e7	0.47871324
77	0x3eec93a2	0.46206385
78	0x3f2f91b7	0.6858172
79	0x3ef50333	0.47854003
80	0xbecb88b5	-0.39752737
81	0xbe87ce62	-0.26524645
82	0x3ec14589	0.37748364
83	0xbe6e6c4d	-0.23283501
84	0x3dc5a9a0	0.09651494
85	0xbe5b1ce1	-0.21397735
86	0x3f3c8919	0.73646694
87	0x3e559a51	0.20859648
88	0xbe184d64	-0.14873272
89	0xbf0c3d58	-0.54781103
90	0xbeea7689	-0.4579356
91	0xbe8ed9eb	-0.27900633
92	0xbe68fbbf	-0.22752284
93	0x3f349b88	0.7054982
94	0xbb904731	-0.004403018
95	0xbec5fc76	-0.38669175
96	0x3ae7a77f	0.0017673819
97	0x3dbc94e2	0.09208085
98	0xbdb39f63	-0.08770635
99	0xbef15208	-0.47132897
100	0xbf1d1f1b	-0.6137559
101	0x3e9e45f0	0.30912733
102	0xbe8b28a5	-0.27179447
103	0x3e08154b	0.13289373
104	0xbb5d1ee2	-0.0033740331
105	0x3f3afc39	0.7304111
106	0x3e88a0c3	0.2668515
107	0x3e318042	0.17334083
108	0xbe3d3cbd	-0.18480201
109	0x3f066774	0.52501607
110	0x3bdb3b22	0.006690399
111	0xbcb53724	-0.02212102
112	0x3dae1f9c	0.08502123
113	0x3e5bea3d	0.21476074
114	0xbd37c13b	-0.044862013
115	0xbf13ff11	-0.57811075
116	0x3c9bbf70	0.019012183
117	0x3e915729	0.2838681
118	0xbf180869	-0.5938783
119	0xbe6b4909	-0.2297708
120	0x3f352d42	0.7077218
121	0xbd8e2f24	-0.06942585
122	0xbeb1e508	-0.3474505
123	0xbeacdb85	-0.3376123
124	0xbf0d6404	-0.55230737
125	0x3f064f78	0.5246501
126	0x3d27b069	0.040939722
127	0x3f3f12e2	0.7463819
128	0x3f0db935	0.5536073
129	0xbef651e4	-0.48109353
130	0x3d27e21a	0.04098711
131	0x3d9366d0	0.07197344
132	0xbeb06a12	-0.34455925
133	0x3f132286	0.57474554
134	0x3ef1d5df	0.47233483
135	0xbe78a049	-0.24279894
136	0x3ef590cf	0.47962043
137	0xbf039ced	-0.51411325
138	0x3d3cf6b9	0.04613373
139	0x3f176f19	0.59153897
140	0xbe3b6a28	-0.18302214
141	0xbd0ba416	-0.03409203
142	0x3e5fbd37	0.21849523
143	0x3f33008d	0.69922715
144	0x3eb70771	0.35747865
145	0x3da30cfe	0.079614624
146	0xbe6b8a4b	-0.23001973
147	0x3e5fb088	0.21844685
148	0xbe43d0b2	-0.1912258
149	0xbe6854b7	-0.22688566
150	0x3ec58b2e	0.38582748
151	0x3efe88dc	0.4971379
152	0x3d5b001f	0.053466912
153	0xbed38fe5	-0.4132072
154	0x3ee4090f	0.4453816
155	0xbf0ae06d	-0.54248697
156	0xbdc89768	-0.097945035
157	0xbe1301de	-0.14356181
158	0x3f1b9fc9	0.6079069
159	0x3f37786a	0.7166811
160	0xbf0120c5	-0.5044063
161	0xbdc8c28b	-0.09802731
162	0x3e955bc7	0.29171583
163	0x3efad1c5	0.48988166
164	0xbe31fcfd	-0.17381664
165	0xbe8f8440	-0.28030586
166	0xbe239d93	-0.15978079
167	0xbe55e871	-0.2088945
168	0x3f1eb8bc	0.6200063
169	0x3e83fef9	0.25780466
170	0x3f101308	0.5627904
171	0x3e0fe0aa	0.14050546
172	0x3eec9c92	0.46213204
173	0x3f198821	0.5997334
174	0xbefd0558	-0.4941814
175	0xbe64d96e	-0.22348568
176	0x3f1f0007	0.62109417
177	0x3f0d4fc3	0.5519983
178	0xbee5b651	-0.4486566
179	0xbe88b38c	-0.26699483
180	0x3f154472	0.58307564
181	0xbe889636	-0.26677102
182	0xbd997774	-0.07493487
183	0xbee0b465	-0.4388763
184	0x3ed7bdad	0.421369
185	0x3e9d37f3	0.30706748
186	0xbf14fbd0	-0.58196735
187	0xbe7c4a79	-0.24637784
188	0xbe871967	-0.26386568
189	0x3ec66019	0.38745192
190	0x3e105256	0.14093909
191	0x3e05bf9d	0.13061376
192	0xbeaadb56	-0.33370465
193	0x3eaf674d	0.342585
194	0x3e9fb63c	0.3119372
195	0xbea350df	-0.31897637
196	0xbec2b43a	-0.38028127
197	0xbecc4fe8	-0.39904714
198	0xbf0ff232	-0.56228936
199	0x3e911e76	0.28343552
200	0xbf051252	-0.5198108
201	0xbea075f3	-0.31339988
202	0xbf07bf7c	-0.53026557
203	0x3e4ab3ed	0.19795199
204	0xbea4fce6	-0.32224196
205	0x3f0780bb	0.529308
206	0x3e8a77dc	0.2704457
207	0xbe507b62	-0.20359567
208	0xbea1d494	-0.31607497
209	0xbda372c3	-0.079808734
210	0xbe52609a	-0.20544663
211	0x3e08a2c6	0.13343343
212	0x3eb35b1b	0.35030445
213	0xbeba08b5	-0.36334768
214	0xbeadb7d5	-0.33929315
215	0x3ee86215	0.4538733
216	0x3f08aeb6	0.5339159
217	0xbd9eedc3	-0.07760193
218	0xbef524a3	-0.47879514
219	0x3e8f7b38	0.28023696
220	0x3f1babc3	0.6080896
221	0x3de9e04d	0.11419735
222	0x3e89360e	0.26799053
223	0x3e99c82c	0.30035532
224	0x3f165709	0.58726555
225	0x3d0e1b7f	0.03469419
226	0x3f356e78	0.70871687
227	0xbf0d606c	-0.55225253
228	0x3eac4e5b	0.3365353
229	0x3e9ccbf1	0.30624345
230	0xbed2cc98	-0.41171718
231	0x3f0086d0	0.5020571
232	0xbe6b4a70	-0.22977614
233	0x3f057d73	0.52144545
234	0x3ed9b459	0.42520407
235	0x3f34a75c	0.7056787
236	0xbd4c6b16	-0.049906813
237	0x3f3715a1	0.7151738
238	0xbea94f75	-0.33068433
239	0x3f4310ee	0.7619771
240	0x3eaa2446	0.332308
241	0x3f1fe7fe	0.62463367
242	0x3f4bce69	0.7961183
243	0x3efe6220	0.49684238
244	0x3efd0c59	0.49423483
245	0x3e4765eb	0.19472472
246	0xbd282b69	-0.041057024
247	0xbe266501	-0.16249467
248	0x3f0120c3	0.50440615
249	0x3f256c88	0.6461873
250	0xbf03788a	-0.51355803
251	0xbefb17d1	-0.49041608
252	0x3f04ee90	0.5192652
253	0x3d52bcbe	0.05144953
254	0x3db7fa17	0.08983248
255	0x3ee7106b	0.45129713

weight f4 [64, 256]
0	0x3c897729	0.016780453
1	0x3cc5c290	0.024140626
2	0x3d4775ea	0.048696436
3	0x3de3e053	0.11126771
4	0x3b50fa57	0.0031887495
5	0x3cd983b9	0.026552068
6	0x3d319b19	0.043360803
7	0x3cad1af5	0.021131018
8	0x3dc96146	0.098330066
9	0x3ddf5cbc	0.109063596
10	0x3d0bd566	0.03413906
11	0xbc7179a5	-0.014738475
12	0x3d2484f2	0.04016585
13	0x3d53a6bf	0.051672693
14	0x3bf33089	0.0074215573
15	0x3d1ca790	0.038245738
16	0x3b8ac5c0	0.0042349994
17	0x3d8cc384	0.06873229
18	0xbd45f859	-0.048332546
19	0x3d6c9201	0.057756428
20	0xbd067731	-0.032828514
21	0xbbde61e2	-0.006786571
22	0x3daeced2	0.085355416
23	0x3ce343eb	0.027742347
24	0xbcd6ab91	-0.026204856
25	0x3d2ff333	0.042956542
26	0x3d54d125	0.05195727
27	0x3d9eeb1f	0.077596895
28	0xbca6979e	-0.020335969
29	0x3d9c5c98	0.07634848
30	0x3c5f863d	0.013642845
31	0x3d8a1e0d	0.06744013
32	0x3d12dc31	0.035854522
33	0xba9bdf9a	-0.00118922
34	0xbcb342f5	-0.021882514
35	0x3d0ae41b	0.033908945
36	0x3da9e3bb	0.08295389
37	0x3d86c6d7	0.065808944
38	0x3cfeb21d	0.03109079
39	0x3cdfa7f0	0.027301759
40	0x3d3cb9ac	0.046075508
41	0x3d99967c	0.07499406
42	0xbca76768	-0.02043505
43	0x3cd66b88	0.026174322
44	0x3bf6c9ab	0.007531365
45	0xba7a36eb	-0.00095449266
46	0x3dbea929	0.093096085
47	0x3c826ad6	0.015920084
48	0x3c26b121	0.010174067
49	0x3df84c26	0.12123899
50	0xbcc18a29	-0.02362545
51	0x3d97acde	0.07406019
52	0x3d429ed0	0.047514737
53	0x3d011945	0.03151824
54	0x3b2cf4e2	0.0026391079
55	0x3d97aa68	0.07405549
56	0xbc38a736	-0.011270335
57	0xbc0c669f	-0.008569389
58	0x3b260ca2	0.002533712
59	0xbb4fa16e	-0.0031681913
60	0x3b714db7	0.0036820003
61	0x3cfd60e5	0.030929992
62	0x3cb78476	0.02240203
63	0x3bdc8ebe	0.0067308834
64	0xbd6653d5	-0.056232292
65	0xbcd525da	-0.026019026
66	0x3dbcfb1f	0.09227585
67	0x3c81d00b	0.015846273
68	0x3d77e741	0.060523275
69	0xbcc5294f	-0.024067549
70	0x3bdbddf3	0.006709808
71	0x3d961056	0.073273346
72	0x3d04f024	0.03245558
73	0x3d8d134c	0.06888446
74	0xbcae0c59	-0.021246122
75	0x3b2da06a	0.002649332
76	0x3d15e7da	0.036598064
77	0xbbf5574d	-0.0074872137
78	0x3d46ec21	0.048565034
79	0x3ccaaca1	0.024740519
80	0x3da8d620	0.08243966
81	0xbd46cbfa	-0.04853437
82	0x3d5bc507	0.053654697
83	0x3d2057c1	0.03914619
84	0x3d030779	0.03198955
85	0xbc3030fc	-0.010753866
86	0x3db2e60c	0.08735284
87	0x3c6d1c4b	0.014472078
88	0xbc46590a	-0.0121061895
89	0xbd37c73e	-0.044867747
90	0x3d401d13	0.046902727
91	0x3d61087d	0.054939736
92	0xbcd97cc4	-0.02654875
93	0x3d27849b	0.040897947
94	0x3cbc13f3	0.022958731
95	0x3cd05f8a	0.025436182
96	0xbd26f2ff	-0.040759083
97	0x3d442615	0.04788788
98	0x3cec008f	0.02880886
99	0x3d1d48f3	0.038399648
100	0x3d62743e	0.05528664
101	0x3d6d5e3c	0.057951197
102	0x3a416487	0.00073773455
103	0xbd379192	-0.04481656
104	0xbce243ec	-0.027620278
105	0xbc81d5b6	-0.015848976
106	0xbc25a56c	-0.01011024
107	0xbd117cda	-0.03551946
108	0xba121df2	-0.000557392
109	0xbcd54547	-0.02603401
110	0x3b8cb43f	0.004293948
111	0xbc0d37cf	-0.008619263
112	0x3d7dc620	0.061956525
113	0xbb979d9a	-0.004626942
114	0x3da08ee3	0.078397535
115	0xbbd436c6	-0.006476256
116	0xbd22891c	-0.03968154
117	0xbd639b79	-0.055568192
118	0x3cbcb5ad	0.023035849
119	0xbb42b490	-0.0029709674
120	0xbcb6c909	-0.022312658
121	0x3ddd8ed6	0.108182594
122	0x3ca50bdc	0.020147257
123	0x3ade5139	0.0016961462
124	0x3d2cb16b	0.042161386
125	0xbcf0c369	-0.029390054
126	0x3ad3b7dc	0.0016152817
127	0x3d6f2581	0.058385376
128	0xbca3548c	-0.019937776
129	0x3d2a8732	0.04163284
130	0x3d359ca4	0.044338837
131	0x3cbfd585	0.023417244
132	0xbd49d912	-0.04927928
133	0x3bcc745c	0.006239457
134	0x3db53205	0.08847431
135	0x3ce4f340	0.027948022
136	0x3cfb0d1a	0.030645896
137	0x3d76b04f	0.060226735
138	0x3c84bac6	0.016202342
139	0xbc523ffd	-0.012832639
140	0x3cf8daa1	0.030377688
141	0x3aa12021	0.00122929
142	0xbd14a82e	-0.0362932
143	0xbcb3923e	-0.02192032
144	0x3cd84e53	0.026404535
145	0xbb25ce0c	-0.0025299815
146	0xbc1ae797	-0.009454629
147	0x3ba0f621	0.0049121534
148	0xbc60cc7d	-0.013720629
149	0x3d282507	0.041050937
150	0x3d44da4a	0.04805974
151	0xbca336b9	-0.019923555
152	0xbb834537	-0.004006054
153	0x3d5e73a2	0.054309495
154	0xbcf2e438	-0.029649839
155	0x3d1bc7d9	0.038032386
156	0x3d2b72cc	0.041857526
157	0x3da7cf2b	0.08193811
158	0xbcb9264d	-0.022601271
159	0xbbe1c995	-0.0068904855
160	0x3c90b405	0.017663965
161	0xbd6827c5	-0.056678552
162	0xbce44740	-0.027866006
163	0x3cfa92dc	0.030587606
164	0xbc0edac6	-0.008719152
165	0x3c504a52	0.012713032
166	0xba196170	-0.0005851006
167	0x3da9776a	0.082747295
168	0x3cb0ff53	0.021606123
169	0x3c1506d6	0.009095868
170	0xbc8d85c6	-0.017275702
171	0xbd57eb0a	-0.052714385
172	0x3d3fb4d4	0.04680331
173	0x3c773268	0.015087701
174	0xbbf96f84	-0.0076121707
175	0x3d960461	0.07325054
176	0x3c113ea3	0.008865031
177	0xbc5789bd	-0.013155398
178	0xba1839d3	-0.00058069563
179	0x3c94264d	0.01808467
180	0xb980a39f	-0.0002453597
181	0x3da12cb0	0.078698516
182	0xbd2d7bd9	-0.04235444
183	0xbd416331	-0.047213737
184	0xbc826a7c	-0.015919916
185	0x3d2a04de	0.041508548
186	0x3d171adc	0.03689085
187	0x3d50d45e	0.05098378
188	0x3d7806ad	0.06055324
189	0xba427940	-0.00074185804
190	0x3cb3a02a	0.021926958
191	0x3d2881a3	0.041139256
192	0x3c9fb5fa	0.019495953
193	0x3de716f9	0.112836786
194	0xbcc6ed26	-0.024283003
195	0x3d9e1af9	0.077199884
196	0x3da16ef0	0.07882488
197	0xbd307475	-0.043079812
198	0x3b5ddc8a	0.0033853375
199	0xbc315746	-0.01082403
200	0x3c0c2af9	0.008555167
201	0x3d105ac6	0.03524282
202	0x3da2f155	0.07956187
203	0xbcee9abb	-0.029126516
204	0xbcf211e3	-0.029549545
205	0xbd21007a	-0.039307095
206	0x3daa2be5	0.083091535
207	0xbcd76630	-0.026293844
208	0x3cc0d4e3	0.023539012
209	0x3d304639	0.04303572
210	0xbabb6222	-0.0014296214
211	0x3d81705a	0.063202575
212	0x3c76a543	0.01505405
213	0xbd7e7ea6	-0.0621325
214	0x3dc2e1fe	0.09515761
215	0x3db34cf0	0.08754909
216	0x3d6db4ca	0.058033742
217	0x3d15c666	0.03656616
218	0xbd23dabd	-0.040003527
219	0xbd60d7f4	-0.05489345
220	0x3b7ac115	0.0038262059
221	0xbb13eecf	-0.002257276
222	0x3d1229eb	0.035684507
223	0xbc8ce949	-0.017201083
224	0x3ba0a860	0.0049028844
225	0x3d3477c3	0.044059526
226	0xbd74b9c1	-0.05974746
227	0xbd03abcf	-0.03214627
228	0x3b5cdb9e	0.0033700238
229	0xbd2da962	-0.042397864
230	0x3d1a6860	0.037697196
231	0x3d92d7d4	0.07170072
232	0x3cc97cc1	0.02459562
233	0xbc16e234	-0.009209204
234	0x3b94c6c0	0.0045402944
235	0x3bf975b1	0.007612907
236	0x3b1f1612	0.002427463
237	0x3d051e89	0.032499824
238	0xbd1be637	-0.038061347
239	0x3c7e9d63	0.015540454
240	0xbd9a8b89	-0.075461455
241	0x3b86017a	0.0040895315
242	0x3d5268dd	0.051369537
243	0x3b89ca82	0.004205049
244	0x3d5c9cb6	0.05386039
245	0x3d3ade8c	0.045622393
246	0x3ca41fd8	0.020034716
247	0x3d130139	0.035889838
248	0x3de97951	0.114000924
249	0xbcb49dcf	-0.022047905
250	0xbcd2960b	-0.025706312
251	0x3cae1d05	0.021254072
252	0x3d769114	0.06019695
253	0x3b9dbf1d	0.0048140422
254	0xbc2765eb	-0.01021717
255	0xbcf75ddc	-0.030196123

bias f4 [64]
0	0xbc626d4f	-0.0138200065
1	0x3d9e3366	0.07724647
2	0xaf964799	-2.7335714e-10
3	0xbc903f4f	-0.017608313
4	0x3e1993a5	0.14997728
5	0xbaafc46f	-0.0013409982
6	0x3d4d8746	0.050177835
7	0x3b79b072	0.0038099554
8	0x3db2dcda	0.0873353
9	0x3dbd66b2	0.09248103
10	0xbd2f20f7	-0.042756047
11	0x3db34dc7	0.08755069
12	0x3d483aa1	0.048884038
13	0xbd5d32fd	-0.054003704
14	0x3d782b0b	0.060587924
15	0x3cc59cf6	0.024122696
16	0xbdc529da	-0.09627123
17	0x3dd26ce7	0.10274678
18	0x3d78b948	0.060723573
19	0xbc140fe4	-0.009036992
20	0xb31f9b57	-3.7161353e-08
21	0x3d235e41	0.03988481
22	0xbdbcf513	-0.09226432
23	0x3d7b73dd	0.061389793
24	0x3d09656e	0.033543997
25	0x3d24cbc4	0.04023339
26	0xba1c1da7	-0.0005955346
27	0x3a73eb47	0.00093047734
28	0xbc2efe8a	-0.010680804
29	0x3c21147b	0.009831543
30	0x3dcae2e6	0.09906559
31	0xbda284eb	-0.07935508
32	0x3e0d493d	0.1379747
33	0x3e0cc873	0.1374834
34	0xbd785b77	-0.060634103
35	0xbb313867	-0.0027041675
36	0xbd1636b6	-0.03667327
37	0xbd8df025	-0.069305696
38	0xbc9e81da	-0.019349027
39	0x3dc1c3d1	0.09461177
40	0x3d752929	0.059853707
41	0x3e07883f	0.13235568
42	0x3e41cde6	0.189262
43	0x3e66b372	0.2252939
44	0xbc270c8d	-0.010195863
45	0x3be74ad2	0.00705848
46	0x3cea6803	0.02861405
47	0xbb31edac	-0.002714972
48	0x3d74232a	0.059603848
49	0xbe0c5f59	-0.13708247
50	0x3dd19abf	0.102345936
51	0x3e3c5823	0.18392996
52	0x3de5df9d	0.112242915
53	0xbb8049e8	-0.0039150603
54	0x3e41091a	0.18851128
55	0x3cc3ae1c	0.023886733
56	0x3c7cb6db	0.0154244555
57	0x3d9cff07	0.0766583
58	0xbd224afe	-0.0396223
59	0xbcdbbf74	-0.02682469
60	0x3e1a7e17	0.15087162
61	0x3c3d4367	0.0115517145
62	0xbd431dac	-0.04763572
63	0x3e0b7998	0.13620603

weight f4 [32, 64]
0	0x3d45ae83	0.04826213
1	0x3db1a28b	0.08673581
2	0x2b1fc5b2	5.6762505e-13
3	0xbc1d3338	-0.009594731
4	0x3d89687c	0.06709382
5	0xb7bb0548	-2.2294596e-05
6	0x3d2e07df	0.042487975
7	0x3e138654	0.14406711
8	0x3d818cd4	0.06325689
9	0x3d339ede	0.04385268
10	0x399c4fb4	0.00029814022
11	0x3e15fd4e	0.1464741
12	0xbe1cd956	-0.15317282
13	0x3c6c9802	0.014440538
14	0x3df183d4	0.11792722
15	0xbe6e98d6	-0.2330049
16	0xbd786e79	-0.06065223
17	0x3c2f90a3	0.010715636
18	0x3dc8aa66	0.09798126
19	0xbdde9d10	-0.10869801
20	0x38f4eb3f	0.00011678645
21	0x3cde107f	0.027107475
22	0xbdbc3a5e	-0.0919082
23	0xbd40f5e3	-0.047109496
24	0xbdc63f9a	-0.096801
25	0x3c3aa2fe	0.011391399
26	0xba227277	-0.0006196866
27	0xbdcfc13b	-0.10144278
28	0xbd221b14	-0.039576605
29	0xbd33d7ca	-0.043906964
30	0xbda0a155	-0.07843272
31	0xbb1023f1	-0.002199408
32	0x3d232d38	0.039838046
33	0x3dc1d4b5	0.09464399
34	0xbe479b59	-0.19492854
35	0xb9fdf3e4	-0.00048437633
36	0x3cf7439e	0.03018361
37	0xbd4b4cd3	-0.049633812
38	0xbdbb90ce	-0.09158479
39	0x3d7172cb	0.058947366
40	0x3dfd0b55	0.12355677
41	0x3d5ce665	0.05393066
42	0x3dc42c98	0.09578818
43	0x3c9bbf8e	0.019012239
44	0x3e0f946f	0.14021467
45	0xbc24fcde	-0.010070054
46	0xbc1dc7d9	-0.009630167
47	0x3dbd562b	0.09244951
48	0xbc9a71a4	-0.018853016
49	0xbd503f33	-0.05084152
50	0xbd9f8223	-0.077884935
51	0xbd657b82	-0.05602599
52	0x3e057e45	0.13036449
53	0x3b9194b1	0.004442774
54	0x3d5677f2	0.052360483
55	0xbc8f3a7c	-0.017483942
56	0xbdab67cd	-0.08369408
57	0x3d8ec046	0.06970267
58	0xbe0524f9	-0.13002385
59	0x3dbd60f3	0.09247007
60	0x3d2ceecf	0.042219933
61	0xbd4c899c	-0.049935922
62	0xbca43776	-0.020045977
63	0xb9b8e2c8	-0.0003526418
64	0x3d53190b	0.051537555
65	0x3c1f35fd	0.009717462
66	0x290af00e	3.085037e-14
67	0xbc395bef	-0.011313423
68	0xbd1c999c	-0.03823243
69	0x2ec353e8	8.882478e-11
70	0x3cf14d84	0.029455908
71	0x3c81c0ed	0.015839064
72	0x3cd6c2c6	0.026215922
73	0x3d4c656c	0.04990141
74	0xbe50f45e	-0.20405719
75	0x3dcbff81	0.09960843
76	0xbd822c18	-0.063560665
77	0xbe55d6d2	-0.20882729
78	0x3dd68e64	0.104763776
79	0xbe46eb90	-0.19425797
80	0x3a731a75	0.0009273657
81	0xbb75e72f	-0.003752183
82	0xbd6003a9	-0.05469099
83	0xbdc8a415	-0.09796921
84	0xaacfce06	-3.6913544e-13
85	0xbbef44fb	-0.0073019243
86	0xbd06b6eb	-0.032889288
87	0xbcd8e9a0	-0.026478589
88	0x3d496ea9	0.0491778
89	0x3df33de3	0.11877038
90	0xb05c72c6	-8.0198637e-10
91	0xbd600f63	-0.054702174
92	0xbe272506	-0.16322717
93	0x3e0525ee	0.1300275
94	0x3da2ff35	0.07958833
95	0xbe1828c0	-0.14859295
96	0x3dac2974	0.08406344
97	0x3b4e3f16	0.0031470708
98	0xbdbb960c	-0.091594785
99	0xb192cd2f	-4.272486e-09
100	0xbd0c41fd	-0.03424262
101	0xbe20b6f1	-0.15694787
102	0xbe8a4a22	-0.27009684
103	0x3d99ede6	0.07516079
104	0x3dd82e15	0.105556644
105	0x3d8cd4e6	0.06876545
106	0xbcc23194	-0.023705281
107	0x3e1be7be	0.15225121
108	0xbd6b06e9	-0.057379637
109	0x3d035d19	0.032071207
110	0x3d634510	0.055485785
111	0x3d120800	0.03565216
112	0x3e134d88	0.14385045
113	0xbdeca241	-0.11554385
114	0x3e1c9a9e	0.15293357
115	0x3d55065f	0.05200803
116	0x3cbaa1e6	0.022782277
117	0x3b94f7ed	0.0045461566
118	0x3d6a62b5	0.05722304
119	0xbd7b8482	-0.061405666
120	0x3dfb22c4	0.122624904
121	0xbd62f99a	-0.05541382
122	0xbe25423c	-0.16138548
123	0xbe69164f	-0.22762416
124	0xbaaccf35	-0.0013184311
125	0x3db85d1a	0.09002133
126	0xbdd15607	-0.102214865
127	0x3dc30658	0.09522694
128	0x3d7012c5	0.05861165
129	0xbdcb7a53	-0.09935441
130	0xa18ff1da	-9.754074e-19
131	0xbd13590c	-0.035973594
132	0xbdd3bfff	-0.10339355
133	0xad8d8b37	-1.6091668e-11
134	0xbe6112d9	-0.21979846
135	0x3d22ea4d	0.039774228
136	0x3d93f659	0.072247215
137	0x3db0f994	0.08641353
138	0x3c55f5c8	0.013059087
139	0x3ce7f38b	0.028314373
140	0x3e390551	0.18068434
141	0x3e013fdd	0.12622018
142	0xbe3c2e3d	-0.18377014
143	0x3e63d200	0.22248077
144	0xbde5da8d	-0.11223326
145	0xbd00b4ce	-0.03142243
146	0x3d3a5370	0.04548973
147	0x3e1f14b6	0.15535244
148	0x36f56e51	7.3144115e-06
149	0x3b96d46c	0.0046029594
150	0xbe73ecf1	-0.23820855
151	0xbe288b65	-0.16459425
152	0xbe1d7a8f	-0.15378784
153	0xbe55d8e0	-0.20883512
154	0xbcaef0a6	-0.021354984
155	0x3deb7bed	0.11498246
156	0xbda43a79	-0.08018965
157	0xbcff5f9e	-0.031173524
158	0x3d067dbb	0.03283475
159	0xbcf3bd49	-0.029753344
160	0xbd83572e	-0.064131126
161	0x3dd6c6e7	0.10487156
162	0x3e30411d	0.17212339
163	0x3cbdb320	0.023156703
164	0x3cf0ff0d	0.029418493
165	0xbe7925a2	-0.24330762
166	0x3d9d6d45	0.07686857
167	0xbdb7d4d5	-0.08976141
168	0xbe3163cd	-0.17323227
169	0xbba25e85	-0.0049551153
170	0xbd53f3c7	-0.051746156
171	0x3d26c7c7	0.040717866
172	0xbe0997d1	-0.1343682
173	0xbe5556d5	-0.20833905
174	0xbcaedf51	-0.02134672
175	0xbd0b5ab0	-0.034022033
176	0xbd19efac	-0.037582085
177	0xbdf6767e	-0.12034319
178	0xbcc35921	-0.02384621
179	0x3d7bf455	0.06151231
180	0x3d0f29c8	0.034951955
181	0xbb9b6a9e	-0.0047429344
182	0x3cd05ab8	0.025433883
183	0xbe77bf65	-0.24194105
184	0x3e3ddf4e	0.18542215
185	0xbe4f90a7	-0.20270024
186	0x3da04e99	0.07827491
187	0x3e0a20a7	0.13489018
188	0xbd8a59e8	-0.067554295
189	0xbe85dab5	-0.26143423
190	0x3c0e49a0	0.008684546
191	0x3df16b90	0.11788094
192	0x3a0c9169	0.0005362244
193	0x3d5d2c18	0.05399713
194	0xb9218f31	-0.000154075
195	0x2bdc9af4	1.5674948e-12
196	0xbbc8e7f4	-0.0061311666
197	0x3a81aee6	0.0009894043
198	0x3d914d40	0.070948124
199	0xbc58eaa8	-0.01323954
200	0xbb0fb055	-0.002192517
201	0x3b1d7b28	0.0024029706
202	0xbb765e15	-0.0037592698
203	0x38f8c629	0.00011862472
204	0xb915f83e	-0.00014302225
205	0x3d0a8df7	0.033826794
206	0x3ceaa18d	0.028641487
207	0xb98a2ebe	-0.00026356237
208	0xbb9fa91e	-0.0048724553
209	0xb90d100c	-0.00013452786
210	0xbb9449c7	-0.0045253965
211	0xbb1ffe88	-0.0024413187
212	0xb6f004fd	-7.153138e-06
213	0xbd49fda3	-0.049314152
214	0xbd369a3b	-0.04458068
215	0xb68c3496	-4.178447e-06
216	0xbabf0ed1	-0.0014576559
217	0x3d19f496	0.03758677
218	0x3b51d296	0.0032016388
219	0xbbc2f9fe	-0.0059502115
220	0xbc8396bb	-0.016063085
221	0x375571eb	1.2722313e-05
222	0xbbcb6f48	-0.006208334
223	0xbd9f0f82	-0.0776663
224	0xba228f6e	-0.0006201182
225	0xba4e2888	-0.0007864316
226	0xbb7fac19	-0.003901249
227	0x36437925	2.912778e-06
228	0xa5d8d8fa	-3.7617056e-16
229	0x3af063e5	0.0018340318
230	0x3c0017f5	0.007818212
231	0x3103a539	1.9156927e-09
232	0xbc9151e6	-0.017739248
233	0xbc846474	-0.016161181
234	0xb6556dcb	-3.1803381e-06
235	0xb5632ce6	-8.4629426e-07
236	0xbc86aa89	-0.01643874
237	0xbaf4e8fd	-0.0018685159
238	0x3c871c97	0.016493125
239	0xbc4891f4	-0.012241829
240	0xb916df95	-0.00014388406
241	0x0c3d7fd9	1.4598503e-31
242	0xbaa7cd6b	-0.0012802308
243	0xba9eb6eb	-0.0012108957
244	0xbd5109e4	-0.051034823
245	0x967defb1	-2.051281e-25
246	0xb41fb604	-1.4874246e-07
247	0xb4b52a56	-3.374468e-07
248	0xb9d81f01	-0.0004122183
249	0xbb39980a	-0.0028319382
250	0xb8cb7e2f	-9.703298e-05
251	0xbc0478e7	-0.008085466
252	0x3cf81c0d	0.030286813
253	0xbafe8978	-0.0019419631
254	0xbc0e24bd	-0.008675751
255	0x3b410701	0.0029453638

bias f4 [32]
0	0x3e2ce0af	0.16882585
1	0x3df16cb6	0.11788313
2	0x3c9dc033	0.019256687
3	0x3b38fbab	0.0028226178
4	0x3de02b8e	0.109458074
5	0x3e1bae7a	0.15203276
6	0x3d3fb156	0.04679998
7	0xbc9a19f1	-0.018811198
8	0xbd886248	-0.06659371
9	0x3dad08c4	0.084489375
10	0x3d46cd05	0.048535366
11	0x3db14315	0.08655373
12	0x3de751eb	0.112949215
13	0x8d638b84	-7.011771e-31
14	0x3d52d01e	0.051468007
15	0xbdab24bf	-0.08356618
16	0x3c373eb8	0.011184387
17	0x3e0898e7	0.13339578
18	0xbde726ad	-0.11286674
19	0xba32454d	-0.0006800488
20	0x3d386c5b	0.04502521
21	0x3e02e890	0.12784028
22	0xbe066f62	-0.13128427
23	0xbcbe5a89	-0.02323653
24	0x3c3b22c4	0.011421863
25	0xbd63be85	-0.055601615
26	0xbc97bd52	-0.018522892
27	0x3d14ffe4	0.03637685
28	0xbbf30d94	-0.00741739
29	0xbde8ef12	-0.11373724
30	0xbda81db8	-0.082087934
31	0x3d62a3be	0.055331938

weight f4 [8, 32]
0	0xbc4d2610	-0.012521282
1	0x8bcdfa92	-7.9340144e-32
2	0x916e749f	-1.8810826e-28
3	0xb8505a0d	-4.967493e-05
4	0xba925b83	-0.0011166189
5	0xb9cddde6	-0.00039265974
6	0x8c8f5aa6	-2.2087196e-31
7	0x2ba279d6	1.1544609e-12
8	0x10313316	3.494645e-29
9	0x3c86678f	0.016406802
10	0xbb0bf3d9	-0.0021355061
11	0x9648efe0	-1.6231563e-25
12	0x29c6c382	8.8268816e-14
13	0x8c3f9952	-1.4760243e-31
14	0x3a650c03	0.00087374466
15	0xb73b0da3	-1.1149244e-05
16	0x3ad22245	0.0016031942
17	0xbc324d04	-0.01088262
18	0x8f246575	-8.105364e-30
19	0x0bf3c398	9.389449e-32
20	0xbb1aff6c	-0.0023650778
21	0x2c2d6f9f	2.464674e-12
22	0x3c98da5b	0.018658808
23	0x20aa19f4	2.8816295e-19
24	0x3a8eacd0	0.0010885242
25	0xbb46f1ab	-0.0030356448
26	0xbaa54c0d	-0.0012611166
27	0xb922d7e9	-0.00015529957
28	0xbc5fd3ee	-0.013661368
29	0xbc701619	-0.014653706
30	0x3b193d2a	0.0023382404
31	0xbc63d3f4	-0.013905514
32	0x3d72a6d9	0.05924115
33	0xbd66e2cb	-0.05636863
34	0xbe1332c5	-0.14374836
35	0x3b2d202f	0.0026416888
36	0x3dde5e3b	0.10857817
37	0x3e0fafbf	0.14031886
38	0xbe54f71a	-0.20797387
39	0x3c64cc1a	0.013964677
40	0xbe5ac85a	-0.2136549
41	0xbb1b5d93	-0.0023706898
42	0x3e252c1f	0.16130112
43	0xbe10c556	-0.14137778
44	0x3d9110c6	0.070832774
45	0x39198ccf	0.00014643672
46	0x3dc9fd09	0.09862716
47	0x3e0e784f	0.13913082
48	0xbc37099d	-0.011171726
49	0x3d9c25b4	0.07624379
50	0xbe127240	-0.14301395
51	0xb76e57c8	-1.4206344e-05
52	0xbe3d1406	-0.1846467
53	0xbdc05318	-0.09390849
54	0xbca34c4a	-0.019933838
55	0x3e018109	0.1264688
56	0xbdfd6e81	-0.123745926
57	0x3db19ff9	0.086730905
58	0xbdd6b91d	-0.10484526
59	0xbdcf76ca	-0.10130079
60	0x3b1b0afa	0.0023657666
61	0xbd815c53	-0.063164376
62	0xbe9280ec	-0.28613985
63	0xbe0c0917	-0.13675343
64	0x3e1d9fb7	0.15392958
65	0xbd0917c6	-0.033469938
66	0xbea1b180	-0.31580734
67	0x3c74511a	0.014911914
68	0x3db8dafb	0.09026142
69	0x3e1219e7	0.14267693
70	0xbe6448d0	-0.22293401
71	0x3e216e9d	0.15764852
72	0xbea331a3	-0.31873807
73	0xbd609bde	-0.054836147
74	0x3da1477c	0.07874963
75	0xbde22cc4	-0.110436946
76	0x3dd29775	0.102827944
77	0xbbf8c484	-0.007591786
78	0x3e491374	0.19636327
79	0x3e171962	0.14755777
80	0xbcce80cb	-0.025207898
81	0xbd699591	-0.057027403
82	0xbe3b0d1b	-0.18266718
83	0xbb64756a	-0.0034860023
84	0xbd8b2453	-0.06794038
85	0x3db380fc	0.08764836
86	0x3bff7d4e	0.00779692
87	0x3e0f80af	0.14013933
88	0x3b8e05b5	0.0043341764
89	0x3d81ab9a	0.063315585
90	0xbea3eb9a	-0.32015687
91	0xbd90b89e	-0.07066463
92	0x3c1f89a3	0.009737405
93	0xbe4c86f7	-0.1997336
94	0xbcd66695	-0.026171962
95	0xbe8f77bc	-0.28021038
96	0xbdfe099b	-0.12404176
97	0x3bb2660e	0.005444295
98	0x3ea0e086	0.31421298
99	0xb2a340e9	-1.9005215e-08
100	0x3cf9bfe4	0.030487008
101	0xbd734235	-0.05938931
102	0x3e8ccd30	0.27500296
103	0x3e0e90ea	0.13922468
104	0x3ddf406c	0.10900959
105	0x2802a384	7.2519065e-15
106	0xbcd898ad	-0.026439989
107	0x3e04d9d0	0.12973714
108	0x3dee17b4	0.11625615
109	0x3af0419d	0.0018330101
110	0xbe56cf3f	-0.20977496
111	0xbe270caa	-0.16313425
112	0xbd2301b8	-0.03979656
113	0xbe26d53d	-0.16292281
114	0xbd0179b2	-0.0316102
115	0xbc72356c	-0.014783245
116	0x3e99bb80	0.30025864
117	0x3d276a01	0.040872578
118	0xbbcf942f	-0.0063348035
119	0x3dabf0ec	0.083955616
120	0x3d88c92a	0.06678994
121	0x3e13a41d	0.14418073
122	0x3d9b7b30	0.075918555
123	0xbbbd5ba0	-0.005778745
124	0xbc08be26	-0.008346116
125	0x3dea8c24	0.11452511
126	0x3e9ecd2c	0.3101591
127	0x3e2c412c	0.16821736
128	0x3c992ab7	0.018697126
129	0x3d6065fd	0.054784764
130	0xbd1b975d	-0.03798615
131	0x3b6bbbbf	0.003597006
132	0xbe1c952e	-0.15291283
133	0x3d1de893	0.03855188
134	0x3d09880c	0.03357701
135	0x3d8fac00	0.07015228
136	0x3dab549b	0.083657466
137	0xbbb6ac5f	-0.0055747475
138	0x3d16aea8	0.03678766
139	0xbe369ac0	-0.1783247
140	0xbdc16621	-0.09443308
141	0x3c77588a	0.015096793
142	0x3ded6fb6	0.11593573
143	0x3d40ebc7	0.047099855
144	0xbc5a3b6f	-0.013319834
145	0x3d00a53a	0.031407572
146	0x3dabe3a3	0.08393028
147	0x3c204ea7	0.009784377
148	0xbdae4a0b	-0.08510216
149	0xbe04814f	-0.12939952
150	0xbbfebdd5	-0.0077740946
151	0xbd64ca29	-0.055856857
152	0xbc66fa50	-0.014097765
153	0xbe1c5ddc	-0.1527018
154	0xbcdd87c9	-0.027042286
155	0x3df2dc43	0.11858418
156	0x3ca26bcd	0.019826794
157	0x3e1f7b05	0.15574272
158	0x3b52180f	0.0032057797
159	0x3dde2515	0.108469166
160	0x3e16a659	0.14711894
161	0xbe424fe8	-0.18975794
162	0x3c6eac91	0.01456751
163	0x3baf8c9a	0.005357337
164	0x3e16ab80	0.1471386
165	0xbe3597ff	-0.17733763
166	0x3e64e8b1	0.2235439
167	0x3de9906c	0.114044994
168	0x3ea1fc9c	0.31638038
169	0xbd37f629	-0.04491249
170	0x3e11f258	0.14252603
171	0xbd0b91d7	-0.03407463
172	0xbb5f60af	-0.0034084728
173	0x379f03fe	1.8956136e-05
174	0xbe506745	-0.20351894
175	0xbe379067	-0.17926179
176	0x3ccc7fc8	0.024963275
177	0xbe61d7a7	-0.22054921
178	0xbd5e7d41	-0.05431867
179	0x9c21bdb2	-5.3515607e-22
180	0x3e38316b	0.17987601
181	0x3e0cab82	0.137373
182	0x3c5d51fb	0.013508315
183	0xbd9a3b95	-0.075308956
184	0x3e7fd5ac	0.24983853
185	0x3e3aaf1f	0.18230866
186	0x3ec527b9	0.38506868
187	0xbe3bc1e4	-0.18335682
188	0xbd2b473b	-0.041815978
189	0xbd17efa1	-0.037093762
190	0x3e89f306	0.26943225
191	0x3e456de3	0.192802
192	0x3e290522	0.16505864
193	0x3e3af4d2	0.18257454
194	0xbeaff098	-0.34363246
195	0xbcb44a27	-0.022008015
196	0x3df406c6	0.119153544
197	0x3c899451	0.016794356
198	0xbe2ae4ac	-0.16688794
199	0x3e227ecf	0.15868686
200	0xbe8e9570	-0.27848387
201	0xbdd937c5	-0.1060634
202	0x3e58cc8e	0.21171781
203	0x3df5d24f	0.12003004
204	0x3e0487a4	0.12942368
205	0xb7b47c8d	-2.151567e-05
206	0x3dea38f3	0.114366435
207	0xbd859ee7	-0.06524449
208	0xbd5bf267	-0.05369797
209	0x3d84b26e	0.06479345
210	0xbe209d92	-0.15685108
211	0x3c62801a	0.013824487
212	0xbe969e85	-0.29417816
213	0xbe07f7fb	-0.13278191
214	0x3c23f87e	0.010007976
215	0x3e4ae5e4	0.19814259
216	0xbe4daef1	-0.20086266
217	0x3d096b23	0.03354944
218	0xbe5ba2f4	-0.2144888
219	0x3e114c17	0.14189182
220	0x3d2e0e15	0.0424939
221	0xbdec3791	-0.11534036
222	0xbe821cf1	-0.25412706
223	0xbea0910b	-0.3136066
224	0xbdd2ef4c	-0.102995485
225	0x3d67cc46	0.056591295
226	0xbe3880f3	-0.1801794
227	0x8c14c2c4	-1.1460115e-31
228	0xbcd1540a	-0.025552768
229	0xbc625b77	-0.013815752
230	0x3c056d4d	0.008143735
231	0xbd149804	-0.036277786
232	0xbc1b9b5b	-0.009497489
233	0xbcf89de5	-0.030348727
234	0x3e0dc88d	0.13846035
235	0xbe2506da	-0.16115895
236	0x3e25353f	0.16133593
237	0x380eccae	3.404606e-05
238	0x3df01a42	0.11723758
239	0x3e46f891	0.19430758
240	0xba2a76c9	-0.0006502686
241	0x3e62cad3	0.22147684
242	0xbd72b53e	-0.059254877
243	0x28523b5f	1.1670216e-14
244	0xbe9b1977	-0.30292866
245	0xbd5ac618	-0.053411573
246	0xbdb2ad9e	-0.08724521
247	0xbd0868bb	-0.033303004
248	0xbe8ebd2b	-0.278787
249	0x3d0debca	0.034648694
250	0xbe141c86	-0.14464006
251	0xbca5503d	-0.020179862
252	0xbcd7bcb2	-0.026335094
253	0xbe2ef660	-0.17086172
254	0xbe8dc0b4	-0.27686083
255	0xbd2b9b40	-0.041896105

bias f4 [8]
0	0xbc406cd0	-0.011744693
1	0x3dc065fa	0.093944505
2	0x3e0f9725	0.14022501
3	0xbe01ec81	-0.12687875
4	0xbe19d874	-0.15023977
5	0x3d3c60cd	0.045990754
6	0x3d0c4236	0.03424283
7	0x3dff3905	0.124620475

weight f4 [1, 8]
0	0x3d694710	0.056952536
1	0x3de1ecdb	0.11031505
2	0x3e20efd9	0.15716495
3	0xbe8489bb	-0.2588633
4	0x3bc14a80	0.0058987737
5	0xbe4441c6	-0.19165716
6	0x3e63c418	0.22242773
7	0x3e58992b	0.21152179

weight f4 [8, 1]
0	0x3f718ef8	0.9435878
1	0x3ec71ef3	0.388908
2	0xbe6e3f23	-0.23266272
3	0x3f4bf7f2	0.7967521
4	0x3f69a764	0.9127104
5	0x3f7886a3	0.9708044
6	0x3e99dc15	0.30050722
7	0xbcf7d4ae	-0.03025278

bias f4 [8]
0	0x3f14ba30	0.580966
1	0xbe6da74c	-0.2320835
2	0xbf11ed5d	-0.5700281
3	0xbe161c59	-0.14659251
4	0x3f719b6e	0.9437779
5	0xbf597466	-0.84943235
6	0xbf106608	-0.5640569
7	0x3f0ed583	0.55794543

weight f4 [32, 8]
0	0x3ed353a5	0.41274753
1	0x3e4d5517	0.2005199
2	0xbdc2caa8	-0.0951131
3	0xbe0d44fe	-0.1379585
4	0x3e9bb950	0.3041482
5	0x3e7255b8	0.23665512
6	0x3dda80bd	0.10669086
7	0x3e98098a	0.29694778
8	0xbe12a658	-0.14321268
9	0x319813f6	4.4260515e-09
10	0xbdc9dc83	-0.098565124
11	0x3c38f48e	0.011288775
12	0xbcc69627	-0.02424152
13	0x3dbd4048	0.09240776
14	0x3ddade4d	0.10686932
15	0x35865b42	1.0010338e-06
16	0x3ec994d6	0.39371365
17	0xbe490a19	-0.19632758
18	0xbe4d30b5	-0.20038112
19	0x3df20cf8	0.1181888
20	0xbd9847a4	-0.07435539
21	0xbd816618	-0.06318301
22	0xbd29ab07	-0.04142287
23	0x3e639c0c	0.22227496
24	0x3e1aef35	0.15130313
25	0x3da59ce2	0.08086564
26	0x390d66e0	0.00013485132
27	0xbde4487c	-0.11146638
28	0xbe29c485	-0.16578873
29	0xbdc80265	-0.09766082
30	0x17648156	7.383402e-25
31	0xbe51cc6f	-0.20488141
32	0x3e36688c	0.17813319
33	0x3e50d337	0.20393072
34	0x3e1c75c9	0.15279306
35	0x3e92cc9e	0.28671736
36	0xbe91a6b3	-0.28447494
37	0x3d6df342	0.058093317
38	0x3eb4532c	0.35219705
39	0x3e6afa21	0.22946979
40	0xbe0a8588	-0.135275
41	0xbebd8c54	-0.37021124
42	0x3c7fd2f1	0.015614257
43	0xbc9ba626	-0.019000124
44	0x3e19b2ae	0.15009567
45	0xbe8fb1a1	-0.28065208
46	0xbe0a7a60	-0.13523245
47	0x3e6ee0de	0.23327968
48	0x3e99fb33	0.30074462
49	0x3eb1fd70	0.3476367
50	0xbde059d8	-0.10954636
51	0x3dc3b439	0.09555859
52	0xbc17db2b	-0.009268562
53	0x3e07485f	0.13211201
54	0x3d30e3bd	0.04318594
55	0xbd0fedbc	-0.03513883
56	0x3d1f9ba1	0.03896678
57	0x3d1ca9e2	0.03824795
58	0xbe3bf247	-0.1835414
59	0xbd59f1cb	-0.053209107
60	0xbda40bc5	-0.08010057
61	0xbdc6e0ce	-0.09710847
62	0xbe163ff0	-0.14672828
63	0x3e96aa21	0.29426673
64	0xbe803208	-0.2503817
65	0xbe93bfd5	-0.28857294
66	0xbde91ff9	-0.113830514
67	0xbde27c30	-0.11058843
68	0x3e952ddc	0.2913655
69	0xbd4a1c18	-0.0493432
70	0xbe7ada21	-0.24497272
71	0xbc8d41cc	-0.017243288
72	0xbb201d82	-0.002443165
73	0x3d2239f7	0.03960606
74	0x3eba02e3	0.36330327
75	0x9447237c	-1.00539305e-26
76	0xbea81369	-0.3282731
77	0xb95b581e	-0.00020918294
78	0xbd98bef7	-0.07458299
79	0x3e1d2935	0.1534775
80	0x3e07ff4b	0.1328098
81	0xbd9caf4d	-0.076506235
82	0x3b9a3d95	0.004707048
83	0xbe6aee1d	-0.22942396
84	0x3e277ed8	0.16356981
85	0xbdcc7728	-0.09983665
86	0xbd94cdc7	-0.072658114
87	0x3eba90eb	0.3643869
88	0xbe533ad6	-0.20627913
89	0xbe948e85	-0.29014984
90	0x3d9cd1fe	0.0765724
91	0xbe9b6c81	-0.3035622
92	0x3ecd9178	0.40150046
93	0xbe82caca	-0.2554534
94	0xbe8269b8	-0.25471282
95	0x3eb5fa1d	0.35542384
96	0xbc021ccd	-0.007941437
97	0x3e41c15f	0.18921421
98	0xbebca852	-0.36847168
99	0x3defc80e	0.11708079
100	0x3ebcb82f	0.3685927
101	0xbd4729e3	-0.04862393
102	0x3e0eb4e6	0.13936195
103	0xbc80248b	-0.015642425
104	0xbbb3583e	-0.005473166
105	0xbb995892	-0.004679748
106	0x3d9b2ff4	0.07577506
107	0x3e35e009	0.17761244
108	0xbda1d6fe	-0.07902335
109	0xbdc6176f	-0.09672438
110	0x3d6e8e1b	0.05824099
111	0xbe680af6	-0.22660431
112	0xbe198e90	-0.1499579
113	0x3df2a0b4	0.11847058
114	0x3e704505	0.23463829
115	0x3d3390e7	0.04383936
116	0xbdf92963	-0.12166097
117	0xbe3603a0	-0.1777482
118	0x3ce9963c	0.02851402
119	0x3e79e27b	0.24402802
120	0x3e605fb2	0.21911505
121	0x3d6d75a3	0.057973515
122	0xbe934d16	-0.2876975
123	0x3e36a4e3	0.17836337
124	0x3cbd41b9	0.023102628
125	0x3d1320dd	0.035920013
126	0xbe76712f	-0.24066614
127	0xbe12e304	-0.14344412
128	0xbd599469	-0.05312005
129	0xbec84fc9	-0.3912337
130	0xbdad962c	-0.08475909
131	0x3e2457d4	0.16049129
132	0xbe0aed59	-0.13567103
133	0xbe5c0b11	-0.21488596
134	0xac5db53d	-3.1506596e-12
135	0x3ea15de6	0.3151695
136	0xbe399404	-0.1812287
137	0x3e643efe	0.22289655
138	0xbe9468f8	-0.28986335
139	0x3cb57e2c	0.02215489
140	0x3ebb603b	0.36596856
141	0xbd8f3f69	-0.069945164
142	0xbe8c0f9c	-0.2735566
143	0x3e6d22c2	0.2315779
144	0xbd35498b	-0.04425959
145	0x312330db	2.3747393e-09
146	0xbe01aadf	-0.12662838
147	0xbe002578	-0.12514293
148	0xbd61b714	-0.055106238
149	0x355da381	8.2566845e-07
150	0x3ca9b1b3	0.020714616
151	0xbc666f3d	-0.014064607
152	0x3e6be9d9	0.23038425
153	0xbe8931b7	-0.26795742
154	0xbae4b346	-0.0017448447
155	0x3c9dbb56	0.019254368
156	0x3e8573ff	0.2606506
157	0xbca5107e	-0.020149466
158	0xbec09bff	-0.37619016
159	0xbc53fc5b	-0.012938584
160	0x3eb9581e	0.3620004
161	0xbe712150	-0.23547864
162	0xbcfec840	-0.031101346
163	0xbe091292	-0.1338599
164	0x3e1016d6	0.14071211
165	0xbe6f318e	-0.23358747
166	0x3e31c9ef	0.17362188
167	0x3d2b8deb	0.04188339
168	0x3eb88ac9	0.36043385
169	0x3ea96b68	0.33089757
170	0xb1efcc22	-6.9790227e-09
171	0x3eb98fdb	0.36242566
172	0xbd9a4de6	-0.07534389
173	0x3ea25e35	0.317125
174	0x3dd942d5	0.1060845
175	0x3dfa8058	0.12231511
176	0xbccdd32f	-0.025125114
177	0xbdca9792	-0.09892191
178	0x3e000ee1	0.12505676
179	0xbe0cc680	-0.13747597
180	0x3ecace14	0.3961035
181	0x3e8d8af6	0.2764508
182	0x3eb5c094	0.35498488
183	0xbe3cf890	-0.18454194
184	0xbdea0b1b	-0.114278995
185	0xbe12b0a0	-0.1432519
186	0x3e383506	0.17988977
187	0xbd84b2d3	-0.064794205
188	0x3da73750	0.08164847
189	0xbe87faab	-0.26558432
190	0x3d2d7760	0.042350173
191	0x3ecfbc55	0.40573373
192	0x3e6f50af	0.23370622
193	0x3e4c9aec	0.19980973
194	0xbd8d3ad9	-0.0689599
195	0xbc5e20ea	-0.013557652
196	0x3e4b411a	0.19849053
197	0x3d990df7	0.07473367
198	0x3e63371e	0.22188994
199	0xbdf0f2d4	-0.11765066
200	0xbe862c0d	-0.26205483
201	0xbea59465	-0.3233978
202	0xbdf22b72	-0.11824693
203	0xbec3cbdb	-0.38241467
204	0x3ea092b2	0.3136192
205	0xbe948c47	-0.29013273
206	0x3d838000	0.064208984
207	0x3f02a75f	0.5103664
208	0xbe86ea47	-0.26350614
209	0xb424597b	-1.5306243e-07
210	0x3e42cd06	0.19023523
211	0x3cdf56d4	0.027263083
212	0xbe3614f7	-0.17781435
213	0xb79f0c22	-1.8959927e-05
214	0xbb398ee9	-0.002831394
215	0x3e1464d5	0.1449159
216	0xbdeee2da	-0.11664362
217	0x39c2f98c	0.0003718849
218	0xbe2b3742	-0.16720298
219	0xbdb3f565	-0.0878704
220	0xbca42279	-0.02003597
221	0xbd592c8d	-0.053021003
222	0x8d04c8ef	-4.0917505e-31
223	0x3d25e2fc	0.040499672
224	0x3d1d451e	0.038395993
225	0xbe8fad5e	-0.28061956
226	0x3e16cdf2	0.14727
227	0xbea91295	-0.3302199
228	0xbdead1f1	-0.114658244
229	0x3e7697a4	0.24081284
230	0x3e3f9ace	0.18711397
231	0x3dec098d	0.11525259
232	0xbe01e27f	-0.12684058
233	0x312ae819	2.4870188e-09
234	0x3e44b135	0.19208224
235	0xbcf8ef1c	-0.030387454
236	0xbe9002a5	-0.28127018
237	0x902e9c01	-3.443563e-29
238	0x3d260a00	0.04053688
239	0x3e5ad1b5	0.2136906
240	0x3e2d3a04	0.16916662
241	0x3eb74f5c	0.35802734
242	0x3d0cff9a	0.03442345
243	0xbd15bccb	-0.036557
244	0xbdf9c702	-0.12196161
245	0x3ebdf13d	0.37098113
246	0x3ddf55ae	0.10905014
247	0xbe833ee8	-0.2563393
248	0x3d6f2241	0.058382276
249	0xbc84fd31	-0.016234012
250	0x3e2f0e7c	0.17095369
251	0xbdf77a83	-0.12083914
252	0xbe87ba86	-0.26509494
253	0x2d56c288	1.2207686e-11
254	0x38649dbf	5.450635e-05
255	0x3e02a02a	0.1275641

bias f4 [32]
0	0xbe56dd68	-0.20982897
1	0xb791ddd1	-1.7388638e-05
2	0xbdc86eeb	-0.09786781
3	0x3ea03681	0.31291583
4	0xbdb7aa60	-0.08968043
5	0x3ec26d32	0.37973934
6	0xbea7b028	-0.32751584
7	0x3c012b67	0.007883883
8	0x3e58b06d	0.21161051
9	0x3d0c6d62	0.034284003
10	0x3ec9a98c	0.39387167
11	0x3e3eaa90	0.18619752
12	0x3d5f6714	0.054541662
13	0xbd05333f	-0.032519575
14	0x3ed0515b	0.4068707
15	0x3ee05a00	0.43818665
16	0x3ef7db10	0.4840932
17	0xbda1bda0	-0.07897496
18	0x27a417d8	4.5544995e-15
19	0x3e2f9253	0.17145662
20	0x3e450b1b	0.19242518
21	0xbea357a1	-0.31902793
22	0xbe40fdab	-0.18846767
23	0xbdb6725e	-0.089085326
24	0xbc0b611b	-0.0085070385
25	0x3ed3b999	0.41352537
26	0x3ce1025d	0.027466947
27	0xbd169ba7	-0.036769535
28	0xbcad59e8	-0.021161035
29	0x3c0bd39a	0.008534336
30	0xbd9e6569	-0.07734186
31	0x3caa31b4	0.020775653
