model/401.6574708223342896.pt (torch_old, 170435 bytes, 20 tensors)

weight f4 [256, 3]
00000000: b60f 53be fee4 b3be ffc5 e4be 9289 7d3d
00000010: 0298 e4be ac9a b03d eb4f 73bc 2604 1c3d
00000020: f817 10be 8aee 9dbe 1304 923e c3bf 013f
00000030: 81f6 8e3e dd84 adbd 045c 783d 440a e1be
00000040: ded2 f2be 825c 923c 08c9 bebe b646 f6be
00000050: 5a43 e43e f749 c5be 06d5 0bbe 6b4e d43e
00000060: 2394 09be 5aa4 0b3f 316c 903e 209d c93c
00000070: 8457 2a3b 083e 01be 195f 36bf 1a76 f23e
00000080: bdde 96be c5ca d23e e88c b03e e425 dcbe
00000090: a40a 39bf 5d90 50bf f2a4 f93b 4f45 de3d
000000a0: f103 0f3e f231 6d3d 1bec 1a3f 4ff7 a83e
000000b0: 0bc1 48be 5352 a0be 5bcb 0fbf 992c 763e
000000c0: 0be1 4abf 7f9b 5dbe ea1f 55be bf72 26bf
000000d0: f992 0dbf 71ba 7fbb ac2b 153f 6b79 16bf
000000e0: 2aea 4abe 313d 9f3e ee28 703e b1de 633e
000000f0: 5d84 14bf 6ec6 21bf 2c76 a33b 60b7 813e
00000100: 458f f3be b4b2 c6be 8cf0 bd3e 9df9 9abe
00000110: 62a7 a43e 4293 8b3e 487a ae3e d50b babc
00000120: 0f49 833e 64e5 9dbe 1482 02bd bb9d fabe
00000130: 2b44 043f 32ba 17be 448a 24bf 6adc cabe
00000140: a275 173e b886 8abe 0df4 843e 6380 d63e
00000150: e752 5ebf f1c2 8ebe 859c a8bd dcff af3e
00000160: d262 b8be 8b33 e23d 0266 633e cb16 07bd
00000170: 5793 f9be 6c4e 31bf 6036 0b3f 1326 fcbe
00000180: 7d9a b0be 4c02 013d 1688 fa3e 6881 e73e
00000190: 67bf eb3e afac f1bd ee83 d5be d574 bc3d
000001a0: ff86 65be 37fd dcbe a888 29be 0780 103e
000001b0: 8c0f 90be f356 dbbd 6cb3 b33e eed6 02be
000001c0: 9297 4a3e 3e8f e43e d619 38bd 4eaf e93e
000001d0: 5b87 f8be b80c c3be 4d0b 8c3e 2392 f9bd
000001e0: 8f95 23bf c43c c4bd 174a 36be 0aef 513e
000001f0: fcbb 21be 6e38 4d3e 803a 0a3f 683a e0be
00000200: 6fbb e73e 9a0e 51bd 4595 12bf 990f b73d
00000210: 3667 e9bd 2243 88be 5d53 ff3e 62a1 053e
00000220: c137 dcbe 7e9e e93e d2a9 723e c0f9 cabe
00000230: e245 aabe e4c9 03bf 7b07 a03e 5669 fa3d
00000240: 5cb8 30bf fda5 e53e f35a 8cbe 88da 7ebe
00000250: 16b4 243f 9b94 18be be73 2fbf 09b2 44bf
00000260: 6305 ab3c 97d3 f0be ebaa da3d 7bec 92bd
00000270: 112a d53e 2ade 0e3e b97d d53c 0dc1 90be
00000280: baa3 513e 9c48 45be dd8e cc3e 6026 ccbe
00000290: 9edd e93e 2b2b d9be af19 08bf abca 933c
000002a0: 4148 4e3e 2b82 3bbd b739 d03d f212 d93e
000002b0: eaa9 0bbb 7c9e c63e 63d9 f43e 14ef 09be
000002c0: 895c 113f e6e1 8d3e e077 2dbf 7098 cfbd
000002d0: ec30 f23d d864 f4be 6219 073f 4c9a 94be
000002e0: 5173 2fbe 44cc 153e 43e1 063f 8440 7cbe
000002f0: 6bc4 e53e 3d38 83be 633c b53e 9d7c 5f3e
00000300: a4d5 e63e bc32 583e 7284 a5bd 47c9 103f
00000310: 19ae 03bd 6d2b b2bd c1d9 bdbe 1d2e ed3e
00000320: 72b5 2f3e a894 17be 0ccf 013e 405c ba3e
00000330: f32c 87be 57a9 44be 082c e33e d21b 49be
00000340: 8e77 5cbe 0289 df3e 3095 d03e b02b 12be
00000350: 6ac6 c1bc 2ed7 853e 6fd2 153f 1e88 e1be
00000360: 0ab3 dd3b 2b4a b53e 65b2 003e c4e0 13bf
00000370: 5927 1abf 637e 5f3b 123c 13bf 00fe 2ebf
00000380: d0c8 df3c 9498 09bf 1980 ef3d 8074 a0bd
00000390: ab70 963e fd0a c8be ee3a 69bd 5428 e9bd
000003a0: 7ae6 883e 601c 0c3f ac26 72bd 7c5d df3e
000003b0: 8593 993e 825d a6be b2a3 143e 0850 55be
000003c0: 5c6a a33d 8798 1b3f 36df a63c 4190 c63d
000003d0: c29a 763e a79b 08bd 18a1 c2be fee8 ebbe
000003e0: 2bd4 aa3e 19ab 82be a206 46bf c40f 003e
000003f0: 3272 afbe 9994 fabd e60f a13d 7435 1dbe
-0.20611462 -0.35135645 -0.4468231 0.061898775 -0.44647223 0.08623251 -0.014850597 0.038089894
-0.14071643 -0.30846053 0.28518733 0.5068323 0.27922443 -0.08472607 0.060634628 -0.43953145
-0.47426504 0.017866377 -0.3726275 -0.48100823 0.44582635 -0.38532993 -0.1365548 0.41466078
-0.13435416 0.54547656 0.28207543 0.024611056 0.0025992105 -0.1262132 -0.7123886 0.4735573
-0.2946681 0.41170326 0.34482503 -0.42997658 -0.7228186 -0.8147028 0.00761854 0.10853063
0.13966347 0.05790896 0.6051652 0.3300118 -0.1960489 -0.31312808 -0.5616967 0.2404045
-0.7924964 -0.21641348 -0.20812955 -0.6501884 -0.5530239 -0.003902104 0.58269763 -0.5877902
-0.19815889 0.31101373 0.23453113 0.22252919 -0.5801447 -0.63193405 0.0049884524 0.25335217
-0.47570243 -0.38808215 0.37097585 -0.30268565 0.32158953 0.27260786 0.34077668 -0.02271072
0.25641677 -0.30839074 -0.031862333 -0.48948464 0.51666516 -0.14817122 -0.64273477 -0.39621288
0.14790967 -0.27055907 0.25967446 0.41894826 -0.8684525 -0.27883103 -0.08232979 0.34374893
-0.36012894 0.11044987 0.22206882 -0.03298072 -0.48745224 -0.6926029 0.54379845 -0.49247798
-0.34492865 0.03149633 0.4893195 0.45215917 0.46044466 -0.11800515 -0.41702217 0.092019714
-0.22414778 -0.43161938 -0.16556036 0.14111339 -0.2813686 -0.107099436 0.35097826 -0.12777302
0.19784382 0.44640535 -0.044946514 0.4564156 -0.48540768 -0.3809564 0.27352372 -0.121860765
-0.63900083 -0.095819026 -0.178017 0.20501342 -0.15794367 0.20041057 0.53995514 -0.4379456
0.45260188 -0.051039316 -0.5725902 0.08938522 -0.11396639 -0.26613718 0.4986829 0.13049844
-0.43011287 0.45628732 0.23697594 -0.3964367 -0.3325644 -0.51479936 0.31255707 0.122271225
-0.6903131 0.44853202 -0.2741314 -0.2488805 0.6433729 -0.14900438 -0.68535984 -0.7683416
0.020876592 -0.4703643 0.10677131 -0.07174011 0.41633657 0.13951936 0.026060926 -0.28272286
0.20472613 -0.1926598 0.39952746 -0.39873028 0.45676893 -0.42415747 -0.5316419 0.018040976
0.2014475 -0.045778435 0.10167258 0.42397267 -0.0021310993 0.3879279 0.47822103 -0.13470107
0.5678182 0.2771141 -0.6776104 -0.10136497 0.11825737 -0.47733188 0.52773106 -0.2902397
-0.17133833 0.14628702 0.5268747 -0.24633986 0.44876418 -0.25628844 0.35397634 0.2182488
0.4508487 0.21113104 -0.080819026 0.56557125 -0.032148454 -0.08699689 -0.37080196 0.46324244
0.1715906 -0.14802802 0.12676638 0.36398506 -0.2640148 -0.19205223 0.4436953 -0.19639519
-0.21529981 0.43659216 0.4073882 -0.14274478 -0.023654182 0.26140732 0.5852422 -0.44049162
0.006765728 0.35408148 0.12568052 -0.5776484 -0.6021629 0.0034102432 -0.57513535 -0.68356323
0.027317435 -0.5374844 0.116943546 -0.078347206 0.29382834 -0.39070883 -0.056940965 -0.11384645
0.2673834 0.54730797 -0.05911891 0.4362601 0.2999536 -0.32493216 0.1451557 -0.20831311
0.07979271 0.60779613 0.020370107 0.09695483 0.24082473 -0.033351567 -0.3801353 -0.46076196
0.33364996 -0.25521162 -0.7735387 0.12506014 -0.34266812 -0.12235374 0.078643605 -0.15352422

bias f4 [256]
00000000: b3eb 9a3b fa1e 323d 2902 7f3f ce58 cabe
00000010: 4c92 7c3e a123 34be 4b25 6ebc a981 a23e
00000020: 383e 5a3e f2dc 97be 1722 adbd 4443 a23e
00000030: 65bb ec3e 0a55 4ebe 9a22 f93d 35b3 c6be
00000040: b656 283f a083 32be 3f2c f5bd 961f 3bbc
00000050: a357 9d3e cf47 b43e 22b3 0fbf 4152 a93e
00000060: fe65 273f f1c9 263e db91 b73e ea44 1a3d
00000070: bc99 073f e899 04bf 35f9 483f ec69 3dbf
00000080: c496 94be c427 b9be 3c5b 6d3f 627c 9bbe
00000090: 15b3 a93e 9c50 0bbf fd66 143f 68d9 273f
000000a0: 339e ee3d 52b6 843e f22c 0bbf 5675 a53e
000000b0: e33d 86be 6a90 24be c655 5c3e fe11 eebe
000000c0: 6e5f 0c3d 35ca 723f 195a 96be c9a8 603e
000000d0: 9835 823e e2a5 083c 3114 2f3e 3365 663e
000000e0: 3410 8bbe d3c3 a33d 6722 8e3d 9a89 40be
000000f0: 2909 f53e 5a8a be3e ceea f9be 5ff5 3ebd
00000100: 3c24 1a3f 501f 95be 74ad 7a3d c74d 033f
00000110: 5401 a8be 3f75 1e3c b65e ea3e 4f11 37bf
00000120: 4984 4b3e c30c 5b3e 9e36 aabe d7fd e53e
00000130: 69ff 23be e2df 7e3d 974a d3be 7b07 883f
00000140: a603 3f3e fda3 06be 3f86 72be 92c3 9f3d
00000150: 4735 f5be 39d5 26be dc59 b13e 338e a8be
00000160: 8e66 c2be c13c ff3e c2d9 713c 4233 9abe
00000170: 3531 4dbc c4fa d5bd 1d77 033f c8aa bf3e
00000180: aad6 9cbd 4f64 53be 7c35 a3bc d69d 103f
00000190: b225 853d a243 a5be 5217 edbe d03f 20be
000001a0: 9e65 a13d dac5 57be 220d a23e acfa 453e
000001b0: cb4b fcbe ce81 8f3e 8952 5e3e a2a5 833f
000001c0: 169c 04bf 494b 11be cf76 d63d 16a2 11bf
000001d0: 2a81 90be d048 89bd 76ff babd 3b60 fe3e
000001e0: 1ba4 b9be 9306 f43e 32dc 9e3e d129 7bbf
000001f0: bb10 9fbc dfed ad3e 0d32 243e 49e1 2f3f
00000200: 1efb 513e eab4 033f 7b22 bcbe 7139 b2be
00000210: 954d 0e3f 43e4 dcbd 382a 8a3e 8b84 8d3e
00000220: e300 063f 9196 143e 42dd a83d 5fdd 67be
00000230: b526 2b3f 85b5 0a3f 0112 adbe c214 01bf
00000240: f159 cebe d942 20bc 9b83 0dbf 6832 f8bd
00000250: 384d f73d bfbf d13e 56dc a4be 2f57 b2be
00000260: 5c55 733e e6f6 b0be 4480 5f3e 6666 f0be
00000270: bbf9 2d3e b024 9cbe 80c3 e93d e86c 90bc
00000280: a034 283f 9b38 443f e52d abbe 55ee e6be
00000290: f880 febe 7ed5 a7bd de46 35bd 82d2 acbe
000002a0: eb5b 863e c4d2 e13e 8edc 8c3e 95b2 9bbe
000002b0: f219 b5be 9c46 de3d a9d8 02bf 6a93 803d
000002c0: 59f6 4bbe 4e9f e43e 1465 08be 960d 08bf
000002d0: da9a 093f db3f 3e3f 62fd 7bbe 083e 123e
000002e0: ac6f ba3b 2b7c f23e 5ac9 e63e af1d 80be
000002f0: 7d00 223e 4c27 5d3e b5ad 233e 0ad3 113f
00000300: 8cf9 b5be 0331 89be ca4c b7be b35e ae3d
00000310: 6cce e5be 2e0b b7be 683a 8cbe e18f 08bf
00000320: ddc2 8c3e 3f08 33bd 9559 3f3f f123 e6be
00000330: ecfd 643e 38d8 ac3c eceb 90be 6171 aebe
00000340: 2ee0 06bf 4a16 f7bd 2540 aabd e59c 8abe
00000350: a40a b5bd 337c 363e 7dea 843e 8b1a 1e3f
00000360: a7ef 13bf 4b8d 07bf 8ce2 00be cfe5 8f3e
00000370: cbf7 453f 5a7f 21bf 5be4 873e b2ba 3fbe
00000380: afce 03bf eb4c 07bf a1c6 46be 7e4a a3be
00000390: 27cb 0f3f 9f51 d63e 152d 8b3e 510c 28bf
000003a0: 3ef2 28be 676c 3d3f 124a c33e 18d2 f9bd
000003b0: f63d c53d 7017 243f b3f6 a83c d97d abbe
000003c0: 641e ed3e 13eb 2ebe 6b0c 9a3e 4010 b2be
000003d0: d3c8 b53d b39e 153e 5214 fe3e de18 893e
000003e0: 781d 02bf 6ef8 223f d8fb 8a3e 2309 8a3e
000003f0: b9f9 763e 2078 81be d41d aa3f ca2c 7fbd
0.0047278046 0.043486573 0.9961267 -0.39520878 0.24665183 -0.17591716 -0.0145352585 0.31739548
0.21312797 -0.29660755 -0.08453768 0.31691945 0.4623672 -0.20149627 0.12164803 -0.388086
0.6575731 -0.17433023 -0.1197133 -0.011421105 0.30730924 0.35211036 -0.5613271 0.33070567
0.6539 0.16287972 0.35853466 0.037663378 0.52968955 -0.5179734 0.7850526 -0.7398975
-0.29021275 -0.3616315 0.9271734 -0.30368334 0.3314444 -0.54419875 0.5796965 0.6556611
0.11651268 0.2592035 -0.54365456 0.32316083 -0.2621909 -0.16070715 0.21517095 -0.46498102
0.034270696 0.94839793 -0.29365614 0.21939386 0.25431514 0.008340331 0.17097546 0.22499542
-0.271608 0.07996335 0.069401555 -0.18802491 0.4785855 0.3721493 -0.48811954 -0.046620723
0.6021154 -0.29125452 0.061200574 0.51290554 -0.32813513 0.009671508 0.45775384 -0.71510786
0.19874682 0.21391587 -0.33244795 0.44920227 -0.160154 0.06222523 -0.41267845 1.0627283
0.18653736 -0.13148494 -0.23684023 0.07800974 -0.4789221 -0.16292275 0.3463887 -0.3292099
-0.37968868 0.4985104 0.01476139 -0.30117232 -0.012523939 -0.1044822 0.5135363 0.37434983
-0.076581314 -0.20643733 -0.019922964 0.5649084 0.065013304 -0.32278162 -0.46306854 -0.15649343
0.0788071 -0.21071568 0.31650645 0.19333905 -0.49276575 0.2802872 0.21711172 1.0284922
-0.5180067 -0.14188875 0.1047188 -0.5688795 -0.28223544 -0.06703341 -0.091307566 0.49682793
-0.36258015 0.47661266 0.3102737 -0.9811068 -0.019417157 0.33970544 0.16034718 0.6870313
0.2050595 0.5144793 -0.36745057 -0.3480945 0.5558713 -0.10785725 0.26985335 0.27640185
0.52345103 0.14510562 0.082453266 -0.2264304 0.6685594 0.54183227 -0.33802798 -0.504223
-0.40302995 -0.009781563 -0.5527894 -0.12118989 0.12075275 0.40966603 -0.32199353 -0.3483214
0.23763031 -0.3456337 0.21826273 -0.46953124 0.16989796 -0.3049674 0.11414242 -0.017630056
0.657053 0.76648873 -0.33433452 -0.45103708 -0.4970777 -0.08195017 -0.044257037 -0.33754355
0.26242003 0.44106114 0.2751202 -0.30409685 -0.35371357 0.108533114 -0.5111185 0.06278117
-0.19918193 0.4465279 -0.13319808 -0.5314573 0.5375191 0.74316186 -0.24608377 0.14281476
0.005689582 0.47360358 0.45075494 -0.25022647 0.15820499 0.21597022 0.15984233 0.56962645
-0.35541952 -0.26795205 -0.35800773 0.08514156 -0.4488405 -0.35750717 -0.2738831 -0.5334454
0.2749242 -0.043709036 0.74746066 -0.44949296 0.22362489 0.021099195 -0.28304994 -0.34070876
-0.5268582 -0.12064798 -0.08313016 -0.27072826 -0.0883992 0.17820816 0.2596015 0.6175925
-0.57787555 -0.5294997 -0.12586421 0.28105018 0.7733123 -0.6308495 0.2654141 -0.18723562
-0.5148725 -0.5285174 -0.19411708 -0.3189277 0.5616936 0.41859147 0.27182832 -0.65643793
-0.16498658 0.73993534 0.3814245 -0.12198275 0.09630959 0.6409826 0.020625448 -0.33494452
0.4631225 -0.17081861 0.300876 -0.34778023 0.08876195 0.1461132 0.49624878 0.26776785
-0.50826216 0.63660324 0.27145267 0.26960096 0.24118699 -0.2528696 1.3290353 -0.062298574

weight f4 [64, 256]
00000000: f9e6 8fbb 2808 10bd 68be 04be 0490 1ebd
00000010: 5ed9 3d3c 3650 7abe ab77 d73b 59bb 9e3c
00000020: 5509 923d 6cb8 51bb a0b2 25be ad01 64ba
00000030: 718e 42be aa5d a93b 0b9a f43b ffd8 323d
00000040: 976e 90be 91d2 32be 7031 80bd e367 42bd
00000050: 0565 e6bd 1db7 82bd 9d8f 093d f693 19bd
00000060: 8be0 10bd 9138 fa3c b84b 4e3c 4b0d 35bd
00000070: d391 21be 7536 2b3d 3fec 353d 3499 70bd
00000080: ade8 173c 3687 a5bd b749 c5be f2e3 ffbb
00000090: ec65 2e3d f57a d83c 9bde cbbd 79a5 56bc
000000a0: a59f b4be 70d8 c9bc aeba 35bd 9f7f e8bc
000000b0: 75fb 1e3d 3c1f 38bd e03f 16be d9bb 853c
000000c0: 3d7c 8ebd 0c73 c9bc ce84 f6bd 1fd3 83bc
000000d0: 4228 81bd 6e44 8fbe f451 373a 1a4b 1dbe
000000e0: e32e 233c 51d0 00bd 9fa8 5b3c 85da f73b
000000f0: c1ba 39bc 9947 0f3d b63e 0c3c 386f c63c
00000100: 7c27 1c3d d997 b1bd a688 5f3c 5fa5 623d
00000110: 6dde 133d 6a9a a43b ab00 ebbb 65c5 0dbe
00000120: 8c31 64bc e143 94be 6772 4abd 8c2d 18bd
00000130: b560 183c 706e 95bc b853 30bd d7b8 44be
00000140: 0f01 633d ca9d fcbd 89ae 8a3d fd27 b43c
00000150: cae7 24bc 16a2 4fbd b44b 643d f23f 8f3d
00000160: 8a8f 09be f5c8 593d a200 81be 5217 063d
00000170: 0985 bfbd b955 98be c3b8 1a3c 4ef6 55bd
00000180: 08fa 15bd f4d9 8fbc 44e9 763d 38b7 a43d
00000190: 6ec7 fabc 4dda ccbc bb19 39bd 7508 68be
000001a0: 7fe2 063d 485f 193d d88b 123d d4a7 90bc
000001b0: cff1 34bd f49c b9bb 1397 f4bc c4cf de3d
000001c0: 8d43 a4bc b4f7 cbbb 23fe 16bd 78e4 16be
000001d0: 56d9 76bd 95f4 65bb c07f bb3c c317 823b
000001e0: e44c 52be a362 a3bc adb3 94bd e332 80be
000001f0: 68ec 853d ba5a b73c 2f3c 12bd f117 70bd
00000200: 483e 36bd 729b 0e3d e59c ccbc 577f a9bc
00000210: 1069 963d 762c 9abb 17ec ab3c 1007 32bd
00000220: bff3 5e3c b413 493d e734 913d 3e94 0cbe
00000230: 95d3 35bd b6f2 52bc 306c 9fbd 86c2 923c
00000240: 1c5f 88bc 64da aaba 0028 67bd 7546 53be
00000250: a02d 9dbd 7bf3 a43d da34 c9bc c66f 1fbb
00000260: f4ce 2b3d bb90 6eba bf63 98bd 9a79 cf3c
00000270: 4eeb b1bd 3216 cfbc b709 9bbd 1729 9b3b
00000280: ccbe eabc 1cf2 953d 35b4 843d 79e7 0dbc
00000290: 78d4 04bd 4b9e 2cbd b08f 7fba df32 08bd
000002a0: a15f ddbd 4142 27bc d5a5 913d 9ac7 efbc
000002b0: 7006 a4bd 786d 6abd 9a98 b43c 66e0 3dbd
000002c0: 1f03 81be 47cd 15bd 8ac2 603d aa77 61bd
000002d0: 9762 c63b 84fa cbba c9f8 1f3b a04b 45bd
000002e0: 0485 5ebe df2c 903d bf5b 45bb 0b1c 9e3c
000002f0: 93ca 9bbd e2e5 6bbd b0b6 e73c 6b6a dd3c
00000300: 1129 4c3d 5d32 adbd 8e14 a73c 6835 8abd
00000310: 94d6 1fbe 3226 1f3d aed3 d23b eefe 173d
00000320: dd7d 31bd e2b5 32bd 5687 0e3c b773 013c
00000330: c8e6 20bd c0f8 913d 0b21 d73c d7a2 033d
00000340: d3e9 14bd 1ee4 7bbd 6d73 1abd d1a8 5ebc
00000350: 3d84 edbc 4db1 c5bc e0ec 013d a5e9 02be
00000360: aac6 853d 86e8 8d3c 233b 53bd 9df6 8abe
00000370: ad5a e83b 23a3 6abd 1e6a a53c 8e73 893b
00000380: 52fd 2b3c 7268 6bbd dafb 49bc 2c1c 09ba
00000390: 2d97 4e3d b56c 003e b82d 68bd d0fb 98bd
000003a0: 1e11 4ebe 4457 73bc 5e1c 93bc 2f39 893d
000003b0: 2a24 77bc 1078 203d 8499 083d 7df7 463d
000003c0: e675 8d3d 4d48 6f3c b3c5 c8ba 2c3f 5cbe
000003d0: 33f9 a13a de4d 923c 4daa 623c c179 7abd
000003e0: 766c 273c 4948 cd3c fbf3 9bbd 5b99 273d
000003f0: 6c11 273d 3248 2bbd e090 213e 5684 1c3e
-0.0043915478 -0.03516403 -0.12963259 -0.038711563 0.011587469 -0.2444466 0.006575545 0.019376444
0.07130686 -0.0032000793 -0.16181421 -0.00086977595 -0.1899965 0.0051686363 0.0074646524 0.043663975
-0.28209373 -0.17463137 -0.062594295 -0.047462355 -0.11249737 -0.06382582 0.033584226 -0.037494622
-0.03537039 0.030544551 0.012591295 -0.04420213 -0.15778284 0.04179998 0.044414755 -0.058739856
0.009271783 -0.0808243 -0.38532802 -0.0078091556 0.04257767 0.026425818 -0.09954568 -0.013100975
-0.3527805 -0.024639338 -0.044367485 -0.028381167 0.038814027 -0.044951662 -0.14672804 0.016324924
-0.0695729 -0.024590991 -0.12037049 -0.016091881 -0.06306507 -0.27981895 0.0006993108 -0.1536068
0.009959909 -0.031448666 0.013406902 0.0075638914 -0.0113360295 0.03498039 0.008559873 0.024222955
0.038123593 -0.08671541 0.013643419 0.05533349 0.036100794 0.0050232904 -0.0071717105 -0.13844831
-0.0139278285 -0.28958037 -0.04942551 -0.037152812 0.0093004005 -0.018241137 -0.04304859 -0.19211136
0.05542093 -0.123347834 0.06771571 0.021991724 -0.010065028 -0.050691687 0.05573626 0.069946185
-0.13433662 0.053170163 -0.25195795 0.032737084 -0.09351546 -0.297529 0.009443465 -0.052236848
-0.0366154 -0.017559983 0.060281053 0.08042759 -0.030612674 -0.025006438 -0.045190554 -0.22659476
0.032930847 0.037444383 0.035777897 -0.017658152 -0.04417592 -0.005664462 -0.029857194 0.10879472
-0.020051742 -0.006224597 -0.036863457 -0.14735591 -0.06026586 -0.003508841 0.022888064 0.003970118
-0.20537144 -0.019944495 -0.07260833 -0.25038823 0.065392315 0.022382129 -0.035701927 -0.058616582
-0.04449299 0.034816213 -0.024977157 -0.020690603 0.07344258 -0.004705007 0.0209866 -0.043463767
0.013607918 0.049091056 0.070901684 -0.13728425 -0.044391233 -0.01287525 -0.07784307 0.017915022
-0.016646914 -0.0013035056 -0.05643463 -0.20632346 -0.07674718 0.08054253 -0.024561334 -0.0024328097
0.041945413 -0.0009100546 -0.074409 0.025326539 -0.08687459 -0.025279138 -0.07570212 0.004735123
-0.028655432 0.07321569 0.06479684 -0.008661144 -0.03242919 -0.042143147 -0.0009748889 -0.03325164
-0.108092554 -0.010208667 0.07111708 -0.029269982 -0.0800904 -0.057233304 0.022045422 -0.04635658
-0.25197694 -0.03657272 0.054873027 -0.05504576 0.0060542333 -0.001556233 0.0024409762 -0.048167825
-0.21730429 0.070398085 -0.00301145 0.019300481 -0.07606997 -0.05759228 0.028285354 0.027028283
0.04984385 -0.08456872 0.020395543 -0.06748468 -0.15609199 0.038854785 0.0064339256 0.037108354
-0.043332923 -0.04363049 0.008699259 0.007901124 -0.03928259 0.071275234 0.026260873 0.032137718
-0.036355805 -0.061496846 -0.037707735 -0.013590054 -0.02899372 -0.024132395 0.031720042 -0.12784441
0.06532033 0.01732279 -0.05157007 -0.27141276 0.0070908875 -0.057284486 0.020192202 0.0041946834
0.010497408 -0.057472654 -0.0123281125 -0.0005230333 0.05043714 0.12541468 -0.056684226 -0.074699044
-0.20123717 -0.014852349 -0.017957862 0.0670036 -0.015084306 0.039177 0.03334953 0.048575867
0.06907253 0.01460464 -0.0015317708 -0.21508473 0.0012357592 0.017859396 0.013834548 -0.06115127
0.01021873 0.025058882 -0.07614895 0.040917736 0.0407881 -0.041816898 0.15777922 0.15284857

bias f4 [64]
00000000: d352 cc3d f726 8b3e bdf1 b83d de0a a0ad
00000010: 9a3a 1cbb 25f8 60bb e6a6 9f3a a846 60bb
00000020: ccc6 9b3e 8c04 203d a296 0d3d 41d9 5c3e
00000030: c150 733d aa87 1dbc b677 c4bd 6f44 b3bc
00000040: e601 0cbe c38d b0bd 6f5e 0fbd caac ca3b
00000050: db58 e7bd e10d 073a f638 c5b5 f1d5 0bbd
00000060: cdd3 fd3d 9a1c 4f3e 0eb6 12bb 5cf3 a13e
00000070: 3d12 023d 9f24 01be 757e 4d3c 8212 b297
00000080: 8e67 5d3c 6107 f7ab 6e18 c83e c234 0b3e
00000090: b01d 903e 6614 0a3d a4eb 763d 7159 dbbb
000000a0: 3c93 873c c787 65ba a125 6e3d 7c52 42b9
000000b0: d3e3 fa3d a500 23b7 01ba 0b3e 67fd 133d
000000c0: 61bf 65bc e4d8 20bd 40e4 8d3d 44e6 38b9
000000d0: 27fc 30bc 02c2 36bc ee67 8c18 3f17 2f3c
000000e0: 034a 0a18 ef5c fbbb 4568 ad3e 6e79 3abc
000000f0: 51b8 83be 40d3 74bb 027f b83d a257 4a3e
0.09976735 0.27178165 0.09030483 -1.819472e-11 -0.002383864 -0.0034327593 0.0012180477 -0.0034221802
0.30425107 0.039066836 0.034567483 0.21567251 0.059403185 -0.009614864 -0.095931455 -0.021883218
-0.13672599 -0.08620789 -0.03500217 0.006185149 -0.11296245 0.00051519094 -1.4694222e-06 -0.034139577
0.123939134 0.20225754 -0.0022386345 0.3163098 0.031755675 -0.12611626 0.012542357 -1.1507652e-24
0.013513459 -1.7552454e-12 0.39081138 0.13594344 0.2814765 0.03371086 0.06028332 -0.006694012
0.016549699 -0.0008755889 0.058141354 -0.0001853201 0.12250485 -9.715707e-06 0.13645174 0.036130335
-0.014022679 -0.039269343 0.06928301 -0.00017633388 -0.010802305 -0.0111546535 3.6294094e-24 0.010686695
1.7873448e-24 -0.0076709907 0.33868614 -0.01138149 -0.2572656 -0.003735736 0.090086 0.19759992

weight f4 [32, 64]
00000000: af40 81bc f43e 9dbb 43d7 583d 681f 1880
00000010: 0d5e bdbc 047d 01be 6b89 e0bc 6812 8181
00000020: 5a8f 8bbc 9e4d c5bd 53f7 993d 5088 233d
00000030: 2874 023d e86b 073a 2fa4 1c3d 64fc 0b80
00000040: d349 61bd 8593 943d cf6a 6080 1095 83bc
00000050: 1f58 3cbc 8013 f001 65f0 9c02 4896 7cbd
00000060: cea9 843d 91ef 5cbc 0369 acbc e326 1abd
00000070: bd47 64bc 40f5 7abc 1391 94bd 0b81 1c00
00000080: af6e 11be 3d74 2224 29f5 94bd 622e 31bc
00000090: 36ec b6ba 9b5d b23c 3f05 09bc 4466 66bb
000000a0: d301 92bc 7d09 35bb 8f2d b03c bd16 6b89
000000b0: a801 9d3c 05eb 0e00 fae8 443d 1aa0 c03c
000000c0: c121 2abc 5cba 623d cb7e cabd 26ee 8792
000000d0: 6e7d 54bc d2bb 69bc 1216 7601 01c9 873d
000000e0: 108f 99a8 ed7d dd38 9cd5 52bc 6d31 05be
000000f0: fdde 1cbe 2f1d 8380 155b d4bd 25f3 11be
00000100: e3bc 483d fdaa bb3d 6690 31bf 56a1 8a00
00000110: ac0b 10be d9b5 e6b2 39e4 9d00 0608 b3bc
00000120: fc3a 173a bbfd 35bd ed96 8fbd c558 303e
00000130: 109c cfbd a47d 6613 266b f93c 8af4 17bd
00000140: c0af 8b35 d7a9 4e3d 4d91 423d 9d93 143e
00000150: 320b 16be c09a 2380 23ae 8c85 431b cc3d
00000160: 801e ac3d 1f1d 8f3d 82e3 a389 c7f9 92bf
00000170: adb1 e13d df41 903c 4559 ac3d 5f56 1080
00000180: 11bf 14be 3073 4703 4550 a63c f9a6 73bd
00000190: f914 cd3b f8d1 26bd 05a4 0abe 17e8 073e
000001a0: 4920 fabd 36e1 3d04 c93b 823d e4af 0683
000001b0: 3a06 54bd 6878 730a 9e70 9e3d 41e7 d03d
000001c0: 7a27 0a00 a7c6 ed3c 69a5 29bd d7f1 1808
000001d0: 5400 2e3e 6025 c8bd 193a 0880 af87 d9bd
000001e0: 24df d700 097d 1d07 b1a7 ca3d 521c 81bd
000001f0: 193e d4bd b480 20bd bd91 f93c 819e c9bd
00000200: dd08 8abd 767a a63d 0076 093d 66fe a230
00000210: 3ecd b3bd 373c a63b 9937 17bd de83 c901
00000220: a79a 1cbe 3757 a7bd 9adc dfbc d60c 80bc
00000230: 902e 8d3d 560c a33d a431 35bd 276e da04
00000240: 7c91 623d 799c 67bc 0943 2f18 124d 1dbd
00000250: 9dfe 24bd 97e6 b2bc 208e 1e9d 83a2 62bd
00000260: 9f85 2f3d 8d5b 03be 0172 9c3c 6a73 613d
00000270: 8266 19bd faeb 42bd ec13 f1bd 5513 de18
00000280: ed8d db3c aa66 688a 89ac eabd 6c5e 61bd
00000290: 0933 19bc be7e 92bc a145 6e3c 6312 08be
000002a0: e7a0 34bd 87d5 bf3d fcb2 a0bd 1884 f6bc
000002b0: fc66 883c c01e 84ba 4f6d 803d 662e dc3d
000002c0: 3379 be3d 64af 233d 6c63 da3b 9d69 c41d
000002d0: cd34 1fbd e6be c2bd 2176 63b6 7265 e5bc
000002e0: 476e aa3c be73 32bd a041 09be 4008 9a3d
000002f0: 121f c3bc e8b7 9999 ab8d 433b 6cfe 61bd
00000300: 09e4 a73c 0d52 4abd 5632 143e 1a60 db0b
00000310: be61 803d 3d72 263c 1e35 5bbd f21d ef3b
00000320: 401b aabd 9c65 31bd 9852 da3d d395 7abd
00000330: 8ff3 063d 5aea 02bc 00be 74bc 354b 193d
00000340: d208 0f3e 90d6 753d de56 9d3c 609e 73bd
00000350: f920 21bc 8d48 2c3b d246 2007 2c1d c2bc
00000360: b5a7 623d 91df f93d 9ee3 bdbc 05dd c43d
00000370: 12d0 923c 0948 563d 70bc 593c 6351 d402
00000380: a1e7 44bd 3146 8d34 2f65 88bd de11 cabd
00000390: 67d7 4abd a341 603c a45f f83d dcb0 5ebd
000003a0: 536c 97bd b842 12bd 6651 aa3d 71e6 a580
000003b0: c255 0b3e a2d9 1585 3571 c9bd 0ff7 21bc
000003c0: 0f2b 6f3d 6ecd a8ba d9e0 f73c 51f4 009b
000003d0: deb0 21bd 275a 053e b02a 1600 25b4 aebc
000003e0: fb33 7839 212e 77bc 9572 313e 959d b83c
000003f0: 5926 3dbd 9e92 8034 23ad 2b3d 8834 193d
-0.015777914 -0.0047987644 0.052939665 -2.215318e-39 -0.023116136 -0.12645346 -0.027409276 -4.741353e-38
-0.017036129 -0.09633945 0.075178765 0.03992492 0.031849056 0.00051659206 0.038242515 -1.100731e-39
-0.055002045 0.072546996 -8.854523e-39 -0.01606229 -0.011495619 8.819006e-38 2.306012e-37 -0.061666757
0.064777 -0.013484851 -0.021046167 -0.03763474 -0.013933119 -0.015317261 -0.07254233 2.617686e-39
-0.14202379 3.5226608e-17 -0.07273323 -0.010814281 -0.0013955894 0.02177315 -0.008363067 -0.003515617
-0.017823135 -0.0027624064 0.021506099 -2.8297788e-33 0.019165829 1.370006e-39 0.048073746 0.023513842
-0.010384024 0.055353507 -0.09887465 -8.578406e-28 -0.012969358 -0.014265971 4.51989e-38 0.06630135
-1.7048456e-14 0.00010561557 -0.012868311 -0.13007136 -0.15319438 -1.2040919e-38 -0.10368935 -0.14252909
0.04900826 0.09163473 -0.6936096 1.2731175e-38 -0.14066952 -2.6858219e-08 1.4500044e-38 -0.021854412
0.0005768982 -0.04443143 -0.07011209 0.17221363 -0.101371884 2.9092027e-27 0.0304466 -0.037098445
1.0407457e-06 0.05045494 0.04750185 0.14509435 -0.14652708 -3.269756e-39 -1.3229504e-35 0.09966137
0.08404255 0.06987976 -3.945477e-33 -1.1482476 0.11020217 0.017609535 0.08415464 -1.500352e-39
-0.14526011 5.8613073e-37 0.020301947 -0.05948541 0.0062586037 -0.040727586 -0.13539131 0.13272129
-0.12213189 2.2320255e-36 0.06359059 -3.9580973e-37 -0.05176375 1.172267e-32 0.07736324 0.10200358
9.32516e-40 0.029025389 -0.041417513 4.6025118e-34 0.16992313 -0.09772754 -7.55525e-40 -0.10621583
1.982468e-38 1.1848112e-34 0.09895266 -0.0630423 -0.10363407 -0.03918524 0.030465001 -0.09844685
-0.06739972 0.08128826 0.0335598 1.1859356e-09 -0.08779381 0.005073096 -0.036918256 7.402496e-38
-0.1529337 -0.08170932 -0.02732687 -0.01563112 0.06893647 0.07961337 -0.044236794 5.1352713e-36
0.055314526 -0.014136427 2.2652064e-24 -0.038403578 -0.04028188 -0.02183847 -2.0984603e-21 -0.055330765
0.04285204 -0.12827893 0.01909733 0.055041708 -0.037451275 -0.047588326 -0.11771378 5.7405175e-24
0.026801074 -1.1189703e-32 -0.1145869 -0.05502169 -0.009350547 -0.017882701 0.014542968 -0.13288264
-0.04409876 0.09366899 -0.078466386 -0.030092284 0.01665067 -0.0010079965 0.06270849 0.10751037
0.09300461 0.039962187 0.006664684 5.198997e-21 -0.038868714 -0.09509067 -3.3894396e-06 -0.028002474
0.020804537 -0.04356741 -0.1340394 0.07521105 -0.023818526 -1.5894108e-23 0.002983908 -0.055174276
0.020494478 -0.049394656 0.14472327 8.450033e-32 0.06268643 0.0101590725 -0.053517453 0.007297271
-0.08305979 -0.043309793 0.10660285 -0.06117804 0.03294712 -0.007990444 -0.014937878 0.03742524
0.13968208 0.060019076 0.01920646 -0.05947721 -0.009834521 0.002628836 1.2057874e-34 -0.02369555
0.05533572 0.12200845 -0.023179825 0.09612469 0.017921481 0.05231479 0.013289556 3.1197314e-37
-0.04807246 2.6314368e-07 -0.06659924 -0.09866689 -0.04952183 0.013687524 0.12127617 -0.054367885
-0.07393708 -0.03570816 0.08316307 -1.5235524e-38 0.13606933 -7.045919e-36 -0.09836046 -0.0098855635
0.058390673 -0.0012878606 0.030258583 -1.0666855e-22 -0.039475314 0.13022672 2.035694e-39 -0.021326134
0.00023670487 -0.015086682 0.17328866 0.022536078 -0.04617915 2.3948536e-07 0.041913163 0.037403613

bias f4 [32]
00000000: ec2c e4bc 192c 11be ca40 a0bd 39c2 a3bd
00000010: 7fb8 77be 6ec4 bc3a 2e5b 563d c8f3 0a3e
00000020: c6b8 6ebd 0bb8 3b3d d209 dfbd 4c53 b43c
00000030: 89b6 e63d fbf3 993d 2be6 20be e229 522e
00000040: 87e9 763d 9031 f73d 169a fb3d ef47 b03d
00000050: 0be3 d4bb 090a bfbb 40cb c73b 6be1 16ba
00000060: 5089 30bd 2147 05ba c1e0 bf3d 8a36 f5b9
00000070: f117 13be 5907 1ebd 63fb ae3e 1be2 05bd
-0.027853452 -0.14176978 -0.078248575 -0.079960294 -0.24191473 0.0014401802 0.05233305 0.13569558
-0.058281682 0.045829814 -0.10890545 0.022012375 0.112652846 0.07517239 -0.15712802 4.778567e-11
0.060281303 0.1207 0.12285249 0.0860747 -0.006496792 -0.0058300537 0.0060972273 -0.0005755636
-0.0430997 -0.00050841464 0.0936904 -0.00046770676 -0.14364602 -0.038581226 0.34176168 -0.032686334

weight f4 [8, 32]
00000000: 6bcb 883c 4569 ca3e 74a9 bf3c b43e 14be
00000010: f2a2 afbe 5b44 e73d 2db2 cc3e d248 b93d
00000020: a50f 7a3e 582d b034 dced 2b3e f1c4 f0bc
00000030: e2bb 0c3d f658 263c 4d44 04bc 804c da2d
00000040: 7336 613e 2c08 d4bc 28e5 b9bc ba00 c23d
00000050: eaa3 3c36 944b 723b 6a3b 3c3c 567b 2eb7
00000060: b0be e9bc 5f29 61bc 732f 533e dcc5 9a80
00000070: a7c1 b63c 2dc3 0e3e 07d2 d2be 3449 eb3c
00000080: d08d 7701 a108 98bc 72ff 2b00 b03c b1bc
00000090: ab25 ebbc 53b8 d5bc ce24 70bc fae7 aabc
000000a0: 1a54 5b00 f150 9781 2ea8 c7bc f70c bebc
000000b0: e029 d4bc a2bb bbbc 8b36 6803 5628 5681
000000c0: 7efc d2bc 9b31 9dbc 50a4 bfbc f3ee cfbc
000000d0: d099 1b01 bf0e 0101 f864 a2bc b068 5680
000000e0: f7e3 4684 80ad b0bc 9135 d2bc 1708 1b00
000000f0: beb6 aebc 67d8 e6bc ea6d 893c ba41 db00
00000100: 9b77 e2bd 9a3e dd3e 7c73 38be 595f e53c
00000110: 6caf aebe bcdd 2abe 7491 cb3e eaec 443c
00000120: bb3d 05be 9b51 0bbe fa37 3fbc 8c7f 25be
00000130: c6fb db3d 9b27 3abc 88e0 bb3d ee35 b9ad
00000140: 11f6 133e 8101 063e 2e4e c73d 8c8a 0abe
00000150: 4dde c9b9 63e8 7e3b 1c59 c23c d6b5 6cbc
00000160: 7742 d23d 776e a73d b6c2 223e 62f4 0fb8
00000170: bfbe 2a3c e765 043d e544 bbbe 66cc 023d
00000180: e98d 01be 3fa2 a6be 4671 8cbd 4501 09be
00000190: e34f 923e f720 133e 3f17 9dbe 3ee0 0d3e
000001a0: d287 99bd 1360 ebbd d972 a5bd 961c 213e
000001b0: bbec b13c 3040 d53d 2777 4bbe 3aa1 312d
000001c0: f528 5f3c b344 4c3c 36dd 433e 1f17 debd
000001d0: 5c8b 343c c92c e5b9 adc8 08be b4e9 61bc
000001e0: 40f2 ee3d 1789 3fbb edcd 6ebe 88e5 8bbd
000001f0: a084 033e 3507 13be 31c8 403e 3674 0abe
00000200: b58a 243e eecf 91be 2a84 e4bd 8111 e03d
00000210: 6375 133e 8311 233e bfdb 73be 9474 ca3b
00000220: e0d8 3e3d 822b bbbc ca3f a5bd f626 efbb
00000230: 1ac4 d73d a89b d03c 3664 2ebb 1758 b5ac
00000240: fd20 7e3d 51cd a83d 655b 283e 7715 293e
00000250: fa39 183d 043a d13b 4d28 db3d 805b 143e
00000260: f0c3 873c 103a 463e 8b5d 04bd f19b c93d
00000270: 4c98 b33d a2f3 413d d16e 493e 8d1a 92bb
00000280: 6082 9abc 866a 0fbf 4f37 ba2c 0ae7 36be
00000290: 25e8 96bf 2383 dcbd c7d2 373f 1c23 c43c
000002a0: 96f6 aebe df4a 8dae 75ed febc f9d3 273e
000002b0: 8150 63bd 623f d7bd d233 8dbe 38d8 f028
000002c0: 2099 e8be ce7c 823c dfd6 b7bd c84f 24be
000002d0: 6ae1 d680 fc20 0081 c316 7a3e 1bb7 3e0d
000002e0: 1f45 5cba cd4a 243e e161 6bbb e22b 8a3b
000002f0: 56a0 53be 6cdb 60bf eec6 753e 974c da3b
00000300: ba9b a4bd 0eb1 753e 6276 363e 6e3a 49bc
00000310: e63b aabe 6ad7 1a3b 9b7d 8a3d 859d efbb
00000320: 16a8 d03d 9314 873d d836 983d ef60 9d3d
00000330: ece2 3f3e 777e 5d3e 5274 21be 4fa2 82ad
00000340: 7bfc 2a3e 8cd5 f8bc 01d3 e43d 4b8b 4d3e
00000350: 8d78 47bd b96b 49b6 17f3 85bd f776 27bc
00000360: 57b1 bf3b fade 4b3b 78bf 613e 2d8d 32bd
00000370: f320 93bc 9a9d 0f3e b5e8 35be 6dc7 a0bd
00000380: 1ccc b0bd 3137 b6be a6d3 833d 0584 333e
00000390: e6b7 8f3e 92b7 f5bd d017 97be ca69 443e
000003a0: 4340 91bc e3d4 c7bd 1d12 303d aa16 073e
000003b0: 8d7a 183e 26d8 803d bcb7 47bd 4653 4aab
000003c0: ed84 90bd cdaf 6f3d 8c6a 4b3e 5e23 273d
000003d0: b4e2 aebd ca1f a73b 20c5 a23d c3a6 b5bd
000003e0: c22f 5d3d 63fe 433e 9d61 8dbe ea8f 9a3c
000003f0: 46d0 c3bd dab7 4ebd 0f7b f03d 6f57 023c
0.01669856 0.3953344 0.023396231 -0.14477044 -0.34304005 0.11292335 0.39979687 0.090470925
0.2442003 3.2815547e-07 0.16789955 -0.029390784 0.034358867 0.010153046 -0.008072925 2.4817703e-11
0.21993427 -0.025882803 -0.022692278 0.09472795 2.8109594e-06 0.0036971318 0.011488775 -1.0399925e-05
-0.02853331 -0.013742774 0.20623569 -1.4213645e-38 0.022309138 0.13941641 -0.41175863 0.02872143
4.546848e-38 -0.018558802 4.040563e-39 -0.021635383 -0.028704485 -0.02608887 -0.014657212 -0.020862568
8.3872e-39 -5.5584785e-38 -0.024372187 -0.023199541 -0.025898874 -0.022916619 6.8241285e-37 -3.9334532e-38
-0.025755163 -0.019188693 -0.02339378 -0.025382495 2.857936e-38 2.3704138e-38 -0.019823536 -7.935407e-39
-2.3379464e-36 -0.021567106 -0.025660308 2.48246e-39 -0.021327373 -0.02817936 0.016776044 2.0135552e-38
-0.11057969 0.43211824 -0.18012804 0.027999567 -0.3411821 -0.16686147 0.3975941 0.012019375
-0.1301183 -0.13605349 -0.011671061 -0.16161937 0.10741381 -0.011361982 0.09173685 -2.1056015e-11
0.14449336 0.13086511 0.097317085 -0.13529414 -0.00038503335 0.0038895837 0.023724131 -0.01444765
0.102665834 0.08175366 0.15894589 -3.4321456e-05 0.010421454 0.032323744 -0.36576 0.03193321
-0.1265179 -0.3254566 -0.06857543 -0.1337939 0.28576574 0.14368044 -0.30681798 0.13855073
-0.07496609 -0.11492934 -0.08078546 0.15733561 0.021719327 0.104126334 -0.19869672 1.0097085e-11
0.013620605 0.012467551 0.19127354 -0.10844254 0.011019554 -0.0004371165 -0.13357802 -0.013788629
0.11667299 -0.0029226 -0.23320742 -0.06830889 0.12843561 -0.14358218 0.18826367 -0.13520893
0.16068538 -0.2847895 -0.11158021 0.109408386 0.14400248 0.15924649 -0.23814295 0.006178448
0.046593547 -0.022847895 -0.080688074 -0.0072983457 0.1053545 0.025464848 -0.0026610023 -5.1541093e-12
0.06204318 0.08242286 0.16441114 0.16512094 0.037164666 0.00638509 0.10701046 0.1448803
0.016572922 0.19358087 -0.032315772 0.098441966 0.08769283 0.047351487 0.1967118 -0.0044587315
-0.018860996 -0.56021917 5.2925784e-12 -0.17861572 -1.1789595 -0.107672 0.71805996 0.023942523
-0.34172505 -6.4252374e-11 -0.031119088 0.16389455 -0.055496696 -0.10510136 -0.27578598 2.6739123e-14
-0.45429325 0.015928652 -0.0897653 -0.16046059 -1.973366e-38 -2.3533552e-38 0.24422745 5.8768676e-31
-0.0008402634 0.16044159 -0.0035916495 0.004216657 -0.20666632 -0.8783481 0.24001667 0.0066619623
-0.08037515 0.23993322 0.17818597 -0.012281997 -0.33248824 0.0023626932 0.067622386 -0.007312479
0.1018831 0.06595721 0.074323356 0.07684504 0.18738908 0.21630274 -0.15767029 -1.4851368e-11
0.16697876 -0.030375265 0.11173058 0.20072667 -0.04869895 -3.0014037e-06 -0.06540506 -0.0102212345
0.005849998 0.0031108246 0.22045696 -0.043591667 -0.017960047 0.14024964 -0.17764552 -0.078505374
-0.08632681 -0.35588983 0.06436853 0.1753083 0.2806999 -0.11997904 -0.29510355 0.1918098
-0.017730838 -0.09757402 0.042986024 0.1319224 0.148905 0.06291227 -0.048759207 -7.188038e-13
-0.070566036 0.058517266 0.19864863 0.040805213 -0.08539334 0.005100225 0.07947755 -0.08869698
0.054000624 0.1914001 -0.27613536 0.018867452 -0.095612094 -0.050468303 0.117422216 0.007955416

bias f4 [8]
00000000: f0e0 093e a017 14bc 871c 13be f716 123e
00000010: 7015 b93c da96 5b3f 6d8c 513e 2506 bc3d
0.13464713 -0.009038836 -0.14366351 0.14266573 0.02259323 0.85777056 0.20463724 0.091808595

weight f4 [2, 8]
00000000: fb13 17be e472 f6bc f520 fdbd 1bed 1c3e
00000010: dc7d a73e dbdf b3be 68f5 ba3e fb52 953e
00000020: 53c1 6a3e e19d 273d 2fa5 8a3e 136b 80bd
00000030: 185a 7b3d 8f5c 75bf 0c75 923e 4a62 b6bd
-0.14753716 -0.030084081 -0.12359802 0.15324824 0.3271321 -0.35131726 0.36515355 0.29164872
0.2292531 0.04092205 0.2707915 -0.06270423 0.061365217 -0.9584436 0.28604925 -0.08905466

bias f4 [2]
00000000: 4a37 9abe 3f31 b2be
-0.30120307 -0.34803197

weight f4 [8, 2]
00000000: 0262 093f 2c50 32bf a41d 113f 4825 a5be
00000010: c834 fc3c 376d 2b3f ea05 0d3f d882 4abe
00000020: 9465 e8bb 06a6 143f 6b80 253f 5b83 2bbf
00000030: 4bb2 fc3e 4db0 eabd 2f49 d03d 140a 153f
0.53665173 -0.6965358 0.56685853 -0.32255006 0.030786887 0.66963524 0.5508715 -0.19776475
-0.007092187 0.5806583 0.64649075 -0.6699731 0.49354777 -0.11459408 0.10170209 0.58218503

bias f4 [8]
00000000: 6275 a8be e640 4f3e 74d7 01bf 7044 f03e
00000010: f8f5 9d3e 5776 743e 9bb0 f93d 7c45 82be
-0.32902056 0.202396 -0.5071938 0.46927214 0.30851722 0.23873268 0.12191888 -0.25443637

weight f4 [32, 8]
00000000: baea ddbe 5442 42bd 8989 2d3e 1411 9e3e
00000010: 3e6c b63d 0a98 dabe c38b 33be bf65 f03d
00000020: 1383 d0bd beea 2c3c f9c9 af3b 0a89 c43c
00000030: efe1 e43c 9be0 a8bc f0c1 af3c c00c 8b3d
00000040: c937 e3bd 5566 a0bb 3a69 b63d 3fa3 b43d
00000050: 9d33 353e 4313 b9bc c944 bb3d 5028 ca3d
00000060: 43ed 1fbe d16a 7fbe 2479 463d 58fa 42bc
00000070: 1a5c ae3e e2e6 97bd 6857 8ebe 5eae 823d
00000080: 735c 0d3e 85ea b13c b374 98bc 244d 8bbb
00000090: eab9 94bd d8e6 6b3d d026 293c ac6f 85bc
000000a0: 7311 393e e824 303e e01c ccbc aead 42be
000000b0: ca92 43be 2c2b b43e a5ea 0d3d 266c d53d
000000c0: ee98 483e 295e b43e e279 0abd 7b6a 1ebd
000000d0: e7e9 a53d 7fd2 883e f648 593d eb07 25bd
000000e0: df5c f6bd 959a a33e 67e0 733d 74af 02be
000000f0: 1f2a 493e 3098 b73e 52f1 7cbe c8ad bd3d
00000100: 50ec 8e3d d54d 39be 9631 86bc 1c82 60be
00000110: e062 3a3d 2da1 c9bb ecc1 5fbe 9a20 c3bd
00000120: f9c5 3c3d b03e b13e be8a 2bbc f84b 323e
00000130: f042 533e bbaa ad3e f833 be3d 7d5a 703e
00000140: a026 8c3e 47f0 c73d aaf8 2c3e 8920 f73b
00000150: 5d18 013e c446 3cbe 5e64 49bd 77ac be3d
00000160: 98f9 5f3d 86b2 b63c 32b7 47be 0ad9 11bc
00000170: 81e9 9b3d a4e7 a23e 666e 10be 5ca0 36be
00000180: 2de2 b63e 7004 14bd 0cb6 5bbe 1ebf 32bd
00000190: 1005 c1be eb62 933e 9ccf 55be f471 a2be
000001a0: 6aaa d0be 74ea 7ebe 4cc0 8f3d 0928 503e
000001b0: 739f 583e 0343 58be 4eb4 e0bd d3dd 563e
000001c0: 5c28 23bd b63b 32bd dd5b 1bbd 6950 37bd
000001d0: 5668 08bd 5053 2dbd ed9c 36bd 8f26 26bd
000001e0: 9cdd c13e 5f9b 85be d7de ffbb b84f a73e
000001f0: 8c84 acbe 8474 0b3e 6af7 403b dadc b8bc
00000200: 4570 4a3d 5621 58be 5149 bc3d f354 8e3d
00000210: 4198 733e 8d66 3f3d 6bd2 133e 31fa 2abe
00000220: 7097 fa3d 08c4 023e 5728 093e de11 a8bd
00000230: bfa9 61be 867c 573e 907f 4f3e bed6 213e
00000240: c001 33bd 6280 ac3e 7327 8fbd b00f f53d
00000250: 8550 01be 1f5b 4b3e 963a 16be a2a1 babd
00000260: ab11 9fbd f42d 143d c644 d33c 072c 6a3d
00000270: 78b3 073d d5b2 6dbd 6ca1 a33d 7524 293d
00000280: fa58 1abe 6e39 ee3d 6361 87be 54fc 4cbc
00000290: 6420 77be 08d5 2d3d c942 643d f04c 83be
000002a0: 6f84 9abc 2618 c0bc a580 29ba f982 c2bc
000002b0: 0c5a ffb9 0b93 ccbc 6ec0 b2bc d3c0 29bb
000002c0: 576f 643e d573 38bd 9a5a 45be b786 69be
000002d0: 6397 e4be 8fd5 bb3e ef64 30be 65f3 94be
000002e0: e0be c9bd 7aa7 b73b e643 7801 1192 773e
000002f0: d680 afbe 15b7 ebbd 1ba8 03be a3b2 bf00
00000300: 52af fdbd b7f0 2c3e b7a1 71bd 200b a53e
00000310: cdff b53e 63a1 bbbd 02f7 b43e f2e8 473e
00000320: 925e 94be f454 33be 13f6 b23d 0a68 1b3e
00000330: 5916 773e 4d0c d4bd 5327 a6bd a9d6 803d
00000340: c597 63bd 48a2 b13c 61d2 e23c 20f0 6a3c
00000350: 737d 193e dc2b 40bc 2aef 153d c94d a63d
00000360: 9401 173e 2a3a 62be 0efd ef3d a586 493d
00000370: b8df 8aba 3810 b3bc 581f e3be cde4 943d
00000380: f7db 4dbd d6c6 883d 2cf3 5a3d 030d 1a3d
00000390: ef51 823d 5ed6 9fbc b21a 893d 98e8 8e3d
000003a0: c387 9bbe 9e94 93be b2e5 57bd c89e 803e
000003b0: 0739 d63d 0d52 913e 8c34 4ebe c3f3 d3bd
000003c0: 52f6 32be fa1f 0d3e d822 923c 304c a63e
000003d0: c415 6e3e a55b ea3d 37fe 07be 6a62 253e
000003e0: 9e42 5fbe 0575 613e 34f0 18bd 49d8 093e
000003f0: 98c9 a0bd 9b4c 2f3e 70f3 ac3e 4c62 fa3d
-0.43343145 -0.047426537 0.16946997 0.30872405 0.08907364 -0.42694122 -0.17533784 0.117381565
-0.101812504 0.010554014 0.005364653 0.023991127 0.027939765 -0.020614913 0.021454781 0.06789541
-0.110946245 -0.0048950114 0.08906789 0.08820199 0.1769547 -0.022592193 0.09143979 0.0987097
-0.15617852 -0.24943091 0.048455372 -0.011900507 0.34054643 -0.07417084 -0.2780106 0.06380914
0.13804798 0.021718273 -0.018610334 -0.0042511392 -0.07262023 0.057593197 0.010324195 -0.0162886
0.18073063 0.17201579 -0.024916112 -0.19011566 -0.19098964 0.35189188 0.034647603 0.10421018
0.19589588 0.35228088 -0.033807643 -0.038675766 0.08101254 0.26723096 0.053048097 -0.040290754
-0.120294325 0.31953874 0.05954018 -0.12762243 0.19644974 0.35858297 -0.24701431 0.09261662
0.06978667 -0.18096097 -0.016381066 -0.21924633 0.04550445 -0.006153247 -0.21851319 -0.09527703
0.04608724 0.3461814 -0.01047009 0.17411792 0.20631003 0.3391932 0.09287256 0.23472019
0.2737322 0.09762626 0.16891733 0.0075417203 0.1260695 -0.1838637 -0.049167983 0.09310239
0.05468139 0.022301923 -0.19503477 -0.008901844 0.07612897 0.31817353 -0.14104614 -0.1783461
0.35719433 -0.036137044 -0.21456164 -0.043639295 -0.37699175 0.28786406 -0.20879978 -0.31727564
-0.40755016 -0.24894124 0.070190996 0.20327772 0.21154575 -0.21119313 -0.109718904 0.20983057
-0.03983341 -0.043513976 -0.037929405 -0.04475442 -0.033302628 -0.04231578 -0.04458325 -0.040564116
0.37864387 -0.260951 -0.007808547 0.32678008 -0.33694875 0.13618666 0.0029444345 -0.022566248
0.049423475 -0.21106467 0.091936715 0.069497965 0.23788549 0.04672866 0.14435737 -0.16697003
0.12235916 0.12770092 0.13394295 -0.08206533 -0.22037409 0.21043596 0.20263505 0.15804574
-0.04370284 0.33691698 -0.06989946 0.11965883 -0.12628372 0.19858979 -0.14670786 -0.0911286
-0.07767042 0.036176637 0.02578963 0.057170894 0.03313014 -0.058031876 0.07989773 0.041294534
-0.15073004 0.116320476 -0.26441488 -0.012511332 -0.2413345 0.04243949 0.055727754 -0.25644636
-0.018861977 -0.023449015 -0.0006466008 -0.023744093 -0.0004870448 -0.02497246 -0.021820273 -0.0025902286
0.22308098 -0.04503234 -0.19272843 -0.22805296 -0.4464675 0.3668637 -0.17226003 -0.29091945
-0.0985086 0.0056046816 4.559912e-38 0.24176814 -0.34277982 -0.115095295 -0.12857096 1.7604663e-38
-0.12386955 0.168887 -0.058992114 0.3223505 0.35546723 -0.091616414 0.35344702 0.19522455
-0.289784 -0.17512876 0.08738341 0.15176407 0.24129619 -0.10353909 -0.08112969 0.06290943
-0.05556466 0.021683827 0.027688207 0.014339477 0.14989261 -0.011729207 0.036605038 0.08120305
0.14746696 -0.220925 0.11718188 0.049200673 -0.0010595238 -0.02185832 -0.4435985 0.07270203
-0.050258603 0.0667855 0.053454563 0.037610065 0.06363284 -0.019511398 0.06694545 0.069779575
-0.30377015 -0.28824323 -0.05270929 0.2512114 0.10460096 0.28382912 -0.20137233 -0.10349228
-0.17476776 0.1378173 0.01783888 0.3248 0.2325049 0.11443261 -0.13280569 0.16150823
-0.21802756 0.22017296 -0.03733845 0.13461412 -0.07850951 0.17119066 0.33779478 0.1222578

bias f4 [32]
00000000: ca23 20bf 8b31 093f 944a 453e 1e88 933f
00000010: 8449 44bf 4185 233e 4fa1 ad3e 0f4b 3cbf
00000020: 00d3 143f 6305 453e 8267 a9be e73e 5f3f
00000030: aa13 d6bc fcee a13e 2365 75b8 d114 533d
00000040: 0f10 e5bd f2d7 cfbe 6f75 44be 2cd3 953e
00000050: a95d 013f 3978 5aba 60da 323f 023d fbbd
00000060: c89b 02be 8359 9d3e 5dcb 4c3e 76bf fc3e
00000070: 4892 d43e b04e 02be 197a 673e cf62 033f
-0.6255461 0.5359122 0.1926673 1.1525915 -0.76674676 0.15968801 0.3391213 -0.7355203
0.5813446 0.19240336 -0.33086783 0.87205356 -0.026132423 0.31627643 -5.8506743e-05 0.051533524
-0.111847036 -0.4059444 -0.19185422 0.29262674 0.5053354 -0.00083339546 0.69864464 -0.12267496
-0.12754738 0.30732355 0.19999452 0.49364823 0.41517854 -0.1272533 0.2260517 0.51322645

weight f4 [64, 32]
00000000: 7c40 e939 3744 6bbc e8a9 bcbc 72e9 0c32
00000010: 1603 3280 a94f 82bc 5dc2 c5bc ab91 43bc
00000020: 3168 1680 326a d4bc 77d3 9cbc 3258 91b2
00000030: f394 c6af f196 a43a 9870 9982 66c7 d4b5
00000040: d2c2 7dbc 0af9 babc 9b11 7ab7 09bc 7dbc
00000050: 5697 320a a2bd 8180 bc88 6a0b 5cc1 3c00
00000060: 63e2 ccbc 302d c28c 7f10 9dbc c892 9000
00000070: 303e 94bc 09c0 4102 024b bfbc a599 cfbc
00000080: d718 00bc b310 e63c 4770 563d ea5e 81be
00000090: 97d0 6ebe 9f60 74bd 99da 483e ea31 25bd
000000a0: d04d 87bc f628 b53d 20c1 dd3b b5d0 793d
000000b0: 1cac 093e 838d 66be dedc 58ac 54b7 03bd
000000c0: fdbc 2e3e 52d0 33bc b332 a23d bb2d 403d
000000d0: ce1d 8a3b 5e59 0d33 3603 113e 46cd a4bd
000000e0: 06e5 753d 9261 38be 6dfc 923c 13e9 6fbd
000000f0: 4e89 7f3d 6b47 e7bc c2d1 893d e01a 263e
00000100: e3a3 bebd 2219 023d b74e 8e3d c344 eabe
00000110: e04e c2bd 69be 043e 7f8c d93d 4db7 3a3e
00000120: 86ee 8d3e dc46 183e 5e71 08bd e93b df3d
00000130: d0bb e03d 3372 dcbe 828f 6ea4 9167 0abe
00000140: 5f5d d2bd fbd2 1ebe 1e07 7abd c263 1f3d
00000150: 7427 d83d 6fd7 9916 33a3 8b3d bbd9 3fbd
00000160: 17f0 b5bc 7fe4 79be 5e40 403d 13c5 8d3e
00000170: e605 343d 7031 123a 2f89 6dbd 726f 2bbd
00000180: 17f6 7883 6e29 fa02 a8d2 1780 4cd4 0701
00000190: 2225 2280 5ec6 b2bc 301c bdbc ae96 1d80
000001a0: ff82 4400 ea24 c0bc f380 c501 3e00 acbc
000001b0: 4e4c a1bc db0c 7e83 bc91 2201 c705 b6bc
000001c0: 32fd 19bc db97 b4bc 5462 f2bb 3a80 1c00
000001d0: db7c 64bc ce40 c180 faac ed38 9afc 4e01
000001e0: 84ec bfbc a9f6 a481 bb3f 0580 6aa4 3b80
000001f0: f835 5480 3899 8080 acfa afbc 1dba fabc
00000200: 9ef7 193e f5fc a73c 7a4a 6e3d a63e adbe
00000210: ac48 0cbe b4e0 083e 2e35 8f3d 10c2 e2bd
00000220: edd8 343d 4c76 a63d c978 3a3c b962 3fbd
00000230: dc2f a63d 33a9 33be 8813 e3a8 d55f bb3c
00000240: 8878 07be d117 a73d a3f2 afbd 005e 6d3d
00000250: 27c2 c8bd 41f8 9730 7bd7 15bc 1bdb 273e
00000260: e268 c73d 0797 c4bd a061 103d 4c1f 0f3d
00000270: 9d30 923d fd10 1a3d 89d2 163e 8b2b 2a3e
00000280: fe02 29bd 4840 0ebd 60e3 2dbd ef9a 34bd
00000290: d5f4 0100 3a34 a7bc 5a40 61bd bd91 25bd
000002a0: f699 1d00 4dcd c53d b395 2dbd 852d aabd
000002b0: 7c4c c3bc a098 33bd c769 1e03 7401 e2bd
000002c0: 6ee6 d1bd ed8a 1bbd e05d 0d3d 0dce 05bd
000002d0: 4baa a5bc 64ec c281 cea9 463c cba6 0b00
000002e0: 5c59 67bc c98f 30bd d0a2 27bd 099a 24bd
000002f0: e26c 22bd ee4f 0582 55f2 80bc d722 11bd
00000300: 1414 97ba 5288 07bc efc9 55bc 6b13 47ba
00000310: c64c 8180 d8c6 4abc 18d3 8fbc dc1a b4bb
00000320: b6f3 1f00 8348 9ebc 8525 4ebc 10ec ccbb
00000330: 18d9 13bc a666 43bb 006d 7000 b8bf 9dbb
00000340: 32fd 1fbc 4af4 85bc 43f0 75bb 4f7e 0cbc
00000350: f69b 17ba a2f6 4202 118c 5fbb 8b6d 0280
00000360: 7719 87bc 7386 1bbc 16ca 3dbc 6630 1b01
00000370: bf75 33bc 9125 6900 4749 6bbc 535b 8cbc
00000380: 37ba 59be bb14 9c3d e38a bd3d 70f9 3d3c
00000390: 462b d5bc 9758 0bbe 0779 e1ba 5ca4 58be
000003a0: 7473 5abf 038a 8cb9 ab52 03bc 5313 853c
000003b0: c842 57bd 4a32 913c 9e37 953a 4781 45be
000003c0: 8248 87bd 9d10 abbd fb3e 5ebe 679f 813d
000003d0: 3be1 a6be 506d 3415 e9b7 a5bd 825f 8e80
000003e0: 8171 923c 563a 853d b460 8a3d 5e85 81be
000003f0: e7ad 963d 0aac 59bc 154b f03c 7c26 273d
0.00044489268 -0.014359525 -0.023030236 8.202152e-09 -4.592882e-39 -0.015907126 -0.024140531 -0.011936585
-2.057758e-39 -0.025929544 -0.019143803 -1.6920328e-08 -3.6121825e-10 0.0012557191 -2.2545955e-37 -1.5853263e-06
-0.015488343 -0.02282383 -1.490526e-05 -0.015486726 8.5988514e-33 -1.1914806e-38 4.5169628e-32 5.579494e-39
-0.025010293 -2.991763e-31 -0.019172905 1.3276967e-38 -0.01809606 1.4234512e-37 -0.023351196 -0.025341818
-0.007818422 0.028084135 0.05235317 -0.25267726 -0.23321758 -0.059662458 0.19614638 -0.040330805
-0.016516596 0.08845703 0.006767407 0.060990054 0.13444561 -0.2251492 -3.0818052e-12 -0.032157257
0.17064281 -0.01097496 0.07919826 0.046918612 0.004214979 3.29104e-08 0.14161381 -0.08046965
0.060032867 -0.1800597 0.017942632 -0.058571886 0.062386803 -0.028232297 0.06729461 0.1622119
-0.09308603 0.03176225 0.069486074 -0.45755586 -0.094877005 0.1296326 0.10622501 0.18233986
0.2772104 0.1487078 -0.03331124 0.10900099 0.109733224 -0.43055877 -5.172958e-17 -0.1351607
-0.102717154 -0.1551017 -0.061041944 0.038913496 0.105544 2.485444e-25 0.06818237 -0.046838503
-0.02220921 -0.2440357 0.046936385 0.27689418 0.043950938 0.0005576825 -0.057992157 -0.04185433
-7.3163147e-37 3.6757978e-37 -2.187786e-39 2.49479e-38 -3.135728e-39 -0.021823104 -0.02308473 -2.717283e-39
6.291806e-39 -0.023455102 7.2551404e-38 -0.02099621 -0.019689705 -7.465865e-37 2.985926e-38 -0.022219552
-0.009398745 -0.022045067 -0.0073969755 2.617393e-39 -0.0139457835 -1.7747498e-38 0.0001133326 3.8017457e-38
-0.02342821 -6.0598025e-38 -4.8204e-40 -5.477275e-39 -7.733542e-39 -1.1809908e-38 -0.021481834 -0.030606324
0.15035865 0.020506361 0.058176495 -0.3383686 -0.13699597 0.13366967 0.06992565 -0.11072171
0.04415219 0.08128032 0.0113813365 -0.04672501 0.08114597 -0.17545013 -2.5210533e-14 0.022872845
-0.13229573 0.081588395 -0.08591201 0.057950974 -0.098026566 1.1057254e-09 -0.009145613 0.16392176
0.09736802 -0.09599119 0.035249352 0.034941956 0.071381785 0.037613858 0.1472875 0.16618173
-0.04126262 -0.034729272 -0.04245317 -0.04409307 1.79665e-40 -0.020410646 -0.05499301 -0.04042219
2.71846e-39 0.09658299 -0.042379092 -0.083094634 -0.023840182 -0.043846726 4.6553453e-37 -0.110354334
-0.10249029 -0.037974287 0.034513354 -0.03266721 -0.020222804 -7.160355e-38 0.0121254455 1.070025e-39
-0.014120426 -0.043105874 -0.040926754 -0.040185962 -0.03965462 -9.794235e-38 -0.015740553 -0.035433616
-0.001152637 -0.008272247 -0.013048633 -0.0007594141 -1.187432e-38 -0.01237651 -0.017556712 -0.005496366
2.934327e-39 -0.019321686 -0.012582188 -0.006253727 -0.009023927 -0.0029815822 1.0324677e-38 -0.0048141144
-0.009764956 -0.016351838 -0.003752724 -0.008575036 -0.0005783433 1.4323649e-37 -0.0034110586 -2.22968e-40
-0.016491635 -0.009492504 -0.011583826 2.8503728e-38 -0.010953366 9.656203e-39 -0.014360732 -0.01713339
-0.21262442 0.076211415 0.09255006 0.011595115 -0.026021611 -0.13608013 -0.0017202207 -0.21156448
-0.8533242 -0.00026805708 -0.008015315 0.016244566 -0.052553922 0.017724175 0.0011384373 -0.19287597
-0.06605627 -0.08352778 -0.21703713 0.06329232 -0.32593712 3.6436943e-26 -0.08091719 -1.3074902e-38
0.017876389 0.06505267 0.06756726 -0.25297064 0.07357388 -0.013285646 0.029332677 0.040808186

bias f4 [64]
00000000: 8cfb 0cbc 866a 513e 4b24 93bd d295 52bc
00000010: cad7 673e a19b 90bd af7e faba dead 583f
00000020: e8e6 0f3f 5ebc 2b3d 9590 2cbd 8e1d 70bb
00000030: c6c7 7d3f 3cd7 c0be 4b94 0a3e efb1 9cbc
00000040: 3637 4c3f 2f2d bbbd 787c 2dbe e116 1d3f
00000050: 6e30 fabe 450a aebd cee3 4dbe a42e a13e
00000060: 1cee 3e3e a13a f3b7 7002 48be 0ac6 1dbb
00000070: a5d0 aabc de9a ea3e 593f be3d a2ed 113e
00000080: 05de 31bb 5bc8 5e3e c5ef df3e 4a06 9cbe
00000090: 2525 92bd a0e5 17bb 5944 643f 33ec b0bd
000000a0: e289 aeb8 7ba2 1dbf 296f 863e f42f 243e
000000b0: ee99 a13d 4236 003e d204 523f 59d3 443f
000000c0: 9cac 023f 7824 7a3d 15b0 d83d 7e6f e63e
000000d0: 435f afbb 2a8c 14be b5d1 cf3d 0bf9 c03d
000000e0: f8cd 29bc 7a31 2cbc 1fa3 073f 3677 843e
000000f0: 3441 2dbc 6bec 953e a0e9 153c dfa2 4707
-0.008604895 0.20450792 -0.07184657 -0.012853103 0.2264091 -0.07060934 -0.0019111241 0.846403
0.5621171 0.041927688 -0.04213007 -0.003663871 0.99132955 -0.3766421 0.13533132 -0.019127814
0.79771745 -0.091394775 -0.16942012 0.61363035 -0.48865074 -0.084980525 -0.20106432 0.31480896
0.18645519 -2.8995159e-05 -0.1953218 -0.002407434 -0.020851443 0.4582128 0.09289426 0.14250806
-0.002714039 0.21756117 0.43737617 -0.30473548 -0.07135991 -0.0023177639 0.8916679 -0.086388014
-8.322649e-05 -0.6157605 0.26256683 0.16033918 0.07890688 0.12520698 0.82038605 0.7688499
0.5104463 0.061069936 0.1058046 0.45006937 -0.0053519323 -0.14506593 0.1014742 0.09422501
-0.010364048 -0.010509843 0.5298328 0.258722 -0.010574628 0.29281935 0.009149939 1.501896e-34
