model/5015.30478286743164.pt (torch_old, 170367 bytes, 19 tensors)

weight f4 [256, 3]
000000 6e 78 15 3e 3c d5 2c bf 85 c2 42 3d 7c 38 32 be
       0.14596722 -0.6751287 0.04754879 -0.1740436
000010 55 d2 6a bf 00 4e 03 3f f8 2f 57 be b9 77 4b 3f
       -0.9172719 0.51290894 -0.21014392 0.7947956
000020 1f 8a ba 3e 00 dd d9 3c 61 f5 00 3f b1 1e a0 3e
       0.36433503 0.026594639 0.5037442 0.31273416
000030 f9 90 21 3e ba c3 ef be d2 22 ce 3d dd 02 98 3e
       0.15777959 -0.46829015 0.10065235 0.29689685
000040 1b be f2 be 09 53 2c 3d 58 bb 92 be 45 8f d2 3d
       -0.47410664 0.042071376 -0.28658557 0.10281233
000050 12 be 51 3d 93 51 4f 3d 40 d3 52 3f d7 d9 b3 3e
       0.051206656 0.050614905 0.8235359 0.35127136
000060 93 af da bd 01 fe 62 3f d2 c6 35 bc ea a7 b3 3e
       -0.106780194 0.8866883 -0.011094766 0.35089046
000070 c2 99 49 3f d4 b7 88 bd c5 53 0a 3e c8 34 63 bf
       0.7875024 -0.066756874 0.13508518 -0.8875241
000080 32 0f 16 3d f5 60 14 be 57 23 0c bf 56 c7 d7 3d
       0.036635585 -0.14490111 -0.54741424 0.10536067
000090 3b 84 22 be 09 45 ec 3e 0b 32 80 3d da d5 8e 3e
       -0.15870754 0.4614642 0.06259545 0.2789753
0000a0 cf c3 fc be 05 e3 b3 3e 96 fa ab 3d 25 c8 38 be
       -0.4936814 0.3513414 0.08397405 -0.18045099
0000b0 ec 8c dc 3b e4 b0 ec 3d a7 eb 52 bf 52 9f 49 3e
       0.0067306664 0.11557177 -0.82390827 0.19689682
0000c0 24 34 82 3e 41 64 08 bf bb 31 dd bd 69 65 ac be
       0.25430405 -0.53277975 -0.10800501 -0.3367112
0000d0 d3 f7 27 3f 96 b6 89 3e 00 e4 fe be 5d ce 57 3f
       0.65612525 0.26897115 -0.49783325 0.8429926
0000e0 ad ec df be ae 1e f0 3e 2e e8 3a 3f 1e b8 c9 3e
       -0.43735257 0.46898407 0.7301053 0.39398283
0000f0 5e 13 2b 3e 0a d5 68 bf 9b 9e e5 3c 62 b1 b7 be
       0.16706607 -0.9095007 0.02802973 -0.3587752
000100 cd 1b b6 3e 23 ff b8 3d 34 5f e8 3d 9e 2c 40 3f
       0.35568085 0.090330385 0.113462836 0.7506808
000110 e7 04 7d 3e ce d1 12 bf 52 d5 19 3d 76 86 c3 be
       0.24708901 -0.57351387 0.037556954 -0.38188523
000120 2d 4c 61 3e 58 cc 83 3e cc 9b 8a 3e 1c d9 1f bf
       0.22001715 0.2574184 0.2707199 -0.6244066
000130 c6 e8 2e 3e a7 60 c1 bd d3 86 d5 be ff 3e 5e bf
       0.17080984 -0.09442263 -0.41704425 -0.86814874
000140 66 37 bf 3e f0 28 29 3f 74 19 08 bf 3e 0b a9 be
       0.37346953 0.6607809 -0.5316384 -0.3301639
000150 76 58 9f bd da 0c 1d bf d1 1d 82 3d a1 a9 44 3f
       -0.077805445 -0.61347735 0.06353343 0.76821333
000160 25 ed 3f 3e 97 7e ca be f2 b6 85 bd ad 77 23 3f
       0.18742807 -0.39549705 -0.06529035 0.63854486
000170 e1 83 8a 3e d7 cc cb 3e 5a 73 29 bd 83 0a 48 3e
       0.2705374 0.39804718 -0.041369773 0.1953526
000180 a8 26 6d bd d7 e5 23 bf de ac ae 3d 5e 38 31 3e
       -0.057898194 -0.6402258 0.085290655 0.17306659
000190 a4 31 25 be bb 4a fe 3d c8 6e 5d be bb c9 a8 bd
       -0.16132218 0.124165975 -0.21624291 -0.08241602
0001a0 04 b6 fc bd b5 7a bc be 3f eb fa 3e 30 09 0f 3d
       -0.12339404 -0.36812368 0.49007604 0.03492087
0001b0 52 f5 e8 3d f9 61 2b 3f 57 41 e9 3c b9 bd 30 be
       0.11374916 0.6694637 0.02847354 -0.17259873
0001c0 f7 4d 1e bf 0e ca ba 3d 90 26 84 3d 34 44 41 bf
       -0.61837715 0.0912057 0.06452668 -0.75494695
0001d0 62 7f 8e 3d b3 70 09 bf 9b 11 36 bf 44 db 8a 3c
       0.0695789 -0.5368759 -0.71120614 0.016950257
0001e0 26 6b e6 3d 15 55 39 3f 17 3f 3d 3e 17 ed 8b be
       0.11250906 0.7239545 0.18481098 -0.27329323
0001f0 e0 e4 37 bf 7c ca 05 3e 94 7e ff be 48 85 b8 be
       -0.7183361 0.13065523 -0.4990126 -0.36039186
000200 7d dc aa 3e 1c 73 83 3e 1d 07 26 3f c8 ce 13 3d
       0.33371344 0.2567376 0.64854604 0.036085874
000210 33 f7 a0 bd eb 14 c6 3d 47 9b ce 3e 34 3b 09 bf
       -0.078596495 0.096719585 0.40352842 -0.5360596
000220 c7 ce 34 3e 94 84 ac be 51 78 2a 3f a4 52 fc 3e
       0.17657004 -0.336949 0.6658984 0.492818
000230 42 2c d6 be fd 34 cd bd 71 f0 6d bf 40 f5 81 3e
       -0.4183064 -0.10019872 -0.9294501 0.25382423
000240 75 89 0d 3f 26 9e 33 be 19 b8 b9 be ce 52 04 3f
       0.5528787 -0.17540798 -0.36273268 0.5168885
000250 6e 73 05 bf 83 f9 8c be b0 5c d9 be 81 4c 27 3f
       -0.52129257 -0.27534112 -0.42453527 0.6535111
000260 38 8b b9 3d e4 4d cc bd ea 4a 49 3f f2 69 f2 ba
       0.09059757 -0.09975794 0.78629935 -0.0018494709
000270 18 36 48 3e 03 6b f6 be d5 53 84 3e ae 64 67 be
       0.19551885 -0.48128518 0.2584521 -0.22597
000280 69 1e d2 3e 54 94 72 be 3e 7b 8e 3e 73 af 22 bf
       0.41038826 -0.23689395 0.278284 -0.63548964
000290 2b 2f ea 3d b4 21 b6 3e f9 0a 1f 3f 69 29 5d bd
       0.11434778 0.35572588 0.6212612 -0.05399457
0002a0 9d 32 af 3e ab 8d 2a 3d 02 43 a8 3d 3e 6c 8f 3e
       0.34218302 0.04163901 0.08215906 0.2801227
0002b0 8e a0 b0 be 58 b3 f7 bd 52 8c 19 be 4d 75 6c bf
       -0.34497494 -0.12094754 -0.14994934 -0.92366487
0002c0 33 a2 9a 3e 0d e2 3a be 25 18 2c 3f 14 cf 51 be
       0.30201873 -0.18250294 0.6722434 -0.2048915
0002d0 dd af 3f be cc 48 4f 3f be 3c 5d 3e a1 55 59 be
       -0.1871943 0.80970454 0.21605203 -0.21224071
0002e0 30 89 5a 3f bc 9b 57 3e db 1f 26 3e c1 66 39 bf
       0.8536558 0.21055502 0.1622309 -0.72422415
0002f0 7e 0e 51 3d 23 23 10 3f be ee 85 bd 1e 65 aa be
       0.05103921 0.56303614 -0.06539677 -0.3328027
000300 da e9 b4 3e 9e 85 36 bf 97 9d 6f 3e 8d fd b2 bd
       0.35334665 -0.71297634 0.2339996 -0.08739767
000310 16 36 42 bf d3 c4 c6 3e f8 0d dd be a8 a2 92 bd
       -0.7586378 0.3882204 -0.4317472 -0.071599305
000320 57 e1 0a 3d ec 5d d2 3e 4e ec 96 bd 25 13 72 3e
       0.033906307 0.41087282 -0.0736929 0.23640116
000330 f2 2d 5b 3f 61 1a e4 3e 5b a7 d8 be b5 06 af bd
       0.8561698 0.44551376 -0.42315182 -0.08546201
000340 4b a4 3f bf bb 18 d2 3d c1 0e 4d be 29 ce 5f 3f
       -0.74860066 0.10258623 -0.2002516 0.8742395
000350 5e 56 07 3d 1f 52 96 bd c2 b3 eb 3e 61 5c a3 3c
       0.03304135 -0.07339882 0.46035582 0.01994151
000360 d3 5d dc be 4d 23 94 be 10 e5 9f 3e 08 7d c2 bd
       -0.43040332 -0.28933182 0.31229448 -0.09496504
000370 a4 18 46 bf 73 6b b7 3d a5 39 83 3e 29 6c 2a bf
       -0.7738135 0.08956041 0.25629917 -0.6657129
000380 bb 25 49 3d 84 4b b3 3d 99 7f 18 3f 62 6e f8 3b
       0.04910825 0.08754638 0.595697 0.007581518
000390 10 d8 c8 3e 18 fa c3 3c 84 15 77 be 66 27 16 3e
       0.39227343 0.023922965 -0.24129301 0.14663467
0003a0 52 e7 f1 be 3b fb bd 3e dd 3c b3 be 30 a7 2a bf
       -0.47246796 0.37105736 -0.35007372 -0.6666136
0003b0 f9 02 89 be 2a 92 ca 3e 88 86 14 3f c7 1f 97 3d
       -0.2676008 0.3956464 0.5801778 0.07379108
0003c0 bc 56 b2 be 3f fa 1a 3f 9c 9b b5 be cb 2d 1c bf
       -0.34831798 0.60538095 -0.35470283 -0.61007375
0003d0 ca 20 ab be 9d 90 e4 be 37 8e b8 3e 7b 14 0e 3f
       -0.33423454 -0.4464158 0.36046 0.555
0003e0 37 3d 46 3d fa af c2 be 53 c2 76 3e 38 c8 2e 3e
       0.048398223 -0.38024884 0.24097566 0.17068565
0003f0 d9 21 d3 bd 50 da f6 3e 6c 9d 89 be 4c aa 38 bd
       -0.1030919 0.48213434 -0.26877916 -0.045084283

bias f4 [256]
000000 6b fd 16 be c4 af 52 be d9 e1 ae 3e 45 f1 06 3d
       -0.14745109 -0.20574862 0.34156683 0.032944936
000010 0e 5f 2a bf 24 b4 19 3f 06 62 cd 3e c1 fe 8a 3e
       -0.6655129 0.600405 0.40113848 0.27147487
000020 84 bb 06 3f ec 78 39 3f b8 d0 f8 3e cf 28 f2 be
       0.52629876 0.7245014 0.4859674 -0.4729676
000030 ce e6 09 3f 70 a2 05 bf 1d 00 31 be 0f 7e 9b be
       0.53867805 -0.52200985 -0.172852 -0.30369613
000040 a7 ef 87 be f7 cd 9f 3e 5b cf 6e 3e dc 5b 89 3e
       -0.26550028 0.31211826 0.23321287 0.26827896
000050 e4 3d 3d 3f 09 df dd be 6f fb 39 be e2 d5 1c 3f
       0.7392256 -0.43334225 -0.1816232 0.6126386
000060 5e 30 58 3e f2 75 b0 3e 51 e5 ca be e2 e1 15 be
       0.211122 0.34464985 -0.3962808 -0.14636949
000070 54 07 f5 3e 75 64 92 3e 72 45 77 bc 8b de ea be
       0.47857153 0.28592268 -0.015092241 -0.45872912
000080 78 da 14 3e 3e c4 e3 be 9a c5 41 be 0b 8b 74 bb
       0.14536464 -0.44485658 -0.18923035 -0.0037314321
000090 49 0c a7 3e 41 32 40 3f 92 54 ab be 04 b6 3a bd
       0.3262656 0.7507668 -0.3346296 -0.04558374
0000a0 2a af 94 3e b9 b0 04 bf a5 16 5d 3c 79 f4 47 3e
       0.2903989 -0.5183216 0.013494168 0.19526853
0000b0 df 57 99 be 9e c2 58 3e 32 3b 88 bb 44 f7 dc be
       -0.29949853 0.2116799 -0.0041574473 -0.431574
0000c0 cb 54 54 3f ee e3 1e 3f 14 d3 02 be be b5 af 3e
       0.82941884 0.62066543 -0.12775832 0.34318346
0000d0 67 cf 0a bf 14 68 4f 3f 70 8e d1 3e ee da db be
       -0.5422272 0.81018186 0.40928984 -0.42940468
0000e0 ad 98 e7 3d 2c 42 86 3e b9 e6 24 be 6a b0 3f 3e
       0.113084175 0.2622236 -0.16103639 0.1871964
0000f0 be aa 81 be 42 f0 24 bf 33 98 45 be b5 d8 ab 3e
       -0.25325578 -0.64429104 -0.1929634 0.33563772
000100 93 c2 44 bf ee 4a 3e bf e3 1d 4f be 73 40 1a bf
       -0.76859397 -0.74333084 -0.20226245 -0.6025459
000110 21 9b 76 3e 59 58 1b 3e 10 33 f2 3d bd c4 a2 3e
       0.24082614 0.1517042 0.11826146 0.31790724
000120 97 cb 26 bf 87 46 0b 3e ac 5f 6f 3f b4 3e cc 3e
       -0.65154403 0.13601123 0.9350536 0.3989159
000130 cf 0d e3 3e cf a1 29 be b2 d0 e4 be b7 3e 23 bf
       0.44346473 -0.16565631 -0.44690472 -0.6376757
000140 a9 b1 36 3f c7 8e 52 3e f8 fc 00 3c 4d 05 57 bf
       0.7136484 0.20562278 0.007872812 -0.83992463
000150 6b b5 94 bf 2c 78 d1 3d b3 c7 11 bf 5f aa 00 bf
       -1.1617864 0.10227999 -0.5694534 -0.50259966
000160 1d 50 6a 3e 0f 22 ec 3e 9a 4e 47 bf 6e 01 b7 bd
       0.22882123 0.46119735 -0.7785431 -0.089358196
000170 9a 4e 12 bf ad dd 09 3e 99 8a 2b 3f d6 20 37 be
       -0.57151186 0.13463469 0.6700836 -0.1788362
000180 9a 84 17 bf a9 86 e7 3e a8 17 8d 3c 79 4d a3 bd
       -0.5918671 0.45219925 0.017223194 -0.07973761
000190 89 85 63 3d fe b0 9e 3e 55 37 82 3f 5f 7a e7 3e
       0.05554727 0.3099441 1.0173136 0.4521055
0001a0 23 d1 26 3e e6 54 31 bf 05 77 2f 3e 22 14 d7 3e
       0.16290717 -0.6927017 0.17135246 0.42007548
0001b0 0d a9 d9 be c6 a1 3b be 10 42 8d 3e 94 cd a9 be
       -0.42511788 -0.1832343 0.27589464 -0.33164656
0001c0 13 87 7c 3e 27 b9 d7 3e b6 12 1e bf a7 49 0d 3f
       0.24660902 0.42133448 -0.617473 0.5519051
0001d0 f6 97 cd be 7a 20 48 bd 57 42 e8 be 83 e4 d2 bb
       -0.40155 -0.048859097 -0.45363113 -0.006435932
0001e0 05 0b 25 be 5b 7b 7b be df 24 e2 bd 73 20 fc be
       -0.16117485 -0.24558775 -0.11042189 -0.49243507
0001f0 56 9d ed 3e 59 a0 04 3e 1e ad c8 3c 95 5d ea be
       0.464091 0.12951793 0.024496611 -0.45774522
000200 01 92 18 3f 19 1c 53 3e 02 72 88 3d 65 c9 22 3e
       0.59597784 0.20616187 0.0666237 0.15897138
000210 97 1c 91 be d4 0e 72 be 07 3c 18 3e 4f 27 00 be
       -0.28342125 -0.23638469 0.14866649 -0.12514995
000220 30 63 18 be d7 09 70 3f de bc 2c be fd f6 23 3f
       -0.14881587 0.93765014 -0.16868922 0.6404875
000230 bd 6f f2 be 20 b2 13 3f e8 ef 2f 3f 4f 1c a1 3e
       -0.47350875 0.5769367 0.6872544 0.3146691
000240 b5 54 1a 3e 9f 3f 69 3f ae 67 f0 3e c6 10 06 3f
       0.15071376 0.91112703 0.469541 0.52369344
000250 ba ec e7 3e 50 39 31 3f b2 bb 1e bf 61 70 d6 be
       0.45297796 0.69228077 -0.6200515 -0.41882613
000260 57 20 43 bf 65 43 04 bd 31 33 0d 3d a7 7a 08 3f
       -0.7622122 -0.032290835 0.034472648 0.5331215
000270 bb 81 51 bd ef 4b d1 3e cf 60 30 bf a7 01 c8 be
       -0.05114911 0.40878245 -0.6889772 -0.3906376
000280 bf 78 e1 bd dd 46 47 bf 0a 1a b9 3e 46 95 02 3f
       -0.110093586 -0.77842504 0.3615268 0.51009023
000290 ee 5f d1 3d 86 db fc be 24 07 7f be ff fa b5 bc
       0.10223375 -0.49386233 -0.24905068 -0.02221441
0002a0 ec eb 54 bb a3 d3 8e 3f 9b a8 2a be bc 26 14 bd
       -0.0032489253 1.1158336 -0.1666588 -0.036169752
0002b0 5f 49 4b 3f bf 0c 0e 3f 7e 91 02 bf 74 28 4f 3f
       0.7940883 0.554882 -0.51003253 0.809211
0002c0 b9 78 25 3f 0a 5c 4e 3c 4f aa 16 bf 3f bc b2 be
       0.64637333 0.012595186 -0.5885362 -0.34909245
0002d0 d4 0e e2 be 1f 09 05 3f 02 b1 19 be 76 8b 91 be
       -0.44151938 0.5196704 -0.1500893 -0.28426713
0002e0 79 8c 4d 3f b9 ee 48 be b4 dc 40 be b8 0b c8 be
       0.8029247 -0.19622315 -0.18834192 -0.3907144
0002f0 a8 88 49 be b0 e7 4f 3e ac f1 9a 3e 29 a0 23 bf
       -0.19681036 0.20303226 0.30262506 -0.6391626
000300 84 fd 71 3f 23 dc 8c 3f 2e ea 0e bf f1 34 5c bf
       0.9452746 1.100468 -0.5582608 -0.8601828
000310 a3 35 b6 3e bf f9 d7 3e 01 a5 c0 3d fe 9f 70 be
       0.35587797 0.4218273 0.09406472 -0.23498532
000320 8f f0 4c bd 5f 14 81 3d e8 89 32 3f 17 93 ae 3e
       -0.050034102 0.063027136 0.6974168 0.34096596
000330 9a df 77 bf 5f 66 03 3f 7a 00 43 3e 16 b3 2a 3e
       -0.96825564 0.5132808 0.1904315 0.16669878
000340 3a 79 67 3e e8 79 e0 3c c9 9c 44 bd 53 d8 96 3e
       0.22604838 0.02740188 -0.048001084 0.29461917
000350 8d fb ee 3e 3f 5c 93 3f 3c 3d 1c 3e 1f 6e 3e 3f
       0.46676293 1.1512526 0.15257734 0.7438678
000360 9e c9 6a 3f 12 14 6f bd d2 8e ed be 32 a5 04 bf
       0.91713893 -0.05836875 -0.46398026 -0.5181457
000370 d5 38 02 3e db 89 5f 3e b1 c2 c2 3e 07 26 27 3f
       0.12716992 0.21829931 0.38039163 0.652924
000380 dd 43 9c 3e c1 cb 8b bb 50 1d 00 bd e5 78 4e 3f
       0.30520526 -0.0042662327 -0.031277955 0.8065322
000390 02 d4 a0 3e 23 15 0c bf d9 de df 3d 69 b6 b4 be
       0.3141175 -0.5471975 0.10931177 -0.35295418
0003a0 f2 7f af be af 32 91 3e 14 33 fb 3e 10 8d f5 be
       -0.34277302 0.2835898 0.49062407 -0.47959185
0003b0 ff 40 13 3e d9 fd 7c 3e 7e 45 81 3e a7 fe b5 3e
       0.14380263 0.2470621 0.2524833 0.35545847
0003c0 c0 26 42 bf 48 f5 96 bf f5 ee cf bd c7 47 63 3f
       -0.7584038 -1.1793604 -0.10152999 0.887814
0003d0 6b 4b b2 be 3f 3a 3d bf a9 47 27 bf 3e 44 9b be
       -0.34823164 -0.73917 -0.6534372 -0.30325502
0003e0 c2 c4 a9 be 60 2e 63 3f 2e be 61 be f0 6a 8e 3f
       -0.33157927 0.8874264 -0.22045204 1.1126385
0003f0 4b bc 9d bd 98 c0 56 bd c4 24 fe be fe 94 c3 bd
       -0.0770193 -0.052429765 -0.49637425 -0.095499024

weight f4 [64, 256]
000000 1a 4e a6 bc e3 d5 c1 bc b5 02 d2 3b 42 6a f5 3c
       -0.020300914 -0.02366156 0.006409014 0.029957894
000010 0a ba b8 3c 1a d8 89 3d b8 63 15 bb 84 4d cb 3c
       0.022549648 0.06730671 -0.0022795033 0.024817236
000020 91 96 0c be 61 03 0e be 32 3b 95 be 3f 60 f7 bc
       -0.13729312 -0.13868476 -0.29146725 -0.03019726
000030 7e 15 0a bd 7c ac bf 3c 4f 99 8d 3d 3f 0e 1b bd
       -0.033711903 0.023397677 0.06914007 -0.037855383
000040 41 cc 5e 3d a3 2c 98 3c 37 34 ed bc 4d b8 bd bc
       0.05439401 0.018575972 -0.028955562 -0.02315917
000050 4c 3f 43 be 8a fa 69 bd 8d b4 91 3c 3e 2e 13 3e
       -0.19067115 -0.0571237 0.017786289 0.14373109
000060 ee 63 13 3d 32 22 7c be 61 8f e3 bb 8d 2c 82 bd
       0.035983972 -0.2462242 -0.0069445823 -0.06356154
000070 16 85 d5 be ef 42 3e 3d b9 f0 57 bd 5c ab 50 3d
       -0.417031 0.04645055 -0.052719805 0.05094467
000080 bc 24 59 be 23 8b c5 3c e6 1f 91 bd ba b0 f7 bc
       -0.2120542 0.024114197 -0.07086162 -0.030235637
000090 c7 af 60 3d e7 a1 ce be 85 81 81 bd 75 d9 65 be
       0.054855134 -0.40357897 -0.06323532 -0.22446235
0000a0 e7 d3 10 3d 7f f5 cb bd f3 00 9c bd 4f 2d 50 3d
       0.035358336 -0.09958934 -0.076173685 0.05082446
0000b0 f9 a6 88 3c bb dd 09 3e df bc 82 3c b3 34 a8 bc
       0.016681181 0.1346349 0.015959201 -0.020532941
0000c0 a3 65 93 be e5 7e 77 be d9 0e f8 bd 8e 5b 40 bd
       -0.2878848 -0.241695 -0.12112207 -0.046962313
0000d0 f5 d3 e1 bc 61 f5 55 3d f1 57 e0 3c fb 62 92 bd
       -0.02756689 0.052235965 0.027385684 -0.07147785
0000e0 05 22 0d 3c bc a7 12 3e 6a 23 68 bd ab 3f af 3c
       0.008614068 0.14321798 -0.0566744 0.021392664
0000f0 b2 f1 82 bc b7 6d 1c bd 8c f5 95 bd 6c f0 21 be
       -0.01598439 -0.03819057 -0.07322225 -0.1581437
000100 d6 11 16 bd c4 89 c1 bc 5e 0a ef bc 05 5b 67 bd
       -0.036638103 -0.023625262 -0.029179748 -0.056483287
000110 59 90 45 3d ca d1 ac bd 12 ba 23 bd d0 75 c3 bd
       0.048233364 -0.084384516 -0.039972372 -0.09543955
000120 c3 00 a9 bb 39 25 05 bf 99 08 15 be 0c b4 d1 3c
       -0.0051575615 -0.5200992 -0.14554061 0.025598548
000130 3d 5b 65 3d fa bf 7d 3c 62 51 0c be 9a b7 85 3d
       0.055995215 0.015487665 -0.1370292 0.0652916
000140 98 9d 91 3d 0a 52 0d 3e 03 c7 70 3d 51 10 61 bd
       0.07110137 0.13800827 0.058783542 -0.0549472
000150 13 7d b2 bd fe 33 7a bb f5 85 5a bd fc 46 46 be
       -0.08715262 -0.0038177962 -0.053350408 -0.19363016
000160 12 77 45 3d 27 26 4a be 62 9c c7 bd cf 4a da bd
       0.048209257 -0.19741116 -0.097466245 -0.106588
000170 24 40 18 3c 29 85 9f bd b0 47 ab bd bf 93 64 bb
       0.009292636 -0.0778907 -0.08363283 -0.0034878103
000180 ca 8a 45 bb ac 51 f0 bd 44 2f ea 3c 2c 6b b6 bb
       -0.003014254 -0.11734328 0.028586991 -0.005566975
000190 e1 5a 88 3c ea 08 d6 be 44 e2 f6 be 03 d1 95 bd
       0.016644897 -0.41803676 -0.48219502 -0.073152564
0001a0 8c 22 c8 3d e8 53 cb 3c c7 c8 1b bd 52 99 08 be
       0.09772214 0.024820283 -0.038033273 -0.13339737
0001b0 57 14 87 be 81 eb 63 bd c4 9a 97 bd d1 9c c2 bc
       -0.26382706 -0.055644516 -0.07402566 -0.023756417
0001c0 ff ca 76 bd ce f5 61 be ae 0a 41 bd 40 2d 5c be
       -0.060252186 -0.22066423 -0.047129326 -0.21501637
0001d0 51 85 67 be 89 4d 87 bc f3 66 6a bc 8e b0 68 be
       -0.2260945 -0.016516464 -0.014306772 -0.227236
0001e0 ab 8c 42 bc 41 2b a5 bc 8b 4a 59 3d ae e4 33 bd
       -0.011874358 -0.020162227 0.053049605 -0.043919258
0001f0 d9 90 6c be 8b 22 fc 3c fd 2f 6b bd 13 df 91 bd
       -0.2310213 0.03077819 -0.057418812 -0.07122626
000200 e0 6d 5a 3d 64 52 b4 3c 6e 5b 02 3d 02 c3 33 3d
       0.05332744 0.022011943 0.031825475 0.043887146
000210 bf 95 08 be d5 45 3e be aa 0f ca bc de f9 c7 bd
       -0.13338374 -0.18581326 -0.024665672 -0.09764455
000220 12 a2 9f bb d0 f1 07 bd dc d2 e7 bd 89 2a eb be
       -0.004871615 -0.033189595 -0.11319515 -0.4593089
000230 27 d5 5a 3d e6 7e 08 be ee 17 ce be 6b 2b 06 be
       0.053425934 -0.13329658 -0.40252632 -0.131025
000240 54 10 cc bc ea 3e 00 be 2e 90 ae bc 59 e9 87 be
       -0.02491013 -0.12524 -0.021308985 -0.26545218
000250 1f f3 08 be 3f 66 eb bd df bd 47 3d 71 ac 8a 3c
       -0.13373993 -0.11494111 0.04876506 0.01692793
000260 28 e8 72 be b1 fd 6f bd 00 f1 68 3b e7 c0 37 be
       -0.23721373 -0.05859155 0.0035544038 -0.1794468
000270 f9 e5 32 be 51 d8 df bc 4e 96 8b bd 7c 6e 5a 3d
       -0.1747054 -0.027324827 -0.06815778 0.053328022
000280 7a 78 cb 3d e4 f6 76 3d 17 7c 17 bb 55 49 d2 3b
       0.099350885 0.060294047 -0.0023114735 0.0064174333
000290 20 97 86 be 25 06 02 ba 21 81 7b 3d 7d 50 94 bd
       -0.26287174 -0.0004960022 0.061402444 -0.072419144
0002a0 30 e9 8e be 68 72 a2 be 1a 77 ef bc 89 97 43 bd
       -0.27912283 -0.3172791 -0.029231597 -0.047751937
0002b0 93 fa f4 3c 54 32 a2 be 55 5b 52 bd e1 fa 1a bf
       0.02990464 -0.31679022 -0.051356632 -0.6053906
0002c0 c5 a8 7a be 61 aa 0d bd 43 be 58 bd 1b 71 49 3d
       -0.24478443 -0.034586314 -0.052915823 0.04918013
0002d0 84 48 b5 bc a9 7b ac bd 7b 0e 84 bb 8d aa 2f bd
       -0.022129305 -0.08422024 -0.0040300465 -0.04288726
0002e0 1b 8c 4e 3e 82 6c fb bb 7a 46 da bd 3a f9 8e 3b
       0.20170633 -0.0076728472 -0.106579736 0.004363206
0002f0 47 99 b7 bc 59 f3 16 3c e1 0e 1d 3c 14 02 66 bc
       -0.022411956 0.009213292 0.009586067 -0.014038581
000300 e9 27 17 be d4 0f ae 3d d2 84 a9 3c b1 d0 b9 3c
       -0.14761318 0.08499113 0.020693216 0.02268252
000310 cf ee dd bd c1 02 0a 3d 35 49 a1 bc 93 60 a9 bd
       -0.10836565 0.033694033 -0.019688228 -0.08270373
000320 17 b2 0a be 0b b3 55 3d 44 de 7a 3d bb 84 fc be
       -0.13544498 0.0521727 0.061247125 -0.49320015
000330 f9 10 c2 bd 9c 7d d8 be f1 d8 e4 bd 0d 22 37 bd
       -0.094758935 -0.42283332 -0.11174191 -0.044710208
000340 ea 3e 92 bd 65 14 cf bc b7 b5 4c be 2b 4c 49 bd
       -0.07140906 -0.02527828 -0.19991194 -0.049144905
000350 f6 a7 16 bd a5 cd ea bd a6 ae ce bc 71 af c0 be
       -0.036781274 -0.11465005 -0.025229763 -0.3763385
000360 5d 5e 2b 3e bf b5 bd b9 a5 0b 80 bd 79 5e ad 3c
       0.16735215 -0.000361843 -0.06252221 0.021163212
000370 df 20 02 be af 5d 37 be f1 42 a8 bd 7e 64 42 bb
       -0.12707852 -0.17906831 -0.08215893 -0.0029661949
000380 fc 57 2c 3d 8e b8 8c bd e1 9a 07 bd 79 a4 38 be
       0.042076096 -0.068711385 -0.03310669 -0.18031491
000390 06 20 e1 be c3 f1 8a 3c 33 f3 15 bd 00 c2 93 3c
       -0.43969744 0.016960984 -0.036608886 0.018036842
0003a0 e7 d2 17 bc 5c 66 f8 3c fd 4f 0c bc 61 71 03 3d
       -0.009266592 0.030322246 -0.008563993 0.03209055
0003b0 c8 a0 7b 3c 8c 5d 65 3c 6c a5 3a bd 46 3a 8c bc
       0.015358157 0.013999354 -0.045567915 -0.01711763
0003c0 e4 48 c0 3c 5f e0 46 be 3d cb 44 bd 1e 16 18 3e
       0.023472257 -0.19421528 -0.048045386 0.14852187
0003d0 63 d8 b2 bd c2 c0 49 bc a8 b8 c4 bd f9 56 72 bc
       -0.08732679 -0.012314023 -0.09605533 -0.014791244
0003e0 84 85 2c 3d 1f ff a1 bd d7 78 37 3d 95 62 55 be
       0.042119518 -0.079099886 0.044792976 -0.20838387
0003f0 e0 25 bf bd 2b e4 ae be c3 4a 0d be 4d 5c 94 3c
       -0.09333396 -0.34158453 -0.1379805 0.018110419

bias f4 [64]
000000 5c 00 a7 bd 12 5a db bb dd 5e 24 38 0e bb f2 bd
       -0.081543654 -0.006694087 3.9188995e-05 -0.11852084
000010 68 42 54 be fd 53 00 3e ca 33 a8 3d f7 23 87 3c
       -0.20728457 0.12532039 0.08213003 0.016496642
000020 4d 4e 05 37 7a a3 6f 3d 7a b8 0d b1 69 99 49 be
       7.945649e-06 0.058505513 -2.0623063e-09 -0.19687428
000030 b8 6e 22 be 46 b8 24 be fa 6c 02 3f 9d d5 ad bc
       -0.15862548 -0.1608592 0.50947535 -0.021220023
000040 d2 6c 9f bd b8 8f a9 3d fb 5e 23 80 6a ca 7b bc
       -0.07784428 0.08279365 -3.248315e-39 -0.0153680835
000050 d4 9a 4d bd 85 f5 21 3e 7d 27 11 bd 13 ff e3 3d
       -0.050196484 0.15816315 -0.03543805 0.11132636
000060 3b 2e b9 3a 88 62 0c be b6 3c 3b 3e 56 ff 73 bd
       0.0014128158 -0.13709462 0.18284878 -0.05956968
000070 7a b8 47 3b f7 49 04 34 c1 0b 2f a3 0a 00 1a be
       0.0030474947 1.2320366e-07 -9.489258e-18 -0.15039077
000080 59 48 f6 bd 7d 47 4c 3c 0f 26 1e 3e 07 dc 3d bd
       -0.12025518 0.012468216 0.15444206 -0.046352413
000090 f2 cb f7 3c 77 77 a9 be 99 03 93 3e 14 e6 e3 3e
       0.030248616 -0.33098957 0.28713682 0.44511473
0000a0 82 8b bd 3e eb b7 5f bc ce 52 0a 3e 9d 4e 0c bd
       0.370205 -0.013654689 0.1350815 -0.03425466
0000b0 d7 a6 2a be 4b 6c a4 bd 54 d9 6a 09 1f f1 23 bd
       -0.16665207 -0.08028468 2.8268913e-33 -0.040024873
0000c0 33 30 06 ba 18 9a ca 3b 87 62 37 bd b2 a1 09 3c
       -0.00051188766 0.00618292 -0.044771697 0.008400368
0000d0 c8 42 f3 b7 bb 0c 6a be 74 1a e7 ba fb ff 08 3e
       -2.8998955e-05 -0.22856419 -0.0017631785 0.13378899
0000e0 39 10 19 30 14 2a db b8 ba f5 36 be d7 05 06 bc
       5.568413e-10 -0.000104505714 -0.17867175 -0.008180103
0000f0 a7 26 ce bc 89 b5 87 b6 87 6f 35 00 73 d9 86 be
       -0.025164915 -4.044447e-06 4.90729e-39 -0.26337776

weight f4 [32, 64]
000000 27 8a 96 3d 61 83 af 37 64 2e 8f 39 34 27 b8 3d
       0.07350569 2.0922804e-05 0.0002730965 0.089918524
000010 db 4d f6 bd 1b 15 8b 3e 9f a8 17 3e 44 7e cd bd
       -0.120265685 0.2716454 0.14810418 -0.10033849
000020 2e 6f d8 39 08 33 6c bd 89 6d d0 3b 96 db 6e 3d
       0.00041281566 -0.057665855 0.006360714 0.058314882
000030 ea 76 21 3d e1 6d 8f bd ee a6 71 be 02 bf 37 3d
       0.039420046 -0.070033796 -0.23598835 0.044859894
000040 33 62 f6 3c 38 ba 9b 3e 2d 28 9c 2b 8d 0d 8d be
       0.030076122 0.3041551 1.1095618e-12 -0.275494
000050 5a a8 b8 3c 41 c6 4b 3e 52 d8 08 be ba 9c 4b 3e
       0.022541214 0.19899847 -0.1336377 0.19884005
000060 40 92 96 b9 0b 85 8e bd 8f 6e 99 3e cf 91 09 3d
       -0.00028719194 -0.0695897 0.29967162 0.03358632
000070 f0 3f 96 b7 d4 06 8f b5 4b 14 09 00 20 d8 a0 3d
       -1.7911167e-05 -1.0656317e-06 8.33799e-40 0.078537226
000080 36 2b 85 3d b4 08 bd 3d bf 18 92 3e 94 26 80 3d
       0.065023825 0.092301756 0.28534505 0.06257358
000090 76 03 ca bc c9 f5 db bd 9b 40 07 be a6 08 c9 3b
       -0.024659853 -0.10740239 -0.13208239 0.006135064
0000a0 7d 07 49 3d 48 13 7f bb a8 bf dc 3d c8 56 0b bc
       0.049079407 -0.0038921405 0.10778743 -0.008504577
0000b0 4f dd 09 bd 72 44 7b 3c df ee 11 00 a6 39 a5 bc
       -0.033658322 0.015336143 1.646894e-39 -0.02016909
0000c0 8c 1d ad b9 d8 77 91 b9 a5 44 1a bd 22 c6 d4 b6
       -0.00033019145 -0.00027745846 -0.03766312 -6.341158e-06
0000d0 46 cf 0a 32 dd ba 92 bd 72 07 a3 b9 e5 fb e0 3e
       8.079786e-09 -0.071645476 -0.0003109533 0.4394218
0000e0 32 49 27 8f 4b a2 1e bb cf 3b 93 bd 78 95 d3 b7
       -8.2478326e-30 -0.002420562 -0.07189142 -2.5222762e-05
0000f0 e9 bd 7d aa 20 c8 37 3d 96 d5 27 00 81 b9 0c bd
       -2.2536802e-13 0.04486859 3.658205e-39 -0.034356598
000100 04 f0 4f 3d e7 7b 80 3d a7 1f 8e bd d2 39 3d 3e
       0.050766006 0.062736325 -0.06939631 0.18479088
000110 2e b4 04 bd d4 64 33 3e 71 e4 55 3e fc 39 15 bc
       -0.032398395 0.17518932 0.20887925 -0.009108063
000120 f8 a2 08 bd 81 dc ff 3d a7 6b ef 3b b3 f0 cf 3d
       -0.033358544 0.1249323 0.0073065343 0.101533316
000130 ff 3d 5d 3d 5c 3d 73 3d a1 dd 04 be b0 9e 37 3d
       0.054014202 0.05938469 -0.1297517 0.04482907
000140 bd cd 72 3c 86 75 46 3e 03 30 1a ba 0f a2 d2 3c
       0.01481956 0.19380769 -0.0005881788 0.025712041
000150 ea 62 9c 3d ca 91 1f 3d bb 8a 85 3d f3 fb 6f 3e
       0.07636054 0.038957395 0.06520601 0.23435955
000160 ad 51 65 bd 8f 23 f3 bc ea 7d 93 3d 96 d7 e4 3d
       -0.055986095 -0.029680042 0.072017506 0.11173932
000170 84 c0 4b bd d5 2d 52 3d 84 b3 d6 05 45 15 19 3e
       -0.049744144 0.05131324 2.0190407e-35 0.1494952
000180 8f 16 04 3d 9f 53 c5 3d c5 e1 19 3d 6e 49 db 3d
       0.032248076 0.0963509 0.037568826 0.10707365
000190 49 ff 04 3d 43 b7 37 bd f5 f6 02 3e f4 4e d3 3c
       0.03247002 -0.044852506 0.12789519 0.025794484
0001a0 6c f5 c8 3d d4 d0 36 3c 5f b1 b8 3d 24 bd 02 3d
       0.098124355 0.011158187 0.09018206 0.03191866
0001b0 26 85 53 3c af 83 1e 3d 16 f6 d8 92 cf 13 13 3e
       0.012910163 0.038699802 -1.3692181e-27 0.14363025
0001c0 9f f4 db 3c e1 dd bb 3c 55 cc 4d bd 10 c3 d1 bc
       0.026850043 0.022932949 -0.050243694 -0.025605708
0001d0 2c e6 93 3c d5 03 f9 3d 9a a5 a3 3d a0 e6 a9 3e
       0.01805409 0.12158934 0.0799057 0.33183765
0001e0 5f e5 c0 3a 26 1c 9f 3c ca 98 f9 bc fe a5 17 3d
       0.0014716795 0.019422602 -0.030468363 0.037023537
0001f0 07 e1 56 bd 35 e9 38 3d ad f4 60 1c 45 e9 23 bd
       -0.052460697 0.04514428 7.443162e-22 -0.040017385
000200 fe 4d ef bd 05 d8 3c 34 70 66 8a 3c 90 42 25 bc
       -0.11684798 1.7587452e-07 0.01689455 -0.0100866705
000210 86 e8 89 3d 4e e5 e6 3c 79 de 3a 3e 80 db 20 00
       0.067338035 0.028185513 0.18248929 3.017478e-39
000220 1b 4d 0c 3c 32 ad 84 3c 3e dc df 38 cb 65 01 bd
       0.008563305 0.016195867 0.00010674492 -0.031591218
000230 36 07 07 be 4c fe 84 bd b8 83 6e be 8f e6 37 3d
       -0.13186345 -0.06493816 -0.23292434 0.044897612
000240 4b f5 7e bd 5a bc 82 3d 11 04 39 b4 37 ff 1c be
       -0.06224565 0.063835815 -1.7230947e-07 -0.15331732
000250 5b dc 3d bd c7 b7 0c 3e 36 8a 20 bc fa 63 e5 3d
       -0.046352725 0.1374198 -0.009798577 0.1120071
000260 52 d4 ab bc b8 82 67 be 89 f3 a4 3d ab 82 5e 3d
       -0.020975266 -0.22608459 0.08054263 0.054323833
000270 a1 56 ba 3b 58 49 5a 3b e4 ff 16 00 f5 db 6f bd
       0.0056865965 0.0033307876 2.112177e-39 -0.058559377
000280 91 44 3c 3d 16 e2 a6 3d e3 18 36 3e 7a 16 93 bb
       0.045963828 0.08148591 0.17782931 -0.0044887634
000290 6f 6e c0 b9 cc e5 21 3d 33 19 3a bc 63 a4 3d bd
       -0.00036703373 0.039525792 -0.011358547 -0.04629935
0002a0 aa 8e 25 3d be 21 04 bc c1 be a9 3d 4d 3a f7 3c
       0.04041926 -0.008064685 0.082883365 0.030179167
0002b0 6d d9 67 3d 5a b6 6b 3d 2a 2c 86 80 82 52 9b 3d
       0.056603838 0.05754695 -1.23218e-38 0.075840965
0002c0 22 c9 ae 3b 7f e4 9a bb db ae 52 bd ad 03 00 bd
       0.0053340355 -0.004726946 -0.051436286 -0.031253505
0002d0 90 8c 21 00 a5 e5 e6 3d 22 6a b3 39 68 53 3c 3e
       3.080996e-39 0.1127427 0.00034220616 0.18391192
0002e0 b4 5b 10 00 c9 eb 58 3c f1 63 97 3d f3 5c 52 38
       1.502265e-39 0.013239809 0.07392109 5.0154467e-05
0002f0 09 5c 24 3d be 7c 34 3d c0 40 10 00 41 5e 97 be
       0.040126834 0.044064276 1.492596e-39 -0.29564098
000300 9b d1 81 3d 84 39 af b9 24 44 27 3c fc 92 2e 3e
       0.06338807 -0.00033421454 0.010209117 0.17048258
000310 4d 9e 56 3d c8 64 b1 bc 70 a5 00 3e 2e 7f 7e bd
       0.05239706 -0.021654502 0.1256311 -0.062133007
000320 2f 2f 5d 3c 15 79 d2 bd 02 3f 37 9e 64 63 2d 3e
       0.013500019 -0.10277001 -9.700969e-21 0.16932446
000330 6b 56 05 bd e7 07 4f 3c d2 5f be be 49 64 7a 3d
       -0.032553118 0.012636161 -0.3718248 0.061130796
000340 11 2f c0 3c fd 4c ba bc b9 2a f3 34 db 0c c3 bd
       0.023459943 -0.022741789 4.5293362e-07 -0.09523936
000350 c5 da 4a bd 74 41 1d 3e a5 cd c6 3c 99 8c 84 bd
       -0.04952504 0.15357 0.02426798 -0.064721294
000360 69 2a 28 3d 8c c7 00 be d3 49 0e bd 8f 09 1c 3e
       0.04105607 -0.12576121 -0.034738373 0.15238021
000370 be 81 86 3b 82 a3 80 3c 56 59 1d 00 34 06 de 3d
       0.004104822 0.015702967 2.695277e-39 0.10841027
000380 a6 41 ee 3d e6 eb 24 bd b5 7e 1a 3e 35 b5 b5 bd
       0.11633615 -0.040264033 0.15087397 -0.08872453
000390 5d 9b 67 bc e8 5a 38 bd 9a 61 18 3e 7f 70 8a 3d
       -0.014136163 -0.04500857 0.14880982 0.06759738
0003a0 a9 5b ab bd 1b d3 2c 3d d5 36 6c 3d b4 c8 34 bd
       -0.08367092 0.042193513 0.05766948 -0.044136718
0003b0 00 cb 0d bb 6d 2c e5 3d c6 a8 03 00 ae 42 50 bc
       -0.002163589 0.11190114 3.36051e-40 -0.01271121
0003c0 fc d6 5d 3c 5a 9a 9a 3c a8 ee c7 3c 89 1f 1d 3b
       0.013540026 0.018872429 0.024405792 0.0023975095
0003d0 76 13 5a 3a 79 4b 8b bb 8c e5 84 3c 14 90 34 be
       0.000831894 -0.0042509404 0.016222738 -0.17633086
0003e0 e7 cf 0f 00 d5 a1 c5 3b f0 ef be bd 02 c5 cf b8
       1.452114e-39 0.006031255 -0.09323108 -9.907225e-05
0003f0 cf 22 a3 3d 4c 4b 31 3d 44 fe 7e 06 ca e1 3f be
       0.079656236 0.0432847 4.7958895e-35 -0.18738475

bias f4 [32]
000000 1f c2 1d be 20 0b bf 3d d2 3c e7 bc f3 19 1f be
       -0.15406083 0.09328294 -0.028227244 -0.15537243
000010 96 38 66 bc 22 a1 67 3e 10 70 88 bc 75 0d 6c bd
       -0.014051577 0.22620061 -0.016654998 -0.05763002
000020 be 64 0e 3e 60 08 3a 3e ae 55 22 bd 45 4a 3c bd
       0.13905618 0.18167257 -0.03963249 -0.045969266
000030 bd 74 b3 bc b0 57 92 bd 42 43 9c bc e1 d2 35 bd
       -0.021906251 -0.07145631 -0.01907504 -0.044390563
000040 a9 ea 60 3e 5b 4c 3d be ee 03 b5 bd 47 bc 52 3c
       0.21964516 -0.18486159 -0.0883864 0.012862272
000050 ae 2d 30 bf b7 0b 38 b7 5f d3 08 3d c5 b4 98 bd
       -0.688197 -1.0969982e-05 0.033404704 -0.07456354
000060 11 6d 05 3f f5 b1 14 bd e0 76 55 3d 57 99 2b ba
       0.5211955 -0.036302526 0.05211532 -0.0006545982
000070 4f 7e 73 3d b7 8e 67 be 78 58 07 be 2d 2b 7d bc
       0.05944663 -0.22613035 -0.13217342 -0.015452188

weight f4 [8, 32]
000000 ec a3 86 bf 43 27 8b bd e0 85 c3 be 38 0c 52 3e
       -1.0518775 -0.06794598 -0.38188076 0.20512474
000010 aa 80 47 be 5c cb ed 3d 32 46 00 80 fb e3 14 3e
       -0.19482675 0.11611053 -2.5181e-41 0.14540093
000020 2a 15 2b 3e 85 24 f2 be 30 12 28 3e f5 43 0a bc
       0.16707292 -0.47293487 0.16413188 -0.008439054
000030 ec 70 b2 b2 6b 1e ce bd 3a f9 26 3e e3 b7 03 3d
       -2.0773278e-08 -0.100643955 0.1630601 0.03215779
000040 06 53 7e 38 bf ad 25 3e 4f c2 89 bd 31 f1 21 bc
       6.063564e-05 0.1617956 -0.067265145 -0.009884165
000050 d7 10 65 be 30 7c 25 1c 5b 23 46 3d 0e 08 32 3d
       -0.22369705 5.475443e-22 0.04837356 0.043464713
000060 01 a2 4e 3e ec 66 ab bd 6b 69 c5 bc 87 4c 0a 80
       0.20178987 -0.0836924 -0.024098119 -9.45808e-40
000070 19 a2 69 bf 43 c0 32 bd 57 89 a2 3d 40 f0 53 3d
       -0.91262966 -0.043640386 0.07936352 0.051742792
000080 af 04 bb be fb e5 a9 bd 9f 15 51 be c4 4d 04 3e
       -0.3652701 -0.082958184 -0.20418404 0.1292029
000090 f8 8e 40 3e 7a c3 15 3e 1c 2e 28 b8 b1 6a 96 bd
       0.18804538 0.1462535 -4.0097264e-05 -0.073445685
0000a0 7e ac d6 bd f0 0e 45 3c cd 94 ca 3c 3e 6b 06 b9
       -0.10482119 0.012027487 0.024729157 -0.00012819187
0000b0 c7 4e 92 3c dc c9 b2 3d 00 4d 5f 3d 88 e6 20 3c
       0.01785983 0.08729908 0.054516792 0.009820588
0000c0 c0 0a 86 3d 29 91 36 3e 00 d1 11 3c c0 ad e7 bc
       0.06545019 0.17828812 0.008899927 -0.028281093
0000d0 2d 05 1d be 15 eb 1a 99 62 09 df bc 4d 3f 6b 3d
       -0.15334006 -8.009088e-24 -0.027226154 0.057433415
0000e0 ce f2 05 3f 54 00 8c bd 9e 45 02 3d 41 74 03 00
       0.52323616 -0.06836 0.031804673 3.1721e-40
0000f0 db 12 8a be 56 89 38 3e 15 fb 5f 3d 7d c0 4d 3d
       -0.2696751 0.1802114 0.05468281 0.0502324
000100 a9 d4 94 bc 02 bb b0 bd d9 1a b6 bc bb 34 4d be
       -0.01816781 -0.08629419 -0.022229599 -0.20039646
000110 8b 20 1a be b5 15 2e bd 6c 6d 43 3d 6a 2e d9 bd
       -0.15051477 -0.04250117 0.047711775 -0.10604556
000120 a2 8a ce 3c 91 a7 59 3d 44 47 1b bd 21 4d ad bd
       0.02521259 0.05313832 -0.03790976 -0.08461977
000130 f4 aa 21 3c dc 03 9c bd 7c c1 11 3b 03 25 4b bc
       0.009867419 -0.076179236 0.002224057 -0.012398961
000140 a5 3c 2a 3c 8c 8f e7 3c 93 ee 1f bd 1e 1d ce bc
       0.010390435 0.02826669 -0.03904588 -0.025160369
000150 d1 20 e8 bc 8e 67 03 b5 34 9e 10 be cb c5 22 b8
       -0.02833596 -4.8951995e-07 -0.1412285 -3.880802e-05
000160 df 12 40 be 47 43 89 3b 9c 64 e8 bd 69 4b a4 3c
       -0.18757199 0.0041889283 -0.11347315 0.02005549
000170 92 3c 0a bd 4e ed 3d 3d 73 88 86 bd 50 04 dc bd
       -0.03374917 0.04636889 -0.065689944 -0.1074301
000180 29 b2 de bd de 76 cc bc 9b 9e c8 bb 27 d6 c3 bc
       -0.10873825 -0.024959024 -0.006122423 -0.023905827
000190 a1 7c ad bd 1a da 21 bd 0a 2f 1d 3d a7 55 02 bc
       -0.08471037 -0.03951464 0.038374938 -0.007954991
0001a0 a4 43 05 3d 7b 1e 4d bd fe b1 2c b9 45 9c 3b b4
       0.03253521 -0.050077897 -0.00016469505 -1.7472583e-07
0001b0 4b 7a d0 ba ea 41 69 bd 69 ec 42 bd 2c 5e 47 3d
       -0.0015905587 -0.056947626 -0.04758874 0.048673794
0001c0 18 a0 0f bd f8 24 0c 3b 39 2f 25 bd 83 93 24 3c
       -0.035064787 0.002138434 -0.04032824 0.010044935
0001d0 42 1f 36 37 e4 24 4b 02 b7 40 23 bc a2 0b 67 9b
       1.0855323e-05 1.4924672e-37 -0.00996416 -1.9111631e-22
0001e0 78 09 41 bb 21 67 1e bd 8c 70 bd bd 4d 53 8c bb
       -0.0029455107 -0.03867257 -0.09249982 -0.004282391
0001f0 ed 01 92 b5 e7 7c da bd 08 03 6d bd 16 29 1d b2
       -1.0878408e-06 -0.106683545 -0.05786422 -9.147945e-09
000200 2a f9 92 bf c8 9e 4c be b9 1d 05 bf 25 7b b3 3d
       -1.1482289 -0.19982445 -0.5199848 0.08763722
000210 b7 b7 92 be 8b 0e 84 3d 74 5f be b8 70 bb 9d 3d
       -0.28655788 0.06448086 -9.0776855e-05 0.077017665
000220 60 0c 52 3d 49 b7 19 bf 40 a3 eb 3d fe 76 1b 3c
       0.051281333 -0.60045296 0.11505747 0.009488819
000230 d8 14 14 b5 33 22 92 3d 4d c8 ca 3d 18 a9 10 3d
       -5.516463e-07 0.07135429 0.099014856 0.03531751
000240 c1 60 c4 3d 1b 07 2f 3e 91 66 3f 3e 4d 6b e4 3d
       0.09588767 0.17092554 0.1869147 0.111532785
000250 2c 40 f2 be e4 b4 f4 37 eb 86 24 3e e6 2f 89 3c
       -0.47314584 2.91713e-05 0.16067092 0.016746473
000260 ab 62 ef bd f5 da e0 bd e6 94 83 3d 84 de 90 aa
       -0.11688741 -0.10979263 0.064248845 -2.573394e-13
000270 01 d6 84 bf 01 b7 5a 3e 69 de dd 3d bd 23 21 3e
       -1.0377809 0.21358873 0.10833437 0.1573629
000280 a9 07 0d 3d 1a f8 cd bd 80 8c 9d 3c a8 03 20 3d
       0.034431133 -0.10057087 0.019232035 0.039065987
000290 01 51 56 3c c1 5d ec bd c5 48 af 37 fa 5b c3 3d
       0.013080836 -0.1154132 2.0895512e-05 0.095390275
0002a0 67 99 54 3c 4c 1d ca 3d 62 40 e3 3d a1 d8 da 3b
       0.012976027 0.09868869 0.110962644 0.006678656
0002b0 34 0d fb b2 29 43 9e 3d d5 46 80 be f5 77 39 bb
       -2.922625e-08 0.077276535 -0.2505404 -0.002830026
0002c0 df 0b ec bd 7a 63 c7 bd 91 4c 83 3e 7c 02 51 3d
       -0.11525702 -0.097357705 0.25644353 0.05102776
0002d0 19 c1 72 bd 3b 43 5a 3c 77 80 94 3e f4 22 dc bc
       -0.059266184 0.013321693 0.2900426 -0.026872136
0002e0 ca c2 53 bd 98 bc 1c bc 5f 72 31 3e 06 d5 ae 95
       -0.051699437 -0.009566449 0.17328785 -7.061413e-26
0002f0 39 6c 94 3c 1f 21 c7 bd 34 1f da 3d 55 11 2f 3e
       0.01811801 -0.09723114 0.10650483 0.17096455
000300 21 5c 4a 3e d6 64 46 3e 43 8a 84 3d c7 dc ea 3d
       0.19761707 0.19374403 0.06471684 0.11467891
000310 9d 0b 8c 3d a4 6c f5 be db f0 1c bb 62 79 cb 3d
       0.068381526 -0.4793445 -0.0023947272 0.09935261
000320 19 67 c3 3d 0b e8 af bd 06 5f e4 3d db c7 96 bd
       0.09541149 -0.085891806 0.11150937 -0.07362338
000330 ac d5 97 bb 3e e3 08 bf a2 2b a0 be 7c 21 5d bd
       -0.004633626 -0.53471744 -0.3128329 -0.05398701
000340 b8 13 43 3c 54 61 c4 be aa 34 2c 3c be ef 9e 3d
       0.011906557 -0.38355505 0.010510603 0.07760571
000350 73 21 9c be 22 f8 35 3d 90 5b c2 3d e2 c1 67 bd
       -0.3049427 0.04442609 0.094901204 -0.056581385
000360 e8 bd ac be 16 f3 ab 3c 96 94 1c 3e 35 11 40 3c
       -0.33738637 0.020989936 0.15291056 0.0117228525
000370 5b 90 8e 3d f2 52 0b be d9 fd 54 3d c4 4e e9 3d
       0.06961127 -0.1360586 0.0519999 0.113919765
000380 2b d2 41 be ea c6 99 be 5f 94 12 be 71 cb a9 bc
       -0.18927829 -0.30034572 -0.14314412 -0.020726891
000390 36 cc 49 be 04 fe d2 3c a3 22 d7 3d ff 3e 43 3d
       -0.19706807 0.02575589 0.10504653 0.0476675
0003a0 7c f0 4d 3b 0f 90 84 be d3 9c eb bd dc b2 f4 b9
       0.0031423857 -0.25891158 -0.11504521 -0.00046672567
0003b0 6b bf 7e 3c 23 0a c1 bd 04 c0 21 3d 24 af d7 3d
       0.015548567 -0.094257616 0.03948976 0.10531452
0003c0 7f 23 db 3d a7 37 46 bd af 01 dc 3c 88 f7 a5 3c
       0.1070013 -0.048392918 0.026856272 0.020259634
0003d0 21 b9 c0 3c 7b 76 0e 00 f0 74 5e bd 0f ec 06 00
       0.023525776 1.3282e-39 -0.05431074 6.35695e-40
0003e0 62 f4 16 3a e7 84 06 bd 28 ee 32 3c 18 37 8f bc
       0.0005758462 -0.03284159 0.010921039 -0.017482325
0003f0 25 4b ab bd 3b 9e f5 3d ac ac 10 be b1 1c 9a 3b
       -0.08363942 0.11993071 -0.14128369 0.0047031273

bias f4 [8]
000000 18 f3 a9 3e a6 0b 06 3f 00 a5 00 3d 52 bf 94 bc
       0.33193278 0.52361524 0.031407356 -0.018157635
000010 14 94 c3 bd f6 0c 57 bd 27 12 f1 bd 75 33 86 be
       -0.09549728 -0.052502595 -0.117710404 -0.26211134

weight f4 [1, 8]
000000 05 f9 20 be 1d b7 64 bd 34 e4 5d 3e c1 1e 82 3d
       -0.15719993 -0.055838693 0.21669084 0.06353522
000010 88 0e d1 be d8 21 8c 3c 04 6e bb 3e 54 e0 d3 3c
       -0.408314 0.017105982 0.36607373 0.025863804

weight f4 [8, 1]
000000 98 79 63 3f e6 2f 7e bf 4b 01 91 be e8 03 81 bf
       0.8885741 -0.9929184 -0.283213 -1.0079317
000010 1f d4 0a 3f 49 19 72 bf 9b 57 15 80 ec f5 7f bf
       0.5422992 -0.9456983 -1.959972e-39 -0.9998462

bias f4 [8]
000000 a4 53 87 3f 74 33 81 bd 38 e0 0f 3f 78 39 44 3f
       1.05724 -0.06308642 0.56201506 0.7665019
000010 41 ee e5 bd 3d 80 80 bf 40 24 af b5 6b 5b f9 be
       -0.11227084 -1.0039135 -1.3049066e-06 -0.4870256

weight f4 [32, 8]
000000 11 8e e9 3e 37 aa a0 be 8a a8 52 be 22 e7 0d bf
       0.456162 -0.31379864 -0.20572105 -0.55430806
000010 4d ad 4e be 3b b2 11 80 de 52 08 00 58 76 17 bc
       -0.20183297 -1.62514e-39 7.64411e-40 -0.009244524
000020 ac 73 6e be 16 de 68 be a6 0e e5 3e b1 45 b3 3e
       -0.23286313 -0.22740969 0.44737738 0.35014108
000030 7f 9b 17 bf 56 eb 68 3d c8 de 09 00 d6 5e 78 be
       -0.59221643 0.05686506 9.06438e-40 -0.24254927
000040 56 2c 4e be 5d 7a 17 3e 3c 0c 3a 3e 58 34 d1 bb
       -0.201341 0.14792772 0.1816873 -0.0063844137
000050 44 ea fd bb 8f 42 36 3e f0 ae a6 80 17 32 62 3c
       -0.007748874 0.17798828 -1.5307448e-38 0.013805888
000060 02 a5 c5 be 16 12 86 3e 7d 09 81 be 59 48 8f 3e
       -0.38602453 0.26185673 -0.2520255 0.27984884
000070 ae f0 07 80 b2 36 08 3e 9c ae 03 00 22 4a b6 3e
       -7.29188e-40 0.13302115 3.38145e-40 0.35603434
000080 91 ec b6 be 0e 45 92 bc 1a df 1e bd 37 e0 b0 3e
       -0.3572736 -0.017855193 -0.038786985 0.34546062
000090 02 c5 04 80 88 f4 5a be 3e 94 18 00 f9 b2 ab 3e
       -4.38015e-40 -0.21382344 2.257231e-39 0.33534983
0000a0 e6 82 27 80 dd 77 64 3d 41 f4 b1 3e 2e cb 99 be
       -3.628542e-39 0.055778373 0.34756663 -0.30037826
0000b0 a3 3b 1d 80 a4 fb 59 3e 26 ac 0a 06 f7 08 6d 3e
       -2.684623e-39 0.212874 2.608139e-35 0.23147951
0000c0 b7 ea 96 be 7e 66 8a bd b0 06 e9 3d d8 52 bd 3e
       -0.29475948 -0.0675783 0.11378229 0.36977267
0000d0 06 98 04 00 0d 0f bd 3d 9e 6c 1c 80 40 08 67 be
       4.21878e-40 0.09231386 -2.610358e-39 -0.22561741
0000e0 24 86 8a 3e 27 68 9b 3e a4 17 89 be ba 21 d6 be
       0.27055466 0.303529 -0.2677585 -0.41822606
0000f0 66 05 2e 3e 39 3f 1b be d7 cd 24 00 40 af d3 bd
       0.16994247 -0.15160836 3.379919e-39 -0.10336161
000100 f4 83 c6 be b3 77 49 3e f0 77 cc 3e 94 c6 25 3d
       -0.38772547 0.19674568 0.39935255 0.040472582
000110 9a 5b 29 00 50 eb 97 be 7f 95 1f 80 05 8a bb 3e
       3.798116e-39 -0.29671717 -2.90053e-39 0.36628738
000120 70 3a 12 bf b2 09 b8 3e 62 ca a0 bd ac 29 5f 3e
       -0.5712042 0.35944897 -0.078511015 0.2179324
000130 ce df d8 03 de 2f 88 3d 50 80 14 80 9c a5 61 bc
       1.2746722e-36 0.06649755 -1.88274e-39 -0.0137723945
000140 a1 60 d7 3d 43 ed 50 3e a5 46 10 3e 30 78 88 3e
       0.105164774 0.20403008 0.14089449 0.26654196
000150 5a 8e 22 3e 26 76 23 3e 7a 46 21 80 29 81 c1 3c
       0.15874615 0.15963039 -3.055854e-39 0.023621159
000160 bd fd 94 3e c2 dd 25 bf d3 44 54 3e bc fa 7b be
       0.29099837 -0.647915 0.2072938 -0.24607366
000170 0f 64 88 3e 83 f7 87 3d f8 de 17 80 1f 38 8b be
       0.2663884 0.06639006 -2.192203e-39 -0.27191254
000180 f9 4d 85 be a2 24 4b 3e ac 59 85 3e 7a cd 49 3e
       -0.2603605 0.19838193 0.26044977 0.1970729
000190 ba 8a 95 3e 44 d0 03 bd 22 7e 0e 80 45 2b 8b be
       0.29207402 -0.03218104 -1.330945e-39 -0.2718145
0001a0 bf 89 9c be b8 af 7c be 4e fd 3f 3e bc ae 9a 3e
       -0.30573842 -0.24676406 0.18748972 0.30211437
0001b0 df 52 25 bf 84 d3 b0 3d 55 73 11 00 89 e4 56 be
       -0.64579576 0.086340934 1.602577e-39 -0.20985617
0001c0 65 0d 2b 3e e2 14 ef 3d b2 d4 14 3e 30 c5 c3 3e
       0.16704328 0.11673905 0.14534262 0.3823638
0001d0 ac 86 07 3e 74 5c 84 3d a5 dd 1f 00 92 69 c3 3d
       0.13234967 0.064629465 2.926411e-39 0.0954162
0001e0 fe b5 4a bd 99 04 13 3d c6 91 16 be b0 a5 97 3d
       -0.049489968 0.035893057 -0.14704046 0.07404649
0001f0 93 df bb b7 1d 8e 9b 3e 0b 23 1e 00 b0 2f 1c be
       -2.2396247e-05 0.3038186 2.767636e-39 -0.15252566
000200 3b ac 90 3e 5f 6b c5 bc 36 f8 eb be fb 6c b8 be
       0.282564 -0.02409905 -0.46087807 -0.36020645
000210 f0 24 0c 3f 06 49 d7 bc 76 b2 05 80 8b 2b c6 bc
       0.5474386 -0.026279937 -5.23197e-40 -0.024190685
000220 c4 a7 76 3c 27 2c f4 bd 6d 2c bd 3e 95 3d 40 3e
       0.015054647 -0.11922484 0.36947957 0.18773492
000230 21 05 0f bf 93 b1 f3 bd bd 5d 49 80 09 fe 9d 3e
       -0.558672 -0.11899104 -6.737618e-39 0.30857876
000240 78 ce 24 be a7 9f 13 be 0f 1f 7d be 59 dc aa 3e
       -0.16094387 -0.14416371 -0.24718879 0.33371237
000250 c1 c4 cf bc f1 1f 42 3e f0 b4 9d 80 97 6e ad 3e
       -0.025362374 0.18957497 -1.4483081e-38 0.33873436
000260 22 a7 0b 3e 6a ec 8f be cb 67 02 3f ed d3 cb be
       0.13637975 -0.28110057 0.50939626 -0.39810124
000270 49 61 58 3e 6d 6b f2 be 36 cb 0b 80 a8 8b 91 be
       0.21130861 -0.47347584 -1.083089e-39 -0.28426862
000280 d7 3c 7d 3e de 16 a3 3e 74 58 16 3e ff c1 88 be
       0.2473024 0.31853384 0.1468218 -0.26710507
000290 a9 db 4e bd 75 fe 55 3e 58 fc 24 80 b4 68 69 3e
       -0.050502453 0.20897849 -3.396602e-39 0.22793847
0002a0 af be 4a 3e 42 23 10 be 6f 64 34 be 6c 14 ae 3e
       0.19799303 -0.1407595 -0.17616437 0.33999956
0002b0 78 d5 a7 bc a6 66 bd 3d 07 c5 24 80 bd f1 a2 bd
       -0.020487532 0.09248094 -3.376758e-39 -0.07956264
0002c0 d4 a3 74 3c ad 3b 7f be 19 69 94 3e a6 84 5d bd
       0.014931638 -0.24925108 0.28986433 -0.05408158
0002d0 c6 ee cb be a3 d7 59 bd 3a 47 02 00 a6 07 37 bf
       -0.39830607 -0.053184163 2.09222e-40 -0.71496046
0002e0 f9 b9 8b 3e 80 f4 de bd f5 ee cc be 48 8e 54 be
       0.27290323 -0.108864784 -0.4002606 -0.20757401
0002f0 b5 2c c1 3e 5a de 88 3b 0a ad 0b 80 0e b9 0c bd
       0.3772942 0.004176897 -1.072265e-39 -0.03435617
000300 d7 af 0d 10 f1 db b4 bb 0a 0d 1b b8 4f 0a f2 bb
       2.794281e-29 -0.005519383 -3.6967023e-05 -0.007386483
000310 b4 28 d5 03 a6 b1 83 bb fe d3 15 00 31 50 a8 bb
       1.252836e-36 -0.00401898 2.004594e-39 -0.0051365127
000320 1c 37 aa 3e 9a a4 e3 3c 66 ec a5 3e a3 e4 41 3e
       0.3324517 0.02778845 0.3240692 0.18934874
000330 ee 12 4e be 6f db 42 be f5 9b 16 00 36 b5 38 be
       -0.20124409 -0.1902902 2.076328e-39 -0.18037876
000340 56 08 b0 3e 64 3e aa 3d 8d 52 43 bc 99 15 34 3d
       0.3438136 0.08312681 -0.011921537 0.04396591
000350 a8 ab 23 3e 1f 8d 9a be 96 04 1e 00 3e 6f 61 3e
       0.1598345 -0.30185792 2.75671e-39 0.22015092
000360 85 16 89 3e d2 12 b5 00 bd 7d 13 bf d8 38 90 bd
       0.26774994 1.6628976e-38 -0.57613736 -0.07042092
000370 b4 28 f2 3e 84 7e 0e 00 34 57 22 00 97 e4 13 80
       0.4729668 1.331082e-39 3.15369e-39 -1.826877e-39
000380 27 0f ea bc f5 eb 5c 3e c8 75 44 3e 97 f0 cb 3e
       -0.028571678 0.21574385 0.19185555 0.39831993
000390 90 91 b8 be 7b 75 8b 3e 98 3d 91 00 a8 10 a7 bd
       -0.36048555 0.27238068 1.3338243e-38 -0.08157474
0003a0 3a 4d 90 be ce 93 93 3e 24 54 7b 3e 78 9c 0a 3e
       -0.2818392 0.28823704 0.24543816 0.1353625
0003b0 42 8e 04 00 2f 64 da 3d eb 3a 1a 80 2a 1a bd 3d
       4.18374e-40 0.1066364 -2.408859e-39 0.09233506
0003c0 02 9c 85 3e 53 50 41 be 3d 1e 85 be 70 f6 38 3e
       0.26095587 -0.18878298 -0.25999632 0.18062758
0003d0 3e 20 f9 bd f0 bf 8e 3d ec 7a 16 80 80 0a 96 3e
       -0.12164353 0.06970203 -2.064477e-39 0.29304886
0003e0 b1 7c 4e be 8c 81 75 3d 7d 2d 90 3e dc 0b 67 3b
       -0.20164753 0.059938 0.28159705 0.0035254871
0003f0 0d 89 17 00 09 1c 0e 3e 8b aa ea 00 17 9b a4 3e
       2.161381e-39 0.13877882 2.1550685e-38 0.32149574

bias f4 [32]
000000 dc ce 8e 3e 31 e8 ed 3d 85 5a d8 3c cf a9 83 bd
       0.27892196 0.116165526 0.02641035 -0.06428873
000010 eb d3 77 3e 36 46 85 be eb 3d c1 3a 6b 7e 98 3e
       0.24201934 -0.2603013 0.0014743184 0.2978395
000020 0f 46 31 3e 1a 08 18 be f0 54 ad be 18 27 e6 3e
       0.17311881 -0.1484684 -0.33853865 0.449517
000030 b6 f9 d8 3d 45 f5 e6 3e 3e 01 3c be e2 45 f8 3b
       0.105945036 0.45109 -0.18359849 0.00757669
000040 38 f2 a7 bd 33 d4 80 3e 0c b2 9e 3c a8 dc 10 3f
       -0.082004964 0.25161895 0.019372009 0.56586695
000050 ee 12 e0 bd c5 09 ab 3e c9 3b 26 3e 5f 25 c3 3d
       -0.109411106 0.3340589 0.16233744 0.09528612
000060 60 22 df af 52 ff 0b 3f 4d 52 9e 3e 1f a9 97 bc
       -4.0587889e-10 0.5468646 0.30922166 -0.01851326
000070 0c cb 55 be 45 46 a6 3c 16 71 44 3d d7 e5 15 bd
       -0.20878237 0.020297179 0.04795941 -0.036596145
