model/502.054384231567383.pt (torch_old, 168315 bytes, 19 tensors)

weight f4 [256, 2]
00000000: c7a1 74bf ddc1 abbe aa3b 903e 184d cfbd
00000010: 2b3e 443f 42c1 7bbe 35d8 453f 4c45 6fbe
00000020: 2da3 753e d883 6cbe 0e6c d4be a2c9 f53e
00000030: 0610 223f e3c2 cb3e 6678 12be 4cdd 0b3e
00000040: 91e7 ba3b f0f7 af3c 8f4c 523e 443e ee3e
00000050: 085f 823e 8968 643e 09ef f23d 0a14 c93e
00000060: 15f4 e1be 906e 023f 53e0 09bf 5d6c d4be
00000070: 0427 eb3e a7bd edbe 8e33 4a3f 1e45 c5be
00000080: 0a0c c93e 7663 cc3e 78c5 f53e bebe d8be
00000090: 094a 07bf d8e3 79bd 0dda bc3e 3678 b63e
000000a0: 4d17 97be b2ca 223f 793f 63be d4de 95be
000000b0: e043 b6bd 72e5 f63e 3297 2cbf bec9 183f
000000c0: fb33 61be dad3 04bf b8cd ce3e 4270 d8bd
000000d0: a192 4dbe 4a8f 2c3e fff4 1a3f 78a7 2dbe
000000e0: 1072 d4bc 6d4e 643e dbc0 9b3e 4ba1 a0bd
000000f0: 1573 4d3f 3216 61be a00f f13e f50b 063f
00000100: 2e6b b8be aadc ea3e 57bf e53e 0814 c03e
00000110: 9bd4 153f c638 87be beb4 c33e 8377 35be
00000120: 473b bdbd 56c5 163f 4862 a2be 07dc a73e
00000130: 1da4 2d3e f8d4 163d e5cd e83e 9970 59be
00000140: c34f 8abe be14 283f 9a5a 3bbf e7b9 633d
00000150: fca5 ae3e 4aaf b6be 22c7 be3d 37be 093c
00000160: 743b 0f3f 6426 853e 4525 983e 719d c3bd
00000170: 9215 c0be 7f5f ef3e f79b 463f 0bc1 afbb
00000180: b2bc 0ebe f2b4 033f 269a 6e3e f4a5 ad3d
00000190: 3ffc a23e 49a3 a2be 51de 6bbc 6ba6 b9ba
000001a0: f1bf 52be 268d e2be 9382 b83e 54b2 79bd
000001b0: 1641 4a3f 544c 2cbf c660 893e 47f7 a83c
000001c0: f97c f63e f105 0a3d a539 75be 0570 3e3e
000001d0: e7f0 c13d e049 fcbe fd23 9ebe d347 2dbf
000001e0: a18b 2dbe c99a e63d 9a90 43bf c841 a2be
000001f0: b24e 053f f449 ffbe 37dd 68bf 88eb fa3d
00000200: 75d2 e6bd d975 b13e 92ca 41bf 34c3 68be
00000210: 55ff 1c3f 2d32 ee3e ef3c 143f f009 1abc
00000220: 8dbc e23e f7bd 1b3e f3ca 64be 1bc3 5d3e
00000230: 5e7f 473f c64e 2cbf 4f47 e33e e88c c8be
00000240: 2cc7 3e3f 1448 c1be ddcc 67bf 75b4 c23a
00000250: 3f1c df3e 47da fe3e e649 8bbd 266d 0a3f
00000260: f350 8b3e f91a 02be 6c25 88be 6d50 033f
00000270: 726e c03e af26 3fbc 6de0 d8be aecd 993e
00000280: 0c3a 003f 755c 453e 1fa1 cfbd 0b34 253e
00000290: 2ade 93bf de96 bcbd aaef 413f 2c60 1cbf
000002a0: 96ad 3d3f a488 b2be 57c7 9d3e 2a25 58be
000002b0: dc6c 4dbf 189f 243f 589b cbbe dbc0 e93e
000002c0: 03ab 8fbe bf3a d63e 9bda 4fbf fe25 c93d
000002d0: 7e50 023f fce0 d43e 71d6 fb3e b9a5 e5be
000002e0: 1a4a d4be c910 b63e 0c4a 5ebf b028 243d
000002f0: 1cce 953e 17ee eabe af04 0b3f 2491 10be
00000300: 8764 853e a32f 85be 2322 bcbe e23e c53e
00000310: d4fb 3b3f 366c 2d3e 4676 65bf 2e26 6e3d
00000320: 3c50 39bd c08a 2d3e 702d 053e 4583 b4be
00000330: 80b3 273e 9144 a53e cf08 113f 403c db3e
00000340: 8375 353f dd2a 5cbe 2436 0bbf c3d0 c93d
00000350: 4d61 eabe 2f34 a03e 41c1 f43e 3b94 aabe
00000360: e5e2 963e 3105 08bf 806b 1c3f 0bc1 9b3e
00000370: d755 013f cb97 b43e 0ece 0bbf 2819 a93e
00000380: e372 08bf 9265 dd3e ea9d d23e 5905 d9be
00000390: 8e86 aa3e 38a3 8bbe 9814 793d 9878 d23e
000003a0: 5352 b43e c44f fbbd cea0 d8be 89bc f33e
000003b0: 6bca 03bf 1951 c23e 007d cd3d 9548 0ebf
000003c0: 9400 da3e d1c4 94be a43a 81bc 1638 1bbf
000003d0: 4641 db3b 50e6 21bf 577d 0dbf c49b fdbd
000003e0: 8684 2a3f 6b41 03bf 9be8 6a3e 9cb1 e1bd
000003f0: 3f05 33bf cc2c cd3e 82d5 36bf a2e4 af3e
-0.9555935 -0.33546343 0.2817052 -0.10122126 0.7665736 -0.24585441 0.7728303 -0.23366278
0.23988028 -0.2309717 -0.4148869 0.48005396 0.633057 0.39797124 -0.14303741 0.13658637
0.0057038744 0.02148053 0.20537017 0.4653188 0.25463128 0.22305502 0.118619986 0.392731
-0.44131532 0.50949955 -0.53857917 -0.41488925 0.45928204 -0.46433756 0.78984916 -0.38529295
0.39266998 0.39919633 0.4800222 -0.42333025 -0.52847344 -0.061008304 0.3688511 0.3563859
-0.29509965 0.6359054 -0.22192182 -0.29271567 -0.08899665 0.48221928 -0.67418206 0.59682834
-0.21992485 -0.5188576 0.40391326 -0.105682865 -0.20075466 0.16851535 0.60530084 -0.16958416
-0.025933295 0.22295542 0.30420575 -0.07843264 0.80253726 -0.21981123 0.47082233 0.52361995
-0.36019272 0.45871478 0.44872543 0.37515283 0.58527535 -0.26410502 0.38223833 -0.17721371
-0.09239822 0.5889486 -0.31715608 0.32785055 0.16957135 0.036824197 0.45469585 -0.21234359
-0.27013978 0.6565665 -0.7318512 0.055597212 0.3411101 -0.3568061 0.09315325 0.008407167
0.55950093 0.26005852 0.29715934 -0.09551514 -0.37516457 0.46752545 0.77581733 -0.0053635887
-0.13939169 0.51447976 0.2330099 0.08478919 0.31833073 -0.31765202 -0.014396266 -0.0014163976
-0.20581032 -0.44248313 0.3603712 -0.060961083 0.79005563 -0.6730397 0.26831645 0.020625724
0.48142222 0.033697072 -0.23947771 0.1859742 0.094697766 -0.49275112 -0.30886832 -0.6768772
-0.16947795 0.11259992 -0.7639252 -0.31690812 0.52073205 -0.4986111 -0.9096255 0.12251955
-0.1127061 0.34660223 -0.7569972 -0.22730714 0.61327106 0.46522656 0.5790548 -0.009401783
0.44284478 0.15209185 -0.22343044 0.21656458 0.7792872 -0.673077 0.44390342 -0.39170003
0.7452266 -0.37750304 -0.9054697 0.0014854806 0.43576238 0.49775907 -0.068012044 0.540728
0.27210197 -0.12705602 -0.2659105 0.51294595 0.37584263 -0.011666938 -0.42358723 0.30039734
0.5008857 0.19273551 -0.10138153 0.16133134 -1.1552174 -0.09208463 0.75756323 -0.61084247
0.74092996 -0.34869874 0.30816147 -0.21107927 -0.8024423 0.6430526 -0.39766955 0.4565495
-0.2806016 0.41841695 -0.8119294 0.098216996 0.5090407 0.415779 0.49187043 -0.44853
-0.41462785 0.3555968 -0.86831737 0.040077865 0.2925881 -0.45884773 0.5430402 -0.14117867
0.2605326 -0.26012906 -0.36744794 0.38524538 0.73431134 0.1693581 -0.89633596 0.05814188
-0.045242533 0.1694746 0.13005614 -0.352564 0.16377068 0.32278875 0.56654066 0.42819405
0.70882434 -0.21500726 -0.5437949 0.09854271 -0.4577736 0.31289813 0.4780369 -0.33316216
0.29469982 -0.5313292 0.6110153 0.30420718 0.50521606 0.3527206 -0.5461129 0.33027005
-0.53300303 0.43241554 0.41136104 -0.42386892 0.33305782 -0.27272964 0.060810655 0.4110763
0.35219058 -0.122710735 -0.42310184 0.47604778 -0.5148074 0.37952498 0.100336075 -0.555795
0.42578566 -0.2905641 -0.015775032 -0.60632455 0.006691131 -0.63242054 -0.5526938 -0.123832256
0.66608465 -0.51271695 0.22940294 -0.110202044 -0.6992988 0.4007324 -0.7141954 0.3435412

bias f4 [256]
00000000: 8602 03bf d860 6c3d f518 643e c2ff 743f
00000010: 77af f73e dfe9 9b3e b950 113f df84 e6be
00000020: c0c9 4ebf 127d 153e 78b0 06bf 3e83 51bf
00000030: 6522 393e c49e 2e3f 378a 593f a6cf 2f3f
00000040: ee4a aabd dc73 bf3e 40ac fb3e a6f9 103f
00000050: edce edbe 882c 513f 0cd9 4dbf 69bc 133c
00000060: c520 2d3f fcf5 5b3f e36c 04bf d7cb 133f
00000070: 8214 a7be b72a 4fbe 0fb6 7abd 5fc5 013f
00000080: f182 cbbe 2e68 f0be bc5a 5f3e 7931 673e
00000090: 0aad 44bf bc88 31bf 7ab8 0ebf cc59 8b3e
000000a0: b9b3 933e 2a8d 003f 4b1e 313f 515c 573f
000000b0: e35f 323e fd20 34be 144c 64be 8844 233f
000000c0: cabd 0f3e b457 0ebf b30a 093f 43a5 08be
000000d0: 65aa 123f 3b5d e5be 666b 453e 625a 623f
000000e0: 4d2e 603f 3fa0 e0be 6574 553d dcd4 7bbf
000000f0: 67f4 6cbe 7858 d3be ed99 543f 9255 38be
00000100: 036a 07bf 808b 3cbe fdac 32bf b040 89be
00000110: a9c8 963e 8909 4cbf 6cb8 483e 90c2 023f
00000120: 8ca5 353f 0961 3b3f 4d2b b83d b29e 1dbf
00000130: 3f51 653e 9023 23bf ce4d 41bd 5f7d 283d
00000140: f60e 22bf edf9 26bf 7d25 1b3f b888 19be
00000150: 5ef5 063f fe53 13bf fc36 5bbf 9128 483e
00000160: 81a9 bf3e 3529 c9bc 97d3 303f b97b 4abe
00000170: 2bac 16bf b4a7 133f 1af7 cdbe eda2 293f
00000180: 66c0 a6be 914d 583e 6cfd 3b3e 376d fd3e
00000190: c172 75be c744 2fbf b7d8 bf3e 571a 05bf
000001a0: 4547 573f e279 67be 6ef8 423e 8741 9b3d
000001b0: 78f4 48be 06c0 2b3c 8ae1 1abf e4c5 fc3e
000001c0: 94ce 07be 6c17 3e3f 9443 563e 35d4 0a3e
000001d0: eae9 e63c 419c 403e 5159 8b3e 0e39 13bf
000001e0: 3773 cb3d 0189 2dbe ddfe 6bbf 1b12 07be
000001f0: 70af 7abe 7d77 31bf 624b a03e ee16 19bf
00000200: fcfe 843e 6457 eabe dc3b 7dbe 8930 8fbe
00000210: 17e4 1a3f c86e 1dbf fdb9 5f3f 277b e33e
00000220: a10b 303f 5713 3f3d 553a d13e fc17 633e
00000230: 03af 24bd 9674 d53e 6eb7 a2be 0b26 743f
00000240: edda 1fbf c43d 8e3d b0db 3d3f 63a0 083d
00000250: 3fbf a5bd 77ff 263f d90c da3e f045 d6be
00000260: 247b 9cbd 94c5 c4be c30f 3bbe 6953 173f
00000270: bff3 84be a47c 5ebd 177f 153f dabd 003f
00000280: 9a47 3bbe 95ef d7be 8311 563c fbd9 153e
00000290: 605c 173f 237d 0e3f 72df 92be 53ec 153f
000002a0: 8333 163f 0bba 7dbf c4ff 783f fed6 4ebc
000002b0: 4e66 d23e f91b 3d3f a5e3 4cbf ad58 cebd
000002c0: b606 0f3f 3605 4bbe 74e7 38bf 3d91 9f3e
000002d0: e04e a8bd 61f7 b1be 6205 97be 8503 653f
000002e0: 833a 3abe 9e46 1f3f 7421 1cbf 9460 65be
000002f0: 4bf4 5bbe 85d1 54bf 3d6f 45bf 7cde 543d
00000300: 982f 383e baa0 133f 270a 9ebe d4aa 003d
00000310: 2a66 323f 7895 723f e71a abbe 21eb 1f3f
00000320: 146c 6abf 0cc9 263f 07be e33e 13e2 80be
00000330: b264 023e 1118 313f aeff 10bf 3b82 7abd
00000340: 3b05 f8be 256f 753f bb78 a6be 4936 8fbe
00000350: da72 8d3e a897 5abf 4bae 2fbf 77e9 4ebe
00000360: 4d57 163f f932 383f b7a3 b83d 0dde 8f3e
00000370: e448 e1be 4f0e bcbe 9181 5a3f 59ca d4be
00000380: b5d6 47bf 8d4c 33be c876 09bd 399f 3ebf
00000390: 5a45 e93e 193c 3c3e e024 1c3f 8d9d aebe
000003a0: eb36 473f bc60 043f 7aab 2abe 2542 543f
000003b0: 7b8d 61be bc9b ecbe f752 e6be 3717 353d
000003c0: 2b32 dd3e 7c8b 8fbe bd6a 653f ca20 023e
000003d0: 8bef 60be 90cb 1e3f 3fa2 fc3c 86d5 6cbf
000003e0: 034a 3abe 8636 1abf 7b5d 0ebf f4cf 06bf
000003f0: b2de e1be 2608 2f3f 5598 dcbe d9ed dfbe
-0.51175725 0.057709545 0.22275145 0.95702755 0.48376057 0.30451867 0.567638 -0.45023248
-0.80776596 0.14598492 -0.5261302 -0.81840885 0.18079527 0.6821101 0.84976524 0.6867622
-0.08315073 0.3739308 0.49154854 0.56630933 -0.46446934 0.81708574 -0.8040931 0.009017088
0.6762813 0.8592222 -0.5172865 0.5773291 -0.32632834 -0.20231138 -0.06120878 0.5069179
-0.39748338 -0.46954483 0.21811956 0.22577466 -0.76826537 -0.69349265 -0.5575024 0.27216947
0.28848055 0.502154 0.6918685 0.8412524 0.1741939 -0.17590709 -0.22294647 0.63776445
0.14037243 -0.55602574 0.5353195 -0.13344292 0.5729125 -0.44797692 0.1927925 0.88419163
0.8757065 -0.43872258 0.052112956 -0.9837167 -0.23140107 -0.41278434 0.8304737 -0.18001392
-0.52896136 -0.1841259 -0.6979521 -0.26807165 0.29449967 -0.7970205 0.19601601 0.5107813
0.7095573 0.7319494 0.08992634 -0.61570275 0.22394274 -0.6372614 -0.04719334 0.04113519
-0.6330408 -0.65225106 0.6060408 -0.1499356 0.5271815 -0.57550037 -0.85630774 0.19546725
0.3743401 -0.024555782 0.6907286 -0.19773759 -0.5885646 0.5767777 -0.40227586 0.6626423
-0.32568663 0.21123339 0.18358392 0.49497387 -0.23969556 -0.6846432 0.37470028 -0.51993316
0.84093124 -0.22605088 0.19040081 0.07580858 -0.19624507 0.010482794 -0.60500395 0.4936973
-0.13262397 0.7425449 0.20924217 0.13557513 0.02818771 0.18809606 0.2721658 -0.57508934
0.09934085 -0.16946794 -0.92185766 -0.131905 -0.24480987 -0.6932295 0.31307513 -0.5980061
0.25975788 -0.457698 -0.24729866 -0.27966717 0.6050429 -0.61497164 0.8739317 0.44429895
0.68767744 0.046649303 0.40864816 0.22177118 -0.040205967 0.4169051 -0.3178057 0.9537055
-0.6244343 0.069453746 0.7416334 0.03335608 -0.08093118 0.6523356 0.42587927 -0.41850233
-0.07640675 -0.3843199 -0.18267731 0.5911165 -0.25967214 -0.054318085 0.5839705 0.5028969
-0.18289033 -0.42174974 0.013065699 0.14633934 0.5912533 0.55659693 -0.286861 0.5856373
0.5867235 -0.99112004 0.9726527 -0.0126245 0.41093677 0.7387081 -0.8003486 -0.10075507
0.55869615 -0.19826207 -0.7222817 0.31165496 -0.08218169 -0.34759048 -0.29496294 0.89458495
-0.18186383 0.6221713 -0.60988545 -0.22400123 -0.21479909 -0.831322 -0.7712286 0.05196999
0.17986906 0.57667124 -0.3086712 0.031412914 0.6968714 0.9475932 -0.33418962 0.62468153
-0.91571164 0.65150523 0.44480917 -0.2517248 0.12733725 0.6917735 -0.56640136 -0.061159354
-0.4844149 0.9587272 -0.32513985 -0.27971104 0.27626687 -0.8538766 -0.68625325 -0.20206247
0.5872696 0.7195278 0.09015601 0.280991 -0.44000924 -0.36729667 0.8535395 -0.4156063
-0.7806199 -0.1750967 -0.033560544 -0.74461704 0.45560724 0.183823 0.60993767 -0.34104577
0.77818173 0.51710105 -0.16666976 0.8291343 -0.22026627 -0.46212566 -0.44985172 0.044211593
0.43202338 -0.28036106 0.89615995 0.1270782 -0.21966378 0.6202936 0.030839084 -0.9251331
-0.18192296 -0.60239446 -0.5561139 -0.5266106 -0.44115216 0.6837181 -0.4308497 -0.4373615

weight f4 [64, 256]
00000000: f459 ccbc aaff cf3d 14c0 fa3d 4d08 253e
00000010: 25d4 fe3d 207c bebd 7fdb 233c c266 24bd
00000020: 3f99 4dbd 6e9f 5a3d f7d8 193d fa69 2a3d
00000030: d7e0 23bd aa86 f53c a671 fd3c b646 ec3d
00000040: be67 a03d 30a4 2d3d 091b 28bc 0863 1e3d
00000050: e4ca 95bd 3b56 bd3c 2f0f e5bc 167f ccbd
00000060: 1e07 9b3d 589c 3b3e 6d4f 8ebd 1603 2a3e
00000070: b55e 15bc 5393 eb3b 5a9b ba3d ca71 293d
00000080: aae5 8ebd 43db 80bb 9376 0d3e 0388 1a3e
00000090: b473 08bd cf14 e7bd 071b 46bd ef46 483d
000000a0: 2234 023c 8242 05be f538 ef3d cb3c 8a3d
000000b0: 35fb e03d 1747 e73d d785 9bbd c506 123e
000000c0: 0c2e 32bd 8708 b5ba e1ca c13d 769b eabc
000000d0: 21c9 9d3d 73da 5c3d f596 b83d 7d33 fa3d
000000e0: 4212 c23d fc56 e8bd 3d29 0c3d 7960 1dbd
000000f0: dfb7 97bd d024 933b 1b45 2e3d 2df4 20be
00000100: b351 02bd 9ff6 84bd 20c6 473d ed7d 853d
00000110: c2e0 e63d 66bb dbbd 20ff ed3d 18d6 d73d
00000120: 9320 033e 3fb9 913a a519 d53c afc5 48bd
00000130: 1890 c33d c3e6 b7bc 7520 883d 6238 b3bd
00000140: 7b0d 9b3c a884 bbbd 2b22 89bc 05cb 343c
00000150: f364 0c3e f923 c93b c602 e8bd 84fe f5bd
00000160: 4061 9bbc 8577 efbd d99e 873d 46d3 6d3d
00000170: 0a43 9ebd f342 b7bc 74a5 293c 6ef7 523e
00000180: ee47 643d 879e 62bd 6eb1 be3d 565a 5e3d
00000190: e326 10bd bec5 84bd 5a44 26bc 8b17 9a3d
000001a0: acd6 143e 34aa 19be 7ad4 0bbe d484 583d
000001b0: 99a6 aebc aa18 ec3c 2fdd c53d 7100 f8bd
000001c0: 528b e6bd 835a 1a3e 7bf8 8b3c 06ba 043d
000001d0: 4b48 b73d 15f5 11bd aa29 0bbe a9c2 a93c
000001e0: a09d bd3d 11c8 82bb 4866 83bd e614 babc
000001f0: 6b97 9f3d 7d9b 32be a308 29be 029e 29be
00000200: bb32 123e fbe4 5cbd be5b 3a3d 8004 01be
00000210: 375e 42bc ad1c 02be 0d26 073e f8a4 e5bd
00000220: c781 903d 4599 c13c 5f01 babd bf4c d73c
00000230: ddf1 93bc ae3b ebbd c744 9fbd 8c54 fa3d
00000240: 25d5 d4bd 4d0c 81bd caac 6f3c 9d2a 90ba
00000250: 20f9 75bd 8e63 9e3d 694f a63d e236 edbd
00000260: d95c dbbc b245 89bd a789 893d 7a9d 643e
00000270: 0d21 773d 367e 573c 6dec 1c3e 8e94 703d
00000280: d99e c43d 5519 4fbd d72e d93d e2cd 9f3d
00000290: 9721 bdbd 8613 cabd 2cb4 8d3c 6552 6c3d
000002a0: 3b1d 473d 022c e5bd 2b61 c83d 212a a7bb
000002b0: 4027 02bd 3fa7 453d a0c1 14bd 49a6 703c
000002c0: 2229 873d 23c2 dd3c acb0 e53c 8179 f53c
000002d0: 5a5f 8fbd d26e 7cbd 9155 53bd b6a1 6f3e
000002e0: 315a a6bd 1b06 8c3d d4df 05be dbe3 c7bc
000002f0: a5a9 343d bb3e a4bd afca b73d 78da c23d
00000300: 5770 673d 0f6d 253e ced7 2dbe a1cd 5f3d
00000310: ce0a 5c3e 3769 3d3e 1e4a c13d 10fe ef3c
00000320: 65ef 4abd fdc5 f03d 974f 503d 297d 8ebd
00000330: c628 003e 819c e93d e5ae 08be 5564 5bbc
00000340: 2b0b 5abd 7580 fc3d 6f47 2b3c 8f0a 04be
00000350: 1a7b 003e 1d39 bbbc 1f67 10be c620 dfbd
00000360: 7243 fa3b 016a a03d a9b3 d0bd 2bc1 153d
00000370: 26c1 65bd c070 b23d 043c 0b3c 3364 473d
00000380: 84c2 723c cbfe 47bd 90d9 023d 25f4 073e
00000390: 49bf fa3d 8fde 53bd 3317 813c 7fd7 bebc
000003a0: 5686 dd3d a6e1 c3bd 2d25 07be 2cef 323e
000003b0: 4437 aabd 930b a63c 00aa 1ebd 3084 993b
000003c0: d647 073e f8bc 00be 1e8c 223d 8824 023d
000003d0: 5aa5 ed3c 3867 903d 2f6e a1bc 6b07 1abd
000003e0: dd45 b13d 5573 70bc e30d a03b 92c8 b2bc
000003f0: c841 123d 37ff ce3d 3d02 343d fb53 7dbd
-0.024945237 0.10156186 0.12243667 0.16116448 0.12442807 -0.09301019 0.010001062 -0.04013706
-0.050194975 0.0533747 0.03756043 0.041604973 -0.040009346 0.02997144 0.03093798 0.115369245
0.07832287 0.04239291 -0.010260352 0.038668662 -0.07314089 0.023112407 -0.027961342 -0.09985177
0.07569717 0.18321359 -0.06948743 0.1660274 -0.009116818 0.0071891933 0.09111662 0.041368283
-0.06977399 -0.003932388 0.13814764 0.15090947 -0.033313468 -0.11283266 -0.04836562 0.048895773
0.007947 -0.13013652 0.116807856 0.067498766 0.10985414 0.11292856 -0.07593887 0.14260395
-0.043500945 -0.0013811745 0.09462524 -0.028638583 0.07704378 0.053919267 0.09013168 0.12216852
0.09476139 -0.11344716 0.034219015 -0.03842208 -0.074081175 0.0044904724 0.042546373 -0.15718146
-0.031816196 -0.06492352 0.04877293 0.06518159 0.11273338 -0.10729103 0.11620927 0.10538882
0.12805395 0.001111783 0.026013205 -0.04901665 0.09548968 -0.022448903 0.06646816 -0.087509885
0.018927326 -0.091561615 -0.016739925 0.011034732 0.13710384 0.0061383215 -0.11328654 -0.12011436
-0.01896727 -0.116927184 0.06622095 0.058062814 -0.077276304 -0.022370791 0.0103543885 0.206022
0.05573266 -0.055326965 0.09311186 0.05428537 -0.035193335 -0.06483029 -0.010148132 0.07524022
0.14535016 -0.15006334 -0.13655272 0.05286105 -0.021319674 0.028820354 0.09661328 -0.12109459
-0.11257042 0.1507359 0.017086258 0.03240397 0.08949336 -0.03563412 -0.13590112 0.020722704
0.0925858 -0.003991135 -0.06415993 -0.022715043 0.077925526 -0.17442127 -0.16507201 -0.16564181
0.14277165 -0.05392931 0.04549765 -0.12599373 -0.011863283 -0.12706251 0.13198109 -0.11213106
0.07056003 0.023632655 -0.09082293 0.026281713 -0.018059665 -0.11485992 -0.0777679 0.12223157
-0.103922166 -0.06301174 0.0146285985 -0.0010999028 -0.060052037 0.07733832 0.08120615 -0.11582734
-0.026777672 -0.067027465 0.06715708 0.22325698 0.060334254 0.01315265 0.15324564 0.058735423
0.0960061 -0.050561268 0.10604637 0.07802941 -0.092349224 -0.09867005 0.017297827 0.057695765
0.04861186 -0.111900344 0.09784158 -0.0051014577 -0.031775713 0.0482552 -0.036317468 0.014688083
0.06599642 0.02707011 0.028038345 0.029965164 -0.07000609 -0.061629124 -0.051595274 0.23401532
-0.081226714 0.06837102 -0.13073665 -0.024400642 0.044107098 -0.080197774 0.08974206 0.09514326
0.05650362 0.16154884 -0.16976854 0.054639462 0.21488497 0.18497168 0.09437965 0.029295951
-0.04954471 0.11756513 0.050857153 -0.06957466 0.12515554 0.11406804 -0.13347967 -0.01339062
-0.053233307 0.12329189 0.010454043 -0.12894653 0.1254696 -0.022854382 -0.14101838 -0.10894923
0.0076374346 0.07832719 -0.101905175 0.036561172 -0.056092404 0.087129116 0.008498196 0.04867954
0.014816884 -0.048826974 0.031945765 0.13276727 0.12243516 -0.05172592 0.015758133 -0.023296116
0.10816638 -0.095645234 -0.13197775 0.1747405 -0.08311322 0.02026919 -0.038736343 0.0046849474
0.13210997 -0.12572086 0.039684407 0.03177312 0.02900951 0.070509374 -0.01970586 -0.03760473
0.086559035 -0.014675935 0.004884468 -0.021824155 0.035707265 0.10107272 0.043947447 -0.06184767

bias f4 [64]
00000000: adfa 3e3e f3ca 34bd 0ed3 e4be 48e6 613e
00000010: eb92 003e 007c 183e d107 b53d f51d 773e
00000020: 84cb 3eb9 7259 03bd 3904 f2bc ead0 9ebd
00000030: 5f66 c13d 0bf9 da3d c3f7 673d 9e77 0abd
00000040: 6bc9 063e caef 1ebf c208 703e 69f7 5abc
00000050: e42d 05b2 272e 95be 6373 3f3d 1917 b2b2
00000060: a349 433e e1a7 303d e009 17bd db27 08be
00000070: 0b97 973d cd5e 063d d833 363e 3ff4 6d3e
00000080: 8a45 24bc 4473 2d3d 284f 2e3e 74d4 8c3e
00000090: fbd8 273e 47de 8ebb dd8b d0be 194c 9f3c
000000a0: 4a2b beb7 db31 1a3e d8f2 913d 1a9d 2a3d
000000b0: d13e 183a 0153 3a3d 58e3 573e d766 c3bc
000000c0: f69a ce97 7e23 8c3b 8c2f bcaf 8eff 0911
000000d0: b7d0 4e3e 8029 093e 7b6c 8cb7 88fb 183b
000000e0: 7bde ac3e 717c b93d f78e 84b5 ed4d cdbb
000000f0: 8528 223e 63d1 64bd 959d 6c3e ce2a b73e
0.18650313 -0.04413886 -0.44692272 0.22060502 0.12556045 0.14891052 0.088393815 0.24132521
-0.00018195627 -0.032067724 -0.02954303 -0.07754691 0.09443354 0.106920324 0.05663277 -0.033805482
0.13162772 -0.6208464 0.23440841 -0.013364651 -7.752053e-09 -0.29136774 0.0467409 -2.073243e-08
0.19071059 0.04312885 -0.036874652 -0.13296454 0.07401856 0.032805253 0.17793214 0.23237704
-0.010026345 0.042346254 0.17022383 0.2750584 0.16391365 -0.0043599936 -0.40731707 0.019445466
-2.2669923e-05 0.15058081 0.07126397 0.04165373 0.00058077 0.045489315 0.21082819 -0.023852749
-1.3351556e-24 0.004276692 -3.4230785e-10 1.0886143e-28 0.20196806 0.13394737 -1.6739816e-05 0.0023343284
0.3376349 0.090569384 -9.876375e-07 -0.006265393 0.1583577 -0.05586375 0.23106988 0.35774845

weight f4 [32, 64]
00000000: e320 b5be 0148 f8b4 f299 043d 72a2 193e
00000010: 44a9 4dbe 9e98 6abe 8d5f 27be 4eef da3b
00000020: 8b1b 67bc aa11 b8bc 5252 2bba dd3b a93b
00000030: 8225 9c3c 872a 133e 9ea1 23be 3f38 8134
00000040: d312 b4be a258 a3bd f45a d9bc 405a 2abd
00000050: 27ad 09b1 4b62 90bd 5b2a acbd e5dc 85bc
00000060: 61a9 afbe a144 213e b507 b23d fd0c d63d
00000070: d60d 8c3e 0870 fcbe 0e74 05be 4097 b3be
00000080: 51a6 88bc be30 433e f1e1 eebc 613d 143e
00000090: b8dc 49be ce1b e7bc 24ed aabe 5008 b13d
000000a0: 3c53 653c 99a1 96be 6267 87be 7828 bc3d
000000b0: 170f 013e 9798 1e3e 108b 463d d0ec bfbc
000000c0: be07 c1a4 a298 ce3d 6b83 733c aa04 1500
000000d0: 5fba 60be c3d6 b03c d527 b037 7e66 e23a
000000e0: 4f2d 4a3e 2bc8 81be 835f 683c 8d08 213a
000000f0: 0ff8 a3be db7d 15bd 32b9 2cbd 79ea 413d
00000100: ae80 8b3d 4b7a 1a3d 3ecd 40bc eb90 54bd
00000110: edc3 f63d 8743 a73c ee41 0ebc a4c4 ddbd
00000120: f760 09bd 529c 963c 6537 c53a f9d8 bd3d
00000130: 363c 31bd 82bd a7bd e647 523e bd8e c23d
00000140: b140 d73d dd0c cabc 0ad0 923c 0660 84bd
00000150: 8329 07b2 5beb 173d ab4f 19bc fa54 8e32
00000160: 3a2a e53c 633a 35be 445d 06bd 28a2 e13d
00000170: 62de b8bc 355e 273e ac05 f9bd 3817 c73d
00000180: 6c80 55ba 0990 9a3d e7e1 853c 276d bebc
00000190: 8701 d23c 704d 32b8 166a 693e dd95 3bbc
000001a0: c9da 39af 1a91 003e 0748 d33c f66c eabd
000001b0: cf0d 823c f28a d63d 6dbe 123e 6fb5 093d
000001c0: ffea 4116 249e 883c f349 c812 0daa 0d80
000001d0: 500d 44be d922 873c 61ac 91b5 3e25 2fbd
000001e0: 4b5c 143d b96d 123e e952 7e32 ddc6 d133
000001f0: 3621 753d 66d8 bfbc 1ad5 f7ba a9d7 e7bd
00000200: d025 2cbe 65a0 b03c 601f 6ebd ec10 64bd
00000210: 7ff4 f7bd 2f8d c9be a738 1ebe 30a5 943d
00000220: 6104 1ebd d7d5 1c3d 0fdd 093d ddbe bd3d
00000230: 8782 88bb ffd5 e43d 134e 6cbe ae4c 753d
00000240: 9974 a6be 71f5 f2bd 2db2 013e f34f 85bc
00000250: daac b8b2 34fc a53d e733 adbe f2a9 bdbc
00000260: c11d 59be a92f 543e 19aa 5c3d 41e2 453e
00000270: f678 5e3e 2bc6 eebe e17e 48be 501e e6be
00000280: 76bf 583c 9ded 393e 1654 83be 6ee6 f03d
00000290: 2c26 3fbe 3fa6 d7bd f75b 93be aa0b f63d
000002a0: 036f ac39 3336 8ebe 65ea 59be d6cd b03c
000002b0: e0b7 033e 144d c13d bf55 733d 49d8 84bc
000002c0: a0bc 2098 07bc 313d 7582 04b2 03b4 74ba
000002d0: 71e6 72be 9d34 963d 31a0 893a d5a6 033e
000002e0: 7d06 11bd e172 fdbd 5aab a73c 2f50 a8bc
000002f0: b3df 78be bf2c 013d 0b79 00be 6684 76bd
00000300: 1385 27bd 075d e2b6 35af dfbd e56d e13b
00000310: 56d8 b13d 8620 8e3c 3aa8 15bb 6b6e 093e
00000320: bdc4 c3ac ff08 5c3d f9c8 7ebd e8ee 053d
00000330: 7cea 41bd dfaf 343c deed edbd 5755 cfbc
00000340: c603 d23d 70e8 5cbe 440c e8bc 77ff 123d
00000350: 3487 56b0 4a2b 83be ea71 4abd d841 213b
00000360: ea40 7e3d 6534 f73d 5810 e1bd 3eed 69be
00000370: 620e 91bd 61d9 e03d 02ca b2ba 465d 0a3e
00000380: e4bd d43c b24e 54be c10b 4fbd 1ed9 c0bd
00000390: 05b2 c93d 4f50 f9bc 1f19 98bd 7f8a 423c
000003a0: 68ec 33bb 2de7 d73c 7674 43bd c819 97bd
000003b0: 77b3 463d 2739 0abc 6f1a 483d 38a5 11bd
000003c0: 6e3a 6aa3 a262 61bd df89 64b9 ff8d 02b7
000003d0: 206e b23d 2bb6 a1bd 5ddf caa9 f3b5 bdbd
000003e0: 0366 1b3e 79e5 f3bd 47f5 973c 9d3b 163d
000003f0: d4b6 083e 93a6 9fbd fa61 d83b eb41 c2bc
-0.35376653 -4.624599e-07 0.032373376 0.15003374 -0.20084101 -0.22909781 -0.16345043 0.0066813594
-0.014105688 -0.02246936 -0.0006535399 0.005164607 0.019060854 0.14371692 -0.15979621 2.4069047e-07
-0.35170612 -0.0797589 -0.026532628 -0.041589975 -2.003455e-09 -0.07049998 -0.08406516 -0.016340682
-0.34308913 0.15748836 0.08692876 0.10451696 0.27354306 -0.49304223 -0.13032553 -0.35076332
-0.016680868 0.19061562 -0.029160472 0.14476539 -0.19713104 -0.0282115 -0.3338405 0.086441636
0.013996895 -0.29420164 -0.26446062 0.09187406 0.12603413 0.15487896 0.048472464 -0.02342835
-8.3713523e-17 0.10087706 0.014862875 1.930219e-39 -0.21946095 0.021586781 2.0999383e-05 0.0017272977
0.19743846 -0.2534803 0.014182928 0.0006142937 -0.3202519 -0.03649698 -0.042168804 0.04734275
0.06811653 0.037714284 -0.011767684 -0.051896017 0.120490886 0.020417942 -0.008682711 -0.10828522
-0.03353974 0.018385086 0.0015046416 0.092699 -0.043270312 -0.081904426 0.2053524 0.094998814
0.10510386 -0.024664337 0.017921466 -0.064636275 -7.867473e-09 0.037089687 -0.009357373 1.6569619e-08
0.027974237 -0.17698054 -0.03280379 0.11017257 -0.022566978 0.16344531 -0.12159285 0.097212255
-0.00081444415 0.07547004 0.01634307 -0.023245407 0.025635494 -4.2510626e-05 0.22794375 -0.011449304
-1.690338e-10 0.12555352 0.025791181 -0.11446564 0.015875725 0.104757205 0.14330454 0.033620294
1.5664568e-25 0.01667697 1.2640004e-27 -1.254864e-39 -0.19145703 0.016496109 -1.0853511e-06 -0.042760126
0.03622083 0.14299668 1.48035975e-08 9.768494e-08 0.059846126 -0.023418617 -0.0018908114 -0.11320431
-0.168113 0.021560857 -0.05813539 -0.0556802 -0.12107181 -0.39365527 -0.15451299 0.072580695
-0.038578395 0.03828987 0.033658084 0.0926492 -0.0041659507 0.11173629 -0.23076658 0.05988758
-0.32510832 -0.118632205 0.12665625 -0.016273474 -2.1499023e-08 0.081047446 -0.3382866 -0.023152325
-0.21202756 0.20721306 0.053873155 0.1932459 0.2172583 -0.46635565 -0.1957965 -0.44945002
0.013229242 0.18157049 -0.2565009 0.11762701 -0.18666905 -0.10529756 -0.287811 0.120139435
0.00032889107 -0.27775726 -0.2128082 0.021582525 0.12863111 0.094385296 0.059407946 -0.016216414
-2.0774747e-24 0.043392207 -7.713074e-09 -0.0009334685 -0.23720719 0.07334254 0.0010500011 0.1285661
-0.03540658 -0.12375427 0.020467449 -0.020546047 -0.24304084 0.031536814 -0.12546174 -0.06018486
-0.040898394 -6.7461547e-06 -0.1092209 0.0068795555 0.08683841 0.017349493 -0.0022835867 0.13421027
-5.5640757e-12 0.053719517 -0.06220338 0.032698542 -0.047342762 0.011028259 -0.11617635 -0.025309248
0.10254626 -0.21573043 -0.028326161 0.03588816 -7.804488e-10 -0.25618964 -0.049425043 0.0024605896
0.062073626 0.1207054 -0.109894454 -0.22844407 -0.070828214 0.10978962 -0.0013640525 0.13512143
0.025969453 -0.20733145 -0.05054832 -0.09416412 0.09848408 -0.030433802 -0.074266665 0.01187384
-0.0027454142 0.02635535 -0.047718488 -0.07377964 0.048510995 -0.008436478 0.048853334 -0.035557956
-1.2697538e-17 -0.055025704 -0.00021795135 -7.781665e-06 0.08712411 -0.07896074 -9.0093494e-14 -0.0926322
0.15175633 -0.11909003 0.018549575 0.036677945 0.13350993 -0.077954434 0.0066034766 -0.023713073

bias f4 [32]
00000000: a991 ab3e 5cfd 0ebe aa65 783d 33f2 be3e
00000010: 6663 e8ba 70a9 90bb d0d2 cb3d bdff e6bd
00000020: 6b94 a63e 6882 7dbe 8362 193e 354d f13d
00000030: 4c90 5d3d e87d c73d af3f 793e e9a7 0f3d
00000040: 3dba 883e 6a60 37ba ee63 6c3e 0265 f93c
00000050: f402 6bbe d676 ae3d 5404 9f3e 3846 1abd
00000060: 5707 77ba 1107 9e3e 985f 6e3e 9e90 753e
00000070: b9d7 c73e c3e7 09bc 6fae 32be eaa4 2bbe
0.33509567 -0.13963836 0.06064383 0.37294158 -0.0017729818 -0.00441473 0.09952319 -0.11279247
0.3253511 -0.24756777 0.14978985 0.11782304 0.05409269 0.097408116 0.243407 0.03507224
0.2670459 -0.0006995263 0.23084995 0.030443672 -0.22950345 0.0851876 0.3105799 -0.037664622
-0.0009423396 0.30864766 0.23278654 0.23980948 0.3903177 -0.008417073 -0.17449354 -0.16762128

weight f4 [8, 32]
00000000: 1a2b d2bc 401a 0e3e b158 273e 0cba e73d
00000010: 1e20 91bd e09f df3c 4060 213d 48c9 da3c
00000020: f3a3 a53d e177 213e 34ce e23d c90b e43d
00000030: bba1 9ebd cd72 c4bd d486 073d 29ee 67be
00000040: 2b16 cabc 6190 c3bb 6dde d8bd ad55 cebd
00000050: 3176 0a3e 0ed4 cb3d 8573 97bb af63 ba3d
00000060: 646a 2839 55f0 d0bd 6604 7c3d af1e 4a3e
00000070: e829 ca3d d1d5 923c 1f08 183e 59b0 f7bd
00000080: 1753 bb3d 341a 6d3d 8334 41be f854 dbbe
00000090: 5b15 c9bd 17bb 053d 8c29 9b3c e63b 903a
000000a0: 2e64 50be 02bd cc3d bba9 dbba 9675 b8bc
000000b0: f6fa 423d 4e2a 883d c348 b03d 569d d8bd
000000c0: 519e 453d 6e17 893b 9ca2 85bd c542 d5be
000000d0: 3ce3 4b3e 7dc2 45be a4b1 30bd 057a aebc
000000e0: 3f0c 1f84 7b42 0ebd f196 923e f918 203d
000000f0: b2e1 93bb c3ad 23bb 0ab1 263e d75d af3c
00000100: 7b26 363e a405 18be 8e12 a3bd 84ac 9ebe
00000110: 6967 803d 03b3 603d 0174 373e 4454 603c
00000120: d862 edbe 1cdd 143d b2a5 babd 7a1c 04be
00000130: 31c5 29bd b9e6 11bd c2dc 2c3e c78b 93be
00000140: 62e5 02bf 0435 91bb b68e 8dbd 6e96 36be
00000150: f32e 74be 7320 d1be 2690 833e 9254 e0bc
00000160: 3a61 ecba 48f9 60be 3642 873e f65f 3f3d
00000170: f09f 203e 94dc 1cbd 077c 91bd 91e2 74be
00000180: aabd bb3d 70bf 94bd 6ccc 0ebe 3312 8f3a
00000190: ab0c 0ebe 2d33 edbc f469 223d c816 41ad
000001a0: dca9 f1ac ef6c 31be 6a58 a6be 6e58 62bc
000001b0: 578c 01bd 1e82 17bd 40f9 ef3c 86f5 ac26
000001c0: 40b5 8293 29e0 1500 003e 2534 dcf1 9abc
000001d0: db05 3cbd cc1f 8297 dbec 22be e28f c1b4
000001e0: cc53 e3af 4e5f 0300 dcda 28be 05c7 31bd
000001f0: 43e0 a03a ff1c b8bb ca1b 05be 0347 1cbc
00000200: ca5e 0080 8814 31bc eb7c e5bd bc44 1bbe
00000210: e4b2 33bd 9f18 67bd e719 1f80 c2de 1080
00000220: a52a 36bd b937 c3bb ce61 d2bc 959c 1aa8
00000230: 3109 1bbd f583 f8bd 1101 cabc 5a1b e13c
00000240: f830 613c e93a 853a 85bd f3bc 09d7 863c
00000250: 6050 b53d 6c07 3ebd 1d88 44bd d209 1c00
00000260: af5b 0b80 17ee f7bd 16c3 01bd b51a eabd
00000270: 2e4d 25bb 2bde 0280 bc33 04be 7688 7400
00000280: 68ea febe 8431 67be 8c7a ecbe 54de 113e
00000290: d0ae 0d16 6dd1 1800 69dd e4be 20cb 8995
000002a0: 859f 373d ae8a e1be 67cf cc3d c872 a6be
000002b0: 42df 0b3e 57c4 30be c5c2 b2be 75ea 2c3e
000002c0: 37a4 203e 0aac afbc 3ce5 373e 5265 1e3e
000002d0: 92a6 733c b2d4 0c3e 69e5 523e 710b d820
000002e0: 1248 b0b6 5409 cd3d ff85 0b3e 3489 1b3e
000002f0: dd56 8b3d 0509 1a3b 38e2 a5be 527f f2be
00000300: a637 4f3d 365f 86bd 4dd6 ba3d dceb 66be
00000310: b8c1 feba cf4e 113d 3a7f 043e dad2 ea3c
00000320: 3fef aabe 6449 f53c e633 3f3e a9ec 9b3b
00000330: 7f82 9ebe df4a e7bd c00d d53d 3747 3cbe
00000340: 0171 52be e3ae 463c 3211 8cbe 96aa d1bd
00000350: 998b 2abf 882e 0abf 63bb 423e 782b 05be
00000360: 8530 07bb 2683 d7be 0747 4d3e 0786 4c3e
00000370: 7fc7 303e 2152 6abd 6498 d93c ebd0 41be
00000380: 5fdf eebe 3f4e 11bd f578 dfbe 3b4d 303d
00000390: 43a4 033d 3456 993b 5598 f4be 3687 43b9
000003a0: ec41 233e e517 1ebe 0849 ea3d f66a c3be
000003b0: 61f2 413d a5eb 0d3c 79e6 05bf 744b 6c3e
000003c0: 1d78 2e3e 365b 20bd c4a6 1f3e 48e4 403e
000003d0: f989 ec3b 5548 013e 8817 0e3e 4bde 95b6
000003e0: 4436 f33c 6a72 063e 7538 443c 7bc7 0a3e
000003f0: 6079 6a3e 0426 5ebd feab 6dbe 12bf 0cbf
-0.025655318 0.13877201 0.16342427 0.113147825 -0.07086204 0.027297914 0.03939843 0.026707307
0.080879115 0.15768386 0.110744864 0.1113506 -0.077456914 -0.09592209 0.033087566 -0.22649445
-0.024668774 -0.005968139 -0.10589299 -0.10074935 0.13521649 0.099525556 -0.0046219253 0.091010444
0.00016061362 -0.1020209 0.061527632 0.19738267 0.09871274 0.017924221 0.14846848 -0.120941825
0.091467075 0.057886317 -0.18867688 -0.42838264 -0.09818526 0.032649126 0.01894071 0.0011004179
-0.20350716 0.09996988 -0.0016758958 -0.022517007 0.047602616 0.06648694 0.08607628 -0.105768844
0.048246685 0.0041837012 -0.06525156 -0.41652504 0.19910902 -0.19312473 -0.04313816 -0.021298418
-1.8695983e-36 -0.03473137 0.28630784 0.039086316 -0.004512989 -0.0024975396 0.16278473 0.021407051
0.17788117 -0.14845902 -0.079625234 -0.30990994 0.06269724 0.05485822 0.17915346 0.0136919655
-0.46364474 0.03634368 -0.09113635 -0.12901488 -0.041447822 -0.035620425 0.16881087 -0.2881758
-0.5113126 -0.004431369 -0.069119856 -0.17830822 -0.23846035 -0.4084507 0.25695914 -0.027384076
-0.0018034347 -0.21970093 0.26417702 0.046722375 0.15686011 -0.038296297 -0.071037345 -0.23914553
0.09167035 -0.07263076 -0.13945168 0.0010915458 -0.1387202 -0.028955067 0.039651826 -1.0975838e-11
-6.86849e-12 -0.17326711 -0.3248933 -0.013815029 -0.03162798 -0.036989324 0.029293656 1.2001447e-15
-3.299534e-27 2.008959e-39 1.5389378e-07 -0.018914156 -0.04590402 -8.40908e-25 -0.15910666 -3.605374e-07
-4.13506e-10 3.09695e-40 -0.16489738 -0.04340269 0.0012273866 -0.005618691 -0.12998882 -0.009538415
-3.4004e-41 -0.010808118 -0.11205467 -0.15162939 -0.043871775 -0.056419965 -2.856192e-39 -1.549278e-39
-0.044474263 -0.0059575704 -0.025681403 -8.582671e-15 -0.037850562 -0.12134544 -0.024658712 0.027478863
0.013744585 0.0010164651 -0.029753456 0.016459959 0.08853221 -0.046393797 -0.04798137 2.574917e-39
-1.04308e-39 -0.12105959 -0.03168019 -0.11430875 -0.0025223005 -2.6337e-40 -0.1291036 1.070187e-38
-0.49788213 -0.22577482 -0.46187246 0.14244968 1.144505e-25 2.27918e-39 -0.44700173 -5.5654334e-26
0.044829864 -0.44051117 0.10000496 -0.32509446 0.13659385 -0.17262398 -0.34914222 0.16886313
0.15687643 -0.02144434 0.1795854 0.15468338 0.014871256 0.13753012 0.20595326 3.6599395e-19
-5.253599e-06 0.10011545 0.13625334 0.15189058 0.06803677 0.0023503911 -0.32399154 -0.47362763
0.05059018 -0.06561129 0.09122906 -0.2255091 -0.0019436395 0.03547555 0.12939158 0.028664995
-0.33385655 0.029942222 0.18672141 0.0047584367 -0.30958936 -0.112935774 0.10403013 -0.18386541
-0.2055092 0.012126657 -0.2735687 -0.10237615 -0.6661926 -0.5397725 0.19016795 -0.13004863
-0.0020628285 -0.42092246 0.20046626 0.19973002 0.17263602 -0.05720723 0.026561923 -0.18927352
-0.46654794 -0.035475012 -0.4364697 0.043042403 0.032139074 0.0046794657 -0.4777247 -0.00018647019
0.15943116 -0.15438803 0.11439711 -0.38167542 0.04735029 0.008662139 -0.523048 0.23075658
0.17038007 -0.039149486 0.1559096 0.18837082 0.007218596 0.12625249 0.13876164 -4.4664243e-06
0.029688962 0.13129583 0.011976351 0.13552658 0.22897863 -0.054235473 -0.23210141 -0.5497905

bias f4 [8]
00000000: 0bac 45bc de02 cbbd 9c81 b23e fe55 813e
00000010: f9c9 23be d8dc 74bd 1c97 8c3c f5bc a83e
-0.012064944 -0.09912656 0.3486451 0.2526092 -0.15995015 -0.059780926 0.017161898 0.32956663

weight f4 [1, 8]
00000000: c5ef fcbd 5083 b03d 7cbf b5be 9411 2bbe
00000010: 66c7 9dbd 4ad2 773f 3e83 90be 1476 be3e
-0.1235042 0.08618796 -0.35497653 -0.16705924 -0.07704048 0.9680525 -0.2822513 0.3719946

weight f4 [8, 1]
00000000: f27e 79bf 8ee7 983e b97c c43e 4330 4dbf
00000010: 9424 85be 527d 7abf 2f33 2ebf e8d5 2f3f
-0.9745933 0.29864162 0.38376406 -0.80151767 -0.2600447 -0.97847474 -0.6804685 0.6868577

bias f4 [8]
00000000: 4026 06be f2ac 59bd 4177 fd3d 842f 723d
00000010: ba74 26be 11ba 1b3f e086 d43d 2911 f0be
-0.13100529 -0.05314345 0.123762615 0.059127346 -0.16255465 0.6083079 0.10377288 -0.46888092

weight f4 [32, 8]
00000000: a285 81be 92e2 b9be 6bc7 013e f07d 91be
00000010: 4db2 f3be 6d55 9c3d f4ff 323c e6c8 ef3c
00000020: 0a3f 0600 d428 1200 1c93 cf08 b66b 0300
00000030: faf6 1c80 5682 1300 5551 1400 8e27 0c80
00000040: 3895 ec3c e9c9 f3be 880c 26be 7a31 1ebe
00000050: d493 6bbe cc11 f13d 427e f0bb de55 16be
00000060: d0a2 2200 785a 0e3e 2adf 6a3e 6ea1 2280
00000070: 333f 2880 7dad cdbe 76c1 1980 3215 123e
00000080: 0641 f8be d259 08be b69d b73e 6ae2 f4be
00000090: e2f8 1cbe a4d2 6abe 6b05 8fbe af53 bc3d
000000a0: b0ed 0a3e cf66 7f3e 450f a63e daf1 b33d
000000b0: 7828 c83e aba5 aa3e 3a8a 373e 1ba0 933d
000000c0: ab9a 053e a26b 34be 2917 57be f18c 2d3e
000000d0: c119 8bbd e7eb 7d3e f9d9 563d 575a 1e00
000000e0: 223b bdbc fc75 b13e 4e16 80bc 4a3e 9d3d
000000f0: bd1f 76bd c50c f8bd a679 50bd d3da 9c3e
00000100: 68b9 33b9 0b49 27bd 3491 18bd 0974 1cbb
00000110: 5211 1a8c 98ed 59bc 1697 46bb 5dc3 64bd
00000120: fede 67be 898f 9b3d 39ca 3dbe 2a0a 723e
00000130: 6d27 8dbc 62b7 0f3d 0223 45bd 12bb 92be
00000140: 939e 8f3e 5789 f5bd 5339 553d 7776 773e
00000150: b8c4 393e 71fc 7e3e d7d6 a1bd f805 9cbd
00000160: eb58 1cbd 30b5 c3be 2cc5 8fbe 52bd 20be
00000170: df7a 59be 89d1 c63e 1208 97be 3fd9 7ebe
00000180: 3d33 d6bc b159 903e b1f2 8b3d 08f9 c23e
00000190: f3d5 4dbe 1dae 56bd 244c b83e 38da 9c3d
000001a0: 479e 2cbe fe8f e23d eb7d 073e 644b d7bd
000001b0: aff0 37be baf2 b63d 3483 c0bd c95e fbbd
000001c0: 61f9 36be ed6d 09be 962e 403e 443c ccbe
000001d0: 9446 cebe d9a0 60be 0180 cebe 222f 89bb
000001e0: e212 02bf bb2c ee3d 12e7 bb3e a6c3 61be
000001f0: d998 e3bd 94ed 81be 6a09 51be aa7f cbbd
00000200: 6a05 2b3d ef9f 6fbe f760 b1bc f138 93be
00000210: 1c51 643e 1955 9e3e 5546 a83e 9eac 243e
00000220: bdd4 9d3e d73a 3381 762f 00bf ffbc 793e
00000230: 7a1d fa3d f09f 393e 6fa4 d53d 4c31 0000
00000240: a227 6fbe 2500 e9be 80ba 3ebf 96cc 973e
00000250: 2d53 7cbe 227b 913d fb4b 843e 4ba5 dd3d
00000260: fb5d 42bd fc55 3dbc 2593 c93b 3cac 12be
00000270: 49d7 3aba d528 ca3d 937b 2dbd 4618 3ebc
00000280: c39a d5bc 3aa8 fc3d f47e 72bd bc01 02bb
00000290: 2171 c0bd 54a5 98bd ea4d 133e a0f6 b0be
000002a0: 0e44 1bbe b6aa a83e 0902 2f3d fd1b b5bd
000002b0: cafa 3c0d e085 cbbe 65a7 8cbe 939f 07bd
000002c0: 5e13 333e 763f 10bd c19b 1dbd fd1b 213e
000002d0: d0c8 923e fcc7 cf3d 9136 993e 15de 1a3e
000002e0: 33a3 3ebe 9bd1 3ebc 254f 2f3e 9ae0 00be
000002f0: 3a14 01bc 53a3 98bd bb00 99be 78a6 813e
00000300: 5052 33bd 9e68 0ebe 9ce4 8f3e b0b0 67be
00000310: 3a5a cebe 4307 a43e 703e 92bd b6c9 4dbe
00000320: 606c d6bd eac8 ccbe 83f2 753e ff52 013e
00000330: 3d33 393e 01b5 853e fd7d 9dbb f974 603e
00000340: d9f0 05be d26b 72bd 786c 1d3b 9174 6c3d
00000350: 4179 42bd bf6e 4c3b b2ea b43d 7357 33bd
00000360: 1224 d7bb 7102 82bc 1a98 85bd c780 5d3c
00000370: c08c feac a4c6 47bd 5d47 7dbc 5dc5 03bc
00000380: 0081 f73e ae4b de81 3e7f 2f81 cfca c23e
00000390: d465 133f d0f6 0ebe 8d11 7f3d 9048 1e80
000003a0: 2b29 44b1 9185 2dbe 5911 6fbc 5542 fab4
000003b0: 101d ab81 2c68 99bf bc22 89b5 df6c 2abf
000003c0: 1f2a 453e 3737 2e00 ef82 d7be 888c 05bd
000003d0: 427a 483e 383b 8c3d 1b06 863d be4c 5501
000003e0: 3616 823e b701 083e cf69 cabe 9192 4a3e
000003f0: 5dd1 033e c5ee 893e db2a ae3e 1f1c 6bbe
-0.25297266 -0.36305672 0.12673728 -0.28416395 -0.4759697 0.07633481 0.010925282 0.0292706
5.73627e-40 1.667685e-39 1.2492945e-33 3.14146e-40 -2.659992e-39 1.79163e-39 1.865886e-39 -1.116216e-39
0.028879747 -0.47614983 -0.16215718 -0.15448561 -0.2300561 0.117709726 -0.00733927 -0.14681193
3.180813e-39 0.13901699 0.22936693 -3.180317e-39 -3.696091e-39 -0.40171424 -2.365288e-39 0.14265898
-0.4848711 -0.13315514 0.3586251 -0.4782899 -0.15329316 -0.22931916 -0.2793382 0.09195649
0.13567233 0.24941562 0.32433525 0.08786364 0.39093375 0.3332952 0.17923823 0.07208272
0.13047282 -0.17619184 -0.21004929 0.16948296 -0.067920215 0.24797021 0.05245397 2.787473e-39
-0.023099486 0.34660327 -0.015635636 0.07677896 -0.06008886 -0.121118106 -0.050897263 0.306357
-0.0001713984 -0.040841144 -0.03724785 -0.0023872873 -1.1868941e-31 -0.013301276 -0.0030302457 -0.055850375
-0.22643659 0.075957365 -0.18534173 0.2363669 -0.017230714 0.035086997 -0.04812909 -0.28658348
0.2805067 -0.11989086 0.05205662 0.24166285 0.18141448 0.24900986 -0.079023056 -0.07618326
-0.038170736 -0.38224173 -0.28080118 -0.1569722 -0.21238278 0.38831738 -0.29498345 -0.2488756
-0.02614748 0.2819343 0.06833399 0.3808062 -0.20101146 -0.05241214 0.3599559 0.076588094
-0.16857253 0.110626206 0.13231628 -0.105124265 -0.17962907 0.08933015 -0.09400025 -0.12273938
-0.17868568 -0.1342084 0.18767771 -0.3988973 -0.40288222 -0.21936359 -0.40332034 -0.004186527
-0.5081006 0.116296254 0.3669973 -0.2204729 -0.11113138 -0.2537657 -0.20413747 -0.09936459
0.04175321 -0.23400854 -0.021652682 -0.2875438 0.22296566 0.309243 0.3286616 0.16081473
0.3082637 -3.2919323e-38 -0.5007242 0.24388503 0.122126535 0.18127418 0.10431754 1.7684e-41
-0.23354962 -0.45507923 -0.74503326 0.29648274 -0.24641104 0.07103564 0.25839218 0.10822543
-0.047452908 -0.011556145 0.006151574 -0.14323515 -0.0007127417 0.09871069 -0.042354178 -0.011602467
-0.026074773 0.12336774 -0.059203103 -0.001983746 -0.093965776 -0.07453409 0.1438519 -0.3456316
-0.1516268 0.32942742 0.04272655 -0.08843229 5.823385e-31 -0.39750576 -0.27471462 -0.033111166
0.17487857 -0.03521677 -0.038478617 0.15733333 0.28668833 0.10145566 0.29924443 0.1512378
-0.18616943 -0.0116466535 0.17120035 -0.12585679 -0.007878358 -0.074530266 -0.2988337 0.25322318
-0.04377967 -0.13907096 0.28104103 -0.22625995 -0.40303212 0.3203679 -0.07140815 -0.20096478
-0.1046989 -0.39997035 0.24018292 0.12629317 0.18085952 0.26114658 -0.0048062787 0.21919622
-0.13080157 -0.059184857 0.0024020951 0.057728354 -0.047478918 0.003119394 0.08833827 -0.04378457
-0.006565579 -0.015870305 -0.06523152 0.013519472 -7.2347406e-12 -0.048773423 -0.015458909 -0.008042661
0.48340607 -8.1658516e-38 -3.2233715e-38 0.38045356 0.5757725 -0.13961339 0.062272597 -2.781095e-39
-2.8545155e-09 -0.16945483 -0.014591538 -4.6614392e-07 -6.285718e-38 -1.1984916 -1.0217404e-06 -0.66572374
0.19254349 4.24424e-39 -0.42092082 -0.032604724 0.19577888 0.068472326 0.06544133 3.917698e-38
0.2540757 0.13281904 -0.3953385 0.19782473 0.12872835 0.2693998 0.3401707 -0.22959946

bias f4 [32]
00000000: 6e05 c23e 049c 5cb3 e63c c03e 2b72 2a3d
00000010: 4ab3 e73e 190f 86be fb20 80bd b5fc aa3d
00000020: d1c2 95bc 815b cb3e a242 5dbe f9b7 4e3e
00000030: 512a 21be aec3 dd3e 8709 183f a9bb 9c3e
00000040: a9e8 fb3e 9ae4 c9bd 807c 223e dee2 23be
00000050: ffa7 b03e 99d5 b93e f409 87be c357 fb3d
00000060: 0ae3 133f 7a21 a83d 8a5f ec3e 380d 86bc
00000070: 1499 13bf a6f5 863e d086 c0bc e401 803e
0.37894768 -5.1364637e-08 0.37546462 0.041612785 0.45253974 -0.26183394 -0.062562905 0.08348981
-0.018281372 0.3971825 -0.2160745 0.20187367 -0.15738799 0.43313354 0.5938954 0.30611923
0.49200943 -0.098580554 0.15867805 -0.16004512 0.3450317 0.36295775 -0.2637478 0.122725986
0.5776831 0.0820951 0.4616664 -0.016363725 -0.57655454 0.2635929 -0.023501784 0.25001442

weight f4 [64, 32]
00000000: d83b 723c ab23 1700 4a8d 2b3e 04e8 6ebe
00000010: 4943 433e 5c8d 583d 874a 86be a074 3ebd
00000020: 49d1 d13b fbe8 363e 9931 91be d5ab 203e
00000030: 8889 d7bd 7fe1 ce3e d058 6e3e e941 0ebd
00000040: 176a 013e 728b c9be 5743 bebe e298 1e3c
00000050: 0d55 e63e e474 283e 785a 15bd 82e0 a53d
00000060: 525d ca3e 5b5f 323e 4d3c c03e c09e 8aba
00000070: 2425 0ec0 e6ac 55bf cb19 adbe dd35 173e
00000080: 15da 92bd 0d20 0e80 f85e 88bd 4f0b a0bd
00000090: 9b51 90bd 28fc a7bd 2aad 20bd 2c19 a5bd
000000a0: c955 1800 1e90 a9bd c8fb 05bd 0aec 88bd
000000b0: 06fb 9ebd ae39 7fbd de25 48bd 37f3 84bd
000000c0: 0262 7fbd 092e 17bd 4a31 3bbd 52c6 0e00
000000d0: 7d4e 88bd 0dec 76bd 8af4 48bd dfe7 9ebd
000000e0: 7914 95bd ea3e a2bd a8cf a4bd 6d70 0280
000000f0: 5799 cabc 688f 3b32 a8db 06bd 8c2b 45bd
00000100: 67cd 32be 1adf 1a80 c5ff 073e 728c 47be
00000110: 9707 68bc 904f 3f3e 8108 233b 9810 573d
00000120: 02e4 1419 9fd3 c1bd 85e3 17bd 3cfa 373e
00000130: 5c2b d4bd 6dce 81be 2623 61be fb77 25be
00000140: 7614 1a3e ec46 08bd fc71 743d f01d f22b
00000150: 1049 313c a4b2 16be 5002 f83d e677 22bd
00000160: 6efb 07bd 8fcd ed3c b282 523c 9401 c80f
00000170: 4faf 19bb 5a13 2680 3019 4e3e 7f6a 473d
00000180: bbbd 98bd e85d 2300 cba4 91bd e4a7 1f00
00000190: 54c6 a13b d50a 11bd b801 6dbd 7aa5 1200
000001a0: eb78 4301 6839 29bd 19a1 39bd e9d8 b2b9
000001b0: 0a6b f5bc fa1c 1a80 de77 113d 0291 1500
000001c0: 4bd3 7cbd 4983 2e3d 39b6 48bd 0a13 0c80
000001d0: a9f5 1380 4de6 b0a8 3e8a 2e3d 8c7e 0c00
000001e0: 67ac ad3d 37d5 00be 7f4e c33a 957b 1a00
000001f0: bf7e 183d 813b 0b00 245f d3ba 5620 3c3d
00000200: 4ebe 803e 908f 2300 6544 203e ab1f a7bc
00000210: f761 a5be c3cf 1cbe 8347 1d3e 5afd 77bd
00000220: 3bd7 e2b3 e138 b13e b2d6 c8bd f696 c73e
00000230: c33f 7fbc 93b7 a8bd d436 ebbe a54e 79be
00000240: 7eb4 c63c 4720 71bc 8c4a b63b 157f d9b4
00000250: b891 f83d d401 83be 45e7 803c 2d73 3dbe
00000260: 9c59 313c d9a6 183e 1f93 563e a92e 2e35
00000270: c1ba 9fbd f88c b2bb 21b1 963d 4876 cf3d
00000280: c036 273e e09f 2100 98d4 c8bd e5e2 dd3b
00000290: b2f7 4abd 1acb 42bb 987d a8bd 1541 123d
000002a0: f0a7 323b b5ed 02be f5c9 b0bc ba1a ffbe
000002b0: 3045 253d 2f25 ac3e 7395 773d fa83 0a3e
000002c0: a8ea cd3d fb52 f7bd 9cfa c7bd 14da 1dbc
000002d0: b873 20bd 92b8 85bd f22c a23d c586 753a
000002e0: 8797 36bd db37 113e bd44 c93d 58e9 c8b9
000002f0: 60bf a3bd 5a79 5abe db58 873d 8835 52bc
00000300: 228e c33d 29c6 0e80 86ff 753e 7be4 5dbe
00000310: cf94 a0bc 8e2c f4bd fd3f 1d3e 705b 0fbd
00000320: d38d 07b0 2476 463e 71c4 2d3e ebfb de3e
00000330: 72e1 17be 1756 3a3d 2e84 63be d590 83be
00000340: e5d8 3e3e 18f9 cb3c df54 343e 2def 34b1
00000350: e40b e73d b078 9bbe 780d c83d dec0 90be
00000360: 060a 2d3d 79c6 f5bd 22ac 5b3e fc0f 8335
00000370: 1d19 dd3d 7e67 ffbe ad4e dcbd 2268 93bd
00000380: b6d3 0cbd 4ce7 0100 851b bc3d 54e1 973d
00000390: dda8 04be 483f 60bc df2c 553d 89f6 16be
000003a0: c87d 82b4 cb8f 463e bdf9 f43c cfae 063d
000003b0: e9a7 27bd 7d6b be3c 3083 03be d169 abbd
000003c0: 482a e63c 3edf 5c3d bfe5 c23d bc70 1ab4
000003d0: 8be9 523e 82dc d13b 1ff8 e53c 5cf8 e7bd
000003e0: f965 5c3d 2e96 0dbd 3215 f63d d6f4 2880
000003f0: 5ee3 57be 85c5 a23f d01e 283d 4946 543d
0.014784776 2.125012e-39 0.16753116 -0.23330694 0.19068636 0.052869186 -0.26228735 -0.04649794
0.0064031226 0.17862312 -0.28358153 0.15690549 -0.10524279 0.40406415 0.23276067 -0.034730826
0.12638126 -0.393642 -0.3716075 0.009680005 0.44986764 0.1645084 -0.03646323 0.08099462
0.39524323 0.17419188 0.37546006 -0.0010575876 -2.221017 -0.8346695 -0.3380874 0.14766641
-0.07170502 -1.297195e-39 -0.06658739 -0.07814657 -0.07046815 -0.08202392 -0.039227642 -0.08061442
2.234826e-39 -0.08279441 -0.03271082 -0.06685646 -0.07762723 -0.062310867 -0.048864238 -0.06491702
-0.062349327 -0.036909137 -0.045701303 1.356841e-39 -0.066555955 -0.06028371 -0.049061336 -0.0775907
-0.072792955 -0.07922156 -0.0804742 -2.24002e-40 -0.024731321 1.0917439e-08 -0.032924324 -0.048137233
-0.17461167 -2.467757e-39 0.13281162 -0.1948717 -0.014161966 0.18682694 0.0024876895 0.05250606
7.6974665e-24 -0.09464192 -0.037082214 0.1796655 -0.10359833 -0.25352803 -0.21986064 -0.1615905
0.15046868 -0.03327076 0.059679016 1.7203444e-12 0.010820642 -0.14716583 0.12109816 -0.039665125
-0.033198766 0.029028682 0.012848543 1.972213e-29 -0.002345044 -3.496691e-39 0.20126796 0.048685547
-0.07458063 3.24793e-39 -0.0711151 2.907128e-39 0.0049369726 -0.03541072 -0.057862967 1.712401e-39
3.5902598e-38 -0.041314512 -0.04531965 -0.00034112416 -0.029958267 -2.398118e-39 0.035514705 1.980564e-39
-0.061724942 0.042605672 -0.049001906 -1.108856e-39 -1.833e-39 -1.9639802e-14 0.042612307 1.147422e-39
0.08480149 -0.12581335 0.0014900713 2.432056e-39 0.03723025 1.031536e-39 -0.0016126377 0.045929275
0.2514519 3.265743e-39 0.1565109 -0.020400843 -0.32301304 -0.1531363 0.15359311 -0.06054435
-1.0563095e-07 0.34613708 -0.09806575 0.38982362 -0.015579167 -0.08238139 -0.45940268 -0.24346407
0.024255987 -0.014717168 0.005563086 -4.0511864e-07 0.12137169 -0.25587332 0.015735278 -0.18500967
0.010824587 0.14907397 0.2095456 6.488795e-07 -0.07799292 -0.0054489337 0.073580034 0.10129982
0.16329479 3.087924e-39 -0.09806174 0.0067714327 -0.049552627 -0.0029723109 -0.0822708 0.0357066
0.0027260743 -0.1278599 -0.021580676 -0.49825078 0.040349185 0.3362212 0.06044526 0.13526908
0.10054523 -0.12076374 -0.09764597 -0.009634513 -0.039172858 -0.065293446 0.07918729 0.00093660905
-0.0445781 0.14181463 0.09827564 -0.00038320827 -0.07995486 -0.21335354 0.06608745 -0.012830146
0.09548594 -1.356783e-39 0.24023256 -0.2166919 -0.019602207 -0.11922561 0.15356441 -0.03499931
-4.931426e-10 0.19381005 0.16969468 0.43551573 -0.14832094 0.045492258 -0.22218391 -0.25696436
0.18637426 0.02489905 0.17610501 -2.6329403e-09 0.11281565 -0.30365515 0.09768194 -0.28272146
0.042245887 -0.12000746 0.21452382 9.764913e-07 0.107958056 -0.49883646 -0.10757194 -0.07197596
-0.03438159 1.74809e-40 0.091849364 0.07416025 -0.12955041 -0.013686962 0.052044746 -0.14742483
-2.4305905e-07 0.1939079 0.02990424 0.032881554 -0.040931616 0.023244614 -0.12843013 -0.08369792
0.028096333 0.053923838 0.09516477 -1.438338e-07 0.20596902 0.0064044604 0.028072415 -0.11326668
0.053808186 -0.03456705 0.120157614 -3.76125e-39 -0.21082827 1.2716528 0.04104501 0.05182484

bias f4 [64]
00000000: 5e75 9f3e 45f2 a1bd e9b8 03bc 8c40 78bd
00000010: e17e 35bc c73c 873e 8607 3c3e 14b2 923d
00000020: 68bd a7bd 8204 513e ce01 0b3e 2fdf 04bc
00000030: 5fc8 1e3d a334 bc3d c2b5 3bbb 9291 7b3e
00000040: 6239 853e 0065 873e 76e4 573e ad3c bdbd
00000050: 3dc0 103e 8269 03be 0dbe 06bd 2c9e a23e
00000060: 40d2 80bd cb56 89bb 0478 b73e 83ef c33c
00000070: 9023 6e3e 9bcd c33d fa75 a03e 7ef7 553e
00000080: 7c37 893e 0970 5a3e 4dac 853d bf68 603e
00000090: d825 d03d eb99 9d3e 291b 603e 27b2 ab3e
000000a0: 280f e33d c170 463e 25c1 22bd b6c7 3b3d
000000b0: 578b a73d e649 57bd 061e d63e 86b1 4dbe
000000c0: 1ddb ba3d 699c 893d 4722 34bc 7420 4d3d
000000d0: 719a 863b 17b5 7bbe 7aa5 843e 51a0 d13d
000000e0: b948 0d3e 152b 833e e758 8abd 13a4 253d
000000f0: 0cad 2a3e a4d0 1abd ff0b 113e 3042 67bd
0.31144232 -0.07907537 -0.0080396915 -0.06060843 -0.011077614 0.26413557 0.18362245 0.07162872
-0.08190423 0.20411876 0.13574907 -0.008109852 0.038765308 0.09189727 -0.0028642272 0.2456725
0.26020342 0.26444244 0.21083245 -0.092400886 0.14135833 -0.12833217 -0.03289609 0.317613
-0.06290102 -0.0041912547 0.35833752 0.023917919 0.23255754 0.095607005 0.3134001 0.20895192
0.26800144 0.213318 0.065270044 0.21914957 0.10163468 0.30781493 0.21885361 0.33534357
0.11086875 0.1937895 -0.03973498 0.045844756 0.08180874 -0.05256071 0.4181978 -0.20087251
0.09123824 0.06719286 -0.0109945005 0.050079778 0.0041077663 -0.24580799 0.259075 0.10235656
0.13797273 0.25618806 -0.06755238 0.040439676 0.16667575 -0.03779663 0.14164732 -0.056459606
