sim_autoencoder.pth (torch_old, 159720 bytes, 19 tensors)

encoder.0.weight f4 [256, 2]
000000 24 79 31 be 2b cf 06 bf 47 a2 8a 3e 3f 5d 55 bc
       -0.17331368 -0.52659863 0.27076933 -0.01302272
000010 5f 3d 18 be a8 25 2c 3f a9 85 23 3f 54 d0 af 3e
       -0.14867161 0.6724496 0.63875824 0.3433863
000020 72 b4 95 be 4c 88 13 3f 62 dc e6 3e e3 bb 8a be
       -0.2923923 0.5762985 0.45090014 -0.2709647
000030 32 04 91 3e 0d 8d 80 be a4 8a bc be a6 33 a6 3e
       0.28323513 -0.25107613 -0.36824524 0.3246128
000040 8b 87 db bd 4d 1a 27 bd a5 d4 37 be c4 43 43 bf
       -0.10719212 -0.040796567 -0.17952211 -0.7627528
000050 c6 a9 f5 be c6 3c 1d 3f 63 d9 47 3e aa 27 d0 3e
       -0.4798109 0.6142086 0.1951652 0.4065526
000060 fc d0 92 be 57 81 a0 3d ae 09 15 bf 21 d3 e5 3e
       -0.28675067 0.078371696 -0.58217895 0.4488764
000070 87 84 0e 3f 55 ff 4d 3e 2e f8 16 3f c3 37 e4 3d
       0.5567097 0.20116933 0.5897244 0.11143448
000080 81 b2 0f 3f 96 34 13 3f 8e f6 6b be 19 e9 24 bf
       0.5613175 0.57502115 -0.23043272 -0.6441818
000090 78 77 ed be 92 4b 17 3f ea b7 09 be 5f 12 06 bf
       -0.4638021 0.59099686 -0.13449064 -0.5237178
0000a0 0a 4c b2 3e 3f e1 a0 3e 6d 39 25 3f df 6b dc 3d
       0.34823638 0.3142185 0.6454075 0.10762762
0000b0 a5 03 8b 3e 08 ab 30 3d 1f b5 21 bf d4 a6 20 3f
       0.27151218 0.043131858 -0.63166994 0.6275456
0000c0 7e 31 81 3e 82 02 20 3e b8 10 ae bd cc fd 80 3e
       0.25233072 0.15625957 -0.084992826 0.25193632
0000d0 cc 4e 3b be 37 d0 02 bf 66 da 58 be 0d 16 1d bf
       -0.18291777 -0.5109896 -0.21177062 -0.6136177
0000e0 a6 c4 8e 3e f7 ff 94 be 5f 7c e0 3e 34 c9 9e be
       0.27884406 -0.29101536 0.43844888 -0.3101288
0000f0 a1 a2 32 3f ff 08 cd 3e 9d fb fa bd 44 b0 27 bf
       0.697794 0.40045926 -0.12255023 -0.65503335
000100 11 95 52 be ab 0a f8 3e f5 61 b5 be ff e3 80 3e
       -0.20564677 0.4844564 -0.35426298 0.25173947
000110 a5 b4 0f 3f 7c 22 a8 be f6 b0 83 bd fd 4f 09 3f
       0.56135017 -0.3283881 -0.06430237 0.5363768
000120 8a 35 8a be 05 30 2b 3f 57 09 19 bf 33 56 18 3f
       -0.26993972 0.66870147 -0.59779876 0.5950653
000130 84 45 a5 be 40 b4 fd 3e bf da ac bc 8d ad 21 3f
       -0.322796 0.49551582 -0.0211004 0.6315544
000140 11 96 d5 be 68 7f 2a 3e 3c 53 20 3e 99 41 18 3f
       -0.41716054 0.16650164 0.15656751 0.59475094
000150 7c 32 b9 be 2c a6 0a be 03 b6 25 3f 35 1e 7a be
       -0.3617133 -0.13539952 0.6473085 -0.24425586
000160 f2 5f 06 bf 71 15 10 3f 1a ba 0a 3f d2 b1 5f bd
       -0.5249015 0.56282717 0.5419022 -0.054612942
000170 e6 5e 83 be f8 ad cd bd 30 66 e0 bd 0e de 19 bf
       -0.2565834 -0.100429475 -0.10956991 -0.60104454
000180 fa d6 da be c4 ac 3f bf 1d 0e 83 3e 7f 7f e9 3e
       -0.4274214 -0.74872994 0.25596705 0.45605084
000190 c9 48 9c 3e 24 96 5a 3e 48 05 67 be 38 ce 8d 3e
       0.3052428 0.21346337 -0.22560608 0.27696395
0001a0 96 42 06 3f 7b 09 fc be fc 6c c5 3c 83 84 8e 3b
       0.5244535 -0.49225983 0.02409982 0.0043492927
0001b0 5d 1f d6 3e 5c 2b 0f bf fb ec d3 be 10 ff 75 bf
       0.41820803 -0.55925536 -0.4139174 -0.9609232
0001c0 f3 42 e3 be 3f c5 81 bd fd f5 3c be 61 0a ac 3e
       -0.44387016 -0.0633645 -0.18453212 0.33601668
0001d0 fd 53 19 3f fb a9 79 3e cf a6 1c 3f 2d 7a e7 3e
       0.5989378 0.24381249 0.6119203 0.452104
0001e0 dd 2a 18 bf 0c 15 07 3f a8 ed 4e 3e b3 33 87 be
       -0.59440404 0.5276649 0.20207846 -0.2640663
0001f0 cf a8 d3 be 62 d8 14 3d 7b 59 2e bf 28 a7 cb be
       -0.41339728 0.03633917 -0.68105286 -0.39775968
000200 8a 8f 0a bf a9 f4 32 3d f6 d9 a6 be 96 e0 5c 3e
       -0.54125273 0.043690357 -0.32588166 0.21570048
000210 6e a7 b9 3e 6e b8 0e bf db ae 2a be 1c 60 e4 3e
       0.3626055 -0.5575017 -0.16668265 0.44604576
000220 5c bc 84 3d 54 f0 bc 3e 3e d0 fa 3e 68 73 b9 3e
       0.06481239 0.36902106 0.48987 0.3622086
000230 e8 0e 12 bf 04 e0 cd be 06 bf 17 bf d2 7f 0c 3f
       -0.57053995 -0.40209973 -0.59275854 0.5488254
000240 6d 0f bd bd 66 d0 38 3e 48 13 49 be 64 a2 01 bf
       -0.09231458 0.18048248 -0.19636261 -0.50638413
000250 d4 37 bc bd 68 35 23 bf 2a c4 18 bf cd d7 66 be
       -0.09190336 -0.63753366 -0.5967432 -0.22543259
000260 ca b9 0b 3f 52 49 26 3f 71 4e 92 3e 53 a7 3d be
       0.54580367 0.6495563 0.2857547 -0.1852086
000270 6a af 24 bf dd b1 db be 15 4a 6c be 1e ae 1a bf
       -0.6433016 -0.42909136 -0.23075135 -0.6042193
000280 4c 2f 6c bd 1e c4 16 3f 90 58 2e bf 1f d6 37 3e
       -0.057662293 0.58893 -0.68103886 0.17952774
000290 b5 1f e4 be 03 02 aa 3d 44 45 11 be 45 2a 4a bf
       -0.4455544 0.08301165 -0.14186579 -0.7897075
0002a0 6d ff d3 be 90 e8 24 3f 2c df fe 3d 55 f9 1c bf
       -0.41405812 0.6441736 0.124449104 -0.6131795
0002b0 ce 4b 95 be 4d 5b 4f bf de 29 3e be 18 01 44 bf
       -0.29159397 -0.8099869 -0.18570659 -0.7656417
0002c0 ea bf a2 3e a2 a9 3e 3e 55 ff bc 3e 6b 13 af 3e
       0.31787044 0.18619397 0.36913553 0.34194502
0002d0 4d f8 24 3f f0 aa 01 bc e2 62 11 3f 7c f7 b6 3e
       0.64441377 -0.00791429 0.5679151 0.3573569
0002e0 a8 37 f7 be c5 21 0c 3e 36 e3 94 be 66 66 3e bf
       -0.4828465 0.13684757 -0.29079598 -0.74375
0002f0 87 74 73 be 75 e5 a1 bd 55 15 4a 3e 23 99 b6 3e
       -0.2377492 -0.079050936 0.197347 0.3566371
000300 66 d0 2f be 62 94 28 3f 23 16 fa be 2b 53 dd 3e
       -0.17169341 0.65851414 -0.48845014 0.43227515
000310 56 72 a1 be 88 cf d3 bd 38 f0 00 3f 3e 6d 1c 3f
       -0.31532544 -0.10342318 0.50366545 0.6110419
000320 d4 74 5a be 2e 93 97 3e 2b a8 b3 3d 4d 80 1d 3f
       -0.21333629 0.29604477 0.0877231 0.61523896
000330 3b 41 9f 3e cf ab ba ba 59 56 49 be de 40 5f bf
       0.31104454 -0.0014241877 -0.19661845 -0.87208354
000340 b7 94 f9 be f4 46 11 be c5 5b 0f 3e da 05 28 bf
       -0.48746273 -0.14187223 0.13999851 -0.6563393
000350 7a 32 20 bf 5a b4 09 3f b5 db 0c 3f 0a ee b4 be
       -0.6257702 0.5379082 0.55022746 -0.3533786
000360 c2 fd f9 3b 25 99 e1 3c e5 b4 35 3f 11 df 88 3d
       0.0076291272 0.027538845 0.7097915 0.066831715
000370 d5 58 11 3e a4 e9 e0 3e 34 d9 21 bf ac a0 ed 3c
       0.14194043 0.43928254 -0.6322205 0.029007278
000380 fb 72 bf 3c 37 7f 3a 3f 8d 6e 12 3e a6 29 d7 3e
       0.023370257 0.72850364 0.14299984 0.42023963
000390 22 c4 0c 3f ef 91 ef be 80 38 dc 3e 88 b9 1f 3f
       0.54986775 -0.46791026 0.43011856 0.62392473
0003a0 f6 d3 e6 3e ae f5 e5 3e 4b cf 25 be ae 92 36 bf
       0.45083588 0.44914 -0.16192357 -0.71317565
0003b0 fd e8 2b be 8f f3 0b bf f6 d7 fb 3d ef 22 36 3f
       -0.16788097 -0.54668516 0.12297051 0.71147054
0003c0 9a 66 8c be ea 77 34 bf b1 ec 15 3f fb 46 01 bf
       -0.2742203 -0.70495474 0.5856429 -0.5049893
0003d0 c8 da 80 bd 3b ca cf 3e 72 a4 03 3f 17 27 91 3e
       -0.06291729 0.40583977 0.514228 0.28350136
0003e0 8b 44 ae be d7 89 cd be 9e b0 bf bd a5 a9 2b bf
       -0.3403667 -0.40144226 -0.09359859 -0.6705573
0003f0 6c 1d 0b 3f 85 05 e8 bc d2 e0 6e be c7 c6 56 bf
       0.5434177 -0.028322944 -0.2332795 -0.8389706

encoder.0.bias f4 [256]
000000 61 45 95 be 1e 1c 63 3f 3b bc 3d be 88 a7 27 be
       -0.29154494 0.8871478 -0.18528835 -0.16372502
000010 35 f7 29 bf 04 84 58 bf 4c 2d 2c 3f b8 55 4f 3f
       -0.66392833 -0.8457644 0.6725662 0.8099017
000020 22 62 ea 3e 4d 9e 69 3e 8d 60 35 3f 15 b9 9f 3e
       0.45777994 0.22814293 0.7085045 0.31195894
000030 10 d6 5b 3f 19 5c 93 be 81 04 5a bc b6 6a 24 3f
       0.8587351 -0.28781202 -0.013306738 0.6422533
000040 d5 69 31 bf f7 56 05 bf 9c 83 e8 3e 66 51 8d 3d
       -0.6930211 -0.5208582 0.4541291 0.06900291
000050 a9 1f 3c 3f 12 50 32 3e 3e 8d 7b 3e 6f 9c 4b 3d
       0.7348581 0.17413357 0.24565598 0.049709734
000060 21 a7 e5 3e 47 70 16 be 58 28 d3 be 5c eb d5 be
       0.44854072 -0.14691268 -0.41241717 -0.41781127
000070 cb 2a ab be a6 cc 45 bf 6b b9 33 3f a4 22 00 3f
       -0.33431086 -0.77265394 0.702048 0.5005286
000080 64 19 aa 3c ba 19 3e 3f c4 3e ca be 8f 65 0b be
       0.02076406 0.74258006 -0.3950101 -0.1361296
000090 61 ac 2b bf da 1c 0e bf c2 a4 b4 3c cf 4b 14 3e
       -0.67059904 -0.55512774 0.022051219 0.14482044
0000a0 88 8c b2 be 03 ce 29 3f 14 cc 9d bc 28 7a a3 be
       -0.34872842 0.66329974 -0.019262351 -0.31929135
0000b0 45 ba bc 3d 71 e1 5b 3e b7 2c 14 bf 53 2a f1 3e
       0.092152156 0.21472718 -0.5788073 0.47102603
0000c0 c3 2b 1a 3d 18 81 f5 be 3a 99 45 bf 0d fb 90 be
       0.03763939 -0.47950053 -0.7718693 -0.28316537
0000d0 4e a5 de 3d 06 c1 fd 3e d5 78 80 be 70 e8 15 bf
       0.10871373 0.49561328 -0.25092188 -0.58557796
0000e0 f1 ff 1d bf 53 1f 2c bf 32 2c d0 be a3 62 50 3f
       -0.6171866 -0.67235297 -0.40658718 0.8140051
0000f0 f7 94 04 3e 84 e3 12 3f c9 6c 43 3f 1e 06 4a 3d
       0.1294745 0.5737841 0.7633787 0.04932224
000100 1a 4c 3f 3f b9 a1 0e 3f aa b9 5b 3f ef c4 15 3d
       0.74725497 0.5571552 0.85830176 0.036564764
000110 e2 18 1a 3f 0c 93 10 3f 96 84 33 3f 55 70 7a 3e
       0.6019422 0.56474376 0.70124185 0.24456914
000120 62 c1 cc bd 15 df 10 bf 78 4b 30 3f fc ea 99 be
       -0.09997822 -0.56590396 0.68865156 -0.3006209
000130 26 cf 1e bf 5b 2f 26 bf f5 23 2c bf 18 54 21 bf
       -0.62034833 -0.6491601 -0.67242366 -0.6301894
000140 78 98 f2 3c 5d f3 22 3c 2b f0 12 3f 83 75 27 3f
       0.029613718 0.009945718 0.5739772 0.65413684
000150 57 ee 05 3f c7 70 14 3f af 57 9f 3e 52 7a 48 3e
       0.523168 0.57984585 0.31121585 0.19577911
000160 b5 02 c0 be c3 48 df be a6 f4 23 3f 79 26 1a bf
       -0.37502065 -0.436102 0.6404518 -0.60214955
000170 93 b3 fb 3e 80 a6 71 3e f1 5c 13 3f 83 59 a3 be
       0.49160442 0.23598671 0.5756369 -0.3190423
000180 82 75 4a 3e 62 7c 52 3e 7a 18 b2 be 7e 21 ae bd
       0.19771388 0.20555261 -0.347843 -0.08502482
000190 71 18 41 3f f9 2b bb be 61 16 4d bf 48 c7 d5 3e
       0.7542792 -0.36556986 -0.8011227 0.41753602
0001a0 3e 9f 0f bf 6e 29 0e bf 3c 7f 16 3f a5 69 15 3f
       -0.5610236 -0.55531967 0.58787894 0.58364326
0001b0 89 d6 4e 3f fb 33 83 be 39 21 b3 be b6 09 1e 3f
       0.80796105 -0.25625595 -0.34986284 0.6173357
0001c0 74 d5 02 3f fb d0 58 3e 14 b0 b7 bd 90 7d 90 3e
       0.51106954 0.2117347 -0.08969131 0.28220797
0001d0 58 42 20 3f b4 cd 8c 3e c0 16 3a be 78 09 42 3f
       0.6260123 0.2750069 -0.18172741 0.757957
0001e0 3e 2e 17 3f 13 81 f2 be 33 4b 6a 3e c3 33 c5 bd
       0.59054935 -0.473641 0.22880249 -0.096290134
0001f0 56 1d 2a 3e 24 2c 44 3f 07 b0 36 be 9c ea d0 bc
       0.16612753 0.76629853 -0.17840587 -0.025502495
000200 ff 4d ee 3e 94 de c3 3b 62 79 61 3f cb f8 95 3e
       0.4654388 0.005977461 0.8807584 0.29291376
000210 19 fc 2d 3f 20 6f 28 bf b5 eb 54 3f 48 d2 70 3f
       0.67962795 -0.65794563 0.8317216 0.94070864
000220 62 f9 2d 3f fc 8e 5c 3e 87 8f 0b 3f 77 dc 91 3e
       0.6795865 0.21538919 0.5451588 0.28488514
000230 1d 93 01 3f 84 a8 11 3f 9b 86 5c bc fa 34 c9 3e
       0.506151 0.5689776 -0.013459827 0.3929823
000240 21 d1 25 bd 9b 0b ce 3d 5b 77 ad be c6 e9 c7 3e
       -0.040482644 0.10060807 -0.33880123 0.39045542
000250 6f 0f 83 bd 9f 79 1f 3f 89 b0 ae be cf 56 19 3f
       -0.06399428 0.62294954 -0.3411906 0.59898084
000260 1c a8 5a 3e 3d 31 2e 3f a7 ce f8 bb 9d 2f a7 be
       0.21353191 0.6804388 -0.0075929943 -0.32653514
000270 0e df 49 3f aa ab c5 3e 7f 75 c3 be 79 08 d2 be
       0.7885598 0.38607532 -0.3817558 -0.4102209
000280 5a 5b 7e 3d bd c1 5d bf bd 15 45 3f 7c 08 10 bf
       0.06209884 -0.86623746 0.76986295 -0.56262946
000290 fe a8 42 3f b4 39 2a 3f 70 a0 4c 3e b4 b4 e5 be
       0.7603911 0.664943 0.19983077 -0.44864428
0002a0 55 fd bb be 5f b0 ed bc f2 fc 85 be c5 2d 52 3c
       -0.36716715 -0.029014764 -0.26169544 0.012828295
0002b0 15 84 f4 3e 41 8c f4 be c6 1a 14 3e c3 6d 2b bf
       0.4775702 -0.47763255 0.14463338 -0.6696436
0002c0 61 62 a9 bc fa 9f 05 3f 2c d1 23 bf 39 f0 23 bf
       -0.020676794 0.5219723 -0.63991046 -0.64038426
0002d0 98 8e 75 3e 25 fc 8d 3e 78 6b 5b bc 3d 09 25 3f
       0.23980176 0.27731434 -0.013392322 0.6446722
0002e0 40 08 60 bb 4c e6 9e 3e 25 5a be 3e a3 29 e5 3e
       -0.0034184605 0.31035078 0.3717815 0.4475833
0002f0 4d 40 89 be ec f0 57 3f 54 83 21 3f fa 90 2a 3f
       -0.2680687 0.8435199 0.63091016 0.66627467
000300 7e dc 33 bf bf 3c cc 3e 42 cd 9e be 40 2b 53 3f
       -0.7025832 0.39890096 -0.31015974 0.8248787
000310 4b 07 22 3f 87 36 30 bf 5a 28 55 3f 0f b2 c5 3e
       0.6329238 -0.688332 0.83264697 0.3861241
000320 0d 9e 1f 3e e7 25 06 be b2 27 a6 be 60 82 22 3f
       0.15587635 -0.13100396 -0.3245216 0.63480186
000330 c7 dd 0b 3e f1 0a 6b 3e 55 13 86 3e c6 aa 0a 3d
       0.1365882 0.22953393 0.26186624 0.03385427
000340 cb f8 04 3f 9c 65 cb 3e b1 b4 40 3c 6e 99 f9 3e
       0.5194213 0.3972596 0.01176183 0.4874987
000350 67 71 c0 be f7 26 ee 3d b1 92 fd be 57 aa 18 bf
       -0.3758652 0.11628526 -0.4952598 -0.5963492
000360 9e f4 32 bf 30 2a 78 be 90 62 85 be 80 df 0d 3f
       -0.69904506 -0.24234843 -0.2605176 0.5541916
000370 90 0f fe 3e 77 79 17 3e e8 b2 39 3f ba 89 44 bf
       0.49621248 0.14792429 0.72538614 -0.76772654
000380 d2 6c f8 3b 17 bd 00 bf 7c ba 0d 3e c0 34 02 3f
       0.0075813318 -0.5028853 0.1384067 0.5086174
000390 32 a0 31 bf 6a 9b 21 3f e4 41 02 3e 3c c9 ec bd
       -0.69385064 0.6312777 0.12720448 -0.1156182
0003a0 c3 92 c7 be eb 81 57 3f c8 b0 5a 3f 36 df 56 3f
       -0.38979158 0.84182614 0.85425997 0.8393434
0003b0 7e 9b 93 3d df d4 0f 3f 4a b0 55 3f de cd 19 bf
       0.07207392 0.5618419 0.8347212 -0.60079753
0003c0 e2 fc 83 3d 44 a0 ca be c1 a1 22 bd ce e5 f8 bd
       0.06444718 -0.39575398 -0.03970504 -0.12153207
0003d0 69 74 5e be fb d5 1c bf a3 00 23 3f 60 ba c3 3e
       -0.21724094 -0.6126401 0.63672847 0.3822813
0003e0 27 8e 2c bf e9 ab 59 be f1 17 28 bf 8b 76 41 3f
       -0.6740441 -0.21256985 -0.6566153 0.7557151
0003f0 bb 1d d0 3e 6d 28 02 bf e7 2b 68 bf 1f 68 90 be
       0.40647683 -0.50842935 -0.9069199 -0.28204438

encoder.2.weight f4 [64, 256]
000000 62 4d 07 3e 3a cb 69 bc e2 d2 80 bc c7 c8 9d 3c
       0.13213113 -0.014269644 -0.015725557 0.019260777
000010 f7 b6 45 bd 7e 0f 68 3c cb f4 27 3d b0 72 eb 3c
       -0.048270192 0.01416385 0.041004937 0.02874121
000020 15 01 37 3c 7b 88 a1 3d 6d 52 59 bd 78 1d b1 bb
       0.011169692 0.0788736 -0.053057123 -0.0054051243
000030 b7 cd 4f bd 86 60 a1 bc 11 47 a6 3c 19 0e 3b 3d
       -0.050733294 -0.019699346 0.020297559 0.04566774
000040 34 a9 c0 3d 05 0a 58 3d 69 5e ed bc 7b b5 e5 3d
       0.09407273 0.05274393 -0.028975682 0.11216255
000050 83 f6 b4 3c 21 31 57 ba 61 8b e7 3c d5 9c 8d bd
       0.022090202 -0.000820892 0.028264703 -0.06914679
000060 67 1b 0e bd de d1 35 bd d6 d3 53 3d 3f cf 56 3d
       -0.0346941 -0.044389598 0.051715694 0.05244374
000070 31 02 54 3a 99 ed 94 3d 31 4e 9d 3d f1 78 d8 3d
       0.0008087485 0.07271881 0.076809295 0.10569943
000080 b9 74 2b bc 10 68 a2 bd 08 a4 17 3d 58 32 1a 3d
       -0.010464841 -0.079300046 0.037021667 0.037645668
000090 c0 41 06 3d ed 95 d4 bc af 62 2b bd 07 dc 39 bd
       0.032777548 -0.025950396 -0.04184216 -0.04537585
0000a0 dd c5 17 bd 85 66 0d bd b3 03 d6 3c 5b 46 35 3d
       -0.03705393 -0.0345216 0.02612481 0.04425655
0000b0 f5 83 0a bd 68 73 15 3d 4b aa 8a 3d 44 d4 2b 3e
       -0.03381725 0.036487013 0.06770762 0.16780192
0000c0 dd 2b 55 3d f6 83 33 bb aa dd 0c 3d 6a 0c 6b bd
       0.052043784 -0.0027391887 0.034391083 -0.057384886
0000d0 a2 0b e8 bb 73 d5 be bd 3a 5c 88 3a d7 3f 7a 3d
       -0.007081465 -0.09318056 0.0010403462 0.06109604
0000e0 a5 59 f1 bb e4 75 13 3d d9 fb 5c 3c 8a cb d0 3c
       -0.007365423 0.0360011 0.01348778 0.02548768
0000f0 48 ac 6f bc d0 a9 2a 3d 01 21 73 3c e4 f2 32 bc
       -0.014628477 0.041665852 0.014839412 -0.010922167
000100 6c df 0c bd f5 21 5b 3c b8 a0 af bb 6e f5 e4 bc
       -0.03439276 0.013374795 -0.0053597353 -0.027949061
000110 d5 65 ef bb bf be 39 3c 65 13 0e bc 45 7a 88 bc
       -0.0073058405 0.011336981 -0.008671616 -0.016659865
000120 9a 1f 4f 3d 69 2c 32 3d b6 48 4c 3d 10 aa 1f bc
       0.050567247 0.043499384 0.04987403 -0.009745136
000130 92 2a 61 3b d2 08 e2 bc 73 9e aa 3d 5a 73 72 3d
       0.003435765 -0.027592096 0.08331003 0.05919204
000140 47 76 98 3c 59 0f 17 3d 07 bb 79 3d 7c 2f e6 3d
       0.018611087 0.03687987 0.06096938 0.11239526
000150 c7 95 2d 3d ad b2 4a 3d 64 85 28 3d a8 a5 a9 3d
       0.042379167 0.049486805 0.041142836 0.082835495
000160 d8 ec 40 3d 98 d8 02 3d 34 b2 93 3b 05 58 0a 3d
       0.04710087 0.03194484 0.0045073275 0.03377535
000170 db 6f f7 3b 16 08 ba 3d 25 c5 ad bc 05 49 2d 3c
       0.007551176 0.090835735 -0.02121217 0.010576491
000180 13 b5 40 3b 67 60 30 3d 77 b3 03 3d 9f e0 ff bb
       0.0029404804 0.043060686 0.032153573 -0.0078087593
000190 f0 31 8d bd 5d a2 97 3d c9 08 a3 3d 56 64 29 3e
       -0.068942904 0.07404015 0.0796066 0.16542181
0001a0 5b e1 4c 3d cc 43 82 3d 00 b8 8c bc 31 b6 ae bb
       0.050019603 0.063605875 -0.017177582 -0.0053317775
0001b0 3b 95 18 bd c1 0a 0a 3d 07 07 85 3d ed 76 17 3d
       -0.037251692 0.033701662 0.06495481 0.03697865
0001c0 b0 a3 68 bd 9b 7d 4e 3d c9 d2 9f 3d 35 a7 0a bd
       -0.05679673 0.050412755 0.07803876 -0.033850867
0001d0 7f 70 9b bc 4d e1 0c 3e 4c c1 93 3d 2e 47 7b bd
       -0.01897454 0.1375782 0.07214603 -0.06134718
0001e0 2f d8 03 3e ea c8 b7 3d ad 16 a0 bc 4a ff 2c 3d
       0.12875436 0.08973868 -0.019542063 0.04223565
0001f0 72 dd 06 3d 9b ef 92 3d 9a 9c 4e 3d 33 5d 12 3e
       0.03292603 0.07174607 0.050442316 0.14293365
000200 86 05 98 3d f1 cb cd bb e0 29 7e 3b df e9 00 3d
       0.074229285 -0.006280415 0.0038782284 0.031473037
000210 2c e3 84 3d 0a fd 80 3b 0b 50 a2 bc ea 6f ca bd
       0.06488642 0.0039364146 -0.019813558 -0.09884627
000220 4d d5 53 bd 9a f3 8d 3b f0 86 f4 3d 9f a5 fa bb
       -0.05171709 0.004332018 0.119398 -0.007649138
000230 f1 59 af 3c ae 0f 0e 3d 6a 95 ad bc 74 a3 82 3d
       0.021405192 0.034682922 -0.02118941 0.063788325
000240 11 71 12 bd 25 06 98 bc f7 89 bc 3c a7 1b df ba
       -0.03575236 -0.018557617 0.023015006 -0.0017021791
000250 ea d0 78 3d 7c be 99 3c 36 68 a8 bc 3d 98 95 3d
       0.06074611 0.018767588 -0.020557504 0.07304428
000260 10 95 76 bc e2 4f 04 3d e4 f6 bc 3d ba 81 a7 3d
       -0.015050188 0.032302745 0.09226778 0.0817904
000270 03 38 08 bd 28 ac fd 3b 03 d6 05 3d 8d c5 00 bd
       -0.033256542 0.00774147 0.0326748 -0.0314384
000280 ca d4 1e 3d cb 67 95 3c de 4d 1d 3d 59 61 25 3d
       0.03877715 0.018237969 0.038404338 0.04037604
000290 3b 78 db 3c e8 13 bf b7 90 72 66 bd b9 dd a6 3c
       0.026790729 -2.2778244e-05 -0.0562616 0.020369397
0002a0 98 b4 c4 3c 86 26 05 3e 42 af 72 3b 9a ec 9f bc
       0.024011895 0.13002977 0.0037030731 -0.019522
0002b0 2a b0 14 bd 95 f3 fb 3b 6e cb 2e bd 9b 74 ea 3c
       -0.036300816 0.0076889494 -0.042674474 0.028620055
0002c0 b7 13 25 3d c7 15 cb 3d 19 15 bc bc 52 93 13 3c
       0.040302005 0.09916263 -0.022959279 0.009007292
0002d0 c1 91 cd bc 6a 55 37 bd 8d 66 88 3d d6 fc 0c 3e
       -0.025093915 -0.04475919 0.06660185 0.13768324
0002e0 df 40 95 3d 08 b6 58 bc e5 c2 81 bc 40 f9 58 3d
       0.07287764 -0.013226993 -0.015840003 0.05297208
0002f0 cf e3 59 3d aa 53 26 bc eb 05 00 3e e9 4f 58 3d
       0.05319577 -0.010151783 0.12502258 0.052810583
000300 cb ef 8b 3d f9 20 91 bd 83 19 9e 3d fb a4 57 bb
       0.06832846 -0.07086367 0.0771971 -0.0032904733
000310 13 95 4f 3d a0 da cd 3b 4f 3b 19 3d e8 71 0e 3d
       0.050679278 0.0062821656 0.037410077 0.0347766
000320 aa 7f d5 bc 99 f4 50 3d df 4d ff 3d 1f 31 7c bd
       -0.026061852 0.051014517 0.124660246 -0.061570283
000330 3c 21 41 3c fc b2 d1 bc fb 88 65 3c 66 84 d1 3d
       0.011787709 -0.025598042 0.0140097095 0.10230331
000340 55 45 b4 bc c9 a4 65 3c 0b 46 66 3c 91 af b4 bc
       -0.022005716 0.014016339 0.0140547855 -0.022056373
000350 ad 9d 59 bd 1e 56 b1 3b 12 28 13 3c ed a4 e2 3c
       -0.053128887 0.0054118773 0.0089817215 0.027666533
000360 88 8c dc 3d 99 9b e8 bb a7 28 0a 3d 7d 9c 8b bc
       0.10768992 -0.007098627 0.033730175 -0.017042393
000370 3a c5 59 3c 61 c6 dc bc 1e 71 8d 3b 71 4e b8 3c
       0.013291651 -0.026950063 0.004316463 0.022498341
000380 0e e7 94 3d dd cb bb 3d 3b d0 6b 3d b4 5c 81 3d
       0.07270633 0.09169743 0.05757163 0.0631651
000390 e9 f1 ed bc 4e 90 6f bd 52 94 44 3d b6 10 0e 3d
       -0.029046016 -0.05848723 0.04799301 0.034683906
0003a0 8f ed 18 3d 96 f4 92 3c 7d 7c 86 3b a1 ba 77 bc
       0.03733593 0.017938893 0.0041041956 -0.015120179
0003b0 04 54 c6 3d ac a3 2a 3d 69 ad a1 3d 43 16 65 3d
       0.096839935 0.041659996 0.078944035 0.055929434
0003c0 b5 d1 21 3e 69 74 3c 3d fa e0 63 3b 21 b8 29 3d
       0.15802653 0.046009455 0.0034771548 0.041435365
0003d0 59 10 84 3d 33 b8 bf 3c 53 72 19 3d 15 39 cf 3c
       0.064484306 0.023403263 0.037462544 0.025295774
0003e0 92 f0 bd 3d 83 47 52 3d 68 f2 85 3d f4 c7 f4 3c
       0.09274401 0.05133773 0.06540376 0.029880501
0003f0 46 f2 da 3d 84 ed ca 3c 42 6d 84 3c ff da 85 3d
       0.10690741 0.02477146 0.01616538 0.06535911

encoder.2.bias f4 [64]
000000 7a ca 7e bc 7c 81 3f 3e 62 63 42 3e d5 df 5d 30
       -0.015551204 0.18701738 0.18983224 8.0717416e-10
000010 39 9d 12 3e cf 90 3b 3e c2 8f 6c be 68 58 72 ba
       0.14317788 0.18316959 -0.23101714 -0.0009244741
000020 b8 f5 23 3e 80 76 df 3d 94 40 25 bb 66 49 64 3e
       0.16011703 0.10911274 -0.0025215494 0.22293624
000030 7d 38 81 be 3f a5 48 3e 3c 2f 49 3d 89 c5 1a 3e
       -0.2523841 0.19594286 0.04911731 0.15114416
000040 af 5f 4d 3e 05 58 07 3e f8 36 32 3e c4 96 61 3e
       0.20056032 0.1321717 0.17403781 0.22030169
000050 7a be 0f ba 32 54 2c 3e b7 49 b6 3d 6a 59 2d 3e
       -0.00054834003 0.16828993 0.08900779 0.1692864
000060 24 d6 8f bd 15 ce c5 3d 52 67 21 bd 1b cc 82 3c
       -0.07023266 0.09658448 -0.039405175 0.015966466
000070 b4 78 05 bd bf 34 4a 3e d9 2e 09 3d 26 4e 35 3e
       -0.032585815 0.19746684 0.033491943 0.17705593
000080 d2 4c 91 bd d9 95 2c 3e e0 e4 f4 3d 9e 42 3f 3e
       -0.070947304 0.16854037 0.11957717 0.18677756
000090 35 97 2d 3e 83 28 69 3e e1 cd e4 3b cf c8 8e bc
       0.16952212 0.2276936 0.0069825505 -0.017429737
0000a0 5b f6 36 3e bf 85 04 3e b0 25 49 3e 5c f5 07 3e
       0.17867415 0.12941645 0.19643283 0.13277191
0000b0 42 49 28 bd a6 d5 83 3c 11 13 df bb f4 72 98 be
       -0.04108549 0.016093086 -0.006807693 -0.29775202
0000c0 6d f1 4b 3e 93 82 54 3e 83 ab 0a bd 69 e3 75 bc
       0.19916315 0.20752935 -0.033854973 -0.015007832
0000d0 7d de 47 3e 52 57 49 bc 5a 0f a2 3b e5 f5 76 bd
       0.19518466 -0.012288885 0.0049456777 -0.060293097
0000e0 89 70 3d be 3f 0c 46 3e 95 1f 21 3e e5 b2 cc 3d
       -0.1849996 0.19340609 0.15734704 0.09995059
0000f0 b2 6f 47 3e 23 06 0c be ff c7 91 3e 6f d6 66 3e
       0.19476202 -0.13674216 0.28472897 0.22542737

encoder.4.weight f4 [32, 64]
000000 38 f8 9d 3d a9 0e b6 3d 9a 8a 22 3e 83 40 f0 2d
       0.077133596 0.08889515 0.15873185 2.731349e-11
000010 3d aa 2f 3e b9 48 a2 bd a6 ee e0 bd 8d b6 b0 bd
       0.17154785 -0.07924027 -0.109830186 -0.08628569
000020 ed fa 9c bd 81 7a 7d 3c 94 5e df 3d c0 9b 14 3e
       -0.07665048 0.015471102 0.10906711 0.14512539
000030 9f 22 6a bd c2 09 00 3e 23 b7 f6 bd 35 84 18 3e
       -0.057161923 0.12503722 -0.12046649 0.14894183
000040 c5 24 e5 3b 4a 05 8a 3c 49 ab f6 3d 94 a8 ae 3d
       0.0069929087 0.016848225 0.12044389 0.085282475
000050 fc 26 5f bd a7 b0 cd 3d 88 b2 87 bd ea 06 ae 3b
       -0.054480538 0.100434594 -0.06625849 0.005310883
000060 1c c0 c8 bb 82 f2 46 3d 45 11 7f bb 18 6d cf 3d
       -0.006126417 0.048571117 -0.0038920206 0.1012823
000070 5e 16 02 be 89 18 0c 3e 06 a8 ed 3c 3e 8c 2c 3c
       -0.12703845 0.13681234 0.029010784 0.010531483
000080 72 7e 25 bd 82 bc 60 bc d1 62 fa 3d f4 79 24 3d
       -0.04040379 -0.013716819 0.12225879 0.040155366
000090 96 47 84 bb 12 89 d4 3d f8 89 d6 3c c4 16 1a 3c
       -0.004036854 0.103777066 0.026188836 0.009404842
0000a0 69 e5 8e 3d 64 89 27 3e dd 65 9b bb ff f0 8a bd
       0.0697735 0.16361004 -0.0047423677 -0.067842476
0000b0 6a 23 d7 bd 59 27 10 bd 97 13 fe bc 54 d0 20 bd
       -0.105048016 -0.035193775 -0.0310152 -0.039261177
0000c0 79 61 20 3c d6 ec 52 bd d6 ed 8e 36 4e 43 f6 bd
       0.009788864 -0.051495396 4.2596175e-06 -0.12024556
0000d0 b4 2d 22 3e 29 49 67 3d aa 1b b0 3d c2 e9 f9 bc
       0.15837747 0.056466255 0.085990265 -0.030506972
0000e0 43 c6 a6 3d 11 57 22 3e 4b e9 59 3d 1c 35 47 bd
       0.08143284 0.15853526 0.053201 -0.048634633
0000f0 c3 b1 1e 3e a2 d4 0d be 4c 41 f5 3d 70 7b be bb
       0.15497498 -0.13850644 0.11975345 -0.0058130547
000100 3f 7f f4 bd 6e 82 7e 3c 37 ee d0 3d e6 2e 14 af
       -0.11938333 0.015534027 0.10201686 -1.3477183e-10
000110 3d a5 af 3b de 1b 7c 3d 39 78 30 bc 0b 33 4c be
       0.005360274 0.061550014 -0.010770851 -0.19941346
000120 c8 0e a9 3d 35 5f 12 3e 41 72 fb bb 5a 9a 58 bd
       0.082547724 0.14294131 -0.0076735322 -0.052881576
000130 2c dd ae bd 0c 17 34 bd ac 16 ab 3d bc b6 74 3d
       -0.08538279 -0.04396729 0.08353934 0.05974458
000140 f7 bf a2 bd de 79 a8 3b 1a ea 11 bd 65 76 02 3e
       -0.07946771 0.005141481 -0.035623647 0.12740476
000150 5a 3b 9d bd f1 ad c8 3d 63 2b 58 3d b8 b1 27 be
       -0.07677336 0.09798802 0.05277575 -0.16376388
000160 30 f2 42 be 58 04 21 bc 5a 39 89 bd 27 96 e9 bc
       -0.190377 -0.009827696 -0.06700392 -0.028513981
000170 38 46 1b be f7 1d 91 3c 2f 08 9f 3d a4 4e e7 bc
       -0.15163505 0.017714484 0.07765233 -0.028235741
000180 b0 d3 e0 bd 86 15 97 3d dd a6 19 3e 89 ee 16 3e
       -0.10977876 0.07377152 0.1500506 0.14739431
000190 dc 64 cc 3d 57 93 9d 3d 12 a6 a2 3d b9 d2 f3 bd
       0.09980175 0.076941185 0.07941832 -0.119054265
0001a0 12 49 0f 3d 32 52 63 3d 98 9e a1 3c 52 ee bc 3d
       0.034981795 0.05549831 0.019728944 0.092251435
0001b0 86 71 52 b3 f1 8f 65 bd fa 84 dc bd 33 f9 41 bd
       -4.8997684e-08 -0.056045476 -0.10767551 -0.047356796
0001c0 68 95 e5 3d 2f 41 a0 3d 26 0f 3c ad 5c 53 c0 3c
       0.112101376 0.07824933 -1.0689926e-11 0.023477249
0001d0 6b 6c 87 3d 40 0a 1d bd 3f be 8a 3d 60 26 88 3c
       0.06612476 -0.038339853 0.06774568 0.016619861
0001e0 8b 02 f3 bc 8e 1c 28 3e d9 5b 1d 3e 87 2f 3e 3d
       -0.029664299 0.16417143 0.15367068 0.046432044
0001f0 a3 8e b4 bd d7 34 73 bd c9 da 15 3e 92 18 cb 3d
       -0.08816268 -0.059376564 0.14634241 0.09916796
000200 16 7c ea ac 81 0a 8e ba 20 5a 5b 3d 5e 35 33 2f
       -6.6644563e-12 -0.0010836871 0.053552747 1.6298915e-10
000210 88 47 54 ae ef 04 05 bd cd 8f 39 af 00 a9 b5 2a
       -4.826675e-11 -0.03247541 -1.687674e-10 3.2269326e-13
000220 e0 ea 84 2c d0 da d5 bd 4f b1 a9 33 04 45 b2 3d
       3.777742e-12 -0.10442126 7.901928e-08 0.0870457
000230 29 af b2 bc 52 0d 35 3d d5 08 17 2e 57 3e ea 3d
       -0.021812038 0.044202156 3.434127e-11 0.11437672
000240 d6 3b a7 bc aa 7e 6c bd 59 bf 05 b3 7a 12 30 2f
       -0.020414274 -0.057737984 -3.1140505e-08 1.6013671e-10
000250 f0 46 cb 37 d3 fe b3 39 8b 93 80 2f 28 df 17 32
       2.4232519e-05 0.000343314 2.33879e-10 8.840097e-09
000260 b6 96 a9 bd cf 61 05 bc a0 db c2 bd 24 95 7c ad
       -0.08280699 -0.008140995 -0.095145464 -1.4357657e-11
000270 c0 ec 6f ae 74 e3 4a bb 88 c1 17 36 60 7c cb bd
       -5.4552585e-11 -0.0030958327 2.2613403e-06 -0.09935832
000280 c9 d2 95 3d 6c 79 84 3d c4 cd ac bc db 54 31 bc
       0.07315595 0.06468472 -0.02109421 -0.010823454
000290 cb d3 c7 bd 30 9a b0 af 6e 54 28 af d2 07 2e b6
       -0.09757193 -3.212377e-10 -1.5309506e-10 -2.5932572e-06
0002a0 75 57 7c 3d 5d d3 9a bd ef ae 52 bd b2 9e 1a 30
       0.061606843 -0.075598456 -0.05143636 5.6250393e-10
0002b0 57 c7 6e b6 b9 92 8b ad d0 e7 03 38 d5 18 e2 3c
       -3.5580795e-06 -1.5867628e-11 3.1448726e-05 0.027599731
0002c0 2a 1f 86 bd b0 ee de 3d e8 e9 be 36 30 89 f7 aa
       -0.06548913 0.1088537 5.6896715e-06 -4.3971207e-13
0002d0 09 36 b4 bd b6 1a de 3d 79 bb 95 bc 94 7b 9b 2c
       -0.08799369 0.108449385 -0.01827787 4.419085e-12
0002e0 b2 6b 68 3c bb d9 0b bd b4 cb 6a 3c c5 54 b7 bd
       0.014185833 -0.03414319 0.014330793 -0.089517154
0002f0 36 13 ea bd f1 d1 f5 31 e2 2d a1 ad d3 3d 7d 31
       -0.114294454 7.154306e-09 -1.8323957e-11 3.6851489e-09
000300 2b 9f 86 bb b0 72 23 3e da 64 6d 3c d0 6e d5 2e
       -0.00410833 0.15961719 0.014489377 9.705803e-11
000310 07 3e 47 3d b7 8f af 3d 39 28 d4 3b 94 0f 17 3d
       0.04864314 0.08572333 0.0064745215 0.03688009
000320 e7 2b 03 3d b2 91 ee 3d 0f e5 06 be 21 b8 8f bd
       0.03202429 0.11648883 -0.13173316 -0.07017542
000330 3d 44 1e be 67 6a 76 bc eb 98 d9 ba 5c a0 5c 3b
       -0.15455718 -0.015040017 -0.0016601359 0.0033664918
000340 7e 08 fb 3c 35 54 52 3d e7 1b 6d 3d 1a 35 c4 3d
       0.030643698 0.051349837 0.057887938 0.09580441
000350 0c 3f a4 bc e8 b9 d4 3d 08 30 32 3c 5f d9 bc 3d
       -0.020049594 0.10387021 0.010875709 0.09221148
000360 7d 74 b6 bc d5 d6 3a 3c 9e 6d 98 3d 45 92 12 3d
       -0.022272343 0.011403759 0.07442783 0.035784025
000370 06 1d 6e bd 75 34 2c 3d 7e a7 99 3d 5b e3 1e 3e
       -0.058133148 0.042042214 0.0750265 0.15516417
000380 5c 12 13 bd 16 f7 00 3e e8 f5 f5 3c 93 9b fa 3d
       -0.03590618 0.12594256 0.030024484 0.12236705
000390 1f 9b bb bd 1f 8b 0c 3e 5f f2 51 bd 65 4b b9 3d
       -0.091604464 0.13724945 -0.051256534 0.090475835
0003a0 4c c6 3a bc 0a 67 cd 3c c5 f9 0a bc 2b 23 93 3d
       -0.011399817 0.025073547 -0.008482401 0.07184442
0003b0 f1 9c 89 2e 4a 54 8b bd b1 05 16 3d 4b e8 52 bd
       6.257917e-11 -0.06803186 0.03662652 -0.051491063
0003c0 51 73 91 bc 9b 8a 59 bb e8 b2 29 31 91 6f 62 bd
       -0.017755182 -0.0033194188 2.4694433e-09 -0.05528218
0003d0 c2 d2 84 bb c2 10 38 3d b6 8f c1 bd 72 f3 e4 bd
       -0.0040534446 0.044937856 -0.09451239 -0.11179246
0003e0 77 9e 6e 3d ae 0d 3e bd 23 38 28 3e b1 a3 8e 3c
       0.058256593 -0.046399765 0.16427664 0.017412039
0003f0 26 0a 3c bd 1e aa 0f be 03 ed fa 3d e0 5e 14 3e
       -0.045908116 -0.14029738 0.12252238 0.14489317

encoder.4.bias f4 [32]
000000 16 f4 61 3e 5e a6 1d 3d 6e e9 51 bd 8d 1b 83 3d
       0.22065768 0.03848874 -0.051248007 0.06401739
000010 40 e6 01 3e 48 d7 aa bc 86 3a 39 3b 79 ec e1 3d
       0.1268549 -0.020854607 0.0028263642 0.11031432
000020 b2 6b 3a 3e 09 ee aa bc d8 9d ac 3d bc c9 ff bd
       0.18205145 -0.020865457 0.08428544 -0.1248965
000030 bd c1 a9 3d 36 8e 0f 3e 3d 04 e5 bd 3d 1e 4c bd
       0.08288906 0.14019093 -0.11182449 -0.049833525
000040 02 3b fc b3 7a cb 91 3d 29 b9 17 3e 1e 8a 1b b2
       -1.1745398e-07 0.07118888 0.14816727 -9.053592e-09
000050 3e 3e ef bd ba 6a b7 3c 53 b5 6c 3d e4 d4 61 3e
       -0.11681794 0.022389758 0.05779011 0.22053868
000060 68 28 6b bc 6e 0b f8 3d 8d 17 59 3e 8b c2 1b 3e
       -0.014352895 0.12111555 0.2120039 0.15210931
000070 4e 7f ed 3d 74 a3 af bb 1d 9e 93 3e 2b 0d 4e 3e
       0.11596547 -0.0053600613 0.28831568 0.2012221

encoder.6.weight f4 [8, 32]
000000 15 fd 25 3e 4c 84 2d 3d 39 e3 eb bd 6f 74 05 bd
       0.16209824 0.042362496 -0.11517949 -0.032581743
000010 af 34 1f 3e cf 5d ad 3d 24 21 6f 3c 90 76 a1 bb
       0.15547441 0.08465158 0.014595304 -0.004927464
000020 8a 71 81 3d 8c c3 d4 3d 2d 6f 6a 3e df c1 37 be
       0.06320484 0.1038886 0.22893973 -0.1794505
000030 07 86 98 3c 5c 54 98 bd 89 bb 14 be 3b 9f 05 3e
       0.018618597 -0.07437965 -0.14524664 0.13049023
000040 0a e3 19 bb 20 62 e7 3b 53 81 ca 3d 87 a7 32 b4
       -0.0023481273 0.007061258 0.09887948 -1.6638488e-07
000050 24 c5 d3 bb 29 36 4b 2f 9b e5 52 3d a4 04 ea bd
       -0.00646271 1.8481984e-10 0.0514885 -0.114266664
000060 c0 e0 1c bc 58 67 04 be 1d d4 84 3e 37 09 9b 3c
       -0.009575069 -0.12930048 0.2594308 0.018925292
000070 ae e3 5a 3e 16 b4 39 3d f1 ac f1 bd d6 7b 11 3d
       0.21375915 0.04533776 -0.11800564 0.03551849
000080 3c 94 af 3d 31 65 17 3e 55 c4 74 bc 89 9c b9 bc
       0.08573195 0.14784695 -0.014939387 -0.02265765
000090 a6 dc 65 3e a4 ee ea bd 39 bf 09 bd 98 7c 3d 3e
       0.22447452 -0.11471298 -0.03362963 0.1850456
0000a0 80 1c 27 3e f2 fa 40 be ab fd 68 3d 04 ba 2d 3d
       0.16319466 -0.18845728 0.05688254 0.042413726
0000b0 ca 66 26 3d 9e ca 7d bd 88 14 00 be e5 40 54 3d
       0.04062537 -0.06196081 -0.12507832 0.0518197
0000c0 4d bd 44 39 c9 27 46 be 45 de 07 3e 46 da 92 b0
       0.00018762537 -0.19351114 0.13268383 -1.0684935e-09
0000d0 bc bd 5f ba c0 9d bd 3d ba 4b 01 be 6d ca 5a 3e
       -0.00085350475 0.09258604 -0.12626544 0.21366282
0000e0 c8 ff 29 bd 4d af b6 bc 99 36 7a 3d 4a 10 61 3e
       -0.041503698 -0.022300387 0.061087225 0.2197887
0000f0 ff 2f d5 3d a6 1a 94 bc 92 21 1c 3e 7b 6f 4e 3e
       0.10409545 -0.018079113 0.15247181 0.20159714
000100 d0 f1 bc bd 9f 37 4b 3d d3 95 23 ae 14 4a 6d bd
       -0.092258096 0.04961359 -3.719498e-11 -0.057931975
000110 77 03 d2 bd 21 fb 27 be 29 4d 6a ad 1d cd 28 be
       -0.10254567 -0.16404392 -1.3318493e-11 -0.16484495
000120 2a eb 27 be 61 11 e8 bd 4d 9d cc 3d 1c a1 08 3d
       -0.16398302 -0.1133144 0.0999094 0.03335677
000130 c6 89 c1 32 be 4e 5c be 9f 89 bc 3d cd 7b b4 3d
       2.253081e-08 -0.21514413 0.09205937 0.088126756
000140 f3 9e 21 ac 25 1d b8 3d cd 50 58 3d 24 2e d0 33
       -2.296771e-12 0.08989934 0.052811433 9.694148e-08
000150 13 fb bc bc f3 40 17 bc 0a 9f 26 be a8 8e 1c bd
       -0.02306894 -0.009231794 -0.16271606 -0.038221985
000160 81 43 d7 3c 82 45 cf bc e3 09 10 3e 89 b4 e7 bd
       0.026277306 -0.025301699 0.14066271 -0.11313731
000170 dc 29 13 be ea 94 03 bd b1 af a1 3d 13 b8 fb 3d
       -0.14371437 -0.032124437 0.078948386 0.12290969
000180 62 b1 02 bd 2f e6 e2 3d f2 c5 5c bc 15 ef 4a 3e
       -0.031907447 0.1107906 -0.013474928 0.19817765
000190 ac ff 43 3e 6c 85 05 3e 86 85 4f bd 91 81 0a 3e
       0.191405 0.13039178 -0.050664447 0.13525988
0001a0 34 b8 ec bc 65 7e c8 3c 42 50 8b 3d 67 d6 c8 bd
       -0.028896429 0.024474332 0.06802417 -0.09806519
0001b0 ab 06 19 3d b1 53 28 3e 7b 88 5f be e4 08 51 3d
       0.037359875 0.16438176 -0.21829407 0.05103387
0001c0 38 8e e5 ab f1 cc f5 3d f3 c4 88 3d f7 3e e3 36
       -1.6310902e-12 0.1200198 0.0667819 6.7724573e-06
0001d0 69 02 1f bb c7 02 2a 3d a8 0f e4 3d e2 8d d1 bd
       -0.0024262911 0.041506555 0.11135799 -0.1023214
0001e0 6c 5b 67 bc ba 4f af bd 66 ab 47 3d 96 23 31 3e
       -0.014120918 -0.085601285 0.048747443 0.17298731
0001f0 ef de 2e 3e 18 bd 74 be a8 5e 1e 3c cb 9e 9c bd
       0.1707723 -0.23900259 0.0096661225 -0.07647475
000200 4d 93 51 3b 5f 06 85 bd 30 af d7 30 9b 96 a4 3d
       0.0031978667 -0.06495356 1.56931e-09 0.08036538
000210 42 9c 97 bd 62 ea fc bc 44 01 1f 2e 07 41 48 3e
       -0.07402851 -0.030873481 3.615354e-11 0.19556056
000220 25 1d aa bc ca 48 e5 bd 0b 9a 40 3d ae 51 67 3b
       -0.02076585 -0.11195524 0.047021907 0.0035296488
000230 b2 2a 89 ae 1d b4 9a 3c 1f dd 0f 3e 16 1e 0f 3e
       -6.237623e-11 0.018884713 0.14049195 0.1397632
000240 79 41 a2 36 a0 94 04 3e 72 df 88 ba d1 58 ab b9
       4.8355982e-06 0.12947321 -0.0010442568 -0.00032681835
000250 fe 60 47 3d 22 47 e2 35 c7 8c d8 3b eb a4 c6 3d
       0.048676483 1.6859015e-06 0.006608579 0.09699424
000260 10 4a 19 3b 27 76 9d bc b6 a9 75 3d f4 7d 79 3e
       0.0023390092 -0.019221378 0.059976302 0.24364454
000270 26 19 73 3d e6 bd 2c be 37 0a 93 3d 10 bd 6c 3e
       0.059350155 -0.16869316 0.07179683 0.23118997
000280 82 72 5b bc 8d 71 58 ba a9 e1 d0 33 b9 06 00 bd
       -0.013394 -0.00082566665 9.726802e-08 -0.03125641
000290 ad e8 72 3a 5b e2 23 bc 69 bf 8a ad b9 a8 0b bc
       0.0009266239 -0.010002698 -1.5773787e-11 -0.008524113
0002a0 10 f6 85 bc cc 10 9e bc 81 80 61 bc cc 0a 1c bc
       -0.016352683 -0.019295119 -0.013763548 -0.009524059
0002b0 da 0f 42 2b 16 9b 9b bc 24 b5 24 bc 5b ab 30 bc
       6.8944644e-13 -0.01899485 -0.010052953 -0.010783042
0002c0 f8 a0 66 ba b3 0c e9 36 a7 b1 86 b9 ec 28 9f ae
       -0.000879779 6.9454195e-06 -0.00025690833 -7.237752e-11
0002d0 5e bd d7 2e d4 61 9e 2d 65 3b b3 b5 20 f7 af 3b
       9.8107064e-11 1.8005965e-11 -1.3353825e-06 0.005370036
0002e0 2a 15 70 3a f5 67 30 bc 74 61 0d b2 a7 e1 28 3a
       0.0009158427 -0.010766973 -8.2294385e-09 0.0006442316
0002f0 3e ad a6 ad 59 2a 1e bc 6e 3a a1 bc 7c 27 9e 38
       -1.894895e-11 -0.009653651 -0.019681182 7.541382e-05
000300 11 ae 35 3e 3e 32 57 3e 76 58 8f 3c f3 d7 56 3e
       0.17742182 0.2101526 0.017498236 0.20980816
000310 fd 28 d9 3d f7 05 b9 bd 93 c5 e3 bd b5 31 a0 3d
       0.10603521 -0.09034341 -0.11121669 0.07821981
000320 77 74 52 bd 2a 46 89 3b 6c 62 ac bd 1e 2b 4c be
       -0.0513806 0.0041892724 -0.0841721 -0.19938323
000330 38 04 d4 3c 0a b6 e4 3d 28 97 55 3d 9e 8a dd bd
       0.025880918 0.11167534 0.052146107 -0.10817455
000340 d9 bb 1e bb e6 53 7b bd c1 6f cc 3d 1d 56 a1 b3
       -0.0024220853 -0.06135931 0.09982253 -7.5128106e-08
000350 ea bd c5 bc 72 66 9f bd ca e4 e4 3d 9e 5b f7 3d
       -0.02413841 -0.07783212 0.111764506 0.120780215
000360 c4 ec 83 3d 8f bf 8e 3d 0d ce 07 3e cc fb 03 3e
       0.06441644 0.06970131 0.13262196 0.12889022
000370 39 69 84 3d a5 ec 00 bc 03 79 0f 3e a7 56 77 3e
       0.06465382 -0.00786892 0.14011006 0.24154149
000380 ba 83 08 3e 10 ab 60 3e e4 e3 a8 bd f1 dc e6 3d
       0.133315 0.21940255 -0.08246592 0.1127261
000390 50 9c b6 bd c5 72 b1 bc 65 0b 4e 3d 89 72 4b 3e
       -0.08916533 -0.021661172 0.050303835 0.1986791
0003a0 b7 1e 0d 3e 7e 59 26 bd bf 8c 30 3e f2 b0 4a be
       0.13781248 -0.04061269 0.1724119 -0.19794062
0003b0 21 5b 6a 3d ba d3 33 3d 2d a5 83 bd 6e cc 03 3e
       0.057215814 0.04390309 -0.06427989 0.12870952
0003c0 cd 75 23 3a af 5a fc 3b b0 76 36 3e af c0 4e 2d
       0.000623551 0.00770124 0.17818713 1.1752529e-11
0003d0 f0 5f 95 ba 0c 35 54 3d 06 20 f3 bd e9 5d c0 bc
       -0.001139639 0.051808402 -0.11871342 -0.02348228
0003e0 28 36 00 bc 40 08 2a 3e 23 f5 94 3d 68 cd 72 3e
       -0.007825412 0.1660471 0.072733186 0.23711169
0003f0 91 3e 57 3e 8e 1d da bd 53 2f 42 3e 66 66 70 3e
       0.21019961 -0.10650168 0.18963365 0.23476562

encoder.6.bias f4 [8]
000000 b1 bd df 3d 22 93 51 3e 95 6b 1d 3d 23 bf d5 3d
       0.10924853 0.20466283 0.038432676 0.10436847
000010 88 56 7b 3e 84 93 10 bc fe 8d 8b 3e 60 a1 01 3e
       0.24544728 -0.008824233 0.2725677 0.12659216

encoder.8.weight f4 [1, 8]
000000 8c 4c 80 3e 14 e4 6c 3e a0 10 3d 3e 55 5c 73 3e
       0.250584 0.2313388 0.18463373 0.2376569
000010 ca 65 87 3d c6 97 9c ba 12 4d 41 3e ad c9 7d 3e
       0.066112116 -0.0011947087 0.18877056 0.24783964

decoder.0.weight f4 [8, 1]
000000 a5 51 1a bf bf 37 4f ba de 90 0d bf b3 01 a8 bd
       -0.6028083 -0.000790473 -0.55299175 -0.08203449
000010 90 c0 20 3f 84 48 7b 3f bb 27 13 3e d8 8e 64 3f
       0.6279383 0.98157525 0.14370625 0.8928046

decoder.0.bias f4 [8]
000000 69 5f 02 bf a6 ba d1 bb a2 8b 1e 3f 03 c2 f9 be
       -0.50926834 -0.006400424 0.6193181 -0.48780832
000010 a3 92 95 bf e3 6f 52 3e 70 6a f5 3b 03 1f 46 bf
       -1.1685375 0.20550494 0.007489495 -0.7739107

decoder.2.weight f4 [32, 8]
000000 16 58 0d bd 5c 91 04 b3 24 7f 6b bd 7e 4f a1 b3
       -0.034507833 -3.086585e-08 -0.057494298 -7.511606e-08
000010 b1 71 cd 2e 01 85 81 bc 8f b5 55 3d 12 70 77 bc
       9.342516e-11 -0.015810492 0.0521751 -0.015102403
000020 8e 07 57 bc 52 c9 5b bd 1d b3 d2 3e 96 d3 5b 3c
       -0.01312436 -0.05365879 0.41152278 0.013417145
000030 41 fd c2 bc 5e cb 01 bf 08 ce 18 be 56 ef 1b bd
       -0.023802401 -0.5070094 -0.14922345 -0.038070045
000040 3d 3a d2 bc 0f 40 6c bd 60 0a d3 bd 0c 64 93 2d
       -0.025662536 -0.05767828 -0.10304713 1.6756395e-11
000050 5e e7 79 bd ed 78 c2 3e 39 6b 23 be 16 38 c5 3e
       -0.061011665 0.37982884 -0.15958871 0.38519353
000060 ad af 23 b7 6f 83 88 3c 41 a9 a1 ae 41 11 0a bd
       -9.75646e-06 0.016664235 -7.351498e-11 -0.03370786
000070 c0 6f a7 3c a3 17 c1 b7 f4 36 77 bc ef 1c aa bc
       0.020439029 -2.30184e-05 -0.015088785 -0.02076575
000080 80 56 74 bd 0d 79 9a ac 28 a7 b5 bd ee b3 83 bb
       -0.059652805 -4.3903826e-12 -0.08869773 -0.004019252
000090 20 70 4a be b3 ba 1e 3d 4f ea 71 be f2 9a 9e 3e
       -0.19769335 0.03875227 -0.23624538 0.3097759
0000a0 ab 30 87 3a 2f 47 30 3c 48 b7 6f be 13 5e 0f bd
       0.0010314187 0.010759159 -0.2340976 -0.035001826
0000b0 c3 d8 08 be df c1 98 3e bb 31 a7 3e 24 b4 38 3d
       -0.13363938 0.29835412 0.3265513 0.04509367
0000c0 cf 00 6d 3d 14 4e 9d 38 b3 2b ad be e0 b5 e7 3b
       0.0578621 7.5008866e-05 -0.33822402 0.0070712417
0000d0 99 fc 44 be 4d a4 8f 3e 20 c8 ae 3e 84 1c c1 bd
       -0.19236983 0.2805504 0.34137058 -0.09429267
0000e0 82 12 0c b9 e7 9c b5 2d 3b 6f f9 3e 94 f2 59 bc
       -0.00013358335 2.0646996e-11 0.48717675 -0.013302464
0000f0 1c 09 0f 3d df 00 0b 3d 5f 15 42 bd 3b fe 97 be
       0.034920797 0.033936378 -0.047383662 -0.2968615
000100 23 b9 0f 3b 85 38 6c 3d 85 7f 42 be 12 9d 39 2e
       0.0021930418 0.05767109 -0.18993957 4.2203636e-11
000110 a6 61 89 be 1e 21 40 3d 5d 69 78 3d 04 69 a9 3e
       -0.26832312 0.046906583 0.060647357 0.33087933
000120 97 a3 8a b9 ee 0d f8 ba 27 fa 61 3e ae fc 0a 37
       -0.00026443295 -0.001892505 0.22068082 8.284273e-06
000130 ce d3 a5 bd 9e a8 a7 bd 7b f8 8d 3d 4d 33 85 3e
       -0.08097039 -0.08186458 0.069321595 0.26015702
000140 33 66 0e b1 33 78 fc bc e0 38 de bc 8d 91 08 31
       -2.0721813e-09 -0.030819034 -0.02712673 1.987334e-09
000150 47 4e a2 bb 0e 80 a2 af 3f 90 46 bd bb 40 96 bc
       -0.004953179 -2.9558617e-10 -0.048477408 -0.018341413
000160 bf 98 c7 3b 26 99 10 b1 e3 57 8c bc 86 04 8b 3c
       0.006091207 -2.1041813e-09 -0.017131751 0.01696993
000170 90 1c 36 ac de 4c 33 bd b1 9b 36 3a 92 c0 79 ae
       -2.587961e-12 -0.04377448 0.0006965949 -5.6787082e-11
000180 22 fd ab 31 27 5c 31 3c 96 b4 72 bc e5 75 88 bd
       5.005533e-09 0.0108251935 -0.014813563 -0.066631116
000190 be 26 84 3d 88 db 6d bd c7 09 8d bd 54 f6 9d b3
       0.06452702 -0.05807069 -0.068866305 -7.355689e-08
0001a0 ac 53 7b b7 7d 21 10 b1 8a 8d 61 3e 00 2c 1e 3d
       -1.4980247e-05 -2.0973794e-09 0.22026649 0.03861618
0001b0 d1 2e 24 3e 84 a3 98 3d 55 0b 9b bd d7 51 9c be
       0.16033484 0.07453063 -0.07570521 -0.3053119
0001c0 05 4f 91 bd 56 9e 91 bb 35 f1 71 3e 59 4c 92 2f
       -0.0709515 -0.004443924 0.2362717 2.6611494e-10
0001d0 4c 76 0e b9 da 9d 24 bf af 78 9f 3e 23 64 18 2e
       -0.00013586244 -0.6430336 0.31146762 3.4649738e-11
0001e0 7e 18 83 3d b7 e3 2e bd 80 d8 0c 3e 16 ea 3a ba
       0.06401156 -0.042697635 0.13754463 -0.00071302184
0001f0 8e ec 9b ab ba f1 06 bf f5 68 54 be ee de be 39
       -1.107907e-12 -0.52712595 -0.20743163 0.0003640572
000200 9c 04 87 ba 1e 07 52 af 3e 90 a6 3e 61 cf bb 3a
       -0.0010301056 -1.9101917e-10 0.32531923 0.0014328772
000210 de 30 85 3e 0a 0f 5d 3d 74 3d 00 3e 59 76 6d be
       0.26013845 0.05396942 0.12523443 -0.23189677
000220 e1 66 15 bb 1c cf c7 ac 26 c8 bc ba ae a0 20 af
       -0.0022796916 -5.678914e-12 -0.0014402911 -1.4609e-10
000230 a5 1c 0a b9 55 fe 86 3b f3 4a 1a bc bc 0a 45 bd
       -0.00013171376 0.004119674 -0.009417283 -0.04810594
000240 54 83 5e af 7b b5 19 bd a4 8a 62 3b 51 e4 d2 3b
       -2.023744e-10 -0.03752659 0.00345675 0.006435909
000250 90 12 89 3c 91 0f 81 2e e1 01 73 b9 9a 14 64 bd
       0.016732484 5.869006e-11 -0.00023174986 -0.05568371
000260 44 1b 92 30 0f c7 99 3c 73 bb 63 be 30 14 02 ba
       1.0630647e-09 0.018771676 -0.22239475 -0.00049621146
000270 7d 7e ad 3e cf 06 cb 3e 55 f7 87 be 4d 13 18 3e
       0.33885565 0.39653632 -0.26555887 0.14851113
000280 b0 c3 8d bd 38 f8 13 30 a6 ef a4 be 8e c6 3e 30
       -0.0692209 5.383103e-10 -0.32214087 6.940376e-10
000290 23 13 3f 3c b8 71 51 3d f8 0a 73 be 61 36 8b bd
       0.011662277 0.05113384 -0.23734653 -0.06797481
0002a0 63 3e 3d b9 54 6b 2d 30 0d 58 87 bc dd 10 92 b5
       -0.00018047685 6.3089556e-10 -0.016521478 -1.0882756e-06
0002b0 59 64 d7 2c 98 49 8c ba 66 50 8b ac ed 16 13 ad
       6.1218084e-12 -0.0010703085 -3.9595436e-12 -8.361073e-12
0002c0 e2 2b 40 bc 10 f3 11 3d d4 df 0c 3e 52 7a 72 bc
       -0.0117292125 0.035632193 0.13757259 -0.014799671
0002d0 48 9d a1 be 0a 73 92 3e a1 94 ab 3d 62 b4 73 3e
       -0.3156531 0.28603393 0.08377958 0.2379928
0002e0 9b 6a b8 bc eb 77 72 bd 29 55 99 3e c8 7d 6c 3d
       -0.022511771 -0.059196394 0.29947785 0.05773714
0002f0 3a 4c 4b 3c 54 ad 76 3e d9 c7 b2 3e 58 98 34 3e
       0.012408311 0.24089557 0.34918097 0.1763624
000300 88 8e 43 ac 2d 5f 4e 38 68 79 68 bd 55 8c c4 bc
       -2.7790287e-12 4.9202867e-05 -0.056756407 -0.023992697
000310 54 1c bb bb 12 e9 d3 bc fc 75 dc bd ea 81 ac 3e
       -0.005710164 -0.025867973 -0.10764691 0.33692867
000320 f8 41 8e aa 5e d5 a9 2c 30 57 2f bb b1 62 8d ba
       -2.5270042e-13 4.8269574e-12 -0.0026754849 -0.0010786859
000330 87 c0 7c ae ca c9 3e bd 5f 4f 2c bd 2a 2f ee 33
       -5.7469165e-11 -0.04657916 -0.04206788 1.1091318e-07
000340 66 20 14 bd 3b 9d 61 2f d8 9a 8a ba 2f 9e 80 bc
       -0.03616371 2.051949e-10 -0.0010574711 -0.015700428
000350 f1 2a 98 3e ff 9b d0 3d d2 84 63 be e9 35 80 3d
       0.29720262 0.10186004 -0.22218636 0.062602825
000360 dc 8f b4 3b 6d 4f 01 3a 5e 2a e5 be 55 1b 26 3d
       0.0055103134 0.0004932795 -0.44758886 0.04055341
000370 51 43 6a be 30 85 35 3e b3 1a 1f be 24 1a 2f bd
       -0.22877242 0.17726588 -0.15537529 -0.04274954
000380 17 7b 08 3a be 77 4a 3d 12 23 64 bb 60 dc 9d 3b
       0.000520633 0.0494306 -0.0034810943 0.0048175305
000390 ea f0 b9 2c 76 2c 21 bd c3 7e cb bc e8 e0 1f 3d
       5.284763e-12 -0.039349042 -0.024840718 0.039032847
0003a0 af 05 47 2d 62 77 87 ae 1d c8 4f bd 5f 96 14 32
       1.1313102e-11 -6.160296e-11 -0.050727952 8.648924e-09
0003b0 47 25 71 3d 95 44 f7 3c fe 70 8f bc e2 9b bf 3d
       0.05887344 0.03018407 -0.017509934 0.09355904
0003c0 cb 74 0d b2 d7 62 e5 b5 6b 64 de 3e 5f 44 8a 38
       -8.233836e-09 -1.7090596e-06 0.43435988 6.593088e-05
0003d0 b4 b0 25 bd 67 2f 81 bd 5e f9 2b be 08 1d db bd
       -0.04045172 -0.063078694 -0.16794345 -0.10698897
0003e0 c0 fe b5 bc d8 ff ca 2e d6 c2 39 3c d3 18 8f bc
       -0.0222162 9.2313435e-11 0.011337956 -0.017467892
0003f0 53 49 31 3e 72 4e e0 bc d3 4e 24 be f5 a3 9f bd
       0.17313127 -0.027381156 -0.16045694 -0.07794944

decoder.2.bias f4 [32]
000000 aa c6 97 bb c7 8b 2a 3e 82 be a7 3d f7 68 7e bd
       -0.004631837 0.16654883 0.08190633 -0.06211182
000010 f9 bd 9c be 94 f0 ee 3e f3 17 3e 3e 7f 36 92 3e
       -0.30613688 0.46667922 0.18563823 0.28557202
000020 e0 e8 fb bd 84 ff e0 3e 73 c4 76 32 58 0a 91 2c
       -0.12300277 0.43944943 1.4363752e-08 4.1222963e-12
000030 a7 8f cc 30 0f d6 e2 3e 5b b5 6f bd 91 9f 7b 3d
       1.4883782e-09 0.4430394 -0.058522563 0.06143147
000040 33 b7 68 3e 08 b1 7e bc f2 85 01 bd 82 ed 86 3e
       0.22726135 -0.015545137 -0.03162188 0.2635308
000050 0e cc f9 3e 6c b7 23 bb bc 09 dc 3d bf a4 ba be
       0.48788494 -0.0024981154 0.10744044 -0.36453816
000060 d8 cd ca be 55 14 8e ad 75 e1 a8 be 32 03 85 3e
       -0.3961017 -1.615256e-11 -0.3298451 0.25979
000070 0f 20 1b ad 5d 44 61 bd 99 7d 3a 3e dc 34 2c be
       -8.817848e-12 -0.054996837 0.18211974 -0.16817039
