sim_autoencoder.pth (torch_old, 159720 bytes, 19 tensors)

encoder.0.weight f4 [256, 2]
00000000: dcec 6dbf ef36 0dbf 5e3d 503e 89be 75be
00000010: dcc7 233f 48ab b6be b538 1c3f fff0 b6be
00000020: 4577 1c3e 90ba b3be 7c12 7ebe fd7b 3a3f
00000030: 2609 cc3e 051a 9b3e 2a2d aabd aced da3e
00000040: 5701 d4bd 8672 f7bd c59e 053e 0511 143f
00000050: d3ed bd3d 9222 783e 8fcf 963d 4607 9c3e
00000060: 2a51 87be 0ca8 423f 6dc0 6ebe 92ff 67bf
00000070: 5313 c73e 0e89 05bf 8c01 243f 1a10 fcbe
00000080: 826e 5d3e 8429 bb3e a9f9 cd3e a3cb 02bf
00000090: d200 c2be fa46 773e b52c 773e f8b3 d13e
000000a0: ce9b 59be 9809 493f e8fd b4bd adea 25bf
000000b0: e01d 95bd 0b80 0b3f e4ed d7be 33b9 663f
000000c0: 85f7 4bbe 90c5 86bf 5b7e 103e f135 52be
000000d0: 0ee8 2e3b 35f0 bc3e cce9 d43e 5a2b 9abe
000000e0: 4e5f 0fbe 1835 353e 05f0 a73e 2b7d 45be
000000f0: 7cb2 313f 9862 aebe 9d50 af3e 2f29 123f
00000100: da1d 42be 346b 2e3f 6df1 733e 8776 b73e
00000110: 1716 f63e d7ad babe 54b6 863e cc44 a5be
00000120: bce2 bbbd a600 283f 0b9b 07be b396 153f
00000130: a65f 873e 0022 d7bd 39ea b53e e279 9fbe
00000140: d79e 8dbe 2d4c 553f e48f 58bf b8dd 113d
00000150: 8727 8f3e bc04 e7be bce6 503d f796 803e
00000160: 517b 7b3e cd41 423d 87ff 8d3e d9ed 69be
00000170: bf05 32be 529f 203f 6a29 0c3f 2f8c a5bd
00000180: 9518 20be ec16 2e3f a949 613e 4b24 5abb
00000190: 89b9 753e 81d1 d7be a96c 2ebe 0de1 e43d
000001a0: 56b1 49be 042d 8bbf 0371 c13e c337 69be
000001b0: 9928 4a3f f9fd 38bf dd12 173e cf76 cf3c
000001c0: 222d 013e 5af4 04bd 522a 9fbd 7496 ba3e
000001d0: 8e14 40be 8791 97bf 7ad8 37bf 9ae1 4cbf
000001e0: 00b8 92bd 4b77 a33e fe33 49bf a00e d1be
000001f0: 852d e23e acfc 0ebf de2b 3cbf c01a a03e
00000200: cf6f d1bd ef1d f73e f914 47bf 6919 96be
00000210: d56d b13e abf0 a73e bce1 f93e 8571 12be
00000220: 0ab2 103e 26d6 113c 7d64 06bd 38ac dc3e
00000230: 81d6 433f b3e8 33bf d254 a93e 67f9 f2be
00000240: 6530 183f 956b 07bf df51 7ebf ceac 46bb
00000250: 7128 983e 3251 053f b231 cdbd acd9 143f
00000260: e578 383e 541b 98be 3d14 1dbe 9cd1 2e3f
00000270: 2efa 8c3e 142a 1cbe e013 2dbe f0db fd3e
00000280: ee2f b43e 8bbf c93d f66d a3bc 127d d83e
00000290: 9a75 89bf e4ad 89bd f11a 463f edd4 28bf
000002a0: f5c6 173f d721 00bf 38c2 b33e cc1a b3be
000002b0: 6b14 a1be 390e 803f ac11 7bbe 5010 393f
000002c0: a1ce 74be cbd6 1a3f 3b4e 2abf e145 8d3e
000002d0: 5e60 b93e 9b14 e53e 3e2b cc3e 3789 30bf
000002e0: c704 8d3b 6d35 2d3f 65b7 18bf be5d fd3e
000002f0: 42ad 053f d540 05bf 5ed1 af3e 1126 99be
00000300: d85d ba3e 50f3 e1be 1ac6 47be cf29 103f
00000310: 2c32 033f 133c 103d a7a3 92be f848 413f
00000320: 83db 0fbe 6985 223e 8bf5 a43e 0d6a 19bf
00000330: ba4a a33d 9655 ea3e 547c aa3e 4d97 ab3e
00000340: ace0 0d3f 38df acbe e6c1 1dbf ef47 303d
00000350: dfa5 50be 830b 0a3f 287b dd3e 5905 f5be
00000360: 29ba 32be 647e 93bf a02a c03e eedc f63d
00000370: 5a89 853e 2e61 663e f715 64be e22b 0e3f
00000380: 0ce5 83be e1dc 483f 19a5 a13e 051d f4be
00000390: 1270 7b3e 5823 a5be da95 adbc 4306 183f
000003a0: b020 943e df04 87be 522e 70be 3772 2b3f
000003b0: 1d2d 83be dd79 2f3f 2615 26be d126 9dbf
000003c0: db95 bc3e d203 e0be 11a0 44be 05dd a7bf
000003d0: 7aed ffbd 2108 9dbf 3aac e6be 6a65 b3be
000003e0: 7a46 2c3f bdd8 13bf 7cb2 c13e 213c b4be
000003f0: f655 3abe aec3 413f 7e68 fbbe c325 0b3f
-0.92939544 -0.55161947 0.2033591 -0.23998465 0.63976836 -0.35677552 0.6102403 -0.3573074
0.15279873 -0.35103273 -0.24811739 0.7284544 0.3985073 0.3029329 -0.083093956 0.42759454
-0.10351818 -0.120823905 0.13048847 0.5783847 0.09273877 0.24231938 0.073638074 0.304743
-0.2642911 0.7603767 -0.23315592 -0.90624344 0.3888193 -0.52162254 0.6406486 -0.49231035
0.21624187 0.3655511 0.40229538 -0.51091975 -0.3789125 0.24148169 0.24138148 0.40957618
-0.21250841 0.78530264 -0.08837491 -0.6481121 -0.07281089 0.54492253 -0.42173684 0.9012634
-0.1991864 -1.0529041 0.14110701 -0.2052839 0.0026688608 0.36902013 0.41584623 -0.301112
-0.140012 0.17696035 0.32800308 -0.19286029 0.6941297 -0.34059596 0.3424119 0.5709409
-0.189567 0.6813233 0.23822565 0.35832617 0.48063728 -0.36460754 0.2631098 -0.3227905
-0.091741055 0.6562599 -0.13242738 0.58433074 0.2644016 -0.10504532 0.3553026 -0.31147677
-0.27660248 0.8331936 -0.8459456 0.035611838 0.27959844 -0.451208 0.051001295 0.25115177
0.2455876 0.047426034 0.27734014 -0.22844638 -0.17385004 0.62743104 0.5475069 -0.080833785
-0.15634377 0.68003726 0.22000755 -0.0033285792 0.23996557 -0.42152026 -0.17033638 0.111757375
-0.19696555 -1.0873113 0.37781534 -0.22775178 0.789682 -0.7226253 0.1475329 0.025325207
0.12614873 -0.032459594 -0.07771744 0.36442912 -0.18757841 -1.1841286 -0.7181469 -0.8003174
-0.071640015 0.3192695 -0.7859496 -0.4083147 0.44175354 -0.55854297 -0.73504436 0.3127041
-0.10226404 0.48265025 -0.77766377 -0.2931626 0.34654108 0.32800803 0.48805034 -0.14301117
0.14130417 0.008901155 -0.032810677 0.43100142 0.7649918 -0.70276946 0.33072525 -0.47455904
0.59448844 -0.5289853 -0.99343675 -0.0030315402 0.29718354 0.5207702 -0.10019244 0.5814464
0.18014868 -0.2970835 -0.15339752 0.6828859 0.27534622 -0.15250427 -0.16902113 0.49581861
0.35192817 0.09850987 -0.019949894 0.4228292 -1.0739014 -0.0672262 0.7738486 -0.659499
0.5928796 -0.50051636 0.35109115 -0.34981382 -0.3146089 1.000434 -0.2451846 0.72290516
-0.23906948 0.60484 -0.6652562 0.27592376 0.36206335 0.44742283 0.3987674 -0.68959373
0.004303548 0.67659646 -0.5965484 0.49485582 0.52217495 -0.5205205 0.34339422 -0.29911855
0.36399722 -0.44130945 -0.19509163 0.56313795 0.5124843 0.03521354 -0.28640482 0.75501966
-0.14048581 0.15871204 0.32218584 -0.59927446 0.07973237 0.45768422 0.3329798 0.3351387
0.5542095 -0.33764052 -0.6162399 0.04303735 -0.20375775 0.53923815 0.43258023 -0.47855642
-0.17453827 -1.1522946 0.3753252 0.12053858 0.26081353 0.22498009 -0.22274004 0.5553571
-0.25760686 0.78462034 0.31571272 -0.4767839 0.2455447 -0.32253528 -0.021189619 0.59384555
0.2893119 -0.26370904 -0.2345517 0.66971153 -0.25620356 0.68545324 -0.16219005 -1.2277471
0.3683308 -0.43752915 -0.19201685 -1.3114325 -0.12496467 -1.2268106 -0.45053273 -0.3503831
0.6729504 -0.5775259 0.37831485 -0.35202125 -0.18196854 0.7568921 -0.4910316 0.54354495

encoder.0.bias f4 [256]
00000000: ee52 3fbf 658d 34bd 39c9 823d cbdf 553f
00000010: ba46 093f 0186 083f 3c24 833e a35b d7be
00000020: e4fb 8abe 8d5b d53c 4ecc 3fbf 8d2b 93bf
00000030: 2c6d df3e fd48 7e3f 2bff 5f3f 464a 2c3f
00000040: f296 cdbe 7fa9 e33e a76a 433f a3d3 a63e
00000050: 1d8c b2be f2fa 963f 71c4 50bf d370 b83e
00000060: 8504 a93e cc57 313f 4341 f9be 1b06 c93e
00000070: 747c 00bf 2c2a 8ebe f951 50be e1af 803e
00000080: e153 63be eba1 42bf 9f6e 143e 4317 113e
00000090: 8390 4fbf 9628 01bf 0770 44bf 7d15 603e
000000a0: c9fc bf3e 2f56 223f cc57 273f aa9d 803f
000000b0: a5d2 bfbe a850 96be a36d e3bd f790 e33e
000000c0: 4676 553e 0b5d 63bf 048b 0d3f 3cf6 fe3c
000000d0: cb10 883e 50a0 01bf 1277 393e 0fb3 323f
000000e0: 37e6 093f 3926 afbe 7d7d 343b 59fe 92bf
000000f0: 90a7 48be 91e3 cdbe 9251 553f cf33 123e
00000100: aa98 e6be 9012 75be 4096 89bf b581 e8be
00000110: e919 20be 65fe 46bf 2046 773e 76d9 183f
00000120: 2797 2f3f f3ab 283f cf71 06be 9630 33bf
00000130: 15f2 4e3e c468 03bf ba03 89be 0ccd 383e
00000140: ba29 74bf 84d3 1ebf 8305 223f c493 49be
00000150: afe2 ec3e 8579 5fbf e2e8 f3be fb23 d83e
00000160: 5c10 073f 2a8c 8b3e 1446 ef3e 96b6 8cbe
00000170: 7b08 59be b08e 833f df9f 18be 048c f63e
00000180: 08a6 80be 132e 8c3e 89fa 00be 7c73 a93f
00000190: 3a37 b9be 8eb8 f2be 10d4 8f3e 6927 58bf
000001a0: 87a7 353f 3053 1bbe 5529 b93e 59f1 813d
000001b0: ef23 99bd 2688 ecbe 3562 73bf c894 333f
000001c0: 7fc1 3a3e 7b33 453f ffb8 ab3e 8fba 063e
000001d0: 48c1 a5bd c4f5 b53e 0c3c 073f 01b8 aebe
000001e0: 2192 9d3d 90a5 0fbe 5724 52bf 7da7 bebe
000001f0: b4de 6cbe b6ed 47bf c3dc 3d3f 0234 fcbe
00000200: ef6e b33d ccb1 4abe 38a7 c7be 4097 aebd
00000210: 01cc 403f 61d4 f7be 9fdd 673f 27c4 2a3f
00000220: ae27 443f f235 383e 3925 0c3f 0ef5 853e
00000230: 9251 1a3e 1da6 203f cfb2 bfbd 854a 7e3f
00000240: 28b1 dcbd 948a 3b3e 866c 6c3f 2522 503e
00000250: 5cd7 6c3d b876 2b3f 7831 f73e 7ed3 babe
00000260: 2c9f 7e3d 2671 3fbe a80b e1be aead ec3e
00000270: 7b0d dfbe 3de4 60be cf5f 563e 05fc 3e3e
00000280: c61a 51be af66 9cbe e3e4 1e3d 3bb5 a9bc
00000290: 493d 433f cc7b 4a3f 26a3 0cbf 83af e63e
000002a0: 7e32 aa3e bce1 25bf c3d2 183f fd0d 473d
000002b0: 32cd c63e 37bc 3c3f dab4 84bf 9e85 70be
000002c0: 1dd0 1b3f 9d13 dfbe 0472 77bf fe39 d03e
000002d0: 3d0d 1c3d 364e 51be 0c28 e1be b656 423f
000002e0: 20e0 b73c 7513 383f b91f e2be 9a08 bbbe
000002f0: 49eb 47be 970f 67bf 21ff 45bf c9dd e2bd
00000300: bdc5 52bd 35e6 973e 12e8 19bd e97f 3d3d
00000310: 3fc4 123f d7ba 2a3f 041f e5be e460 d83e
00000320: 367a 3abf b5b5 f23e 092a f23e 1c69 e9bd
00000330: 5eb2 3ebc 935f 3d3f 5688 d1be e99a e23d
00000340: 30f9 32bc a4b1 1f3f b3d9 d93d fbf0 fbbd
00000350: 074b 9b3e d6e4 86bf b4ec d3be 3070 cd3c
00000360: 8173 903e 9151 943e b7f8 a03e 9ae7 2b3e
00000370: 7fc9 9ebe 2a2f c4be 51d4 ad3f 7124 42bf
00000380: e586 61bf 48f9 293d 6bf5 b0be 0087 5dbf
00000390: a1d2 713e bbdd e53e eb6a 9a3f bee1 acbe
000003a0: badd 153f 02d3 283f 144b 1c3d 5106 4f3f
000003b0: 570a f3bc ac4a 3abf db9c acbe a22c fa3d
000003c0: b190 943e 86bc 17be 0b6b 773f a5a6 20be
000003d0: 9593 63be 1159 203f ef7d ad3e c39c 6cbf
000003e0: 0b63 9fbe 61d8 00bf 5aed 61bf d99f 0cbf
000003f0: 95ba 25bf 258c 523f 681b dbbe a119 0fbe
-0.74735916 -0.044080157 0.063860364 0.83544606 0.53623545 0.53329474 0.25613582 -0.420621
-0.27145302 0.026044631 -0.7492112 -1.1497666 0.4363798 0.9933012 0.8749873 0.6730083
-0.40154225 0.44465253 0.76334614 0.3258334 -0.34872523 1.1795332 -0.81549746 0.36023578
0.3301126 0.6927459 -0.48682603 0.3926247 -0.501899 -0.2776655 -0.2034377 0.25134185
-0.22199966 -0.7602832 0.14495324 0.1416903 -0.8107988 -0.50452554 -0.7673344 0.21883197
0.37497547 0.63412756 0.6536834 1.0048115 -0.37465397 -0.2935841 -0.11104896 0.44446537
0.20845899 -0.8881385 0.55290246 0.031123273 0.26575312 -0.5063524 0.18111828 0.6980447
0.53866905 -0.3420885 0.0027540617 -1.1483871 -0.1959517 -0.40212682 0.8332759 0.14277576
-0.45038348 -0.23932862 -1.0748978 -0.4541146 -0.15634884 -0.77731925 0.24147844 0.5970682
0.68590015 0.65887374 -0.13129352 -0.6999601 0.20209534 -0.51331735 -0.26760656 0.18046969
-0.9537617 -0.620415 0.6328966 -0.19685274 0.46266696 -0.872948 -0.47638613 0.4221495
0.5275934 0.27255374 0.46733153 -0.27483052 -0.21194641 1.027792 -0.14904736 0.48153698
-0.25126672 0.27378902 -0.12595572 1.3238368 -0.36174947 -0.4740643 0.28091478 -0.84435135
0.7095875 -0.15168452 0.36164346 0.063448615 -0.07477557 -0.46197623 -0.9507173 0.701489
0.18237875 0.7703168 0.33539578 0.13157104 -0.08093506 0.35539067 0.52826 -0.3412476
0.076938875 -0.14028001 -0.820867 -0.37237158 -0.2313183 -0.78097093 0.7416498 -0.4925843
0.08761393 -0.19794387 -0.38994765 -0.085249424 0.75311285 -0.4840422 0.9057254 0.66705555
0.76623046 0.17989329 0.547443 0.26163524 0.15070179 0.6275347 -0.09360277 0.9933246
-0.107759774 0.18314582 0.92353094 0.20325525 0.05782257 0.66978025 0.4827993 -0.3648948
0.062163517 -0.18695506 -0.43954206 0.46226257 -0.43564972 -0.21962066 0.20934986 0.18650825
-0.2042037 -0.3054709 0.038792502 -0.0207163 0.7626539 0.7909515 -0.54936445 0.4505578
0.33241647 -0.6479757 0.59696597 0.048597325 0.38828427 0.73724693 -1.0367692 -0.23488471
0.6086443 -0.4356965 -0.9665835 0.40669245 0.038098563 -0.20439991 -0.43975866 0.7591356
0.022445738 0.7190469 -0.44164827 -0.3653 -0.19523348 -0.90258163 -0.7734242 -0.110774584
-0.05145811 0.29667822 -0.037574835 0.046264563 0.573307 0.66691345 -0.44750226 0.42261422
-0.7284273 0.47404256 0.47297695 -0.11397001 -0.011639206 0.7397396 -0.4092433 0.11064703
-0.010923669 0.62380433 0.10637226 -0.12301823 0.3033068 -1.0538585 -0.41391528 0.02507791
0.28213122 0.2896848 0.31439754 0.16787568 -0.31013104 -0.38317233 1.3580419 -0.75836855
-0.8809646 0.0414975 -0.3456224 -0.8653412 0.23615505 0.4489573 1.2063879 -0.33765978
0.5854145 0.6594697 0.038157538 0.80869013 -0.029668016 -0.7277019 -0.3371342 0.12215544
0.2901664 -0.1481801 0.9664771 -0.1568857 -0.22224267 0.62635905 0.33885142 -0.924267
-0.3113025 -0.5033017 -0.88252795 -0.5493141 -0.64737827 0.82245094 -0.42794347 -0.1397462

encoder.2.weight f4 [64, 256]
00000000: 6b3e 33bf 1f62 a83d 4638 033e b580 453e
00000010: 44f4 4b3e 6103 98be 29f8 0cbd 0f1f 5abe
00000020: 6dc6 76be 4931 dcbc a120 3fbc 7995 20bd
00000030: 35f1 74be 3517 493e f427 043e 57e5 193e
00000040: 6b93 da3c 15d4 fc3d f6a4 d9bd 8099 a4bc
00000050: 4ee5 88be bd39 0c3e 9a0d 40be eda4 86be
00000060: f6f1 b53d fef7 5d3e 2b4d 00be abc2 3d3e
00000070: 842f 7dbd 6139 d4b9 8bbb ac3d 22fd 94bc
00000080: 7634 83be 39d3 50bd ba41 183e 374b 283e
00000090: c9b5 39be 6932 a2be a42b 8ebd 5f05 863d
000000a0: d5ee 3fbe 8cd1 e9be d49f 5b3e 03be 183d
000000b0: c4c4 a53d f00c 8f3d 6fe7 6ebe b555 163e
000000c0: c3e6 43be 7bd9 ffbc a84a 403e 21be 9a3c
000000d0: 9493 cb3d c3a0 293b f6bc 233e 10bd 3f3e
000000e0: 678b 0a3e 1c15 7fbe 0258 1ebc 7228 e2be
000000f0: 9682 2bbe 8c3a 1bbf b30a 153e 9698 febd
00000100: b98b 49be ae82 13bf dd00 13bb 06e0 e93c
00000110: 71f2 9d3d 42c3 39be 0aa7 383e 4b50 3c3e
00000120: 3ab2 2f3e 3894 d0be 5256 03bd 1d5e 48be
00000130: 50d8 dc3d c098 49be c11f 213d d3c7 80be
00000140: 8bdc 7abc 3721 32be 6342 05bf 54ae 5a3d
00000150: 7aad 2e3e 8524 d7bd 058a 45be 756a a2be
00000160: 8e90 5bbe aa07 c4bd fe47 443c 68ef e23d
00000170: 1b0a b8be f791 55be 1026 5d3c 4035 6e3e
00000180: 1da4 2c3d 8ee6 6dbe 2b19 9a3d f14a d2be
00000190: 1d47 aebd 5da3 cabd b155 bbbd f622 da3c
000001a0: 3373 333e a1a2 99be d550 b0be a0a6 c23d
000001b0: 4e80 93bd 3838 6439 f54f 323d 6421 8abe
000001c0: 05e9 a8be 23f1 783e 0bed 1c3d a6c4 b2bd
000001d0: 2375 9c3d be58 6dbe 53d1 a5be e33d aebd
000001e0: 461a 073e b59a 80bd 73c1 73be 5409 1abf
000001f0: 4738 f03d 4008 b0be 7a40 e5be f95a 6ebe
00000200: 261d 0a3e 27f9 6abe 441b 34bd 03ff a0be
00000210: b66f 5abe aa21 4dbe 6c6b 7e3e fdd6 a8be
00000220: 27c8 3b3e 1984 1a3d 6374 87be a082 c6bd
00000230: bcea 39bd 3005 a9be 6734 9fbd 7d9e 083e
00000240: f849 b2be bf6a 79be 7951 0a3e 5367 3ebe
00000250: 8f81 80be e1e2 303e d20c 0d3e 4e1a dbbe
00000260: 0976 3ebe bf2b 2dbe 70d4 a93c 0e6d 763e
00000270: 4816 123d eede e83c 953d 1a3e 9628 d83d
00000280: 8f72 053e a614 68be 1111 1c3e 1655 963d
00000290: 786f 9dbe 06cb 98be 68bc 22bc be29 a73d
000002a0: e8df 2abe 6ccb 88be 9c4a e53d b655 10be
000002b0: 9124 20be 66fc 0a3e 8337 02be 3f40 03bc
000002c0: ce25 193e 4e5e c4be 2fac 283c f11d d1bd
000002d0: 631d a6be dd4a 77be 941b 02bf 76b7 883e
000002e0: 2b7f 84be 382b 1e3e 0196 93be 5552 24bf
000002f0: a7b5 633d a699 83be 611d 2c3d 2053 b33d
00000300: 0a10 303c 401d 253e 083f c2be 345a e73d
00000310: f46c 703e 2406 663e 49b0 8d3d c340 583d
00000320: 4570 5fbe 398c 0e3e a3f4 033e ee42 07bf
00000330: b100 093e 3328 4a3e 3ba9 87be f3be 38bd
00000340: b991 fcbe aa1f 243e 4973 5f3d 1035 97be
00000350: 89da 4b3e 3679 d1bd c544 85be f06d 9ebe
00000360: 9871 0e3d ae71 c03d 7c57 83be 0519 4dbd
00000370: 362c 6fbe 8b3b 983d 0908 e23d 26fd 22bb
00000380: 7e2a 533d 1ac0 66be 28db aabc 163a 793d
00000390: e78b f43d 3973 84be 16c4 b83d e649 11be
000003a0: 9b7d ec3d bb47 dfbe 4bdf 07bf b936 8b3e
000003b0: b259 88be 35f3 c0bc 0d3c b3bc c078 03be
000003c0: 34b5 143e 4d17 97be 961e 133e 4166 20bc
000003d0: 0a55 903d bb60 493e 7cc3 2f3d 0308 7cbe
000003e0: 285c 6d3d fd7d 2fbe 680d 3ebd 635a 08be
000003f0: 09db 7fbd 0581 033e e98e fa3c 7570 8dbe
-0.7001712 0.0822184 0.12814435 0.19287379 0.19917399 -0.29690078 -0.03441635 -0.2130091
-0.24099131 -0.02687897 -0.011665494 -0.03920505 -0.23920138 0.19637759 0.12905866 0.15028892
0.026681622 0.12345139 -0.10627167 -0.020092726 -0.26737446 0.136939 -0.18755189 -0.26297703
0.08884041 0.21676633 -0.12529437 0.18531291 -0.061812893 -0.00040478542 0.084342085 -0.01818711
-0.25625962 -0.050982688 0.14868823 0.16434942 -0.18135752 -0.31679085 -0.069419175 0.06543993
-0.18743451 -0.45667684 0.21447688 0.037290584 0.08094171 0.069848895 -0.23330472 0.14681132
-0.19130997 -0.031231632 0.18778479 0.018889489 0.09940258 0.0025883175 0.15990052 0.18724465
0.1352974 -0.24910396 -0.009664537 -0.44171482 -0.16749033 -0.6063621 0.14554863 -0.12431447
-0.19682206 -0.57621276 -0.0022430934 0.028549206 0.07712258 -0.18140891 0.1803247 0.18390004
0.17157832 -0.40738082 -0.032064743 -0.19567151 0.10783446 -0.19687176 0.039336924 -0.25152454
-0.015311371 -0.17395483 -0.52054423 0.05338891 0.17058364 -0.105050124 -0.19290932 -0.31721845
-0.21441862 -0.09571774 0.011980055 0.11080819 -0.3594521 -0.20856462 0.013497844 0.23262501
0.042148698 -0.23232481 0.07524332 -0.410728 -0.085096575 -0.0989444 -0.09147204 0.026627999
0.17524414 -0.30006889 -0.3443667 0.095044374 -0.072022066 0.00021764718 0.043533284 -0.269786
-0.3299028 0.24310736 0.038312 -0.08728914 0.076395296 -0.23178384 -0.32386264 -0.08507898
0.13193616 -0.06279508 -0.23804264 -0.60170484 0.11729484 -0.34381294 -0.44775754 -0.23276891
0.13487682 -0.22946607 -0.043971315 -0.31444559 -0.21331677 -0.20032373 0.24845666 -0.32976523
0.18338071 0.037723634 -0.26455984 -0.096928835 -0.045389876 -0.3301177 -0.07773667 0.13341708
-0.3482206 -0.24357127 0.13507642 -0.18594103 -0.25098845 0.17274047 0.13774422 -0.42793506
-0.18599714 -0.16911219 0.02073118 0.24065039 0.03566578 0.028426614 0.15062554 0.10554616
0.13031982 -0.22664127 0.15240885 0.073404476 -0.30749106 -0.29842395 -0.009932615 0.081622586
-0.16686976 -0.267177 0.11195871 -0.14095196 -0.15638949 0.13572845 -0.12716489 -0.008010923
0.14955828 -0.383532 0.010294958 -0.10210789 -0.32444295 -0.24149652 -0.5082333 0.2670247
-0.2587827 0.15446174 -0.2882538 -0.6418813 0.05559316 -0.25703162 0.042020205 0.08756089
0.0107460115 0.16124439 -0.37938714 0.11296502 0.23479062 0.2246328 0.06918389 0.052796137
-0.21820171 0.13920678 0.1288629 -0.528365 0.1337917 0.19741897 -0.264963 -0.04510398
-0.49329928 0.16027704 0.054553304 -0.2953267 0.19907583 -0.10228197 -0.2602903 -0.3094325
0.0347763 0.09396683 -0.25652683 -0.05007269 -0.23356709 0.07433232 0.11036689 -0.0024870127
0.051554196 -0.22534218 -0.020856455 0.06084641 0.11940747 -0.25869158 0.090217754 -0.14188346
0.11547395 -0.43609414 -0.53075093 0.27190188 -0.26630932 -0.02355347 -0.02187922 -0.12839031
0.14522249 -0.29509965 0.14367136 -0.009790004 0.0704747 0.19665806 0.042911038 -0.24612431
0.057949215 -0.17137904 -0.046399504 -0.1331573 -0.062464748 0.12842186 0.030585723 -0.2762486

encoder.2.bias f4 [64]
00000000: a3c8 8e3e 6e12 74ae da20 f5be 2c50 14bd
00000010: 7b36 95bc 6eb3 7f3e cce4 a13e bf15 8d3e
00000020: 8ce4 0b80 c26b 2cbd 8d3e 56bd 463c d43d
00000030: 3500 9eba 42c7 1db7 6647 92bc cf63 2dbd
00000040: 944f 30be ca77 69bf 2c6b 533e ae0b 15a8
00000050: 0db0 80b9 27de 47bf 78d3 253b c55b f4b6
00000060: d705 9f3e ec97 343e 040d 85af 54da bebd
00000070: 9a22 03bc 79f4 0abd 1293 413e fd6a b13e
00000080: 8a68 54b4 6ac5 c0bb 5832 7e3e 2dcb e23e
00000090: e169 c73e 3de1 75ba e1b8 fcbe 0374 34ba
000000a0: ac9b 6fbd 2fc8 8e3e 94bf 91ba 4164 41b9
000000b0: 39b1 00bd 25b5 93ad a1a8 c6be cbe4 34a3
000000c0: 6137 e2bb 94e8 ddb7 9732 76a0 681a 63bd
000000d0: 18c7 553e 5f4c 23bb fde3 0c80 212c feba
000000e0: 6eb7 0abc 57f1 debc f8ed b8b0 bccd bcb4
000000f0: ad98 3cbd 55c5 4fbd a9bf 8e3d c8d8 bb3e
0.2788745 -5.5495546e-11 -0.47876626 -0.03620927 -0.018214455 0.2497079 0.3161987 0.27555653
-1.092178e-39 -0.042094953 -0.052305747 0.10363059 -0.0012054505 -9.404323e-06 -0.017856311 -0.042331513
-0.17217857 -0.9119841 0.20646352 -8.273694e-15 -0.0002454523 -0.7807335 0.0025303047 -7.28245e-06
0.31059143 0.17636079 -2.4201807e-10 -0.093189865 -0.008003855 -0.033924554 0.18903759 0.34651938
-1.978207e-07 -0.0058829086 0.24823892 0.44295636 0.38947967 -0.00093795714 -0.493598 -0.0006883742
-0.05849807 0.27887103 -0.0011119717 -0.00018443262 -0.031419013 -1.679241e-11 -0.3880053 -9.806268e-18
-0.0069035743 -2.6453556e-05 -2.0853749e-19 -0.055445105 0.2087673 -0.0024917347 -1.183813e-39 -0.0019391814
-0.008466585 -0.02721469 -1.3455397e-09 -3.516742e-07 -0.04604404 -0.0507253 0.0697015 0.36688828

encoder.4.weight f4 [32, 64]
00000000: e61e 6bbe 0663 0180 3412 8a33 12ff 0d3d
00000010: 5cf4 54bd 4df7 cab9 8b49 65bd 7dbf d0bc
00000020: fb58 0e80 0e25 1280 ec19 1280 5651 c239
00000030: f3b8 243a 6a92 c037 27d4 a3bd 39ba 0300
00000040: 06d7 44be ef01 588b 24e7 20bd 65d5 0e80
00000050: c786 0f80 1ab2 e1bd 0554 05be e67d 0980
00000060: 7993 63be 8f38 9f3d 37f2 003b 834e 173d
00000070: 4515 273e ed00 b8bd 7536 44bd a865 d5bc
00000080: ce91 0d80 4b9c b83d 549d bdbc b4e2 683d
00000090: 7bd0 2bbd 9514 0880 82ab c6b9 1a47 a33a
000000a0: 44a5 0180 c856 2cbd a69c e9bc 9951 7a39
000000b0: 2f97 523d 58d6 a43b 3e25 1a3c 85a7 0d80
000000c0: 6a0d 0884 45b1 3d29 1206 0100 aa04 1500
000000d0: 8321 03be ca89 43bd d5a1 0380 d268 583a
000000e0: 973c 0a3e 20ab 00be 88b0 0800 a6d3 1d80
000000f0: ba32 2dbe 1eb7 3ebb 09da f4bc 9721 b5bc
00000100: 0b9e 90bd be59 bd3b adf3 96bd 2098 c4bc
00000110: 644d 703d 5654 27be b304 293d 8157 03be
00000120: 0313 d5ba bca4 d13c 771c d8bc be91 98bc
00000130: d202 b935 b76a d1ba b656 153e e208 233c
00000140: d9fb 003e b5cb 23bd 82e7 51be 4787 71bb
00000150: f155 2ebd 617a 0f3e 31ba b73d 5c77 46bb
00000160: 922d 1d3d 75f2 81be e841 c3b5 6fab d33d
00000170: 9b9e 95bb b71f 473d e857 a4be 91b7 053e
00000180: 0663 54bc 827b 2c3d 8943 6cbe 0dcd 02bd
00000190: 3f34 c23d 5fc9 93bd 3b63 3d3e deac b9bc
000001a0: 38e9 9abc b1d3 f43d 4d98 7c3c 7341 abba
000001b0: da96 323d 825c 11bc c4eb f83e 46f4 81bc
000001c0: 5fea e63c f523 afbc aafb d439 e861 d13d
000001d0: c49e c4be dd78 273d 7127 0f80 f61c 8c3c
000001e0: 4242 023e eb70 903d d798 07bc af70 3e3d
000001f0: 560b 3f3e 0505 4fbb d31d 90bb 05b2 01bd
00000200: cd7d dcbd ed98 0700 bbc9 853c b590 32bc
00000210: a7ff c6bc 4dbc 933c e96b 79be 8553 f1bb
00000220: 415d 0e80 69e6 ae17 7956 0e00 0919 123b
00000230: 7f92 37b8 84e8 ea35 baea cebd 150a 0c00
00000240: 9b91 20be 1a8c cbba 0a9d 7e3d bb52 1980
00000250: c664 0233 b480 a43d b2ce 18bf 92f9 0980
00000260: 4459 78be 9531 8a3d 349f ac38 0d13 083e
00000270: e30c 183e 980b 89bd 47fe 58be 64e8 afbe
00000280: 1b22 0d00 2899 c93d 765a d5bd 99c7 1f3c
00000290: 1bd9 40be 1ea2 0b80 32b4 c23d 2489 3939
000002a0: 38aa 0700 1ae2 8dbe e6e4 1cbc 7461 6b36
000002b0: 994b b23c fd2c 123a f192 593c a7ef 1480
000002c0: 4eb5 343c 44f0 cc29 a739 0800 e29d 8b3b
000002d0: 02dd b3bd e841 103d 165b 0b80 1979 c73d
000002e0: 1d98 9ebd b573 b4bd e60d 0900 8484 0e80
000002f0: 9645 c2be e039 4d3a b06a 7fbd 1fac 6fbe
00000300: 5cc0 1ebd f1c2 0b00 be54 d9bd 7e7c e539
00000310: 274b 273d 5d35 03bb 5a0b 5dbd 3ad9 233d
00000320: c388 0e80 820e 0e00 60c5 aab7 83c5 0e29
00000330: 68fe 25b8 af83 8827 6ca7 e0bd df24 0200
00000340: 3ca0 5e3d d0d0 4dbe 8469 9dbc 09ee 0e00
00000350: 7447 0e80 feab 15be 10bb afbd 0373 1480
00000360: 231b 843c 5e8b 9b3d 4460 b1a5 c10e d6bd
00000370: a2a1 85bc ac56 803d 44bf 9dbc 36cb 833d
00000380: b534 0800 1d66 acbd 1fe5 46bd 3d40 01be
00000390: d759 d33c 3fe6 0f80 69d6 93bd 4928 5728
000003a0: b2fd 0400 6066 dfbc 7d07 c6bc 48bb 00a9
000003b0: 5e71 573d b164 91a8 4f1d c43c df8b 0f80
000003c0: 8459 0780 d5da f796 6dd3 0b80 0c8a 2000
000003d0: 1d70 413d 6137 29bc df20 1200 527c 13bc
000003e0: bcb7 f43d 932a cebd 25f1 0500 2ff4 0f00
000003f0: a70c ae3d 7ac9 e0a8 f482 2dbc b8ce a3bd
-0.22961006 -1.27358e-40 6.429437e-08 0.034667082 -0.05199085 -0.00038712696 -0.05597834 -0.025481934
-1.317617e-39 -1.666332e-39 -1.662338e-39 0.00037063163 0.0006283663 2.2956363e-05 -0.07999449 3.4231e-40
-0.1922265 -4.1601541e-32 -0.039282933 -1.362248e-39 -1.425881e-39 -0.11020298 -0.13020332 -8.71683e-40
-0.22224225 0.077744596 0.0019675621 0.03694011 0.16316707 -0.089845516 -0.047903497 -0.02604945
-1.246166e-39 0.090141855 -0.023146309 0.056856826 -0.04194687 -7.42067e-40 -0.00037893286 0.0012457103
-1.51122e-40 -0.04207495 -0.028517079 0.00023872255 0.05141371 0.0050304346 0.009408293 -1.253956e-39
-1.5992883e-36 4.2120187e-14 9.4013e-41 1.930219e-39 -0.12805752 -0.047738828 -3.33561e-40 0.00082553655
0.13499676 -0.12565279 7.98011e-40 -2.739155e-39 -0.16913882 -0.0029100846 -0.029889124 -0.022110743
-0.07061394 0.0057785204 -0.07370696 -0.02399832 0.058667555 -0.16340765 0.041264247 -0.12826349
-0.0016256276 0.025591247 -0.02638076 -0.018624183 1.3784395e-06 -0.0015977238 0.14583859 0.009950848
0.12596072 -0.039989192 -0.2049847 -0.0036854313 -0.04256243 0.14011528 0.0897106 -0.0030283546
0.038373537 -0.25380293 -1.4547813e-06 0.10335433 -0.0045660264 0.04861423 -0.32098317 0.13058306
-0.012963062 0.042109974 -0.23072638 -0.031933833 0.094826214 -0.07216143 0.18494885 -0.022665437
-0.018910035 0.119544394 0.015417171 -0.001306577 0.043600895 -0.008872153 0.48617375 -0.015863549
0.028187929 -0.02137945 0.00040623295 0.10223752 -0.3840238 0.04088675 -1.391681e-39 0.017103653
0.12720588 0.070527874 -0.008276186 0.046494182 0.18656668 -0.0031588685 -0.0043980866 -0.031663913
-0.10766182 6.97708e-40 0.016331544 -0.010898759 -0.024291826 0.018034125 -0.2435757 -0.0073646926
-1.31915e-39 1.130265e-24 1.316717e-39 0.0022292754 -4.3767035e-05 1.750203e-06 -0.10103364 1.105643e-39
-0.15680544 -0.0015529424 0.062161483 -2.325566e-39 3.0359637e-08 0.08032361 -0.5969039 -9.16048e-40
-0.24252802 0.06747738 8.231253e-05 0.13288517 0.14848666 -0.066916645 -0.21190749 -0.34356987
1.206096e-39 0.09843665 -0.10417645 0.009752178 -0.18832819 -1.068347e-39 0.09507026 0.00017694064
7.03911e-40 -0.27711564 -0.009576058 3.5074454e-06 0.021764563 0.0005576162 0.0132796625 -1.922681e-39
0.0110295545 9.101099e-14 7.55366e-40 0.0042607645 -0.08782388 0.035219103 -1.042866e-39 0.097398944
-0.07743857 -0.08811132 8.31505e-40 -1.333235e-39 -0.37943715 0.00078287534 -0.062357605 -0.23405503
-0.038757667 1.080122e-39 -0.106118664 0.00043771038 0.040843155 -0.002002082 -0.053965904 0.040002085
-1.334758e-39 1.290901e-39 -2.035749e-05 3.1701648e-14 -3.9576e-05 3.7890354e-15 -0.10969433 1.96898e-40
0.05435203 -0.20099187 -0.019215353 1.371088e-39 -1.31133e-39 -0.14616391 -0.08580601 -1.877968e-39
0.016126221 0.075949416 -3.0769838e-16 -0.10452033 -0.016312424 0.06266531 -0.019256242 0.06435244
7.53592e-40 -0.08417914 -0.04855835 -0.12622161 0.025799675 -1.460129e-39 -0.0721863 1.1943633e-14
4.58351e-40 -0.027270496 -0.024173493 -2.858415e-14 0.05259835 -1.6141902e-14 0.023939757 -1.427709e-39
-6.7496e-40 -4.0043105e-25 -1.086036e-39 2.988258e-39 0.04722606 -0.010328145 1.664831e-39 -0.009001808
0.11949107 -0.10066714 5.45684e-40 1.465129e-39 0.08498507 -2.4956372e-14 -0.010590304 -0.07998413

encoder.4.bias f4 [32]
00000000: c716 4e3c 0e8b babe 5d8f 2d3d cae3 8b3a
00000010: c46d fabc 56b5 2580 7a15 af3b 3647 0b80
00000020: 276c 853e cc43 a5be 734d b13d 741f e53c
00000030: 734e b9bd 3128 94b9 fa83 fa3b 43c6 1dbd
00000040: c2d0 b73e 16a4 1e3b 25b3 cb3e 7bd6 8cbc
00000050: 59b8 38bf c677 fc3e ef4f ac3e 3af6 46a0
00000060: 5315 f398 f592 823d 2dc5 943d 23c6 b13d
00000070: 4b28 293e 7560 f83e 9c1a 95bd 20a4 b1bd
0.012578673 -0.36434215 0.04237305 0.0010672745 -0.030569918 -3.462964e-39 0.0053431364 -1.035736e-39
0.26059076 -0.32278287 0.086573504 0.0279691 -0.09048166 -0.00028258705 0.0076451274 -0.038519155
0.35901457 0.002420669 0.39785114 -0.017192116 -0.7215629 0.4931013 0.33654734 -1.6852722e-19
-6.283556e-24 0.06375686 0.07264171 0.0868037 0.16519277 0.4851109 -0.07280466 -0.086738825

encoder.6.weight f4 [8, 32]
00000000: 1ab7 223c 0fb1 283e 8703 8c3d edfe 893d
00000010: 2f0f 86bd c493 5538 a0ae 7b3d 9598 9fbc
00000020: a361 7f3e 8f35 0d3e a492 8b3d fad9 f83d
00000030: 62a4 2e3b 14c6 be3d 9e91 583d 45eb a63c
00000040: 03a4 543d 5ebc e3bc 4b4f 91bd 1176 513c
00000050: 9154 c03e 437c 883c 2414 943c 2123 03bc
00000060: eb21 5e3d deaf 1c3d bca0 b13b 012d 223d
00000070: 049d 083e 0252 5dbd 1016 1d3e d0a7 9cbd
00000080: c514 273d 6b48 ed3d 838c 4bbe 2915 80bd
00000090: 717f bdbd 03b3 9135 b7f0 85bc 0111 f13c
000000a0: 440f 31be 04d2 543d 5b3f 743d a5f2 3abd
000000b0: df2e 333d c65c 1dbc 324c 243d 06da 58bd
000000c0: f08b 1cbd 8f30 ba3c 573f a9be 3b0c 9e3c
000000d0: b8c5 963e 8497 5dbe b309 84bd 78bd da3a
000000e0: bfe4 6fbd 5566 a43b 664a 173e 6433 c93b
000000f0: 67c9 fa3c cb26 cbbf 304b 003e b4b7 96bc
00000100: b5e7 0c3e 00ef 3cbd 65ed 88bd 1a7d 29bc
00000110: a65d 863c 6b6b 522a 1e11 113e f718 0d00
00000120: bf3b 54bc f829 10be 5b4d 96bd 06c5 c7bd
00000130: 79d4 b2bc e8fb 92bd c9aa 043e 6cca f1bb
00000140: 987a 81be 74a0 2680 07b3 b5bc 19f9 e9bc
00000150: de32 25be 5230 cfbc c4bb 123e 4e10 1080
00000160: e636 0e00 d481 0ebc bbc1 fa3d 62d4 9e3c
00000170: 5048 a93d 87da 12b7 fe85 60bd a7ea 42be
00000180: 900a 983c c90c 06ba eee4 58bd fe5f 2280
00000190: b2a8 7fa8 5f31 1180 6a76 733c 3317 1880
000001a0: e150 00b4 0367 37bd 1373 0580 ec21 5dbb
000001b0: 0db8 fbb4 ad8d d2bc 7f79 183c 0702 0380
000001c0: 88e7 8abc 29e0 1500 8d68 0300 e5d9 0780
000001d0: 5bcd f8b9 e2c4 dabb 94ea b2aa 446e 1080
000001e0: 0811 0d80 cc58 0e80 4daa b1ac 1bdb 0d80
000001f0: bdc3 6035 a41f b2b7 3007 24bd 3b13 b5bb
00000200: ca5e 0080 3fbc 2ebd 8aa1 d6a5 4127 0980
00000210: be57 0e80 303c 0d80 e719 1f80 c2de 1080
00000220: ae31 a7bd 5099 88bb 984e 4bbc 5459 54a4
00000230: d14f eabc 0d86 d6bd 4510 1080 37e7 1100
00000240: ea97 233b 4f21 0500 56a0 ebbb 3ce1 e208
00000250: 5004 70bc 6b09 06bf 1cdd 843b d209 1c00
00000260: 5f48 2abd 4171 0a80 2912 abb9 2cf1 0980
00000270: 2bbe 0b80 81b5 24bc fbe2 34a2 e5b7 c9aa
00000280: 6d6c 66be 3b0c b8be 1a97 dcbe 735d 023e
00000290: 14f9 c4bc 6dd1 1800 aa64 89be eaa9 0d00
000002a0: fe26 efbd f6ca 22bf 9469 693e dcff 9abe
000002b0: 119a ecbc 9b53 4abe b7d4 1ebe a5cc 103d
000002c0: 2e5a f4bd 3f9f 0c80 5a58 573e 3606 7a3d
000002d0: 1679 7bbb 19b6 9abd 14e0 c23e 9993 2580
000002e0: 8b87 2000 f09b 383e 3372 8a3e 785f 923e
000002f0: 0210 843e 0f51 c6bd 44c5 56be fbd2 f0be
00000300: 807c 4f3d d32a f3bd 5ebe b63d 4010 d5bb
00000310: f5f0 a1b7 6028 920e 0b2a fe3d 1739 6f1e
00000320: 56e0 81be efd4 abbd ef3f 613d 01a0 e13b
00000330: 1efe 45bc c3d0 d4bd 6c64 cc3d a1a5 9ebb
00000340: 073b 39be 2b63 1000 77f6 82be fcd2 73bc
00000350: 8dd1 95be d6d5 d3bc 39cb b53d e1af 0a80
00000360: fdcc 0380 7bb3 5fbc 0dab b43d 17de a93d
00000370: 06c2 053e 15f4 80bd 715d cf3c 0058 38be
00000380: e107 07be 4d07 a23b f29c 83be 244a e83c
00000390: 5256 51bc ea59 ee39 e84d 46be ebea 4a3d
000003a0: 1e79 383e c89e 44bd b759 10bf 3d54 42be
000003b0: 0a69 553d f522 a2bc 3713 1fbe a2db a43d
000003c0: 5451 973d 8f82 233c 3eaa 2f3e cc93 833d
000003d0: 0f47 b53d c68a 3a3d 93be b4be 9680 8e3a
000003e0: 4ae1 5bbd aeb6 6bbd b51f 693d de7f 103e
000003f0: c095 073e 82a9 cfbf 7dec 90bd d83d 27be
0.00993135 0.16473792 0.0683661 0.06738076 -0.06545865 5.0920775e-05 0.061445832 -0.019481936
0.24939589 0.13789962 0.06815079 0.12150951 0.0026648273 0.09315124 0.052873246 0.020375857
0.051914226 -0.027799781 -0.07095202 0.012784497 0.3756452 0.016660815 0.01807601 -0.008003981
0.054231565 0.038253658 0.0054207724 0.0395937 0.13341147 -0.054033287 0.15340447 -0.07649195
0.04079129 0.11586078 -0.1987782 -0.06254036 -0.09252823 1.0855441e-06 -0.016350133 0.029427053
-0.1729098 0.0519581 0.059630733 -0.04564156 0.04374587 -0.009604638 0.040111728 -0.0529423
-0.038219392 0.022728233 -0.33056137 0.019292941 0.29447722 -0.2163983 -0.064471625 0.0016688546
-0.05856776 0.0050170817 0.14774475 0.0061401594 0.030613614 -1.5871214 0.12528682 -0.018398143
0.13760264 -0.046126366 -0.066859044 -0.010344768 0.016402077 1.8689015e-13 0.14166686 1.202817e-39
-0.012953698 -0.1407851 -0.07338973 -0.09754376 -0.02182983 -0.071769536 0.12955774 -0.007378867
-0.25288844 -3.547309e-39 -0.022180093 -0.028561162 -0.16132686 -0.025291596 0.1432944 -1.475217e-39
1.305391e-39 -0.008697946 0.122439824 0.019388381 0.08265746 -8.753158e-06 -0.054815285 -0.19034825
0.018559724 -0.00051135995 -0.0529527 -3.156842e-39 -1.41919235e-14 -1.578914e-39 0.014859775 -2.212374e-39
-1.1950353e-07 -0.044775974 -5.00458e-40 -0.0033742143 -4.6886308e-07 -0.025702322 0.009306311 -2.76234e-40
-0.016956106 2.008959e-39 3.13012e-40 -7.21014e-40 -0.00047455248 -0.0066763023 -3.1781923e-13 -1.508924e-39
-1.199971e-39 -1.317551e-39 -5.0495498e-12 -1.272462e-39 8.373134e-07 -2.1233987e-05 -0.040045917 -0.005525974
-3.4004e-41 -0.042659994 -3.7232546e-16 -8.40601e-40 -1.317173e-39 -1.215453e-39 -2.856192e-39 -1.549278e-39
-0.081637725 -0.004168667 -0.012408875 -4.6045836e-17 -0.028602513 -0.10474787 -1.475204e-39 1.644148e-39
0.0024962374 4.71126e-40 -0.0071907444 1.3654833e-33 -0.014649466 -0.5235812 0.0040546786 2.574917e-39
-0.041572925 -9.58983e-40 -0.00032629192 -9.13036e-40 -1.07841e-39 -0.0100530395 -2.4514711e-18 -3.5832375e-13
-0.22502299 -0.3594683 -0.4308403 0.1273096 -0.024044551 2.27918e-39 -0.26834613 1.254815e-39
-0.11677359 -0.63590944 0.22794181 -0.3027333 -0.028882058 -0.19758455 -0.15510832 0.035351414
-0.11931263 -1.159153e-39 0.21029797 0.06104108 -0.0038371733 -0.075542636 0.38061583 -3.450861e-39
2.98736e-39 0.18028235 0.27040252 0.28588462 0.25793463 -0.096834294 -0.20973688 -0.47035965
0.05065584 -0.118734024 0.089230284 -0.0065021813 -1.93049e-05 3.603066e-30 0.12410363 1.26643606e-20
-0.25366467 -0.08390223 0.054992612 0.006885529 -0.012084512 -0.10391381 0.099800915 -0.004841522
-0.18088923 1.504943e-39 -0.25578663 -0.014881846 -0.29261437 -0.0258588 0.08876652 -9.81448e-40
-3.49042e-40 -0.013653631 0.08821688 0.082943134 0.13062295 -0.06296555 0.025313111 -0.1800232
-0.131866 0.004944718 -0.25705677 0.028355666 -0.012776928 0.0004546189 -0.19365656 0.04954044
0.18014953 -0.048002988 -0.56386894 -0.18977447 0.052102126 -0.01979206 -0.15534674 0.08049704
0.07388559 0.009979858 0.17154786 0.064246744 0.08851444 0.0455425 -0.35301647 0.0010872062
-0.05368165 -0.057547264 0.056915004 0.14111277 0.13240719 -1.6223605 -0.070763566 -0.16332185

encoder.6.bias f4 [8]
00000000: abcc c9bd c4d6 23bf d98d 3b3e b811 123d
00000010: fc55 e73d 8fae 90bd 3d18 b4bc 1706 a93e
-0.098534904 -0.6399958 0.1831583 0.03566143 0.11295697 -0.070645444 -0.021984214 0.3301246

encoder.8.weight f4 [1, 8]
00000000: 35b8 9abd a960 bf3e 000d 87be ebb9 53bc
00000010: edaa c23c 9ffa b03f c5e7 80be dc9a f33e
-0.07554666 0.37378433 -0.26377106 -0.012922744 0.023763144 1.3826483 -0.25176826 0.47579086

decoder.0.weight f4 [8, 1]
00000000: dd11 7ebf 5484 0a3f d3a9 8a3e 8c55 64bf
00000010: e748 c7be 276d 61bf 5e51 4abf 4778 383f
-0.9924601 0.54108167 0.2708269 -0.89193034 -0.38922808 -0.8805718 -0.79030406 0.7205853

decoder.0.bias f4 [8]
00000000: c0a2 77be fefc acbd 435a 0a3e e47c 493c
00000010: 8c61 8ebe bfdd 253f f5d9 783d d2e0 d0be
-0.24183178 -0.08446692 0.13510995 0.012297843 -0.27808797 0.6479148 0.060754735 -0.40796524

decoder.2.weight f4 [32, 8]
00000000: af38 a0be 74b8 f4be 2b91 51be 6c5e 83be
00000010: 6abc 99bf ede1 be3d 354a a2bb c437 1abe
00000020: 6bb1 1000 df89 0d80 716b 0d95 a2e4 1180
00000030: ec98 1900 3e43 c1a6 3c79 0e80 04ad 0c80
00000040: 8c9c d83b 1891 93be 15b1 7fbe 7ea1 15be
00000050: 8c18 a0be 321b 9a3d 1290 053c 5ea0 69bd
00000060: d0a2 2200 c892 163e 66af 2d3e 6ea1 2280
00000070: 7825 0500 e1ea d9b3 76c1 1980 c5ab 8a3e
00000080: 09d1 29bd 7d8d 8fbe 51e9 a73e 8d35 5abf
00000090: 63e8 0580 9257 3ebe e72c 0bbf efe7 b2bd
000000a0: d4be 0a3e 912f a83e 2486 b43e 1c07 a53d
000000b0: e8cb e33e 916f 9c3e 8922 273e d615 7d3e
000000c0: 7360 f33d 9d28 0780 c482 3ebf c751 533e
000000d0: ad61 8ebe 4ff6 543e 9d43 873d 575a 1e00
000000e0: 6df4 0aab 8825 c63d 99ee 0c3c 3acc 3fbc
000000f0: 125b 0e80 e34e 2ebe 5bb0 e8bf c4b6 1e3e
00000100: 38ee 1db9 f4e4 20bd b300 0cbd 44a7 ddb9
00000110: a240 f196 0314 cebb f844 fbb9 002f 26bd
00000120: be2d 80be f4c4 623e 9379 22be 4dcd 6f3e
00000130: b1c0 02be 8bd8 88ba 783e d7bc c9cf 6ebe
00000140: 276f 883e 84c6 0a80 13f1 18bf 9c7a 673e
00000150: d8c7 753e a71f 663e b0a4 c8bd 89b4 dc9c
00000160: 4ff9 7abd f556 51bf ffea 34bf 7a66 03be
00000170: 753a a3be 1702 bf3e bb5f 7ebe 3658 6ebe
00000180: 8fb6 b4bc 976d be3e 243c fd3d adf7 c43e
00000190: 990e 27be 81d7 27bd 0804 b83e 94f4 833e
000001a0: 7a75 2fbe b8dd a43c ddce 5c3d cece f8bd
000001b0: 872a 4bbe 9c6e 813d 9f0d bebd 5c42 5cbe
000001c0: d30f 3dbe 0a0a 3dbe 340d 2b3e 825c 2bbf
000001d0: 03ab 0680 af29 78be d5c6 14bf 2e40 d2bd
000001e0: 62e0 1bbf 2268 e6bd 9075 a43e 79c0 49bf
000001f0: db26 0780 4186 36be 0eda 23bf 306e b4be
00000200: 1c74 52bd 11f7 c9bd cc0d bcbd 0a33 c5be
00000210: 4db6 a83d 908d 473e 8542 c53e cdd4 073e
00000220: ef5c a53e 245a 5d01 2eb0 8bbf b1b5 8f3e
00000230: 3a2d be3d 8b00 4c3e 0593 073e 4c31 0000
00000240: 82e3 afbe 608a 45c0 ff33 70bf f399 9c3e
00000250: 917f 37bf 7189 1a3e 2db9 393e 3b14 0900
00000260: 711e 15b1 e19f 9324 c481 7d2c 7876 9fb3
00000270: 0140 2080 3502 63b9 9e37 89b3 aef4 05b1
00000280: b0be febc ec39 c33e 923f 663b cb19 acbc
00000290: aeac 2abe bedf 0abe 25a9 563e 45bf cbbe
000002a0: f24d 8bbe c943 dc3d c3fb 963c 7dc8 6fbf
000002b0: 4b16 0000 3e0a b4be 17b9 47bf 9581 92be
000002c0: 0670 8b3e 1ba1 d93d 8ac8 a13d aadd 5f3e
000002d0: e96b 0e3f ae18 f53d 68b2 ae3e b7c3 b23e
000002e0: c11a 0980 fc66 f1bd bd59 253e 1e78 29bf
000002f0: 0f71 2600 f1de a8bd ca68 71bf 43ad 143e
00000300: 3ed1 8cbd 856d 10be eb11 2b3e eb21 83be
00000310: 38f7 debe edc4 813e 6121 68bd e6ba 6ebe
00000320: 4637 76be 65a7 c2be 491e 5e3d 10ac 053d
00000330: 6037 5b3e 806d 2d3e d1e9 f93c d750 1b3e
00000340: 828d 35be 796a a8bd 66dc b3bd 734a 233d
00000350: 4a73 2bbe 4d2d 29bd 12af d33d d724 f6bd
00000360: 50ad c7bc a22b c3ba 965c dabb c8f6 f5bc
00000370: 842b 7a38 4ae8 27bd 3f11 e9bc d942 b7ba
00000380: dbc0 1c3f ff89 0880 4c5a be01 b651 e33e
00000390: df0d 923f 5b67 25be f4a0 d53d 9048 1e80
000003a0: 63aa 0500 1c7f 07be 8883 88bd 0697 0780
000003b0: f11d 1780 fb15 0cc0 347e 0080 301e 34bf
000003c0: 8eff 123e 8bb5 2200 5298 33bf 3c58 1cbd
000003d0: b4ba 493d 63a9 8f3d 3aaf 6a3d 6be3 1a80
000003e0: c0f6 343e 294e 1f3f e63e d1be 441e 563e
000003f0: 36f5 34bd 6500 733e 76d2 e23e a18e aebd
-0.31293246 -0.47796977 -0.20465533 -0.25657976 -1.2010624 0.09320436 -0.004952694 -0.15060335
1.533014e-39 -1.24332e-39 -2.855948e-26 -1.643221e-39 2.350745e-39 -1.3410291e-15 -1.329188e-39 -1.164092e-39
0.0066104587 -0.28821635 -0.24969895 -0.14612386 -0.31268728 0.07524718 0.008152025 -0.057037704
3.180813e-39 0.1470443 0.1696144 -3.180317e-39 4.72619e-40 -1.0147574e-07 -2.365288e-39 0.27084175
-0.041459117 -0.28037634 0.32795194 -0.8523796 -5.42542e-40 -0.18588093 -0.5436539 -0.08735644
0.13549358 0.3284879 0.3525859 0.08057997 0.44491506 0.30553868 0.16321768 0.24715361
0.118836306 -6.57418e-40 -0.7441828 0.20636664 -0.27808896 0.20797084 0.06604693 2.787473e-39
-4.936666e-13 0.09675127 0.008601808 -0.011706406 -1.318367e-39 -0.1702228 -1.817882 0.15499407
-0.0001506143 -0.039280847 -0.034180354 -0.00042277027 -3.897644e-25 -0.0062890067 -0.00047925836 -0.040572166
-0.250349 0.22145444 -0.1586669 0.2341816 -0.12768818 -0.0010440511 -0.026274905 -0.23321451
0.26647303 -9.89569e-40 -0.5974285 0.22605366 0.24002016 0.22473012 -0.09797037 -1.4605046e-21
-0.061272915 -0.8177331 -0.70671076 -0.1283206 -0.31880537 0.37306282 -0.24841206 -0.23275837
-0.022059707 0.37192985 0.123649865 0.38470212 -0.16314162 -0.040977005 0.35940576 0.25772536
-0.17134658 0.020125255 0.053908218 -0.1214882 -0.19840442 0.06319925 -0.09279942 -0.21509689
-0.18463068 -0.18460861 0.16704255 -0.6693803 -6.1236e-40 -0.24234651 -0.58115894 -0.102661476
-0.60889256 -0.112503305 0.32120943 -0.78809315 -6.56787e-40 -0.17824651 -0.640046 -0.35240316
-0.05138026 -0.09861577 -0.09182319 -0.38515502 0.08237896 0.19487596 0.38527313 0.13264771
0.32297465 4.0655962e-38 -1.0913141 0.28068307 0.0928597 0.19922082 0.13239677 1.7684e-41
-0.34353262 -3.0865707 -0.9382934 0.30586204 -0.71679026 0.15091492 0.18137045 8.33777e-40
-2.1699658e-09 6.402193e-17 3.6025497e-12 -7.425564e-08 -2.961696e-39 -0.00021649229 -6.389676e-08 -1.9493132e-09
-0.031096786 0.38130128 0.0035133106 -0.021008393 -0.16667435 -0.13561913 0.20962961 -0.39794365
-0.27207905 0.107551165 0.018430596 -0.93665296 7.997e-42 -0.35164064 -0.780168 -0.28614488
0.27233905 0.106264316 0.07899578 0.21861902 0.5563341 0.11967598 0.34120488 0.34914944
-8.36117e-40 -0.11787221 0.16147514 -0.6619891 3.530307e-39 -0.08245648 -0.9430052 0.14519219
-0.06875847 -0.14104278 0.16706054 -0.25611815 -0.43547988 0.25345555 -0.056672458 -0.23313484
-0.24044523 -0.38018337 0.0542281 0.032634795 0.21407843 0.16936302 0.030507 0.15167557
-0.17729762 -0.08223433 -0.08782272 0.039865922 -0.16743198 -0.041302968 0.103361264 -0.120187454
-0.024374634 -0.0014890323 -0.006663869 -0.030024901 5.9645172e-05 -0.040993012 -0.028450606 -0.0013981714
0.61231774 -7.84188e-40 6.9924547e-38 0.44398278 1.1410483 -0.16152708 0.1043109 -2.781095e-39
5.20301e-40 -0.13232082 -0.066657126 -6.97025e-40 -2.122957e-39 -2.1888416 -4.5273e-41 -0.7035856
0.14355299 3.187532e-39 -0.701543 -0.038170084 0.04925032 0.0701473 0.057296015 -2.469305e-39
0.17672253 0.6222864 -0.408683 0.20909983 -0.044179164 0.23730619 0.44301194 -0.08523298

decoder.2.bias f4 [32]
00000000: 3817 d03e 6b4b 55b5 96e6 ba3e 91d4 c6be
00000010: cdde 183f 4fe0 cdbe 6335 41be 0908 963d
00000020: f8a2 01bd 82f6 db3e ba41 81be 62f5 113e
00000030: 0be5 83be 81bd 093f 9649 383f a7ed f03e
00000040: 1f7a d13e 3778 0dbe 35e3 843e 5f7e f7b8
00000050: 82ab d43e 28bd ff3e be67 07bf a512 003e
00000060: c770 033f b898 e7bc 879b e63e b388 48bd
00000070: a641 56bf 787e 2e3e 2532 31bd 2078 253e
0.40642715 -7.945843e-07 0.36504048 -0.3883405 0.59714967 -0.40210196 -0.18868022 0.07325751
-0.03164956 0.42961508 -0.25245458 0.14253762 -0.25760683 0.53804785 0.71987283 0.47056314
0.40913484 -0.1381539 0.25954595 -0.00011801416 0.415371 0.49949002 -0.52892673 0.12507112
0.5134396 -0.028271064 0.45040533 -0.04895849 -0.8369392 0.17040431 -0.043260712 0.16159105

decoder.4.weight f4 [64, 32]
00000000: 7a1b bdbd 3573 0c00 f9ed 063e 8136 80bc
00000010: 7d3d 833e e697 8b3e bf41 6bbe d4ec a1bd
00000020: 992f 65bb bf0e 313e 5393 21be 0159 e83d
00000030: 533a 6c3e 2c16 be3e a952 813e 5711 e5bc
00000040: 82c3 e93d 83de aebe d5eb 08bf 5871 09ac
00000050: 1bbf 023f eb13 c63d 85f5 5b3e f49a 033d
00000060: 0c26 ae3e 1996 083e f228 bf3e e6e7 5e3c
00000070: 8ac2 1ac0 6793 2bbf 276a 77be 7eb4 0c3e
00000080: 8807 1d86 0d20 0e80 77b9 4709 7311 3c05
00000090: dcdd 1486 6f32 e7b0 0d13 c2af 4ad7 5184
000000a0: c955 1800 ef4a 1015 76c2 e2b0 1a00 8805
000000b0: 53e7 eaa8 fc5b 8f06 c731 a586 1c0c a204
000000c0: 4e22 5ab0 7c17 dbb4 259a bdac 52c6 0e00
000000d0: 36f7 3588 f916 2385 517d b3b3 a9a3 9e04
000000e0: 823f b613 2da5 d414 d6f1 df09 6d70 0280
000000f0: 0936 a2ac 58f5 f300 8bce 7fa4 2d7a ecb7
00000100: 8e0d 37be 4226 1880 7c53 89bc cdfd afbd
00000110: a3ce dabc bacc 193e dd64 9ebc 0918 babd
00000120: c89b 8c81 00f6 61be 5080 1cbd e948 553d
00000130: a16a 25be 61bb d0be 244d 0bbd edbc 0780
00000140: fe57 673d ea8d 3abd 69e7 fdbc 8ad4 1080
00000150: f3e1 04be b7b2 6dbc c115 333e 0e2c a1bd
00000160: 7875 34be a0ba 1fbd e7eb 06be 4a55 3014
00000170: 33ec afbd 5a13 2680 dd45 193e d014 02bb
00000180: 6ab6 20bb e85d 2300 6129 1dbc 5619 1eb3
00000190: 1104 cbbb d543 8dbc f1fe 1fbc 60d5 98b9
000001a0: 5067 1202 ac8e 8bbc 0f70 1ebc 83ba cbbb
000001b0: 7ecc 4fbc 26e4 82bc 35e4 21bc 39c9 02ba
000001c0: bc4b cebc 41bb 92bc 929e 86bc 0a13 0c80
000001d0: cb34 70bc be60 a3ba 2aca 3bbc 2c78 65b8
000001e0: 5f46 a8bc f5b2 80bb 1723 58bc 957b 1a00
000001f0: d4bc c4bb 6f4a 1000 e6ce 39bb 273e 05bd
00000200: 0105 b43e f75f 0880 99b2 733e b59a 1080
00000210: 3141 0ebf 6b75 37be 23d5 673e 2200 8bbd
00000220: e200 0cad b113 db3e 3ec4 ffbd d609 f33e
00000230: 725f 62bd 5652 743c 835a 06bf a294 febe
00000240: 268b f73d aa96 183d f09e 303e f076 2913
00000250: 2baa 4d3e 86d1 c4be e7c9 12be cdd7 33bf
00000260: 66fc e73d 7d16 643e 7dde 943e 5ce8 15bc
00000270: 94fa 50be 453a 0400 996a b63d 7d14 353e
00000280: 38b5 ba3e 54a5 0c80 e1e5 83be d045 0cbe
00000290: 39f9 02bd 6a26 44be 7de0 5abe afb1 19bd
000002a0: 5dc5 40bc 40da 5dbe b1bd d1be 4578 ffbe
000002b0: 6773 f1bd 3125 ca3e 1af7 143e b2d9 823d
000002c0: 8f9e f93d 674f dbbe e280 85bd 12e2 2180
000002d0: 374e 7dbe 813d 27be c064 a9be 5ced c6bd
000002e0: 3e48 f83c 88d9 153e b6fc 083e c86e 853b
000002f0: b709 2fb7 8216 ccbd 716e 34be 1560 1cbe
00000300: 6823 56bd 09ff 1100 3fa9 dd3b 3109 99be
00000310: b53e 85bd 3152 c7be 7d0c ec3d f549 d93c
00000320: 0d44 d736 9774 373e 482a db3d 56ef 5d3e
00000330: b1e7 12bf f2f1 513a 905b 8cbe a813 7abe
00000340: 7d1d 023e 9526 23bc 3396 37bf 8eb0 0c80
00000350: f0db e23d 5a89 66be 672b 903d 3858 8abe
00000360: b722 3fbd cc63 83be 6368 3a3e 4ad3 dbb4
00000370: 408a 9abc f4fb 4fbf 4a06 92bd 4818 eabd
00000380: b6f1 afbd d084 0b80 2d30 f53d 26a5 f439
00000390: 2455 17bf 35c0 b9bc 7535 713e c950 c4bd
000003a0: 2571 30ad f02b 613e 14f2 e63b 3497 e23d
000003b0: d48b e5bd 4b8e 5dbc 1f1e d3be a998 4cbf
000003c0: c352 9b3d 3613 2e3e 644f bb3e bbbf 1222
000003d0: e102 533e 72e3 58bf 924c 3bbe 5aec c8be
000003e0: 0e05 2e3d 4677 843d 27ed d13d dcb7 26bc
000003f0: 4d3c edbe e64d 013f e3c8 fb3d 2b8e 4b3e
-0.09233756 1.143354e-39 0.13176717 -0.01565099 0.2563285 0.27264327 -0.22974299 -0.079064995
-0.0034970997 0.17290781 -0.15778856 0.11345101 0.23069124 0.3712629 0.25258377 -0.02796237
0.11414243 -0.34154138 -0.5348485 -1.953179e-12 0.51072854 0.09671768 0.21480377 0.032130197
0.34013402 0.13338508 0.37335926 0.013605094 -2.4181237 -0.67021793 -0.24161588 0.13740727
-2.953395e-35 -1.297195e-39 2.4040959e-33 8.8429224e-36 -2.7998703e-35 -1.6821796e-09 -3.530193e-10 -2.4666688e-36
2.234826e-39 2.913968e-26 -1.6498933e-09 1.2789416e-35 -2.607954e-14 5.392578e-35 -6.2139243e-35 3.8097138e-36
-7.935669e-10 -4.0809016e-07 -5.3888166e-12 1.356841e-39 -5.47583e-34 -7.6684426e-36 -8.358132e-08 3.729592e-36
4.6005883e-27 2.147168e-26 5.391272e-33 -2.24002e-40 -4.610316e-12 2.2404038e-38 -5.546926e-17 -2.8190285e-05
-0.17876264 -2.217776e-39 -0.016763441 -0.085933305 -0.02670986 0.15019503 -0.019335205 -0.090866156
-5.1651413e-38 -0.22066498 -0.038208306 0.052071486 -0.16153957 -0.4076796 -0.034009114 -7.10622e-40
0.0564804 -0.045545496 -0.030994134 -1.545613e-39 -0.12976818 -0.014507941 0.17488767 -0.07869731
-0.17622936 -0.03899634 -0.13175927 8.9025495e-27 -0.08589973 -3.496691e-39 0.14968057 -0.001984883
-0.002452279 3.24793e-39 -0.009592385 -3.6810285e-08 -0.006195553 -0.017244259 -0.009765373 -0.00029150676
1.0756035e-37 -0.017035805 -0.009670272 -0.0062173023 -0.012683032 -0.01597793 -0.009881069 -0.0004989091
-0.025182597 -0.017911555 -0.016433034 -1.108856e-39 -0.014661024 -0.0012464745 -0.011461774 -5.4709773e-05
-0.020541368 -0.0039275833 -0.01319196 2.432056e-39 -0.0060039554 1.49607e-39 -0.002835208 -0.032529976
0.35160068 -7.6911e-40 0.23798598 -1.524866e-39 -0.55568224 -0.17915885 0.22639899 -0.06787135
-7.958275e-12 0.4278846 -0.12488602 0.47468442 -0.055266805 0.014912209 -0.5248186 -0.49722773
0.12087087 0.03725306 0.1724813 2.138944e-27 0.20084445 -0.38441104 -0.14334832 -0.7025116
0.11327438 0.22274204 0.29075995 -0.009149637 -0.20408088 3.88245e-40 0.08907051 0.17683597
0.36466384 -1.161335e-39 -0.2576132 -0.13698506 -0.03197596 -0.19155279 -0.21374698 -0.037522968
-0.011765805 -0.21665287 -0.40965036 -0.49896446 -0.117895894 0.394815 0.14547387 0.06389178
0.12188446 -0.42834017 -0.06518723 -3.11167e-39 -0.24736868 -0.16332056 -0.3308468 -0.097132415
0.030307885 0.14633763 0.13377652 0.004072044 -1.0433075e-05 -0.099652305 -0.17620255 -0.15271027
-0.05227986 1.652693e-39 0.0067645605 -0.29889825 -0.06506101 -0.38929895 0.115258195 0.026524523
6.4154215e-06 0.17915569 0.10701424 0.2167333 -0.57384783 0.000800877 -0.27413607 -0.24421561
0.12706561 -0.009957929 -0.7171356 -1.165362e-39 0.11077106 -0.22513333 0.07039528 -0.2702043
-0.046663966 -0.25662076 0.18203883 -4.0945662e-07 -0.01886475 -0.81243825 -0.07130106 -0.114304125
-0.085910246 -1.057835e-39 0.119720794 0.00046662352 -0.5911429 -0.02267466 0.23555548 -0.09585721
-1.0029565e-11 0.21989417 0.007047901 0.11063996 -0.11208311 -0.013522695 -0.41233918 -0.7992044
0.07584145 0.16999516 0.36584008 1.988819e-18 0.20606567 -0.84722054 -0.18290928 -0.39242822
0.04248529 0.06468062 0.10250311 -0.010175671 -0.46335068 0.5050949 0.122941755 0.19878452

decoder.4.bias f4 [64]
00000000: 39ea a13e 1f55 b6b4 521e 29be 1a5a 0bbd
00000010: 7f3c a63d f989 c13e 753e 113e 22d8 783d
00000020: e74b d79e 4d58 483e 84b7 493e c8e6 5dbd
00000030: cbc3 de3d 32c4 c93d 78d0 263d 0067 b33e
00000040: 5d2b aa3e b470 943e 27fd 103e b398 2fbf
00000050: 2ae3 683e 647c a58c 44a8 45bd 54e0 b43e
00000060: 8941 0ebe 44e3 2bbd fa15 d73e 83c6 3d10
00000070: 42db 7e3e 4e5d fcbc 7d75 733e daaf 7e3e
00000080: c635 733e 3dcc c93e 5490 1b3e 3c62 463e
00000090: 19b5 493e c267 ab3e 5549 353e 6ab3 ac3e
000000a0: f985 fa3a afbb a63e d1b5 bc3c b2da 3fbd
000000b0: ecd6 e83d 24e0 04be b65c e23e 3190 a8be
000000c0: bceb 123d 5d75 223e edb0 28bd eb0f 87ba
000000d0: a435 763c 0003 9bb9 863b b63e c8b1 f33d
000000e0: 83a5 6f3e 4f18 7a3e d22f 87bb a96b 4a3d
000000f0: 3579 0f3e 09a0 f2bb 2f2d ea3d d49d a5bd
0.3162401 -3.3962075e-07 -0.16515473 -0.034021474 0.081170075 0.37800577 0.14183982 0.060752995
-2.2795403e-20 0.19564934 0.19698912 -0.05417517 0.10877188 0.098518744 0.040726155 0.3503952
0.3323621 0.28992236 0.1415907 -0.68592376 0.22742906 -2.549714e-31 -0.048256174 0.353274
-0.13892187 -0.041964784 0.42008954 3.7426606e-29 0.24888328 -0.03080621 0.23775287 0.2487177
0.23750982 0.39413634 0.15191776 0.19373411 0.1969799 0.33477598 0.17703755 0.33730632
0.0019113413 0.32565066 0.023035916 -0.046839423 0.11369118 -0.12976128 0.44211358 -0.3292251
0.035869345 0.15865083 -0.041184355 -0.0010304427 0.015027437 -0.0002956614 0.35592288 0.118991435
0.23402981 0.24423335 -0.0041255737 0.04941908 0.1401108 -0.0074043316 0.11434399 -0.08086744
